UnityProject/results/testModel6/My Behavior/My Behavior-453612.pt (torch, 831479 bytes, 42 tensors)

network_body._body_endoder.seq_layers.0.weight f4 [128, 132]
000000 12 00 83 bc c7 2d f1 bb 6c a1 ce 3d 32 06 ed 3c
       -0.015991244 -0.0073601934 0.100893825 0.028933618
000010 cc 32 72 bd 76 85 7d 3d 04 ce 92 3d 2d 86 c8 3d
       -0.059130475 0.061894856 0.071682006 0.09791217
000020 61 61 a1 bd be 91 14 3e 34 55 80 3d f9 ab a6 bc
       -0.07879902 0.14508721 0.06266251 -0.020345675
000030 29 88 d3 3d 74 70 cf 3d ec c7 56 bc 2d 24 91 3d
       0.10328705 0.101288706 -0.0131091885 0.07086978
000040 dc a4 ed 3d ed 0f 0a be e4 fc 23 bc 40 90 da 3d
       0.1160371 -0.13482638 -0.010009024 0.10672045
000050 0c 1c 13 3d 42 68 80 3d fb 5d 3b 3e ce 27 30 3d
       0.03591542 0.062698856 0.1829757 0.04300671
000060 9d 2c 61 bd 4a a4 98 3d c0 55 1f be 16 cc ee 3d
       -0.054974187 0.07453211 -0.15560055 0.1166002
000070 95 dc 34 bd 82 52 bd bd 07 d2 6f 3d e2 94 69 bd
       -0.044155676 -0.09244253 0.058549907 -0.05702675
000080 70 11 da bd 0a e0 81 bd b6 49 8e 3d 9d 80 c5 bd
       -0.10647857 -0.0634156 0.06947653 -0.09643672
000090 83 c3 59 bd c7 fe 01 be 55 7a 7c bd f1 04 6f bd
       -0.05316497 -0.12694846 -0.061640102 -0.058354322
0000a0 a2 90 13 be 7e fe 26 be b5 31 80 3c 81 5f 1b be
       -0.14410642 -0.16308019 0.015648702 -0.1517315
0000b0 c8 52 bf bd ae e2 ad bd 7c 5c 62 bd 82 51 0a bd
       -0.09341961 -0.08490501 -0.05526398 -0.03376914
0000c0 44 7d 0f be 2c a1 00 be 63 b2 ad bc 22 e0 99 bc
       -0.14012629 -0.12561482 -0.021203225 -0.018783633
0000d0 8d 6b d3 bd c5 56 98 3b 1c 10 61 3e 76 b3 04 bd
       -0.10323248 0.0046490156 0.21978801 -0.03239771
0000e0 f4 d1 1a bd 3e 41 98 bd 48 9e dc 3d dc 03 f4 3d
       -0.037797883 -0.07434319 0.10772377 0.119147986
0000f0 45 18 92 bd a9 22 11 bd e2 81 73 bd d8 a4 79 be
       -0.07133535 -0.035433445 -0.059450038 -0.24379289
000100 cf 6e 67 3d 20 dd 85 3d 8a e5 4a 3d 8c 8b da 3c
       0.05650216 0.06536317 0.04953531 0.02667787
000110 76 b1 4f bd 6a fd c8 3d 01 ad 61 3e 51 49 74 bc
       -0.05070635 0.0981396 0.22038652 -0.014910058
000120 33 03 eb bd ae e6 b0 3d 00 48 b9 bc 05 f7 d4 3d
       -0.114752196 0.08637749 -0.02261734 0.10398678
000130 9b 78 d9 3d 79 79 b0 bd 45 ad be bd 28 13 ad 3d
       0.10618707 -0.08616919 -0.09310392 0.084509194
000140 2b 26 92 3d c4 05 8a bc e2 a3 81 3d e9 12 be 3c
       0.07136186 -0.016848452 0.06330086 0.023202376
000150 89 a8 ce 3d cb 24 8a 3b 03 d1 b9 3d 6b f4 aa bb
       0.10090739 0.004215812 0.09073069 -0.005217125
000160 12 52 04 be 15 f2 7b be 3a 4a a6 bc ae fa 2a bd
       -0.12921932 -0.24604066 -0.020299066 -0.041742973
000170 3c f6 49 3d 1b c2 97 bd 92 7b af 3d 10 cd 44 bd
       0.049307093 -0.074100696 0.08568491 -0.048047125
000180 0a 3a 33 3c cd a2 87 bd 5c 15 a3 3d 46 6b df 3c
       0.010939131 -0.06622849 0.07963058 0.027272832
000190 5c 30 0e bb 75 2e 0b 3d 54 1b a0 3d d6 e0 42 3d
       -0.0021696305 0.03397985 0.078177124 0.0475777
0001a0 4f 2f 37 3d bf 1c 0f 3d 25 a3 07 be e9 ef 8c bc
       0.04472285 0.034939524 -0.13245828 -0.017204242
0001b0 c4 0f d6 bd ae e5 2f 3d 6d 66 7a 3b b3 e7 88 bb
       -0.10452226 0.04294365 0.0038208023 -0.0041780113
0001c0 e4 a9 08 bd 74 a8 6f 3c b0 7f 52 3e 01 d0 51 bd
       -0.033365145 0.014627565 0.20556521 -0.05122376
0001d0 1c d7 94 bd 85 30 c8 3d 0c 56 bc 3d a2 b8 03 be
       -0.07267591 0.09774879 0.091961 -0.128634
0001e0 bf 39 16 3e b1 71 f1 3d 6c 30 39 bd 5c 3e 42 bd
       0.14670466 0.11789263 -0.045212194 -0.04742275
0001f0 f1 6c 29 bc b6 6c 3f 3d e2 e3 11 be e8 c6 59 bd
       -0.010340915 0.046734534 -0.14247087 -0.053168207
000200 43 7c 46 3d 48 c6 2d bd 8a 62 b5 3d ce d1 dd bb
       0.04845835 -0.042425424 0.088566855 -0.0067693954
000210 56 28 28 3b f5 9e 99 bd e6 69 5d 3c 2e 7b 92 3d
       0.0025658808 -0.07501022 0.013514018 0.07152401
000220 da ba 73 3d 38 72 66 3c b3 38 90 3e 94 65 84 3d
       0.059504367 0.014065318 0.28168258 0.06464687
000230 1d 34 08 bc 2e 6e b4 bd ff 05 65 bb 91 f4 77 bd
       -0.008313206 -0.088100776 -0.00349462 -0.06053597
000240 08 eb 0f 3d 2d aa 09 3c 2c 49 9a bc ab 4a 8c bb
       0.035136253 0.0084023895 -0.01883372 -0.004281362
000250 22 26 9a 3d b6 f5 3b 3e da 41 0a 3d 89 d6 c9 3c
       0.075268045 0.1835545 0.033754207 0.024638431
000260 a3 b1 ac bd 1b f2 30 bd 9a 9b 5e bb 22 e5 e4 bc
       -0.08432319 -0.04319964 -0.0033967257 -0.02794129
000270 91 80 23 be 0c 4e 4f bd 96 1d b5 bc 24 2f b1 bc
       -0.15967013 -0.05061154 -0.022108834 -0.021628924
000280 ff b9 ee 3a c1 cf b6 3c 15 40 6f bc 18 36 d7 3c
       0.001821339 0.022315862 -0.014602681 0.026270911
000290 a9 e1 c0 3c 24 52 5a bd 0f b8 15 3d 7e fc c2 3c
       0.023545103 -0.05330099 0.036552485 0.023802038
0002a0 42 f8 3c be 82 b4 2a 3d 2a b7 c8 3b e3 09 2f bc
       -0.18454078 0.041676052 0.0061253505 -0.0106835095
0002b0 5f 92 a3 bd 9b b1 37 bd 9c 2a aa bd a2 91 89 bc
       -0.079869024 -0.044847112 -0.08308908 -0.016793076
0002c0 08 17 8f 3c fa 7d 09 3e 0c 8d cc bc f3 88 a9 3d
       0.017467037 0.13426962 -0.0249696 0.08278074
0002d0 8c 19 c7 bd 96 db 08 3d 56 89 5f be b8 e1 82 3d
       -0.097216696 0.03341254 -0.21829733 0.06390709
0002e0 2b 61 be 3d 6c 28 b1 bd 37 fa 38 3d 38 ff 3c bd
       0.09295877 -0.08650288 0.0451605 -0.046141833
0002f0 83 59 ff bb 3e 54 14 bd d7 4b 22 3d 26 5d 3f bb
       -0.007792653 -0.036213152 0.039623108 -0.0029199808
000300 8d f5 2b bd 50 1d e4 3c 2b 1a 83 3d 05 cb 8f bc
       -0.041982222 0.027846009 0.064014755 -0.017552862
000310 24 f6 b5 3c a0 0a c0 bd 41 2f b7 bc b2 0a 42 3e
       0.022212096 -0.093770266 -0.0223614 0.18949392
000320 c4 3c 22 bd 18 f6 92 3d 2b 67 32 3d a8 e0 ab 3d
       -0.039608732 0.07175845 0.04355542 0.08392459
000330 a8 17 ae 3d ae cd af bd 97 dc ba 3d c3 fb b7 3c
       0.08500606 -0.08584152 0.091241054 0.022458917
000340 c9 9e b3 3d b7 a8 e0 3d ef 17 c6 3c 62 d2 70 bd
       0.0877052 0.1096968 0.024181334 -0.058794387
000350 27 5d df 3d 22 16 48 3d 93 e1 a2 3d b1 c9 dd 3d
       0.10906439 0.048849232 0.07953181 0.10829485
000360 96 d3 29 3d 3d 35 9c bd 3a f7 e3 3d b4 18 83 bd
       0.04146155 -0.07627342 0.11131139 -0.06401196
000370 b7 95 72 bd d4 15 ab 3d 8c 44 34 3d 3e d5 35 bd
       -0.05922481 0.08353773 0.044010684 -0.044392817
000380 12 8c 64 3e 02 50 35 be ab f5 23 3d a4 39 4a bb
       0.22319058 -0.17706302 0.04002921 -0.003085711
000390 d6 67 c3 bc f1 ff 35 3e 3c 7f c4 bc 23 6d 45 3d
       -0.023853224 0.17773415 -0.023986451 0.048199784
0003a0 de b2 fc bd 07 16 a8 3a 2a 2f eb 3c 81 45 d1 3d
       -0.12338804 0.0012823947 0.028709013 0.10218335
0003b0 6d 21 be 3d 27 2c 02 bd 25 2a 2f be 59 cb 2a 3b
       0.09283719 -0.03178039 -0.1710592 0.0026061146
0003c0 39 c1 44 3c 5b 53 25 bd 42 7e aa bb 44 19 f4 3c
       0.0120089585 -0.040362697 -0.0052030394 0.029797204
0003d0 ae f5 87 3d 5c de 1c 3d 59 50 e4 3d 37 ba 16 3e
       0.066386566 0.038297996 0.111481376 0.14719473
0003e0 ce d6 6a 3d 3e 1f ba bd 72 46 9e bd 48 36 b6 3d
       0.05733376 -0.0908799 -0.0772828 0.08897072
0003f0 87 78 25 be d5 1a 9f 3c bd eb 69 bc fc 66 8d 3d
       -0.16159259 0.019421974 -0.014277396 0.06904408

network_body._body_endoder.seq_layers.0.bias f4 [128]
000000 ed ff 86 bb 38 43 6d bb 51 a9 d2 bb 25 34 49 3c
       -0.004119864 -0.0036203396 -0.0064288755 0.012280499
000010 3e 78 4f bc 5f b6 52 3b c8 88 70 3c 0f 17 e5 ba
       -0.012662945 0.0032152159 0.014681049 -0.0017478185
000020 a8 81 13 bc fc cd 34 3c 40 ee 59 bc 4b f0 97 3b
       -0.00900308 0.011035439 -0.013301432 0.0046367995
000030 d9 7f 04 bc 9d 21 f8 3b ec 08 9f 3c e1 ca 20 3b
       -0.008087122 0.0075723664 0.019413434 0.0024534988
000040 fd e7 ca bb d1 b1 88 3b a4 71 26 3c b6 2b 48 3c
       -0.006192206 0.004171588 0.01015893 0.012217453
000050 8f 0f 4c 3c 81 53 c6 3a fa 5e af ba f0 5d f1 3a
       0.012454881 0.0015131087 -0.0013379746 0.0018414836
000060 70 43 ad bb f8 d9 2d bc 0b c2 68 3b c4 ca 36 bc
       -0.00528758 -0.01061105 0.003551605 -0.0111567415
000070 f5 cc 8b 38 19 d7 f2 bb 99 42 fe 3a 21 4f 19 3c
       6.666213e-05 -0.0074108955 0.001939851 0.009357245
000080 b0 48 87 3b 3d 2a ed 3a ce 86 a6 3a 96 d6 10 bc
       0.004128538 0.0018094253 0.001270497 -0.008840224
000090 f5 56 25 3c 12 b6 5c 3a b3 92 97 bc 64 bf 64 bc
       0.010091533 0.00084194646 -0.018502569 -0.013961647
0000a0 68 1b 72 3a 3b a3 37 bc d1 eb 9b bb 68 62 b6 bb
       0.0009235651 -0.011208351 -0.004758336 -0.00556593
0000b0 99 85 12 bb 2a b3 93 3c e7 42 6c bc 60 c0 a2 3b
       -0.0022357462 0.018029768 -0.014420248 0.0049667805
0000c0 7a 59 be 3b 5a 87 26 3b ce a1 7a bc 34 c8 50 bb
       0.0058090063 0.0025410266 -0.015297366 -0.0031857612
0000d0 63 1d a2 3b 1b e4 19 bc 8a e3 0a 3c db 25 9f 3b
       0.004947351 -0.0093927635 0.008477101 0.0048568076
0000e0 c4 22 0e bb e3 7d 90 39 72 e4 92 bb bf b5 80 3b
       -0.0021688202 0.00027559613 -0.004482799 0.003927916
0000f0 e5 11 d1 bb 87 4f d0 39 26 d1 0b bb 44 8c a9 3b
       -0.006380307 0.00039732104 -0.002133438 0.0051741917
000100 bc 5b 56 bc c6 fb d6 3b 50 08 2b bc a4 91 fc b9
       -0.013083395 0.0065607755 -0.010438994 -0.00048173696
000110 56 6f 9a 3b c5 1d a2 bc 9f 91 1c 3c a4 8d 23 bb
       0.0047129793 -0.019789586 0.009556203 -0.002495625
000120 26 0a 0f bc d3 2e 35 bc 33 b1 8e bb 9a 5f 22 bc
       -0.008730447 -0.011058527 -0.00435462 -0.0099104885
000130 fc cd 16 3c 9a 2c 51 3b 43 38 ec 3b 83 a5 fb bb
       0.009204384 0.0031917454 0.0072088554 -0.0076796426
000140 cb 1f 54 bb e3 62 39 bb c6 b0 31 3b 04 27 80 bc
       -0.0032367583 -0.00282877 0.0027113422 -0.015643604
000150 7e 14 66 ba 56 8d 94 3a 6e 64 ef 3b 3f e1 01 3b
       -0.0008776857 0.0011333625 0.0073056733 0.0019818095
000160 58 0f 8e ba e3 a0 a8 bb bb 24 15 3b fb b4 9a 3b
       -0.0010838313 -0.0051461323 0.0022757489 0.0047212816
000170 dc c0 16 3c d7 fc 3a bc 02 22 be 3b 3a ec 31 3c
       0.009201255 -0.011412821 0.005802394 0.010859543
000180 a6 58 e9 3b 4c 94 ec bb 81 89 94 3c af a0 dd ba
       0.0071211634 -0.007219827 0.018131973 -0.0016908849
000190 b2 6a 76 3c ba 1f f0 3a d9 ad ff bb 27 9e 85 bc
       0.015040087 0.0018320002 -0.0078027067 -0.016310764
0001a0 90 f4 0c 3c de 6a eb 3b 7c fe 8c bb 8b 63 a4 3b
       0.00860323 0.0071843704 -0.004302798 0.0050167493
0001b0 76 e9 41 bc 43 45 bc 3b 27 0a 57 3b f0 f2 bb bb
       -0.011835447 0.0057455613 0.0032812448 -0.0057357475
0001c0 f3 37 97 3b 8b 4a 17 bc 6e 23 61 3a 56 05 91 ba
       0.004614824 -0.009234081 0.0008588348 -0.0011064212
0001d0 71 05 ad ba 49 26 30 bc 24 4c 01 ba b7 d4 c3 3a
       -0.0013200474 -0.010751315 -0.00049323053 0.0014940713
0001e0 15 c2 9f 3b a0 55 83 3c 08 3d 8d bb a5 22 80 3c
       0.0048754313 0.01603204 -0.004310254 0.01564152
0001f0 95 b9 37 3c 00 37 59 3c 14 28 62 3b 0f d9 87 3c
       0.01121368 0.013257742 0.0034508752 0.016582994

network_body._body_endoder.seq_layers.2.weight f4 [128, 128]
000000 21 5a 1f be 36 3e 94 bb d6 2d fd 3b 55 f3 d6 3d
       -0.15561725 -0.0045240177 0.0077264113 0.10495631
000010 6d 6e 61 3c 46 6e 90 3d dc 83 a7 3d 99 c7 5b bd
       0.013759238 0.07052283 0.08179447 -0.053657148
000020 4e 91 82 3c a6 6d 17 bd 4d a5 e2 3d 50 57 cb ba
       0.015938427 -0.036969803 0.11066685 -0.0015513692
000030 6d b8 34 3d cc 91 83 3b 6d 6c 30 be 7b d5 ca bd
       0.044121195 0.004015183 -0.17228861 -0.099039994
000040 40 b0 9c 3c ef 37 81 bc b8 f6 c1 bd 08 1c f9 bd
       0.019127011 -0.015773742 -0.09470886 -0.1216355
000050 f4 50 e6 bd f7 84 21 3d e8 3b 8d bd 7b 2f 48 bc
       -0.11245909 0.039433446 -0.06896192 -0.0122183515
000060 95 ba e7 3d 0c 47 b5 bc ff 82 ea bc 59 86 e2 3d
       0.113148846 -0.022128604 -0.028626917 0.11060781
000070 99 b8 0b bd 65 56 39 bc 79 f9 90 3b f1 e2 71 be
       -0.034111593 -0.011312102 0.0044242707 -0.23621728
000080 49 53 dd bc 1a 2f 52 3d c7 8c c0 3d 63 94 87 3d
       -0.027017253 0.05131445 0.09401851 0.066200994
000090 b3 d7 b7 3d 42 35 f2 bd 95 4a 11 bc 91 87 f3 bd
       0.08976688 -0.11826564 -0.008867879 -0.118910916
0000a0 5b bf e1 bd fb e0 ba bd da f0 da bc 83 86 d5 3b
       -0.11022826 -0.09124943 -0.026726175 0.006516279
0000b0 98 be 48 3d ad fe 8d 3d 60 dc c9 3d 19 26 b8 bd
       0.04900989 0.06933341 0.09856486 -0.089916416
0000c0 85 7c 58 3d 5f 6d f9 3c 7d 59 81 3d e1 06 9c 3b
       0.052853126 0.03044766 0.06315897 0.004761562
0000d0 c5 e8 01 3e 17 ae 91 bd da be dd 3d 01 35 50 3e
       0.12686451 -0.07113283 0.10827418 0.2033272
0000e0 3e 39 ca bc bf 85 23 3d 06 4b 5f 3b 00 d2 32 3d
       -0.024685498 0.039922472 0.0034071817 0.043657303
0000f0 6a f2 72 bd 5d 5c 55 bd af b7 8d 3d 4d a4 18 be
       -0.059313215 -0.052090038 0.069198005 -0.14906426
000100 76 4e ba bb a4 b7 34 3d 38 90 8f 3d 62 dc 99 bd
       -0.005685623 0.044120446 0.070099294 -0.07512738
000110 92 95 b0 bd 87 67 20 be ae 96 a5 bd b4 8b 65 bd
       -0.08622278 -0.15664493 -0.080853805 -0.056041434
000120 a7 df 8c bd 39 3c cb 3d 21 b0 19 3e 68 21 af bc
       -0.06878596 0.09923596 0.15008594 -0.021378234
000130 b3 af f4 3d d8 4c a3 3d 7a 46 67 be 7e 81 af bc
       0.119475745 0.07973641 -0.22585478 -0.021424051
000140 ea ad 02 bb a9 b9 3c be ca 1b 9f 3b dd 73 fa 3c
       -0.0019940087 -0.18430199 0.0048556076 0.030572826
000150 0e 2f 1c 3d 1f 55 db 3d 50 73 49 be d9 42 7d bd
       0.038130812 0.10709595 -0.19672894 -0.06183133
000160 e7 a5 36 3d e1 e4 b8 bd dc b6 05 bd 2c e6 84 3d
       0.04459181 -0.0902803 -0.03264509 0.06489214
000170 b1 73 db 3d fc 38 fe bd 87 b3 06 3d 23 42 45 3d
       0.10715426 -0.12413213 0.032886054 0.048158776
000180 2f 3a ee bc 35 4f 0b 3e 85 44 8e bb 23 a0 79 bd
       -0.029080478 0.13604434 -0.0043416643 -0.060943734
000190 5c 6e bd bd be a0 56 bc 42 7f 74 3e 95 59 a8 bb
       -0.09249565 -0.013099847 0.2387667 -0.005137632
0001a0 83 53 11 bd a0 a9 76 3d 5f 3d 71 3d a6 52 06 3e
       -0.035480034 0.06022036 0.05889642 0.13117465
0001b0 8a 8e 39 3d 2a 25 31 3b f0 e8 a1 bd 3e 7e 53 bd
       0.04530195 0.0027030208 -0.079057574 -0.051634066
0001c0 3a 44 59 bd 6b 44 21 be 0d c9 9f bd 90 9f ad bd
       -0.05304358 -0.15748756 -0.07802019 -0.084777
0001d0 0a 3c c4 bd 1e ce bb bc 47 3f e4 bc ad 6e 7d bd
       -0.09581764 -0.022925433 -0.027862204 -0.061873127
0001e0 f5 f5 93 bd c6 ac 4f be aa e8 f0 bd f7 da ad 3c
       -0.07224647 -0.20280752 -0.11763127 0.021222575
0001f0 f5 c6 d7 bd dd 69 03 be 6e b0 8f bc e0 ca 8f bc
       -0.10535995 -0.12833352 -0.017540183 -0.017552793
000200 c7 12 b9 3d 93 70 c5 3c c4 15 67 bd 08 aa 38 3d
       0.090367846 0.024101531 -0.05641724 0.04508403
000210 80 60 50 3d f2 85 9f 3c f2 2e 55 bb 1d 6f ce bb
       0.05087328 0.01947305 -0.0032529202 -0.006299867
000220 90 62 92 bd 59 b7 32 3e d2 f6 8f 3d 2a 93 b3 bd
       -0.071477056 0.17452754 0.07029499 -0.08768304
000230 88 78 4f 3e 8b 29 7a bd d0 55 9d bd 78 91 97 3d
       0.20260823 -0.061074775 -0.07682383 0.07400793
000240 a6 69 06 bd a0 64 ea bd b6 53 9f bc 70 7f 83 bc
       -0.032815598 -0.11444974 -0.019449096 -0.016051978
000250 05 83 33 3e c9 bd c7 3c c8 f8 17 3d f4 64 a5 3c
       0.17530449 0.024382489 0.03710249 0.02018974
000260 56 24 27 be 20 15 4e be 5d 88 05 3d 16 5b 66 3d
       -0.16322455 -0.20125246 0.03260075 0.05623921
000270 1d 23 9f bc 0e da 32 3e 69 05 23 be d8 fa 2c 3e
       -0.019425923 0.17465994 -0.15920033 0.16892564
000280 e8 f0 16 3e 88 f3 20 bc d5 26 12 3c b9 ac 9d bc
       0.14740336 -0.009823687 0.008920391 -0.0192474
000290 07 51 4a bc 88 8e a3 bb 30 45 21 bd 99 ef 58 be
       -0.01234842 -0.0049913563 -0.039372623 -0.21185149
0002a0 eb 55 6c bd f0 98 f4 bc d8 8f f2 3c 16 ac c1 bc
       -0.057699125 -0.029858083 0.029609606 -0.023641627
0002b0 16 f8 2b bd dd af 1f 3c f1 a8 65 3d 3c 39 93 3d
       -0.04198464 0.009746519 0.05606932 0.07188651
0002c0 9d 86 ab bd df 9f c6 3d d9 7c 48 bd 8c e7 08 3d
       -0.08375285 0.09698462 -0.04894719 0.033423945
0002d0 f7 d1 6e 3d 8c bd 06 3e 84 66 6c 3d c5 0a dd 3d
       0.058305707 0.13158244 0.057714954 0.1079307
0002e0 57 41 bc 3d 5a a1 22 bd 95 54 c9 3b 29 d3 c2 bc
       0.0919215 -0.039704658 0.006144116 -0.02378233
0002f0 48 00 ea bd 22 8c 44 bd b9 f9 69 be b6 2e 69 bd
       -0.11425835 -0.047985204 -0.22849168 -0.056929313
000300 9f ec de bd 40 37 e9 bc 88 0a 09 3d 31 4a aa 3c
       -0.10884976 -0.028468728 0.03345731 0.02078733
000310 5e 6e 74 bd 09 15 01 3d f2 19 4a 3d 17 21 f8 bd
       -0.059675567 0.0315142 0.04934115 -0.121156864
000320 fe b8 e0 bd 24 75 06 be 8b 8f 25 be cf fc 3c bd
       -0.109727845 -0.13130623 -0.16168039 -0.046139535
000330 43 6c 20 3e 2d b7 32 be b0 ac 00 be 18 7e 8b 3d
       0.15666299 -0.17452689 -0.12565875 0.0681116
000340 12 fd 89 3d 45 92 02 3e 0d ed 73 bd d3 76 84 bd
       0.067377225 0.1275111 -0.05955224 -0.064679764
000350 51 ba bb 3d c0 34 08 bd e2 89 89 bd 5a cb 97 3d
       0.091663964 -0.03325343 -0.06715752 0.07411833
000360 31 77 81 3d bd d7 09 bc 91 25 f4 3c 90 1e 1b bd
       0.06321562 -0.008413252 0.02980307 -0.037870944
000370 4f 0d 20 bc af af 0f 3e d1 f4 fc bd 33 a7 dc bb
       -0.009768798 0.14031862 -0.123513825 -0.006733799
000380 91 55 64 3e ad 74 d0 bd d3 95 d3 bc d7 71 ac bc
       0.22298266 -0.10178504 -0.025828278 -0.021050377
000390 56 77 8f 3d 7d 06 68 bc 8b f2 9f bc 15 d1 e1 bd
       0.070051834 -0.014161703 -0.019524833 -0.11026207
0003a0 50 fb 04 3c 21 e7 31 3d 9f 27 72 bc 90 09 24 bd
       0.008116558 0.043433312 -0.014779954 -0.040048182
0003b0 a1 f4 25 bd 08 7e 20 3e b7 50 cd bd a0 97 86 3c
       -0.0405165 0.15673077 -0.10025161 0.016429722
0003c0 9a 31 ef bd 2b 7a af bd ed 54 15 bd a5 f6 e3 3d
       -0.116793826 -0.085682236 -0.036457945 0.11131028
0003d0 79 77 90 3d 73 18 d5 3d 9f 0d ec 3c aa 38 98 bd
       0.070540376 0.10405054 0.028815089 -0.07432683
0003e0 51 2a 58 3d 1f e1 3a bc 5a 71 a2 3d 40 d1 79 bb
       0.05277473 -0.011406212 0.07931776 -0.0038119107
0003f0 ee f2 c5 3d 13 9e 77 bc 6c 87 c5 3d 58 9a 71 bd
       0.09665476 -0.015113371 0.0964497 -0.058985084

network_body._body_endoder.seq_layers.2.bias f4 [128]
000000 a1 e2 71 bc f7 c0 fb bb be 16 96 3a ca d2 30 3c
       -0.014763505 -0.0076829153 0.001145087 0.0107924435
000010 e1 0f 57 3c cf f2 12 bb 10 27 ef ba b3 11 5d bc
       0.013126344 -0.0022422557 -0.0018245894 -0.013492989
000020 f6 f2 5c 3c 18 9d c0 3b 14 42 c0 bc 03 8e d8 3a
       0.013485661 0.005878102 -0.023469009 0.0016521815
000030 02 06 dd ba 9c 29 38 bc f3 48 5d bc 12 07 8a 3c
       -0.0016862752 -0.011240389 -0.013506162 0.016849075
000040 e2 ea 51 bc 64 34 30 bc 03 e5 53 bc 64 e2 0c bb
       -0.012812348 -0.010754678 -0.012933019 -0.0021497244
000050 ea 48 69 bb a6 64 05 bc 9c 75 1b 3c 5f e3 1a bc
       -0.0035596439 -0.008141672 0.0094884895 -0.009453624
000060 3d d8 13 bb 0e db 02 3c b1 f2 83 3c d2 ff 22 3b
       -0.0022559308 0.007986797 0.016106935 0.002487172
000070 28 55 88 bc 32 d2 56 bc 27 98 50 3c f9 39 2c bc
       -0.016642168 -0.013111638 0.012731588 -0.010511869
000080 67 23 57 3c 91 3e 12 bc d6 21 cf bb fb 09 de bb
       0.013130999 -0.00892605 -0.006321172 -0.006776092
000090 58 d5 80 bc 65 3b 6e 3c 49 e1 42 bc ed ae 89 bc
       -0.01572673 0.014540528 -0.0118945325 -0.016807044
0000a0 fe ff 7f 3b 96 28 a0 39 30 ac 05 38 d1 a1 38 3b
       0.0039062495 0.00030547817 3.1870033e-05 0.0028172622
0000b0 30 b6 90 bb dd bb 51 bb 01 1a ce 3b d7 39 1d 3c
       -0.0044162497 -0.0032002844 0.006289721 0.00959631
0000c0 9c 91 4a bc 61 b6 28 bb 10 9b 2c bc d5 29 c4 3b
       -0.012363818 -0.0025743472 -0.010535017 0.005986432
0000d0 88 a9 70 3c 3a d3 fe 3b 7e 3b a8 39 cb 6f 39 bc
       0.014688857 0.007776645 0.00032087782 -0.011318157
0000e0 bd b8 72 b9 7e 31 7a bc 65 29 c3 3b 3b 04 ed 3b
       -0.00023147739 -0.015270589 0.0059558623 0.0072331703
0000f0 0e 15 54 bc 7a c8 73 3b b2 cc 80 b8 ca ba bc bb
       -0.012944473 0.003719835 -6.141643e-05 -0.0057595717
000100 9d 01 68 bb 40 fd 9f bb b2 2a ca 3b 60 ca c0 bb
       -0.0035401352 -0.0048824847 0.0061696405 -0.0058835
000110 24 3c 01 bc 04 0f 26 3c 9f c0 71 3c ab 32 6b 3c
       -0.007887874 0.010135416 0.014755397 0.014355342
000120 0d 47 52 3c f6 41 51 3c ef bf 36 3b de 5d fa 3a
       0.012834323 0.012772074 0.0027885397 0.0019101461
000130 ed c6 0d bc 2d a1 bd 3c 47 ff 02 3b 3e ea a5 bc
       -0.008653385 0.023148144 0.0019988583 -0.020253297
000140 9a 09 a6 3a 5e 85 f6 3b 1e 7a 10 ba 64 ce 82 3c
       0.0012667656 0.007523223 -0.0005511361 0.015967555
000150 08 02 8e 3c 52 7e 30 bc e6 5f c5 bb da aa c5 3a
       0.017334953 -0.010772305 -0.006023395 0.0015080825
000160 21 e0 38 bc 37 47 40 bc ae da ee 3b 7d fb 69 3b
       -0.011283905 -0.011735729 0.0072892522 0.0035702877
000170 3a 74 0a 3b a3 62 81 3b f1 28 54 bc 35 e0 41 3c
       0.0021126405 0.003948526 -0.012949214 0.01183324
000180 f4 6b 2b 3b c2 36 c5 bb f7 ff 71 3c b9 d0 1b bc
       0.0026156874 -0.0060184905 0.014770499 -0.009510213
000190 33 47 86 ba 95 c4 0b bc 92 e4 3b 3c 95 86 0f 3c
       -0.0010244608 -0.0085307555 0.01146807 0.008760114
0001a0 98 ad be ba 21 01 21 3c 05 fa c9 3a 5d 46 7c 39
       -0.0014547585 0.009826929 0.0015409595 0.00024058805
0001b0 a3 03 1f 3b e8 94 97 3b 76 dc a6 ba db cd 92 bb
       0.0024263642 0.0046259053 -0.0012730497 -0.0044801063
0001c0 71 a6 62 bc 87 af fc 3b 88 25 47 3c 8d 90 1d 3b
       -0.013833628 0.007711354 0.012154944 0.0024042458
0001d0 d7 11 1f 3c 43 c9 0f 3b 93 85 50 3a b8 63 6d bc
       0.009708843 0.002194003 0.00079544744 -0.014489107
0001e0 3b 60 90 3b 4b ef cd bb 43 76 2e bc 95 67 4c bc
       0.004406003 -0.0062846295 -0.010648313 -0.012475868
0001f0 54 be 52 3c 3a 5b 8a 3c 70 8d 12 3c b2 ac 21 bc
       0.012862761 0.016889203 0.008944854 -0.009867834

action_model._continuous_distribution.log_sigma f4 [1, 2]
000000 c7 d0 11 bd 65 54 ba bd
       -0.035599496 -0.09098128

action_model._continuous_distribution.mu.weight f4 [2, 128]
000000 8e a5 85 bb e7 a6 b5 bb a9 a9 df 3b 27 1c fb 3c
       -0.0040785735 -0.005543578 0.006825645 0.030653073
000010 7f 78 29 3c 56 d1 f4 3c 2f ce 36 3b 64 07 80 bc
       0.01034367 0.029884975 0.002789389 -0.015628524
000020 10 20 70 bb 6d f6 db 3a a1 45 84 bc 09 46 ff 3c
       -0.0036640204 0.0016781815 -0.016146483 0.031161325
000030 4c 3b 94 3c 6d 82 2a bc 7c 38 34 3b a5 ed 41 3c
       0.018094681 -0.0104070725 0.0027499488 0.011836444
000040 56 0c 1b bd 4c 83 7d bc 1e 86 81 3b c2 1f 41 bc
       -0.03785356 -0.015473198 0.0039527556 -0.011787357
000050 f3 8e 83 bc c5 d5 08 3c 40 72 67 3c 35 85 68 3b
       -0.016059374 0.008351748 0.01412636 0.0035479788
000060 0a 8d 38 3c 43 ea 0e 3b 60 86 0b 3c cb 06 ee bb
       0.011264095 0.0021807111 0.008515924 -0.0072639934
000070 9e 15 45 bc 8c fc 3b 3a 76 ea 79 bc c7 bd 0c bc
       -0.01202908 0.00071711163 -0.015253654 -0.008590168
000080 e6 09 0e bc 86 9c 26 3c 66 89 96 bc be f0 b4 bc
       -0.008669352 0.010169154 -0.018376064 -0.022087451
000090 e8 e9 bd bc f8 01 87 3b 7f df 67 bc 32 1c 1e bc
       -0.023182824 0.0041201077 -0.014152407 -0.009650277
0000a0 f1 d6 35 3c d3 0d f4 bc f3 21 bd bc a7 0f 6a bd
       0.011098609 -0.029791748 -0.023087477 -0.057143833
0000b0 56 52 71 bd 63 07 c2 bb bd c4 2d 3d de 2f ca 3c
       -0.058916412 -0.0059212907 0.042423952 0.024681028
0000c0 69 d7 a7 bc 52 8d a1 3c 4c 51 ce bb 77 f6 8c 3b
       -0.020488458 0.019720707 -0.0062963124 0.004301842
0000d0 50 58 55 3c ab c8 08 3d f0 50 c8 3c fe 13 87 bc
       0.013021544 0.033394497 0.024452657 -0.016489025
0000e0 e9 dc 04 3d 01 9d b2 bb 71 af e7 3c 20 71 dc b9
       0.03243724 -0.005450845 0.0282819 -0.00042045955
0000f0 bf ba 85 3b 67 29 4c bc e5 f0 c1 3c c3 92 ce bc
       0.0040810998 -0.012461043 0.023674438 -0.025216466
000100 1f 78 32 3d af 9c 8a 3a 07 e1 65 3c d8 4b a8 ba
       0.043571588 0.001057526 0.0140307015 -0.0012839986
000110 87 d5 01 bd 3a 89 77 3c f8 0d 4a 3c 27 e0 f9 3b
       -0.031697776 0.015108401 0.012332432 0.007625598
000120 e3 56 63 bb 4d 27 89 3b 3d ae 09 3c f6 69 5d 3b
       -0.003468924 0.004185593 0.008403358 0.0033785081
000130 f3 24 b0 bc ee ad d3 3c cb 0b c0 3b b1 fe 07 bd
       -0.021501994 0.025839772 0.005860781 -0.033201877
000140 ed 4e 21 bc 4c 13 ab 3b c1 41 11 3d 2b ed 5d 3b
       -0.0098454775 0.005220806 0.0354631 0.0033863287
000150 91 9e 4d bc 2b 3e ac 3a a5 ac cc 3a 33 aa 9c bc
       -0.012550012 0.0013141086 0.0015615417 -0.019124126
000160 9d 35 6f 3c 19 61 82 b7 c7 0e ad 3c 48 0a 47 bd
       0.014600185 -1.5542422e-05 0.02112521 -0.04859379
000170 97 98 c6 3c 12 fb 7f 3c 6d 52 33 ba 04 ee 2d 3c
       0.024242682 0.015623825 -0.00068405905 0.010615829
000180 97 b1 a1 39 a6 90 c9 bc 8d b1 2c 3c 65 ed 34 3c
       0.00030840628 -0.024605107 0.010540378 0.011042927
000190 5c a2 e5 3c 96 06 cf bc c2 c0 13 3c aa 32 8a bc
       0.02803152 -0.025271695 0.009018125 -0.016869862
0001a0 61 c6 9f 3c ac 53 56 3c 6b 7e d4 3c 46 9f 65 3c
       0.019503774 0.013081472 0.025939187 0.0140150245
0001b0 bc 4c ad bc a4 90 94 bc 51 13 50 3c 05 3f d3 3c
       -0.021154754 -0.018135376 0.012699918 0.025786886
0001c0 00 18 35 bb 1e 40 8c bc 9a fd 89 bc bf 87 1a 3c
       -0.0027632713 -0.017120417 -0.01684456 0.009431778
0001d0 17 2f 9b bc 9e 82 5e bc ab b6 79 bc be f9 88 bc
       -0.018943353 -0.013580946 -0.015241305 -0.016720649
0001e0 cc 0a 40 ba 07 c0 3c bc 1f 32 30 bb 1d 1e d9 bc
       -0.00073258276 -0.011520392 -0.0026885343 -0.026503617
0001f0 be 83 9f bb a8 96 db 3c 13 d7 c6 3b 0d dd 5f bc
       -0.004868 0.026805237 0.0060681193 -0.013663542
000200 a7 09 b3 bb b5 cf 93 3b 20 61 ea 3c 8a 9b 02 bd
       -0.005463797 0.0045108446 0.028610766 -0.031886615
000210 23 02 5d 3c 22 57 f4 bc 25 90 cb bc 73 6c 47 3c
       0.013489279 -0.029826704 -0.024849007 0.012171852
000220 62 35 6c 3c 97 2e 51 3c a8 3c a5 3b da e7 16 3c
       0.014417024 0.012767456 0.005042631 0.009210551
000230 00 e7 a6 bb 51 46 05 bc c6 49 b4 bc de 36 cc 3b
       -0.0050934553 -0.0081344405 -0.022007834 0.0062321266
000240 b5 8a b0 bb b3 fb af bc 21 e6 89 ba fb 0b 8b 3b
       -0.005387629 -0.021482324 -0.0010520854 0.0042433715
000250 27 36 71 bb d9 4f 80 bc f4 cd b2 3c d0 af ce bb
       -0.003680596 -0.015663074 0.021826722 -0.0063075796
000260 53 da 00 bd 5a 1c 07 3c 89 df 26 3c 07 5a 05 3c
       -0.03145821 0.008246506 0.010185131 0.00813914
000270 ad c0 d1 3b 2d e8 40 bc ba 7f 0c 3d cb a3 80 bc
       0.0064011426 -0.011774105 0.034301497 -0.015703103
000280 e3 05 ab 3c 1c be 36 bc 60 9d 9b 3b 55 cc e8 bc
       0.02087683 -0.011153724 0.004748985 -0.028417746
000290 ae 65 0c bc ea 6f a5 3c c3 ae d7 3b 6b 53 55 bc
       -0.008569164 0.020194966 0.0065821125 -0.013020377
0002a0 f5 bf 8f 3c e9 e6 e5 bc dc fc aa ba 50 c6 bc 3a
       0.017547587 -0.028064208 -0.0013045329 0.0014402363
0002b0 1d 10 2e bd 01 c9 f5 3a 8a 9f 42 3c f0 ae 25 3b
       -0.042495836 0.001875192 0.011878857 0.0025281273
0002c0 95 01 a5 bc 04 4a 2b bc 76 01 33 bc 06 a6 91 3c
       -0.020142356 -0.010454658 -0.010925641 0.017779361
0002d0 9f a8 40 3c 23 81 71 3c 92 f5 01 bc 9c cc d8 bc
       0.011758952 0.014740261 -0.007932084 -0.026464753
0002e0 41 2b af bb a3 35 e7 bb 6a b8 60 bc 2a 04 b3 3b
       -0.0053457324 -0.0070559545 -0.013715843 0.005463143
0002f0 29 ab 0f bd d3 a0 ca 3c df 1b 73 3a 12 23 89 bc
       -0.03507534 0.02473489 0.00092738675 -0.016740356
000300 98 d8 88 bc 89 a1 7d bc 8c c3 f5 3c 46 57 75 bc
       -0.016704842 -0.0154804075 0.03000047 -0.014974421
000310 19 c1 e0 bb 56 75 99 3c 80 06 d1 3c ca f1 89 3c
       -0.0068589565 0.018732708 0.025515795 0.016838927
000320 d8 68 ae 3c 3e 5c ee 3c d8 c8 a7 bc cd 81 ef 3a
       0.021290228 0.029096719 -0.020481512 0.0018272937
000330 8e 76 74 bc 24 76 05 3d de 4b aa bc de 40 24 bc
       -0.014920844 0.03258337 -0.02078813 -0.010025231
000340 bd 48 4b 3c a8 7e 80 3c 1c 61 f8 bc 2e 1e b2 3c
       0.012407479 0.015685394 -0.030319743 0.021742906
000350 78 0f 46 bd 9c 09 48 b9 25 29 c4 bc dc 0c 81 3c
       -0.048354596 -0.00019077066 -0.0239454 0.015753202
000360 43 ee 66 bc ee bf f7 bc 04 b2 ff 3b 6f 67 40 39
       -0.014094892 -0.030242886 0.0078032035 0.00018349079
000370 90 df e3 3b 85 96 02 3a 87 b6 b3 bb b0 4c ca 3c
       0.006954141 0.00049815356 -0.0054844054 0.02469477
000380 c1 6b 60 3c c7 04 a5 bc b6 ef 98 3b 85 64 f7 bb
       0.0136975655 -0.02014388 0.0046672476 -0.0075498247
000390 ae f5 63 3c 99 1b 39 bd e5 99 d2 bc 80 f1 9a 3c
       0.013913555 -0.045192335 -0.025708148 0.018913984
0003a0 66 eb 81 bb a3 1b b4 3b 0e d0 a5 ba 47 c4 30 ba
       -0.0039648293 0.0054964586 -0.0012650506 -0.0006743115
0003b0 b0 52 1e bc 9d 41 3a 3c 7d db dd bb cc b8 02 bc
       -0.009663269 0.0113681825 -0.00677055 -0.007978629
0003c0 5e f6 93 bc 26 30 65 3c f4 4f 4f 3d a2 1d f7 bc
       -0.018061813 0.01398853 0.05061336 -0.030165497
0003d0 68 97 0b 3d 82 b9 22 3b 82 76 18 3c 21 c6 07 bc
       0.03407994 0.002482981 0.009305598 -0.008286984
0003e0 c2 92 e0 bc 53 a8 2c 3b 8c 8c eb bc 6f 68 65 3a
       -0.02741373 0.0026345446 -0.028753541 0.00087512186
0003f0 9c 59 e1 3c f3 5a 1b 3d 36 06 e3 3b 5b 1b dd bc
       0.02750855 0.037928533 0.0069282306 -0.026990583

action_model._continuous_distribution.mu.bias f4 [2]
000000 aa f5 09 3c f6 f5 6f 3c
       0.008420387 0.014646044

action_model._discrete_distribution.branches.0.weight f4 [2, 128]
000000 cb f9 a8 3c 66 ea b8 3b 2d c0 91 bb ac ee 8e 3b
       0.020626923 0.005643177 -0.004447958 0.004361948
000010 67 bc 80 bb 52 cf 7a ba c4 2c 09 bc 29 ed 1c b8
       -0.0039287093 -0.00095676363 -0.008372489 -3.741417e-05
000020 0b e1 21 ba 43 9e 08 3b 78 01 b8 3b 28 f2 d3 bb
       -0.00061751966 0.0020846284 0.0056154095 -0.0064680763
000030 8d 40 4c ba 59 7e ab 3c 92 aa a8 3a 73 42 4a 3c
       -0.0007791601 0.02093427 0.0012868217 0.012344944
000040 fc db 37 bb c2 2d 30 bb 18 8e 1f b9 4a 8b 0e bb
       -0.0028054705 -0.0026882743 -0.00015216356 -0.0021750503
000050 e9 bc 41 bc c2 26 16 bb 35 56 53 3b 84 99 1d bc
       -0.011824825 -0.0022911285 0.0032247428 -0.0096191205
000060 5d 63 8f bb 79 06 57 3c 52 c6 0c bc 13 f4 d7 3b
       -0.0043758587 0.013124102 -0.008592205 0.006590375
000070 a6 c2 64 bb b2 5c 40 bc e7 04 72 3c 95 27 50 3c
       -0.0034906059 -0.01174085 0.014771677 0.01270475
000080 d3 6d 91 bb c9 fe 6c bc 51 15 f6 3a e2 a1 d2 bb
       -0.004438141 -0.014465042 0.0018774663 -0.0064279893
000090 0b cf db bb b3 91 3d 3b 14 91 28 bc 71 15 99 3c
       -0.006708031 0.0028925955 -0.010288496 0.018686982
0000a0 2a 22 8d bc 44 f8 b2 bb b9 b2 6b bc d7 76 b9 bb
       -0.017228205 -0.0054617245 -0.0143858725 -0.0056599188
0000b0 19 47 ff 3a e4 11 cf 3b 10 bc 32 3c 41 7c e1 3b
       0.0019476145 0.0063192714 0.010909095 0.0068812673
0000c0 63 c8 11 bc c7 0d ad bc 66 cd 3c 3b 68 af 33 bb
       -0.008897874 -0.021124734 0.002880895 -0.0027417783
0000d0 12 a4 91 bc f1 b4 ac 3c 8f fe 31 bb 8b 18 a9 3b
       -0.01777843 0.021082373 -0.0027159785 0.0051603965
0000e0 82 06 78 3c a4 80 81 bb 57 bf 5b bc 14 89 ff b7
       0.01513827 -0.0039521027 -0.013412318 -3.04622e-05
0000f0 0d b5 bc 3b 11 88 88 bb 95 78 64 bc fc dc 97 3c
       0.0057588876 -0.004166611 -0.013944765 0.01853799
000100 1f 01 33 3c bc cd 9d bb 2c dd 0c bc e0 2d 7d 3c
       0.01092556 -0.004815785 -0.008597653 0.015452832
000110 3f 95 2b 3b 46 9d 69 b9 fb a1 e5 bb e0 13 93 ba
       0.0026181487 -0.000222792 -0.007007835 -0.0011221133
000120 1c 2c c5 bb 3c c6 aa 3b ba 56 56 3c 90 61 ff bb
       -0.006017221 0.0052116197 0.013082201 -0.007793613
000130 2f 43 ea 3b de ba 00 bd d6 89 95 bc 19 73 90 bb
       0.007149122 -0.03142821 -0.018254202 -0.004408252
000140 29 c9 41 bc 8f 80 74 3b e0 bc 12 3c a5 1d 37 bb
       -0.0118277455 0.0037308072 0.008956164 -0.0027941254
000150 d5 84 2d bc db 46 61 ba ff af 97 3c a7 fb 0c 3b
       -0.010590752 -0.0008593627 0.018516539 0.0021512301
000160 7d e8 8a ba 2f 1f 33 bb e2 35 6d bc 1b 82 55 bb
       -0.0010597851 -0.002733182 -0.014478179 -0.003257877
000170 d8 ea 88 3b 5c 49 48 bc f8 1d d3 3b 5d 75 e6 3a
       0.004178386 -0.0122245215 0.0064427815 0.0017582584
000180 31 c9 4a 3c 03 cc 42 bc a9 df aa bb 7c 78 df bb
       0.012377069 -0.0118894605 -0.0052146506 -0.006819783
000190 f1 84 f4 bb d1 88 27 3c fa 89 a2 3b 25 e6 ac bb
       -0.007462137 0.010225491 0.0049602957 -0.005276459
0001a0 92 63 31 3c 9e 5e e7 bb 7e e6 37 bc c3 49 a0 bc
       0.010826962 -0.00706084 -0.011224387 -0.019566422
0001b0 c6 73 17 bc 5d 2a 8c bc 0d a4 a4 3c a8 37 16 bc
       -0.009243911 -0.017110044 0.020097757 -0.009168543
0001c0 78 2a 6d bc 77 32 11 ba 4d 94 38 3c a4 2e 1d bc
       -0.014475457 -0.0005538831 0.011265826 -0.0095936395
0001d0 44 14 b6 3a 80 53 31 bc da 9b b4 3b 09 58 7c bb
       0.0013891538 -0.010823131 0.005511743 -0.0038504621
0001e0 50 a4 ef 3b bc c4 92 3b 89 ee 38 3c 6e 10 10 bc
       0.0073132887 0.004479019 0.01128734 -0.00879298
0001f0 9d b1 39 bc 36 fe 5a bc 06 1a ce bb 61 b8 d5 3a
       -0.01133385 -0.013366273 -0.0062897233 0.001630556
000200 34 37 9b 3b 7b bf 2d bb 71 0c f3 3b fb 5d 88 3a
       0.0047368053 -0.0026511836 0.0074172546 0.0010403985
000210 a1 4c 30 3c a8 2d 7d 3c 78 16 e4 bb d6 13 29 bc
       0.010760457 0.01545278 -0.0069606863 -0.010319671
000220 91 8d 2e 3c 70 e7 a3 bc 5a b0 0a 3c 59 5d f9 bb
       0.010653869 -0.020007819 0.008464897 -0.007610005
000230 dc 6c 1b 3c a5 93 fb 3b d4 e5 80 3c 3d b3 12 3a
       0.009486403 0.0076775127 0.01573459 0.00055961666
000240 cb 1e 53 bc 81 c4 3e 3a 07 0e 4e bc 97 5c 1c bc
       -0.01288576 0.0007277206 -0.012576587 -0.0095435595
000250 e8 6e 22 bb e9 ea 9a 39 17 b8 54 bb 26 8a 24 3a
       -0.0024785344 0.0002954819 -0.003245836 0.0006276689
000260 e4 2d e0 bb 3b e3 45 bb d3 c8 94 bb c7 b9 d7 bb
       -0.006841408 -0.0030195254 -0.0045405417 -0.0065834257
000270 40 45 24 bc ae 78 b7 bb 40 89 1d 3c 39 a9 b8 bc
       -0.010026276 -0.005599103 0.0096152425 -0.02254163
000280 ad 4b 21 bb 15 3c f8 bb 3f 9f a4 ba 95 f3 29 3c
       -0.0024611757 -0.0075755217 -0.0012559666 0.010373016
000290 92 89 77 bc 07 8f d0 bb 15 5d 33 bb 66 31 89 ba
       -0.015108483 -0.0063647064 -0.0027368714 -0.0010466992
0002a0 90 75 33 3c 00 96 ae 3b 38 41 00 bc 61 0d 27 bc
       0.010953322 0.00532794 -0.007828049 -0.010196061
0002b0 70 4b f3 39 4e 80 f1 ba ae d9 6b 3c 4d 86 8c bc
       0.00046404777 -0.0018425079 0.014395161 -0.017153883
0002c0 3b a4 3d 3b 62 02 21 3c cf 52 c7 bb 62 7c 32 39
       0.0028937 0.009827228 -0.0060828696 0.00017021739
0002d0 5d 81 af bb e5 cd 94 bb ca 16 08 bc 1e 42 41 bc
       -0.0053559975 -0.004541146 -0.008306215 -0.011795549
0002e0 cb 1f 83 3b 00 d1 5f bb 23 d9 99 3b 0b 6f 90 3a
       0.0040015928 -0.0034151673 0.004695074 0.0011019422
0002f0 f2 eb e9 3b 9d cc ce bb 48 11 90 3b 57 be 3a 3a
       0.0071387226 -0.006311013 0.0043965913 0.00071237
000300 15 f5 3d bc 6b d3 ff ba cd 0f a3 3c 47 8d 2c 3b
       -0.011594077 -0.0019517964 0.019904995 0.0026329325
000310 38 fb 40 b6 3f 2e b2 bc 97 d6 e1 bb d1 f0 ac bb
       -2.8756458e-06 -0.021750567 -0.006892036 -0.005277731
000320 8c 07 2e 3c e4 07 28 3a 27 22 25 3c 4a c5 52 b9
       0.0106219165 0.0006409867 0.010078943 -0.00020100657
000330 b1 6e 28 3b b5 e4 57 3c 2b 00 cb 3a ea 61 0b 3c
       0.0025700743 0.013177087 0.0015487721 0.008507231
000340 e1 d4 94 3b 94 e1 bd bb 1b 4b 7b bc f3 00 83 3b
       0.0045419787 -0.0057947133 -0.015337731 0.003997916
000350 70 97 3a 3c f7 30 70 bc 5c 57 02 bc 14 2f 5f 3c
       0.011388645 -0.014660112 -0.007955398 0.013622064
000360 79 23 87 3c ba 7d d0 ba d7 33 49 bc 3d 75 e9 bc
       0.016496407 -0.001590661 -0.012280426 -0.028498286
000370 8f 2d b5 bc e6 80 34 ba e9 77 3f bc ee ed 84 bb
       -0.02211645 -0.00068856624 -0.011686304 -0.0040566837
000380 73 c3 96 ba 66 13 d5 3b c9 44 99 3c 1a 10 ef 3a
       -0.001150234 0.0065025566 0.018709557 0.0018239052
000390 43 83 97 bc cb 5a 09 3c a2 19 c5 bc 97 eb 71 3b
       -0.018495208 0.008383463 -0.024060074 0.0036914104
0003a0 f4 05 b2 3a 9d 51 4f bb 3c c1 c4 bb af dc cb ba
       0.0013582096 -0.0031634339 -0.0060044806 -0.001555344
0003b0 01 6b 10 3c 75 51 82 3a 7e 34 96 bc 4d 55 10 3c
       0.008814574 0.0009942489 -0.018335577 0.0088094
0003c0 62 d4 c1 bb 89 29 45 3c d3 1d 2c bc 66 27 bb bb
       -0.0059152106 0.0120338285 -0.0105051575 -0.005711484
0003d0 ca 39 b7 bb 81 e7 17 3c 4d 5a ce 3b 87 ff 7a bb
       -0.005591606 0.009271503 0.006297386 -0.0038299279
0003e0 0b 64 c5 bb 41 a1 ae bb 50 90 85 bb 4c 15 d9 3b
       -0.006023889 -0.0053292816 -0.0040760413 0.0066248532
0003f0 bc f6 26 bc 5f 48 cd bb 0b e1 c3 3a 60 98 62 3c
       -0.010190662 -0.006264731 0.0014944387 0.013830274

action_model._discrete_distribution.branches.0.bias f4 [2]
000000 b8 bc c0 bb b4 bc c0 3b
       -0.005881872 0.00588187

exp_avg f4 [128, 132]
000000 06 42 0d 3a 5e 5b 6d 39 69 45 c1 39 b1 2a 05 3a
       0.00053885614 0.00022636118 0.00036863543 0.0005079909
000010 8c f6 64 b6 06 19 38 ba 0c bd cf b6 71 28 05 ba
       -3.4118157e-06 -0.0007022772 -6.1910887e-06 -0.00050795736
000020 7f 14 fc b7 8f 2a 7d 39 dd 5f 2d ba 0c 07 64 b6
       -3.0050285e-05 0.00024143815 -0.0006613711 -3.397875e-06
000030 fe 2f 03 b8 86 e3 0e b8 c8 6c c2 b7 82 31 a4 b7
       -3.127753e-05 -3.4067336e-05 -2.3177257e-05 -1.9573377e-05
000040 4b ff 83 b7 6f ca 8b 37 87 10 ca b7 b1 82 d7 b7
       -1.5735297e-05 1.6664357e-05 -2.4087973e-05 -2.5690855e-05
000050 24 92 bf b6 00 ed 83 b7 d6 68 87 b7 58 36 b3 36
       -5.7092566e-06 -1.5726779e-05 -1.6142072e-05 5.340942e-06
000060 1d aa a6 b7 25 fd e3 b7 fb 48 64 b7 e1 a7 17 b7
       -1.9867957e-05 -2.7178388e-05 -1.3606851e-05 -9.039389e-06
000070 46 9e 62 b7 9a d6 9b 36 18 8e db b7 a1 c5 be b7
       -1.3507501e-05 4.644343e-06 -2.6173002e-05 -2.2741793e-05
000080 19 37 0b 37 27 cb 03 b8 4f 09 c7 b7 0e fd 57 37
       8.297874e-06 -3.1422034e-05 -2.3726983e-05 1.28739175e-05
000090 53 f0 ce b7 06 fd bd b7 6d 90 c1 b6 e0 ef b3 b7
       -2.4669023e-05 -2.2648379e-05 -5.7686616e-06 -2.1450163e-05
0000a0 60 65 d6 b7 41 a3 9f b7 5b 81 d5 b6 1b a9 af b7
       -2.5557994e-05 -1.9030298e-05 -6.3629536e-06 -2.0940372e-05
0000b0 a6 a2 08 37 f2 1a 08 b8 58 31 c7 b7 27 7c ac b7
       8.144101e-06 -3.245002e-05 -2.3745626e-05 -2.056181e-05
0000c0 f5 ec 2c b7 f0 1f b2 b7 67 f3 a4 b5 52 a3 0b b8
       -1.030717e-05 -2.1234126e-05 -1.2289792e-06 -3.3292286e-05
0000d0 44 fe c0 b7 aa 7b 63 b7 f9 14 bf b7 13 d9 e7 b7
       -2.3006585e-05 -1.3559047e-05 -2.277874e-05 -2.7638429e-05
0000e0 6c 5b 86 36 69 3e a7 b7 8b 3c 18 b7 d3 3e 5c b5
       4.004154e-06 -1.9937013e-05 -9.074002e-06 -8.204781e-07
0000f0 56 32 f3 b7 b3 49 e9 b7 57 a9 85 36 6e 7c 73 b7
       -2.8991297e-05 -2.7810083e-05 3.9834226e-06 -1.45129e-05
000100 25 2e a0 b3 c8 89 94 b6 31 8c 08 b8 8b ed e5 b7
       -7.458974e-08 -4.4267836e-06 -3.255549e-05 -2.7409542e-05
000110 f5 aa 68 37 5b 0b 79 b7 ad c6 2f b6 0c 82 0e 37
       1.3868082e-05 -1.48442e-05 -2.6192677e-06 8.4941385e-06
000120 a4 4b 02 b8 d2 57 f4 b7 4d 20 8d 37 18 6b da b6
       -3.106486e-05 -2.9127961e-05 1.6823551e-05 -6.5093736e-06
000130 40 28 b4 36 e6 57 c6 b6 bd cd f8 b7 38 b2 e4 b7
       5.3691037e-06 -5.9110926e-06 -2.9659708e-05 -2.7262708e-05
000140 ef 74 fe 34 8b ae 5c 37 a9 c7 62 b8 dd d9 5e b8
       4.7396267e-07 1.3153661e-05 -5.4068547e-05 -5.3131826e-05
000150 5a 9b 3d 36 6b 5e 51 37 0b 5d 04 b8 c4 4e 2d b8
       2.8253621e-06 1.2479354e-05 -3.1557905e-05 -4.131977e-05
000160 ae dd 6d b6 98 53 79 37 ae 4e 2b b8 0b 35 2e b8
       -3.5444787e-06 1.486102e-05 -4.0842853e-05 -4.1534233e-05
000170 85 d9 3d 37 7e f6 35 37 21 0d 56 b8 9d 9c 44 b8
       1.1315923e-05 1.0845832e-05 -5.1033803e-05 -4.68759e-05
000180 bc 4f ff b6 d9 84 98 37 a1 23 2b b8 a8 9c 18 b8
       -7.6088745e-06 1.8181674e-05 -4.080276e-05 -3.638552e-05
000190 dc fa a6 37 1f 38 e3 36 ef 37 61 b8 72 13 4a b8
       1.9905558e-05 6.7716605e-06 -5.3696273e-05 -4.8178663e-05
0001a0 f8 a9 2e 36 fe ac a7 37 2b 59 38 b8 99 90 33 b8
       2.6026955e-06 1.9988507e-05 -4.3952063e-05 -4.2811593e-05
0001b0 89 a4 2e 36 b0 6d 7e 37 8b ad 36 b8 d6 12 30 b8
       2.6023793e-06 1.5165118e-05 -4.3553806e-05 -4.1979212e-05
0001c0 0d 2a fa b6 48 ae ac 37 fa bd 3a b8 84 00 21 b8
       -7.455476e-06 2.0585154e-05 -4.4522785e-05 -3.838587e-05
0001d0 50 da 49 37 6e 33 3f 37 2a e1 3a b8 bb 37 2a b8
       1.2031363e-05 1.1396462e-05 -4.4555556e-05 -4.058306e-05
0001e0 05 08 69 b7 37 43 91 37 2e 13 ee b7 35 8e c2 b7
       -1.3889749e-05 1.7316646e-05 -2.8380742e-05 -2.3192822e-05
0001f0 bb 72 ee 36 4f 3a 1a 36 90 f1 ad b7 dc 90 e1 b7
       7.106309e-06 2.2981728e-06 -2.0735693e-05 -2.6889546e-05
000200 23 c9 57 b7 81 71 72 37 97 8f ea b7 48 fc cc b7
       -1.2861829e-05 1.4450751e-05 -2.7961838e-05 -2.4436173e-05
000210 b2 9c 59 b9 21 6c 7b b9 30 7a 3b ba 1f ff 8b b9
       -0.00020753106 -0.00023977506 -0.0007151691 -0.00026702226
000220 17 97 4f 36 3b bd 5c ba 08 14 e2 37 9d d1 70 39
       3.093335e-06 -0.00084205315 2.6950627e-05 0.0002296627
000230 8d 7e bd 37 e4 bf c2 b7 60 6f df 39 3a 87 60 38
       2.2589486e-05 -2.3215958e-05 0.00042616855 5.35317e-05
000240 ef df 0c 37 d2 ac fa 37 b6 04 94 38 be 7f 22 b6
       8.396789e-06 2.9882798e-05 7.0580674e-05 -2.4214237e-06
000250 55 58 3b 37 fe 80 02 38 79 5c 0b 36 ec 33 cb 37
       1.1166635e-05 3.111455e-05 2.076644e-06 2.4223664e-05
000260 32 b8 1a 38 d1 00 99 36 e5 68 23 37 3a a7 12 38
       3.6888006e-05 4.5598504e-06 9.73998e-06 3.4964854e-05
000270 a8 85 07 37 f0 b4 12 38 64 61 f3 37 8b 6d 1c b7
       8.077746e-06 3.4977624e-05 2.9013208e-05 -9.3238295e-06
000280 b2 fa 2d 36 bd f8 4a 37 5f c2 02 38 95 96 2a 38
       2.5924933e-06 1.2098052e-05 3.1175437e-05 4.06714e-05
000290 07 44 a9 37 d9 3b 4c 37 dc 1f 53 37 9e 2d 02 b7
       2.0178048e-05 1.2173282e-05 1.2583998e-05 -7.759225e-06
0002a0 47 03 0a 38 7d ef 1f 38 09 68 0e 38 0c 88 6a b6
       3.2904816e-05 3.8131595e-05 3.395233e-05 -3.4947907e-06
0002b0 03 de 8a 36 96 3f 30 37 be 36 db 37 ea 9b 1f 38
       4.138566e-06 1.0505222e-05 2.6132326e-05 3.805376e-05
0002c0 49 75 be 37 40 b0 2a 37 b2 c7 71 36 99 27 1b 37
       2.270438e-05 1.0173826e-05 3.6028036e-06 9.2479395e-06
0002d0 1c da 1f 38 e8 93 2b 38 c3 cf 0e 38 20 d7 35 35
       3.8111684e-05 4.0907325e-05 3.404893e-05 6.77408e-07
0002e0 75 0c bb b4 a7 aa dc 36 31 39 48 38 64 7c 3f 38
       -3.4840528e-07 6.5763775e-06 4.773698e-05 4.5653796e-05
0002f0 dc 33 bf 37 57 82 fd b6 72 02 7c b7 a4 62 10 b6
       2.2793123e-05 -7.555161e-06 -1.502094e-05 -2.1515089e-06
000300 dd 4f 40 38 86 d7 34 38 dc f8 ae 37 e6 08 37 b7
       4.5850746e-05 4.3116066e-05 2.08583e-05 -1.0909722e-05
000310 12 e4 96 b7 01 87 32 b7 8a fc 35 38 89 1e 25 38
       -1.7987597e-05 -1.064106e-05 4.3388958e-05 3.9367504e-05
000320 a1 44 69 37 b7 8a a9 b6 82 8b 34 b7 0f b4 b5 b7
       1.3903861e-05 -5.052741e-06 -1.0761318e-05 -2.1660728e-05
000330 28 d4 67 38 a7 41 40 38 fd 10 81 37 1a cc a7 b7
       5.5272278e-05 4.583751e-05 1.538591e-05 -2.0002994e-05
000340 e4 8e be b7 7b c8 b7 b7 c0 24 3d 38 c8 ca 17 38
       -2.2716304e-05 -2.1908656e-05 4.5095338e-05 3.619006e-05
000350 93 9a c8 b7 d9 6e 71 b7 06 9a 71 38 d9 ce 81 38
       -2.3913837e-05 -1.4390528e-05 5.7602323e-05 6.189728e-05
000360 66 cd 1c b7 5a ca 4c b7 e2 68 bf 37 37 5d 24 38
       -9.346148e-06 -1.2206461e-05 2.2817814e-05 3.918746e-05
000370 33 00 12 b8 f5 d6 4d b7 5b 9f 53 38 27 b2 52 38
       -3.4809298e-05 -1.2269001e-05 5.045473e-05 5.023382e-05
000380 23 6d b9 b7 b0 37 14 b7 55 d4 51 38 75 c0 4e 38
       -2.210454e-05 -8.834453e-06 5.0027233e-05 4.9293467e-05
000390 ae c0 46 b8 77 1f 63 b7 ae 06 79 38 f5 4a 6f 38
       -4.7386326e-05 -1.353758e-05 5.9372447e-05 5.705185e-05
0003a0 fb 4f 0b b7 9e ef 06 b7 6e 3b fe 37 d9 10 12 38
       -8.3036675e-06 -8.042813e-06 3.0306834e-05 3.4824803e-05
0003b0 79 68 2a b8 1c e6 8e b7 d8 53 86 38 c5 a3 87 38
       -4.0628456e-05 -1.7034872e-05 6.405235e-05 6.467806e-05
0003c0 45 b8 0b 37 7c c2 72 b7 ab 02 fa 37 cb c3 04 38
       8.327949e-06 -1.4469606e-05 2.9803565e-05 3.16536e-05
0003d0 16 8b 1b b8 ee 95 70 b7 cd bb 82 38 aa 2c 87 38
       -3.7084414e-05 -1.4340023e-05 6.233864e-05 6.445621e-05
0003e0 9d b4 26 b5 a0 bd 1d b7 96 45 16 38 fb aa ee 37
       -6.2102646e-07 -9.40208e-06 3.5827594e-05 2.845143e-05
0003f0 21 5e ef b7 d6 9d 39 b7 08 3e 44 38 ef 27 53 38
       -2.8534852e-05 -1.1063608e-05 4.6787813e-05 5.034351e-05
