UnityProject/results/testModel14/AI Car Ver5/AI Car Ver5-4044495.onnx (onnx, 133805 bytes, 10 tensors)

discrete_action_output_shape f4 [1, 2]
0	0x40000000	2.0
1	0x40000000	2.0

network_body._body_endoder.seq_layers.0.weight f4 [128, 119]
0	0x3d808073	0.062745
1	0x3e2dba39	0.1696557
2	0xbd270370	-0.040774763
3	0x3dafe943	0.08589413
4	0xbd8d2e90	-0.06893647
5	0xbe78c5cf	-0.24294208
6	0xbe2a9eab	-0.1666209
7	0xbd860bd6	-0.06545226
8	0x3e764fc4	0.24053866
9	0xbd5738d3	-0.052544426
10	0x3d7c76dd	0.061636794
11	0xbd9807a8	-0.07423335
12	0xbf048f71	-0.51781374
13	0x3d973bc1	0.07384444
14	0x3d75f3a7	0.060046818
15	0xbd4171ef	-0.047227796
16	0xbd8f29cb	-0.06990393
17	0xbdcd36bc	-0.100202054
18	0xbe841ce5	-0.25803295
19	0x3e8f589b	0.27997288
20	0x3df55200	0.11978531
21	0xbe2e791c	-0.17038387
22	0xbdd4d9a9	-0.10393078
23	0xbd26f5ef	-0.040761884
24	0xbe8b7f47	-0.27245542
25	0x3e3097b5	0.17245372
26	0x3e07ac6d	0.13249369
27	0xbc5c1521	-0.013432772
28	0xbe7f6f75	-0.24944861
29	0xbc55c982	-0.0130485315
30	0xbd9c30e6	-0.07626514
31	0x3cb6b978	0.022305235
32	0xbd960278	-0.073246896
33	0xbe9f9380	-0.3116722
34	0xbc63c367	-0.013901568
35	0x3d8410e5	0.06448535
36	0xbdec8f39	-0.11550755
37	0xbdb1678e	-0.086623296
38	0xbd454c9c	-0.048168764
39	0x3cbed042	0.023292664
40	0x3dd39e2b	0.103329025
41	0x3e41b3e2	0.18916276
42	0xbc34304d	-0.010997844
43	0xbd6c9d62	-0.05776728
44	0xbd34fb1b	-0.044184785
45	0xbdc2252c	-0.09479746
46	0xbd7a7cd1	-0.06115419
47	0x3d1161cc	0.035493657
48	0xbdccdcf4	-0.10003081
49	0x3dac708b	0.08419903
50	0x3d0cade5	0.034345526
51	0xbdcc131d	-0.09964583
52	0xbe1a1acd	-0.15049286
53	0x3d32cd5b	0.043652873
54	0xbcd0de1e	-0.025496539
55	0x3d74e07c	0.059784397
56	0x3e0b8083	0.13623242
57	0x3da5c6f2	0.080945864
58	0x3daf46c7	0.085584216
59	0xbe66f5dc	-0.22554725
60	0xbd417fc9	-0.047241006
61	0x3cb9e479	0.022691952
62	0xbcb24ed4	-0.021766104
63	0x3a5b27b6	0.00083601044
64	0xbaabb359	-0.0013099714
65	0xbd093a1a	-0.033502676
66	0x3a2f4c48	0.0006687087
67	0x3d13b779	0.036063645
68	0xbdc73a84	-0.09727958
69	0xbe70a963	-0.23502116
70	0xbdd9d4b7	-0.10636275
71	0xbd943fb3	-0.07238712
72	0xbcb048b8	-0.02151905
73	0xbb9ef085	-0.0048504495
74	0xbda247bf	-0.07923841
75	0xbdb6d3b3	-0.08927097
76	0x3ec75a18	0.38935924
77	0xbe383b09	-0.1799127
78	0xbe3d07dd	-0.18460031
79	0x3de67ec9	0.11254651
80	0x3ec51034	0.38488925
81	0xbe43bbdc	-0.19114631
82	0xbe698c29	-0.22807373
83	0xbe98b294	-0.29823744
84	0x3dc5b39a	0.09653397
85	0x3dd4c0d6	0.10388343
86	0x3cd4d724	0.025981493
87	0x3d5f34a5	0.054493565
88	0xbd1226bd	-0.035681475
89	0x3dc3a785	0.09553436
90	0x3ddb32b0	0.10703027
91	0x3e7d5da4	0.24742752
92	0x3ef2c726	0.47417563
93	0xbe01865a	-0.12648907
94	0xbe40756e	-0.18794796
95	0xbe63567a	-0.22200957
96	0x3dcf362e	0.10117756
97	0x3e0acd2f	0.13554834
98	0xbcfe36a9	-0.031031923
99	0xbd5c0160	-0.05371225
100	0x3d8dfbbb	0.069327794
101	0xbdbdb510	-0.092630506
102	0x3cdd5986	0.027020227
103	0xbda690f0	-0.081331134
104	0xbdafccf0	-0.085840106
105	0xbace7355	-0.0015750924
106	0xbdbd4061	-0.09240795
107	0x3df132ca	0.11777265
108	0x3de12ef5	0.109952845
109	0xbe1095b1	-0.14119603
110	0xbdf962fb	-0.12177082
111	0xbd00a7b7	-0.031409945
112	0x3e25877a	0.16164961
113	0xbd334f77	-0.043776955
114	0x3db49124	0.08816746
115	0xbe34aca0	-0.17643976
116	0x3d897a5b	0.067127906
117	0xbd21fb2e	-0.039546184
118	0xbdceb2d1	-0.100927
119	0x3e74c8ed	0.23904772
120	0xbe13bfb1	-0.14428593
121	0xbd16c3c3	-0.036807787
122	0x3e4d7380	0.20063591
123	0xbdebdacd	-0.11516342
124	0xbeaa9019	-0.33313063
125	0x3e32511f	0.17413758
126	0x3e47a7e4	0.19497639
127	0xbe429e68	-0.1900574
128	0xbe224c43	-0.15849404
129	0xbba8459e	-0.005135252
130	0x3cf9f12f	0.030510513
131	0xbd1c3828	-0.038139492
132	0xbe806f7b	-0.25085053
133	0x3cb866eb	0.022510013
134	0xbe5df549	-0.216756
135	0x3dbd98e6	0.09257679
136	0x3dc708ee	0.097185
137	0xbdf734c6	-0.120706126
138	0xbdedeea0	-0.1161778
139	0xbd28e946	-0.041238092
140	0xbeb874ae	-0.3602652
141	0x3de41900	0.11137581
142	0xbd4b3e51	-0.049619976
143	0x3c467ada	0.012114251
144	0x3cbf43e6	0.023347806
145	0x3caf4794	0.021396436
146	0xbe4cfa98	-0.20017469
147	0x3c9d7e75	0.019225338
148	0x3e1a3f36	0.15063176
149	0xbe409b13	-0.18809156
150	0x3e3cee03	0.1845017
151	0x3d2ed432	0.042682834
152	0xbe60e023	-0.21960501
153	0x3e0cbf48	0.13744843
154	0x3c818fb1	0.015815588
155	0xbe846d61	-0.258647
156	0x3e607231	0.2191856
157	0x3d523131	0.051316444
158	0x3de8f02c	0.11373934
159	0xbe13c278	-0.14429653
160	0x3e153dde	0.14574382
161	0xbe8a6a4d	-0.27034226
162	0x3e668acf	0.22513889
163	0x3e733886	0.2375203
164	0x3bcd5291	0.006265946
165	0xbdac6cbf	-0.08419179
166	0x3dae1b59	0.0850131
167	0xbdb39d12	-0.08770193
168	0x3e9c49fd	0.305252
169	0x3e6ae2bb	0.22938053
170	0x3e14fb94	0.14549094
171	0xbe8cebfd	-0.27523795
172	0x3d9e6b81	0.077353485
173	0xbd122fd0	-0.03569013
174	0x3da2f891	0.079575665
175	0x3d9e12d3	0.07718434
176	0xbc157efb	-0.009124513
177	0xbd842697	-0.06452673
178	0xbddcac1f	-0.10775017
179	0xbcc73c04	-0.02432061
180	0xbbfb6a83	-0.0076726093
181	0xbd15759e	-0.03648912
182	0xbce8815e	-0.028382
183	0x3dabcfca	0.08389242
184	0xbe654888	-0.2239095
185	0x3debbdff	0.11510848
186	0x3d348025	0.04406752
187	0x3d4eddbc	0.05050443
188	0xbcb7c527	-0.022432877
189	0x3dc3ec72	0.09566583
190	0x3df518f3	0.11967649
191	0xbde001ab	-0.10937818
192	0x3da5530a	0.08072479
193	0xbdc6a8a8	-0.097001374
194	0xbe3ae9a4	-0.1825319
195	0x3e863866	0.26214904
196	0xbd4e9892	-0.05043847
197	0x3e510ae8	0.20414317
198	0xbbb6f15d	-0.005582972
199	0x3eb12b0e	0.3460316
200	0x3d34be23	0.04412664
201	0x3d5ac55a	0.053410865
202	0xbe88dc4e	-0.2673058
203	0x3e704592	0.23464039
204	0x3da92c2b	0.082603775
205	0x3de449c2	0.11146881
206	0xbe4b8149	-0.19873537
207	0x3ed90e19	0.42393568
208	0xbdcb7281	-0.09933949
209	0x3bb8132c	0.00561752
210	0xbe2929a9	-0.16519798
211	0x3eb59336	0.35463876
212	0x3da40243	0.08008244
213	0x3e83488e	0.25641292
214	0x3e55b20d	0.20868702
215	0x3eb7748d	0.3583111
216	0xbdd07ef8	-0.10180467
217	0xbd357e18	-0.044309705
218	0xbe5ab968	-0.2135979
219	0x3d2c444a	0.042057313
220	0x3dd9c56f	0.106333606
221	0x3d6d4965	0.057931323
222	0x3e103a5e	0.14084765
223	0x3d7fe80f	0.062477168
224	0xbe638e26	-0.22222194
225	0xbe5941d5	-0.21216519
226	0x3db79eca	0.089658335
227	0x3ea0da7a	0.31416684
228	0xbb097f69	-0.0020980483
229	0x3da71f4d	0.08160267
230	0x3e369f34	0.17834169
231	0x3daa3307	0.08310514
232	0xbe502ce9	-0.20329632
233	0xbd350cfb	-0.044201832
234	0x3e152920	0.14566469
235	0x3d60ddab	0.0548989
236	0xba702a28	-0.0009161555
237	0xbdbeb4b9	-0.09311814
238	0xbed15c86	-0.40890902
239	0x3d8a6176	0.067568704
240	0x3ddf28ae	0.10896431
241	0xbdfb2d18	-0.1226446
242	0x3b8d8d1c	0.0043198
243	0xbd9f9496	-0.077920124
244	0xbdb8130e	-0.089880094
245	0xbe055bf7	-0.13023363
246	0xbdcffd75	-0.10155765
247	0xbdc210fa	-0.09475894
248	0xbcc39d0a	-0.023878593
249	0xbdd31feb	-0.10308822
250	0x3dc3ad2a	0.09554513
251	0x3c5a47af	0.013322755
252	0x3ca2e422	0.019884173
253	0xbda898e1	-0.08232284
254	0x3bd641e3	0.006538616
255	0xbd970f9b	-0.073760234

network_body._body_endoder.seq_layers.0.bias f4 [128]
0	0xbc8b1967	-0.016979886
1	0x3cbf5de2	0.023360197
2	0x3cbf66f0	0.023364514
3	0xbd8a5157	-0.067537956
4	0x3d393a5f	0.045221683
5	0xbd6c1544	-0.057637468
6	0xbcdc4e05	-0.026892671
7	0xbd9ca823	-0.07649257
8	0x3d211b7b	0.039332848
9	0xbd593e37	-0.05303785
10	0xbde5edd0	-0.11227
11	0x3c644220	0.013931781
12	0xbd08e636	-0.03342267
13	0xbda4ed72	-0.080531016
14	0xbad29a5d	-0.0016067732
15	0xbd5ee27a	-0.054415204
16	0xbd494dfa	-0.04914663
17	0xbd616b08	-0.055033714
18	0xbdac3e55	-0.084103264
19	0x3c2df86c	0.01061831
20	0xbd241c73	-0.040066194
21	0xbd1b6021	-0.037933473
22	0x3d302dd8	0.04301247
23	0xbca52191	-0.020157607
24	0xbd83b0bb	-0.06430193
25	0xbdde903f	-0.108673565
26	0x3c8a5b5c	0.016889267
27	0xbced6b33	-0.02898178
28	0x3d67a386	0.056552432
29	0xbd41cdd9	-0.047315452
30	0xbd1e8e88	-0.038710147
31	0x3ceae8c8	0.028675452
32	0xbc94925c	-0.018136196
33	0x3ce16453	0.027513659
34	0xbd7f2468	-0.06229058
35	0xbdc071f6	-0.09396736
36	0xbcbf63d4	-0.023363031
37	0x3ca32f8a	0.01992013
38	0xbd815254	-0.06314531
39	0x3c5ee0ad	0.013603372
40	0xbcd7d775	-0.026347855
41	0xbdc45bdd	-0.09587834
42	0xbce4d84f	-0.027935175
43	0xbda503c8	-0.08057362
44	0x3c49aa1f	0.012308626
45	0x3da1d0a8	0.07901126
46	0xbc613009	-0.013744363
47	0x3ce38316	0.027772468
48	0xbd88328d	-0.06650267
49	0xbc4be84a	-0.012445519
50	0x3bb4cb47	0.0055173966
51	0xbc6b62f0	-0.01436685
52	0xbcf69498	-0.030100152
53	0xbcfe248e	-0.03102329
54	0xbd8ef034	-0.06979409
55	0x3c6d4360	0.0144813955
56	0x3d21df3b	0.03951953
57	0xbd135702	-0.03597165
58	0x3d796fd7	0.060897674
59	0xbbd09949	-0.0063659293
60	0xbcdda5fe	-0.02705669
61	0x3c5b2b5f	0.01337704
62	0xbd37f3a3	-0.044910084
63	0xbd818d4d	-0.06325779
64	0xbbee5976	-0.007273848
65	0xbd26b21f	-0.040697213
66	0x3d25ee4b	0.040510457
67	0xbcbb90ac	-0.022896133
68	0x3d0f4cbe	0.034985296
69	0xbd86fa50	-0.06590712
70	0x3d70e8f1	0.0588159
71	0xbda4fe51	-0.080563195
72	0x3d61eefc	0.055159554
73	0xbd3f24b6	-0.04666587
74	0xbd95bf7c	-0.07311913
75	0xbd52904f	-0.051407155
76	0x3c44298e	0.011972798
77	0x3c12a177	0.008949629
78	0xbc646484	-0.01393998
79	0xbc46f32d	-0.012142939
80	0x3a5928d9	0.000828398
81	0xbd170770	-0.036872327
82	0xbc894b8f	-0.016759662
83	0xbd1ea693	-0.038733076
84	0xbd92f087	-0.07174783
85	0x3bf91903	0.0076018586
86	0xb9fb7b28	-0.0004796621
87	0x3be962d3	0.0071223765
88	0xbce4fc6c	-0.027952395
89	0x3b4334ac	0.0029786034
90	0xbd7b0b25	-0.061289925
91	0xbc6b189b	-0.014349128
92	0xbd254b87	-0.04035523
93	0xbd49e084	-0.04928638
94	0xbccb0caf	-0.024786321
95	0xbc99a3ca	-0.018754859
96	0x3d2b3010	0.041793883
97	0xbd0a1d09	-0.033719096
98	0x3bcb8e73	0.0062120496
99	0x3d3d9034	0.0462801
100	0xbd85fbc9	-0.06542165
101	0xbd2c8d42	-0.0421269
102	0xbcca69f4	-0.024708726
103	0xbc58ab5c	-0.013224449
104	0x3d471bbe	0.04861044
105	0xbc43ea99	-0.011957788
106	0xbd24f370	-0.040271223
107	0x3cdb1a45	0.026745925
108	0xbc787ba6	-0.015166199
109	0xbdb82753	-0.089918755
110	0x3c31e0ae	0.0108567905
111	0x3cf8e58d	0.030382896
112	0xbc45328d	-0.012035978
113	0xbc606013	-0.013694781
114	0xbd6f157a	-0.05837009
115	0x3d01cdd9	0.031690452
116	0xbc3dd4df	-0.011586397
117	0xbbbf143f	-0.005831271
118	0xbc87f63b	-0.016596904
119	0xbd27c4f1	-0.040959302
120	0xbcb06a45	-0.021535048
121	0x3db11522	0.08646609
122	0xbca30465	-0.019899556
123	0x3d4083ac	0.047000572
124	0x3cd98806	0.026554119
125	0xbd96e8b4	-0.07368603
126	0xbb3fcda4	-0.0029266858
127	0xba175870	-0.0005773371

network_body._body_endoder.seq_layers.2.weight f4 [128, 128]
0	0xbd7ab114	-0.06120403
1	0xbc8b6db0	-0.017020077
2	0x3d9bf11f	0.076143496
3	0xbc8dd3a3	-0.01731283
4	0x3d176cbc	0.03696893
5	0x3e798ab3	0.24369316
6	0x3ca30362	0.019899074
7	0xbdcc4bd7	-0.09975403
8	0xbd981c59	-0.07427282
9	0x3bbbc86e	0.00573068
10	0x3d17887f	0.036995407
11	0x3e2b9b9c	0.16758579
12	0xbe465aef	-0.19370626
13	0xbd241c88	-0.040066272
14	0xbdf09525	-0.11747197
15	0xbd04b5bd	-0.03239988
16	0xbd1e8a90	-0.038706362
17	0x3ced7171	0.028984757
18	0xbdddccd1	-0.10830081
19	0x3d2048ac	0.039131805
20	0xbc4bf91a	-0.012449527
21	0xbd6fecc6	-0.058575414
22	0xbe54135f	-0.20710514
23	0xbccc4399	-0.024934577
24	0x3e58b937	0.21164404
25	0xbdf138e1	-0.11778427
26	0x3b9a4c81	0.004708827
27	0x3d3ef0a3	0.046616208
28	0xbdd9444e	-0.10608731
29	0x3e071670	0.13192153
30	0xbdd3746a	-0.103249386
31	0xbd342367	-0.043979075
32	0x3d2ed6d6	0.042685352
33	0xbdc90531	-0.09815443
34	0xbd10d880	-0.03536272
35	0xbc444d4a	-0.011981318
36	0x3c501a3c	0.012701567
37	0x3b8ccf8e	0.0042972034
38	0xbdc35cb1	-0.09539164
39	0xbd558743	-0.05213095
40	0xbda58614	-0.08082214
41	0xbd87d4cf	-0.06632387
42	0x3d9e1481	0.077187546
43	0xbc9bcb19	-0.019017743
44	0xbaa00fa5	-0.0012211694
45	0xbeb76081	-0.35815814
46	0x3de32471	0.11090935
47	0x3e29bd9b	0.16576235
48	0x3d977a32	0.07396354
49	0x3dc894e0	0.09794021
50	0xbdfe55b6	-0.12418692
51	0xbdca62fd	-0.09882162
52	0xbde6fdc9	-0.112788744
53	0xbd81e9c2	-0.06343414
54	0x3e0bc70c	0.13650149
55	0x3d1a13cd	0.03761654
56	0xbd3c3870	-0.04595226
57	0x3dccd9cb	0.10002478
58	0x3d5405eb	0.051763456
59	0x3d22d45a	0.039753295
60	0xbc5d1e14	-0.013495941
61	0x3d8ecdc8	0.069728434
62	0x3dde3af4	0.10851088
63	0x3ce9f6cc	0.028560065
64	0x3d341735	0.043967444
65	0xbc87cbfe	-0.016576763
66	0xbd791a12	-0.06081588
67	0x3d852ac3	0.06502297
68	0x3eac3df3	0.33641014
69	0x3e136bda	0.14396611
70	0x3d8f9a59	0.07011861
71	0x3d9da2d0	0.0769707
72	0xbd20e20d	-0.03927808
73	0xbda5d67d	-0.08097551
74	0x3d80e3cb	0.06293448
75	0x3d6663df	0.05624759
76	0x3de4550e	0.111490354
77	0xbe4ca8be	-0.19986245
78	0x3c9c20a1	0.019058527
79	0x3d717b21	0.058955316
80	0xbe3eb4b9	-0.18623628
81	0xbcf606d9	-0.030032562
82	0xbce190f0	-0.027534932
83	0x3de88779	0.11353964
84	0xbddc3cd2	-0.10753788
85	0x3e272126	0.16321239
86	0xbdbe1520	-0.09281373
87	0xbe06de97	-0.13170849
88	0x3d6346a2	0.055487283
89	0xbd2a34c2	-0.04155422
90	0xbd9c24d6	-0.076242134
91	0x3de908e8	0.11378652
92	0xbe423a9b	-0.18967669
93	0x3d196977	0.037454095
94	0xb9e8fca1	-0.00044438711
95	0xbda7f31c	-0.08200666
96	0x3dbee02c	0.09320101
97	0x3b752f17	0.00374121
98	0x3b1a4ed4	0.002354552
99	0xbd395540	-0.045247316
100	0x3e08b630	0.13350749
101	0xbdf229b0	-0.118243575
102	0xbd82250d	-0.06354723
103	0xbdd18598	-0.10230559
104	0xbda6bb62	-0.08141209
105	0x3cb0195a	0.021496464
106	0xbe655d1b	-0.22398798
107	0xbdfbab92	-0.12288584
108	0xbd53e34c	-0.05173044
109	0xbe6a881c	-0.22903484
110	0xbc5cd10e	-0.013477577
111	0xbcc4aafc	-0.024007313
112	0xbd9d00d6	-0.07666175
113	0x3e2458cc	0.16049498
114	0x3d9f8035	0.077881254
115	0x3decb981	0.115588196
116	0xbd98e2ce	-0.074651346
117	0x3e041662	0.12899163
118	0x3de95b41	0.113943584
119	0xbe166d77	-0.14690195
120	0xbdb80ecd	-0.08987198
121	0xbd33993a	-0.0438473
122	0xbe327cf7	-0.17430483
123	0xbd5529c7	-0.052041795
124	0xbdaf0637	-0.08546107
125	0xbdc2b813	-0.095077656
126	0x3da65cf4	0.08123198
127	0x3cdf226b	0.027238091
128	0x3d2576be	0.040396444
129	0x3e3faaeb	0.18717544
130	0xbdc2bfde	-0.09509252
131	0x3d8e37c5	0.06944231
132	0x3d088332	0.033328243
133	0x3d5dedbf	0.05418181
134	0xbd4cc672	-0.04999394
135	0x3e07af9e	0.13250586
136	0xbecfee5a	-0.40611535
137	0xbd93aa7b	-0.07210251
138	0xbdb23204	-0.08700946
139	0x3d894252	0.06702103
140	0xbdd79824	-0.105270654
141	0xbd14d49d	-0.036335576
142	0xbd90cf4a	-0.07070787
143	0xbe89ffa4	-0.2695285
144	0xbd41f94a	-0.04735688
145	0xbe1b44ea	-0.15163007
146	0xbd52a71a	-0.05142889
147	0xbcc4881b	-0.023990681
148	0x3c49d43c	0.012318667
149	0xbd3bfd23	-0.045895707
150	0xbd803190	-0.06259453
151	0x3c63a48a	0.01389421
152	0xbe57bb35	-0.21067508
153	0x3d98325d	0.07431481
154	0xbd713757	-0.058890667
155	0x3d243a1b	0.040094476
156	0xbe046ea9	-0.12932838
157	0xbe894162	-0.26807696
158	0xbd0df0f0	-0.034653604
159	0x3e0be84f	0.13662837
160	0xbdee648e	-0.11640273
161	0x3e3ec489	0.1862966
162	0xbb197971	-0.0023418332
163	0xbd2b5f24	-0.04183878
164	0x3e509f0f	0.20373176
165	0x3d82bc02	0.06383516
166	0x3d07c524	0.033146992
167	0x3d71798d	0.05895381
168	0x3d85c1ff	0.065311424
169	0xbd9ce5d5	-0.076610245
170	0xbdaa8b24	-0.0832732
171	0xbd7497d9	-0.059715126
172	0x3d9d48ba	0.07679887
173	0xbe00a04a	-0.12561145
174	0x3d8c091e	0.068376765
175	0xbdb77749	-0.08958299
176	0x3d0ea9d5	0.034829933
177	0x3dd9be25	0.1063197
178	0xbe038bb9	-0.12846269
179	0xbbb1431a	-0.0054096105
180	0xbcc89805	-0.024486551
181	0x3dd27175	0.102755465
182	0xbe528db1	-0.20561863
183	0x3d7f7449	0.062366758
184	0xbe2ad054	-0.16681033
185	0x3cdfbb6f	0.027311055
186	0xbd31ffea	-0.04345695
187	0x3df08bce	0.11745416
188	0x3dad0c81	0.084496506
189	0xbd75ca27	-0.06000724
190	0xbe1cb993	-0.15305166
191	0x3e0278de	0.1274142
192	0xbe3996ec	-0.18123978
193	0x3e2c3754	0.16817981
194	0xbda527b0	-0.080642104
195	0xbd07c5d7	-0.03314766
196	0xbdb9bd94	-0.09069362
197	0xbda58343	-0.08081677
198	0x3d550ccb	0.052014153
199	0x3c65bb3c	0.014021691
200	0xbd4c00f8	-0.04980561
201	0xbe971eb2	-0.29515606
202	0xb96822b2	-0.00022138169
203	0xbdfdb912	-0.12388815
204	0xbcc79511	-0.024363073
205	0xbe1d2571	-0.15346314
206	0xbe02a89c	-0.12759632
207	0xbd8259c3	-0.06364777
208	0xbd88450f	-0.06653797
209	0xbe9c68e8	-0.30548787
210	0x3d047f3d	0.032347906
211	0x3e268ec4	0.16265398
212	0x3d15e889	0.036598716
213	0x3e7e73e9	0.24848904
214	0xbd85c1d0	-0.065311074
215	0x3aa6f3f9	0.0012737504
216	0x3e42c167	0.1901909
217	0xbdb9f50c	-0.09079942
218	0xbd586d31	-0.052838508
219	0xbe2e6714	-0.17031509
220	0x3e2fbb10	0.17161202
221	0xbdb4b3f2	-0.08823384
222	0x3d7c7933	0.061639022
223	0x3d0fffa9	0.035155926
224	0x3dbe2379	0.092841096
225	0x3bc3ceb1	0.0059755673
226	0xbd5f7c1a	-0.05456171
227	0x3e8942e3	0.26808843
228	0xbdcf5c15	-0.10124985
229	0x3ba6a89e	0.0050860187
230	0xbd6d9c15	-0.05801018
231	0xbcdfc15d	-0.027313882
232	0xbdfdf057	-0.12399357
233	0x3c933fc4	0.017974742
234	0x3d29ed7e	0.041486256
235	0x3e484e90	0.19561219
236	0xbdbe10bb	-0.09280535
237	0x3e228d41	0.15874197
238	0xbdd9a897	-0.10627859
239	0xbc2aaa57	-0.010416589
240	0xbe13aa35	-0.14420398
241	0xbe3e10ff	-0.18561171
242	0xbba6d104	-0.0050908346
243	0x3cace562	0.021105472
244	0x3c7574c4	0.014981452
245	0xbda2e7ff	-0.07954406
246	0x3ddcd25b	0.107823096
247	0x3cdc92e3	0.02692551
248	0xbea69755	-0.32537332
249	0x3c83666f	0.016040055
250	0x3c4eed89	0.012629875
251	0xbd6a1ea4	-0.057158127
252	0xbdfcf756	-0.12351863
253	0xbd95efb9	-0.07321114
254	0xbd000796	-0.031257235
255	0xbccbe912	-0.02489141

network_body._body_endoder.seq_layers.2.bias f4 [128]
0	0xbc16204a	-0.009162972
1	0xbce2885c	-0.027652912
2	0xbddc3828	-0.107528985
3	0x3c9a2e28	0.018820837
4	0xbd55741a	-0.052112676
5	0xba2750c0	-0.0006382577
6	0x3ce8fa0a	0.02843954
7	0xbd91a7cb	-0.07112082
8	0xbd55ffc5	-0.052245874
9	0xbd066006	-0.03280642
10	0x3d96fb94	0.073722035
11	0xbcc8ce1e	-0.024512347
12	0xbcfbe9d6	-0.03075115
13	0xbc5c0576	-0.013429036
14	0xbdaac67f	-0.083386414
15	0xbd097e27	-0.033567574
16	0xbe0f0043	-0.13964944
17	0xbd2196d8	-0.039450496
18	0xbd375020	-0.044754148
19	0xbd3421ca	-0.043977536
20	0xbd516c23	-0.051128518
21	0xbd04826e	-0.03235095
22	0xbd73e84d	-0.05954771
23	0x3d1fd7de	0.039024226
24	0xbd9d9e22	-0.07696177
25	0x3bf4f6c3	0.0074757054
26	0xbca258ac	-0.019817673
27	0x3cae1afa	0.021253098
28	0x3d389397	0.045062628
29	0xbdb95ce4	-0.090509206
30	0x3e52b14f	0.2057545
31	0xbd3272e3	-0.043566596
32	0xbc847b92	-0.016172204
33	0xbc203323	-0.009777817
34	0xbda6c04d	-0.08142147
35	0xbd2a6631	-0.041601364
36	0xbd0bb10b	-0.03410439
37	0xbbc3465d	-0.0059593157
38	0xb887da41	-6.4779546e-05
39	0xbd44f5d1	-0.04808599
40	0xbcb66905	-0.022266874
41	0xbd5dd172	-0.05415482
42	0x3c917617	0.017756505
43	0xbd558763	-0.052131068
44	0xbd8dac5c	-0.069176406
45	0xbd8a3a40	-0.067493916
46	0xbdb67cf7	-0.08910554
47	0x3c228311	0.009918944
48	0x3d2170fd	0.039414395
49	0xbde411de	-0.111362204
50	0xbc93fcd9	-0.018064903
51	0xbdf4d31d	-0.11954329
52	0xbc921ce3	-0.01783604
53	0xbd7d26b2	-0.06180448
54	0xbd7b57a0	-0.061362863
55	0xbd25ab76	-0.04044672
56	0xbdca4e11	-0.09878171
57	0xbe001890	-0.1250937
58	0xbc0ec20c	-0.008713257
59	0x3d267d79	0.040647004
60	0xbdd22af6	-0.102621004
61	0xbd07b1e4	-0.033128634
62	0xbd33062e	-0.043707065
63	0xbd519513	-0.05116756
64	0xbd4bafb8	-0.049728125
65	0xbd08b620	-0.033376813
66	0xbcd5df36	-0.026107412
67	0xbdca2ae2	-0.098714605
68	0x3d9e43a9	0.07727749
69	0xbd16c5c6	-0.036809705
70	0xbd5b12c9	-0.05348471
71	0xbd094c19	-0.033519838
72	0x3ca41d2f	0.020033447
73	0xbd0b11c9	-0.033952508
74	0xbd664398	-0.056216806
75	0xbde9c1de	-0.1141393
76	0xbd897519	-0.06711788
77	0x3db5c6bd	0.08875797
78	0xbd497ca1	-0.04919112
79	0xbd869128	-0.06570655
80	0xbd87fbd7	-0.066398315
81	0xbd3f3368	-0.046679884
82	0xbd3c9a8a	-0.046045817
83	0xbd931cb4	-0.07183209
84	0xbde623dc	-0.112373084
85	0xbcc6d3ca	-0.02427091
86	0x3c8bd726	0.017070364
87	0xbc2b2a76	-0.010447135
88	0xbe13eab5	-0.14445002
89	0xbdca4a0b	-0.09877404
90	0xbddd992a	-0.10820229
91	0xbdb90dc9	-0.090358324
92	0xbc6f01a5	-0.014587794
93	0xbd29b532	-0.041432567
94	0xbd7c7798	-0.06163749
95	0xbc101839	-0.008794838
96	0x3ca8ddd4	0.020613588
97	0xbda8dda0	-0.082453966
98	0xbbf3aa01	-0.0074360375
99	0xbbb364a5	-0.0054746442
100	0xbc2ae28c	-0.01042999
101	0xbdf10722	-0.117689386
102	0xbdd1d359	-0.102453895
103	0xbd59eadb	-0.05320249
104	0xbc72759d	-0.014798549
105	0x3c45b4a4	0.012066994
106	0xbccd8f8c	-0.025092863
107	0xbce36aa0	-0.027760804
108	0xbc9fb7a8	-0.019496754
109	0xbd34929e	-0.044085138
110	0xbd9a9e1d	-0.07549689
111	0xbcfb53ff	-0.0306797
112	0xbd8e7b11	-0.06957067
113	0xbd591d73	-0.0530066
114	0xbc6b3a67	-0.014357186
115	0xbd05861a	-0.032598592
116	0xbc980d68	-0.01856108
117	0xbdbfc39e	-0.09363483
118	0xbd838dbd	-0.06423519
119	0x3d9dce3a	0.0770535
120	0xbd47fed0	-0.048826993
121	0xbd8a49d8	-0.06752366
122	0xbbdfa7be	-0.0068254163
123	0xbcbd071e	-0.023074683
124	0xbdae2660	-0.08503413
125	0xb94e3341	-0.00019664784
126	0xbdf0ae59	-0.11752004
127	0xbdc1ec88	-0.09468943

action_model._continuous_distribution.mu.weight f4 [1, 128]
0	0x3dade812	0.084915295
1	0x3ccde3bc	0.025133006
2	0x3d698c69	0.05701867
3	0xbb0cf5a3	-0.0021508716
4	0xbbc0740d	-0.0058732093
5	0x3b0b33ea	0.002124066
6	0xbe687987	-0.22702609
7	0x3be9ed30	0.0071388707
8	0x3ce0249c	0.027361207
9	0x3c20b0ad	0.009807748
10	0x3b076646	0.0020660325
11	0xbdef1133	-0.11673202
12	0x3d2df76e	0.042472295
13	0x3d0e2e5c	0.03471218
14	0xbcf6821b	-0.030091336
15	0x3d897fcc	0.067138284
16	0x3d696b5c	0.05698715
17	0xbd04cc8d	-0.032421637
18	0xbd179d33	-0.03701515
19	0x3cbf8554	0.023379005
20	0xbe050b86	-0.12992677
21	0x3c9ffeae	0.01953062
22	0xbc4acf43	-0.012378517
23	0xbc5f7f1a	-0.013641143
24	0x3d91197a	0.070849374
25	0xbdc5fd72	-0.096674815
26	0x3d8fcc1b	0.07021352
27	0xbd47f1f0	-0.048814714
28	0xbe58d27c	-0.21174043
29	0x3df84d4e	0.1212412
30	0xbea77101	-0.32703403
31	0x3bbb3c9a	0.0057140114
32	0x3db377b0	0.08763063
33	0x3c80b404	0.015710838
34	0x3c997e54	0.018736996
35	0xbc2b9367	-0.010472155
36	0x3c0ebf84	0.008712653
37	0x3d60b61a	0.054861166
38	0x3ceba040	0.028762937
39	0xbd393017	-0.045211878
40	0x3b864d66	0.004098582
41	0x3e3b6285	0.18299301
42	0xbe017e9d	-0.12645955
43	0xbcdbf8dd	-0.026852066
44	0x3cd51ac4	0.02601374
45	0xbb0d247e	-0.0021536644
46	0xbbe72653	-0.007054129
47	0xbd62aaf7	-0.055338826
48	0x3d748a29	0.059702072
49	0xbb60b40f	-0.003428701
50	0x3d36e923	0.04465593
51	0xbc94ce4e	-0.01816478
52	0x3d1c84ff	0.038212772
53	0x3b67436e	0.0035287994
54	0xbafc393a	-0.0019243129
55	0x3d904066	0.07043533
56	0x3d0ef76f	0.03490394
57	0xbb86cee0	-0.004114017
58	0x3d7580b3	0.05993719
59	0x3ca2351d	0.019800717
60	0x3e498221	0.19678546
61	0x3c85c580	0.016329527
62	0x3c91158b	0.017710468
63	0x3d03fee7	0.032225516
64	0xbbd9bb0e	-0.006644613
65	0xbdf1057b	-0.117686234
66	0x3caa2b4e	0.020772602
67	0xbb77fbd0	-0.00378393
68	0xbc6e5ce6	-0.014548516
69	0xbc8a517f	-0.016884563
70	0xbbdbda12	-0.0067093456
71	0x3c6d0712	0.014467018
72	0xbcf7b427	-0.03023727
73	0xbcbefff2	-0.023315404
74	0xbc0621a9	-0.008186736
75	0x3d53999e	0.051660173
76	0xbc99dd9c	-0.01878243
77	0x3d1fb6f8	0.038992852
78	0xbc22a10d	-0.009926093
79	0x3c06f3a9	0.008236804
80	0x3bc42857	0.005986254
81	0x3c89b07f	0.016807793
82	0x3c24e616	0.010064622
83	0xbc9b541c	-0.018961005
84	0x3c212f0a	0.009837875
85	0xbdb7418e	-0.089480504
86	0x3c6050cf	0.013691141
87	0x3dd0e4c3	0.10199883
88	0x3d2c1666	0.04201355
89	0x3dc94fb9	0.09829659
90	0xbd046fbe	-0.03233313
91	0x3baf2830	0.005345367
92	0xbd73a297	-0.05948123
93	0x3c99aaba	0.018758167
94	0x3a7eace8	0.0009715096
95	0x3ccbe31b	0.024888566
96	0x3d001946	0.031274103
97	0x3bed41b4	0.0072404984
98	0x3d3fdb57	0.04684004
99	0x3d68f5cd	0.05687504
100	0x3d2ee2ee	0.042696886
101	0xba37ef15	-0.0007016522
102	0xb88b8ce1	-6.654277e-05
103	0xbcd5b0f1	-0.026085349
104	0xbdc5f482	-0.09665777
105	0xbc7324a6	-0.014840281
106	0x3cb5408c	0.022125505
107	0xbbf3b8a4	-0.0074377824
108	0xbd90a56f	-0.07062804
109	0x3db84c4f	0.0899893
110	0x3d2ba9e0	0.041910052
111	0xbce3ae23	-0.027792996
112	0xbbfee3cf	-0.0077786217
113	0xbc937592	-0.018000398
114	0xbd7ee522	-0.062230237
115	0x3d804fcc	0.0626522
116	0x3be32d71	0.0069329073
117	0xbc1b90f8	-0.009495012
118	0x3ba2300c	0.0049495753
119	0xbd9c86f3	-0.07642927
120	0xbb06e9c4	-0.0020586113
121	0xbcc944cc	-0.024568938
122	0xbcdfda50	-0.02732578
123	0xbdae4b7a	-0.0851049
124	0x3d115570	0.03548187
125	0xbd099d10	-0.033597052
126	0x3ded129e	0.115758166
127	0x3ca8b8a1	0.02059585

action_model._discrete_distribution.branches.0.weight f4 [2, 128]
0	0xbca69dd4	-0.02033893
1	0xbda6c946	-0.081438586
2	0xbcd5d3c1	-0.026101949
3	0x3daaa28e	0.08331786
4	0xbc3c43cd	-0.011490774
5	0x3d3e71ac	0.046495125
6	0xbb16c6c7	-0.0023006664
7	0xbc405582	-0.011739137
8	0xbdd0eefa	-0.10201831
9	0xbd05ee46	-0.03269794
10	0x3decb0a1	0.11557127
11	0xbd82dfca	-0.063903406
12	0x3da31f6c	0.079649776
13	0xbcf041c2	-0.02932823
14	0x3cac66eb	0.021045169
15	0xbd3130a4	-0.043259278
16	0x3cd0d6b7	0.025493009
17	0x3e0eb8ee	0.13937733
18	0xbe1029a6	-0.14078388
19	0xbd0ca508	-0.034337074
20	0xbde990f5	-0.114046015
21	0xbdaf7587	-0.085673384
22	0xbe1750cd	-0.14776917
23	0x3e3472d6	0.17621931
24	0x3dc7768f	0.0973941
25	0xbcd2a841	-0.025714995
26	0xbcf10760	-0.029422462
27	0x3e568d95	0.20952447
28	0x3b29370e	0.0025820169
29	0xbdbd27a0	-0.092360735
30	0xbc2f051e	-0.010682372
31	0x3d156c62	0.036480315
32	0x3db04e8f	0.08608734
33	0xbd2fcc5d	-0.042919505
34	0xbd3d6192	-0.04623563
35	0xbd31d906	-0.04341986
36	0xb8dfda65	-0.00010674148
37	0x3d460e86	0.048353694
38	0x3d069d49	0.032864843
39	0xbe154bfb	-0.14579765
40	0x3b9cdc8e	0.0047870344
41	0xbca97c47	-0.020689143
42	0x3d1519ca	0.036401547
43	0xbce37c5d	-0.027769262
44	0xbd170ecd	-0.03687935
45	0xbe3d39f7	-0.18479143
46	0x3ccf4dcc	0.025305651
47	0x3e566942	0.2093859
48	0x3d5743a3	0.052554738
49	0xbc3a03bc	-0.011353429
50	0x3c075412	0.00825979
51	0xbd000d8c	-0.03126292
52	0xbb855a6b	-0.0040696166
53	0x3cb99424	0.022653647
54	0xbcf929ec	-0.030415498
55	0xbd7f6bab	-0.06235854
56	0xbc494ad7	-0.01228591
57	0xbb47bf09	-0.0030478856
58	0x3cba8d73	0.022772526
59	0x3e0758f2	0.13217524
60	0xbd8d9072	-0.069123164
61	0xb91d6eaa	-0.00015013912
62	0x3c3d4aba	0.011553461
63	0x3d91de04	0.07122424
64	0xbc0ed40f	-0.008717551
65	0xbe1d1cb4	-0.1534298
66	0xbc8bcbee	-0.017065015
67	0xbb721f6a	-0.0036944994
68	0x3e7f8c2d	0.24955817
69	0xbd88c756	-0.06678645
70	0x3cf2bc24	0.029630728
71	0x3d9c531b	0.076330386
72	0x3e3d1c78	0.18467891
73	0xbd972e0c	-0.073818296
74	0xbd0c51b5	-0.03425761
75	0xbc3c6a24	-0.011499915
76	0xbd8587a0	-0.06520009
77	0x3e32d278	0.174631
78	0x3d4895c6	0.04897096
79	0x3cc52ee5	0.024070213
80	0x3d1e3dec	0.038633272
81	0xbceae1c8	-0.028672114
82	0xbcea9a19	-0.028637933
83	0xbdc0f379	-0.09421439
84	0xbcc060c7	-0.023483647
85	0xbb8e29fe	-0.004338502
86	0x3cbf671c	0.023364596
87	0xbcf1b365	-0.029504487
88	0x3e73c93e	0.23807237
89	0xbda409de	-0.080096945
90	0xbd5cfa99	-0.053949926
91	0xbc10815d	-0.008819905
92	0xbb2402c9	-0.0025026074
93	0x3c918a97	0.01776628
94	0x3daabfef	0.0833739
95	0x3ca1d7ab	0.019756159
96	0x3ca3b0bb	0.019981733
97	0xbd42ad8d	-0.047528792
98	0x3d5ac194	0.053407267
99	0xbdf51340	-0.11966562
100	0x399c77f9	0.00029844025
101	0xbda3c66b	-0.079968296
102	0x3acfaa12	0.0015843532
103	0xbd4c57e1	-0.049888495
104	0x3d703e35	0.058653075
105	0x3e54765a	0.20748273
106	0x3dc23533	0.09482803
107	0x3cbd07e1	0.023075046
108	0x3d1a3d5d	0.037656177
109	0x3a6ecc05	0.0009109381
110	0xbd4522c6	-0.048128866
111	0xbd52fd90	-0.051511347
112	0x3d9bf592	0.07615198
113	0xbe4318a8	-0.19052374
114	0xbc3562d1	-0.011070923
115	0x3c220e19	0.009891056
116	0xbd8779f8	-0.066150606
117	0x3d429f81	0.047515396
118	0xbd7006db	-0.058600288
119	0x3e8798a0	0.2648363
120	0x3b237332	0.0024940488
121	0xbcbf008f	-0.023315696
122	0x3e280bd8	0.16410768
123	0xbc8392a5	-0.016061136
124	0x3b90c2b5	0.004417742
125	0x3d49d06e	0.04927104
126	0xbe49897f	-0.19681357
127	0xbbeb7e23	-0.0071866675
128	0x3cfb6c1b	0.030691197
129	0x3dbae775	0.09126178
130	0x3d030b50	0.03199321
131	0xbda61a95	-0.08110539
132	0x3b06ef63	0.0020589463
133	0xbd832985	-0.064044036
134	0x3c1aa65b	0.009439076
135	0x3c3d46e3	0.011552545
136	0x3dc4c65c	0.096081465
137	0x3d336f88	0.043807536
138	0xbde70df1	-0.11281956
139	0x3d924a1f	0.07143044
140	0xbd823948	-0.06358582
141	0x3c57eb97	0.013178728
142	0xbc72ef76	-0.0148276
143	0x3cb6bf5c	0.022308044
144	0xbd34cf79	-0.044143174
145	0xbdfba2d5	-0.12286917
146	0x3e1ccf42	0.15313438
147	0x3ce0cfdf	0.02744287
148	0x3e0c064b	0.13674276
149	0x3d94dea9	0.072690316
150	0x3e06d0dd	0.13165613
151	0xbe1e8d9a	-0.15483704
152	0xbda2d1a0	-0.07950139
153	0x3c1cd71c	0.00957277
154	0x3cdc737f	0.026910542
155	0xbe5a0239	-0.2128991
156	0x3c528a54	0.012850363
157	0x3dc3f40e	0.09568034
158	0xbba8fe6c	-0.0051572826
159	0xbccf4551	-0.025301607
160	0xbd828b5f	-0.06374239
161	0x3d1e7e7d	0.038694847
162	0x3d21b123	0.03947557
163	0x3d180c95	0.037121374
164	0xbc01c6a0	-0.007920891
165	0xbd5da214	-0.054109648
166	0xbd0a7abf	-0.033808466
167	0x3e195bb1	0.14976384
168	0xbc8f2c97	-0.017477317
169	0xbbb999f0	-0.0056641027
170	0xbcf05ada	-0.029340196
171	0x3d1b2edc	0.037886485
172	0x3d1fbd27	0.03899875
173	0x3e47941d	0.19490094
174	0xbcd1c441	-0.025606276
175	0xbe514272	-0.20435503
176	0xbd6959cc	-0.056970403
177	0x3ce1abc2	0.02754772
178	0xbc8a51b7	-0.016884668
179	0x3d2504ee	0.040287904
180	0xbba5af3b	-0.0050562895
181	0xbd45d453	-0.04829819
182	0x3ca1d9d2	0.019757185
183	0x3d7db265	0.06193771
184	0x3ccb4f29	0.02481802
185	0xbc70a768	-0.01468835
186	0xbc7a9bc1	-0.015295924
187	0xbddca9d6	-0.10774581
188	0x3daa2e1d	0.08309577
189	0xbc9019af	-0.017590372
190	0xbce2cdbd	-0.027685994
191	0xbd8757c0	-0.06608534
192	0xbc3d20ee	-0.011543496
193	0x3e1a7a65	0.15085752
194	0x3b5fa825	0.0034127322
195	0xbc81cbf7	-0.015844328
196	0xbe707ba8	-0.23484671
197	0x3da629b2	0.081134215
198	0xbd1e302a	-0.03862015
199	0xbd9072a5	-0.07053117
200	0xbe3ad4ad	-0.18245192
201	0x3da53294	0.08066288
202	0x3d16a980	0.03678274
203	0x3bb2807b	0.005447445
204	0x3d3d7589	0.04625467
205	0xbe372b85	-0.17887695
206	0xbd995f9f	-0.074889414
207	0xbcbd0cc6	-0.02307738
208	0xbcb2b937	-0.021816833
209	0x3d11a878	0.035561055
210	0x3d131cf1	0.035916273
211	0x3de94a46	0.1139112
212	0x3cd54ddb	0.026038101
213	0x3c1833b0	0.009289667
214	0xbca6269c	-0.020282082
215	0x3c3b662a	0.011437932
216	0xbe652710	-0.22378182
217	0x3da2b349	0.07944352
218	0x3d2ba933	0.041909408
219	0xbc8cffdb	-0.017211845
220	0x3b43c701	0.0029873254
221	0x3c37cbe9	0.01121805
222	0xbd6a8a63	-0.057260882
223	0xbcd531ae	-0.026024666
224	0xbd49be18	-0.049253553
225	0x3ce429a3	0.027851885
226	0xbd3b0ae3	-0.04566468
227	0x3df474d1	0.119363435
228	0xbc967e72	-0.01837084
229	0x3d86e4ad	0.06586585
230	0xbafe03d2	-0.0019379801
231	0x3d25dfaf	0.040496524
232	0xbd72a5c3	-0.059240114
233	0xbe6c64c8	-0.2308532
234	0xbd8b35ff	-0.06797408
235	0xbd07e202	-0.033174522
236	0xbd0bfe46	-0.03417804
237	0xbc2d6fd2	-0.010585742
238	0x3d2647f6	0.04059597
239	0x3d6d1f71	0.057891313
240	0xbda298c3	-0.07939293
241	0x3e437c7d	0.19090457
242	0xbbc60913	-0.006043562
243	0xbcd6eae8	-0.026235059
244	0x3da55ab7	0.08073943
245	0xbd4fc8e1	-0.050728682
246	0x3d9d9437	0.07694285
247	0xbe88ce20	-0.2671976
248	0xbc17afb1	-0.009258197
249	0x3c44adce	0.012004329
250	0xbe250fcb	-0.16119306
251	0x3cead5cc	0.0286664
252	0xbbaaa1f8	-0.0052072965
253	0xbcee984c	-0.029125355
254	0x3e56aa9e	0.20963523
255	0x3c058159	0.008148515

action_model._discrete_distribution.branches.0.bias f4 [2]
0	0x3d525033	0.051346015
1	0xbd52501a	-0.051345922

action_model._discrete_distribution.branches.1.weight f4 [2, 128]
0	0x3ced585e	0.0289728
1	0x3d381857	0.044945087
2	0x3c340485	0.010987406
3	0x3d32b5a1	0.043630246
4	0x3c870471	0.01648161
5	0xbb49a794	-0.003077005
6	0x3b1a4d4b	0.0023544605
7	0xbca28de3	-0.019843047
8	0xbd2efdc6	-0.042722486
9	0xbbd262b6	-0.0064204587
10	0x3c19105a	0.009342277
11	0xbd5da1af	-0.05410927
12	0x3cc75359	0.024331735
13	0x3be15fce	0.006877876
14	0xbb813a48	-0.0039437152
15	0xbbbc8fe7	-0.005754459
16	0x3cfd484f	0.030918268
17	0xbd5c6485	-0.0538068
18	0x3dd5f1a2	0.104464784
19	0x3bac16bc	0.0052517336
20	0xbd46acbb	-0.048504572
21	0x3d4f3573	0.050588083
22	0x3bcae8a9	0.006192286
23	0x3d0e6fec	0.034774706
24	0xbcfc7a84	-0.030820139
25	0xbc61f2e2	-0.013790818
26	0x3d79d5cc	0.06099491
27	0xbd7becf6	-0.06150528
28	0x3c783996	0.015150448
29	0x3b98be7a	0.0046613785
30	0x3cb46ce3	0.022024577
31	0x3bfd1272	0.007723146
32	0xbc261d37	-0.010138801
33	0x3b916525	0.004437106
34	0xbce9c687	-0.028537048
35	0x3d123170	0.03569168
36	0xbbc1af7c	-0.005910812
37	0xbba9b8e2	-0.0051795105
38	0x3cd50ab9	0.02600609
39	0x3ae5520c	0.0017495765
40	0xbc8d1cef	-0.01722571
41	0x3d888dd1	0.06667674
42	0xbcb11b7f	-0.021619556
43	0xbcae4264	-0.021271892
44	0xbc2aba2c	-0.010420363
45	0xbd8895bd	-0.06669185
46	0xbca43148	-0.02004303
47	0xbd30d187	-0.04316857
48	0xbca595bb	-0.020212999
49	0xbc02ece2	-0.007991048
50	0x3ca92688	0.020648256
51	0xbbc4ef52	-0.0060099745
52	0x3bf96950	0.007611431
53	0x3bc2ebd0	0.005948521
54	0x3c0f13f6	0.008732786
55	0xbb555c8d	-0.0032556385
56	0xbac1219a	-0.0014734745
57	0x3c7d7b1a	0.015471244
58	0xbca4bcea	-0.020109612
59	0xbd4ce0af	-0.050018962
60	0xbc8da4fc	-0.017290585
61	0xbd6ba397	-0.05752906
62	0x3caaad1b	0.020834496
63	0x3cf91022	0.0304032
64	0xbced9472	-0.029001448
65	0x3c8a807c	0.01690697
66	0x3d81822d	0.06323657
67	0x3c072748	0.0082491115
68	0x3caa4690	0.0207856
69	0xbb531294	-0.0032207118
70	0xbb7e9edc	-0.0038852012
71	0xba5e1b3a	-0.0008472685
72	0x3d540e89	0.051771674
73	0xbbe531b5	-0.006994451
74	0xbcbbe45c	-0.022936039
75	0x3cf32ecc	0.0296854
76	0xbbd08038	-0.006362941
77	0xbd824eec	-0.063627094
78	0xbd0694ea	-0.03285686
79	0x3b949bdf	0.004535183
80	0xb9ebee55	-0.00045000264
81	0x3c82f3dd	0.015985424
82	0xbd0cb655	-0.034353573
83	0xbdf84b65	-0.12123755
84	0xbcebf64b	-0.028803965
85	0x3d2c8813	0.042121958
86	0x3bc4c62a	0.0060050683
87	0xbce46322	-0.027879301
88	0xbd84ef34	-0.06490937
89	0xbc54e3e2	-0.012993785
90	0xbe2793f6	-0.16365036
91	0xbc2c6483	-0.010522011
92	0xbc58592d	-0.013204855
93	0x3ca7fd8b	0.02050664
94	0x3c7cdaed	0.015433055
95	0xbbd82f9d	-0.006597473
96	0x3a857e65	0.0010184763
97	0xbc08c422	-0.008347543
98	0x3caea6f8	0.021319851
99	0x3d22e5e5	0.039770026
100	0x3cf68c9f	0.03009635
101	0x3d54ba3a	0.051935412
102	0x3a58c346	0.0008268844
103	0x3d3d8e17	0.046278086
104	0x3e441d6a	0.19151846
105	0xbd18f7b4	-0.037345603
106	0xbd0a299f	-0.0337311
107	0xbc4cf765	-0.012510155
108	0xbc5b6ca9	-0.013392606
109	0x3cde5b5f	0.027143179
110	0x3c1a1d7d	0.009406445
111	0x3da3b3a3	0.07993247
112	0xbc9776a2	-0.018489186
113	0xbd3d0079	-0.04614303
114	0x3c4c1ccc	0.012458038
115	0x3c96dd47	0.01841606
116	0xbd6a0ade	-0.05713927
117	0xbc0f37ec	-0.00874136
118	0xbd6f1071	-0.05836529
119	0xbd5e8c94	-0.054333284
120	0xbab557a0	-0.0013835318
121	0xbd402f5b	-0.04692016
122	0xbd1f14c8	-0.038838178
123	0x3d2ab996	0.041680895
124	0x3cf10252	0.029420052
125	0xbceea643	-0.029132014
126	0xbdb617d9	-0.08891267
127	0xbb8acde6	-0.004235971
128	0xbd0723ea	-0.032993235
129	0xbd84406f	-0.06457602
130	0xbcb9b338	-0.022668466
131	0xbd2c6d42	-0.042096384
132	0x3b694a5e	0.0035597305
133	0xbc050325	-0.0081184255
134	0xbb890997	-0.0041820514
135	0xbba548f9	-0.0050440994
136	0x3d5454b9	0.05183861
137	0x3b3d8b37	0.002892209
138	0xb9288831	-0.00016072464
139	0x3d7dd8a3	0.06197418
140	0xbb62bd18	-0.0034597572
141	0xbbf30d8f	-0.007417388
142	0xbc4e0286	-0.012573844
143	0x3c762cfb	0.015025373
144	0xbcf15f49	-0.02946438
145	0x3d55be82	0.052183636
146	0xbdc32fb0	-0.0953058
147	0xbcb2ae31	-0.021811577
148	0x3d04882c	0.032356426
149	0xbce5e868	-0.028064921
150	0xbb18b090	-0.0023298599
151	0xbcc8dae9	-0.024518447
152	0x3c0561d5	0.008141001
153	0x3c94b568	0.018152907
154	0xbd8fd2ff	-0.07022666
155	0x3da7ab49	0.08186967
156	0x3ba2c558	0.004967373
157	0xba89d973	-0.0010517075
158	0xbc9e816a	-0.019348819
159	0xbce0f151	-0.027458819
160	0x3c14b507	0.009076363
161	0x3c28065c	0.010255422
162	0x3cb3bdd9	0.021941112
163	0xbcf4430a	-0.029817123
164	0x3b4099d3	0.0029388561
165	0xbbeaa95d	-0.007161303
166	0xbd1c529f	-0.03816473
167	0x3ac57691	0.0015065243
168	0x3c5a47a7	0.013322747
169	0xbd299a15	-0.04140671
170	0x3cbb7e32	0.022887323
171	0x3c3b7fc2	0.011444034
172	0x3c00bc89	0.00785745
173	0x3d744c5f	0.059643146
174	0x3ccd39c7	0.025051964
175	0x3d48905d	0.0489658
176	0x3c094121	0.008377344
177	0xba7dd200	-0.00096824765
178	0xbbe9c8b4	-0.0071345214
179	0x3ca10209	0.01965429
180	0xbc339b48	-0.010962315
181	0xbc282ad4	-0.010264117
182	0xbc56034b	-0.013062309
183	0x3aaded18	0.0013269512
184	0x39bf6958	0.00036508846
185	0xbcdbaffd	-0.026817316
186	0x3b156020	0.002279289
187	0x3d365080	0.044510365
188	0x3c6c0e1f	0.014407664
189	0x3d355d73	0.044278573
190	0xbcbe1e7b	-0.023207894
191	0xbb07aac0	-0.002070114
192	0x3d21d28b	0.03950743
193	0xbd1b6560	-0.037938476
194	0xbd5d0f5f	-0.053969737
195	0x3c87986d	0.016552174
196	0xbd16f312	-0.036852904
197	0xbaf23ce2	-0.0018481279
198	0x3c3cefdd	0.011531797
199	0x3cc325f0	0.023821801
200	0xbd87b39f	-0.06626057
201	0xba4ca0d3	-0.0007805947
202	0x3c69775e	0.014249651
203	0xbd13e2e8	-0.036105067
204	0x3cb2616a	0.021774966
205	0x3d840a2d	0.064472534
206	0x3ce639d0	0.028103739
207	0x3bc12121	0.005893842
208	0x3b8147aa	0.0039453106
209	0xbbd9cda2	-0.006646828
210	0x3ba8757a	0.0051409574
211	0x3ddae81b	0.10688802
212	0x3d505e53	0.050871205
213	0xbd37ca22	-0.044870503
214	0x3bd8f9c2	0.0066215703
215	0x3d19bcda	0.03753362
216	0x3d83aa6f	0.06428992
217	0x3b4b55c5	0.0031026464
218	0x3e14552b	0.14485614
219	0x3ca35f1c	0.019942813
220	0x3ba9dcae	0.005183778
221	0x3a9bae1d	0.0011877451
222	0xbcc9a198	-0.024613187
223	0x3cab2965	0.020893762
224	0x3c7edebd	0.015556035
225	0x3cd5d341	0.02610171
226	0xbc42be3c	-0.011886176
227	0xbd0027cb	-0.03128795
228	0xbc622aeb	-0.013804178
229	0xbd3ccfab	-0.046096485
230	0x3b64d789	0.0034918508
231	0xbd2348f7	-0.039864507
232	0xbe4e42ce	-0.20142671
233	0x3c7956b1	0.015218423
234	0x3d00f082	0.031479366
235	0x3c99bccc	0.018766783
236	0x3c5105f9	0.012757772
237	0xbc1ca207	-0.009560115
238	0xbaa30c85	-0.0012439644
239	0xbda64500	-0.081186295
240	0x3d1644de	0.03668677
241	0x3d8647a9	0.06556637
242	0xbc23417d	-0.009964344
243	0xbd0cf974	-0.034417585
244	0x3d539a5a	0.051660873
245	0x3c27f3f1	0.010251031
246	0x3d3b9cdb	0.045803886
247	0x3d6bea83	0.057596695
248	0xbcbbad41	-0.022909762
249	0x3d199e2b	0.037504356
250	0x3ccd218c	0.02504041
251	0xbd32b87c	-0.04363297
252	0xbd2078b8	-0.039177626
253	0x3cbc15e1	0.022959651
254	0x3dc04f10	0.0939008
255	0xbc72b0d2	-0.014812665

action_model._discrete_distribution.branches.1.bias f4 [2]
0	0xbc90c906	-0.01767398
1	0x3c90c916	0.01767401
