UnityProject/results/testModel14/AI Car Ver5/AICar-10684829.onnx (onnx, 133264 bytes, 12 tensors)

discrete_action_output_shape f4 [1, 2]
00000000: 0000 0040 0000 0040
2.0 2.0

network_body._body_endoder.seq_layers.0.weight f4 [128, 117]
00000000: 6827 f33e 68f1 48bd 6f53 c23d 9356 87bd
00000010: 0b45 49bd 9544 473e f960 fcbe e09e 0a3d
00000020: 46e6 013d 355d 75bc 884e c63e 27db cbbd
00000030: 856a 87bc e94d abbd b94d 2bbd 5d2f bd3e
00000040: ac05 3fbe 0685 61bd b403 d2bd d183 3cbe
00000050: 89cc dfbc 9020 393d 2565 c23c fd32 28be
00000060: 4a81 1b3e f7da f13d e9b6 42be dcea d0bd
00000070: 9fec abbd b4c3 14bd 5840 8cbe dfe1 e13c
00000080: ce13 a03d ea53 7c3e f51d 443e 3e87 303e
00000090: ffdd 1fbe 6d42 cfbd fc71 183e fc11 0ebd
000000a0: 14c6 e0bd ffba 5c3e cc63 e53d 098e e6bd
000000b0: 3e1d 2a3e d242 0c3e 560a c2be 4fd6 ffbd
000000c0: 2d52 6b3b 105f 3cbd ae75 4ebd 3509 433e
000000d0: 01ce 0c3e c675 1ebd 6278 933d 1527 273e
000000e0: 2e18 c5bd 28f0 4cbe c532 c23c f01f 9bbd
000000f0: 31a9 f5bd f02f 383e abae 9fbd 2288 abbd
00000100: 11c0 753d e13e 043d 36db fbbd a53d 453d
00000110: 8705 953c b2fd 88bd 7d1b 05bd ece9 a8bc
00000120: 38a6 dfbc 6dde 78bd e624 173e a2da 5ebd
00000130: 3ce1 1e3d 8d67 f4bd 2204 163e 22f7 d9bd
00000140: bac0 e03c 72c4 133e 2c12 f23d 4036 6ebd
00000150: 86ad 663e 4413 16bd f68b d4bb d3f8 b6bc
00000160: 2056 8d3b 7885 92bc 0b79 23bd 4154 ea3d
00000170: 9640 85b9 ecfa 163e b880 9c3e 93f5 853d
00000180: a272 c03d f968 1cbd bae5 dcbd d782 d8bd
00000190: be4b 86bc f641 95bc 7841 3abd 70fe 8bbd
000001a0: d338 ba3d dc16 8abc c5a3 eabd f958 71be
000001b0: ec26 a3bd b045 e0bd 8211 7aba 4121 86bd
000001c0: ad48 e9bd 5530 413d da63 d6bd 67a2 25bc
000001d0: 7758 a2bc b8de 1bbe 51a5 853b ceaf b73d
000001e0: 6464 853c ee37 053e 6d91 88be 2404 60bc
000001f0: f5d1 7c3d dd6d 513c aa58 8e3e 0f89 f43d
00000200: aa23 ba3c 86a7 a6bd d059 023e e93b 163e
00000210: 8aaf bbba 71d5 a5bd df61 4abd 6005 023e
00000220: e437 943d 3619 5dbc 6257 28bd 93ac 073d
00000230: e369 58bd f9a6 57be e6ab 67bd d29a 553e
00000240: 2abb cc3c 6c25 283c aeb2 1f3e 05b2 663c
00000250: 3099 8b3b 8d46 153e 97e7 f73d 549f 2b3e
00000260: 5fef 26be 2de7 d73d 1bdd 353e af7c 333e
00000270: e677 fc3d bb78 8ebd eef1 083b 1e7f 813e
00000280: b76a 493e c4fe 233e 8bd5 50be 9fac 893e
00000290: 7dc3 0d3e e46e 39bd 9c30 1c3e a67b a03c
000002a0: 2a77 42be 73fa 39bd 7b25 263e 0d39 7f3c
000002b0: a643 9abd 50c7 ab3d ad17 0cbd aa31 8dbb
000002c0: 5599 143d ded7 83bd 1bbd 1ebd b1eb 03bc
000002d0: 88ee 16bc 8b6e 1dbc 71fd fc3d 34c5 633d
000002e0: 4064 c93c 123c 56be 2aa7 853c 1d0c 43bd
000002f0: 1d81 23be eabc ecbc 5f83 e83d 5f8f cd3d
00000300: 857a d2bd a3cc afbb 8069 5f3d 0e2c 07be
00000310: 9205 0d3d 9c19 cb3d 75b9 a23d 58e9 2fbd
00000320: 9df2 c63d a30c afbd b959 c13c cf5d 13bb
00000330: e41c e2bc f55d 2abe 0c12 1d3d 7137 91bd
00000340: c03f e53d 9576 993d 60a5 153e 46c8 8fbd
00000350: a246 24be 06ce dfbd 9872 c83d 0ce4 01bd
00000360: bc83 a1bd 93b3 0cbc a8d0 b7bb 3dcb f33d
00000370: cf91 0fbe be0b 96bc 3dc6 7bbe 62e0 ff3c
00000380: 1b08 eebc 22d7 2f3c 6370 993c f9ec d3bc
00000390: 920d de3d 9303 99bb db26 29bd 35ab 38bd
000003a0: 48cd 97bc 323c 22bd b369 273e aba2 aabc
000003b0: f3cb 813d 2268 6a3d 6017 023e 7da4 e53e
000003c0: 8a88 9fbc 7317 f53c 271e dcbc 96af 893d
000003d0: 4076 91be cfd4 353e 79b5 afbd 3227 f23c
000003e0: 9e79 ae3d c973 d53e 4e9e 67be 8af9 a73e
000003f0: fa07 8f3d eaff 92bd 84c2 c4bd c5c1 943e
0.47491002 -0.049058348 0.0948857 -0.066083096 -0.04913811 0.19459756 -0.49292734 0.03384292
0.031713746 -0.014975836 0.3873179 -0.09953909 -0.016530285 -0.083644696 -0.04182217 0.36950198
-0.18654507 -0.0550585 -0.102546126 -0.18409659 -0.02731921 0.04519707 0.02372987 -0.164257
0.15186039 0.11809342 -0.19015087 -0.10201046 -0.08394741 -0.03631945 -0.2739284 0.027573524
0.078162774 0.24641386 0.19152053 0.17239091 -0.15612029 -0.101200916 0.14887232 -0.03468512
-0.109752804 0.21555708 0.11200675 -0.1125756 0.16612718 0.13697365 -0.3789851 -0.12492048
0.0035907135 -0.045989096 -0.050405197 0.19046481 0.13750459 -0.038686536 0.072006956 0.16323502
-0.096237525 -0.20013487 0.02370585 -0.07574451 -0.11995161 0.17987037 -0.07796987 -0.08375575
0.059997622 0.03228653 -0.122976705 0.048154492 0.018191112 -0.066890135 -0.032496918 -0.020619355
-0.027300939 -0.060758997 0.1476017 -0.054407723 0.03878902 -0.11933813 0.14650014 -0.1064284
0.02743565 0.14430407 0.11819872 -0.058157206 0.22527131 -0.036639467 -0.006486411 -0.022335446
0.0043132454 -0.017885908 -0.039910357 0.114418514 -0.00025415857 0.14744157 0.30566955 0.0654098
0.093968645 -0.038186047 -0.10786004 -0.10571831 -0.016393539 -0.01821993 -0.045472592 -0.068356395
0.090928696 -0.016856603 -0.11457018 -0.23569097 -0.07966408 -0.10950792 -0.0009539352 -0.065493114
-0.11390815 0.047165234 -0.10468264 -0.0101095205 -0.019817574 -0.15221679 0.004078545 0.08969079
0.016283222 0.13009617 -0.2667345 -0.013672862 0.061723668 0.012782541 0.2780202 0.11940204
0.022722084 -0.08137421 0.12729573 0.14671291 -0.0014319282 -0.08097351 -0.049409743 0.12697363
0.07237223 -0.01349478 -0.04109896 0.033123564 -0.052835356 -0.21059789 -0.05656042 0.2085984
0.02499159 0.010262828 0.15595505 0.014080529 0.0042602047 0.14577694 0.12104719 0.16759998
-0.1630225 0.1054214 0.17760126 0.17528032 0.12327556 -0.06956621 0.0020896154 0.25292295
0.19669615 0.16015154 -0.2039396 0.26889512 0.13844104 -0.04527177 0.15252918 0.01959021
-0.1899077 -0.045404863 0.16225235 0.015577567 -0.07532434 0.08387625 -0.034202266 -0.004308899
0.03627904 -0.06437658 -0.038754564 -0.008051799 -0.009212144 -0.009608875 0.123530276 0.05560799
0.024583936 -0.20921353 0.016315062 -0.047618974 -0.15967222 -0.028898675 0.11353182 0.100371115
-0.10277275 -0.005364971 0.054543972 -0.132004 0.03442914 0.09916994 0.07945529 -0.042947143
0.097142436 -0.08547332 0.023602353 -0.0022486334 -0.027601667 -0.16637404 0.03834729 -0.07090653
0.111938 0.07493321 0.14613867 -0.07020621 -0.1604257 -0.10927968 0.09787482 -0.031711623
-0.078864545 -0.008587736 -0.0056095906 0.11903999 -0.14020465 -0.018316146 -0.2458734 0.031234924
-0.0290566 0.010732444 0.018730348 -0.025869833 0.10842432 -0.0046696155 -0.04129682 -0.04508515
-0.018530503 -0.039608188 0.16348915 -0.02082952 0.06337728 0.057228215 0.1270423 0.44852057
-0.019474287 0.029918408 -0.026869847 0.067229435 -0.2841053 0.17756961 -0.08579535 0.029559705
0.085192904 0.416899 -0.22618982 0.3280757 0.06983943 -0.07177718 -0.096074134 0.29054084

network_body._body_endoder.seq_layers.0.bias f4 [128]
00000000: dd99 3a3d f12e 7a3c 0dbc c6bc 046b 853c
00000010: f0b7 483d d488 493a 1e13 293c 601b e5bb
00000020: 0609 42bc 2fad 133c 1127 13bc 8482 be3c
00000030: 26f2 173c 5751 adbb dda9 f1bb cc22 7f3c
00000040: 1d26 abbc 4142 b33c 8353 cf3a 37f2 f03b
00000050: a689 fa3b 4b70 8c3a 5f65 56bc 48cc 67bc
00000060: 5d63 ff3c 536e b13a a3df 94bc 71ad e0bc
00000070: 15d4 a63c e0e1 0bbc eb48 d03c 12e9 023d
00000080: a733 373c 0410 643b 45bf 693c 8530 c73b
00000090: fa60 87bc 86df 88bc 38af 813c fe04 c43b
000000a0: 1157 0f3d 5c76 66bc 35f4 493c e12a 553c
000000b0: 032c 8b3c 0d1a 7b3b d25d 9e3c 7a3a 71bc
000000c0: 815d 903a 9eda 293c 593e 16bc 618f 0d3c
000000d0: 7c14 94bc 9c8e fbbc f958 a7bc ae63 da3c
000000e0: f9bb c9bb 1cf3 12bc 9e1e 8cbb ad31 a4ba
000000f0: e043 48bb e3a6 5a3d 71aa d43c ae97 fb3c
00000100: bf24 d33c 2109 0fbd 6884 60bc 5b62 203b
00000110: bd05 98bb 797f 7c3c 525d 91bc d2d3 6e3c
00000120: bf13 72ba 582e 883b 5f5e 73bc 8f4f 393d
00000130: 584a ba3c 5bb2 973b f25c 763b 29cc 62bb
00000140: 5cb8 1bbd f2f7 863c b61b 043d 71c5 2f3b
00000150: 5f26 813c 7e4f a1bb f6ce 1c3d bc3b 26bd
00000160: 4d1e 12bd 1727 6f3c 3563 213c ce19 acba
00000170: 54f0 543d 1eb9 11ba c3c0 f53c 8b0a d03c
00000180: 84e7 cdbc e752 43bc ef20 1bbc fd58 693d
00000190: e257 223d 8893 133c 3a46 d0bc 6665 ab3c
000001a0: 27a8 56bc 77fe 58bc 546f 343d 709f 75bb
000001b0: 8ca0 1cbc ecf5 933c 08a1 153d e55b ba3c
000001c0: 06d6 0abc ea1a eb3c 5c8a e9b9 fe7d 233c
000001d0: 3807 083a 423a c43c 76a5 fa3c 1f99 39bb
000001e0: 7244 11bc 4f56 c5bb 299c 213c 7688 3b3b
000001f0: d26a 153c 2148 9a3c cb12 59bc 98a4 c93c
0.04555689 0.015269981 -0.024259591 0.01628638 0.04900354 0.00076879305 0.010319499 -0.0069917887
-0.011842972 0.009013458 -0.008981482 0.023255594 0.009274041 -0.0052892375 -0.0073749856 0.015572261
-0.020892197 0.021882178 0.0015817735 0.007353093 0.0076458035 0.0010714618 -0.013085692 -0.014147826
0.03117531 0.0013536907 -0.018173045 -0.027426453 0.0203648 -0.0085377395 0.025425395 0.031960554
0.0111817485 0.0034799585 0.014266794 0.006078782 -0.016525734 -0.016708147 0.015830621 0.0059820404
0.034995142 -0.014066305 0.01232629 0.013010711 0.01698876 0.0038315088 0.019331846 -0.014723415
0.0011014194 0.010367064 -0.009170138 0.008640141 -0.018076174 -0.03070765 -0.020428168 0.02665886
-0.0061564413 -0.008969095 -0.004276111 -0.0012527012 -0.0030558035 0.05338181 0.025960179 0.030711975
0.025774358 -0.034920815 -0.013703443 0.0024472687 -0.004639356 0.015411251 -0.017744694 0.014576869
-0.000923451 0.004155915 -0.014854043 0.04524189 0.022740528 0.004629416 0.003759202 -0.0034606552
-0.038017616 0.016475651 0.03225299 0.0026820565 0.015765367 -0.0049228063 0.03828331 -0.04058431
-0.03567343 0.014596722 0.009850313 -0.0013130249 0.051987007 -0.00055588956 0.029999143 0.025395652
-0.02513481 -0.011921621 -0.009468301 0.05696963 0.039634593 0.009007342 -0.025424112 0.020922374
-0.013101614 -0.013244263 0.044051483 -0.0037479065 -0.009559762 0.0180616 0.036530524 0.022748897
-0.008473879 0.028699357 -0.0004454431 0.009978769 0.0005189064 0.02395356 0.030596476 -0.0028320027
-0.008866416 -0.0060222517 0.009863892 0.0028615273 0.009119706 0.018833222 -0.0132491095 0.024614617

network_body._body_endoder.seq_layers.2.weight f4 [128, 128]
00000000: be38 b8bd 7745 f33c 82c8 0dbe f8f0 47bd
00000010: 8f2c 0ebe 51df 593c e07a 653e 58c3 ae3d
00000020: 3f5e 7abe 4c44 093e 76e5 0f3c 7490 223e
00000030: 0dd7 95bd b0e8 433d a145 3dbe d985 6abe
00000040: 56ff 06be a099 193e cc99 eebd 5352 573d
00000050: 7c89 aa3d b505 f53b 373f c6bd a929 b43d
00000060: 19df 5ebd 20c1 f23d 2ca6 2f3d 8de0 81bd
00000070: 5942 1b3e 4ab6 8e3d 14af 843c e39b d1bd
00000080: 5997 0c3e 9021 b23b a17b 48be 35c5 af3d
00000090: a91b 70bd 898b 3ebd a86a dabd acd0 ad3d
000000a0: 5fc0 cfbd fb2c 4cbc f388 b63d 558e 643d
000000b0: da13 023d 518b 463e e6f9 c3bc 73cb 803d
000000c0: 4303 83bc c451 a4bd 238b 513d da2e 20be
000000d0: a177 8bbd d924 b3bc 7680 843e e3e8 bbbd
000000e0: efec 35bc de5d 63be 4b48 e6bd 7892 d9bc
000000f0: fee0 543d ae29 e93a 62a6 6b3a cc24 ffbd
00000100: 1123 9bbc 107b fcbd 0805 35be 9bb2 353d
00000110: bb67 0c3d 5181 52bd bfcc 6bbd 4795 70bd
00000120: 842b e13d 044a 26be 0083 06be 7324 353e
00000130: 904f 48bd cf69 3fbe 47e7 3bbe 3d1c 91bd
00000140: d369 b23d 9eb0 5cbd 12c3 b93d a7da f53d
00000150: 8b9e 433d add5 243d 2d29 be3d 4820 23bd
00000160: f57b bebd eb66 c0bd 65ec 6dbd a9f3 02bd
00000170: 040b 3b3e 5224 77ba 853b adbd 24bc 7bbd
00000180: 876a d6bd f656 35bd 889e 1fbc 5193 10be
00000190: 8e0c 6a3d 2243 71be bde4 b23c e1bb 42bd
000001a0: 5f45 edbd e933 1fbd cc83 f6bd 5423 1bbe
000001b0: 4e04 acbd d617 2abe 6ac7 2d3e 2515 7dbc
000001c0: d274 213d 0b76 973d c9d6 08bd e4e2 1bbe
000001d0: 06a6 8fbd ceb5 083e dab8 2cbe 14eb 233e
000001e0: 82a6 94bc c9ba 473c 107f a3bd 15fd 38be
000001f0: abbb 94bd 78df 1d3e 4e39 2cbd 482f 1a3e
00000200: 55ed 553e 0497 2d3d 06ac fc3b 8fcc e3ba
00000210: ea2f acbc 349c debc 7b35 393e add5 933c
00000220: 29ab 09bd 27ec ed3d 4259 01be 743d d1bd
00000230: b322 82bd 4c3e 0fbe dd53 4ebd 6af7 77bd
00000240: 06e8 22bd c76c 3a3a c980 003e 6e29 b43d
00000250: 4cca 493d b5dd 013d d71b 9dbd d840 91bd
00000260: be00 2f3d 8013 cc3d 5cdb 213c b65e 9fbd
00000270: cdd6 093e 472a bb3c ae96 bcbd dabe 4f3c
00000280: 7e20 63be 4ccf 953d fd9b bcbd 27e9 8abd
00000290: a110 f33d 864b b5bd b982 07be 9e70 76bd
000002a0: eb69 75be 25f6 283e 96ad 16bd a64d 023b
000002b0: 0551 b1bd 88db 94bd e20b 45bd 61ec a53d
000002c0: 6b30 243b ddb0 82bc 2def 823d 2ed9 373d
000002d0: 430f 263d 4374 2b3d 483b 0b3e 8542 13be
000002e0: aa95 8e3b 5688 f63c 91c1 16be d6ae 8cbe
000002f0: fc8f f4bc 8afd b1bd 177f 603d 21d2 45be
00000300: c1fd c63b 7c85 15be 4c62 113c 91bb 823d
00000310: 8163 9dbc d0cd 05be 825e 50be b6d7 313d
00000320: 1848 003e 9fbe 183e 1b3d 10bd d8e2 6e3d
00000330: 8792 063c 8a00 91bc bdf0 633d ed95 6fbd
00000340: fc1a 123d c762 99bd d83b b2bd 2928 ef3c
00000350: ac0a 1e3d 1149 7a3d e09c 743c 3ac3 1d3d
00000360: 4c61 01be 2823 663d 56c9 08be 85d4 cbbd
00000370: 9472 003e f760 e63d 7d73 8f3c 1615 7bbd
00000380: 5b65 2dbb ce18 c23d 9fc3 86bd 9dc4 0fbe
00000390: 97c7 cc3d af2e 073d 799c 073d 6e52 073e
000003a0: cbdd e23d 5883 f0bc 81fb 4ebd f381 7d3e
000003b0: 2dd7 dcbc 7d5c 4ebe cda6 f0bc c38c 82bd
000003c0: 9bce 973c c2b9 24bd 72e6 bf3d 8fa6 6abd
000003d0: 255c fbbc 84b6 783d 5adf 6ebd 8b8d 90bd
000003e0: 5858 21be bbc3 f43d d387 45bd 3347 3d3d
000003f0: be04 a5bc 4e61 b7bd 7926 03bc a0b8 c5bd
-0.08995198 0.02969621 -0.13846019 -0.04881379 -0.13884185 0.013297872 0.22410154 0.085333526
-0.24450015 0.1340496 0.008782735 0.15875417 -0.07316408 0.04782933 -0.18483593 -0.22902621
-0.1318334 0.1500001 -0.11650428 0.052568745 0.08327004 0.007477487 -0.09680026 0.087970085
-0.05441198 0.11853242 0.042883083 -0.06341658 0.15162028 0.06968363 0.016196765 -0.10234811
0.1372961 0.00543613 -0.1957841 0.08582536 -0.05862013 -0.04651979 -0.10664874 0.084870666
-0.10144114 -0.012461896 0.0891284 0.0557998 0.031757213 0.19389082 -0.023922872 0.06288805
-0.015992766 -0.08023408 0.05115808 -0.15642872 -0.06809927 -0.021868156 0.25879258 -0.09175279
-0.011103853 -0.22203776 -0.112442575 -0.0265591 0.05197238 0.0017788911 0.00089893315 -0.1245819
-0.01893762 -0.1232816 -0.176777 0.044359785 0.034278613 -0.051392857 -0.057568308 -0.058736112
0.10994628 -0.16239172 -0.1313591 0.17689686 -0.048904 -0.18692707 -0.18349944 -0.07085464
0.087115906 -0.053879373 0.0907041 0.12004595 0.04775862 0.04024284 0.092851974 -0.039825708
-0.09300987 -0.0939463 -0.05808677 -0.031970654 0.18265921 -0.00094277144 -0.08458618 -0.06145872
-0.10469537 -0.044272386 -0.009742387 -0.14118697 0.05714088 -0.23560765 0.021837587 -0.047542457
-0.11585497 -0.038867865 -0.12036857 -0.15150195 -0.083992586 -0.16610655 0.16970602 -0.015446936
0.03941805 0.07395562 -0.03340796 -0.1522327 -0.07014088 0.13350603 -0.1686739 0.16007644
-0.018145803 0.012190529 -0.079832196 -0.18065293 -0.07262357 0.15417278 -0.042046838 0.15057099
0.20891316 0.042380348 0.0077109365 -0.0017379689 -0.021018941 -0.027174093 0.18086807 0.018046224
-0.033610497 0.11617308 -0.12631705 -0.102167994 -0.063542746 -0.13988608 -0.050372947 -0.060538687
-0.039772056 0.0007111546 0.12549128 0.087969646 0.04926519 0.031705577 -0.07671326 -0.07092446
0.042725317 0.09964657 0.0098789595 -0.077817366 0.13460846 0.022847308 -0.09208427 0.01267978
-0.22180364 0.07314929 -0.0920944 -0.067827515 0.11868406 -0.088522956 -0.1323346 -0.060165994
-0.23966186 0.16500147 -0.03678664 0.0019882708 -0.086580314 -0.07268435 -0.048107035 0.08101726
0.0025053273 -0.015953476 0.063932754 0.044884853 0.0405419 0.041858923 0.13596833 -0.14380844
0.0043513374 0.030094307 -0.14722277 -0.2747714 -0.029853813 -0.08690937 0.054808702 -0.19318439
0.0060727303 -0.14601701 0.008873533 0.06383432 -0.019212486 -0.13066792 -0.20348552 0.04341861
0.12527502 0.14916466 -0.035214525 0.058321804 0.008213646 -0.017700452 0.055649508 -0.05849259
0.035670266 -0.074895434 -0.087028205 0.029193955 0.038584396 0.061104838 0.01492998 0.03851626
-0.12634772 0.05618587 -0.13358054 -0.09952644 0.12543708 0.11248963 0.017511124 -0.061299406
-0.0026458118 0.09477387 -0.065802805 -0.14039846 0.09999006 0.033003505 0.03310821 0.13215038
0.1107746 -0.029359505 -0.05053282 0.24756603 -0.026958073 -0.20152469 -0.029376412 -0.063745044
0.018531134 -0.040216215 0.09370126 -0.05728775 -0.030683586 0.060720935 -0.058318473 -0.07058247
-0.15756357 0.11951395 -0.048225235 0.04621048 -0.020143863 -0.08954106 -0.008004778 -0.09654355

network_body._body_endoder.seq_layers.2.bias f4 [128]
00000000: f06f c03c 73e0 383d 359b 09bc 59e4 843c
00000010: f4c8 3c3c 7a0a 83bc c66c 863c c8ea 573c
00000020: 24b2 9d3c a2a5 0cbc 2cc7 903b f6d1 503c
00000030: 1c68 80bb e966 653c dba1 aebc 11aa f4bb
00000040: 24b5 9b3b 874f 123d 1ddb e5bb 6e70 0b3c
00000050: 169c a73c c0bd 8bbb 0a92 053b 1c3c 33bc
00000060: 5ca2 33bc 4116 1c3a 9c79 cdbb ca01 eebb
00000070: ca84 bd3c 0145 5e3c 3cc6 e5bc 39f9 a3b9
00000080: 2240 fc3b 5b07 d8bc 656d 483c 8cfa 02bc
00000090: 7717 dfbc 80f4 3dbb 46fb 1bbc ecc8 80bc
000000a0: 61e8 02bc 3111 f13c 5b33 91bc 808f 863c
000000b0: 30dc 6139 b4b6 9d3c 3ccd d2bc ac89 34bc
000000c0: 2cfb 79bc 6ab4 aabb 8a39 243b 6b5a 613c
000000d0: 7d9c c9bb 5816 04bc 630a 61bc 63de eebb
000000e0: bdeb e23b 87c2 f93b 08f2 aa3b bbdf 3c3c
000000f0: a867 4e39 50d3 de3c 0062 803b 7dbd b33c
00000100: b1b1 a438 7810 0f3c 366c ab3c 7882 51bb
00000110: d6a2 413c ebd6 f83c 9e7a b7bc 7b2d 063d
00000120: 6f16 68bc 47b3 4fbc 9318 dabb d657 253c
00000130: d364 af39 884f d53b 2764 333c 6e0c 2b3c
00000140: cf19 e03c 7b26 a9bb 050c 19bc 1857 da3c
00000150: 0e7b bb3c 0111 633c 9315 8b3c 701b 08ba
00000160: 79c3 2bbc 2b39 8ebc 8aa7 763c 5e0e 5a3c
00000170: 2b34 3bb9 71ed 113c e3d0 523c a6d0 b83b
00000180: 6bf0 ed3b 9ab4 833c d568 8b3b b3a0 913c
00000190: 130b fa3c 3959 f23a 3442 dc3a 865f 1b3c
000001a0: d800 9dbc 9fee 143c 1ff9 2c3c bdb3 e2ba
000001b0: de40 5ebc bb7f 29bb f729 3c3d 3ccb 513b
000001c0: 8cf4 133c 2152 8cbb 67b4 98bc a612 123c
000001d0: ddf6 0dbc 07bf 55bb 0e7d a4bb c320 ac3b
000001e0: b9f9 873b 52e9 88bb 978d ec3b a104 4d3b
000001f0: 8071 7dbc c976 463a 7719 123c fa52 b33c
0.023490876 0.045135926 -0.008398821 0.016222166 0.01152252 -0.015996207 0.01640929 0.013178535
0.019249983 -0.008584412 0.0044182744 0.012745371 -0.003918661 0.0140015865 -0.021317413 -0.0074665626
0.0047518183 0.035720374 -0.0070146457 0.008510692 0.02046017 -0.0042645633 0.0020381236 -0.010939624
-0.010964002 0.0005954244 -0.0062706005 -0.007263397 0.023134608 0.0135662565 -0.028048627 -0.00031275468
0.007698075 -0.026370695 0.012233113 -0.007994305 -0.027232869 -0.0028984845 -0.0095203575 -0.015720807
-0.007989974 0.029427143 -0.017724684 0.016425848 0.00021539698 0.019252159 -0.025732629 -0.011019152
-0.015257638 -0.0052094953 0.002505871 0.0137544675 -0.006152688 -0.008061968 -0.013735387 -0.007289694
0.006925075 0.0076220664 0.0052168407 0.011527951 0.00019684306 0.027200371 0.0039179325 0.021940941
7.853227e-05 0.008731954 0.020925622 -0.0031968635 0.011818608 0.030375918 -0.022397336 0.032758217
-0.014165505 -0.01267702 -0.0066557615 0.0100917425 0.0003345372 0.006509725 0.010949171 0.010439975
0.027356056 -0.005162058 -0.009341245 0.026652858 0.022885825 0.0138590345 0.01697806 -0.0005192077
-0.010483616 -0.017361244 0.015054593 0.0133090895 -0.00017853144 0.008906708 0.012867185 0.005640107
0.007261326 0.016077328 0.0042544403 0.017776823 0.030522859 0.0018489725 0.0016804398 0.009483224
-0.019165441 0.009090095 0.010557442 -0.0017295998 -0.01356527 -0.0025863487 0.04593846 0.0032012006
0.0090304725 -0.0042822515 -0.01864071 0.008915579 -0.008664814 -0.0032615082 -0.0050197905 0.005252929
0.0041496423 -0.0041782046 0.0072190273 0.0031283277 -0.015468955 0.0007570801 0.008917204 0.021890152

action_model._continuous_distribution.log_sigma f4 [1, 2]
00000000: 2595 81be ce57 09bf
-0.253091 -0.53649604

action_model._continuous_distribution.mu.weight f4 [2, 128]
00000000: 2772 27bc e65d 2cbd 1779 f8bc 5580 e0bb
00000010: fd81 b0bb 8d60 f33c c9b2 31bc 4786 4b3c
00000020: 7616 dfbd 4dd4 a4bd 733f eebc c57e 213d
00000030: 0561 d1bc f93b 5f3c 8017 4d3c 0249 23bb
00000040: 9c4e c0bd c086 c73c 9d79 943c 5624 5fbd
00000050: ca59 9b3c 9e23 303d 13c3 f83b 10ea 3cbd
00000060: 2acf 00bc 50bc adbd 4c3d dbbc 6335 513d
00000070: 2ca6 653d 2072 8abc 7d84 563c 2bb1 d3bb
00000080: a6b4 0b3c 4d53 903c e3c2 4cbd eaa4 d53c
00000090: 9331 423c cd99 0b3d e5b8 07bd d3b8 5a3c
000000a0: c8f2 493c 73dd 3e3d cc61 523d 30a2 1cbd
000000b0: 086c 323c 73f7 0e3e 552e a43c 8444 0f3d
000000c0: 272c 6f3d 9d3f bdbc 8db4 be3c 55cc 1fbd
000000d0: c704 5bbd 3c9e f7bd 6199 4d3d 8be5 643b
000000e0: 13e7 673c 1e08 843b 6b2c fabc 77a7 b53c
000000f0: 7c07 18bd 9c39 243d dc0a 12bd 2b21 f53d
00000100: 2a55 a8bc d4e1 ce3c 7cdc a23d c319 14bc
00000110: 9ee2 57bc 4366 063e afcf 133b 21ea e8bc
00000120: 49c6 d33c 9914 8f3b 126f 00bd 912a 24bd
00000130: d110 5abd 2623 1a3b ddda 103d 092b e63b
00000140: cc5f f23b c338 1c3d 559e 21bc 5323 153d
00000150: a465 edbd ab98 f63c 078a 83bd 26bc 79bd
00000160: 4fac cd3c 42b7 8cbb 7ab9 413c b7bb e439
00000170: 2934 2f3d 43ee 73bc 4b0b 24bc 2ed1 f83a
00000180: 47f2 a6bc ef41 92bc a77a 463c 1be9 803d
00000190: 6790 893d 3d36 a3bc 9543 a8bc fabe 4abb
000001a0: 3830 b73b da16 4d3b 0db2 e43b 4b56 d9bb
000001b0: 24c9 76bd d73e 15bd 0643 ac3d 9cf7 aa3c
000001c0: 217d 03bd ebe3 3dbd df24 893c 1ec9 ed3c
000001d0: 93b1 563d d120 423c 19d9 903b c86f 8dba
000001e0: 0468 92ba 15b4 f03c 8d96 9ebd 3636 833d
000001f0: d367 213c 620e d03c a6ea 2abd 7ee5 85ba
00000200: ad15 233d 5461 11bd 71b6 bb3d 7ff9 bb3c
00000210: e3eb c8bc 419a cbbc 875c cd3c 340d 183d
00000220: 7c8f 063c 24d9 a73c 5dab 1eba e55f eb3d
00000230: 29f0 d5bc 1e56 403c 104d 163c 56aa 74bc
00000240: c170 4fbc ed2c 1a3d 0519 61bd 967b 12bc
00000250: bf14 8abd d928 4ebd f931 8abd b8a6 48bd
00000260: 26d8 c4bb 71c8 23bd 6bfa 84bd df70 dcbd
00000270: 900f 3b3c 45c6 fe3c 23aa 23bb c599 853b
00000280: c1f3 093d 6f63 36bd 3807 1e3d 5078 4ebd
00000290: bf23 11bc 860c 8ebd 9706 13bd c01d ddbb
000002a0: afc9 0cbd 8dc9 a73d a7b7 95bc b74f a6bb
000002b0: e141 823b 81b3 d0bd ae1d 44bd 4af5 9abc
000002c0: 9aab 8ebc 1e8f f5bb be20 7b3c 15f7 a63c
000002d0: 9918 6fbd b08a ac3b 5b18 d4bc 9914 643c
000002e0: 89e9 ff3c 5ff8 673c 9883 85ba 6d5b 0bbd
000002f0: d179 52bc e8a2 f6bd 3be8 ce3c 13a6 05bd
00000300: fabf 923c 07b1 903c c057 09be 2e04 e53b
00000310: dbc8 f23c 1268 90bd d909 03bd 9359 433d
00000320: a3ec 66bc df7d 91bd 7d48 833c 029b 963c
00000330: 2878 4b3d 9e92 5dbd 9f00 d43c 08f1 613d
00000340: 61d9 ccbd ab63 9dbd 428d c1bd e03a 033d
00000350: bafa 93bc 7732 b93c cebc 23bd 7c13 933a
00000360: da87 04bc 1953 b1bc 8e8f 653d a6e7 3b3d
00000370: bc62 86bd bedd 213c e851 a93c b60f 90bd
00000380: 3dc8 9cbc a595 353d d22d 85bd a456 e43c
00000390: 6f5d 043d f339 29bd 5230 49bd 8dca af3c
000003a0: 9fab 9bbc ecc8 f03c 91c7 53bc f170 6c3d
000003b0: 00f7 19bd fe16 6dbc fc67 e53c 0873 b4bd
000003c0: 28dc a93d 1fc5 03bd 08f0 49bd 2a09 b1bd
000003d0: 92fc 21bd 5785 bbbd 7028 10bd 8adc cc3c
000003e0: e75e 513d c63b 523c 3586 f63c 2a6e 3fbd
000003f0: 6b66 dfbb e26a 0a3c 3143 2d3c fafd 913d
-0.010220087 -0.042081736 -0.030331178 -0.006851236 -0.0053865896 0.029709125 -0.010845848 0.012422151
-0.10892956 -0.08048306 -0.02908299 0.039427537 -0.025558958 0.013625138 0.01251781 -0.0024915342
-0.093899935 0.024356246 0.018124396 -0.054478012 0.018963713 0.043002717 0.007591614 -0.046121657
-0.007861892 -0.084831834 -0.026762627 0.051076304 0.056066677 -0.016900122 0.013093111 -0.006460329
0.008526957 0.017617846 -0.049990546 0.026079614 0.01185264 0.034082223 -0.033135314 0.01334973
0.01232595 0.04659791 0.051362798 -0.03824061 0.0108900145 0.13961582 0.020041624 0.03497745
0.058391716 -0.023101622 0.023279453 -0.039013226 -0.053471353 -0.12090728 0.0501951 0.0034926857
0.0141542135 0.004029288 -0.030538758 0.02217458 -0.037116513 0.040094003 -0.035654888 0.11969217
-0.020548422 0.025254168 0.0795221 -0.009039345 -0.013176588 0.13124947 0.002255421 -0.028431954
0.025851386 0.004366469 -0.031355925 -0.040079657 -0.053238694 0.0023519485 0.035364974 0.007024173
0.007396674 0.03814007 -0.009864409 0.03641064 -0.11591652 0.030102095 -0.06422811 -0.060970448
0.025106577 -0.004294307 0.011824006 0.00043627407 0.042774353 -0.014888349 -0.010012458 0.0018983239
-0.020379199 -0.017853705 0.012114204 0.06294461 0.06716996 -0.019923324 -0.020540038 -0.0030936585
0.005590465 0.0031294138 0.006979233 -0.0066326014 -0.060250416 -0.036436882 0.08411221 0.020870022
-0.032101754 -0.046359938 0.016741214 0.029026564 0.05241544 0.011848644 0.0044204113 -0.001079076
-0.0011169915 0.029382745 -0.07743559 0.06406824 0.009851414 0.025397483 -0.041727684 -0.0010215489
0.039815594 -0.03549321 0.09165657 0.022946117 -0.024526542 -0.024853827 0.025068535 0.037121966
0.00821292 0.020489283 -0.0006052757 0.114929 -0.026115494 0.011739282 0.009173647 -0.014933189
-0.01266116 0.0376405 -0.0549555 -0.008940598 -0.06742238 -0.050331924 -0.06747813 -0.04898712
-0.006007212 -0.039986078 -0.06493076 -0.10763716 0.011417285 0.031100402 -0.0024973236 0.0040771686
0.033679727 -0.04452842 0.038581103 -0.050407708 -0.00885862 -0.069359824 -0.035894956 -0.0067479312
-0.034372028 0.0819274 -0.018276049 -0.0050754207 0.0039751385 -0.10190488 -0.047879867 -0.018915791
-0.01741581 -0.0074938675 0.015327631 0.02038149 -0.058373068 0.0052655563 -0.02589052 0.0139209265
0.031239288 0.014158337 -0.0010186313 -0.034022737 -0.012846426 -0.12042791 0.02525722 -0.032629084
0.017913807 0.017662538 -0.1341238 0.0069890236 0.029636791 -0.070511 -0.031991813 0.047692847
-0.0140945045 -0.07104086 0.016025776 0.01838446 0.049675137 -0.054094903 0.025879202 0.055161506
-0.10002399 -0.07685026 -0.09450771 0.03203857 -0.018063892 0.022607071 -0.03997498 0.0011221017
-0.00808903 -0.02164607 0.056045108 0.045875214 -0.06561801 0.009879528 0.020668939 -0.070342466
-0.01913845 0.044332165 -0.0650288 0.027873345 0.032315668 -0.04131503 -0.049118347 0.021458888
-0.019002734 0.029392682 -0.012925998 0.057724897 -0.037589073 -0.014470814 0.028003685 -0.08811003
0.082939446 -0.03217041 -0.049301177 -0.08644326 -0.03954751 -0.09156292 -0.035194814 0.025007505
0.051115897 0.012831634 0.030093292 -0.04673592 -0.006817629 0.008448334 0.010575102 0.0712852

action_model._continuous_distribution.mu.bias f4 [2]
00000000: c4f7 0bbc aed4 883c
-0.008542959 0.016702976

action_model._discrete_distribution.branches.0.weight f4 [2, 128]
00000000: 0bfb cebd d458 a5bd de84 053d d6b3 d33c
00000010: 9ace 423d 1e41 d33c 9820 04bb 170b 3a3d
00000020: 017e 96bd 84d7 f03c 6321 35bc b733 8d3d
00000030: 7836 08bd 6d08 533d 5d32 3c3c f18e adbc
00000040: 461b b5bd 09ed 6c3d e0d9 953b bacf 67bb
00000050: 64f9 61bd cd87 84bd 9415 e0bc 4fd2 0ebe
00000060: 50e2 483c 2ff1 8dbd 4d59 bfbc 5748 bdbc
00000070: 6720 833d 6e1a 6bbc 325d 7a3c 19aa 67bb
00000080: d038 c73b cb39 b83c c056 183d 548b dfbb
00000090: 755c ce3c e365 75bd fd7c 9f3d 8d8d 553d
000000a0: 19c9 543d b243 143d 2a67 cfbb 6f58 5d3d
000000b0: 7838 c0bd c570 20bc 8ec2 2e3d f08b 9939
000000c0: 682e 223c 0b9f aabb e212 a93c 7011 84bc
000000d0: 0f3f 60bd 5b73 a8bd dcde 8d3c 1524 973c
000000e0: 8b21 8c3b a665 843c a3b7 813d 586b 0dbc
000000f0: b236 ab3b c84d 59bd 003c 443d a248 e23c
00000100: 88db 68bc 3e9f f33c 56d1 92bc 163b 2f3d
00000110: 99ed 553c 7cdb e93c 3666 4dbc 5a33 1abe
00000120: aa8f 2d3b 4d01 e0bd d6f0 09bd 9f32 62bd
00000130: b4d4 2a3c 5570 a2bd 73b3 18ba 2b70 833c
00000140: 2e47 74bc 3237 f2bc 384c f83c 2d48 433d
00000150: 3533 50bc 886c eebd f1fd 84bd 7275 233d
00000160: c8aa 533c 5463 49bc d2b4 a13d 634a 9d3b
00000170: 0dfc 23bc aeb1 c63c 3db4 e6bc 7ea7 85bd
00000180: 9533 243d d5f7 56bb 53de 983a 2a5e d43d
00000190: bede c23d d017 e5bd a932 70bb 5f19 3b3b
000001a0: 024b b6bc ca7c cfbc d823 b7bd a598 15bd
000001b0: 5bec 61bd d9c5 28bc 0d01 ee3d 2a25 42bd
000001c0: 5625 a93d 74ef 1bbc 819b 36bd b145 47bc
000001d0: e819 b2bb aff4 5d3b a303 63ba 49d6 1e3c
000001e0: 22eb 3dbd 7769 2a3c 1ad1 98bc 16e5 90bd
000001f0: e836 25bd 434d 743c 7afb 13bd d04c dbbd
00000200: 36a4 c93d 3765 ac3d b8db 9dbc 1664 fabc
00000210: e519 7dbd 8652 033c c42e 6b3c ba67 17bd
00000220: fb60 9b3d efb5 11bd e248 e63b c73b 98bd
00000230: 7359 063d d659 85bd 799c 3fbb 9dbe c93c
00000240: f312 a63d f5bb 91bd 318a e9bb 643a ad3c
00000250: f4db 483d 0d96 c13d a102 183d 4194 1b3e
00000260: 1d86 e9bb 2de5 8e3d 7a31 1a3c c31b 9b3c
00000270: f7c0 98bd 034f f4ba 505c 8bbc 1511 d4bb
00000280: 8932 e9bc f56a cabc 8d72 8bbc fddf 34bb
00000290: 78e0 963c 3454 243d a8b1 8bbd 6dbc 73bd
000002a0: 33f6 81bd 82a2 29bd cdba 1d3c c32c 2ebd
000002b0: 9bd1 eb3d 68be 1dba a2df 19bd e681 26bc
000002c0: d752 9d3c 036b 23bb 73c3 f1bc 4bf4 0c3d
000002d0: 4c1f 743d eacd 893d e16c dbbb 1c71 92bc
000002e0: e696 87bc ddb5 12bb 562d 8dbd 260f 87bb
000002f0: d8fb fd3b 070e 4b3d af3c 56bd f43b 5fbd
00000300: 55b5 b13a aa1e 09bd 74d4 533c dc74 21bd
00000310: d110 79bc ad47 d7bc 4750 f2bb 684c 153e
00000320: 65d5 563b 1853 c13d 4053 e83c 77c0 893d
00000330: 5495 8f3b d1ab b63d 96ac e7bb ff85 18bc
00000340: 38c8 233d 73ad 0e3c e385 1ebd 2bc9 16bd
00000350: 6382 283c b070 f03d 32d5 523d eba2 0cbd
00000360: b82f f4bc 614e 4e3c c9c7 a1bd c720 9d3b
00000370: 1145 ac3c ff34 a4bc 4a46 79ba 4312 a23d
00000380: b596 1bbd 9386 bd3c fad9 b53b c3eb dfbd
00000390: 591c dbbd a494 e83d 60b9 7a3c f88a eebb
000003a0: 75c5 9c3c e153 093c 11f9 b83d 3908 133d
000003b0: 4aa4 543d f60d c7bb ccff efbd 9416 4e3d
000003c0: 0885 8abd 5231 413c bf68 203d ad50 da3c
000003d0: 0fc4 ff3b 492c 27bb 2169 fa3a 125b d9bc
000003e0: 0563 063d 00fc 5fbc d25f c8bb c789 703d
000003f0: ed9d 313d 9b13 57bb 6016 9d3c b907 c53d
-0.101064764 -0.08073583 0.032597415 0.025842588 0.04756031 0.025787886 -0.002016103 0.045420732
-0.07348252 0.02939964 -0.011055323 0.068946294 -0.03325507 0.051521707 0.011486617 -0.021186324
-0.088430926 0.05784324 0.004573092 -0.0035371617 -0.055169478 -0.064712144 -0.02735404 -0.13947414
0.012260988 -0.06930768 -0.023358012 -0.023105783 0.06402665 -0.014349563 0.015281009 -0.003534919
0.0060797706 0.022488495 0.037192106 -0.006822029 0.025190571 -0.05991162 0.077875115 0.052136946
0.051949594 0.03619737 -0.006329437 0.054039415 -0.093857706 -0.009792511 0.04266601 0.00029286696
0.009898759 -0.0052069477 0.020638887 -0.016121596 -0.054747637 -0.08225127 0.017318182 0.018449822
0.0042764596 0.016161751 0.06333854 -0.00863155 0.005225026 -0.053052694 0.047908783 0.027622525
-0.014212497 0.029739019 -0.017922085 0.042780958 0.013057136 0.028547041 -0.012536576 -0.15058652
0.0026483336 -0.10937748 -0.033676945 -0.055224057 0.010426689 -0.07931582 -0.000582508 0.016044697
-0.014909549 -0.029567335 0.030309781 0.047676254 -0.012707521 -0.116417944 -0.06493748 0.039906926
0.012919135 -0.012291748 0.07895817 0.0048001274 -0.010008824 0.024254646 -0.028162116 -0.06526087
0.040088255 -0.0032801528 0.0011662937 0.10369523 0.09515141 -0.111861825 -0.003665129 0.0028549058
-0.022252563 -0.025328059 -0.089423835 -0.036522526 -0.055157047 -0.010301077 0.11621294 -0.047398724
0.082590744 -0.009517539 -0.044581894 -0.012162612 -0.005435217 0.0033867767 -0.00086599047 0.009694644
-0.04636682 0.010401121 -0.018654395 -0.07074945 -0.040335566 0.014910999 -0.0361285 -0.1070801
0.09845774 0.08417743 -0.01926981 -0.030565303 -0.061792273 0.008015281 0.0143544115 -0.036964156
0.07586857 -0.035573896 0.0070277313 -0.074332766 0.03280015 -0.065112755 -0.0029237552 0.024627024
0.08109083 -0.07115928 -0.0071270694 0.021146007 0.04903789 0.09452448 0.037111882 0.15193273
-0.0071265833 0.069773056 0.00941121 0.018934136 -0.0745868 -0.001863927 -0.017011791 -0.006471763
-0.02846648 -0.024709204 -0.017022396 -0.0027599328 0.018417582 0.040119365 -0.068209946 -0.05950587
-0.06345787 -0.041414745 0.009627056 -0.042523157 0.115145884 -0.00060174474 -0.03756679 -0.010162806
0.01920454 -0.002493561 -0.029512143 0.034412663 0.05960016 0.06728728 -0.006696329 -0.0178762
-0.016551446 -0.002238623 -0.06893413 -0.004121679 0.0077509694 0.049573924 -0.052303966 -0.054500535
0.001355807 -0.03347651 0.012929071 -0.039418086 -0.015201763 -0.026279295 -0.0073948237 0.14579928
0.0032781002 0.09439677 0.02836001 0.06726163 0.004381815 0.0891949 -0.0070701344 -0.009309291
0.039985865 0.008708346 -0.038701903 -0.036812942 0.010284993 0.117402434 0.05147285 -0.03433506
-0.02980791 0.012591929 -0.07899434 0.004795167 0.021029027 -0.020044802 -0.000950907 0.079136394
-0.037985522 0.023135459 0.0055496665 -0.1093364 -0.10698766 0.11356476 0.015302986 -0.00727975
0.019137124 0.008381815 0.09031881 0.035896514 0.05191449 -0.0060746623 -0.11718711 0.0503145
-0.06763655 0.011791544 0.039162394 0.026649797 0.0078053544 -0.0025508574 0.0019104817 -0.026532684
0.032809276 -0.013670921 -0.0061149383 0.058725145 0.0433635 -0.0032818082 0.019175708 0.096206136

action_model._discrete_distribution.branches.0.bias f4 [2]
00000000: cace 003c dbce 00bc
0.007861802 -0.007861818

action_model._discrete_distribution.branches.1.weight f4 [2, 128]
00000000: 2bc0 c6bb 239e 073d c732 bbbc 67c6 af39
00000010: 3558 0cbd d532 e03b fbde 5cbc 1a9e 13bc
00000020: 8bce c63c dda8 bdbc d2af a73b 347b aebb
00000030: 64c6 43bc 3a07 3a3b 39b3 2abc 5dd6 7abb
00000040: 935e ef3b 7dce 9dbc cc9a 92ba e902 e7ba
00000050: 95ec 50bb ae80 153c a901 2fbc 7fb1 6cbc
00000060: c2b1 7d3c fb03 953c 25e2 01bd 70f0 3d3b
00000070: d231 a8bc 4434 d93b d042 0f3c 7125 f13b
00000080: 7478 c939 219e bc3b 499d 0cbd ca77 3dbc
00000090: c937 123b 468e 3d3c a5a5 7cbb cfa1 3739
000000a0: 9496 0bbc 3559 08bc 5200 a0bc 81a6 bcbb
000000b0: 276f adbc 2e15 3f3d cd4b 07bd f3d9 1abc
000000c0: edb6 273c cc0e c4bb 11eb 3d3b a4c4 0cbb
000000d0: eb89 493c 64f0 1f3d 1a0b 0e3c e721 4c3b
000000e0: 50d5 4bbc 62b2 a23a 7412 adbc b543 d43c
000000f0: 8607 94bc 78db 393c 74d7 07bc b5a4 fcbc
00000100: b16f 95bc 3a61 393b 3b2a 563c ef55 11ba
00000110: afb7 723b 519d 0c3b 0b12 1fbb dcaf ea3c
00000120: 3203 03bc 49a1 96bc 3c4b 6d3c 8304 d5bc
00000130: 8900 ccbc aa1a 4abc 524f 083c c25e 08bc
00000140: a622 85bc 408c 51bb 16cb 93bc d2d1 633b
00000150: 7d54 a63c bc4a f7bc f3a2 93bc cbe7 64bd
00000160: 937c 05bb c8d7 cd3b 3f2a e7bc 7cba 1d39
00000170: 5d8f b93c 9edd eeb9 2c19 5d3c d90d fc3b
00000180: 15c5 1a3c 5773 e5bb 20c4 6ebc b770 40bc
00000190: 59ea 4b3b 2ae9 773c 7da4 66bb 7994 adbb
000001a0: 9255 173c c727 8cbb 14c8 313c a2fb a43c
000001b0: 5012 5dba 9cc0 713c fdb0 ddbb dcb8 e1bc
000001c0: 22e5 1cbc 771b a1bb e320 1bbd 35e4 b73c
000001d0: bba2 3dba c9b5 42bc 86aa b23a 9f62 3a3c
000001e0: d203 d0bc 10f0 1d3c 2a53 853c a087 153c
000001f0: dcff 083d d2fd b43b 17a8 313c f2c8 823c
00000200: 7fbd 27bc 5e9d 23bd 5f6e 743c 4a46 713b
00000210: 3867 ee3c a729 7c3a ea9e 983b d95a fb3b
00000220: a3c3 12bc a6c8 6c3c bde6 9b3b a3f9 8a3c
00000230: b164 ab3a e540 c93b 5991 f439 d2e8 da3a
00000240: 502d 003b 5d58 9f3c 3fee 1abc 37ef 3738
00000250: 3942 ac3c da39 6ebc b5e6 653c 2e86 c63c
00000260: af83 0c3a 8db9 d1bb bc2d d93c 9160 ceb9
00000270: b88e 90bb 1ced d13b a0ea adbb 88f3 75ba
00000280: cd0a c1bb c2db 90bc cdf8 bb3c f0cf 273c
00000290: 240c 053c 42c1 70bc 9f7e 973b 2bf0 82ba
000002a0: 446b 00ba 526a 743c 2cb7 263b 3358 c93c
000002b0: b603 893b ed7c 2cbd 6a3f b33c 15a9 e4bc
000002c0: 050f 39bb 1f25 cf3b f3fe cc3b aab7 a939
000002d0: 824d e5bc 4c0f 7dbc 9625 51bc 7d27 e0bb
000002e0: cc76 823b abb6 1fbc efd0 f43c 1f0d d8bc
000002f0: 1af8 243c 55fc c93b 9f40 00bc a95a d53c
00000300: 1e35 063c 5065 563b 71d0 3abc 735b a7bc
00000310: 70cb d8bb 0a0c ca3b 7551 a3ba 8825 a5bc
00000320: 56de 64bc c782 5d3c 0501 4638 7a24 9c3a
00000330: b8d2 213d d812 a43c 1446 b2bb 09e2 e8bb
00000340: e3df 813c 34d3 e0ba e2e1 e33c 6f11 9d3c
00000350: dbdf 68bc c7ca 863c 2722 213b 3d8a 383d
00000360: b657 283c afbb 48bb fce6 e73c 4527 1e3b
00000370: f728 a4bc 87a3 77bb 33d1 c43c 76df 9fbb
00000380: e3e7 b5bc fd0d bf3c 3840 dabb b1e2 563c
00000390: 55b9 d13b 7c62 e9bc 5b7d 8ebc 70df edbb
000003a0: da8d 9cbc f880 b23c ffce 83bc 6a17 f6bc
000003b0: b59a 29bb fc4d 96ba 09e1 9a3b 51df e63b
000003c0: de85 d13b 14d6 86bc 3979 133d b3d8 a2bc
000003d0: a77e 8e3b e278 c7bb 2b67 22ba 64ac 3b3c
000003e0: 1d09 da3c b1d1 19bc 306e b53b 8a49 29bd
000003f0: 09bb d4bc a4a6 323a 2aa6 c2bc 8459 49bc
-0.0060653887 0.033109795 -0.022851361 0.00033526422 -0.03426381 0.006841997 -0.013480897 -0.009009862
0.02426841 -0.02315181 0.005117395 -0.0053247456 -0.0119491555 0.0028385655 -0.010418707 -0.0038274743
0.0073049753 -0.0192635 -0.0011185049 -0.0017624769 -0.0031879295 0.009124918 -0.010681548 -0.014446615
0.015484275 0.018190375 -0.03170981 0.0028982423 -0.020531569 0.006628545 0.008743957 0.0073591997
0.00038427452 0.005756155 -0.034329686 -0.0115642045 0.0022311083 0.011569565 -0.003855088 0.00017512518
-0.008519787 -0.00832205 -0.019531403 -0.0057571535 -0.021171166 0.046651058 -0.033031274 -0.009451377
0.010236484 -0.0059832092 0.0028979222 -0.0021479512 0.012300949 0.039047614 0.008669639 0.0031148137
-0.012440994 0.0012412781 -0.021126963 0.025911191 -0.018069994 0.011343829 -0.008291114 -0.030840257
-0.018241735 0.0028286711 0.013071592 -0.0005544116 0.0037035753 0.0021456073 -0.002427223 0.02864831
-0.007996367 -0.018387454 0.014483269 -0.026003128 -0.024902599 -0.012335459 0.008319693 -0.008323373
-0.016251873 -0.0031974465 -0.018041175 0.0034762514 0.020303959 -0.030187003 -0.018022036 -0.055885118
-0.0020368441 0.0062818266 -0.028218387 0.00015042158 0.022651369 -0.00045560015 0.013494771 0.0076920805
0.009446402 -0.007002275 -0.014573127 -0.011745623 0.0031115024 0.015131274 -0.0035193257 -0.0052972403
0.00923671 -0.0042772028 0.010850925 0.02013952 -0.000843321 0.014755394 -0.0067654834 -0.027553968
-0.009576114 -0.004916604 -0.03787316 0.022447685 -0.00072340266 -0.011884161 0.0013631142 0.011376052
-0.025392447 0.009639755 0.016275007 0.009126574 0.03344713 0.005523422 0.010843298 0.015964959
-0.0102380505 -0.039945 0.014918893 0.0036815577 0.029101953 0.0009619244 0.004657616 0.007670742
-0.008957776 0.014452135 0.0047577308 0.01696474 0.0013076273 0.0061417692 0.000466476 0.0016701466
0.0019558258 0.019451315 -0.009456216 4.3853386e-05 0.021027671 -0.01454016 0.014032056 0.024233904
0.00053601986 -0.006400293 0.026511066 -0.0003936333 -0.0044115447 0.0064064395 -0.0053075105 -0.0009382297
-0.00589118 -0.017682914 0.022945786 0.010242447 0.00812057 -0.014694514 0.0046232487 -0.0009989789
-0.00048987963 0.014917927 0.0025438769 0.02457819 0.0041813506 -0.042111326 0.021880824 -0.027912656
-0.0028237712 0.006321564 0.0062559783 0.00032371032 -0.02799106 -0.015445542 -0.012765309 -0.006840645
0.003981447 -0.009748141 0.029884784 -0.026373444 0.010068918 0.0061641135 -0.007827907 0.026044207
0.008191375 0.0032714196 -0.011402235 -0.020429349 -0.0066160485 0.006165986 -0.0012460189 -0.020159498
-0.013969025 0.013519949 4.7207828e-05 0.0011912726 0.039507598 0.020028517 -0.005440483 -0.0071070236
0.015853828 -0.0017152787 0.02781767 0.019173352 -0.014213528 0.016454114 0.0024587007 0.04505371
0.010274818 -0.0030629446 0.028308384 0.0024132293 -0.020039065 -0.003778668 0.024025535 -0.0048789335
-0.022205299 0.0233221 -0.0066604875 0.013115571 0.006400267 -0.028489344 -0.017393759 -0.007259302
-0.019110609 0.021790013 -0.016089914 -0.030040462 -0.0025879566 -0.0011467333 0.0047265333 0.0070456644
0.006394132 -0.016459502 0.03600428 -0.01987872 0.004348594 -0.0060874084 -0.0006195183 0.011454675
0.026615674 -0.009388373 0.005536817 -0.041329898 -0.025968092 0.00068149925 -0.023760874 -0.012289409

action_model._discrete_distribution.branches.1.bias f4 [2]
00000000: 3d00 73bc 3700 733c
-0.0148316 0.014831594
