UnityProject/results/testModel14/AI Car Ver5/AICar-10947933.pt (torch, 790195 bytes, 49 tensors)

discrete_act_size_vector f4 [1, 2]
2.0 2.0
00000000: 0000 0040 0000 0040

network_body._body_endoder.seq_layers.0.weight f4 [128, 117]
0.4753749 -0.048565835 0.09551926 -0.06819848 -0.048328876 0.19505887 -0.49401122 0.028636537
0.029148782 -0.01639481 0.38458002 -0.09714816 -0.016152985 -0.08163534 -0.040492497 0.3701367
-0.18690132 -0.05414367 -0.10454553 -0.18539487 -0.02924715 0.048528522 0.025945995 -0.15950237
0.15357237 0.12035897 -0.19458917 -0.09903836 -0.08824161 -0.03786088 -0.2741663 0.029590975
0.0822888 0.25155354 0.193088 0.17315817 -0.15524822 -0.099302754 0.14706235 -0.03745169
-0.1110121 0.21764107 0.118253775 -0.1078929 0.16823201 0.13653484 -0.37625667 -0.12197141
0.003149766 -0.049708065 -0.05121105 0.19154656 0.14386354 -0.038659107 0.07272303 0.16233395
-0.096182965 -0.20240822 0.020316392 -0.07925086 -0.119342946 0.17953114 -0.07278476 -0.08290523
0.061475374 0.031600468 -0.12355448 0.04501128 0.0166138 -0.06916056 -0.032812286 -0.019151453
-0.022648541 -0.06198577 0.14821924 -0.052926246 0.03346317 -0.12708893 0.14345959 -0.10824238
0.027021946 0.14614867 0.1217672 -0.060059316 0.22526483 -0.035275668 -0.010314317 -0.030665353
0.00015312448 -0.020531196 -0.0392454 0.11335281 0.00086658925 0.14521286 0.30578142 0.06699047
0.09140287 -0.046001658 -0.11424463 -0.108879 -0.016608603 -0.017466241 -0.047408614 -0.07047893
0.090624 -0.017615724 -0.11614592 -0.23632494 -0.07849123 -0.10947351 -0.0016443045 -0.06526748
-0.11379074 0.047852598 -0.104740046 -0.010306916 -0.018855918 -0.15317337 0.005760978 0.089639165
0.015061216 0.13001719 -0.26730463 -0.011008147 0.058479108 0.011678587 0.27784827 0.122827426
0.02235623 -0.082917124 0.1260646 0.1457577 0.00013330164 -0.08044684 -0.047862522 0.12421637
0.070843875 -0.011469726 -0.042236444 0.031059254 -0.053953286 -0.2119332 -0.054592557 0.20796329
0.027113708 0.009489844 0.15569907 0.013866125 0.005261507 0.14200486 0.117700204 0.16483591
-0.16039056 0.10676613 0.18050027 0.17491627 0.12280672 -0.06962947 0.0027122884 0.2512679
0.19448985 0.15870754 -0.20234767 0.26875463 0.14140001 -0.044647083 0.15289538 0.018376844
-0.18899465 -0.04791027 0.16096757 0.014957554 -0.074098915 0.08290781 -0.030495714 -0.0049131997
0.03529758 -0.06607181 -0.036167488 -0.008085618 -0.0109583335 -0.010248033 0.12445861 0.054364998
0.027502796 -0.2097141 0.015053037 -0.048440237 -0.15718916 -0.02914728 0.11120779 0.10008043
-0.10244487 -0.0045356113 0.055763267 -0.13107412 0.034195464 0.098022945 0.08231054 -0.040581778
0.09469601 -0.08552604 0.02372511 -0.0018086658 -0.025495725 -0.16491868 0.038380142 -0.070908405
0.11354979 0.076513305 0.14641242 -0.0689659 -0.16023831 -0.10891853 0.09985301 -0.030936373
-0.07934791 -0.00898455 -0.004219989 0.12059152 -0.13898742 -0.01661776 -0.24623345 0.03110385
-0.029106045 0.010166477 0.017889064 -0.026306175 0.10839482 -0.006022752 -0.041873157 -0.04526549
-0.019239087 -0.040446784 0.16084637 -0.01905811 0.06202383 0.05672444 0.12988319 0.44742197
-0.018632332 0.026842864 -0.027339699 0.06846429 -0.28718466 0.1799307 -0.08109491 0.029700555
0.08729188 0.41814092 -0.22590224 0.32632086 0.06772896 -0.07187104 -0.09866364 0.29415286
00000000: 5764 f33e f8ec 46bd 9a9f c33d a5ab 8bbd
00000010: 80f4 45bd 83bd 473e 0aef fcbe 2c97 ea3c
00000020: 6dc9 ee3c 694e 86bc ace7 c43e 9df5 c6bd
00000030: 4453 84bc 6e30 a7bd 76db 25bd 8f82 bd3e
00000040: 0f63 3fbe c1c5 5dbd f81b d6bd 27d8 3dbe
00000050: b897 efbc d8c5 463d b28c d43c 9754 23be
00000060: 1342 1d3e c37e f63d 6242 47be a0d4 cabd
00000070: 04b8 b4bd 0314 1bbd 865f 8cbe c668 f23c
00000080: 0887 a83d a0cb 803e dcb8 453e 6050 313e
00000090: 64f9 1ebe 3e5f cbbd 8397 163e f166 19bd
000000a0: 505a e3bd 4ddd 5e3e 092f f23d f4f6 dcbd
000000b0: 0345 2c3e cacf 0b3e b7a4 c0be 26cc f9bd
000000c0: 4e6c 4e3b af9a 4bbd aec2 51bd c824 443e
000000d0: f750 133e 0359 1ebd d0ef 943d df3a 263e
000000e0: 93fb c4bd 1a44 4fbe 906e a63c 464e a2bd
000000f0: 136a f4bd 03d7 373e 2d10 95bd 38ca a9bd
00000100: 9acd 7b3d 7e6f 013d 220a fdbd bf5d 383d
00000110: aa19 883c 0da4 8dbd 2d66 06bd 82e3 9cbc
00000120: 6f89 b9bc cae4 7dbd c9c6 173e 31c9 58bd
00000130: ad10 093d 9a23 02be 12e7 123e 2eae ddbd
00000140: 215d dd3c ffa7 153e 1561 f93d c200 76bd
00000150: d3ab 663e 387d 10bd 62fd 28bc e835 fbbc
00000160: 0a90 2039 0a31 a8bc c9bf 20bd 8525 e83d
00000170: d22b 633a aeb2 143e 628f 9c3e 4d32 893d
00000180: 6e31 bb3d 3c6c 3cbd 17f9 e9bd f4fb debd
00000190: c40e 88bc 5d15 8fbc 892f 42bd 4257 90bd
000001a0: 1399 b93d da4e 90bc e9dd edbd 2aff 71be
000001b0: 03c0 a0bd a633 e0bd b485 d7ba f5aa 85bd
000001c0: 1f0b e9bd 1601 443d f381 d6bd 57de 28bc
000001d0: ba77 9abc 7bd9 1cbe 96c6 bc3b bd94 b73d
000001e0: 52c3 763c 3a23 053e 27dc 88be 845b 34bc
000001f0: ca87 6f3d 8b57 3f3c 2142 8e3e f28c fb3d
00000200: 6a24 b73c 74d0 a9bd 1417 013e 8241 153e
00000210: e3c6 0b39 50c1 a4bd 7e0b 44bd 2765 fe3d
00000220: 9816 913d 85eb 3bbc 1f00 2dbd fa6f fe3c
00000230: 1ffe 5cbd 0405 59be 729c 5fbd 54f4 543e
00000240: 911d de3c 4a7b 1b3c 946f 1f3e be2e 633c
00000250: b868 ac3b b969 113e ce0c f13d bfca 283e
00000260: 6c3d 24be 33a8 da3d 10d5 383e 401d 333e
00000270: 1782 fb3d e599 8ebd a6c0 313b 30a6 803e
00000280: 5928 473e 3b84 223e 3a34 4fbe 359a 893e
00000290: 2acb 103e dcdf 36bd 9b90 1c3e 098b 963c
000002a0: d087 41be 8f3d 44bd afd4 243e 8710 753c
000002b0: 2cc1 97bd 92cb a93d 26d2 f9bc e8fe a0bb
000002c0: 3294 103d a850 87bd 5c24 14bd 8a79 04bc
000002d0: 958a 33bc 5ee7 27bc 28e4 fe3d d5ad 5e3d
000002e0: 8b4d e13c 4bbf 56be 03a1 763c 4569 46bd
000002f0: 32f6 20be 47c6 eebc e9c0 e33d f8f6 cc3d
00000300: 9ece d1bd 779f 94bb 0668 643d 4b38 06be
00000310: 8b10 0c3d 41c0 c83d 6e92 a83d 1439 26bd
00000320: fbef c13d 4728 afbd 295b c23c c110 edba
00000330: 69dc d0bc 71e0 28be 7f34 1d3d 6d38 91bd
00000340: cb8c e83d 02b3 9c3d 23ed 153e fe3d 8dbd
00000350: 8315 24be ae10 dfbd bc7f cc3d 476e fdbc
00000360: 2881 a2bd ef33 13bc d547 8abb b0f8 f63d
00000370: b852 0ebe f821 88bc 9f24 7cbe 80cd fe3c
00000380: cd6f eebc 4c91 263c 168c 923c 0c80 d7bc
00000390: 1afe dd3d 815a c5bb 3083 2bbd 4e68 39bd
000003a0: 4a9b 9dbc 87ab 25bd e9b4 243e c11f 9cbc
000003b0: b30c 7e3d e357 683d 1900 053e 7e14 e53e
000003c0: d5a2 98bc 91e5 db3c 81f7 dfbc 0137 8c3d
000003d0: de09 93be c13f 383e 1715 a6bd 944e f33c
000003e0: 16c6 b23d 9116 d63e eb52 67be 8713 a73e
000003f0: 7bb5 8a3d 2031 93bd 2a10 cabd 349b 963e

network_body._body_endoder.seq_layers.0.bias f4 [128]
0.045538332 0.015621053 -0.024056423 0.016955826 0.04797748 -0.0004761083 0.010195653 -0.007394411
-0.010541318 0.009018217 -0.008936457 0.023354689 0.0089512905 -0.005594833 -0.008055691 0.015014971
-0.020248989 0.021918232 0.0015964893 0.0073944987 0.008042908 0.002395704 -0.013389168 -0.013899111
0.031597536 0.0018178296 -0.017964704 -0.026348893 0.020487932 -0.008578786 0.025964411 0.03250629
0.011486088 0.0027628657 0.013375333 0.0061084777 -0.016103676 -0.01630885 0.016323226 0.005822558
0.034573197 -0.014046779 0.012173494 0.012461461 0.018506452 0.0031574601 0.019717464 -0.014052299
0.0015914352 0.010882712 -0.009738345 0.009290953 -0.017536048 -0.029170904 -0.02060634 0.025014017
-0.0061772843 -0.009332702 -0.00455486 -0.0007298419 -0.0043119094 0.052590758 0.025545795 0.03110531
0.023964401 -0.03405814 -0.013524522 0.0027681706 -0.004531622 0.014758684 -0.015646283 0.013821947
-0.00076787156 0.001638701 -0.0142863095 0.04518197 0.022598999 0.0023327437 0.0033646878 -0.0029211834
-0.038124222 0.016337762 0.032077216 0.0035629654 0.015512302 -0.0054106247 0.037749693 -0.041686293
-0.036026955 0.014339621 0.010322904 -0.0010276834 0.05245695 0.00010376422 0.028125629 0.024166051
-0.02518486 -0.0117006665 -0.009651459 0.056889903 0.03922977 0.010613814 -0.025410995 0.020996468
-0.0133306 -0.013185517 0.044483323 -0.0036047897 -0.009274479 0.01887567 0.03722987 0.021518035
-0.008877525 0.028094549 -0.00028042204 0.009962611 -0.00014895923 0.023844784 0.029506251 -0.00317274
-0.009270374 -0.0057907593 0.009682663 0.0022428008 0.009376618 0.01853351 -0.013607245 0.023590624
00000000: 6786 3a3d 72ef 7f3c fa11 c5bc f2e6 8a3c
00000010: 0984 443d 2d9e f9b9 ab0b 273c d14c f2bb
00000020: 7eb5 2cbc 25c1 133c 386a 12bc 5552 bf3c
00000030: 6fa8 123c dc54 b7bb 04fc 03bc 5a01 763c
00000040: 35e1 a5bc dd8d b33c 4b41 d13a 8d4d f23b
00000050: 67c6 033c 3e01 1d3b 3e5e 5bbc 19b9 63bc
00000060: 6b6c 013d 3d44 ee3a b72a 93bc a2d9 d7bc
00000070: 4fd6 a73c 098e 0cbc 51b3 d43c 5125 053d
00000080: 2530 3c3c 3211 353b 3624 5b3c a029 c83b
00000090: dbeb 83bc 239a 85bc 49b8 853c 28cb be3b
000000a0: a09c 0d3d 7624 66bc 5673 473c 282b 4c3c
000000b0: d89a 973c 64ed 4e3b 8586 a13c 9d3b 66bc
000000c0: b497 d03a 674d 323c 948d 1fbc 1539 183c
000000d0: c2a7 8fbc d2f7 eebc a1ce a8bc 32ea cc3c
000000e0: d16a cabb 30e8 18bc ef40 95bb dc52 3fba
000000f0: eb4a 8dbb 6869 573d 6a45 d13c 90d0 fe3c
00000100: fe50 c43c 8c80 0bbd f595 5dbc 326a 353b
00000110: 007e 94bb 68ce 713c a22c 80bc 7375 623c
00000120: fd4a 49ba aec9 d63a 2011 6abc bb10 393d
00000130: 8921 b93c f2e0 183b 1882 5c3b 5371 3fbb
00000140: 2528 1cbd c5d6 853c 6663 033d a480 693b
00000150: 4f27 7e3c 9c4b b1bb 6c9f 1a3d 3fbf 2abd
00000160: 0091 13bd bbf0 6a3c 6621 293c 55b3 86ba
00000170: 19dd 563d fe9b d938 b867 e63c e2f7 c53c
00000180: 7b50 cebc 27b4 3fbc 2721 1ebc 6305 693d
00000190: 65af 203d 90e5 2d3c b82a d0bc c900 ac3c
000001a0: 9768 5abc 1108 58bc 2534 363d 563e 6cbb
000001b0: fcf3 17bc 26a1 9a3c 597e 183d 9746 b03c
000001c0: 0a73 11bc 8a26 e63c 9c05 93b9 383a 233c
000001d0: f031 1cb9 2356 c33c 18b7 f13c bfed 4fbb
000001e0: c4e2 17bc 69c0 bdbb 08a4 1e3c f4fb 123b
000001f0: 63a0 193c 96d3 973c ecf0 5ebc 2041 c13c

network_body._body_endoder.seq_layers.2.weight f4 [128, 128]
-0.093596965 0.030928425 -0.13940908 -0.045384705 -0.13821046 0.013541438 0.22393046 0.085176304
-0.24664882 0.13342626 0.008500908 0.15803665 -0.07333103 0.046479966 -0.18912907 -0.22897604
-0.13241534 0.1504488 -0.11727151 0.052511733 0.07845607 0.0076551232 -0.09692957 0.087894075
-0.051804125 0.11838242 0.042881176 -0.063654274 0.15141027 0.07031604 0.016142746 -0.10008885
0.14002733 0.0062512546 -0.19538721 0.085119314 -0.059001517 -0.045769334 -0.106524155 0.083209105
-0.10085838 -0.012908869 0.08848709 0.055721957 0.033236187 0.19380657 -0.023829358 0.06433494
-0.016936166 -0.080039516 0.050808955 -0.15705247 -0.067567475 -0.019916583 0.2582901 -0.09115435
-0.011385751 -0.21931309 -0.11274046 -0.026242137 0.05134943 0.0018033023 0.00074568414 -0.1258174
-0.018492512 -0.121770725 -0.1772978 0.044159956 0.034049585 -0.053122275 -0.058964506 -0.059228204
0.10977621 -0.1624701 -0.13176878 0.17646132 -0.049295634 -0.18721558 -0.18130633 -0.071182996
0.086904585 -0.054289863 0.09039025 0.11961248 0.04733346 0.040110223 0.09418756 -0.032303452
-0.094088525 -0.09393762 -0.056035332 -0.031915557 0.18334064 -0.0031369482 -0.08339768 -0.061241206
-0.10514706 -0.044598833 -0.011024188 -0.14137416 0.056960344 -0.23558824 0.021557273 -0.047411643
-0.11596226 -0.03923258 -0.1195939 -0.15094623 -0.08337621 -0.16699636 0.16975246 -0.01500338
0.038455684 0.072752945 -0.034204625 -0.15242693 -0.070108175 0.13323717 -0.16744745 0.15989275
-0.018273175 0.011415105 -0.080418125 -0.18255633 -0.07301159 0.15403906 -0.042314716 0.15318173
0.20964894 0.03933102 0.007779207 -0.000105056606 -0.02047005 -0.027420243 0.18094267 0.018063327
-0.033591926 0.116319396 -0.12617458 -0.102036804 -0.06343373 -0.14204453 -0.050728228 -0.060623135
-0.039721414 0.000638072 0.12527278 0.08840441 0.05003175 0.031894114 -0.076734 -0.070771314
0.04300008 0.09939448 0.0099219205 -0.077861324 0.1349398 0.025009288 -0.091334164 0.011742557
-0.22011003 0.073709294 -0.09056614 -0.0679664 0.11865166 -0.0892683 -0.1321523 -0.06004863
-0.23930289 0.16500846 -0.036923323 0.0020762153 -0.0864611 -0.06951922 -0.047281902 0.08302566
0.0023502524 -0.017100215 0.06387722 0.044970106 0.040500227 0.04224114 0.13574786 -0.14387573
0.0045716087 0.030380622 -0.14714539 -0.27540904 -0.030121451 -0.08676904 0.054914765 -0.19426568
0.0053680446 -0.14504227 0.008940044 0.06389261 -0.019112222 -0.13268061 -0.203583 0.04360557
0.12542018 0.1495188 -0.035138085 0.058399815 0.008392904 -0.017229566 0.05620058 -0.058369737
0.03568642 -0.07480707 -0.08695037 0.029383918 0.038492948 0.06113753 0.010909708 0.039120104
-0.12442154 0.056027398 -0.13574128 -0.099504784 0.12534076 0.112793475 0.017508248 -0.061900996
-0.0026309674 0.09490931 -0.06993893 -0.14041026 0.10010724 0.031089738 0.033037838 0.13230169
0.11090771 -0.029317677 -0.04985117 0.24745464 -0.026548397 -0.20162754 -0.029223947 -0.06323604
0.018665971 -0.03875778 0.09362742 -0.057188757 -0.030671382 0.06081812 -0.057866007 -0.07069613
-0.15738794 0.11952282 -0.048085533 0.04525858 -0.020008571 -0.08945948 -0.007933727 -0.09622196
00000000: c4af bfbd 9c5d fd3c 41c1 0ebe 50e5 39bd
00000010: 0b87 0dbe e8dc 5d3c 074e 653e ea70 ae3d
00000020: 8291 7cbe e5a0 083e 6447 0b3c 5cd4 213e
00000030: 942e 96bd c761 3e3d 0dab 41be b278 6abe
00000040: e397 07be 400f 1a3e 0c2c f0bd 8b16 573d
00000050: 93ad a03d d4d7 fa3b 0383 c6bd cf01 b43d
00000060: 9030 54bd 7b72 f23d 2ca4 2f3d 2c5d 82bd
00000070: 4b0b 1b3e db01 903d cb3d 843c 62fb ccbd
00000080: 5363 0f3e 53d7 cc3b 9613 48be 0953 ae3d
00000090: 93ab 71bd a078 3bbd 5629 dabd 8969 aa3d
000000a0: d78e cebd b97f 53bc b838 b53d b53c 643d
000000b0: ab22 083d 3b75 463e c935 c3bc 09c2 833d
000000c0: b7bd 8abc c2eb a3bd 0d1d 503d 5dd2 20be
000000d0: d160 8abd 1a28 a3bc 9a3e 843e 22af babd
000000e0: 4d8b 3abc 9c93 60be 78e4 e6bd c0f9 d6bc
000000f0: c853 523d c95c ec3a 047a 433a 47d6 00be
00000100: 9c7d 97bc ee62 f9bd 8e8d 35be 12e1 343d
00000110: 9477 0b3d be96 59bd c484 71bd 4699 72bd
00000120: 59d2 e03d 905e 26be 65ee 06be 47b2 343e
00000130: 38ea 49bd 71b5 3fbe 5ea8 39be 64c8 91bd
00000140: 08fb b13d 0c5f 5ebd 861e b93d 63f7 f43d
00000150: bbe0 413d 9e4a 243d 68e5 c03d a050 04bd
00000160: 7cb1 c0bd 5e62 c0bd 4e85 65bd e3b9 02bd
00000170: a6bd 3b3e 4295 4dbb 67cc aabd 0fd8 7abd
00000180: 5757 d7bd 44ad 36bd cc9e 34bc 63c4 10be
00000190: 404f 693d 0b3e 71be e198 b03c b632 42bd
000001a0: 9f7d edbd 58b2 20bd a6ed f4bd a691 1abe
000001b0: 25c1 aabd 1801 2bbe 97d3 2d3e bdd0 75bc
000001c0: b583 1d3d 7fff 943d 261a 0cbd ce15 1cbe
000001d0: e094 8fbd 536f 083e 5877 2bbe edba 233e
000001e0: a0b1 95bc 6c06 3b3c 42b2 a4bd 0cf0 3abe
000001f0: 1a87 95bd 6abc 1d3e 3252 2dbd acdb 1c3e
00000200: 36ae 563e 9019 213d b8e8 fe3b d651 dcb8
00000210: ceb0 a7bc 6ba0 e0bc 0949 393e 8bf9 933c
00000220: b097 09bd dd38 ee3d e933 01be acf8 d0bd
00000230: 8be9 81bd 1f74 11be 67c8 4fbd f74f 78bd
00000240: ecb2 22bd 4944 273a 8247 003e 5f0d b53d
00000250: 18ee 4c3d 67a3 023d b726 9dbd 8df0 90bd
00000260: da20 303d 558f cb3d 8d8f 223c c275 9fbd
00000270: a92d 0a3e 47e0 cc3c 680d bbbd db63 403c
00000280: 8664 61be e6f4 963d be7a b9bd f831 8bbd
00000290: a4ff f23d 4cd2 b6bd ef52 07be 8df5 75bd
000002a0: d10b 75be faf7 283e e93c 17bd 1d11 083b
000002b0: 8412 b1bd 1860 8ebd abaa 41bd 5b09 aa3d
000002c0: b106 1a3b c015 8cbc 0fd2 823d 9332 383d
000002d0: 91e3 253d 0c05 2d3d 7d01 0b3e 2954 13be
000002e0: 6fcd 953b c8e0 f83c 48ad 16be 6a02 8dbe
000002f0: 43c1 f6bc f7b3 b1bd 4eee 603d 95ed 46be
00000300: 6ce6 af3b f685 14be 4379 123c 21da 823d
00000310: 3c91 9cbc 6ddd 07be 1078 50be c19b 323d
00000320: 266e 003e 751b 193e f4ec 0fbd a534 6f3d
00000330: 6482 093c 0525 8dbc 9432 663d 1b15 6fbd
00000340: ec2b 123d 7334 99bd 0913 b2bd 8bb6 f03c
00000350: c8aa 1d3d 596b 7a3d a2be 323c 673c 203d
00000360: b8d0 febd fc7c 653d c3ff 0abe 2ac9 cbbd
00000370: 5459 003e 4400 e73d 756d 8f3c e68b 7dbd
00000380: 4f6c 2cbb d05f c23d 243c 8fbd b5c7 0fbe
00000390: 0605 cd3d e8af fe3c af52 073d 187a 073e
000003a0: 9523 e33d a02b f0bc be30 4cbd c064 7d3e
000003b0: 067c d9bc 7377 4ebe 0f67 efbc e681 81bd
000003c0: 61e9 983c 7ac0 1ebd bcbf bf3d c23e 6abd
000003d0: 8d42 fbbc 6c1c 793d e804 6dbd 22c9 90bd
000003e0: 4e2a 21be 61c8 f43d 56f5 44bd 1061 393d
000003f0: 04e9 a3bc 8836 b7bd 77fc 01bc 0510 c5bd

network_body._body_endoder.seq_layers.2.bias f4 [128]
0.023154765 0.045337547 -0.00865464 0.016290491 0.010698491 -0.016259838 0.016460933 0.011689239
0.019160884 -0.010898995 0.004794185 0.012557631 -0.0040361965 0.0134874955 -0.021913148 -0.0076102074
0.004623227 0.035333578 -0.0072781416 0.008636547 0.020484317 -0.003589089 0.0017698435 -0.010155777
-0.010606704 0.0007087821 -0.0061155222 -0.0070875767 0.023043573 0.013692076 -0.028292399 -0.00023125256
0.0078213615 -0.026279457 0.01182746 -0.0077625136 -0.02756377 -0.0018720701 -0.008409165 -0.015919767
-0.007984562 0.029347409 -0.017420107 0.017062342 0.0014251038 0.019725204 -0.028781226 -0.011385963
-0.015282506 -0.004983264 0.0023421037 0.014084298 -0.005991579 -0.008512047 -0.014139747 -0.00724934
0.0069485907 0.007545068 0.0053574755 0.012279406 0.00038539793 0.028120426 0.0042118314 0.021475468
-2.1526483e-05 0.0085187005 0.020790998 -0.003525054 0.012088559 0.029803984 -0.022453293 0.032993536
-0.01419058 -0.012346493 -0.0067360424 0.009961593 0.00062738976 0.006285592 0.0108433 0.010112656
0.02667869 -0.00486521 -0.008010668 0.026314486 0.023317913 0.014015712 0.01733312 -0.003989884
-0.010952977 -0.017325854 0.014785355 0.01337675 -0.000110772984 0.008979189 0.013040466 0.005881156
0.005799213 0.016247207 0.004252497 0.017878992 0.030125309 0.0016175993 0.0015524433 0.009578174
-0.019322375 0.009195371 0.012401598 -0.0017590087 -0.013058832 -0.0026898503 0.045741882 0.0030647044
0.008590675 -0.004014447 -0.017897606 0.008411515 -0.008516044 -0.0026104378 -0.00495431 0.0052541727
0.00440726 -0.004566781 0.0072418503 0.0028487379 -0.014292707 0.0007257579 0.008971552 0.021441644
00000000: 10af bd3c ddb3 393d 31cc 0dbc a373 853c
00000010: b948 2f3c 5a33 85bc 14d9 863c 3984 3f3c
00000020: 49f7 9c3c b391 32bc 8a18 9d3b 86be 4d3c
00000030: 1242 84bb a8fa 5c3c 3483 b3bc 0c5f f9bb
00000040: 707e 973b f1b9 103d 7a7d eebb 4e80 0d3c
00000050: bace a73c ec36 6bbb 18fa e73a 6b64 26bc
00000060: bec7 2dbc 90cd 393a b864 c8bb e73e e8bb
00000070: e0c5 bc3c bb54 603c 76c5 e7bc 637c 72b9
00000080: 2b25 003c 0448 d7bc f6c7 413c af5c febb
00000090: 6acd e1bc 4060 f5ba 98c6 09bc 2c6a 82bc
000000a0: aed1 02bc fa69 f03c 9db4 8ebc 53c6 8b3c
000000b0: 8cca ba3a c096 a13c 9bc6 ebbc 318c 3abc
000000c0: 7a63 7abc a64a a3bb fb7d 193b d4c1 663c
000000d0: 0255 c4bb 1d76 0bbc 66aa 67bc df8b edbb
000000e0: 01b1 e33b 9e3c f73b c38d af3b 902f 493c
000000f0: 3c0f ca39 cf5c e63c 6703 8a3b 52ed af3c
00000100: c593 b4b7 0592 0b3c e251 aa3c 9804 67bb
00000110: 170f 463c 7c27 f43c f8ef b7bc 3b24 073d
00000120: 9b7f 68bc f248 4abc 05ba dcbb f335 233c
00000130: 6a77 243a 5ef7 cd3b 19a8 313c 8eaf 253c
00000140: 458d da3c 576c 9fbb 2d3f 03bc 7a91 d73c
00000150: 3505 bf3c 28a2 653c 30fe 8d3c 93bd 82bb
00000160: 1e74 33bc f3ee 8dbc 463e 723c 282a 5b3c
00000170: cb4e e8b8 731d 133c aea7 553c b6b6 c03b
00000180: 5307 be3b dd18 853c 8858 8b3b f776 923c
00000190: 5ac9 f63c a005 d43a 5a7b cb3a c6ed 1c3c
000001a0: f549 9ebc 2ea8 163c 1230 4b3c 8a8e e6ba
000001b0: b6f4 55bc 3348 30bb d75b 3b3d 35d9 483b
000001c0: e7bf 0c3c 9f8b 83bb 009e 92bc 73d0 093c
000001d0: e186 0bbc e113 2bbb c457 a2bb 322b ac3b
000001e0: c76a 903b f0a4 95bb 0b4d ed3b e4b1 3a3b
000001f0: f52b 6abc ca40 3e3a 6bfd 123c 63a6 af3c

action_model._continuous_distribution.log_sigma f4 [1, 2]
-0.24852565 -0.5456406
00000000: 827d 7ebe 1aaf 0bbf

action_model._continuous_distribution.mu.weight f4 [2, 128]
-0.010710488 -0.042100243 -0.030693453 -0.007307585 -0.005171802 0.029621586 -0.010880865 0.011439326
-0.10950461 -0.081308156 -0.029131226 0.04128062 -0.025192363 0.013720099 0.012723219 -0.0025667138
-0.093851976 0.023776295 0.018983278 -0.054575033 0.018801263 0.042631857 0.0075682686 -0.047051046
-0.007875578 -0.085043 -0.024179477 0.049993426 0.055470217 -0.01688836 0.013070708 -0.0063134073
0.008432872 0.017567746 -0.05116002 0.026156807 0.01173028 0.033806708 -0.032787018 0.012837444
0.012409952 0.044654932 0.05269131 -0.03814421 0.008059734 0.14127807 0.023740072 0.034853455
0.05813176 -0.022911243 0.023218488 -0.03905201 -0.05311254 -0.12132272 0.050361972 0.0036653806
0.0139737185 0.0038925495 -0.030606074 0.021281332 -0.038040657 0.040044006 -0.035909943 0.12077097
-0.021188797 0.025078662 0.08015473 -0.009383863 -0.013118808 0.13042127 0.0023048082 -0.026753563
0.025470631 0.0053070276 -0.032427087 -0.040041562 -0.053686302 0.0024627598 0.035285328 0.0071144197
0.008104491 0.038059827 -0.011346495 0.036085676 -0.11861569 0.027307153 -0.06443307 -0.060151186
0.025181573 -0.004451196 0.011360278 0.00021540762 0.046500236 -0.014957416 -0.010158662 0.00022841567
-0.018955074 -0.018071836 0.01508224 0.0628938 0.066769436 -0.01898893 -0.020705424 -0.0030836426
0.0054261773 0.0030067554 0.003978065 -0.00770151 -0.06039141 -0.03606679 0.08405904 0.021486958
-0.032290976 -0.04667504 0.019582583 0.029224718 0.052014485 0.0106878495 0.004218237 -0.0012721892
-0.0007137491 0.029368786 -0.07764639 0.06335338 0.009511963 0.025245408 -0.041914597 -0.0016090741
0.040002163 -0.03555107 0.09161397 0.022740785 -0.024984922 -0.02463814 0.025049957 0.035873625
0.007914161 0.01740836 -0.0006671854 0.11481692 -0.02657926 0.0115651125 0.009087971 -0.0144330785
-0.013149694 0.037890896 -0.054612126 -0.008930927 -0.06746819 -0.04979563 -0.06757051 -0.047660235
-0.006016592 -0.040148348 -0.06651666 -0.107120596 0.011664173 0.031019723 -0.0023110767 0.0044249697
0.03365537 -0.043940727 0.03863864 -0.0499197 -0.008711517 -0.06820276 -0.036969613 -0.006436049
-0.034435943 0.08598547 -0.017730387 -0.0052650804 0.0047655697 -0.10135607 -0.048478607 -0.018803578
-0.017429795 -0.0075210775 0.015413295 0.020344678 -0.058500513 0.0052916827 -0.025697386 0.014006102
0.031137398 0.0141671505 -0.00089640496 -0.03372452 -0.012891619 -0.122264706 0.025271632 -0.03103728
0.017599083 0.017691335 -0.1334304 0.0071359654 0.0299262 -0.072182335 -0.03180297 0.045909353
-0.014083131 -0.07052178 0.015586129 0.017880151 0.04952508 -0.05370355 0.0260263 0.056420527
-0.10257348 -0.07665265 -0.09390716 0.03190703 -0.018499754 0.024353998 -0.040147096 0.0015200546
-0.0075656082 -0.021526556 0.056052305 0.045835838 -0.06378676 0.0099442545 0.020637954 -0.068128645
-0.0150929 0.044198558 -0.06541549 0.027521906 0.032222174 -0.040671106 -0.04928197 0.021542694
-0.018936984 0.029526172 -0.013680165 0.057735708 -0.0375408 -0.013669077 0.028148731 -0.08660089
0.08252916 -0.032115754 -0.04921373 -0.086598784 -0.039594766 -0.094206996 -0.03505321 0.024954805
0.051233795 0.012838639 0.030070484 -0.046237133 -0.0066018463 0.008448489 0.010594115 0.0718258
00000000: 0b7b 2fbc 4e71 2cbd d670 fbbc 7774 efbb
00000010: 3878 a9bb f8a8 f23c a845 32bc 036c 3b3c
00000020: f443 e0bd e484 a6bd 9ca4 eebc de15 293d
00000030: 3760 cebc 44ca 603c 0c75 503c 5036 28bb
00000040: 7735 c0bd 81c6 c23c d282 9b3c 128a 5fbd
00000050: 1b05 9a3c be9e 2e3d 3dff f73b 99b8 40bd
00000060: 9108 01bc 062b aebd 0a14 c6bc e8c5 4c3d
00000070: bd34 633d 7559 8abc 8626 563c b3e0 cebb
00000080: 072a 0a3c 3cea 8f3c 2b8d 51bd cd46 d63c
00000090: 5c30 403c e778 0a3d ae4b 06bd 2554 523c
000000a0: 1c53 4b3c 17e8 363d d8d2 573d 1a3d 1cbd
000000b0: f90c 043c 33ab 103e 8a7a c23c 7fc2 0e3d
000000c0: 921b 6e3d 5cb0 bbbc b334 be3c 00f5 1fbd
000000d0: 898c 59bd 0c78 f8bd 5b48 4e3d e236 703b
000000e0: 06f2 643c 251a 7f3b 97b9 fabc 3056 ae3c
000000f0: 85d0 1bbd 2f05 243d 4e16 13bd c556 f73d
00000100: 2194 adbc c471 cd3c 2a28 a43d c6be 19bc
00000110: 45f0 56bc 278d 053e 440c 173b 4a2a dbbc
00000120: c9a7 d03c 93e6 ad3b 44d2 04bd 9f02 24bd
00000130: 2be6 5bbd 4166 213b 5987 103d 1420 e93b
00000140: b3c8 043c 9fe4 1b3d a6e6 39bc 93ce 133d
00000150: c8ec f2bd 40b3 df3c 7cf5 83bd 1761 76bd
00000160: 9649 ce3c 57db 91bb 7620 3a3c 0bdf 6139
00000170: 0877 3e3d f30f 75bc 8470 26bc dd82 6f39
00000180: ac47 9bbc 630b 94bc 801b 773c 77ce 803d
00000190: 6abe 883d ac8e 9bbc 6c9e a9bc f016 4abb
000001a0: 13ce b13b fc0c 453b 6e5a 823b f35c fcbb
000001b0: fc5c 77bd c5ba 13bd 2527 ac3d 6b05 b03c
000001c0: 8b43 04bd 542e 3fbd a76b a03c ad68 ef3c
000001d0: 240d 553d 171c 2f3c 2339 8a3b 96bf a6ba
000001e0: e41a 3bba cf96 f03c 1205 9fbd 6bbf 813d
000001f0: 11d8 1b3c 75cf ce3c a4ae 2bbd 91e7 d2ba
00000200: 4fd9 233d 009e 11bd 1ba0 bb3d e24a ba3c
00000210: 2ead ccbc edd5 c9bc 9135 cd3c 39f0 123d
00000220: 66aa 013c fa9b 8e3c 0ee6 2eba 2225 eb3d
00000230: c0bc d9bc 997b 3d3c b7e5 143c b878 6cbc
00000240: d071 57bc 7c33 1b3d f7b0 5fbd 0653 12bc
00000250: c32c 8abd 81f6 4bbd 6862 8abd 6137 43bd
00000260: d526 c5bb 9872 24bd e339 88bd 0b62 dbbd
00000270: 161b 3f3c 131d fe3c 6f75 17bb 56ff 903b
00000280: 37da 093d 31fb 33bd 8d43 1e3d 9978 4cbd
00000290: c0ba 0ebc e3ad 8bbd 736d 17bd 7ee5 d2bb
000002a0: b40c 0dbd 2619 b03d 513f 91bc b286 acbb
000002b0: 7f28 9c3b c593 cfbd 8191 46bd f609 9abc
000002c0: eec8 8ebc 5f73 f6bb 0b88 7c3c e2a9 a63c
000002d0: 3c9e 6fbd da65 ad3b 5383 d2bc da79 653c
000002e0: db13 ff3c 561d 683c b8fc 6aba b922 0abd
000002f0: 5e37 53bc eb65 fabd 7406 cf3c e541 febc
00000300: f42b 903c 6bed 903c fba1 08be d1d4 e93b
00000310: ca27 f53c 55d4 93bd d543 02bd 720b 3c3d
00000320: efbc 66bc b96d 90bd f75c 7f3c 6579 923c
00000330: cfda 4a3d 41f8 5bbd 1b35 d53c 3619 673d
00000340: 0b12 d2bd 11fc 9cbd 6652 c0bd f2b0 023d
00000350: cc8c 97bc 0982 c73c 4871 24bd 923c c73a
00000360: ece8 f7bb 7658 b0bc 1a97 653d 5cbe 3b3d
00000370: a2a2 82bd 3aed 223c ed10 a93c 0887 8bbd
00000380: 3648 77bc 8c09 353d 8ef8 85bd 9f75 e13c
00000390: 66fb 033d bf96 26bd e4db 49bd 4e7a b03c
000003a0: bc21 9bbc dfe0 f13c c522 60bc 477c 6c3d
000003b0: 62c4 19bd 44f4 5fbc 2b98 e63c cf5b b1bd
000003c0: 0c05 a93d cf8b 03bd 5694 49bd b45a b1bd
000003d0: 1f2e 22bd 99ef c0bd f493 0fbd 056e cc3c
000003e0: 87da 513d 2859 523c 6056 f63c 2663 3dbd
000003f0: 4d54 d8bb 886b 0a3c f092 2d3c 6819 933d

action_model._continuous_distribution.mu.bias f4 [2]
-0.008786392 0.016807005
00000000: cdf4 0fbc d8ae 893c

action_model._discrete_distribution.branches.0.weight f4 [2, 128]
-0.10113818 -0.08015449 0.031200195 0.026442908 0.04322576 0.02689066 -0.0012029562 0.04492453
-0.075281546 0.028860152 -0.010851138 0.058533423 -0.033292536 0.05384041 0.010417702 -0.02130833
-0.08915654 0.05814896 0.0029707726 -0.0033570179 -0.055620614 -0.06860779 -0.027498465 -0.14066002
0.012354722 -0.070106246 -0.025892466 -0.022913726 0.06382161 -0.014270629 0.013968056 -0.0031516135
0.0070266146 0.022175528 0.03510552 -0.0067581637 0.02534154 -0.06375988 0.07526249 0.05070973
0.05162559 0.021497425 -0.0072614895 0.05440733 -0.09805396 -0.0050237826 0.04169508 0.00070990494
0.01013666 -0.005408153 0.02076875 -0.01626868 -0.055980302 -0.08371035 0.014942424 0.018587487
0.0042538997 0.016269637 0.06325208 -0.009234344 0.003396286 -0.053049315 0.048141602 0.02271207
-0.016987229 0.029874237 -0.016810132 0.04225664 0.011418566 0.030183561 -0.012130654 -0.14933573
0.0025881454 -0.114163384 -0.03490264 -0.055642925 0.008921324 -0.07976744 -0.0009473004 0.014752372
-0.0168387 -0.028970286 0.034407016 0.04805326 -0.0129384305 -0.1231846 -0.06469097 0.03851742
0.014734955 -0.0121055255 0.07927932 0.004790721 0.00071799214 0.024406444 -0.028158033 -0.075377956
0.04636322 -0.002770281 0.0020980749 0.10409302 0.09567405 -0.114567444 -0.003518822 0.0032822075
-0.022002758 -0.025327561 -0.08926756 -0.036702372 -0.05729474 -0.011778415 0.11600381 -0.051432747
0.08189498 -0.009297499 -0.04912822 -0.014460834 -0.005320519 0.004570946 -0.00071066804 0.0097846
-0.04961817 0.010546736 -0.0186916 -0.071108766 -0.042114083 0.015584082 -0.03625568 -0.11102926
0.09853116 0.08359609 -0.017872619 -0.03116563 -0.057457723 0.0069125076 0.013541262 -0.03646796
0.077667594 -0.03503444 0.006823534 -0.063919865 0.032837607 -0.06743152 -0.0018548536 0.024749028
0.08181645 -0.071465105 -0.005524751 0.020965854 0.04948903 0.09842013 0.037256375 0.15311861
-0.0072203195 0.070571624 0.011945634 0.018742088 -0.074381754 -0.0019428558 -0.015698826 -0.006855063
-0.029413324 -0.024396233 -0.0149358045 -0.0028237994 0.01826661 0.04396763 -0.06559732 -0.058078647
-0.06313387 -0.026714783 0.010559111 -0.04289107 0.11934213 -0.0053704767 -0.03659586 -0.010579837
0.018966679 -0.002292356 -0.029642 0.034559697 0.060832825 0.06874637 -0.004320574 -0.018013867
-0.016528893 -0.002346522 -0.06884766 -0.0035188927 0.009579707 0.049570546 -0.052536782 -0.04959009
0.0041305684 -0.033611767 0.011817144 -0.038893763 -0.013563197 -0.02791584 -0.0078007416 0.14454848
0.0033382892 0.09918268 0.029585697 0.06768048 0.005887183 0.089646526 -0.006705338 -0.008016959
0.04191502 0.008111282 -0.04279913 -0.03718995 0.010515901 0.124169074 0.051226396 -0.032945547
-0.031623755 0.012405707 -0.07931549 0.004804576 0.010302235 -0.020196598 -0.00095496525 0.08925348
-0.044260487 0.022625603 0.004617889 -0.10973419 -0.107510306 0.11627038 0.015156678 -0.007707048
0.018887317 0.008381318 0.09016253 0.03607636 0.05405219 -0.0045973333 -0.11697797 0.054348525
-0.066940784 0.011571506 0.04370872 0.028948022 0.0076906444 -0.003735028 0.0017551617 -0.026622621
0.036060628 -0.0138165355 -0.0060777524 0.059084322 0.045142017 -0.003954879 0.01930289 0.100155294
00000000: 8921 cfbd 0a28 a4bd 8d97 ff3c cc9e d83c
00000010: 7f0d 313d cd49 dc3c 83ac 9dba c902 383d
00000020: 362d 9abd 206c ec3c f9c8 31bc bec0 6f3d
00000030: c15d 08bd c387 5c3d 02af 2a3c cf8e aebc
00000040: b497 b6bd 9b2d 6e3d 4bb1 423b 6a01 5cbb
00000050: 71d2 63bd 3e82 8cbd 7644 e1bc 2e09 10be
00000060: 766b 4a3c dd93 8fbd 701c d4bc 91b5 bbbc
00000070: e7b4 823d 5bcf 69bc 46da 643c 4d8b 4ebb
00000080: 843f e63b 74a9 b53c ceca 0f3d 9673 ddbb
00000090: 1099 cf3c 8a94 82bd 3823 9a3d 01b5 4f3d
000000a0: 5b75 533d 5e1b b03c caf1 edbb 38da 5e3d
000000b0: 84d0 c8bd 8b9e a4bb 76c8 2a3d ea18 3a3a
000000c0: 3c14 263c e036 b1bb 3a23 aa3c e545 85bc
000000d0: 9a4b 65bd 5570 abbd 12d1 743c c944 983c
000000e0: 4c64 8b3b e747 853c 4e8a 813d a54b 17bc
000000f0: 3994 5e3b 3d4a 59bd 2130 453d aa0e ba3c
00000100: cd28 8bbc d1ba f43c 67b5 89bc 4c15 2d3d
00000110: f014 3b3c 8443 f73c a7bf 46bc 77eb 18be
00000120: e09d 293b 7ece e9bd 12f6 0ebd d6e9 63bd
00000130: bf2a 123c 1d5d a3bd 4154 78ba efb3 713c
00000140: 50f1 89bc 1853 edbc 5fee 0c3d 7fd3 443d
00000150: b6fb 53bc 3548 fcbd b37c 84bd 71c4 1d3d
00000160: e16a 713c 4156 46bc 325d a23d 7bfb 9c3b
00000170: a337 3c3a 06f0 c73c adab e6bc c25f 9abd
00000180: 5ce7 3d3d 9a8d 35bb db7f 093b b92e d53d
00000190: c2f0 c33d 56a2 eabd 099c 66bb 4e1a 573b
000001a0: 213f b4bc bf7b cfbc e9d1 b6bd 3a55 16bd
000001b0: e4ad 6abd 41fa 40bc 6893 ed3d 25ab 52bd
000001c0: 8eb8 a73d 8a54 18bc ac3a 49bd 22ed 6cbc
000001d0: c057 aebb e0c7 953b 204c 3aba 964f 203c
000001e0: 6c3c 4bbd 38cc 2c3c 201f 99bc 79a1 91bd
000001f0: d17f 2cbd 6154 7f3c d680 14bd 4f63 e3bd
00000200: b4ca c93d 6d34 ab3d 9969 92bc 104f ffbc
00000210: ca58 6bbd 5182 e23b 2bdc 5d3c 6d5f 15bd
00000220: 3010 9f3d 4680 0fbd f497 df3b 6be8 82bd
00000230: ba80 063d 8919 8abd 8f1e f3ba 79be ca3c
00000240: 628f a73d 4c5c 92bd f808 b5bb 95c0 ab3c
00000250: 02b5 4a3d 7e90 c93d 249a 183d 20cb 1c3e
00000260: 6e98 ecbb db87 903d 9fb7 433c 0289 993c
00000270: 7655 98bd 6ca7 feba d39a 80bc 70a0 e0bb
00000280: 36f4 f0bc 9cda c7bc 4eb5 74bc 7e0f 39bb
00000290: dca3 953c 6717 343d e357 86bd e0e3 6dbd
000002a0: 554c 81bd f6d8 dabc 1f00 2d3c 8cae 2fbd
000002b0: a669 f43d d3fa afbb 8ae5 15bd 0d57 2dbc
000002c0: 0260 9b3c 5a3b 16bb c8d3 f2bc 788e 0d3d
000002d0: d72b 793d e6ca 8c3d 9a93 8dbb d191 93bc
000002e0: 9a67 87bc 1bc8 19bb 0100 8dbd 399d 66bb
000002f0: 34f4 1c3c 7c0a 4b3d cf30 57bd fa1e 4bbd
00000300: b859 873b 7eac 09bd b29c 413c 114f 1fbd
00000310: 2c38 5ebc c2af e4bc 5d9d ffbb 8404 143e
00000320: 33c7 5a3b 4a20 cb3d b45d f23c 109c 8a3d
00000330: 45e9 c03b 9998 b73d 74b8 dbbb 9059 03bc
00000340: 16af 2b3d 2fe5 043c 244e 2fbd 7d54 18bd
00000350: e34a 2c3c 5b4c fe3d c5d2 513d e9f1 06bd
00000360: e987 01bd 4e41 4b3c 2970 a2bd b46f 9d3b
00000370: b5ca 283c 5673 a5bc a256 7aba 87ca b63d
00000380: 7c4a 35bd 5459 b93c a951 973b 52bc e0bd
00000390: 5d2e dcbd 2a1f ee3d b753 783c 688b fcbb
000003a0: 93b9 9a3c cc51 093c 22a7 b83d cec4 133d
000003b0: d465 5d3d 3aa5 96bb 2592 efbd 8f9c 5e3d
000003c0: 4018 89bd 6a96 3d3c ea07 333d 6724 ed3c
000003d0: cd01 fc3b 5fc7 74bb 740d e63a af17 dabc
000003e0: 4fb4 133d c05e 62bc e227 c7bb 6702 723d
000003f0: d6e6 383d ee97 81bb 1821 9e3c 381e cd3d

action_model._discrete_distribution.branches.0.bias f4 [2]
0.007586063 -0.007586077
00000000: 8294 f83b a094 f8bb

action_model._discrete_distribution.branches.1.weight f4 [2, 128]
-0.0066676857 0.032065738 -0.023877453 -0.00010427445 -0.034077518 0.0065595726 -0.013857285 -0.011580958
0.02264771 -0.0251349 0.004581861 -0.001792991 -0.012143392 0.0025897105 -0.011089872 -0.0029805014
0.006663993 -0.01886121 -0.00022867954 -0.001919252 -0.0031151907 0.0140698105 -0.010671952 -0.0131568
0.015791569 0.017869549 -0.031783964 0.0021138869 -0.019937655 0.0060870703 0.008618553 0.0073837554
-0.00020716018 0.0068495334 -0.035797387 -0.011701096 0.0024250417 0.014305882 -0.006681935 -3.5413814e-07
-0.008921246 -0.006140988 -0.01990576 -0.0065918555 -0.016656222 0.046832763 -0.029943649 -0.009821144
0.010522265 -0.006161754 0.0027598226 -0.0021259813 0.012764494 0.039426778 0.008711751 0.0027709168
-0.0125771165 0.0010510111 -0.02172688 0.030219007 -0.01734818 0.01227145 -0.008654887 -0.029762456
-0.018492898 0.0028424894 0.014137663 -0.0010499402 0.0037772157 0.005050291 -0.002557732 0.030262856
-0.008756768 -0.02083932 0.014225211 -0.027454762 -0.027419 -0.012762086 0.008556496 -0.008011537
-0.012851225 -0.0035522876 -0.014912807 0.0029597932 0.021319354 -0.029014999 -0.018460745 -0.05455203
-0.0012139297 0.005885992 -0.02838102 -5.5833872e-05 0.022709852 -0.000811607 0.013115629 0.0071580103
0.008063032 -0.007415825 -0.0127424 -0.011432552 0.0032486632 0.013831186 -0.0037682066 -0.0054914737
0.00964711 -0.0044654077 0.018055178 0.020643009 -0.0010673144 0.015224303 -0.006303555 -0.022513548
-0.01091297 -0.0050532273 -0.037074063 0.02306636 -0.0022647043 -0.012441936 0.0014427822 0.011092798
-0.02573863 0.009408797 0.015825074 0.010169313 0.033469856 0.005166661 0.010801331 0.015428236
-0.009635758 -0.038900934 0.01594497 0.0041210954 0.028915647 0.0012443411 0.0050340137 0.010241827
-0.007337064 0.016435225 0.0052932664 0.013432987 0.0015018559 0.006390631 0.0011376491 0.0008231731
0.0025967965 0.01904903 -0.010346033 0.00020062982 0.020954933 -0.01948505 0.014022459 0.022944093
0.00022872975 -0.0060794293 0.0265852 0.00039072157 -0.0050054346 0.006947915 -0.005182109 -0.0009627825
-0.0052997437 -0.018776309 0.024413496 0.010379338 0.007926634 -0.017430851 0.007450098 -0.0008235001
-8.841451e-05 0.012736865 0.0029182239 0.025412876 -0.00033357367 -0.042293027 0.018793235 -0.027542893
-0.0031095438 0.006500109 0.006394085 0.00030173958 -0.028454613 -0.015824718 -0.0128074195 -0.006496743
0.0041175596 -0.00955787 0.030484702 -0.030681258 0.009347051 0.0052364846 -0.0074641374 0.024966402
0.008442572 0.0032576004 -0.012468311 -0.01993381 -0.0066896887 0.0032613068 -0.0011155092 -0.021774048
-0.013208626 0.015971808 0.00030526053 0.0026429472 0.042024024 0.020455156 -0.0056772935 -0.0074188747
0.0124531835 -0.0013604363 0.024689298 0.019689815 -0.015228896 0.015282074 0.002897393 0.04372062
0.00945191 -0.002667104 0.028471015 0.002619483 -0.020097548 -0.0034226633 0.02440465 -0.004344862
-0.020821903 0.023735646 -0.008491214 0.012802499 0.006263115 -0.02718922 -0.017144894 -0.0070650685
-0.019521018 0.021978214 -0.023294192 -0.030543951 -0.0023639584 -0.0016156458 0.004264608 0.0020052493
0.0077309846 -0.01632288 0.035205178 -0.020497397 0.005889893 -0.0055296323 -0.00069918705 0.01173793
0.026961857 -0.009157417 0.0059867804 -0.04237263 -0.025990846 0.001038265 -0.023718879 -0.011752703
00000000: 9a7c dabb 5d57 033d a69a c3bc ebad dab8
00000010: de94 0bbd aff1 d63b aa09 63bc 0fbe 3dbc
00000020: b187 b93c b5e7 cdbc 7023 963b cb02 ebba
00000030: 14f5 46bc 22b8 293b 4bb2 35bc 8454 43bb
00000040: a05d da3b d382 9abc b2c9 6fb9 698f fbba
00000050: 3a28 4cbb 1085 663c 69d9 2ebc 9e8f 57bc
00000060: 525d 813c 2963 923c e72f 02bd 2389 0a3b
00000070: 4b54 a3bc 0c76 c73b d534 0d3c 6ef3 f13b
00000080: 2339 59b9 0d72 e03b 48a0 12bd f4b5 3fbc
00000090: 73ed 1e3b 3863 6a3c 22f4 dabb 6020 beb4
000000a0: 6b2a 12bc 573a c9bb 6811 a3bc 7e00 d8bb
000000b0: a172 88bc b6d3 3f3d 624c f5bc dde8 20bc
000000c0: 9465 2c3c 8ae8 c9bb 24de 343b 0c54 0bbb
000000d0: 2b22 513c f97d 213d bbbb 0e3c 4598 353b
000000e0: 4010 4ebc 15c2 893a 92fc b1bc da8d f73c
000000f0: c51d 8ebc 310e 493c 3acd 0dbc 65d0 f3bc
00000100: 6b7e 97bc 0f49 3a3b a8a1 673c 269e 89ba
00000110: 2a8b 773b e97c a53b 9f9f 27bb cfe9 f73c
00000120: 8c78 0fbc 39b7 aabc dc10 693c cfe8 e0bc
00000130: d09d e0bc 1118 51bc 8c30 0c3c d242 03bc
00000140: f28d 52bc 7fcd 68bb d954 74bc 17f9 413b
00000150: eda5 ae3c ddb0 edbc fd3a 97bc f371 5fbd
00000160: b91c 9fba 48df c03b 507f e8bc 2a2f 6ab8
00000170: 030a ba3c 06c2 54ba efe2 563c be8d ea3b
00000180: cf1a 043c 7300 f3bb 80c5 50bc 994f 3bbc
00000190: 86e7 543b 339c 623c 04f4 76bb d2f1 b3bb
000001a0: e90e 1e3c 8e52 92bb 74e8 933c 871b a93c
000001b0: 21e5 8bba 5b6f 793c 0d8e cebb 556e b8bc
000001c0: 50cc 32bc 8b95 a5bb f9da 17bd aaf5 bc3c
000001d0: 6f6b 14bb 43d9 4bbc bd1b bd3a 91be 353c
000001e0: d2d9 d2bc 5b27 1a3c 96a3 813c 319d 263c
000001f0: b017 093d 184d a93b 11f8 303c b6c6 7c3c
00000200: 4cdf 1dbc 9656 1fbd 079f 823c 410a 873b
00000210: 82e0 ec3c 2919 a33a 5ef4 a43b 56cd 273c
00000220: c16b f0bb 2aa3 863c 2373 ad3b 0816 5c3c
00000230: ecd9 c43a 8068 d13b 2b1d 953a 36ca 573a
00000240: 042f 2a3b b60c 9c3c 6882 29bc 2860 5239
00000250: aea9 ab3c 1d9f 9fbc 75be 653c 40f5 bb3c
00000260: 2dd7 6f39 f335 c7bb 35c9 d93c c3d9 cc39
00000270: a104 a4bb 56ab e33b aece a9bb 3d63 7cba
00000280: 79a9 adbb c6d0 99bc d0fe c73c 190e 2a3c
00000290: b6de 013c 25cb 8ebc f41f f43b 28e0 57ba
000002a0: 2e6b b9b8 49ae 503c ac3f 3f3b aa2e d03c
000002b0: 80e3 aeb9 743b 2dbd 45f4 993c a2a1 e1bc
000002c0: 7dc9 4bbb defe d43b 7985 d13b cd32 9e39
000002d0: a619 e9bc d7a2 81bc 36d6 51bc a1e2 d4bb
000002e0: 98ec 863b 9d98 1cbc 0ebb f93c 4357 fbbc
000002f0: 6024 193c d196 ab3b b995 f4bb 5786 cc3c
00000300: b752 0a3c 777d 553b e347 4cbc 3b4c a3bc
00000310: 2d35 dbbb a6bb 553b 4736 92ba 7d5f b2bc
00000320: fe68 58bc 4fd7 823c 600b a039 4c35 2d3b
00000330: 6221 2c3d 9291 a73c 9708 babb 081a f3bb
00000340: 7008 4c3c ab50 b2ba 3641 ca3c 894c a13c
00000350: 9f82 79bc aa61 7a3c 30e2 3d3b 6514 333d
00000360: 2fdc 1a3c 94ca 2ebb 0c3c e93c a2ab 2b3b
00000370: 9da3 a4bc c34e 60bb 43ec c73c 585f 8ebb
00000380: b292 aabc 4271 c23c bc1e 0bbc 93c1 513c
00000390: d13a cd3b edbb debc 7373 8cbc 1782 e7bb
000003a0: 8bea 9fbc a80b b43c 76d3 bebc 4f37 fabc
000003b0: a4ec 1abb 14c4 d3ba 20be 8b3b 806a 033b
000003c0: 3354 fd3b 8fb7 85bc 4e33 103d 28ea a7bc
000003d0: 0100 c13b eb31 b5bb a649 37ba 7250 403c
000003e0: 1ddf dc3c fe08 16bc c12c c43b ec8e 2dbd
000003f0: c1ea d4bc 6416 883a 184e c2bc 698e 40bc

action_model._discrete_distribution.branches.1.bias f4 [2]
-0.015149099 0.015149094
00000000: ed33 78bc e833 783c

exp_avg f4 [128, 117]
-0.00053716043 -0.00037862343 -9.176927e-06 1.2839412e-05 -0.00012753603 -0.00043788267 -0.0004483655 -5.1252744e-07
-1.3548123e-05 -0.00019654137 -0.00057817425 -0.00040431612 -9.18201e-06 9.241891e-06 -9.838948e-05 -0.00041172752
-0.0005077301 -2.8146712e-07 4.1752446e-05 -0.00013097143 -0.00064084836 -0.0002914776 -9.856292e-06 -1.8666293e-07
-0.00016000557 -0.0006746286 -0.0001745716 8.768688e-25 2.5930744e-05 -0.00013132008 -0.0004999768 -0.00045522014
-1.0375957e-05 -2.4457895e-06 -0.000129688 -0.00069576653 -0.000101297934 -5.069725e-23 6.857624e-06 -0.00013741775
-0.0005274743 -0.00035964837 -1.02912745e-05 8.347095e-06 -0.00011532861 -0.00068758626 -0.00013832016 -2.8904242e-22
-1.9457013e-05 -0.0001437504 -0.000573628 -0.00032139538 -1.0459863e-05 8.755164e-06 -0.000115048984 -0.0005026015
-0.00024236391 6.638798e-22 -1.9093357e-05 -0.00013676302 -0.00060793344 -0.00029319123 -1.080513e-05 5.8253045e-06
-0.00011223476 -0.00068494736 -8.405318e-05 9.314115e-22 -1.6554706e-05 -0.00014145522 -0.0007215652 -5.893694e-05
-1.6722536e-06 5.2934593e-06 -0.000102124075 -0.0005418841 -0.00023044524 3.3735896e-16 -9.827826e-06 -0.00017976339
-0.00070896634 -6.649183e-05 -2.1400442e-06 7.050047e-06 -7.559651e-05 -0.0004953643 -0.00029854802 5.0622793e-07
-1.3327234e-05 -0.00019038713 -0.0006903062 -8.733233e-05 -4.8800973e-07 4.5224177e-05 -4.782702e-05 -0.0005010004
-0.00028806523 5.4609797e-07 -1.6807686e-05 -0.00020229067 -0.00046354102 -0.00027274684 1.6195386e-09 1.1381251e-05
-0.00010245534 -0.014823373 -4.0089737e-05 0.022244157 -0.029216595 0.010593964 -0.18722653 -0.02720268
-0.013075957 -0.040738415 0.010587474 -0.17482266 -0.021606458 6.4243286e-06 -4.256746e-06 -9.0377165e-07
-1.5781568e-06 -9.129733e-07 -1.1246282e-06 -8.831669e-06 3.1882175e-07 7.6856423e-07 2.9111045e-06 -9.1925835e-07
-3.027207e-06 -1.2374732e-06 3.7189257e-06 4.086265e-06 7.817926e-06 -7.1331488e-06 1.7017045e-07 4.3167464e-07
2.7797745e-07 6.6826765e-06 -4.816154e-06 -9.580878e-07 1.2927915e-06 1.399755e-06 -1.8983683e-05 9.8442915e-06
-5.3758085e-25 4.5343218e-06 3.1168515e-06 1.2386377e-05 -6.630508e-06 -8.7999325e-07 -9.629467e-07 -8.367604e-07
-1.3840632e-05 7.0998376e-06 -1.0187867e-23 -2.6877042e-06 -2.2244694e-06 1.3352506e-05 -1.1516982e-05 -9.732308e-07
6.202883e-07 6.40865e-07 -1.48115e-05 9.242599e-06 -1.9049028e-23 -3.9295405e-06 -3.494806e-06 1.3568605e-05
-8.22874e-06 -1.0169814e-06 -3.1159325e-06 -2.8483803e-06 -2.4314356e-06 3.5772653e-06 -6.1230557e-23 -5.9450276e-06
-5.412727e-06 6.037213e-06 -2.5664945e-06 -1.2035895e-06 -2.039832e-06 -2.1647484e-06 -5.6049654e-08 -1.1111541e-06
-1.0879712e-22 -4.1034637e-06 -3.6206884e-06 -4.7382005e-06 -9.1156716e-07 -1.0432636e-06 1.0016619e-06 3.4649509e-07
6.074151e-07 -4.661172e-06 -3.0304843e-16 -4.7614462e-06 -4.7394647e-06 3.997515e-06 -7.8530314e-07 -1.0630587e-06
7.9840123e-07 5.335674e-07 7.2303333e-06 -7.4645804e-06 -8.737065e-09 -6.9937514e-06 -7.1395066e-06 -4.0024213e-07
2.4819792e-06 -1.2247883e-06 2.6872868e-07 2.986077e-07 4.930581e-06 -5.3756903e-06 -2.1117588e-08 -6.1278015e-06
-6.931126e-06 -9.3001495e-07 -1.0210441e-06 -1.2755405e-06 4.364847e-06 3.576271e-06 0.00014981325 3.6613586e-05
0.0002883729 0.0016204607 0.00015637065 2.6601801e-05 0.00029645747 3.784476e-05 0.001785417 0.00011801275
0.00036243795 0.00044146524 3.1727345e-06 -7.4515054e-05 -2.9330988e-06 -5.3774438e-05 -0.00011630938 3.1682628e-06
-0.00013284014 2.623387e-06 -4.5698296e-05 -6.6157096e-05 -1.2367299e-05 -7.5138537e-06 -4.8705783e-06 -5.638461e-05
-0.00010771891 -0.00012859791 -3.7189653e-05 1.4957257e-06 -2.1273605e-05 -5.4889202e-05 -1.555847e-05 -5.2073177e-05
00000000: 3ad0 0cba fa81 c6b9 9af6 19b7 db68 5737
00000010: 31bb 05b9 9e93 e5b9 9912 ebb9 9e94 09b5
00000020: bf4c 63b7 ac16 4eb9 9e90 17ba 64fa d3b9
00000030: 6f0c 1ab7 9f0d 1b37 7356 ceb8 22dd d7b9
00000040: 3119 05ba 8c1c 97b4 591f 2f38 6055 09b9
00000050: 9bfe 27ba 76d1 98b9 745c 25b7 846d 48b4
00000060: 2bc7 27b9 8fd9 30ba 350d 37b9 5ab0 8717
00000070: d985 d937 f7b2 09b9 e010 03ba 9daa eeb9
00000080: 6514 2eb7 5822 24b6 dbfc 07b9 1a64 36ba
00000090: ea6f d4b8 2828 759a 8b1a e636 cc17 10b9
000000a0: 3346 0aba 308f bcb9 b0a8 2cb7 800a 0c37
000000b0: 93dc f1b8 223f 34ba 090a 11b9 26b7 ae9b
000000c0: 9e37 a3b7 b4bb 16b9 865f 16ba f580 a8b9
000000d0: c57c 2fb7 25e3 1237 7446 f1b8 04c1 03ba
000000e0: 1123 7eb9 36a5 481c ac2a a0b7 0b68 0fb9
000000f0: b95d 1fba 76b7 99b9 ae47 35b7 fc76 c336
00000100: 945f ebb8 0a8e 33ba b545 b0b8 3dc0 8c1c
00000110: f6de 8ab7 9953 14b9 6c27 3dba 0f33 77b8
00000120: 3272 e0b5 789e b136 722b d6b8 3a0d 0eba
00000130: aca3 71b9 6579 c225 31e2 24b7 de7e 3cb9
00000140: edd9 39ba 8871 8bb8 ae9d 0fb6 718f ec36
00000150: 9189 9eb8 56db 01ba 7086 9cb9 b8e3 0735
00000160: 0998 5fb7 a8a2 47b9 aaf5 34ba 3026 b7b8
00000170: c6ff 02b5 17af 3d38 df99 48b8 9155 03ba
00000180: 7607 97b9 9197 1235 3bfe 8cb7 fd1d 54b9
00000190: 6c07 f3b9 76ff 8eb9 7396 de30 1af2 3e37
000001a0: 4bdd d6b8 bcdd 72bc 0726 28b8 6139 b63c
000001b0: a457 efbc 4e92 2d3c 50b8 3fbe 28d8 debc
000001c0: 8a3c 56bc 53dd 26bd 1677 2d3c b604 33be
000001d0: 0700 b1bc 9090 d736 2bd5 8eb6 b79a 72b5
000001e0: 0ed1 d3b5 0c13 75b5 eef1 96b5 bb2b 14b7
000001f0: 872a ab34 554f 4e35 655c 4336 f4c2 76b5
00000200: 0527 4bb6 4117 a6b5 a892 7936 c01c 8936
00000210: bd29 0337 4859 efb6 19b8 3634 e9c0 e734
00000220: ee3c 9534 c13b e036 739a a1b6 a597 80b5
00000230: fa83 ad35 37df bb35 263f 9fb7 e928 2537
00000240: 8b5f 2697 8725 9836 1a2b 5136 16cf 4f37
00000250: a17b deb6 ad38 6cb5 993e 81b5 bd9d 60b5
00000260: 1035 68b7 243b ee36 e00f 4599 685e 34b6
00000270: 1848 15b6 9404 6037 1039 41b7 f59f 82b5
00000280: e381 2635 e807 2c35 e87e 78b7 a910 1b37
00000290: 1c3b b899 7fda 83b6 4f88 6ab6 b7a4 6337
000002a0: 2b0e 0ab7 377f 88b5 501b 51b6 cd26 3fb6
000002b0: bf2b 23b6 f310 7036 e10b 949a 667b c7b6
000002c0: f99e b5b6 4493 ca36 0a3c 2cb6 058b a1b5
000002d0: 0ce4 08b6 1846 11b6 3fbb 70b3 f722 95b5
000002e0: 1487 039b 7cb0 89b6 f4fa 72b6 d5fc 9eb6
000002f0: 6bb2 74b5 4406 8cb5 d770 8635 ec05 ba34
00000300: 3f0d 2335 2a67 9cb6 0eb2 aea5 83c4 9fb6
00000310: b107 9fb6 6422 8636 9fcd 52b5 6bae 8eb5
00000320: b751 5635 793a 0f35 179c f236 4278 fab6
00000330: 051a 16b2 deab eab6 e58f efb6 dce0 d6b4
00000340: 1490 2636 6863 a4b5 ca45 9034 5450 a034
00000350: 5e71 a536 d460 b4b6 1166 b5b2 6a9d cdb6
00000360: eb91 e8b6 24a6 79b5 cf0a 89b5 3d33 abb5
00000370: c075 9236 deff 6f36 3017 1d39 8a91 1938
00000380: c130 9739 a365 d43a 6df7 2339 ef26 df37
00000390: d96d 9b39 80bb 1e38 a704 ea3a 9d7d f738
000003a0: 9905 be39 7674 e739 2aeb 5436 f744 9cb8
000003b0: 41d6 44b6 dd8b 61b8 1feb f3b8 579e 5436
000003c0: 014b 0bb9 720d 3036 2cac 3fb8 d2bd 8ab8
000003d0: 257d 4fb7 831f fcb6 f36d a3b6 847e 6cb8
000003e0: 26e7 e1b8 3dd8 06b9 16fc 1bb8 bec0 c835
000003f0: b874 b2b7 d538 66b8 8f83 82b7 2669 5ab8
