results/ppo2/AI Car/AI Car-29998552.onnx (onnx, 277974 bytes, 11 tensors)

network_body.observation_encoder.processors.0.normalizer.running_mean f4 [312]
0	0x3dcebc2e	0.10094486
1	0x3c7e3d9e	0.01551762
2	0x00000000	0.0
3	0x00000000	0.0
4	0x3f612ffd	0.8796385
5	0x3f674dc2	0.90353024
6	0x3ddc314d	0.10751591
7	0x3c715895	0.014730592
8	0x00000000	0.0
9	0x00000000	0.0
10	0x3f5fb501	0.87385565
11	0x3f676231	0.90384203
12	0x3e156e03	0.14592747
13	0x3c77f2a7	0.015133536
14	0x00000000	0.0
15	0x00000000	0.0
16	0x3f55c51d	0.83503896
17	0x3f607393	0.8767635
18	0x3e828e8a	0.25499374
19	0x3c4546fc	0.01204085
20	0x00000000	0.0
21	0x00000000	0.0
22	0x3f3aa41d	0.72906667
23	0x3f53cf40	0.82738113
24	0x3ea71dda	0.32639962
25	0x3c596699	0.01326909
26	0x00000000	0.0
27	0x00000000	0.0
28	0x3f280bf5	0.65643245
29	0x3f475968	0.778708
30	0x3f23e1a3	0.6401617
31	0x3c050359	0.008118474
32	0x00000000	0.0
33	0x00000000	0.0
34	0x3eb21589	0.34782055
35	0x3f1848f1	0.594863
36	0x3f385151	0.7199908
37	0x3c1521fc	0.009102341
38	0x00000000	0.0
39	0x00000000	0.0
40	0x3e88b52b	0.2670072
41	0x3f0cbbe5	0.54974204
42	0x3f635f2c	0.88817096
43	0x3bbb2580	0.0057112575
44	0x00000000	0.0
45	0x00000000	0.0
46	0x3dd15723	0.10221698
47	0x3ee811d0	0.4532609
48	0x3f6ec76d	0.9327305
49	0x3ba7c44c	0.005119836
50	0x00000000	0.0
51	0x00000000	0.0
52	0x3d6e98cd	0.05825119
53	0x3edbaee2	0.42906862
54	0x3f663a0b	0.89932317
55	0x3d08d747	0.03340843
56	0x00000000	0.0
57	0x00000000	0.0
58	0x3d81c7e1	0.06336952
59	0x3ee07392	0.43838173
60	0x3f617af2	0.88078225
61	0x3cec8c26	0.028875422
62	0x00000000	0.0
63	0x00000000	0.0
64	0x3db10876	0.08644192
65	0x3ee730d5	0.45154443
66	0x3e7233c2	0.23652557
67	0x3e793e51	0.24340178
68	0x00000000	0.0
69	0x00000000	0.0
70	0x3f042404	0.51617455
71	0x3f2c60a9	0.6733499
72	0x3e628ddb	0.22124426
73	0x3e730ef1	0.23736168
74	0x00000000	0.0
75	0x00000000	0.0
76	0x3f09993a	0.5374943
77	0x3f2fb3c4	0.68633676
78	0x3dcf02d3	0.101079606
79	0x3c7e4fd5	0.015521963
80	0x00000000	0.0
81	0x00000000	0.0
82	0x3f617be6	0.8807968
83	0x3f679b6b	0.90471524
84	0x3ddc7691	0.10764802
85	0x3c716a3f	0.014734804
86	0x00000000	0.0
87	0x00000000	0.0
88	0x3f60012c	0.8750179
89	0x3f67b099	0.9050384
90	0x3e159fad	0.14611693
91	0x3c780435	0.015137722
92	0x00000000	0.0
93	0x00000000	0.0
94	0x3f560db5	0.83614665
95	0x3f60bf0c	0.87791514
96	0x3e82ba36	0.25532693
97	0x3c455871	0.012045012
98	0x00000000	0.0
99	0x00000000	0.0
100	0x3f3ae30d	0.730027
101	0x3f5416bd	0.82847196
102	0x3ea75781	0.32683948
103	0x3c597539	0.013272577
104	0x00000000	0.0
105	0x00000000	0.0
106	0x3f28442e	0.65729034
107	0x3f479c0e	0.77972496
108	0x3f2417d4	0.6409886
109	0x3c05163b	0.008122976
110	0x00000000	0.0
111	0x00000000	0.0
112	0x3eb252bf	0.34828755
113	0x3f187ca4	0.59565187
114	0x3f388eaa	0.7209269
115	0x3c152ec8	0.009105392
116	0x00000000	0.0
117	0x00000000	0.0
118	0x3e88e468	0.2673676
119	0x3f0ceb24	0.55046296
120	0x3f63aaab	0.88932294
121	0x3bbb39e1	0.005713687
122	0x00000000	0.0
123	0x00000000	0.0
124	0x3dd1a43d	0.10236404
125	0x3ee860b1	0.4538627
126	0x3f6f15b0	0.9339247
127	0x3ba7d379	0.005121645
128	0x00000000	0.0
129	0x00000000	0.0
130	0x3d6f06bc	0.05835603
131	0x3edbf99c	0.42963874
132	0x3f6685e4	0.9004805
133	0x3d091ce8	0.033474833
134	0x00000000	0.0
135	0x00000000	0.0
136	0x3d81efc4	0.0634456
137	0x3ee0bde4	0.43894875
138	0x3f61c58c	0.8819206
139	0x3cecea62	0.028920356
140	0x00000000	0.0
141	0x00000000	0.0
142	0x3db14649	0.08655984
143	0x3ee77dce	0.4521317
144	0x3e727df1	0.23680855
145	0x3e7995bb	0.24373524
146	0x00000000	0.0
147	0x00000000	0.0
148	0x3f0450c8	0.5168576
149	0x3f2c99e4	0.6742232
150	0x3e62cfe5	0.22149618
151	0x3e73674c	0.23769873
152	0x00000000	0.0
153	0x00000000	0.0
154	0x3f09c7f7	0.5382075
155	0x3f2fee19	0.68722683
156	0x3dcf48c2	0.10121299
157	0x3c7e63e9	0.01552675
158	0x00000000	0.0
159	0x00000000	0.0
160	0x3f61c821	0.88196
161	0x3f67e946	0.9059032
162	0x3ddcbcee	0.10778223
163	0x3c717c4a	0.0147391055
164	0x00000000	0.0
165	0x00000000	0.0
166	0x3f604d3c	0.8761785
167	0x3f67fed1	0.90623194
168	0x3e15d109	0.14630522
169	0x3c78175d	0.015142289
170	0x00000000	0.0
171	0x00000000	0.0
172	0x3f56561d	0.8372515
173	0x3f610a92	0.87906754
174	0x3e82e5df	0.25566003
175	0x3c456ad6	0.012049397
176	0x00000000	0.0
177	0x00000000	0.0
178	0x3f3b2224	0.7309897
179	0x3f545e50	0.8295641
180	0x3ea79115	0.32727876
181	0x3c59851c	0.013276365
182	0x00000000	0.0
183	0x00000000	0.0
184	0x3f287c1a	0.65814364
185	0x3f47ded9	0.78074414
186	0x3f244e0f	0.6418161
187	0x3c0527af	0.008127137
188	0x00000000	0.0
189	0x00000000	0.0
190	0x3eb28fec	0.3487543
191	0x3f18b077	0.59644264
192	0x3f38cbf1	0.7218619
193	0x3c153b7c	0.00910842
194	0x00000000	0.0
195	0x00000000	0.0
196	0x3e8913d3	0.26772937
197	0x3f0d1a8e	0.55118644
198	0x3f63f61b	0.890474
199	0x3bbb4c48	0.0057158805
200	0x00000000	0.0
201	0x00000000	0.0
202	0x3dd1f009	0.10250861
203	0x3ee8af81	0.454464
204	0x3f6f63db	0.9351174
205	0x3ba7e1c3	0.0051233484
206	0x00000000	0.0
207	0x00000000	0.0
208	0x3d6f7395	0.058459837
209	0x3edc445d	0.43020907
210	0x3f66d1de	0.9016398
211	0x3d09605b	0.033539157
212	0x00000000	0.0
213	0x00000000	0.0
214	0x3d8217e9	0.06352217
215	0x3ee10875	0.43951765
216	0x3f621017	0.883058
217	0x3ced4459	0.028963255
218	0x00000000	0.0
219	0x00000000	0.0
220	0x3db1853c	0.086679906
221	0x3ee7cb2b	0.45272192
222	0x3e72c7dc	0.23709053
223	0x3e79ed3e	0.24406907
224	0x00000000	0.0
225	0x00000000	0.0
226	0x3f047d6c	0.5175388
227	0x3f2cd30f	0.6750955
228	0x3e631159	0.22174586
229	0x3e73bfe5	0.2380367
230	0x00000000	0.0
231	0x00000000	0.0
232	0x3f09f686	0.5389179
233	0x3f30288d	0.68811876
234	0x3dcf8cc4	0.10134271
235	0x3c7e7b3c	0.015532311
236	0x00000000	0.0
237	0x00000000	0.0
238	0x3f621474	0.8831246
239	0x3f683745	0.90709335
240	0x3ddd00cd	0.10791168
241	0x3c7193db	0.014744724
242	0x00000000	0.0
243	0x00000000	0.0
244	0x3f609987	0.87734264
245	0x3f684d30	0.9074278
246	0x3e1601fb	0.14649193
247	0x3c782ec7	0.015147871
248	0x00000000	0.0
249	0x00000000	0.0
250	0x3f569ece	0.83836067
251	0x3f615606	0.88021886
252	0x3e8311a5	0.255994
253	0x3c458101	0.012054683
254	0x00000000	0.0
255	0x00000000	0.0

network_body.observation_encoder.processors.1.normalizer.running_mean f4 [88]
0	0x420124ee	32.286064
1	0x43a85193	336.6373
2	0x43804637	256.54855
3	0x4258cf75	54.202595
4	0x43a84265	336.5187
5	0x4382e31e	261.77435
6	0x3d29cbb7	0.041454043
7	0x3f184333	0.5947754
8	0xbd2c97b5	-0.042136867
9	0x3f29a0db	0.6626107
10	0x420a0941	34.509037
11	0x00000000	0.0
12	0x00000000	0.0
13	0x40f44384	7.6332417
14	0x42c801ef	100.00378
15	0x43a86a67	336.83127
16	0x437c57b8	252.34265
17	0x42bc79c1	94.2378
18	0x3f26a90f	0.6510171
19	0xbe0526fd	-0.13003154
20	0x3cea76f2	0.02862117
21	0x3f685f39	0.907703
22	0x42004ba3	32.073864
23	0x43a8890c	337.07068
24	0x43805b11	256.71146
25	0x4258078e	54.007378
26	0x43a879dd	336.95206
27	0x4382fa71	261.95657
28	0x3d2a131e	0.041522138
29	0x3f1861b4	0.59524083
30	0xbd2cbb3e	-0.042170756
31	0x3f29e571	0.66365725
32	0x420a3510	34.55182
33	0x00000000	0.0
34	0x00000000	0.0
35	0x40f47690	7.639473
36	0x42c7c162	99.8777
37	0x43a8a210	337.2661
38	0x437c8f6b	252.56023
39	0x42bcb886	94.3604
40	0x3f26cb18	0.65153646
41	0xbe055400	-0.13020325
42	0x3cef1c9d	0.029188449
43	0x3f68afe9	0.9089342
44	0x41fee3e0	31.861267
45	0x43a8c079	337.5037
46	0x43806fb6	256.87274
47	0x42573fc7	53.812283
48	0x43a8b147	337.38498
49	0x438311cb	262.139
50	0x3d2a5ab2	0.0415904
51	0x3f188018	0.59570456
52	0xbd2cdefe	-0.04220485
53	0x3f2a29fe	0.66470325
54	0x420a617a	34.595192
55	0x00000000	0.0
56	0x00000000	0.0
57	0x40f4a9a4	7.645708
58	0x42c78098	99.75116
59	0x43a8d9de	337.7021
60	0x437cc644	252.77448
61	0x42bcf741	94.48292
62	0x3f26ed0c	0.65205455
63	0xbe0580d7	-0.1303743
64	0x3cf3c3ca	0.029756445
65	0x3f6900da	0.91016924
66	0x41fd3158	31.649094
67	0x43a8f8eb	337.94467
68	0x4380846e	257.0346
69	0x42567704	53.616226
70	0x43a8e99e	337.82513
71	0x4383292c	262.32166
72	0x3d2aa227	0.041658547
73	0x3f189e53	0.59616584
74	0xbd2d02a0	-0.04223883
75	0x3f2a6ed8	0.66575384
76	0x420a8d7a	34.63816
77	0x00000000	0.0
78	0x00000000	0.0
79	0x40f4dcfe	7.6519766
80	0x42c73fd3	99.62466
81	0x43a91154	338.13538
82	0x437cfd5b	252.98967
83	0x42bd35ef	94.60534
84	0x3f270f16	0.65257394
85	0xbe05adc6	-0.1305457
86	0x3cf86b0d	0.030324483
87	0x3f695186	0.9114002

network_body._body_endoder.seq_layers.0.weight f4 [128, 400]
0	0x3d3b573c	0.04573749
1	0xbee31fdf	-0.44360253
2	0x3dbfe66a	0.0937012
3	0x3bac3da7	0.005256373
4	0x3d898ae1	0.06715942
5	0x3e1ba9b0	0.1520145
6	0x3d1540a0	0.036438584
7	0xbe322991	-0.17398669
8	0x3db64562	0.088999525
9	0x3d1f5424	0.038898602
10	0x3e353fce	0.17700121
11	0xbd37bc30	-0.044857204
12	0xbd957807	-0.07298284
13	0xbe8689a9	-0.262769
14	0x3d072950	0.032998383
15	0x3d3c9083	0.046036255
16	0x3dc1cbcd	0.094627
17	0x3d1bff56	0.038085304
18	0xbe7d554c	-0.2473957
19	0xbe5aabce	-0.21354601
20	0xbd39fd6b	-0.045407694
21	0x3db305cc	0.0874134
22	0x3e86d591	0.26334813
23	0x3e1e3c11	0.15452601
24	0xbe3a17bf	-0.18173121
25	0xbea56c23	-0.32309064
26	0x3da3143f	0.07962846
27	0xbca96a32	-0.02068052
28	0x3e86593d	0.26239958
29	0x3d8fb734	0.07017365
30	0x3e1c3e01	0.15258028
31	0x3e92ea59	0.28694418
32	0xbdcaa79f	-0.098952524
33	0xbcf5ced8	-0.030005857
34	0xbc6b65d9	-0.014367544
35	0x3d0cb907	0.034356143
36	0x3cb79380	0.0224092
37	0xbe269a89	-0.16269888
38	0x3de3d6a8	0.11124927
39	0xbd28061c	-0.04102145
40	0x3c8d9876	0.017284613
41	0xbe085903	-0.13315205
42	0xbdbd535e	-0.09244417
43	0x3f061d39	0.5238834
44	0x3d0be071	0.03414959
45	0x3d0cb30b	0.034350436
46	0x3d47590a	0.0486689
47	0x3e46032b	0.19337146
48	0x3e14496d	0.14481135
49	0xbd3ce39a	-0.046115495
50	0xbca84733	-0.020541763
51	0xbd0669da	-0.03281579
52	0xbd8fe333	-0.07025757
53	0xbe0ac9f5	-0.13553603
54	0x3e04c337	0.12965094
55	0x3e6c6a71	0.23087479
56	0x3cbfb4a0	0.023401558
57	0x3cc221d9	0.02369778
58	0xbe2c567f	-0.1682987
59	0x3df4f769	0.11961252
60	0xbdf0632d	-0.11737666
61	0xbee146f9	-0.4399946
62	0x3d0b56c4	0.034018293
63	0x3cad361b	0.021143964
64	0x3e53a8b3	0.20669822
65	0x3e241c03	0.1602631
66	0xbdc332ae	-0.09531151
67	0x3d56aa94	0.05240877
68	0x3cb3b228	0.021935537
69	0x3dee7710	0.11643803
70	0x3c86827c	0.016419642
71	0x3d23a354	0.039950684
72	0xbd4a13da	-0.04933534
73	0xbd5bcc1c	-0.05366145
74	0x3cad4c52	0.021154556
75	0x3dbee514	0.09321037
76	0x3d2cb67a	0.04216621
77	0x3d109ee5	0.035307784
78	0x3c0aa966	0.008463239
79	0xbe713804	-0.23556525
80	0xbd22d98f	-0.03975826
81	0x3c348dd5	0.0110201435
82	0x3d790efd	0.06080531
83	0x3d3ec303	0.046572696
84	0x3d9feff3	0.078094386
85	0xbd6bf4f6	-0.05760666
86	0x3c08bd6d	0.008345944
87	0xbd6f54d5	-0.05843051
88	0xbb9de745	-0.0048188292
89	0x3c0ac398	0.008469485
90	0xbd55eb54	-0.05222638
91	0xbd16e93f	-0.036843535
92	0xbd0c2fb3	-0.034225177
93	0xbd8cc82b	-0.068741165
94	0x3e3c05d0	0.18361592
95	0xbc181ad8	-0.009283744
96	0xbd7eb746	-0.062186502
97	0xbdba734f	-0.091040246
98	0xbd0a369a	-0.03374348
99	0x3c9c3963	0.019070333
100	0x3d73f322	0.05955804
101	0x3d9104eb	0.07081016
102	0x3e530c54	0.20610172
103	0x3e24cffa	0.16094962
104	0x3cf40eb3	0.029792165
105	0x3c97b43b	0.018518558
106	0xbde7b62f	-0.11314046
107	0xbe3d7174	-0.1850031
108	0xbda97067	-0.08273392
109	0x3e84b77c	0.25921237
110	0x3d54c247	0.05194309
111	0x3c2175cb	0.009854744
112	0xbd1708ad	-0.03687351
113	0x3e122b34	0.14274293
114	0x3d7578da	0.059929706
115	0x3b94ffda	0.0045471014
116	0xbdfbfaaf	-0.123036735
117	0xbd598acd	-0.053110886
118	0x3cd9a904	0.02656985
119	0xbe7ff4f3	-0.24995784
120	0xbd8d0f6b	-0.06887706
121	0x3e4e6f42	0.20159629
122	0x3d8bb0c6	0.06820826
123	0x3d6581a0	0.056031823
124	0x3e125ea3	0.14293914
125	0x3e8c4d5c	0.2740277
126	0xbe049d63	-0.12950663
127	0x3e4c06c6	0.19924459
128	0xbdeadb3d	-0.11467598
129	0x3d87961f	0.0662043
130	0x3e68d4ee	0.22737476
131	0x3dd0c58b	0.10193928
132	0xbd910cae	-0.070824966
133	0x3edb4626	0.42826957
134	0xbcbd2403	-0.02308846
135	0xba3f38b9	-0.0007294524
136	0xbea6ac48	-0.32553315
137	0x3c4747f6	0.012163153
138	0x3d381d8f	0.044950064
139	0x3c5b0a90	0.0133692175
140	0xbbf7d59d	-0.0075633065
141	0xbd081324	-0.03322138
142	0xbdd5677b	-0.10420128
143	0xbda44ce3	-0.080224775
144	0x3cdd756b	0.027033528
145	0x3eaf75c4	0.34269536
146	0x3c3a3058	0.011364065
147	0xbd0c7d76	-0.034299336
148	0xbe30afed	-0.1725461
149	0xbdb82cdb	-0.089929305
150	0x3dcd1932	0.10014571
151	0x3e26e959	0.16299953
152	0xbd730aa7	-0.05933633
153	0xbc3399eb	-0.01096199
154	0xbe1d3969	-0.15353931
155	0xbdf205b9	-0.11817498
156	0x3daa454f	0.08314001
157	0xbe3aa24a	-0.18225971
158	0xbd917369	-0.07102091
159	0xbc5eca63	-0.013598057
160	0x3e6f901a	0.23394814
161	0x3d9cf564	0.07663992
162	0x3add6b2a	0.0016892899
163	0xbec69317	-0.38784096
164	0x3c4a6f1f	0.012355595
165	0xbccc72bd	-0.024957055
166	0xbc0d5c14	-0.00862791
167	0x3b4b3840	0.003100887
168	0xbcd66b57	-0.02617423
169	0xbe905999	-0.28193358
170	0x3d3982c2	0.045290716
171	0xbd99ef37	-0.0751633
172	0x3e0c3d7b	0.13695328
173	0x3e01e774	0.12685949
174	0x3c9752dc	0.018472128
175	0xbe307746	-0.17232999
176	0xbd19b732	-0.037528224
177	0xbb81328d	-0.0039427937
178	0xbd6807cb	-0.056648057
179	0xbda14c10	-0.07875836
180	0x3d38cebd	0.045119036
181	0xbddaa685	-0.10676292
182	0x3d76f392	0.06029088
183	0xbd4ecd90	-0.05048901
184	0x3d7e3a23	0.062067162
185	0xbd9f004c	-0.077637285
186	0xbdf82723	-0.1211684
187	0x3cb6e1ac	0.022324406
188	0xbd56d8c8	-0.052452832
189	0xbc9aa0c3	-0.018875485
190	0xbd9018c7	-0.07035976
191	0xbdb27e54	-0.087155014
192	0xbdd9b420	-0.10630059
193	0xbda2066a	-0.0791138
194	0xbd6ab203	-0.05729867
195	0x3c0b0bb3	0.008486676
196	0x3dfe3f42	0.12414409
197	0x3de821f5	0.11334602
198	0xbea6e627	-0.32597467
199	0x3e37ff1f	0.17968415
200	0xbc7e4932	-0.015520381
201	0xbbf5d098	-0.007501673
202	0x3ea7e3d2	0.32791
203	0x3e842a7a	0.25813657
204	0x3d49912d	0.049210716
205	0xbe874776	-0.26421708
206	0xbd056277	-0.032564607
207	0xbce71777	-0.028209431
208	0xbd07e8e4	-0.033181086
209	0xbe3b4c29	-0.18290772
210	0xbe510fcd	-0.20416184
211	0x3d6eee4b	0.058332723
212	0xbd017995	-0.03161009
213	0xbc296cfb	-0.010340924
214	0x3d9fd158	0.07803601
215	0x3d9ba106	0.07599072
216	0xbd987fcb	-0.074462496
217	0xbd86740f	-0.06565105
218	0xbbdd6928	-0.0067569204
219	0xbd493a33	-0.04912777
220	0x3e6c756c	0.23091668
221	0xbaf36252	-0.001856873
222	0xbcfbba0d	-0.030728364
223	0x3e84bc8f	0.2592511
224	0x3cfcb44b	0.03084769
225	0x3b295107	0.002583565
226	0xbd95ba5a	-0.07310934
227	0xbd8c79e1	-0.06859184
228	0xbdfcdc07	-0.123466544
229	0xbc28132a	-0.010258475
230	0xbd0d5bd7	-0.034511413
231	0xbcdca7ab	-0.026935419
232	0x3dd4bd78	0.10387701
233	0x3de9ff13	0.11425605
234	0xbe44717c	-0.19183916
235	0xbea67dc8	-0.32517838
236	0x3d44a0ee	0.048005037
237	0xbc495f76	-0.012290826
238	0x3eb442a4	0.35207093
239	0x3ead0e5a	0.33800012
240	0x3cf24642	0.029574517
241	0xbd1a5a7c	-0.03768395
242	0xbcfcb472	-0.030847762
243	0xbce194ff	-0.027536867
244	0x3d1d1a73	0.038355302
245	0xbd203eef	-0.03912252
246	0x3c40733a	0.011746222
247	0xbd66f94d	-0.056390096
248	0x3c1a35e3	0.009412262
249	0xbcc6e427	-0.024278713
250	0x3e4a4642	0.19753364
251	0x3d6b5507	0.057454135
252	0x3e8b37ad	0.27190915
253	0xbdf2e8c8	-0.11860806
254	0x3cf599c2	0.029980544
255	0xbd9f430a	-0.077764586

network_body._body_endoder.seq_layers.0.bias f4 [128]
0	0xbe93454c	-0.28763807
1	0xbf0d3d18	-0.55171347
2	0xbea1336f	-0.31484553
3	0xbe4b771f	-0.1986966
4	0xbe5208ae	-0.20511124
5	0xbe95874c	-0.29204786
6	0xbf24d6d5	-0.6439031
7	0xbeaace14	-0.3336035
8	0xbeb8390a	-0.35981017
9	0xbde1b5ca	-0.11021002
10	0xbe9fde70	-0.31224394
11	0xbecd0478	-0.40042472
12	0xbe62109a	-0.22076645
13	0xbf049b65	-0.51799613
14	0xbf1aef9d	-0.6052187
15	0xbef974dd	-0.48721972
16	0xbebc1cc6	-0.36740702
17	0xbf022649	-0.5083967
18	0xbe67315b	-0.22577421
19	0xbf1ecfa7	-0.620356
20	0xbea590cf	-0.32337043
21	0xbe8ff431	-0.2811599
22	0xbe1922da	-0.14954701
23	0xbe767a01	-0.24069978
24	0xbf0a1811	-0.5394297
25	0xbd71a8ba	-0.0589988
26	0xbed493f0	-0.41519117
27	0xbf1718ce	-0.59022224
28	0xbef0d454	-0.47036994
29	0xbef3045c	-0.47464263
30	0xbedbf9c3	-0.4296399
31	0xbf1e3015	-0.6179212
32	0xbdcf0cab	-0.10109838
33	0xbe5a390e	-0.21310827
34	0xbe854020	-0.26025486
35	0xbebbc9fa	-0.36677533
36	0x3d9a0cb4	0.07521954
37	0xbe2f4a96	-0.17118296
38	0xbe9e9ac0	-0.3097744
39	0xbef99877	-0.48749134
40	0xbe931881	-0.28729632
41	0xbeb951e2	-0.36195284
42	0xbeaf765d	-0.34269992
43	0xbea6de1b	-0.32591328
44	0xbeae9785	-0.34099975
45	0xbebc424c	-0.3676933
46	0xbe6cc048	-0.23120224
47	0xbf0c5e0e	-0.54831016
48	0xbe9620d6	-0.29321927
49	0xbefe746f	-0.49698207
50	0xbe2a9ae4	-0.16660649
51	0xbe138511	-0.1440623
52	0xbe9a15ae	-0.30094665
53	0xbf5b843c	-0.8574865
54	0xbe96465e	-0.2935056
55	0xbec7968d	-0.3898205
56	0xbea9cdaf	-0.33164737
57	0xbe9b228c	-0.30299795
58	0xbe6683f6	-0.22511277
59	0xbea36390	-0.31911898
60	0xbde05f19	-0.109556384
61	0xbef8b986	-0.48579043
62	0xbe503d0f	-0.20335792
63	0xbed0b32a	-0.4076169
64	0xbe8f7ee2	-0.2802649
65	0xbea6ae82	-0.32555014
66	0xbe073f4c	-0.1320774
67	0xbeb42d5a	-0.3519085
68	0xbec830fa	-0.39099866
69	0xbed9bed4	-0.42528403
70	0xbea5549c	-0.32291114
71	0xbe9a0d39	-0.30088213
72	0xbeaa859e	-0.33305067
73	0xbe8ba64e	-0.27275318
74	0xbd09cca5	-0.03364243
75	0xbed51874	-0.4162022
76	0xbe7adca6	-0.24498233
77	0xbf25f827	-0.64831775
78	0xbd9787c9	-0.07398946
79	0xbe5299aa	-0.2056643
80	0xbe8d1440	-0.27554512
81	0xbf00e3f1	-0.5034781
82	0xbeeac1e8	-0.45851064
83	0xbe9c4065	-0.3051788
84	0xbea0b231	-0.3138595
85	0xbf05c10d	-0.522477
86	0xbefa26d9	-0.48857763
87	0xbf1ce8e8	-0.61292887
88	0xbef5f982	-0.48041922
89	0xbeb0c0fc	-0.34522235
90	0xbede66ae	-0.43437713
91	0xbe8cadca	-0.2747634
92	0xbe7d5324	-0.24738747
93	0xbefe0918	-0.49616313
94	0xbec9f579	-0.39445093
95	0xbeee5730	-0.46550894
96	0xbdaf7933	-0.08568039
97	0xbf119e61	-0.5688229
98	0xbe8cf24e	-0.27528614
99	0xbdfabf8f	-0.12243568
100	0xbeb23920	-0.34809208
101	0xbf1d56fa	-0.6146084
102	0xbec404a7	-0.382848
103	0xbed2302b	-0.41052374
104	0xbf01f1fe	-0.50759876
105	0xbedcc4e6	-0.43118972
106	0xbf00feb6	-0.5038866
107	0xbeadf120	-0.33973026
108	0xbe5b56bc	-0.21419805
109	0xbebf39a5	-0.37348667
110	0xbf117d9e	-0.568323
111	0xbe123cba	-0.14280978
112	0xbe3d6bf7	-0.18498217
113	0xbf04c180	-0.5185776
114	0xbf08b55a	-0.5340172
115	0xbe9cdae8	-0.30635762
116	0xbe1c20d2	-0.15246895
117	0xbeb8ffe1	-0.3613272
118	0xbe42f75c	-0.19039673
119	0xbe52a39a	-0.20570222
120	0xbee1b05d	-0.44079867
121	0xbecdb8fc	-0.40180194
122	0xbd56d3f2	-0.05244822
123	0xbefd40b7	-0.49463436
124	0xbef0e751	-0.4705148
125	0xbef5a790	-0.47979403
126	0xbebfe764	-0.37481225
127	0xbf086503	-0.5327913

network_body._body_endoder.seq_layers.2.weight f4 [128, 128]
0	0x3df16067	0.117859654
1	0xbe1ddace	-0.15415499
2	0x3d016db0	0.031598747
3	0xbd1ccb4d	-0.03827982
4	0x3e7562a4	0.2396341
5	0xbd8f715e	-0.07004045
6	0x3e1ea44b	0.1549236
7	0x3de3ff18	0.1113264
8	0x3ea00e50	0.3126092
9	0xbd8a44ca	-0.06751402
10	0xbd0a2417	-0.033725824
11	0xbe076365	-0.1322151
12	0xbe38898c	-0.1802122
13	0xbe22b91e	-0.15890929
14	0xbef20429	-0.472688
15	0xbead9857	-0.3390529
16	0xbe27a6e2	-0.16372254
17	0xbd406cf5	-0.04697891
18	0x3d55a7e2	0.05216206
19	0x3c94ae39	0.018149482
20	0xbed72a08	-0.42024255
21	0x3aa608c7	0.0012667411
22	0x3d6130d1	0.054978196
23	0x3b333e0d	0.0027350218
24	0x3e09996d	0.13437434
25	0xbe34a061	-0.17639305
26	0xbe26ff35	-0.16308291
27	0xbef62313	-0.48073635
28	0x3dd55e08	0.10418326
29	0x3e402454	0.18763858
30	0x3b39bd15	0.0028341461
31	0xbd8bfb68	-0.06835061
32	0xbf0c637e	-0.54839313
33	0xbe17b2cc	-0.148143
34	0xbdd868ab	-0.10566839
35	0xbe5cd76c	-0.21566552
36	0xbeb2d011	-0.34924367
37	0xbc14f9be	-0.009092746
38	0x3b585e04	0.0033015022
39	0xbd9c8089	-0.07641704
40	0xbe932a2d	-0.28743115
41	0x3dc9e3ae	0.098578796
42	0x3d1c56da	0.038168766
43	0xbe84e5c3	-0.25956544
44	0x3e3fb2d5	0.18720563
45	0x3ae8c2e0	0.0017758273
46	0x3d1853eb	0.037189405
47	0x3e42872c	0.18996876
48	0xbe8a2aea	-0.26985866
49	0x3df4e13b	0.11957022
50	0xbdf18d41	-0.1179452
51	0xbe000cc3	-0.12504868
52	0x3e02763b	0.12740414
53	0x3c85dd9f	0.016341029
54	0x3e5e82af	0.2172954
55	0xbecbdcba	-0.39816839
56	0x3db072cd	0.086156465
57	0x3cd720ea	0.026260812
58	0xbea45365	-0.32094875
59	0x3c55d0a9	0.013050237
60	0xbe267e4f	-0.1625912
61	0xbe03df6c	-0.12878197
62	0x3d808709	0.06275756
63	0x3e90f31c	0.28310478
64	0xbd6a88f4	-0.057259515
65	0xbc932c29	-0.017965393
66	0xbe0ae3ee	-0.13563511
67	0xbe464613	-0.19362669
68	0x3dbf6f05	0.09347347
69	0xbdb03de4	-0.08605555
70	0xbd584293	-0.052797865
71	0x3d657227	0.056017067
72	0x3e2e5afa	0.17026892
73	0xbe6556c1	-0.22396375
74	0xbec6b4b4	-0.3880974
75	0xbdce7d0b	-0.10082444
76	0x3e76a66e	0.24086925
77	0x3ed1ca3f	0.40974614
78	0xbc5b1c74	-0.013373483
79	0xbda3808e	-0.07983504
80	0xbeb02288	-0.34401345
81	0xbdcbc490	-0.09949601
82	0xbe37deb8	-0.17956054
83	0xbdb2b303	-0.0872555
84	0x3d1287bd	0.03577398
85	0xbd194c0f	-0.03742605
86	0x3d2e8e4d	0.042616177
87	0xbe05687c	-0.13028139
88	0xbdeca8d0	-0.11555636
89	0xbe96bf1b	-0.29442677
90	0x3e144c7e	0.14482304
91	0x3e52131d	0.20515104
92	0x3c983393	0.01857928
93	0xbeac6eba	-0.33678228
94	0x3db16a6f	0.08662879
95	0xbe8282ff	-0.25490567
96	0xbeca605c	-0.3952664
97	0x3e575377	0.21027933
98	0xbddca3fd	-0.10773466
99	0x3dc6e2f8	0.097112596
100	0xbe5455bf	-0.20735835
101	0xbda1473d	-0.07874916
102	0xbdf02353	-0.117254876
103	0xbf126756	-0.5718893
104	0xbe238711	-0.15969492
105	0xbce0c51d	-0.027437741
106	0xbe4a4e38	-0.197564
107	0xbe9079ef	-0.28218028
108	0xbd961f84	-0.0733023
109	0x3e8d01cb	0.2754043
110	0xbec2e89b	-0.3806809
111	0xbf02f3f6	-0.51153505
112	0x3dbe6d4f	0.09298193
113	0xbec04395	-0.3755156
114	0xbc922200	-0.017838478
115	0xbec1efbf	-0.37878224
116	0xbd729d1a	-0.059231855
117	0xbe3534a9	-0.1769587
118	0xbeb69d7f	-0.35667035
119	0xbf3bbe4e	-0.73337257
120	0xbeda625a	-0.4265316
121	0xbe8a3e01	-0.2700043
122	0xbee8237d	-0.45339575
123	0xbd996c9c	-0.07491419
124	0x3d5c8369	0.05383626
125	0xbe9026d3	-0.2815462
126	0x3e34b34c	0.17646521
127	0x3cba5bb2	0.022748802
128	0xbef08e7b	-0.46983704
129	0x3e82f12b	0.25574622
130	0xbe3c080f	-0.18362449
131	0x3d9ea91d	0.077470995
132	0xbdd343cb	-0.10315665
133	0xbd3fe694	-0.046850756
134	0xbc91b955	-0.017788569
135	0x3bb45305	0.0055030608
136	0xbd88b052	-0.066742554
137	0xbd27a96c	-0.040933058
138	0x3d8b2d40	0.0679574
139	0x3e56974c	0.20956153
140	0xbe179a31	-0.14804913
141	0x3cfb7be8	0.030698732
142	0xbdd7ac40	-0.10530901
143	0xbe60fb62	-0.21970895
144	0xbe19525e	-0.14972827
145	0x3d31b141	0.043381933
146	0xbdeefbe4	-0.11669138
147	0x3c8699e5	0.016430805
148	0xbe0a184f	-0.13485835
149	0x3e3c1948	0.18369019
150	0xbdbf7a27	-0.093494706
151	0x3d02f8a9	0.031975422
152	0xbe5c1788	-0.21493351
153	0xbe9e64f1	-0.30936387
154	0x3ccb9058	0.024849102
155	0xbea4b1aa	-0.32166797
156	0xbda57cb8	-0.08080429
157	0x3e289626	0.16463527
158	0x3e76c777	0.24099527
159	0xbd88c401	-0.0667801
160	0xbe8cd3a0	-0.27505207
161	0x3d81c98f	0.063372724
162	0xbdd18dd4	-0.1023213
163	0x3e1d2527	0.15346204
164	0xbe4c690b	-0.19961946
165	0xbda67986	-0.081286475
166	0xbeb23d18	-0.34812236
167	0xbe189634	-0.14901048
168	0x3d9fa808	0.07795721
169	0xbef87463	-0.48526296
170	0xbdccbd39	-0.09997029
171	0x3e231d1d	0.15929075
172	0xbe56c241	-0.2097254
173	0xbed21579	-0.41032007
174	0xbdfc7f35	-0.1232895
175	0xbea0d8a2	-0.31415278
176	0xbd897679	-0.0671205
177	0x3e562e13	0.20916013
178	0xbe403c3f	-0.18772982
179	0xbe493196	-0.19647822
180	0x3e637643	0.22213082
181	0xbd9f7d54	-0.07787576
182	0xbd908482	-0.07056524
183	0xbecd270b	-0.4006885
184	0xbe381c76	-0.17979607
185	0xbe7dd16b	-0.24786918
186	0x3d7c7b5d	0.061641086
187	0xbc76615f	-0.0150378635
188	0x3cb25d5e	0.021773037
189	0x3e0d96f0	0.1382711
190	0x3d8dc1ac	0.069217056
191	0xbe8172b1	-0.25282815
192	0x3ce323d1	0.02772704
193	0x3e86c0a5	0.2631885
194	0xbf005b40	-0.50139236
195	0x3dbfcc05	0.093650855
196	0x3c806ce7	0.015676929
197	0xbdcc47ea	-0.09974654
198	0xbead0ca4	-0.33798707
199	0x3d75aba0	0.059978127
200	0xbe102be8	-0.14079249
201	0x3e13948a	0.14412132
202	0x3da4c43c	0.08045241
203	0x3e6e6e67	0.23284303
204	0x3e06d096	0.13165507
205	0xbddf742d	-0.10910831
206	0x3e45b5b7	0.193076
207	0xbde1d9af	-0.11027848
208	0x3da86274	0.082219034
209	0xbea226ec	-0.3167032
210	0xbe68afbc	-0.22723287
211	0xbea82687	-0.32841894
212	0x3dd53b0e	0.104116544
213	0x3c996cea	0.018728692
214	0xbe94fd8a	-0.29099685
215	0x3e29e2d0	0.16590428
216	0x3deada0b	0.1146737
217	0xbde5b5c9	-0.112163134
218	0x3e8996ab	0.26872763
219	0xbec17f94	-0.37792647
220	0xbe5f0741	-0.21780111
221	0xbdfcc5ca	-0.12342413
222	0x3c821079	0.015876995
223	0x3e763d13	0.24046735
224	0xbefcf4fa	-0.49405652
225	0xbdf8b17c	-0.121432275
226	0xbdd4df7e	-0.1039419
227	0xbea47146	-0.3211767
228	0x3d5ccdd8	0.053907245
229	0xbec0bf69	-0.37646034
230	0xbe2af64f	-0.16695522
231	0xbdb88d18	-0.090112865
232	0xbe1f6a04	-0.15567786
233	0xbe53f4c6	-0.20698842
234	0xbe4bffcc	-0.19921798
235	0xbea88bd0	-0.32919168
236	0xbe8a7477	-0.2704198
237	0xbe80cd50	-0.2515664
238	0x3e131919	0.14365043
239	0x3e8cd1ea	0.27503902
240	0x3d8badac	0.06820235
241	0xbdcadcab	-0.0990537
242	0xbdfb52cc	-0.122716516
243	0x3e32503c	0.1741342
244	0xbe81a770	-0.25323057
245	0xbe020ea4	-0.12700897
246	0xbe5e6cc5	-0.2172118
247	0xbe52f6e0	-0.20601988
248	0xbf11352e	-0.5672177
249	0x3c0bdd4f	0.008536651
250	0xbda7245a	-0.081612304
251	0xbead6df5	-0.33872953
252	0xbd9ee3d7	-0.07758301
253	0x3de6773d	0.11253212
254	0xbcc0f43f	-0.023553966
255	0x3e204725	0.1565214

network_body._body_endoder.seq_layers.2.bias f4 [128]
0	0xbe47e3b1	-0.19520451
1	0xbd664019	-0.056213472
2	0xbd8fd23f	-0.07022523
3	0xbe3ad534	-0.18245393
4	0xbdbc63f2	-0.091987506
5	0xbec784ce	-0.3896851
6	0xbe2a19a6	-0.16611347
7	0xbe22ee90	-0.15911317
8	0xbe19e72d	-0.15029593
9	0xbd480d4e	-0.048840813
10	0xbe1c382f	-0.15255807
11	0xbda881dc	-0.08227894
12	0xbe7c74f7	-0.24653994
13	0xbe338a62	-0.17533258
14	0xbde72e65	-0.11288146
15	0xbdf8b220	-0.1214335
16	0xbcac30a9	-0.021019297
17	0xbe2bf255	-0.16791661
18	0x3c1e24b1	0.009652303
19	0xbe0a9295	-0.13532479
20	0xbe1e8eac	-0.15484113
21	0xbe76dc0a	-0.24107376
22	0xbe500a9d	-0.20316549
23	0xbe82ea90	-0.25569582
24	0xbe2f7784	-0.17135435
25	0xbe03bcb7	-0.12864958
26	0xbcc386de	-0.02386802
27	0xbe01b2fc	-0.12665933
28	0x3d420127	0.04736438
29	0xbd0d8e2d	-0.034559418
30	0xbd1ce5e7	-0.03830519
31	0xbe3a0ff4	-0.18170148
32	0xbe569697	-0.20955883
33	0xbe11719d	-0.14203496
34	0xbdb557af	-0.08854615
35	0xbca902c9	-0.02063121
36	0xbdf42093	-0.119202755
37	0xbd710108	-0.058838874
38	0xbe213425	-0.15742548
39	0xbe72ebf4	-0.23722821
40	0xbdcf2969	-0.1011532
41	0x3dfbcc32	0.122948065
42	0xbe13c0b0	-0.14428973
43	0xbe60a15a	-0.2193655
44	0xbe303add	-0.17209955
45	0xbe3066f4	-0.17226774
46	0xbe60248a	-0.21888939
47	0xbe4a58e2	-0.19760469
48	0xbe0daf78	-0.13836467
49	0xbe177af0	-0.1479299
50	0xbd89d227	-0.067295365
51	0xbe859e52	-0.2609735
52	0xbe4aadd9	-0.1979288
53	0xbcce63f1	-0.02519414
54	0xbc25cf06	-0.010120159
55	0xbc6a158c	-0.014287364
56	0xbe115c9c	-0.14195484
57	0xbd75baae	-0.059992485
58	0xbe057130	-0.13031459
59	0x3b6e6c1f	0.0036380363
60	0x3c856472	0.016283248
61	0xbdc8c3d6	-0.09802978
62	0xbd826d40	-0.06368494
63	0xbcff1581	-0.031138184
64	0xbe253c16	-0.16136202
65	0x3e0df7ae	0.13864014
66	0xbe1739d9	-0.14768161
67	0xbe369720	-0.17831087
68	0xbe19a410	-0.15003991
69	0xbbfce54c	-0.007717764
70	0xbd816a58	-0.063191116
71	0xbe213e57	-0.15746437
72	0xbe49fcf6	-0.19725403
73	0xbe2c19a6	-0.16806659
74	0xbdf68610	-0.12037289
75	0xbe20b752	-0.15694931
76	0x3c37bd30	0.011214539
77	0xbe3fcde6	-0.18730888
78	0xbe80bccf	-0.2514405
79	0xbd02120d	-0.031755496
80	0xbe3195e0	-0.17342329
81	0xbe444b18	-0.19169271
82	0xbdc02381	-0.09381772
83	0x3d205780	0.039145947
84	0xbe184799	-0.14871062
85	0xbebaef6b	-0.36510786
86	0xbd9b3f72	-0.075804606
87	0xbe27276f	-0.16323636
88	0xbdfe7cd3	-0.12426152
89	0xbd7154eb	-0.058918875
90	0xbe148448	-0.14503586
91	0xbe77e510	-0.24208474
92	0xbe6d49e0	-0.23172712
93	0xbeb27f52	-0.34862763
94	0xbc965c4a	-0.018354554
95	0xbe6a6a26	-0.22892055
96	0xbd828a7a	-0.063740686
97	0xbd28e1b6	-0.04123088
98	0x3d2c95b0	0.04213494
99	0xbe36d1c8	-0.17853463
100	0xbd4539b1	-0.048150722
101	0xbdbd48ac	-0.09242377
102	0xbcf46273	-0.0298321
103	0xbdfa956c	-0.12235531
104	0x3d312785	0.04325058
105	0xbe3c4ccc	-0.1838867
106	0xbdb2ed5a	-0.087366775
107	0xbe16c7b5	-0.1472462
108	0xbe69e79e	-0.22842261
109	0xbdf2abb5	-0.11849157
110	0xbdd6121f	-0.10452675
111	0xbe114e56	-0.14190039
112	0xbb91bfbc	-0.0044479053
113	0x3d6322e8	0.05545321
114	0xbd75d9cb	-0.060022157
115	0xbc3f8328	-0.011688985
116	0xbe1ce0ae	-0.15320083
117	0x3dd138d8	0.1021592
118	0xbdffd564	-0.12491873
119	0xbe184c30	-0.14872813
120	0xbe532dfa	-0.20623007
121	0xbdc5dd9d	-0.0966141
122	0xbe588a24	-0.21146446
123	0xbe22764f	-0.15865444
124	0xbe36f811	-0.17868067
125	0x3d3fde48	0.046842843
126	0xbe7d777d	-0.24752612
127	0xbd34962c	-0.044088528

action_model._continuous_distribution.log_sigma f4 [1, 2]
0	0x3ef09ffa	0.46997052
1	0x3f568116	0.8379072

action_model._continuous_distribution.mu.weight f4 [2, 128]
0	0xbde074fe	-0.109598145
1	0x3dc7a1ed	0.09747682
2	0x3db04e2e	0.086086616
3	0xbe180b42	-0.14848045
4	0xbd4ce709	-0.05002502
5	0x3e26c58e	0.16286299
6	0xbe64b2d2	-0.2233384
7	0xbc59a155	-0.013283093
8	0xbd12db5a	-0.03585372
9	0x3a9cbb64	0.0011957702
10	0x3e1512e3	0.14557986
11	0x3e215128	0.15753615
12	0x3f06b9c1	0.5262719
13	0x3e4457c1	0.191741
14	0x3ebb199e	0.36542982
15	0x3db0c047	0.08630424
16	0xbdaa65fe	-0.08320235
17	0x3d15c28e	0.036562495
18	0x3ce192c7	0.02753581
19	0xbd8759b3	-0.06608906
20	0xbca65877	-0.020305855
21	0x3c64b0e4	0.01395819
22	0xbde06ca0	-0.109582186
23	0x3db5b936	0.08873217
24	0xbc752bad	-0.014964026
25	0xbe0e5ae8	-0.13901865
26	0x3e2aace8	0.16667521
27	0xbdc2e154	-0.09515634
28	0xbd8748fb	-0.06605717
29	0xbdd90c1e	-0.10598014
30	0xbd46f68a	-0.04857496
31	0xbe2e2b84	-0.17008787
32	0x3c5503b1	0.013001368
33	0xbdb6e285	-0.08929924
34	0x3de17bf7	0.110099725
35	0x3de6738d	0.11252508
36	0x3d1bec32	0.03806705
37	0x3e07b2dd	0.13251825
38	0xbda1ceb9	-0.07900757
39	0xbe33260f	-0.17494987
40	0x3c5ca595	0.013467212
41	0xbdc24695	-0.09486119
42	0x3dc503c7	0.09619861
43	0x3e948f4f	0.29015586
44	0x3e0f28e2	0.1398044
45	0xbda89a96	-0.0823261
46	0x3e28012d	0.16406699
47	0x3ddd8ca5	0.108178414
48	0xbd0c3e60	-0.034239173
49	0xbe40a9d0	-0.18814778
50	0xbddd781d	-0.108139254
51	0xbdeafea3	-0.11474349
52	0xbd98235b	-0.074286185
53	0xbdbdd2a4	-0.09268692
54	0xbd479c84	-0.04873325
55	0xbc211e65	-0.009833907
56	0x3d6982e0	0.057009578
57	0xbe0faf13	-0.1403163
58	0xbe0fa950	-0.14029431
59	0xbe172842	-0.14761451
60	0xbdcf2560	-0.101145506
61	0x3ef2734e	0.47353595
62	0x3dfa71d8	0.12228745
63	0x3d169879	0.036766503
64	0x3e38cd59	0.18047084
65	0xbda24000	-0.07922363
66	0x3dcb13b2	0.09915866
67	0x3d8094c4	0.06278375
68	0x3bc1110d	0.005891925
69	0xbe1663cf	-0.14686511
70	0x3e7f2c7d	0.24919315
71	0xbdc9a6b5	-0.0984625
72	0x3e2502d2	0.16114357
73	0x3dd43026	0.10360746
74	0x3d23ba21	0.03997243
75	0x3d23bd0b	0.039975207
76	0xbda90819	-0.08253498
77	0x3d8a72e6	0.067601964
78	0xbc22d965	-0.009939526
79	0xbd34cc56	-0.044140182
80	0xbec4d3e9	-0.38442925
81	0xbd94fbf7	-0.07274621
82	0x3e66daa3	0.22544341
83	0x3de162c5	0.11005167
84	0x3cdb445e	0.026765998
85	0x3cc62b10	0.024190456
86	0x3dfbacba	0.12288804
87	0x3e2a7e15	0.16649659
88	0x3c666c9d	0.014063981
89	0xbe141d7d	-0.14464374
90	0xbd835d62	-0.06414296
91	0x3e4aa121	0.19788028
92	0x3f1b1740	0.6058235
93	0xbe2645de	-0.1623759
94	0xbc999f14	-0.018752612
95	0xbd2cba33	-0.04216976
96	0xbe347cd2	-0.1762574
97	0xbd33d575	-0.04390474
98	0xbc9b1113	-0.01892904
99	0xbd3f6509	-0.046727214
100	0xbdb0c138	-0.086306036
101	0x3dda2f8e	0.106536016
102	0x3e20b851	0.15695311
103	0x3d67ea92	0.056620188
104	0xbdebb356	-0.11508815
105	0x3d981cbe	0.07427357
106	0x3dc42d19	0.09578914
107	0x3de273e4	0.11057261
108	0x3dd18255	0.10229937
109	0xbedad9b6	-0.42744225
110	0x3dc5555a	0.0963542
111	0x3dcf075e	0.10108827
112	0xbe197d19	-0.14989127
113	0x3e5483b1	0.20753361
114	0xbdafaed9	-0.085782714
115	0xbda1b9a7	-0.078967385
116	0xbd642182	-0.055696018
117	0xbe2e5298	-0.17023695
118	0x3d413167	0.047166254
119	0x3e0e0e43	0.13872628
120	0x3dd0a3b3	0.10187473
121	0xbdeccdd8	-0.11562699
122	0xbdc1a424	-0.094551355
123	0x3d053a3f	0.03252625
124	0x3db0d185	0.08633713
125	0x3d86156e	0.06547056
126	0x3dba4bb6	0.09096472
127	0x3e394da6	0.18096027
128	0x3e11ccb1	0.1423824
129	0x3cc25134	0.023720361
130	0x3df1848c	0.117928594
131	0xbdde14a9	-0.10843784
132	0x3e413736	0.18868718
133	0x3de6be4e	0.112667665
134	0xbe3a858d	-0.18215008
135	0x3dcb5e5d	0.09930108
136	0xbecc9033	-0.39953765
137	0xbe07f990	-0.13278794
138	0x3e272913	0.16324262
139	0x3cbdc621	0.023165764
140	0xbe9e6422	-0.3093577
141	0x3e9d35a2	0.3070498
142	0xbebad460	-0.36490154
143	0xbd8c1587	-0.068400435
144	0xbcb3d109	-0.021950262
145	0x3de380f4	0.1110858
146	0xbdef62c8	-0.11688763
147	0x3d1958b1	0.0374381
148	0xbe9758a6	-0.2955982
149	0xbe35a272	-0.17737749
150	0x3e016b62	0.1263862
151	0xbda82a13	-0.0821115
152	0x3e0cdcfd	0.13756175
153	0xbd6fb135	-0.058518607
154	0x3e020744	0.12698084
155	0xbce7e40e	-0.028306987
156	0xbdca3d08	-0.09874922
157	0xbd6d23d4	-0.057895496
158	0xbdc8f3ca	-0.09812124
159	0x3de37f32	0.11108245
160	0x3dd9bfbe	0.10632275
161	0x3dc71be7	0.09722119
162	0xbde48373	-0.111578844
163	0x3ca71a80	0.020398378
164	0xbe088270	-0.13331008
165	0xbd12d68c	-0.03584914
166	0x3e01a1a3	0.12659316
167	0xbddb046b	-0.10694202
168	0xbe1758ec	-0.14780015
169	0x3b3ea777	0.0029091516
170	0x3dff5e02	0.124691024
171	0xbeb1d11b	-0.34729847
172	0x3de03167	0.10946923
173	0x3c8b9e19	0.01704316
174	0xbd0e8429	-0.034794006
175	0x3e17d147	0.14825927
176	0x3e6cc9f2	0.23123911
177	0x3d488945	0.048959035
178	0xbe1c2253	-0.15247469
179	0x3c895916	0.016766112
180	0x3d9ffde1	0.078120954
181	0x3e2c05a6	0.1679903
182	0xbe05f1d4	-0.13080531
183	0xbe5c245d	-0.21498246
184	0x3dc71327	0.0972045
185	0x3dc78b25	0.097433366
186	0x3d920e4d	0.07131634
187	0x3d01934b	0.03163461
188	0xbddf47d5	-0.10902373
189	0xbe1a1ee4	-0.15050846
190	0x3c398c2a	0.011324922
191	0x3da9f6d9	0.082990356
192	0xbc46cf23	-0.012134346
193	0x3e1f7901	0.15573503
194	0xbe2428cf	-0.16031192
195	0xbe24d5f8	-0.16097248
196	0x3dd75f13	0.10516181
197	0xbd7b45a6	-0.06134572
198	0x3c2d75d2	0.010587173
199	0xbdabdd60	-0.08391833
200	0xbd9af063	-0.075653814
201	0xbd9beff8	-0.0761413
202	0x3d971f3e	0.07379006
203	0x3e0e7910	0.13913369
204	0x3d564d95	0.05232008
205	0xbebb01d2	-0.36524826
206	0xbe9707c3	-0.2949811
207	0x3df26187	0.11835008
208	0xbd3695f0	-0.044576585
209	0xbe111a29	-0.14170136
210	0xbd86636e	-0.065619335
211	0x3d7649b3	0.06012888
212	0x3e71f6d2	0.2362931
213	0xbe116df5	-0.14202102
214	0xbd9d9ec1	-0.076962955
215	0xbdb125d2	-0.08649792
216	0x3e3d4e9e	0.18487021
217	0xbe186a54	-0.14884311
218	0x3d49a772	0.049231954
219	0x3dde660e	0.10859309
220	0xbe977d04	-0.29587567
221	0xbd5f8414	-0.05456932
222	0xbe1d0e69	-0.15337528
223	0x3e02ffc1	0.12792875
224	0x3db9060c	0.090343565
225	0xbdab2778	-0.083571374
226	0xbe1aba81	-0.15110208
227	0x3e2a11db	0.16608374
228	0xbd741bf8	-0.059596986
229	0xbcc84cc7	-0.024450673
230	0x3cb7323c	0.02236282
231	0x3e22c8fd	0.15896983
232	0xbd59e6ac	-0.0531985
233	0xbe8c01d1	-0.27345136
234	0xbb180b9f	-0.0023200286
235	0xbef49ffd	-0.4777831
236	0x3e915daf	0.28391787
237	0xbea4ee44	-0.32213032
238	0xbd7398f3	-0.059472036
239	0x3e60c6d0	0.21950841
240	0x3d64d152	0.055863686
241	0x3df64c5d	0.12026284
242	0xbe809d55	-0.25120035
243	0x3da7dc38	0.081963
244	0x3db88266	0.090092465
245	0x3e053fe7	0.13012658
246	0xbde6e347	-0.112738185
247	0xbd74cf90	-0.05976826
248	0xbd739fac	-0.059478447
249	0xbdaba566	-0.083811566
250	0x3e7f9377	0.24958597
251	0x3dcba6e8	0.09943944
252	0xbc3b3638	-0.011426501
253	0x3b910ad3	0.004426339
254	0xbdf9e526	-0.1220191
255	0x3e2cdd3f	0.16881274

action_model._continuous_distribution.mu.bias f4 [2]
0	0x3e4eea0c	0.2020647
1	0xbe24cb2b	-0.16093127

56 f4 [312]
0	0x3e9a3e35	0.30125585
1	0x3dfd21c7	0.12359958
2	0x393f7434	0.00018258468
3	0x393f7434	0.00018258468
4	0x3ea698b2	0.32538372
5	0x3e883d1f	0.26609132
6	0x3e9e99e8	0.30976796
7	0x3df6ba6a	0.120472744
8	0x393f7434	0.00018258468
9	0x393f7434	0.00018258468
10	0x3ea9fddc	0.33201492
11	0x3e864db5	0.2623116
12	0x3eb4c0d1	0.35303357
13	0x3dfa0724	0.12208393
14	0x393f7434	0.00018258468
15	0x393f7434	0.00018258468
16	0x3ebe06ac	0.37114465
17	0x3e955e63	0.29173574
18	0x3edf28a8	0.43585706
19	0x3ddf5f42	0.10906841
20	0x393f7434	0.00018258468
21	0x393f7434	0.00018258468
22	0x3ee38df7	0.44444248
23	0x3e9a4fbc	0.30138958
24	0x3ef01332	0.46889645
25	0x3dea579e	0.11442493
26	0x393f7434	0.00018258468
27	0x393f7434	0.00018258468
28	0x3ef325c7	0.4748976
29	0x3ea8f2b0	0.32997656
30	0x3ef5bc60	0.4799528
31	0x3db7c818	0.08973712
32	0x393f7434	0.00018258468
33	0x393f7434	0.00018258468
34	0x3ef3dac0	0.4762783
35	0x3ea1062e	0.31450027
36	0x3ee5e3cb	0.44900355
37	0x3dc280fb	0.09497257
38	0x393f7434	0.00018258468
39	0x393f7434	0.00018258468
40	0x3ee281ce	0.44239658
41	0x3e9a42dc	0.30129135
42	0x3ea15bf4	0.31515467
43	0x3d9a54ac	0.07535681
44	0x393f7434	0.00018258468
45	0x393f7434	0.00018258468
46	0x3e9b1a30	0.30293417
47	0x3e6c7b7e	0.23093984
48	0x3e804025	0.25048938
49	0x3d922a7e	0.07137011
50	0x393f7434	0.00018258468
51	0x393f7434	0.00018258468
52	0x3e6fd6d6	0.23421797
53	0x3e512ee5	0.20428045
54	0x3e9a0fb7	0.30090114
55	0x3e380364	0.17970043
56	0x393f7434	0.00018258468
57	0x393f7434	0.00018258468
58	0x3e797954	0.2436269
59	0x3e4c4f05	0.19952019
60	0x3ea5e8fc	0.32404315
61	0x3e2b79c5	0.1674567
62	0x393f7434	0.00018258468
63	0x393f7434	0.00018258468
64	0x3e8fe13b	0.28101525
65	0x3e5c47f0	0.21511817
66	0x3ed992d7	0.42494842
67	0x3edbb7a7	0.42913553
68	0x393f7434	0.00018258468
69	0x393f7434	0.00018258468
70	0x3effddd1	0.4997392
71	0x3eb5ae08	0.35484338
72	0x3ed485ef	0.41508433
73	0x3ed9d6b4	0.42546618
74	0x393f7434	0.00018258468
75	0x393f7434	0.00018258468
76	0x3eff4761	0.49859145
77	0x3eb610b7	0.35559627
78	0x3e9a559b	0.30143437
79	0x3dfd2a8c	0.12361631
80	0x393f7434	0.00018258468
81	0x393f7434	0.00018258468
82	0x3ea5e6b1	0.32402566
83	0x3e874b17	0.26424477
84	0x3e9eafe4	0.3099357
85	0x3df6c34e	0.1204897
86	0x393f7434	0.00018258468
87	0x393f7434	0.00018258468
88	0x3ea95139	0.3306978
89	0x3e855655	0.2604243
90	0x3eb4d9c3	0.3532239
91	0x3dfa1002	0.122100845
92	0x393f7434	0.00018258468
93	0x393f7434	0.00018258468
94	0x3ebd8381	0.37014392
95	0x3e94948f	0.2901959
96	0x3edf4155	0.43604532
97	0x3ddf6909	0.10908706
98	0x393f7434	0.00018258468
99	0x393f7434	0.00018258468
100	0x3ee34cc3	0.44394502
101	0x3e99a4ed	0.3000864
102	0x3ef0287c	0.46905887
103	0x3dea5f5c	0.114439696
104	0x393f7434	0.00018258468
105	0x393f7434	0.00018258468
106	0x3ef300cc	0.47461545
107	0x3ea870f1	0.32898667
108	0x3ef59c7e	0.47970957
109	0x3db7d508	0.08976179
110	0x393f7434	0.00018258468
111	0x393f7434	0.00018258468
112	0x3ef3ee3d	0.476427
113	0x3ea0c05c	0.3139676
114	0x3ee5a781	0.44854358
115	0x3dc2894a	0.09498842
116	0x393f7434	0.00018258468
117	0x393f7434	0.00018258468
118	0x3ee29a8d	0.44258538
119	0x3e9a071d	0.30083552
120	0x3ea0a17e	0.3137321
121	0x3d9a5d0e	0.0753728
122	0x393f7434	0.00018258468
123	0x393f7434	0.00018258468
124	0x3e9b3360	0.30312634
125	0x3e6c0c48	0.2305156
126	0x3e7e6141	0.24841787
127	0x3d923109	0.07138259
128	0x393f7434	0.00018258468
129	0x393f7434	0.00018258468
130	0x3e700ab6	0.23441586
131	0x3e50bc2f	0.20384286
132	0x3e99459d	0.29935923
133	0x3e38308c	0.17987269
134	0x393f7434	0.00018258468
135	0x393f7434	0.00018258468
136	0x3e799cda	0.2437624
137	0x3e4bc954	0.1990102
138	0x3ea5394f	0.32270285
139	0x3e2b9ada	0.1675829
140	0x393f7434	0.00018258468
141	0x393f7434	0.00018258468
142	0x3e8ff7fa	0.2811888
143	0x3e5bca25	0.21463831
144	0x3ed9a9d3	0.42512378
145	0x3edbd1cc	0.429335
146	0x393f7434	0.00018258468
147	0x393f7434	0.00018258468
148	0x3effdac5	0.49971595
149	0x3eb55fc8	0.35424638
150	0x3ed49c25	0.4152538
151	0x3ed9f1f7	0.42567417
152	0x393f7434	0.00018258468
153	0x393f7434	0.00018258468
154	0x3eff4068	0.49853826
155	0x3eb5bea8	0.35497022
156	0x3e9a6cb8	0.3016107
157	0x3dfd3490	0.12363541
158	0x393f7434	0.00018258468
159	0x393f7434	0.00018258468
160	0x3ea53312	0.32265526
161	0x3e8656a6	0.26237983
162	0x3e9ec615	0.310105
163	0x3df6cc68	0.12050706
164	0x393f7434	0.00018258468
165	0x393f7434	0.00018258468
166	0x3ea8a42b	0.3293775
167	0x3e845cae	0.2585196
168	0x3eb4f273	0.35341224
169	0x3dfa1970	0.12211883
170	0x393f7434	0.00018258468
171	0x393f7434	0.00018258468
172	0x3ebcff73	0.36913642
173	0x3e93c933	0.2886444
174	0x3edf59bf	0.43623158
175	0x3ddf734b	0.10910662
176	0x393f7434	0.00018258468
177	0x393f7434	0.00018258468
178	0x3ee30b65	0.4434463
179	0x3e98f8ce	0.29877323
180	0x3ef03da7	0.46922037
181	0x3dea67e6	0.11445598
182	0x393f7434	0.00018258468
183	0x393f7434	0.00018258468
184	0x3ef2dba4	0.47433197
185	0x3ea7ee89	0.32799175
186	0x3ef57ca2	0.4794665
187	0x3db7e0fd	0.0897846
188	0x393f7434	0.00018258468
189	0x393f7434	0.00018258468
190	0x3ef401a9	0.47657517
191	0x3ea07a32	0.31343228
192	0x3ee56b05	0.44808212
193	0x3dc2916b	0.095003925
194	0x393f7434	0.00018258468
195	0x393f7434	0.00018258468
196	0x3ee2b385	0.44277588
197	0x3e99caf1	0.30037645
198	0x3e9fe564	0.312297
199	0x3d9a649f	0.07538723
200	0x393f7434	0.00018258468
201	0x393f7434	0.00018258468
202	0x3e9b4c47	0.30331632
203	0x3e6b9c27	0.23008786
204	0x3e7c3b80	0.24632072
205	0x3d92373b	0.071394406
206	0x393f7434	0.00018258468
207	0x393f7434	0.00018258468
208	0x3e703e05	0.23461159
209	0x3e5048be	0.20340249
210	0x3e9879b4	0.29780352
211	0x3e385c50	0.18003964
212	0x393f7434	0.00018258468
213	0x393f7434	0.00018258468
214	0x3e79c0ed	0.24390002
215	0x3e4b42f7	0.19849764
216	0x3ea4887f	0.32135388
217	0x3e2bba73	0.16770343
218	0x393f7434	0.00018258468
219	0x393f7434	0.00018258468
220	0x3e900f13	0.281365
221	0x3e5b4bfc	0.21415704
222	0x3ed9c0a8	0.42529798
223	0x3edbebe0	0.42953396
224	0x393f7434	0.00018258468
225	0x393f7434	0.00018258468
226	0x3effd7a7	0.49969217
227	0x3eb51119	0.35364607
228	0x3ed4b1f5	0.4154202
229	0x3eda0d33	0.42588195
230	0x393f7434	0.00018258468
231	0x393f7434	0.00018258468
232	0x3eff391d	0.4984826
233	0x3eb56bf2	0.35433918
234	0x3e9a833a	0.30178243
235	0x3dfd3ff4	0.12365714
236	0x393f7434	0.00018258468
237	0x393f7434	0.00018258468
238	0x3ea47dac	0.3212713
239	0x3e855f16	0.26049107
240	0x3e9edb8e	0.31026882
241	0x3df6d84c	0.12052974
242	0x393f7434	0.00018258468
243	0x393f7434	0.00018258468
244	0x3ea7f527	0.32804224
245	0x3e835fcc	0.25659025
246	0x3eb50ae8	0.35359883
247	0x3dfa2501	0.12214089
248	0x393f7434	0.00018258468
249	0x393f7434	0.00018258468
250	0x3ebc7a40	0.3681202
251	0x3e92fba8	0.28707623
252	0x3edf7246	0.4364187
253	0x3ddf7fb3	0.109130286
254	0x393f7434	0.00018258468
255	0x393f7434	0.00018258468

59 f4 [88]
0	0x43a0f092	321.87946
1	0x41af13f9	21.884752
2	0x4323c642	163.77444
3	0x43a057c2	320.6856
4	0x41ae1962	21.762394
5	0x431cca31	156.78981
6	0x3ceaeba9	0.028676825
7	0x3eb6c6dd	0.35698596
8	0x3d0370eb	0.03209011
9	0x3e87f357	0.2655284
10	0x4165f17a	14.371454
11	0x393f75d6	0.00018259077
12	0x393f75d6	0.00018259077
13	0x4082913f	4.08023
14	0x439507e3	298.0616
15	0x41ad9b17	21.700727
16	0x42f9c471	124.883675
17	0x420d0b16	35.260826
18	0x3ef5ce14	0.48008788
19	0x3d7dcaa8	0.061960846
20	0x3f10dde4	0.5658858
21	0x3e4fcc85	0.20292862
22	0x43a114f0	322.16357
23	0x4191ab28	18.208572
24	0x4323af12	163.68387
25	0x43a07d6d	320.9799
26	0x419082ac	18.063805
27	0x431ca891	156.65846
28	0x3ceac912	0.02866033
29	0x3eb6a41d	0.35672083
30	0x3d036514	0.032078817
31	0x3e87822c	0.264665
32	0x41653905	14.326421
33	0x393f75d6	0.00018259077
34	0x393f75d6	0.00018259077
35	0x4082667e	4.0750113
36	0x43952959	298.32303
37	0x418fdacb	17.981833
38	0x42f94c93	124.64956
39	0x420c7212	35.111397
40	0x3ef5b6f1	0.47991136
41	0x3d7d32e9	0.06181613
42	0x3f11084e	0.56653297
43	0x3e4d1cf6	0.20030579
44	0x43a1394f	322.44772
45	0x4158e71a	13.556421
46	0x432397b5	163.5926
47	0x43a0a2e6	321.27264
48	0x4155d7b5	13.365163
49	0x431c86ef	156.52708
50	0x3ceaa62f	0.028643696
51	0x3eb68129	0.35645416
52	0x3d0359ac	0.03206794
53	0x3e870ffe	0.2637939
54	0x41647f3f	14.281066
55	0x393f75d6	0.00018259077
56	0x393f75d6	0.00018259077
57	0x40823b9d	4.069777
58	0x43954ac3	298.58408
59	0x4153e58c	13.243542
60	0x42f8d3f4	124.41397
61	0x420bd7e4	34.96083
62	0x3ef59fae	0.47973388
63	0x3d7c9af8	0.061671227
64	0x3f1132ae	0.56717956
65	0x3e4a6291	0.19764163
66	0x43a15d82	322.73053
67	0x40be9b6a	5.9564714
68	0x43238063	163.50151
69	0x43a0c879	321.5662
70	0x40b08b2d	5.516989
71	0x431c6515	156.39485
72	0x3cea82f1	0.02862689
73	0x3eb65e3d	0.35618773
74	0x3d034e66	0.03205719
75	0x3e869cf1	0.26291612
76	0x4163c4a3	14.235507
77	0x393f75d6	0.00018259077
78	0x393f75d6	0.00018259077
79	0x40821074	4.0645084
80	0x43956c2d	298.84512
81	0x40a6084e	5.1885138
82	0x42f85b2e	124.178085
83	0x420b3c95	34.809162
84	0x3ef588bd	0.47955886
85	0x3d7c0229	0.061525498
86	0x3f115cf1	0.5678244
87	0x3e479bd2	0.19493034
