results/ppo2/AI Car/AI Car-1998210.onnx (onnx, 277974 bytes, 11 tensors)

network_body.observation_encoder.processors.0.normalizer.running_mean f4 [312]
0.09478726 0.0049979696 0.0 0.0 0.89871126 0.9189968 0.10205935 0.0052511985
0.0 0.0 0.89118624 0.91845584 0.13244699 0.004423455 0.0 0.0
0.8616264 0.8925918 0.25816593 0.0051095714 0.0 0.0 0.73522085 0.83512324
0.3125738 0.0034410784 0.0 0.0 0.6824817 0.7950612 0.6421892 0.0046977014
0.0 0.0 0.35161003 0.6006421 0.7014076 0.0023330876 0.0 0.0
0.2947556 0.56510365 0.8981913 0.0019922815 0.0 0.0 0.098313004 0.45413214
0.91179323 0.0012431113 0.0 0.0 0.08546041 0.44318166 0.88902706 0.04164576
0.0 0.0 0.067823626 0.43938577 0.8663041 0.031792454 0.0 0.0
0.10039975 0.45519304 0.251169 0.20125812 0.0 0.0 0.5460697 0.68900996
0.23673125 0.19756508 0.0 0.0 0.56419986 0.69807106 0.09484233 0.0049989675
0.0 0.0 0.89915603 0.9194522 0.10212333 0.0052521983 0.0 0.0
0.8916226 0.91890794 0.13251951 0.0044239555 0.0 0.0 0.86205405 0.8930359
0.25830725 0.005111576 0.0 0.0 0.7355794 0.8355324 0.3127247 0.0034415785
0.0 0.0 0.68283135 0.7954628 0.64251435 0.004700205 0.0 0.0
0.35178322 0.6009403 0.7017565 0.0023335868 0.0 0.0 0.2949078 0.5653891
0.89863646 0.001993783 0.0 0.0 0.09836749 0.45436254 0.91225064 0.0012441127
0.0 0.0 0.08550294 0.44340533 0.8894706 0.041668274 0.0 0.0
0.06785919 0.43960837 0.86674076 0.031809963 0.0 0.0 0.10044739 0.45542124
0.2512852 0.20135818 0.0 0.0 0.54635394 0.68935895 0.23684429 0.19766696
0.0 0.0 0.5644873 0.69842154 0.09489534 0.0049999747 0.0 0.0
0.89960337 0.91990787 0.10219141 0.0052537024 0.0 0.0 0.89205277 0.9193536
0.13258973 0.0044244574 0.0 0.0 0.8624841 0.89348096 0.25845572 0.005113073
0.0 0.0 0.7359304 0.83593714 0.31287134 0.0034420802 0.0 0.0
0.68318564 0.79586554 0.6428377 0.004701704 0.0 0.0 0.35195914 0.60123855
0.70211065 0.0023345884 0.0 0.0 0.29505372 0.5656711 0.8990843 0.001994783
0.0 0.0 0.09841955 0.45458803 0.9127069 0.0012446138 0.0 0.0
0.08554746 0.4436296 0.8899167 0.04168578 0.0 0.0 0.067896314 0.4398304
0.8671783 0.031825464 0.0 0.0 0.100494415 0.4556499 0.25140214 0.20145813
0.0 0.0 0.5466379 0.689707 0.23695183 0.19777079 0.0 0.0
0.56477547 0.6987724 0.09494645 0.0050009713 0.0 0.0 0.9000525 0.92036647
0.10225245 0.0052547012 0.0 0.0 0.89249223 0.91980636 0.13264716 0.004425456
0.0 0.0 0.86292744 0.89393395 0.25860083 0.0051145772 0.0 0.0
00000000: d31f c23d 02c6 a33b 0000 0000 0000 0000
00000010: f111 663f 6043 6b3f 7e04 d13d 3f12 ac3b
00000020: 0000 0000 0000 0000 c824 643f ec1f 6b3f
00000030: 2fa0 073e a1f2 903b 0000 0000 0000 0000
00000040: 8c93 5c3f e580 643f 532e 843e 316e a73b
00000050: 0000 0000 0000 0000 6f37 3c3f a3ca 553f
00000060: ac09 a03e b783 613b 0000 0000 0000 0000
00000070: 1fb7 2e3f 2189 4b3f 8366 243f 2def 993b
00000080: 0000 0000 0000 0000 3b06 b43e aec3 193f
00000090: 738f 333f b7e6 183b 0000 0000 0000 0000
000000a0: 35ea 963e a2aa 103f ddef 653f f090 023b
000000b0: 0000 0000 0000 0000 5458 c93d 0284 e83e
000000c0: 486b 693f e5ef a23a 0000 0000 0000 0000
000000d0: de05 af3d b5e8 e23e 4797 633f bf94 2a3d
000000e0: 0000 0000 0000 0000 1de7 8a3d 2cf7 e03e
000000f0: 1bc6 5d3f ce38 023d 0000 0000 0000 0000
00000100: 629e cd3d 100f e93e 3999 803e 9c16 4e3e
00000110: 0000 0000 0000 0000 39cb 0b3f f562 303f
00000120: ad69 723e 804e 4a3e 0000 0000 0000 0000
00000130: 676f 103f c9b4 323f b23c c23d 61ce a33b
00000140: 0000 0000 0000 0000 172f 663f 3861 6b3f
00000150: 0926 d13d a21a ac3b 0000 0000 0000 0000
00000160: 6141 643f 8d3d 6b3f 32b3 073e d4f6 903b
00000170: 0000 0000 0000 0000 93af 5c3f 009e 643f
00000180: d940 843e 027f a73b 0000 0000 0000 0000
00000190: ee4e 3c3f 74e5 553f 741d a03e 1b8c 613b
000001a0: 0000 0000 0000 0000 09ce 2e3f 73a3 4b3f
000001b0: d27b 243f 2d04 9a3b 0000 0000 0000 0000
000001c0: ee1c b43e 39d7 193f 50a6 333f 17ef 183b
000001d0: 0000 0000 0000 0000 28fe 963e 57bd 103f
000001e0: 0a0d 663f 21aa 023b 0000 0000 0000 0000
000001f0: e574 c93d 35a2 e83e 4289 693f 7f11 a33a
00000200: 0000 0000 0000 0000 2a1c af3d 0606 e33e
00000210: 58b4 633f 5aac 2a3d 0000 0000 0000 0000
00000220: c2f9 8a3d 5914 e13e b9e2 5d3f 2a4b 023d
00000230: 0000 0000 0000 0000 5cb7 cd3d f92c e93e
00000240: 74a8 803e d730 4e3e 0000 0000 0000 0000
00000250: dadd 0b3f d479 303f 4f87 723e 3569 4a3e
00000260: 0000 0000 0000 0000 3d82 103f c1cb 323f
00000270: 7d58 c23d d4d6 a33b 0000 0000 0000 0000
00000280: 684c 663f 157f 6b3f bb49 d13d 4027 ac3b
00000290: 0000 0000 0000 0000 925d 643f c25a 6b3f
000002a0: 9ac5 073e 0afb 903b 0000 0000 0000 0000
000002b0: c2cb 5c3f 2bbb 643f 4f54 843e 918b a73b
000002c0: 0000 0000 0000 0000 ef65 3c3f faff 553f
000002d0: ac30 a03e 8694 613b 0000 0000 0000 0000
000002e0: 41e5 2e3f d8bd 4b3f 0391 243f c010 9a3b
000002f0: 0000 0000 0000 0000 fd33 b43e c5ea 193f
00000300: 86bd 333f e5ff 183b 0000 0000 0000 0000
00000310: 4811 973e d2cf 103f 642a 663f e8ba 023b
00000320: 0000 0000 0000 0000 3090 c93d c3bf e83e
00000330: 29a7 693f 4f22 a33a 0000 0000 0000 0000
00000340: 8233 af3d 6b23 e33e 95d1 633f b5be 2a3d
00000350: 0000 0000 0000 0000 390d 8b3d 7331 e13e
00000360: 66ff 5d3f 6b5b 023d 0000 0000 0000 0000
00000370: 04d0 cd3d f24a e93e c8b7 803e 0a4b 4e3e
00000380: 0000 0000 0000 0000 76f0 0b3f a390 303f
00000390: 80a3 723e 6d84 4a3e 0000 0000 0000 0000
000003a0: 2095 103f bfe2 323f 4973 c23d 30df a33b
000003b0: 0000 0000 0000 0000 d769 663f 239d 6b3f
000003c0: bc69 d13d a12f ac3b 0000 0000 0000 0000
000003d0: 5f7a 643f 6e78 6b3f a8d4 073e 6a03 913b
000003e0: 0000 0000 0000 0000 d0e8 5c3f dbd8 643f
000003f0: 5467 843e 2f98 a73b 0000 0000 0000 0000

network_body.observation_encoder.processors.1.normalizer.running_mean f4 [88]
-354.07834 331.749 27.275322 -344.38254 331.1485 53.24834 0.06370263 0.16818303
-0.012958808 0.92365175 34.788994 0.0 0.0 2.1555884 -280.7659 331.8733
110.16979 89.31669 0.23508516 -0.136693 0.74713105 0.9512365 -354.2504 331.91586
27.30031 -344.5461 331.31488 53.284145 0.063733235 0.16832457 -0.012969117 0.9240905
34.806244 0.0 0.0 2.1567824 -280.89337 332.03983 110.232285 89.36309
0.23527877 -0.13676247 0.74742603 0.9517155 -354.42215 332.0827 27.32533 -344.70923
331.48145 53.31983 0.06376399 0.1684667 -0.012979316 0.92452824 34.823574 0.0
0.0 2.157979 -281.0212 332.20642 110.29477 89.40948 0.23547225 -0.13683179
0.74771965 0.952195 -354.59393 332.2494 27.350344 -344.87262 331.64783 53.35492
0.06379535 0.1686083 -0.01298966 0.9249665 34.840565 0.0 0.0 2.1591735
-281.14874 332.3732 110.35722 89.45639 0.23566432 -0.13690244 0.74801224 0.95267445
00000000: 070a b1c3 dfdf a543 dc33 da41 f730 acc3
00000010: 0293 a543 4dfe 5442 8676 823d 2c38 2c3e
00000020: 2e51 54bc 7174 6c3f ee27 0b42 0000 0000
00000030: 0000 0000 29f5 0940 0962 8cc3 c8ef a543
00000040: ef56 dc42 25a2 b242 2aba 703e 40f9 0bbe
00000050: fb43 3f3f 3c84 733f 0d20 b1c3 3bf5 a543
00000060: 0967 da41 e745 acc3 4ea8 a543 f722 5542
00000070: 9286 823d 475d 2c3e 6b7c 54bc 3291 6c3f
00000080: 9839 0b42 0000 0000 0000 0000 b908 0a40
00000090: 5a72 8cc3 1905 a643 ee76 dc42 e7b9 b242
000000a0: ebec 703e 760b 0cbe 5057 3f3f a1a3 733f
000000b0: 0936 b1c3 960a a643 479a da41 c85a acc3
000000c0: a0bd a543 8247 5542 b296 823d 8982 2c3e
000000d0: 32a7 54bc e2ad 6c3f 574b 0b42 0000 0000
000000e0: 0000 0000 541c 0a40 b782 8cc3 6c1a a643
000000f0: ec96 dc42 a7d1 b242 a31f 713e a21d 0cbe
00000100: 8e6a 3f3f 0dc3 733f 064c b1c3 ec1f a643
00000110: 81cd da41 b26f acc3 ecd2 a543 706b 5542
00000120: 23a7 823d a7a7 2c3e 95d2 54bc 9bca 6c3f
00000130: bd5c 0b42 0000 0000 0000 0000 e62f 0a40
00000140: 0a93 8cc3 c52f a643 e6b6 dc42 ace9 b242
00000150: fd51 713e 2730 0cbe bb7d 3f3f 79e2 733f

network_body._body_endoder.seq_layers.0.weight f4 [128, 400]
0.0317827 -0.060176667 0.0937012 0.005256373 -0.06695115 0.05122926 0.030149108 0.07495225
0.088999525 0.038898602 0.07202186 -0.05677999 -0.093085356 0.027350897 0.032998383 0.046036255
0.019527879 0.01208376 -0.00612435 0.04402907 -0.045407694 0.0874134 -0.041637495 -0.091389656
-0.078857794 -0.1098817 0.07962846 -0.02068052 0.112212405 0.017996848 0.148114 -0.13804239
-0.098952524 -0.030005857 0.020041855 -0.11710249 0.016683606 -0.16303834 0.11124927 -0.04102145
-0.0070310244 -0.10944374 0.10258321 0.08162846 0.03414959 0.034350436 -0.07317513 0.005717427
-0.069692045 0.070549406 -0.020541763 -0.03281579 0.10643895 -0.023093428 0.10625752 0.08014592
0.023401558 0.02369778 -0.018999 0.0117080435 -0.036738265 0.06971367 0.034018293 0.021143964
-0.061855238 0.06986958 -0.055317726 -0.030995667 0.021935537 0.11643803 -0.0037069968 0.008663962
-0.0775332 -0.02959295 0.021154556 0.09321037 0.017702436 0.056446847 -0.05540172 -0.05186275
-0.03975826 0.0110201435 0.013529192 0.031558033 -0.022535259 0.06368692 0.008345944 -0.05843051
0.029793391 0.12997864 0.023119776 -0.0058928006 -0.034225177 -0.068741165 0.06735564 0.00063167827
-0.089552 0.020744128 -0.03374348 0.019070333 0.056619648 0.104710616 0.07904096 -0.022847526
0.029792165 0.018518558 0.0343192 -0.03147555 -0.10454324 0.026407482 0.05194309 0.009854744
0.016498994 0.07925657 0.11608535 -0.067385845 -0.123036735 -0.053110886 -0.027017571 -0.20490883
0.07148409 0.103662595 0.06820826 0.056031823 0.008006017 0.02392438 0.022573695 0.13998578
-0.11467598 0.0662043 0.053680655 -0.0017227568 -0.0058988216 0.06592964 -0.02308846 -0.0007294524
-0.074276604 -0.02957672 -0.05936118 -0.016141554 -0.0075633065 -0.03322138 0.0068507753 -0.02426389
0.02037275 0.057255078 0.011364065 -0.034299336 0.02398246 -0.0035721331 -0.063095525 0.10218902
-0.05933633 -0.01096199 0.018229116 0.03809329 0.08936396 0.08339577 -0.07102091 -0.013598057
0.100802325 -0.032338962 -0.08510962 -0.15633021 0.012355595 -0.024957055 -0.002115442 0.050190285
-0.0029133228 -0.009031163 0.045290716 -0.0751633 0.016524035 -0.04172229 -0.03556899 0.0009258701
-0.037528224 -0.0039427937 -0.0338043 0.0059747067 0.10061123 0.07453846 0.06029088 -0.05048901
-0.018181825 -0.040804677 -0.17071725 -0.036638685 -0.052452832 -0.018875485 -0.029098945 -0.09016176
-0.105957076 -0.08598997 -0.05729867 0.008486676 0.12879764 0.1457304 -0.030436685 0.032825895
-0.015520381 -0.007501673 0.011947182 0.060092956 -0.01064594 -0.025741776 -0.032564607 -0.028209431
-0.090905696 -0.08516848 -0.0861071 0.03993582 -0.03161009 -0.010340924 -0.13353418 0.02185689
0.044530842 -0.07328229 -0.0067569204 -0.04912777 0.07215232 -0.007834871 0.013640673 0.14849308
0.03084769 0.002583565 -0.055456676 -0.06308282 0.0055817193 0.039896168 -0.034511413 -0.026935419
-0.045476075 0.046959944 -0.11077958 0.0038439445 0.048005037 -0.012290826 0.018424254 0.059523147
0.01777394 -0.0018729744 -0.030847762 -0.027536867 0.03042174 -0.0058763754 0.01042147 -0.15276282
0.009412262 -0.024278713 0.17256258 -0.0023797515 0.055386096 -0.032495983 0.029980544 -0.077764586
00000000: 942e 023d cf7b 76bd 6ae6 bf3d a73d ac3b
00000010: af1d 89bd c6d5 513d 43fb f63c 9180 993d
00000020: 6245 b63d 2454 1f3d 3280 933d 2392 68bd
00000030: 89a3 bebd fd0e e03c 5029 073d 8390 3c3d
00000040: eef8 9f3c f7fa 453c c5ae c8bb d357 343d
00000050: 6bfd 39bd cc05 b33d 148c 2abd 802a bbbd
00000060: 3280 a1bd a809 e1bd 3f14 a33d 326a a9bc
00000070: 9ecf e53d 206e 933c 32ab 173e fc5a 0dbe
00000080: 9fa7 cabd d8ce f5bc d12e a43c 6ed3 efbd
00000090: 0fac 883c 86f3 26be a8d6 e33d 1c06 28bd
000000a0: 8264 e6bb 0a24 e0bd 2517 d23d d22c a73d
000000b0: 71e0 0b3d 0bb3 0c3d d8dc 95bd 4159 bb3b
000000c0: b4ba 8ebd 357c 903d 3347 a8bc da69 06bd
000000d0: aafc d93d 6e2e bdbc 8b9d d93d 8b23 a43d
000000e0: a0b4 bf3c d921 c23c caa3 9bbc 18d3 3f3c
000000f0: dd7a 16bd 0ac6 8e3d c456 0b3d 1b36 ad3c
00000100: eb5b 7dbd c817 8f3d d794 62bd a0ea fdbc
00000110: 28b2 b33c 1077 ee3d 16f1 72bb 4af3 0d3c
00000120: bac9 9ebd ea6c f2bc 524c ad3c 14e5 be3d
00000130: b304 913c cf34 673d eaec 62bd 096e 54bd
00000140: 8fd9 22bd d58d 343c 8ba9 5d3c ff42 013d
00000150: dd9b b8bc 4a6e 823d 6dbd 083c d554 6fbd
00000160: 4511 f43c 1f19 053e af65 bd3c 6518 c1bb
00000170: b32f 0cbd 2bc8 8cbd c1f1 893d 3697 253a
00000180: 0a67 b7bd 97ef a93c 9a36 0abd 6339 9c3c
00000190: 01ea 673d 8572 d63d 3ae0 a13d bc2a bbbc
000001a0: b30e f43c 3bb4 973c 4a92 0c3d 82ec 00bd
000001b0: c41a d6bd 8154 d83c 47c2 543d cb75 213c
000001c0: e628 873c 4551 a23d 28be ed3d 9701 8abd
000001d0: affa fbbd cd8a 59bd f453 ddbc 9fd3 51be
000001e0: 4066 923d 0e4d d43d c6b0 8b3d a081 653d
000001f0: ab2b 033c 10fd c33c 78ec b83c 6f58 0f3e
00000200: 3ddb eabd 1f96 873d 3fe0 5b3d 20ce e1ba
00000210: e74a c1bb 1e06 873d 0324 bdbc b938 3fba
00000220: 551e 98bd e14a f2bc b524 73bd 4b3b 84bc
00000230: 9dd5 f7bb 2413 08bd 787c e03b 11c5 c6bc
00000240: c1e4 a63c 4d84 6a3d 5830 3a3c 767d 0cbd
00000250: dd76 c43c 731a 6abb 3a38 81bd 7a48 d13d
00000260: a70a 73bd eb99 33bc 3a55 953c b607 1c3d
00000270: 7404 b73d 67cb aa3d 6973 91bd 63ca 5ebc
00000280: 7371 ce3d dc75 04bd f44d aebd 0715 20be
00000290: 1f6f 4a3c bd72 ccbc 3aa3 0abb 5494 4d3d
000002a0: 72ed 3ebb 71f7 13bc c282 393d 37ef 99bd
000002b0: 6a5d 873c fee4 2abd cab0 11bd 17b6 723a
000002c0: 32b7 19bd 8d32 81bb 6176 0abd 79c7 c33b
000002d0: 430d ce3d 9fa7 983d 92f3 763d 90cd 4ebd
000002e0: 0df2 94bc ce22 27bd 81d0 2ebe 7212 16bd
000002f0: c8d8 56bd c3a0 9abc e960 eebc bba6 b8bd
00000300: 0600 d9bd 821b b0bd 03b2 6abd b30b 0b3c
00000310: 87e3 033e 5a3a 153e 5b56 f9bc 7274 063d
00000320: 3249 7ebc 98d0 f5bb 1dbe 433c 0824 763d
00000330: 4f6c 2ebc 6be0 d2bc 7762 05bd 7717 e7bc
00000340: c42c babd d06c aebd eb58 b0bd be93 233d
00000350: 9579 01bd fb6c 29bc 2fbd 08be 380d b33c
00000360: f965 363d 0615 96bd 2869 ddbb 333a 49bd
00000370: 98c4 933d d55d 00bc 217d 5f3c 920e 183e
00000380: 4bb4 fc3c 0751 293b 8a26 63bd 9131 81bd
00000390: dbe6 b63b 2a6a 233d d75b 0dbd aba7 dcbc
000003a0: 1f45 3abd 1259 403d 68e0 e2bd b0ea 7b3b
000003b0: eea0 443d 765f 49bc 76ee 963c 8bce 733d
000003c0: a79a 913c 987e f5ba 72b4 fcbc ff94 e1bc
000003d0: 0337 f93c 9c8e c0bb d0be 2a3c db6d 1cbe
000003e0: e335 1a3c 27e4 c6bc 3fb4 303e 9bf5 1bbb
000003f0: 88dc 623d 821a 05bd c299 f53c 0a43 9fbd

network_body._body_endoder.seq_layers.0.bias f4 [128]
-0.021210771 -0.03986372 -0.014408999 -0.103615984 -0.05783909 -0.015207494 -0.0624715 -0.031527687
-0.06046154 -0.054267466 -0.05102856 -0.027095085 -0.096847124 -0.00975033 -0.015866628 -0.08783396
-0.12437285 -0.056782953 -0.051642556 -0.0823039 0.0043758787 -0.005255109 -0.058650877 -0.0022419158
-0.032167494 -0.013187861 -0.09461799 -0.04283126 -0.046763223 -0.08754073 -0.06372884 -0.09265863
-0.030347018 -0.0216975 0.008587098 0.036669664 -0.05615569 0.03240907 -0.11343295 -0.0402616
0.038997706 -0.07449749 -0.05517888 -0.05146668 -0.055034008 -0.06431302 -0.13138665 -0.098027706
-0.027424129 -0.046754014 -0.023608614 -0.0025663634 -0.07419685 -0.0707378 -0.02095865 -0.0751486
-0.111326694 0.010818603 -0.020227479 0.014943129 0.010973625 -0.007857644 -0.06488141 -0.082291774
-0.055942144 0.024266664 -0.03168592 0.010696838 -0.040006787 -0.07467324 -0.036650293 -0.11081829
-0.07234144 0.00014160453 -0.011087018 -0.05146215 -0.022402314 -0.07275444 0.05944778 0.016896496
-0.028661113 -0.026472395 0.025592616 -0.12843648 -0.020940404 -0.03177902 -0.023745947 -0.047268458
-0.019339232 -0.026782945 -0.13100919 -0.040232968 -0.029684024 -0.0059610214 -0.009894313 -0.075247355
0.005513836 -0.0685624 -0.007699966 -0.03023365 -0.0064171 -0.015738579 0.020695683 -0.09054309
-0.058968842 -0.060108393 -0.08214241 -0.03641869 0.021644365 0.003854475 -0.08948117 -0.0028140806
-0.053395182 -0.011090571 -0.0130393645 -0.010581386 0.0582832 -0.057731472 -0.039431643 -0.12500645
0.0057160505 -0.063704245 -0.02772893 -0.06758538 -0.007962183 -0.038228936 -0.08175322 -0.046096414
00000000: 36c2 adbc 2448 23bd b913 6cbc 9e34 d4bd
00000010: aee8 6cbd da28 79bc 1ee2 7fbd 2d23 01bd
00000020: 85a6 77bd 9047 5ebd 5303 51bd 83f6 ddbc
00000030: c957 c6bd d9bf 1fbc bbfa 81bc 4be2 b3bd
00000040: 31b7 febd 3e95 68bd 2587 53bd f28e a8bd
00000050: 8863 8f3b 0d33 acbb e73b 70bd 1bed 12bb
00000060: 10c2 03bd e611 58bc 14c7 c1bd d56f 2fbd
00000070: cb8a 3fbd 8e48 b3bd 4484 82bd cfc3 bdbd
00000080: 4f9a f8bc f5be b1bc e6b0 0c3c ee32 163d
00000090: 8203 66bd 5fbf 043d 894f e8bd 59e9 24bd
000000a0: 0fbc 1f3d 2492 98bd 4003 62bd bace 52bd
000000b0: 576b 61bd 8bb6 83bd 398a 06be c0c2 c8bd
000000c0: 91a8 e0bc 2381 3fbd da66 c1bc 6f30 28bb
000000d0: 85f4 97bd fbde 90bd 7ab1 abbc 82e7 99bd
000000e0: 40ff e3bd 8340 313c 19b4 a5bc 07d4 743c
000000f0: b8ca 333c 59bd 00bc 8be0 84bd 9788 a8bd
00000100: 9723 65bd e2ca c63c 18c9 01bd ca41 2f3c
00000110: 28de 23bd 49ee 98bd 9e1e 16bd b3f4 e2bd
00000120: c027 94bd ad7b 1439 53a6 35bc fac9 52bd
00000130: 0f85 b7bc 4800 95bd 847f 733d 856a 8a3c
00000140: b6ca eabc a3dc d8bc 9ba7 d13c da84 03be
00000150: 368b abbc b82a 02bd dc86 c2bc 929c 41bd
00000160: 4f6d 9ebc e867 dbbc 4627 06be 53cb 24bd
00000170: e92b f3bc ac54 c3bb c21b 22bc 491b 9abd
00000180: 69ad b43b 726a 8cbd ff4f fcbb 8fac f7bc
00000190: 8946 d2bb 31ee 80bc fe89 a93c a86e b9bd
000001a0: 5089 71bd 3834 76bd 483a a8bd c42b 15bd
000001b0: 864f b13c 5c9b 7c3b e741 b7bd 706c 38bb
000001c0: e8b4 5abd 3ab5 35bc 0fa3 55bc 8d5d 2dbc
000001d0: 5dba 6e3d d677 6cbd 1383 21bd b101 00be
000001e0: b54d bb3b 5f77 82bd c827 e3bc 346a 8abd
000001f0: d173 02bc f295 1cbd 3b6e a7bd 98cf 3cbd

network_body._body_endoder.seq_layers.2.weight f4 [128, 128]
0.12415701 0.043128297 -0.031222379 0.16781345 -0.06561548 0.028647019 0.049800914 -0.052380543
-0.06437281 -0.095308445 -0.051022165 0.08909538 -0.05339842 -0.06123333 -0.010388061 -0.07343531
-0.1114666 -0.065667436 0.02560569 -0.013386839 -0.086248554 0.21916756 -0.11135614 0.039854515
-0.051507898 0.06593252 -0.026649406 -0.06593698 -0.0028994344 0.016926873 -0.005681643 -0.019442657
-0.18789513 -0.062921494 -0.097840935 -0.15778019 0.018893987 -0.07058645 0.025750054 -0.0035207525
-0.028136125 0.12063004 -0.047923885 -0.13265103 -0.094090775 0.042884026 -0.08785597 0.06740572
-0.11507939 0.0017874475 0.10154973 -0.08424381 -0.026969995 -0.068328954 -0.03104796 -0.022923665
0.061579566 -0.010099022 -0.06717908 -0.12942453 0.02294175 -0.057903223 0.12208668 -0.10184131
-0.007907948 -0.2564485 0.039836675 -0.12196655 -0.05647583 0.10228794 -0.051762648 -0.09704876
0.032950696 0.15038264 -0.17822972 -0.113861874 -0.04561711 0.13355248 0.055546846 -0.09575089
-0.034604073 -0.06476267 -0.005757919 -0.017014274 -0.021207456 0.054905333 -0.08055562 -0.11000237
0.09090668 -0.15614113 0.13264903 0.09478892 0.0841768 -0.2734927 -0.05180698 0.030509248
0.075898506 0.13283454 0.02544585 0.010544208 -0.117503785 -0.13189432 -0.012780246 0.093700655
-0.10772639 0.11625515 -0.113799766 -0.20787433 -0.08906914 0.08567281 -0.06631493 -0.16227923
0.117779575 -0.081428275 0.009387483 -0.12179692 -0.01691539 -0.017108085 -0.0055793743 0.049630694
-0.22558467 -0.17696764 -0.061711982 -0.18843506 -0.062977105 -0.09070237 0.02665595 0.048927322
-0.13811252 0.08365883 0.006890525 0.13362251 0.044455342 0.045457408 0.10451996 -0.0031891079
-0.15679538 -0.09344466 -0.12715861 -0.08996254 -0.0503941 -0.080197595 -0.023676436 0.03757607
0.029639805 -0.011295048 -0.12045775 0.08768375 0.028760832 -0.0106741395 0.032896407 -0.022756435
-0.13631874 -0.10339624 0.21754931 0.06629376 -0.04018028 0.10926784 0.019342426 -0.12689953
-0.05129335 -0.0055984347 0.090777755 0.059397563 -0.07692368 -0.06926137 -0.10890559 0.027148426
0.063289896 -0.090369575 -0.08518344 0.018689673 -0.0031839656 -0.059397597 0.00690935 -0.067623764
-0.12516837 0.12303653 -0.1480581 -0.17071654 0.049536854 -0.032281704 0.08778673 0.066220894
0.022170262 0.06545675 0.061604694 0.08256787 0.017353687 0.052263085 0.0071398546 0.02437006
0.062787525 -0.033817105 -0.11790488 -0.010166624 0.056777384 -0.08792125 -0.060267255 0.07539569
-0.041508213 0.10766132 0.042125266 0.11033065 0.048798364 0.008098289 -0.05467921 -0.030021224
0.06655756 -0.09584826 -0.14380567 0.0047085527 0.08013132 -0.08092794 -0.08972177 0.09282316
0.0650007 -0.02528263 0.12740475 -0.05847508 -0.033425447 0.011223749 -0.044331513 0.03691148
-0.12812984 -0.1569952 -0.097864926 -0.04132614 -0.11375841 -0.13738878 -0.057547655 -0.051057808
-0.12565319 -0.027113507 0.07345167 -0.035190456 0.09274477 -0.0114929145 0.14688659 0.07121623
-0.057768647 0.1523158 0.010955911 0.11149147 -0.07312283 0.15542732 -0.08471767 0.0070420513
-0.11773774 0.0284929 0.100113556 0.025804099 0.0015238078 -0.09953996 0.087120235 0.1482044
00000000: 0846 fe3d 4ca7 303d 13c6 ffbc 4ad7 2b3e
00000010: 6961 86bd 27ad ea3c 0bfc 4b3d fb8c 56bd
00000020: e4d5 83bd 1331 c3bd 9efc 50bd a377 b63d
00000030: 4db8 5abd cdcf 7abd b032 2abc 4065 96bd
00000040: 9a48 e4bd a67c 86bd 06c3 d13c 7954 5bbc
00000050: 15a3 b0bd 766d 603e b00e e4bd 7d3e 233d
00000060: f2f9 52bd a107 873d db4f dabc f809 87bd
00000070: 7004 3ebb 3aaa 8a3c 132d babb 3546 9fbc
00000080: 9567 40be fcdc 80bd d460 c8bd 2191 21be
00000090: 90c7 9a3c a18f 90bd c7f1 d23c 6dbc 66bb
000000a0: bb7d e6bc e20c f73d d64b 44bd acd5 07be
000000b0: aab2 c0bd 29a7 2f3d d5ed b3bd 030c 8a3d
000000c0: beae ebbd c948 ea3a 4ef9 cf3d 0588 acbd
000000d0: 2ef0 dcbc 0df0 8bbd 4b58 febc 69ca bbbc
000000e0: db3a 7c3d 5e76 25bc 2f95 89bd dd87 04be
000000f0: 56f0 bb3c ee2b 6dbd 9508 fa3d 2d92 d0bd
00000100: 5790 01bc 384d 83be c82b 233d 99c9 f9bd
00000110: 3353 67bd 577c d13d 1205 54bd 80c1 c6bd
00000120: 4ff7 063d e8fd 193e da81 36be 6a30 e9bd
00000130: 02d9 3abd fbc1 083e 1785 633d 0b19 c4bd
00000140: 00bd 0dbd 4aa2 84bd edac bcbb 8561 8bbc
00000150: 42bb adbc 6ae4 603d 58fa a4bd ec48 e1bd
00000160: 482d ba3d 76e3 1fbe 26d5 073e b120 c23d
00000170: e364 ac3d 3c07 8cbe 8e33 54bd 88ee f93c
00000180: ad70 9b3d c705 083e d173 d03c 9dc1 2c3c
00000190: d3a5 f0bd 4e0f 07be 3d64 51bc 21e6 bf3d
000001a0: a79f dcbd 2e17 ee3d da0f e9bd 02dd 54be
000001b0: e269 b6bd 3a75 af3d 1fd0 87bd 872c 26be
000001c0: 6b36 f13d dec3 a6bd f5cd 193c aa70 f9bd
000001d0: 2592 8abc 4126 8cbc 2fd3 b6bb 8e49 4b3d
000001e0: abff 66be 0137 35be b4c5 7cbd 1ff5 40be
000001f0: 24fa 80bd 2ac2 b9bd 945d da3c 0468 483d
00000200: 5e6d 0dbe 5255 ab3d eac9 e13b 57d4 083e
00000210: ce16 363d 8c31 3a3d 900e d63d 5a00 51bb
00000220: f88e 20be ea5f bfbd de35 02be 483e b8bd
00000230: 0b6a 4ebd a33e a4bd 16f5 c1bc 5de9 193d
00000240: 2dcf f23c dd0e 39bc 8eb2 f6bd 8a93 b33d
00000250: d69b eb3c 96e2 2ebc 62be 063d b46b babc
00000260: 2497 0bbe 68c1 d3bd 3fc5 5e3e 06c5 873d
00000270: 1494 24bd d1c7 df3d 0274 9e3c f3f1 01be
00000280: fa18 52bd 1373 b7bb b0e9 b93d dc4a 733d
00000290: 2a8a 9dbd e8d8 8dbd e509 dfbd 6066 de3c
000002a0: 229e 813d af13 b9bd a874 aebd 161b 993c
000002b0: 14aa 50bb e54a 73bd d467 e23b 547e 8abd
000002c0: 232c 00be 94fa fb3d 8b9c 17be 51d0 2ebe
000002d0: 28e7 4a3d d239 04bd 87c9 b33d d29e 873d
000002e0: 699e b53c 300e 863d 3455 7c3d 5819 a93d
000002f0: 5229 8e3c d111 563d 71f5 e93b b8a3 c73c
00000300: bf96 803d ce83 0abd 1d78 f1bd e991 26bc
00000310: 678f 683d 0e10 b4bd ccda 76bd 0e69 9a3d
00000320: 8404 2abd 8a7d dc3d 8b8b 2c3d 09f5 e13d
00000330: cbe0 473d b0ae 043c 4ff7 5fbd 12ef f5bc
00000340: 544f 883d 184c c4bd cb41 13be 344a 9a3b
00000350: e41b a43d 8cbd a5bd 0cc0 b7bd 121a be3d
00000360: 161f 853d 851d cfbc 6476 023e 9183 6fbd
00000370: 1fe9 08bd d1e3 373c f694 35bd 7e30 173d
00000380: 7834 03be 5ac3 20be 686d c8bd 9945 29bd
00000390: 2bfa e8bd a5af 0cbe 17b7 6bbd fe21 51bd
000003a0: 3bab 00be 251d debc d46d 963d de23 10bd
000003b0: f8f0 bd3d c74c 3cbc 7069 163e d1d9 913d
000003c0: d19e 6cbd acf8 1b3e 6c80 333c a455 e43d
000003d0: 6cc1 95bd 5728 1f3e 7580 adbd 02c1 e63b
000003e0: 7c20 f1bd f169 e93c 5608 cd3d 1e63 d33c
000003f0: 81ba c73a 9bdb cbbd 186c b23d e5c2 173e

network_body._body_endoder.seq_layers.2.bias f4 [128]
-0.08175906 -0.041468915 -0.0375679 -0.013338745 0.01569171 -0.0643256 -0.07334331 -0.02068917
-0.081383765 0.020920023 0.04659845 -0.03931952 -0.11016968 -0.08585769 -0.053387713 -0.029356731
-0.04907707 0.005484506 -0.074593805 0.008279372 -0.007039747 -0.08925462 -0.054229196 -0.053767003
-0.016485976 0.0016169917 -0.06905517 -0.02408898 -0.07463989 -0.11192537 -0.044594362 -0.035547085
-0.03503828 -0.09000408 -0.023743642 0.019563504 -0.100636765 -0.011092346 -0.028098932 -0.106806315
-0.02493865 -0.0738406 0.024824444 -0.019504897 -0.058591127 -0.02126439 -0.086829685 -0.07258326
-0.09620338 -0.08352369 -0.022357337 -0.030491132 -0.0771556 -0.06612974 0.031637326 -0.09565055
-0.098365545 -0.026962178 -0.06096557 -0.07931658 -0.023485519 -0.032835066 0.042646583 -0.06060302
-0.05020748 -0.022752928 -0.06273324 -0.022142265 -0.05796525 -0.0755123 -0.051822294 -0.028508464
-0.029659877 -0.031116452 -0.03359863 0.019182788 -0.011046304 -0.06209984 0.0031168407 -0.0944678
-0.11297228 -0.051167298 -0.059012502 -0.006213737 -0.038802233 -0.12781304 0.00538477 -0.0313701
-0.07848559 0.016373418 -0.028789537 -0.062359955 -0.12113203 -0.094734356 -0.046890672 -0.070225626
-0.017123576 -0.043781724 -0.0846743 0.024043545 -0.0898994 -0.061872277 -0.048482105 -0.072972275
-0.06956901 -0.017617388 -0.07444293 -0.020822719 -0.07243524 -0.00054744247 -0.071095645 -0.053196028
-0.07511477 -0.016884046 -0.031569693 -0.08955562 -0.067496605 -0.06314757 -0.009188404 -0.055368423
-0.027857518 -0.09564137 -0.040245745 -0.05969129 -0.10786999 -0.017457532 -0.08441053 -0.060792338
00000000: 4b71 a7bd 4fdb 29bd cce0 19bd c08a 5abc
00000010: e78b 803c 24bd 83bd 0435 96bd 567c a9bc
00000020: 88ac a6bd 7860 ab3c 04de 3e3d 810d 21bd
00000030: a4a0 e1bd 28d6 afbd 13ad 5abd 877d f0bc
00000040: 0a05 49bd 5fb7 b33b a3c4 98bd 34a6 073c
00000050: aead e6bb 20cb b6bd 6f1f 5ebd ca3a 5cbd
00000060: 990d 87bc 3df1 d33a cc6c 8dbd 4156 c5bc
00000070: ccdc 98bd 2139 e5bd 94a8 36bd d299 11bd
00000080: 4d84 0fbd 0f54 b8bd 0782 c2bc a443 a03c
00000090: a61a cebd acbc 35bc bb2f e6bc 45bd dabd
000000a0: 244c ccbc be39 97bd a25c cb3c bcc8 9fbc
000000b0: 40fd 6fbd a832 aebc c3d3 b1bd 88a6 94bd
000000c0: 4706 c5bd 780e abbd bc26 b7bc 8ac8 f9bc
000000d0: c103 9ebd 076f 87bd 2496 013d 70e4 c3bd
000000e0: e073 c9bd c9df dcbc 09b7 79bd bb70 a2bd
000000f0: b464 c0bc 107e 06bd 2fae 2e3d df3a 78bd
00000100: 5ca6 4dbd 5964 babc 497a 80bd b263 b5bc
00000110: f86c 6dbd 31a6 9abd 9d43 54bd 958a e9bc
00000120: 45f9 f2bc eee7 febc b89e 09bd 3925 9d3c
00000130: 8ffb 34bc 675c 7ebd e943 4c3b 5578 c1bd
00000140: 035e e7bd cd94 51bd 18b7 71bd 9b9c cbbb
00000150: 17ef 1ebd 6ce1 02be ba72 b03b ef7d 00bd
00000160: 0ebd a0bd 8c21 863c 09d8 ebbc 276d 7fbd
00000170: 1214 f8bd 1604 c2bd 6f10 40bd 74d2 8fbd
00000180: be46 8cbc 7754 33bd b869 adbd f8f6 c43c
00000190: 2d1d b8bd c96d 7dbd 2c95 46bd 7d72 95bd
000001a0: 327a 8ebd 5752 90bc 8975 98bd 6894 aabc
000001b0: ed58 94bd 3e82 0fba 989a 91bd 14e4 59bd
000001c0: c6d5 99bd 6950 8abc 394f 01bd f068 b7bd
000001d0: a93b 8abd 8353 81bd f68a 16bc 00ca 62bd
000001e0: 7335 e4bc 9fdf c3bd b9d8 24bd db7e 74bd
000001f0: f1ea dcbd 1903 8fbc 6edf acbd 6301 79bd

action_model._continuous_distribution.log_sigma f4 [1, 2]
0.06906578 0.07356459
00000000: 5c72 8d3d 08a9 963d

action_model._continuous_distribution.mu.weight f4 [2, 128]
-0.020160008 -0.008073986 -0.0010719609 0.0025188443 0.010822811 -0.004473745 -0.012236387 -0.0123405885
0.0018371507 0.01215019 0.028430901 -0.013030185 -0.0036420391 -0.030630039 -0.006067238 -0.0018711484
-0.004439551 0.028305948 0.0031209253 0.019448223 0.0013323177 -0.0014871814 -0.004870806 0.00841265
0.0037847096 0.0025699392 -0.004282857 0.0030250456 -0.024404569 0.0060776565 -0.0013079394 0.021329472
-0.0055979616 -0.0062035793 -0.0035269693 0.035786524 -0.022031728 0.015428072 -0.0033762392 -0.011449615
0.0022540493 -0.018185403 0.022000045 0.00050619175 -0.018461304 0.003377851 -0.0021071027 0.003409872
-0.023193033 -0.0073542884 0.0022099984 -0.006839039 -0.0013704142 -0.0047674743 0.008641627 -0.0071958783
-0.025001628 -0.009945842 0.0027574694 -0.024470733 -0.0029596426 -0.0033954135 0.030674187 -0.005427943
-0.0051968913 -0.0016876416 0.00634251 0.011272462 -0.006460884 -0.024269091 2.2364973e-05 0.0069506345
0.001995641 0.010831374 0.0025119954 0.022311546 -0.006305641 -0.009132718 0.01693821 -0.017651903
-0.025420945 -0.0030852505 -0.0016764489 0.019378707 0.010362605 0.0073327203 0.023970883 0.016335526
-0.0010531961 -0.0034128453 0.010089232 0.0016898267 -0.0019977894 -0.029263781 -0.02056713 0.0027479099
0.004178734 0.0006592863 -0.021231491 0.015543569 -0.03437876 0.015133074 -0.0021151977 -0.003115675
-0.02796386 0.0020165683 -0.025934635 -0.0032983418 0.0065895966 -0.004786354 -0.021835351 -0.0024180699
-0.01755824 0.013345299 0.014518366 -0.032615725 0.0015581631 -0.018340113 0.0041798507 0.004722172
0.00088400574 -0.02684264 -0.00012859284 0.0015258967 -0.011890584 0.023603661 -1.0146701e-06 0.002447585
-0.0030454763 -0.0020296383 0.016919237 -0.0037556263 0.008209584 -0.0020984125 -0.019051857 -0.00452204
0.014097309 0.020992475 0.011436945 0.0021630735 -0.0080423625 -0.008488373 -0.00020658378 -0.0016787442
0.0056989626 0.011945725 0.004745314 -0.00058426656 -0.00083810376 -0.00622509 -0.00033188338 -0.048926882
0.00090242043 -0.0043282397 0.0039117113 0.0023094274 -0.0015532885 -0.00496776 -0.008430578 -0.0060197697
-0.00042685127 -0.006611432 -0.0001666803 0.020328436 -0.005723447 0.0043012486 -0.011186295 0.0010066641
-0.022333132 0.009663328 0.026691366 -0.005918699 -0.014074953 0.0010747233 -0.010322021 -0.014455784
-0.00041323 0.00020745411 -0.005009613 -0.0036642433 0.0011195358 0.009766992 0.018061358 -0.014583368
-0.007959903 0.011017512 -6.4291125e-05 0.018690126 -0.016746996 0.0024194394 0.03844392 0.002167805
-0.0013410114 -0.0011950026 -0.013401059 -0.002304592 0.0033608053 0.0048044906 -0.008058169 -0.01905175
0.0024313158 0.0022045453 0.005120695 -0.002215989 0.012880546 0.018878488 0.0016963573 -0.002043108
0.002421174 0.008793456 -0.004164231 0.0072499136 -0.026648946 -0.011278641 0.010541291 -0.005007499
-0.0060533104 0.0026253122 0.016875941 -0.0063017607 0.0031179844 -0.033083454 -0.028498841 -0.0085365465
-0.007279318 -0.027966648 -0.0016976129 0.006973688 -0.024833968 -0.042100642 -0.0012857975 -0.0019245124
0.01275796 0.0072142826 -0.033093154 5.9480553e-05 -0.0046916073 -0.008230313 -0.007827264 -0.006459529
-0.013726896 -0.004003609 -0.0040230723 -0.004986569 0.0037104723 0.0077009653 0.009499026 -0.009236687
0.0008007305 -0.012239504 -0.0033241736 -0.00093131774 0.00280608 -0.02884526 -0.003745426 -0.0015191605
00000000: 9a26 a5bc c048 04bc 0a81 8cba 3213 253b
00000010: 2952 313c 7e98 92bb 207b 48bc 2e30 4abc
00000020: 8ccc f03a 9711 473c ece7 e83c 8f7c 55bc
00000030: 47af 6ebb d9eb fabc aecf c6bb 5241 f5ba
00000040: a779 91bb e0e1 e73c 7088 4c3b e151 9f3c
00000050: 2aa1 ae3a 87ed c2ba 489b 9fbb 36d5 093c
00000060: e408 783b 6d6c 283b 3557 8cbb d83f 463b
00000070: 17ec c7bc 1427 c73b 2a6f abba 25bb ae3c
00000080: 1b6f b7bb 6547 cbbb ba24 67bb e494 123d
00000090: e27b b4bc 06c6 7c3c e543 5dbb 2a97 3bbc
000000a0: acb8 133b 8ef9 94bc 7039 b43c f4b1 043a
000000b0: 293c 97bc f05e 5d3b 5117 0abb 2978 5f3b
000000c0: 51ff bdbc 3efc f0bb 9fd5 103b 041a e0bb
000000d0: 789f b3ba 7938 9cbb 9c95 0d3c 67cb ebbb
000000e0: 37d0 ccbc e3f3 22bc a9b6 343b d976 c8bc
000000f0: 90f6 41bb 9685 5ebb 6f48 fb3c e3dc b1bb
00000100: af4a aabb db33 ddba d5d4 cf3b 22b0 383c
00000110: d3b5 d3bb f9cf c6bc 6a9c bb37 26c2 e33b
00000120: 4dc9 023b 1376 313c 4aa0 243b b4c6 b63c
00000130: 8d9f cebb 65a1 15bc 00c2 8a3c b99a 90bc
00000140: 963f d0bc ea31 4abb 4abc dbba 18c0 9e3c
00000150: eac7 293c 5147 f03b 965e c43c 15d2 853c
00000160: 660b 8aba 0baa 5fbb 4e4d 253c 2d7d dd3a
00000170: 58ed 02bb 99ba efbc 667c a8bc 4716 343b
00000180: c3ed 883b f4d3 2c3a aaed adbc 74aa 7e3c
00000190: bed0 0cbd b6f0 773c 219f 0abb 5a30 4cbb
000001a0: 7714 e5bc 6728 043b df74 d4bc fe28 58bb
000001b0: 8bed d73b d9d6 9cbb 0de0 b2bc 7b78 1ebb
000001c0: 4cd6 8fbc 3ea6 5a3c 71de 6d3c 1198 05bd
000001d0: 473b cc3a 013e 96bc 21f7 883b 73bc 9a3b
000001e0: 9fbc 673a 19e5 dbbc e1d6 06b9 9900 c83a
000001f0: b9d0 42bc 775c c13c cd2f 88b5 aa67 203b
00000200: 9d96 47bb ae03 05bb 369a 8a3c f420 76bb
00000210: 7e81 063c 8585 09bb a412 9cbc 9f2d 94bb
00000220: 66f8 663c 69f8 ab3c 0662 3b3c 5ac2 0d3b
00000230: 1dc4 03bc d112 0bbc 699e 58b9 4f09 dcba
00000240: 5dbe ba3b 01b8 433c 947e 9b3b 7729 19ba
00000250: 31b4 5bba d7fb cbbb a200 aeb9 8e67 48bd
00000260: 6990 6c3a e8d3 8dbb d02d 803b c359 173b
00000270: b797 cbba 97c8 a2bb 6820 0abc 7d41 c5bb
00000280: 02cb dfb9 b6a4 d8bb e7c6 2eb9 d287 a63c
00000290: c18b bbbb 7df1 8c3b b946 37bc 0bf2 833a
000002a0: f9f3 b6bc ef52 1e3c daa7 da3c a5f1 c1bb
000002b0: a29a 66bc bbdd 8c3a b21d 29bc f4d7 6cbc
000002c0: cba6 d8b9 0a88 5939 ae27 a4bb cd23 70bb
000002d0: 63bd 923a bc05 203c 6af5 933c 14ef 6ebc
000002e0: 416a 02bc cb82 343c 09d4 86b8 091c 993c
000002f0: ff30 89bc 758f 1e3b 5f77 1d3d bc11 0e3b
00000300: e0c4 afba a2a1 9cba 1e90 5bbc a308 17bb
00000310: f540 5c3b fd6e 9d3b 6906 04bc 6a12 9cbc
00000320: b656 1f3b 227a 103b 81cb a73b 203a 11bb
00000330: ed08 533c 0fa7 9a3c 4e58 de3a aae5 05bb
00000340: 8fac 1e3b 6d12 103c 1a74 88bb af90 ed3b
00000350: e44e dabc 0dca 38bc 61b5 2c3c f215 a4bb
00000360: d95a c6bb 6e0d 2c3b 6a3f 8a3c 007f cebb
00000370: 1957 4c3b 8482 07bd 6776 e9bc dfdc 0bbc
00000380: 5887 eebb 501a e5bc 7082 deba 8983 e43b
00000390: 9b70 cbbc b971 2cbd 3488 a8ba ec3f fcba
000003a0: c306 513c ca65 ec3b b08c 07bd c27a 7938
000003b0: 0ebc 99bb 6fd8 06bc ed3d 00bc 75aa d3bb
000003c0: c6e6 60bc b530 83bb fad3 83bb 5f66 a3bb
000003d0: 652b 733b 6158 fc3b cea1 1b3c 7955 17bc
000003e0: 1de8 513a 3388 48bc 61da 59bb ad23 74ba
000003f0: 36e6 373b e54c ecbc d275 75bb 911e c7ba

action_model._continuous_distribution.mu.bias f4 [2]
0.059634984 0.05737543
00000000: d043 743d 8002 6b3d

56 f4 [312]
0.29292178 0.070523016 0.00070742326 0.00070742326 0.30171117 0.2449254 0.302727 0.07227809
0.00070742326 0.00070742326 0.31140637 0.24236998 0.33897692 0.06636564 0.00070742326 0.00070742326
0.34529272 0.27499565 0.43762633 0.07130194 0.00070742326 0.00070742326 0.44121602 0.29277447
0.46354285 0.058564004 0.00070742326 0.00070742326 0.4655114 0.32210994 0.47935683 0.06838227
0.00070742326 0.00070742326 0.47747365 0.31270567 0.4576411 0.04825085 0.00070742326 0.00070742326
0.45593327 0.30687436 0.30239725 0.04459608 0.00070742326 0.00070742326 0.2977382 0.22882542
0.28359637 0.035243 0.00070742326 0.00070742326 0.2795666 0.22199796 0.31409922 0.19977953
0.00070742326 0.00070742326 0.25144404 0.19831516 0.34032562 0.17544855 0.00070742326 0.00070742326
0.3005332 0.22163531 0.43368608 0.40094095 0.00070742326 0.00070742326 0.4978737 0.35266098
0.4250765 0.39816284 0.00070742326 0.00070742326 0.49586192 0.3550435 0.29299796 0.07053004
0.00070742326 0.00070742326 0.3011224 0.24412704 0.30281124 0.072284944 0.00070742326 0.00070742326
0.31085795 0.24156715 0.33905554 0.06636937 0.00070742326 0.00070742326 0.34484413 0.27434152
0.4377042 0.07131583 0.00070742326 0.00070742326 0.44102484 0.29225722 0.46360365 0.05856824
0.00070742326 0.00070742326 0.46537402 0.32169738 0.47926033 0.06840038 0.00070742326 0.00070742326
0.4775273 0.31249598 0.45748758 0.048256006 0.00070742326 0.00070742326 0.45600218 0.3066916
0.30181053 0.04461285 0.00070742326 0.00070742326 0.29781178 0.2286625 0.28293112 0.03525716
0.00070742326 0.00070742326 0.2796296 0.22183251 0.31354982 0.19983125 0.00070742326 0.00070742326
0.25150502 0.19812402 0.3398559 0.17549524 0.00070742326 0.00070742326 0.30059648 0.22145514
0.43375283 0.40101555 0.00070742326 0.00070742326 0.49784705 0.3524138 0.42514655 0.39824003
0.00070742326 0.00070742326 0.4958244 0.35479 0.29307124 0.07053706 0.00070742326 0.00070742326
0.3005291 0.2433281 0.3029007 0.072295226 0.00070742326 0.00070742326 0.31031367 0.24077024
0.33913156 0.0663731 0.00070742326 0.00070742326 0.34439138 0.27368677 0.43778616 0.07132624
0.00070742326 0.00070742326 0.44083765 0.29174292 0.46366313 0.058572482 0.00070742326 0.00070742326
0.46523523 0.3212852 0.4791639 0.06841123 0.00070742326 0.00070742326 0.47758186 0.31228787
0.4573311 0.04826632 0.00070742326 0.00070742326 0.45606726 0.30650702 0.3012179 0.044624023
0.00070742326 0.00070742326 0.2978818 0.22849643 0.28226563 0.035264235 0.00070742326 0.00070742326
0.27969554 0.22166926 0.31299472 0.19987145 0.00070742326 0.00070742326 0.25156868 0.19793543
0.33938226 0.1755366 0.00070742326 0.00070742326 0.30065888 0.2212765 0.4338197 0.40109026
0.00070742326 0.00070742326 0.49782065 0.35216713 0.42521328 0.39831898 0.00070742326 0.00070742326
0.4957869 0.3545362 0.29314175 0.07054409 0.00070742326 0.00070742326 0.29993147 0.24252072
0.30298087 0.07230208 0.00070742326 0.00070742326 0.3097584 0.23996226 0.33919385 0.06638059
0.00070742326 0.00070742326 0.3439251 0.27301908 0.43786648 0.07133667 0.00070742326 0.00070742326
00000000: d8f9 953e 5f6e 903d 5f72 393a 5f72 393a
00000010: e379 9a3e b9cd 7a3e 09ff 9a3e 8906 943d
00000020: 5f72 393a 5f72 393a a870 9f3e d62f 783e
00000030: 628e ad3e b5ea 873d 5f72 393a 5f72 393a
00000040: 35ca b03e 3bcc 8c3e 8f10 e03e c006 923d
00000050: 5f72 393a 5f72 393a 11e7 e13e 89e6 953e
00000060: 7d55 ed3e cfe0 6f3d 5f72 393a 5f72 393a
00000070: 8357 ee3e 98eb a43e 426e f53e 010c 8c3d
00000080: 5f72 393a 5f72 393a 6d77 f43e f51a a03e
00000090: ef4f ea3e afa2 453d 5f72 393a 5f72 393a
000000a0: 1670 e93e a31e 9d3e d0d3 9a3e 61aa 363d
000000b0: 5f72 393a 5f72 393a 2471 983e 3651 6a3e
000000c0: 8b33 913e f75a 103d 5f72 393a 5f72 393a
000000d0: 5a23 8f3e 6f53 633e 9dd1 a03e 0193 4c3e
000000e0: 5f72 393a 5f72 393a 46bd 803e 2113 4b3e
000000f0: 293f ae3e c9a8 333e 5f72 393a 5f72 393a
00000100: 7ddf 993e 5ef4 623e 1a0c de3e 2248 cd3e
00000110: 5f72 393a 5f72 393a 4de9 fe3e fb8f b43e
00000120: a1a3 d93e 00dc cb3e 5f72 393a 5f72 393a
00000130: 9de1 fd3e 43c8 b53e d403 963e 0e72 903d
00000140: 5f72 393a 5f72 393a b72c 9a3e 70fc 793e
00000150: 130a 9b3e 210a 943d 5f72 393a 5f72 393a
00000160: c628 9f3e 615d 773e b098 ad3e aaec 873d
00000170: 5f72 393a 5f72 393a 698f b03e 7e76 8c3e
00000180: c41a e03e 090e 923d 5f72 393a 5f72 393a
00000190: 02ce e13e bda2 953e 755d ed3e 40e5 6f3d
000001a0: 5f72 393a 5f72 393a 8145 ee3e 85b5 a43e
000001b0: 9c61 f53e 8015 8c3d 5f72 393a 5f72 393a
000001c0: 757e f43e 79ff 9f3e d03b ea3e 17a8 453d
000001d0: 5f72 393a 5f72 393a 1e79 e93e ae06 9d3e
000001e0: e986 9a3e f7bb 363d 5f72 393a 5f72 393a
000001f0: c97a 983e 8126 6a3e 59dc 903e d069 103d
00000200: 5f72 393a 5f72 393a 9c2b 8f3e 1028 633e
00000210: 9a89 a03e 90a0 4c3e 5f72 393a 5f72 393a
00000220: 44c5 803e 06e1 4a3e 9801 ae3e 06b5 333e
00000230: 5f72 393a 5f72 393a c8e7 993e 23c5 623e
00000240: da14 de3e e951 cd3e 5f72 393a 5f72 393a
00000250: cfe5 fe3e 956f b43e cfac d93e 1ee6 cb3e
00000260: 5f72 393a 5f72 393a b2dc fd3e 09a7 b53e
00000270: 6f0d 963e bc75 903d 5f72 393a 5f72 393a
00000280: f3de 993e 002b 793e cd15 9b3e 850f 943d
00000290: 5f72 393a 5f72 393a 6fe1 9e3e 798c 763e
000002a0: a7a2 ad3e 9fee 873d 5f72 393a 5f72 393a
000002b0: 1154 b03e ac20 8c3e 8225 e03e 7e13 923d
000002c0: 5f72 393a 5f72 393a 79b5 e13e 545f 953e
000002d0: 4165 ed3e b3e9 6f3d 5f72 393a 5f72 393a
000002e0: 5033 ee3e 7e7f a43e f854 f53e 301b 8c3d
000002f0: 5f72 393a 5f72 393a 9c85 f43e 32e4 9f3e
00000300: 4d27 ea3e e8b2 453d 5f72 393a 5f72 393a
00000310: a681 e93e 7dee 9c3e 3c39 9a3e aec7 363d
00000320: 5f72 393a 5f72 393a f783 983e f8fa 693e
00000330: 1f85 903e 3b71 103d 5f72 393a 5f72 393a
00000340: 4134 8f3e 44fd 623e d840 a03e 1aab 4c3e
00000350: 5f72 393a 5f72 393a 9ccd 803e 96af 4a3e
00000360: 83c3 ad3e debf 333e 5f72 393a 5f72 393a
00000370: f6ef 993e 4f96 623e 9e1d de3e b45b cd3e
00000380: 5f72 393a 5f72 393a 59e2 fe3e 404f b43e
00000390: 8eb5 d93e 77f0 cb3e 5f72 393a 5f72 393a
000003a0: c8d7 fd3e c585 b53e ad16 963e 6b79 903d
000003b0: 5f72 393a 5f72 393a 9e90 993e 5a57 783e
000003c0: 4f20 9b3e 1d13 943d 5f72 393a 5f72 393a
000003d0: a798 9e3e abb8 753e d1aa ad3e 8cf2 873d
000003e0: 5f72 393a 5f72 393a f316 b03e 28c9 8b3e
000003f0: 0930 e03e f618 923d 5f72 393a 5f72 393a

59 f4 [88]
30.744272 13.4888315 53.83045 47.60897 13.198014 48.914593 0.03727704 0.30323333
0.023070462 0.1377778 13.328035 0.00070742326 0.00070742326 0.524231 61.024662 13.07511
39.765327 25.645086 0.42304972 0.071141884 0.42697826 0.09171164 29.716093 11.260033
53.838844 46.999763 10.919109 48.909275 0.037257135 0.30332094 0.023076622 0.13626954
13.308189 0.00070742326 0.00070742326 0.5221587 60.722633 10.759045 39.695297 25.574535
0.4231605 0.071089625 0.42681968 0.08921605 28.649965 8.460061 53.84719 46.382103
8.013171 48.903934 0.03723569 0.30340907 0.023082536 0.13474402 13.2881775 0.00070742326
0.00070742326 0.52007455 60.418858 7.7781725 39.62505 25.50365 0.4232705 0.07103422
0.42666322 0.08664615 27.541552 4.03749 53.855556 45.75524 3.0231595 48.89838
0.0372174 0.30349803 0.02308849 0.13320014 13.268242 0.00070742326 0.00070742326 0.5179795
60.11319 2.2775898 39.554607 25.432236 0.4233812 0.07098463 0.42650786 0.08399465
00000000: 45f4 f541 41d2 5741 6152 5742 966f 3e42
00000010: 112b 5341 8ba8 4342 cfaf 183d 6641 9b3e
00000020: 44fe bc3c a015 0d3e a23f 5541 5f72 393a
00000030: 5f72 393a 0134 063f 4119 7442 a733 5141
00000040: b20f 1f42 2329 cd41 f999 d83e d6b2 913d
00000050: e59c da3e 50d3 bb3d 8fba ed41 1829 3441
00000060: fa5a 5742 c2ff 3b42 acb4 2e41 19a3 4342
00000070: f09a 183d e24c 9b3e 2f0b bd3c 3e8a 0b3e
00000080: 58ee 5441 5f72 393a 5f72 393a 31ac 053f
00000090: fae3 7242 0c25 2c41 fcc7 1e42 a698 cc41
000000a0: 7ea8 d83e 7097 913d 1c88 da3e e8b6 b63d
000000b0: 2133 e541 695c 0741 8663 5742 4687 3942
000000c0: f335 0041 a19d 4342 7384 183d 6f58 9b3e
000000d0: 9617 bd3c 56fa 093e 609c 5441 5f72 393a
000000e0: 5f72 393a 9b23 053f e9ac 7142 cae6 f840
000000f0: 0d80 1e42 7a07 cc41 e9b6 d83e 647a 913d
00000100: 9a73 da3e 8973 b13d 1955 dc41 1e33 8140
00000110: 176c 5742 5e05 3742 727b 4140 f197 4342
00000120: 4671 183d 1864 9b3e 1324 bd3c 9e65 083e
00000130: b84a 5441 5f72 393a 5f72 393a 4e9a 043f
00000140: e873 7042 08c4 1140 eb37 1e42 3875 cb41
00000150: 6cc5 d83e 6460 913d 3d5f da3e 6305 ac3d
