results/ppo2/AI Car/AI Car-4498317.onnx (onnx, 277974 bytes, 11 tensors)

network_body.observation_encoder.processors.0.normalizer.running_mean f4 [312]
0.08659591 0.005590755 0.0 0.0 0.8983166 0.9161767 0.121028416 0.005563858
0.0 0.0 0.86391246 0.89170104 0.09645531 0.0051763863 0.0 0.0
0.88887304 0.9121547 0.28692853 0.005081011 0.0 0.0 0.69849443 0.7962711
0.24741575 0.0042880503 0.0 0.0 0.73880047 0.8317841 0.68916357 0.004080855
0.0 0.0 0.29725933 0.5563376 0.6461374 0.0033810413 0.0 0.0
0.34098524 0.5965901 0.9276982 0.0019244966 0.0 0.0 0.06088093 0.41988346
0.9010585 0.0021385772 0.0 0.0 0.08730765 0.4586795 0.9047596 0.029460525
0.0 0.0 0.056283094 0.42588508 0.86920285 0.037310645 0.0 0.0
0.083990656 0.45301315 0.22939771 0.1924461 0.0 0.0 0.5686603 0.69923997
0.23226517 0.19343437 0.0 0.0 0.56480426 0.69483477 0.08688431 0.0056032054
0.0 0.0 0.90118015 0.9190986 0.1213763 0.005575197 0.0 0.0
0.86671716 0.894588 0.09682615 0.005190829 0.0 0.0 0.8916509 0.9150223
0.28781372 0.005093456 0.0 0.0 0.7007609 0.7988607 0.24835867 0.004300943
0.0 0.0 0.7410078 0.8343517 0.69129735 0.0040937485 0.0 0.0
0.29827824 0.5581626 0.648254 0.0033928242 0.0 0.0 0.34202152 0.5984596
0.93060464 0.0019296118 0.0 0.0 0.06113352 0.42126405 0.9039101 0.0021452485
0.0 0.0 0.08761202 0.46013942 0.9076167 0.029606182 0.0 0.0
0.056444842 0.4272301 0.8719515 0.03744024 0.0 0.0 0.08427667 0.4544612
0.23012103 0.19317925 0.0 0.0 0.5703665 0.7013856 0.23291917 0.19416478
0.0 0.0 0.5665841 0.69702214 0.087175794 0.0056165475 0.0 0.0
0.9040397 0.9220167 0.1217317 0.005585197 0.0 0.0 0.8695142 0.8974689
0.097202115 0.0052041686 0.0 0.0 0.89442563 0.9178843 0.2887038 0.005104132
0.0 0.0 0.7030243 0.80145 0.24930277 0.004313394 0.0 0.0
0.743216 0.836918 0.6934143 0.0041035386 0.0 0.0 0.29931378 0.55999684
0.6503862 0.0034021605 0.0 0.0 0.34304345 0.6003226 0.9335118 0.0019331652
0.0 0.0 0.061386567 0.4226402 0.90676916 0.002149693 0.0 0.0
0.08791325 0.46159583 0.91048056 0.029745962 0.0 0.0 0.05660563 0.42857468
0.87469965 0.037565127 0.0 0.0 0.08456693 0.45591262 0.23085824 0.19391146
0.0 0.0 0.57206184 0.7035255 0.23355894 0.19489457 0.0 0.0
0.5683782 0.69921714 0.08746003 0.0056314436 0.0 0.0 0.9069095 0.9249458
0.12207289 0.0055989786 0.0 0.0 0.87232715 0.90036315 0.09757227 0.0052195033
0.0 0.0 0.8972085 0.9207533 0.2895979 0.0051168078 0.0 0.0
00000000: 3259 b13d a732 b73b 0000 0000 0000 0000
00000010: 14f8 653f 8e8a 6a3f bfdd f73d 0651 b63b
00000020: 0000 0000 0000 0000 5e29 5d3f 8546 643f
00000030: 5d8a c53d ad9e a93b 0000 0000 0000 0000
00000040: 2f8d 633f f882 693f 4ce8 923e 9c7e a63b
00000050: 0000 0000 0000 0000 88d0 323f 6cd8 4b3f
00000060: 8e5a 7d3e c682 8c3b 0000 0000 0000 0000
00000070: 0722 3d3f ceef 543f 066d 303f b1b8 853b
00000080: 0000 0000 0000 0000 6032 983e 246c 0e3f
00000090: 4369 253f 7694 5d3b 0000 0000 0000 0000
000000a0: 9e95 ae3e 21ba 183f a17d 6d3f 643f fc3a
000000b0: 0000 0000 0000 0000 485e 793d f7fa d63e
000000c0: c5ab 663f 5f27 0c3b 0000 0000 0000 0000
000000d0: 5ace b23d 0ad8 ea3e 539e 673f 3357 f13c
000000e0: 0000 0000 0000 0000 1a89 663d 9c0d da3e
000000f0: 1484 5e3f 0cd3 183d 0000 0000 0000 0000
00000100: 4b03 ac3d 57f1 e73e 3ce7 6a3e 9710 453e
00000110: 0000 0000 0000 0000 b993 113f 6401 333f
00000120: ecd6 6d3e a913 463e 0000 0000 0000 0000
00000130: 0397 103f b1e0 313f 67f0 b13d 189b b73b
00000140: 0000 0000 0000 0000 beb3 663f 0c4a 6b3f
00000150: 2394 f83d 24b0 b63b 0000 0000 0000 0000
00000160: 2de1 5d3f b803 653f ca4c c63d d417 aa3b
00000170: 0000 0000 0000 0000 3c43 643f e73e 6a3f
00000180: 525c 933e 01e7 a63b 0000 0000 0000 0000
00000190: 1165 333f 2382 4c3f bc51 7e3e edee 8c3b
000001a0: 0000 0000 0000 0000 b0b2 3d3f 1398 553f
000001b0: ddf8 303f da24 863b 0000 0000 0000 0000
000001c0: edb7 983e bfe3 0e3f f9f3 253f 255a 5e3b
000001d0: 0000 0000 0000 0000 721d af3e a634 193f
000001e0: 1b3c 6e3f 07eb fc3a 0000 0000 0000 0000
000001f0: 2467 7a3d ecaf d73e a766 673f 4c97 0c3b
00000200: 0000 0000 0000 0000 ee6d b33d 6597 eb3e
00000210: 9159 683f aa88 f23c 0000 0000 0000 0000
00000220: b532 673d e7bd da3e 3738 5f3f f05a 193d
00000230: 0000 0000 0000 0000 3f99 ac3d 23af e83e
00000240: d9a4 6b3e c8d0 453e 0000 0000 0000 0000
00000250: 8a03 123f 028e 333f 5d82 6e3e 22d3 463e
00000260: 0000 0000 0000 0000 a80b 113f 0b70 323f
00000270: 3989 b23d 040b b83b 0000 0000 0000 0000
00000280: 256f 673f 4909 6c3f 784e f93d 0704 b73b
00000290: 0000 0000 0000 0000 7c98 5e3f 86c0 653f
000002a0: e711 c73d bb87 aa3b 0000 0000 0000 0000
000002b0: 14f9 643f 77fa 6a3f fcd0 933e 9040 a73b
000002c0: 0000 0000 0000 0000 67f9 333f d42b 4d3f
000002d0: 3a49 7f3e 5f57 8d3b 0000 0000 0000 0000
000002e0: 6743 3e3f 4240 563f 9983 313f fa76 863b
000002f0: 0000 0000 0000 0000 a83f 993e f45b 0f3f
00000300: b67f 263f c8f6 5e3b 0000 0000 0000 0000
00000310: 64a3 af3e beae 193f a1fa 6e3f 4362 fd3a
00000320: 0000 0000 0000 0000 7b70 7b3d 4c64 d83e
00000330: 0622 683f dde1 0c3b 0000 0000 0000 0000
00000340: dd0b b43d 4a56 ec3e 4115 693f cead f33c
00000350: 0000 0000 0000 0000 4edb 673d 246e db3e
00000360: 51ec 5f3f e4dd 193d 0000 0000 0000 0000
00000370: 6d31 ad3d 616d e93e 1a66 6c3e ba90 463e
00000380: 0000 0000 0000 0000 a572 123f 3f1a 343f
00000390: 132a 6f3e 7192 473e 0000 0000 0000 0000
000003a0: 3c81 113f e5ff 323f 3f1e b33d f987 b83b
000003b0: 0000 0000 0000 0000 392b 683f 3fc9 6c3f
000003c0: 5a01 fa3d a377 b73b 0000 0000 0000 0000
000003d0: d550 5f3f 337e 663f f8d3 c73d 5e08 ab3b
000003e0: 0000 0000 0000 0000 75af 653f 7db6 6b3f
000003f0: 2d46 943e e5aa a73b 0000 0000 0000 0000

network_body.observation_encoder.processors.1.normalizer.running_mean f4 [88]
-327.62234 328.9444 59.786083 -304.95886 328.52902 74.84079 0.054154586 0.41211632
-0.029889338 0.80098426 34.8854 0.0 0.0 2.50676 -228.73343 329.29633
127.873886 97.85578 0.5403987 -0.1342797 0.37387288 0.93284136 -328.72678 329.9955
59.9002 -306.02216 329.57828 75.02653 0.054341596 0.41287342 -0.029948186 0.80382365
34.992847 0.0 0.0 2.5138898 -229.58383 330.34824 128.23915 98.14803
0.5414522 -0.13469763 0.37595877 0.9358448 -329.83112 331.04703 60.014713 -307.08585
330.62836 75.212715 0.054529574 0.41363156 -0.030007042 0.8066621 35.100433 0.0
0.0 2.5210261 -230.4338 331.39972 128.60501 98.44059 0.54250777 -0.13511693
0.37804356 0.93884635 -330.93658 332.09982 60.128525 -308.15063 331.67926 75.39807
0.054717075 0.41439006 -0.030065756 0.80950284 35.20777 0.0 0.0 2.5281672
-231.28526 332.44986 128.97029 98.73351 0.5435598 -0.13553587 0.38013095 0.941854
00000000: a9cf a3c3 e278 a443 f324 6f42 bc7a 98c3
00000010: b743 a443 7cae 9542 33d1 5d3d e900 d33e
00000020: 7cda f4bc 4e0d 4d3f a68a 0b42 0000 0000
00000030: 0000 0000 c16e 2040 c2bb 64c3 eea5 a443
00000040: 6ebf ff42 29b6 c342 9257 0a3f 9e80 09be
00000050: 446c bf3e b1ce 6e3f 075d a4c3 6dff a443
00000060: ce99 6f42 d602 99c3 05ca a443 950d 9642
00000070: 4b95 5e3d 2564 d33e e655 f5bc 63c7 4d3f
00000080: adf8 0b42 0000 0000 0000 0000 92e3 2040
00000090: 7695 65c3 932c a543 393d 0043 cb4b c442
000000a0: 9d9c 0a3f 2dee 09be ab7d c03e 8693 6f3f
000000b0: 62ea a4c3 0586 a543 110f 7042 fd8a 99c3
000000c0: 6e50 a543 e96c 9642 675a 5f3d 84c7 d33e
000000d0: 54d1 f5bc 6881 4e3f d866 0c42 0000 0000
000000e0: 0000 0000 7e58 2140 0e6f 66c3 2ab3 a543
000000f0: e29a 0043 95e1 c442 cae1 0a3f 185c 0abe
00000100: ed8e c13e 3c58 703f e277 a5c3 c70c a643
00000110: 9c83 7042 4813 9ac3 f2d6 a543 d0cb 9642
00000120: 031f 603d ef2a d43e 764c f6bc 943b 4f3f
00000130: c2d4 0c42 0000 0000 0000 0000 7ecd 2140
00000140: 0749 67c3 9539 a643 65f8 0043 8f77 c542
00000150: bc26 0b3f eac9 0abe 86a0 c23e 581d 713f

network_body._body_endoder.seq_layers.0.weight f4 [128, 400]
0.015060897 -0.047842823 0.0937012 0.005256373 -0.032650698 0.08469498 0.018569374 0.11035329
0.088999525 0.038898602 0.0963438 -0.0254804 -0.066721484 -0.0035225481 0.032998383 0.046036255
0.022971734 0.0125591075 -0.050935023 0.098595254 -0.045407694 0.0874134 0.007262211 -0.054681342
-0.06403188 -0.16891672 0.07962846 -0.02068052 0.116999745 0.029972674 0.12623385 -0.06539431
-0.098952524 -0.030005857 0.048460294 -0.090591125 0.062268108 -0.22274677 0.11124927 -0.04102145
-0.03502746 -0.13858388 0.08297987 0.19816656 0.03414959 0.034350436 -0.04504131 0.03942417
-0.051912416 -0.021945873 -0.020541763 -0.03281579 0.112239175 -0.011792548 0.114797644 0.1323196
0.023401558 0.02369778 -0.07277916 0.013587775 0.0109624555 0.0034672092 0.034018293 0.021143964
-0.048800424 0.06708792 -0.030853383 -0.00968523 0.021935537 0.11643803 -0.030254945 -0.0059692725
-0.08126238 -0.05749239 0.021154556 0.09321037 0.059486117 0.074409634 -0.10199435 -0.03001178
-0.03975826 0.0110201435 0.052558444 0.07358229 -0.057044692 0.0901093 0.008345944 -0.05843051
0.0587584 0.13853242 0.022894472 0.012079059 -0.034225177 -0.068741165 0.067058526 0.011134994
-0.09661307 0.066835456 -0.03374348 0.019070333 0.056565244 0.091746464 0.08144783 -0.018934255
0.029792165 0.018518558 0.032560546 -0.019767921 -0.17560104 0.059169807 0.05194309 0.009854744
0.08299538 0.1300366 0.14042304 -0.07395344 -0.123036735 -0.053110886 -0.050134346 -0.22366986
0.010844684 0.1180634 0.06820826 0.056031823 0.068199284 0.074001946 -0.019397952 0.15278196
-0.11467598 0.0662043 0.09643825 0.046554938 -0.04590976 0.13810092 -0.02308846 -0.0007294524
-0.109728724 -0.05264194 -0.061300345 -0.04999747 -0.0075633065 -0.03322138 0.03100457 0.004124773
0.043968055 0.09300358 0.011364065 -0.034299336 -0.027226018 -0.055402476 -0.09860494 0.13173154
-0.05933633 -0.01096199 0.018096283 0.038853705 0.05769748 0.11633507 -0.07102091 -0.013598057
0.115939505 -0.022724047 -0.09822113 -0.116451584 0.012355595 -0.024957055 6.954283e-05 0.045270965
0.018231397 -0.01117108 0.045290716 -0.0751633 0.0006179681 -0.06324265 -0.02715487 0.022949856
-0.037528224 -0.0039427937 -0.046431635 -0.02323436 0.11777018 0.06389127 0.06029088 -0.05048901
-0.032210946 -0.066116646 -0.15869395 -0.0139059955 -0.052452832 -0.018875485 -0.045362454 -0.11511187
-0.07818559 -0.09356993 -0.05729867 0.008486676 0.10231836 0.1115842 -0.08046474 0.059299104
-0.015520381 -0.007501673 0.05999524 0.09741915 0.011109429 -0.025257096 -0.032564607 -0.028209431
-0.11129524 -0.11706658 -0.074168794 0.037240006 -0.03161009 -0.010340924 -0.14305507 0.006886881
0.0031639414 -0.20085718 -0.0067569204 -0.04912777 0.15902282 0.05367004 -0.005829885 0.1573363
0.03084769 0.002583565 -0.04597424 -0.06327269 -0.0077650147 0.029378355 -0.034511413 -0.026935419
-0.025145449 0.06263859 -0.11939834 0.0061853123 0.048005037 -0.012290826 0.02554375 0.054948602
-0.0016847383 0.0054585384 -0.030847762 -0.027536867 0.047500435 -0.012064322 0.0044037807 -0.16262218
0.009412262 -0.024278713 0.18352349 -0.0019955027 0.074000336 -0.019258916 0.029980544 -0.077764586
00000000: fbc1 763c d6f6 43bd 6ae6 bf3d a73d ac3b
00000010: bdbc 05bd 9074 ad3d cd1e 983c e800 e23d
00000020: 6245 b63d 2454 1f3d e64f c53d 46bc d0bc
00000030: 46a5 88bd 8dda 66bb 5029 073d 8390 3c3d
00000040: 382f bc3c b7c4 4d3c 3ea1 50bd 4fec c93d
00000050: 6bfd 39bd cc05 b33d d7f7 ed3b 8bf9 5fbd
00000060: 2523 83bd 81f8 2cbe 3f14 a33d 326a a9bc
00000070: 909d ef3d 4189 f53c 7243 013e 74ed 85bd
00000080: 9fa7 cabd d8ce f5bc 4d7e 463d d787 b9bd
00000090: d80c 7f3d bb17 64be a8d6 e33d 1c06 28bd
000000a0: f478 0fbd efe8 0dbe 5af1 a93d 2dec 4a3e
000000b0: 71e0 0b3d 0bb3 0c3d 3d7d 38bd 3d7b 213d
000000c0: 1da2 54bd d5c7 b3bc 3347 a8bc da69 06bd
000000d0: a7dd e53d 8835 41bc 071b eb3d ca7e 073e
000000e0: a0b4 bf3c d921 c23c 3e0d 95bd 429f 5e3c
000000f0: df9b 333c 1e3a 633b c456 0b3d 1b36 ad3c
00000100: f4e2 47bd 6465 893d 3cc0 fcbc cdae 1ebc
00000110: 28b2 b33c 1077 ee3d 38d9 f7bc e399 c3bb
00000120: e46c a6bd 247d 6bbd 524c ad3c 14e5 be3d
00000130: b7a7 733d 1464 983d 6ae2 d0bd 44db f5bc
00000140: 8fd9 22bd d58d 343c 8647 573d 50b2 963d
00000150: b2a7 69bd 3a8b b83d 6dbd 083c d554 6fbd
00000160: a6ac 703d 71db 0d3e 308d bb3c 3fe7 453c
00000170: b32f 0cbd 2bc8 8cbd fb55 893d 8d6f 363c
00000180: 13dd c5bd 07e1 883d 9a36 0abd 6339 9c3c
00000190: f5b0 673d 92e5 bb3d 1fce a63d 031c 9bbc
000001a0: b30e f43c 3bb4 973c 355e 053d 56f0 a1bc
000001b0: c2d0 33be 0a5c 723d 47c2 543d cb75 213c
000001c0: 7bf9 a93d 5128 053e 0fcb 0f3e e774 97bd
000001d0: affa fbbd cd8a 59bd ac59 4dbd b609 65be
000001e0: e7ad 313c 39cb f13d c6b0 8b3d a081 653d
000001f0: 11ac 8b3d 558e 973d 74e8 9ebc e072 1c3e
00000200: 3ddb eabd 1f96 873d 6b81 c53d 64b0 3e3d
00000210: df0b 3cbd 546a 0d3e 0324 bdbc b938 3fba
00000220: 74b9 e0bd 139f 57bd 1216 7bbd 26ca 4cbd
00000230: 9dd5 f7bb 2413 08bd 4cfd fd3c 1b29 873b
00000240: d917 343d a978 be3d 5830 3a3c 767d 0cbd
00000250: 1909 dfbc b5ed 62bd 63f1 c9bd a2e4 063e
00000260: a70a 73bd eb99 33bc a83e 943c 1025 1f3d
00000270: 3154 6c3d 1541 ee3d 6973 91bd 63ca 5ebc
00000280: b171 ed3d c827 babc 2928 c9bd 2b7e eebd
00000290: 1f6f 4a3c bd72 ccbc 86d7 9138 0c6e 393d
000002a0: 035a 953c e806 37bc c282 393d 37ef 99bd
000002b0: 23ff 213a 5d85 81bd e473 debc 5601 bc3c
000002c0: 32b7 19bd 8d32 81bb 192f 3ebd fc55 bebc
000002d0: 7e31 f13d 6dd9 823d 92f3 763d 90cd 4ebd
000002e0: a0ef 03bd 2a68 87bd ab80 22be f9d5 63bc
000002f0: c8d8 56bd c3a0 9abc fbcd 39bd c6bf ebbd
00000300: c41f a0bd 97a1 bfbd 03b2 6abd b30b 0b3c
00000310: 4a8c d13d 4286 e43d b3ca a4bd 9ee3 723d
00000320: 3249 7ebc 98d0 f5bb 92bd 753d b183 c73d
00000330: 5304 363c f8e7 cebc 7762 05bd 7717 e7bc
00000340: c2ee e3bd 9ac0 efbd cfe5 97bd fa88 183d
00000350: 9579 01bd fb6c 29bc 077d 12be 58ab e13b
00000360: 215a 4f3b 81ad 4dbe 2869 ddbb 333a 49bd
00000370: e1d6 223e 1ed5 5b3d 9f08 bfbb c41c 213e
00000380: 4bb4 fc3c 0751 293b 7c4f 3cbd 1d95 81bd
00000390: aa71 febb e0aa f03c d75b 0dbd aba7 dcbc
000003a0: d4fd cdbc a948 803d 1e87 f4bd 29ae ca3b
000003b0: eea0 443d 765f 49bc 2041 d13c c911 613d
000003c0: 70d2 dcba 8add b23b 72b4 fcbc ff94 e1bc
000003d0: d18f 423d 6fa9 45bc 974d 903b 6e86 26be
000003e0: e335 1a3c 27e4 c6bc 95ed 3b3e fbc6 02bb
000003f0: 7d8d 973d e0c4 9dbc c299 f53c 0a43 9fbd

network_body._body_endoder.seq_layers.0.bias f4 [128]
-0.05200661 -0.10818433 -0.05037931 -0.11680522 -0.10715057 -0.028360188 -0.13327083 -0.08626579
-0.08689901 -0.03850199 -0.06483413 -0.054378655 -0.0742633 -0.069839954 -0.016003255 -0.1692463
-0.18741547 -0.09745183 -0.07438559 -0.14490627 -0.08395201 -0.03945568 -0.094314575 -0.043110013
-0.10991688 -0.048241273 -0.1441155 -0.08939705 -0.11947077 -0.100388706 -0.07359735 -0.16524799
-0.0226581 -0.08373144 -0.04517399 0.017662356 -0.06292597 0.018597096 -0.20385443 -0.081129834
0.040547382 -0.123888366 -0.049906217 -0.10741419 -0.06340959 -0.07915652 -0.16135904 -0.17892759
-0.053015415 -0.1132245 -0.04621145 -0.02831749 -0.14912416 -0.16413204 -0.06296605 -0.13245803
-0.1908705 -0.012050945 -0.07151314 -0.018061018 0.0075375 -0.07806726 -0.06463073 -0.11101221
-0.09430325 -0.005246758 -0.020952465 -0.0106465425 -0.08241457 -0.10278914 -0.1080016 -0.13803288
-0.11708824 -0.026466211 0.006234709 -0.11498383 -0.041191082 -0.089700386 0.030175777 -0.0039866404
-0.08858499 -0.06848932 -0.0037517315 -0.17166552 -0.042940106 -0.07329762 -0.058930032 -0.11779342
-0.063648365 -0.079102434 -0.1679733 -0.10046948 -0.057405237 -0.029705038 -0.006963992 -0.08431751
-0.012512822 -0.098506324 -0.026327092 -0.05216995 -0.0480658 -0.03947909 -0.05970581 -0.12303141
-0.09384932 -0.09542428 -0.15126398 -0.09389003 0.020631412 -0.049326792 -0.13276362 -0.021664042
-0.05369876 -0.0800915 -0.07743691 -0.0365167 0.0074244784 -0.10516518 -0.042568162 -0.1252596
-0.030529484 -0.11240239 -0.06599561 -0.13115935 -0.044234686 -0.06274101 -0.1319101 -0.101641834
00000000: e204 55bd bf8f ddbd 895a 4ebd 9337 efbd
00000010: c271 dbbd a053 e8bc 2678 08be 1eac b0bd
00000020: 1cf8 b1bd 43b4 1dbd c2c7 84bd 27bc 5ebd
00000030: 5b17 98bd 4008 8fbd 4219 83bc e74e 2dbe
00000040: d7e9 3fbe d394 c7bd 7957 98bd 4f62 14be
00000050: 08ef abbd 479c 21bd 0028 c1bd 2094 30bd
00000060: 1a1c e1bd a498 45bd 0393 13be cd15 b7bd
00000070: 17ad f4bd 9898 cdbd 35ba 96bd c536 29be
00000080: 7b9d b9bc 647b abbd 5d08 39bd a5b0 903c
00000090: 55df 80bd f058 983c 37bf 50be 6627 a6bd
000000a0: 0315 263d 2fb9 fdbd 766a 4cbd f9fb dbbd
000000b0: e3dc 81bd d01c a2bd 4e3b 25be cb38 37be
000000c0: b126 59bd 3fe2 e7bd 3848 3dbd 15fa e7bc
000000d0: 01b4 18be 3b12 28be 58f4 80bd 14a3 07be
000000e0: 8e73 43be 5471 45bc 7b75 92bd b3f4 93bc
000000f0: 22fd f63b bae1 9fbd 1e5d 84bd 5f5a e3bd
00000100: 1022 c1bd ffec abbb 81a4 abbc d66e 2ebc
00000110: f8c8 a8bd 1d83 d2bd f12f ddbd 7e58 0dbe
00000120: f6cb efbd abcf d8bc 884c cc3b a47c ebbd
00000130: fbb7 28bd d6b4 b7bd 3133 f73c 5da2 82bb
00000140: 0c6c b5bd 2144 8cbd 9cdf 75bb 16c9 2fbe
00000150: f7e1 2fbd 101d 96bd 9e60 71bd ad3d f1bd
00000160: 135a 82bd 7500 a2bd 3101 2cbe f1c2 cdbd
00000170: c121 6bbd fb57 f3bc 3332 e4bb a9ae acbd
00000180: 9402 4dbc afbd c9bd eaab d7bc 28b0 55bd
00000190: a5e0 44bd d4b4 21bd 148e 74bd e4f7 fbbd
000001a0: 1334 c0bd ce6d c3bd f2e4 1abe 6b49 c0bd
000001b0: 3503 a93c e40a 4abd 30f3 07be ca78 b1bc
000001c0: 3bf3 5bbd 0307 a4bd 3e97 9ebd 8992 15bd
000001d0: 0a49 f33b d860 d7bd f45b 2ebd 0d44 00be
000001e0: f818 fabc 3933 e6bd b528 87bd a34e 06be
000001f0: 6e2f 35bd 5c7e 80bd 7113 07be 9829 d0bd

network_body._body_endoder.seq_layers.2.weight f4 [128, 128]
0.12752418 0.033691164 -0.013892974 0.14766844 -0.049567323 0.03513169 0.055729706 -0.04428992
-0.048051894 -0.09292184 -0.06699773 0.08244562 -0.07604673 -0.0763696 -0.025653295 -0.09540632
-0.12278726 -0.08159354 0.030382814 -0.02634434 -0.093039446 0.18779951 -0.11697204 0.003221594
-0.0421602 0.055586826 -0.04933262 -0.067864716 6.240981e-05 0.022068117 -0.019072546 -0.040664677
-0.15686154 -0.050828468 -0.10516644 -0.1736315 -0.0038376034 -0.08670586 0.035235 -0.004969534
-0.013309113 0.11576141 -0.05315786 -0.1476297 -0.038029313 0.034417503 -0.043282356 0.043117404
-0.11902302 -0.00475487 0.035224296 -0.070809714 -0.06724372 -0.07116219 -0.03327634 -0.034482792
0.05885324 -0.011743558 -0.074047424 -0.089507505 0.008816576 -0.058240086 0.11689921 -0.09759451
-0.005291502 -0.26505807 0.041796327 -0.14832799 -0.07045872 0.0451936 -0.02448569 -0.06810393
0.018312251 0.1426064 -0.18202737 -0.13597475 -0.0434991 0.10195799 0.026569523 -0.09927713
-0.030193107 -0.056877688 -0.016704403 -0.02192456 -0.058832154 0.047014873 -0.083972 -0.10743447
0.07621563 -0.17539962 0.11061439 0.08502068 0.074628904 -0.26410928 -0.056244306 0.021390012
0.06291185 0.1275537 0.0051452112 -0.0027904133 -0.12905146 -0.14878166 -0.0040856516 0.08925056
-0.10784763 0.08713644 -0.0747093 -0.19022818 -0.07477415 0.087123886 -0.07567074 -0.17189644
0.10887246 -0.07836067 0.0041782768 -0.1270959 -0.011781955 -0.0138426665 -0.018275762 0.015828183
-0.2286526 -0.1800341 -0.05133078 -0.19221762 -0.07332775 -0.113726705 0.0140088145 0.053374436
-0.21311738 0.10282452 -0.02006876 0.051001083 0.049494613 0.029258223 0.08809157 -0.008396465
-0.16483243 -0.084195234 -0.1728973 -0.14942858 -0.066133976 -0.106639616 -0.037238043 -0.0303279
0.01883643 -0.055512473 -0.17877431 0.08482405 0.022791961 -0.0026256829 0.039883584 -0.031267524
-0.138319 -0.13549514 0.22822464 0.05619263 -0.012867454 0.06935856 -0.034741346 -0.11477264
-0.075405404 -0.0120851835 0.08403578 0.084278464 -0.06229997 -0.058994584 -0.02234963 0.0173556
0.03572983 -0.12990305 -0.08986498 -0.04620393 -0.025707599 -0.0463919 0.011718259 -0.10056983
-0.11886008 0.09954942 -0.16934852 -0.15880905 0.05344918 -0.052127764 0.090470076 0.05559375
0.007883396 0.041697625 0.035408847 0.075459406 0.030938713 -0.0074733617 0.012656347 -0.025771042
0.022180611 -0.051435746 -0.1149869 -0.016013071 0.076603144 -0.22353758 -0.08159327 0.05604438
-0.04409607 0.1514975 0.008377656 0.055326685 -0.005177039 0.006242156 -0.06993675 -0.10367197
0.06602461 -0.0884721 -0.1530713 -0.023790995 0.05768595 -0.15282871 -0.13491741 0.08459323
0.02536696 -0.02588174 0.0863077 -0.09163986 -0.098253734 -0.012849139 -0.098495565 -0.0067134397
-0.19452107 -0.18156904 -0.055301446 -0.07380359 -0.16330256 -0.19112381 -0.11216345 -0.08661748
-0.15095082 -0.052076004 0.077907756 -0.006365354 0.05349491 -0.062171843 0.16547632 0.065367416
-0.057104252 0.1569413 -0.028956316 0.14092276 -0.09809427 0.099745184 -0.094084606 0.004621038
-0.15162867 -0.023389546 1.4702495e-06 -0.0276286 -0.0070185014 -0.14107741 0.058922518 0.102610625
00000000: b395 023e bfff 093d 5b9f 63bc 6536 173e
00000010: 1b07 4bbd 3fe6 0f3d d544 643d 5969 35bd
00000020: 10d2 44bd ce4d bebd 1b36 89bd 40d9 a83d
00000030: 63be 9bbd aa67 9cbd dc26 d2bc 6464 c3bd
00000040: e377 fbbd 841a a7bd 61e5 f83c 16d0 d7bc
00000050: 778b bebd 844e 403e 098f efbd 6121 533b
00000060: 2db0 2cbd 03af 633d 0011 4abd a8fc 8abd
00000070: 03e2 8238 32c8 b43c 073e 9cbc 0190 26bd
00000080: 50a0 20be 8331 50bd 8161 d7bd 75cc 31be
00000090: 4d80 7bbb d892 b1bd 9352 103d 79d7 a2bb
000000a0: 770e 5abc 5114 ed3d 0ebc 59bd 3d2c 17be
000000b0: a0c4 1bbd 5ef9 0c3d d748 31bd e09b 303d
000000c0: 57c2 f3bd bece 9bbb 5a47 103d af04 91bd
000000d0: 13b7 89bd 7bbd 91bd c64c 08bd d43d 0dbd
000000e0: 1810 713d 0d68 40bc 2da6 97bd b64f b7bd
000000f0: 6673 103c 288d 6ebd da68 ef3d a1df c7bd
00000100: 5664 adbb b1b5 87be a032 2b3d 4be3 17be
00000110: a94c 90bd ed1c 393d 3796 c8bc 137a 8bbd
00000120: 9303 963c 6a07 123e 6265 3abe f73c 0bbe
00000130: 1d2c 32bd 5acf d03d 54a8 d93c cf51 cbbd
00000140: 8957 f7bc 94f8 68bd acd7 88bc 239b b3bc
00000150: fcf9 70bd ab92 403d 83f9 abbd 9a06 dcbd
00000160: f116 9c3d f59b 33be cc89 e23d 531f ae3d
00000170: 0ad7 983d 5539 87be 6e60 66bd 1b3a af3c
00000180: eed7 803d 709d 023e 2999 a83b 5edf 36bb
00000190: 1126 04be 385a 18be eee0 85bb ffc8 b63d
000001a0: 38df dcbd 9774 b23d 3101 99bd 2dcb 42be
000001b0: 3123 99bd 026e b23d 43f9 9abd 9f05 30be
000001c0: 86f8 de3d 8f7b a0bd ede9 883b 6d25 02be
000001d0: 1a09 41bc 5acc 62bc 0db7 95bc 1baa 813c
000001e0: e823 6abe dc5a 38be 3940 52bd b2d4 44be
000001f0: dc2c 96bd 8ce9 e8bd 3a85 653c 279f 5a3d
00000200: 713b 5abe a995 d23d 3d67 a4bc 83e6 503d
00000210: ddba 4a3d f1ae ef3c 5a69 b43d 5491 09bc
00000220: d5c9 28be 8d6e acbd fd0b 31be ce03 19be
00000230: 4071 87bd df65 dabd eb86 18bd 3772 f8bc
00000240: db4e 9a3c 0c61 63bd 9d10 37be 3bb8 ad3d
00000250: 35b6 ba3c a613 2cbb f85c 233d 6012 00bd
00000260: 7fa3 0dbe 3dbf 0abe b8b3 693e 3e2a 663d
00000270: 04d2 52bc dc0b 8e3d f14c 0ebd eb0d ebbd
00000280: 266e 9abd ef00 46bc f31a ac3d 309a ac3d
00000290: 412e 7fbd 4ea4 71bd 9216 b7bc 552d 8e3c
000002a0: 7159 123d 4e05 05be 210b b8bd 5540 3dbd
000002b0: be98 d2bc 6f05 3ebd f1fd 3f3c 8ef7 cdbd
000002c0: ea6c f3bd 91e0 cb3d b369 2dbe d79e 22be
000002d0: 87ed 5a3d ec83 55bd 6048 b93d 46b6 633d
000002e0: 5c29 013c 21cb 2a3d de08 113d 768a 9a3d
000002f0: 2f73 fd3c 1ae3 f4bb 915c 4f3c cb1d d3bc
00000300: 1db4 b53c 4aae 52bd 407e ebbd d82d 83bc
00000310: 1ce2 9c3d 09e7 64be 5f1a a7bd cb8e 653d
00000320: 159e 34bd 2922 1b3e 7042 093c 3c9e 623d
00000330: 27a4 a9bb 008b cc3b 003b 8fbd f851 d4bd
00000340: e937 873d dc30 b5bd b9be 1cbe 55e5 c2bc
00000350: 1a48 6c3d 217f 1cbe ca27 0abe 373f ad3d
00000360: 5fce cf3c f105 d4bc 17c2 b03d aead bbbd
00000370: 4139 c9bd 3285 52bc 0bb8 c9bd 6afc dbbb
00000380: 8830 47be 3ced 39be c583 62bd 5626 97bd
00000390: c938 27be f6b5 43be f3b5 e5bd 8164 b1bd
000003a0: da92 1abe a64d 55bd 1a8e 9f3d 7694 d0bb
000003b0: 7b1d 5b3d e7a7 7ebd a072 293e 5adf 853d
000003c0: 26e6 69bd 38b5 203e cc35 edbc 0e4e 103e
000003d0: a6e5 c8bd 3447 cc3d 6eaf c0bd 146c 973b
000003e0: 8c44 1bbe 6f9b bfbc 6355 c535 6055 e2bc
000003f0: 75fb e5bb 9976 10be bd58 713d 8525 d23d

network_body._body_endoder.seq_layers.2.bias f4 [128]
-0.10249491 -0.034716565 -0.03992159 -0.032247942 -0.00059600105 -0.091494806 -0.11264133 -0.06027201
-0.038487583 0.02097795 0.0051837224 -0.026750065 -0.08896721 -0.115758225 -0.059262503 -0.050299365
-0.059506886 -0.012738085 -0.093158856 -0.010601063 -0.046366394 -0.13149904 -0.058089145 -0.07457132
-0.045491464 -0.022670072 -0.090806715 -0.048108634 -0.07549011 -0.116319835 -0.07709815 -0.06044159
-0.056749783 -0.10134226 -0.02284405 -0.0024999112 -0.12034613 -0.031678442 -0.013182661 -0.09408846
-0.06695328 -0.052661896 0.009974892 -0.04902162 -0.069086336 -0.0433878 -0.098642744 -0.12318785
-0.09130547 -0.06704077 -0.029037192 -0.04178412 -0.08630939 -0.102187835 0.018020604 -0.08714733
-0.09505436 -0.022222381 -0.093413584 -0.07663732 -0.056332197 -0.050832637 0.030565867 -0.0897767
-0.053556856 -0.061604112 -0.09146636 -0.012379746 -0.07891204 -0.072907776 -0.051387638 -0.08865068
-0.08859804 -0.04848257 -0.042784493 -0.009420083 -0.045666724 -0.07963131 -0.012716939 -0.06885478
-0.12173021 -0.060502067 -0.06595093 -0.04050754 -0.039153833 -0.20175621 -0.035552308 0.0023001463
-0.1004175 0.033625405 -0.0398253 -0.123247124 -0.14141376 -0.12210756 -0.026486222 -0.09977812
-0.117721915 -0.038236868 -0.087956205 -0.0053406307 -0.10604603 -0.07074051 -0.06412369 -0.1337055
-0.037346374 -0.033901304 -0.053941775 -0.03128348 -0.11246964 -0.042505387 -0.091767505 -0.07860858
-0.0741662 -0.08302894 -0.12531379 -0.07786613 -0.11894474 -0.09315435 0.0022791238 -0.063512206
-0.043208443 -0.104123846 -0.038816534 -0.096789025 -0.09530762 -0.012133845 -0.09916252 -0.048909586
00000000: dae8 d1bd f532 0ebd d284 23bd 6b16 04bd
00000010: f43c 1cba a161 bbbd 7fb0 e6bd c8df 76bd
00000020: 28a5 1dbd f3d9 ab3c 37dc a93b f422 dbbc
00000030: 7134 b6bd a612 edbd 3dbd 72bd b506 4ebd
00000040: 7ebd 73bd 67b3 50bc 12ca bebd 15b0 2dbc
00000050: b0ea 3dbd afa7 06be e2ee 6dbd d9b8 98bd
00000060: 4255 3abd 96b6 b9bc dff8 b9bd 8f0d 45bd
00000070: 8f9a 9abd 1839 eebd a3e5 9dbd 9a91 77bd
00000080: 7672 68bd 888c cfbd 7223 bbbc 8dd5 23bb
00000090: 0878 f6bd 41c1 01bd 16fc 57bc 73b1 c0bd
000000a0: cd1e 89bd 00b4 57bd bb6d 233c e5ca 48bd
000000b0: 237d 8dbd 68b7 31bd 3505 cabd e949 fcbd
000000c0: 5dfe babd ac4c 89bd 68df edbc d325 2bbd
000000d0: fac2 b0bd db47 d1bd f29f 933c 4d7a b2bd
000000e0: dcab c2bd b60b b6bc 9f4f bfbd 07f4 9cbd
000000f0: 97bc 66bd e235 50bd 4565 fa3c d9dc b7bd
00000100: 6f5e 5bbd 9854 7cbd b752 bbbd 6bd4 4abc
00000110: a39c a1bd ac50 95bd d87b 52bd 7d8e b5bd
00000120: e472 b5bd a995 46bd cb3e 2fbd b156 1abc
00000130: 080d 3bbd be15 a3bd b55a 50bc bc03 8dbd
00000140: b04d f9bd 04d1 77bd 4811 87bd 3ceb 25bd
00000150: c55f 20bd 2e99 4ebe 4c9f 11bd 0dbe 163b
00000160: b1a7 cdbd cbba 093d db1f 23bd fd68 fcbd
00000170: c5ce 10be 8713 fabd a2f9 d8bc 7958 ccbd
00000180: 3018 f1bd 439e 1cbd 6222 b4bd 7500 afbb
00000190: a92e d9bd 67e0 90bd 4853 83bd 18ea 08be
000001a0: 83f8 18bd 18dc 0abd 0df2 5cbd 1b23 00bd
000001b0: 7c56 e6bd 211a 2ebd 9af0 bbbd 89fd a0bd
000001c0: 73e4 97bd 140b aabd 4252 00be 4778 9fbd
000001d0: 4d99 f3bd b5c7 bebd 5a5d 153b b012 82bd
000001e0: 56fb 30bd e23e d5bd 16fe 1ebd 5339 c6bd
000001f0: a430 c3bd 09cd 46bc b815 cbbd 6b55 48bd

action_model._continuous_distribution.log_sigma f4 [1, 2]
0.21046525 0.22369471
00000000: 3484 573e 3a10 653e

action_model._continuous_distribution.mu.weight f4 [2, 128]
-0.0075431345 -0.0058331653 -0.005076728 0.004510321 -0.006488663 0.0041126404 -0.013115403 -0.003992298
-0.028740006 0.02892176 0.04798506 -0.0056012496 -0.008135659 -0.020486629 -0.0070681297 0.0030306112
-0.00732334 0.044762067 -0.010106928 0.008308145 -0.004242395 -0.01305813 -0.011052073 0.018852584
0.0029460099 0.0031923712 0.003408281 -0.0041251383 -0.01805649 -0.0020904106 -0.015894245 -0.004099716
-0.016300598 -0.017494336 -0.01752561 0.028816396 -0.009588291 -0.0029091556 0.008675991 -0.0191724
0.026772695 -0.031022077 0.032507356 -0.0080047 -0.019588167 0.0010171707 -0.0027695894 0.0007758912
-0.03086749 -0.014096152 -0.014834753 -0.006076225 -0.008689699 -0.011847231 -0.0076643224 -0.0043803826
-0.0029870565 -0.021643426 -0.013395265 -0.03650531 -0.016557964 -0.009038532 0.034233537 -0.0078298105
0.015852684 -0.0064734365 0.0024963438 0.009003301 -0.011689275 -0.033981197 -0.01880802 0.008267021
-0.009937998 0.010870915 -0.02014604 0.0053469962 -0.008467507 0.0016399059 0.0006697857 -0.020314626
-0.018750858 -0.007042406 -0.003346131 0.013159546 -0.0020776435 -0.0036735854 0.020557705 0.03067419
-0.008369829 -0.014476955 0.0016318667 -0.0056903 1.4423503e-05 -0.03388114 -0.013869844 -0.005745336
0.008329707 -0.0068970276 -0.021398498 0.019320875 -0.04770908 0.011940985 -0.010618212 -0.0056918506
-0.037825428 -0.0051431325 -0.00913446 -0.01315847 -0.002191629 -0.0050776913 -0.024477534 -0.0020438991
-0.028428797 0.0045957686 0.00029921136 -0.021272883 0.004610249 -0.022690453 -0.00064114144 0.0032647396
0.0004281221 -0.03789671 -0.0028849232 0.0022613527 -0.01171808 0.03702053 -0.009536737 -0.016538888
0.0012443791 0.00048499467 0.016292308 -0.008542836 0.0123558175 -0.009708787 -0.0073143877 0.008671147
0.001226893 0.032099202 0.022878652 0.00048522637 -0.013152646 -0.020383544 -0.01718103 -0.0040758955
-0.01746629 0.0017805912 -0.018194668 -0.012136474 -0.014767662 -0.009392679 -0.021210289 -0.041346088
-0.005018488 -0.0048305206 -0.007859036 -0.009376002 0.013228172 0.006268236 -0.020921381 0.0021297203
-0.008017679 -0.014098715 -0.0034795373 0.026888 -0.02510685 -0.015744515 -0.00016402178 0.0034060953
-0.032728642 -0.008273622 0.021977078 0.0021477926 -0.0005157505 -0.010906178 -0.014523749 -0.009902273
-0.030126138 0.0030142192 -0.03476921 -0.012512247 -0.012544196 0.020574655 -0.0037162092 -0.036169145
-0.011383523 0.040429853 0.01106625 0.01553779 -0.016524576 0.0024551125 0.03054242 0.0023182977
0.0017349971 -0.0037215466 -0.020850502 -0.0064957975 -0.0012641491 -0.018609215 -0.0010921217 -0.028600307
0.0030329602 -0.011357045 0.007487443 0.0031173863 0.027353004 0.02132832 -0.004316282 -0.007386494
0.016313558 0.02312966 -0.013185772 -0.014240296 -0.02450416 0.014403617 -0.005188183 -0.011263017
-0.004819311 0.0063364566 0.055522878 0.002022421 0.031653512 -0.019499023 -0.040877238 -4.7698653e-05
0.009554718 -0.047092643 -0.024706235 0.01923058 -0.0026949267 -0.061050612 0.002001322 -0.0049544093
0.031638745 0.006162631 -0.038225364 -0.014725621 -0.008087923 0.003963357 0.044716887 -0.008043235
0.020525225 -0.008565562 -0.003281102 -0.0065820063 0.01774219 0.00024203013 -0.0044033267 -0.012970121
-0.002982884 -0.036419526 -0.0035146119 0.0013029928 0.0025413148 -0.027810132 -0.012318099 -0.01998055
00000000: 662c f7bb 2324 bfbb ae5a a6bb 51cb 933b
00000010: da9e d4bb 54c3 863b fde1 56bc d3d1 82bb
00000020: 2970 ebbc 54ed ec3c fb8b 443d b08a b7bb
00000030: 6d4b 05bc 93d3 a7bc c59b e7bb 389d 463b
00000040: a1f8 efbb 6e58 373d 8797 25bc e31e 083c
00000050: ca03 8bbb c4f1 55bc c113 35bc bc70 9a3c
00000060: d811 413b 1a37 513b 775d 5f3b 2b2c 87bb
00000070: 34eb 93bc 45ff 08bb a634 82bc e956 86bb
00000080: d588 85bc 4850 8fbc de91 8fbc 5d10 ec3c
00000090: 3518 1dbc 88a7 3ebb be25 0e3c 700f 9dbc
000000a0: 6952 db3c 0322 febc 6f26 053d 2526 03bc
000000b0: 5d77 a0bc 9652 853a 0082 35bb 2d65 4b3a
000000c0: d2dd fcbc 8cf3 66bc 770d 73bc 121b c7bb
000000d0: 3d5f 0ebc e31a 42bc ff24 fbbb 5089 8fbb
000000e0: 7ec2 43bb 8e4d b1bc d077 5bbc 9886 15bd
000000f0: 91a4 87bc 5a16 14bc 7738 0c3d 9b48 00bc
00000100: 7ddd 813c 1f1f d4bb b399 233b 9582 133c
00000110: 5f84 3fbc de2f 0bbd 4713 9abc 6672 073c
00000120: fcd2 22bc ec1b 323c 4f09 a5bc db35 af3b
00000130: 4cbb 0abc 1cf2 d63a 8f94 2f3a dc6a a6bc
00000140: 669b 99bc fcc3 e6bb c34a 5bbb 239b 573c
00000150: 1329 08bb 89c0 70bb a268 a83c 7048 fb3c
00000160: 9b21 09bc c030 6dbc 5ce4 d53a b275 babb
00000170: 79fc 7137 f3c6 0abd 583e 63bc 5f43 bcbb
00000180: 5379 083c 7600 e2bb e74b afbc d046 9e3c
00000190: 996a 43bd 1fa4 433c 02f8 2dbc b482 babb
000001a0: d6ee 1abd b987 a8bb b4a8 15bc a096 57bc
000001b0: 6fa1 0fbb c362 a6bb 1c85 c8bc f0f2 05bb
000001c0: 82e3 e8bc 1a98 963b 78df 9c39 7844 aebc
000001d0: 9211 973b 54e1 b9bc 4612 28ba 3ef5 553b
000001e0: 9375 e039 9539 1bbd fb10 3dbb 3433 143b
000001f0: 31fd 3fbc d7a2 173d f93f 1cbc 907c 87bc
00000200: 6f1a a33a e246 fe39 7277 853c 40f7 0bbc
00000210: 0e70 4a3c 9b11 1fbc 88ad efbb 6d11 0e3c
00000220: b3cf a03a 747a 033d 036c bb3c fb65 fe39
00000230: 327e 57bc 64fb a6bc 3bbf 8cbc 178f 85bb
00000240: 7715 8fbc ba62 e93a fc0c 95bc 10d8 46bc
00000250: 10f4 71bc c0e3 19bc 33c1 adbc 845a 29bd
00000260: 2172 a4bb 5849 9ebb 30c3 00bc cd9d 19bc
00000270: faba 583c c665 cd3b 5163 abbc c792 0b3b
00000280: 955c 03bc 4cfe 66bc f308 64bb 3944 dc3c
00000290: e1ac cdbc a4fa 80bc 43fd 2bb9 cc38 5f3b
000002a0: 780e 06bd 168e 07bc 4609 b43c fbc1 0c3b
000002b0: 6e33 07ba d3af 32bc 05f5 6dbc 253d 22bc
000002c0: 17cb f6bc 358a 453b 296a 0ebd 2b00 4dbc
000002d0: 2c86 4dbc 2e8c a83c a58b 73bb 1926 14bd
000002e0: f581 3abc c699 253d 374f 353c 3792 7e3c
000002f0: 8c5e 87bc f4e5 203b 1934 fa3c 95ee 173b
00000300: d868 e33a 31e5 73bb acce aabc b3da d4bb
00000310: ceb1 a5ba 5a72 98bc 8625 8fba 314b eabc
00000320: a1c4 463b e612 3abc 3959 f53b 104d 4c3b
00000330: 6813 e03c bbb8 ae3c 996f 8dbb 670a f2bb
00000340: 03a4 853c 6a7a bd3c 2309 58bc 2150 69bc
00000350: f3bc c8bc 26fd 6b3c a201 aabb 8488 38bc
00000360: 50eb 9dbb 0da2 cf3b f56b 633d 988a 043b
00000370: 1da7 013d 6abc 9fbc e46e 27bd 0a10 48b8
00000380: 648b 1c3c 37e4 40bd bb64 cabc 7389 9d3c
00000390: 5e9d 30bb 3510 7abd 9d28 033b 9958 a2bb
000003a0: a197 013d e5ef c93b 3392 1cbd bb43 71bc
000003b0: 3583 04bc 0cdf 813b 0e29 373d c6c7 03bc
000003c0: 8424 a83c 9256 0cbc c207 57bb dfad d7bb
000003d0: 1258 913c 78c9 7d39 c849 90bb a180 54bc
000003e0: 7d7c 43bb a42c 15bd 6755 66bb 2fc9 aa3a
000003f0: 308c 263b 13d2 e3bc dad1 49bc 40ae a3bc

action_model._continuous_distribution.mu.bias f4 [2]
0.08638965 0.07561972
00000000: 0fed b03d 83de 9a3d

56 f4 [312]
0.28124237 0.07456342 0.00047149265 0.00047149265 0.30223092 0.2528161 0.32616076 0.07438493
0.00047149265 0.00047149265 0.34288248 0.27998203 0.295215 0.071762115 0.00047149265 0.00047149265
0.31429052 0.2554065 0.45232797 0.071101375 0.00047149265 0.00047149265 0.45891187 0.32902947
0.4315105 0.06534428 0.00047149265 0.00047149265 0.43928874 0.30207995 0.4628361 0.06375286
0.00047149265 0.00047149265 0.45705217 0.31338835 0.4781671 0.058050342 0.00047149265 0.00047149265
0.4740407 0.31322762 0.25898707 0.043829493 0.00047149265 0.00047149265 0.2391123 0.20749097
0.29858497 0.046197705 0.00047149265 0.00047149265 0.28228593 0.229989 0.29354593 0.16909419
0.00047149265 0.00047149265 0.23046812 0.19570015 0.33717883 0.18952246 0.00047149265 0.00047149265
0.27737433 0.21693388 0.42044577 0.39422202 0.00047149265 0.00047149265 0.49526343 0.35843715
0.42227736 0.39499092 0.00047149265 0.00047149265 0.49578267 0.35946724 0.28166583 0.074645914
0.00047149265 0.00047149265 0.29842 0.247855 0.32656428 0.07446022 0.00047149265 0.00047149265
0.33988145 0.27580318 0.2957214 0.0718617 0.00047149265 0.00047149265 0.31082132 0.25060868
0.452744 0.071187995 0.00047149265 0.00047149265 0.45792508 0.326414 0.4320609 0.065442026
0.00047149265 0.00047149265 0.43808138 0.2989281 0.46195874 0.06385311 0.00047149265 0.00047149265
0.45750225 0.31231052 0.47751534 0.058151014 0.00047149265 0.00047149265 0.47438696 0.3119054
0.25412545 0.04388757 0.00047149265 0.00047149265 0.23957552 0.20650549 0.29471418 0.046269525
0.00047149265 0.00047149265 0.2827304 0.2288959 0.28956652 0.16949892 0.00047149265 0.00047149265
0.23077919 0.19450384 0.33414474 0.18983851 0.00047149265 0.00047149265 0.27780247 0.21576299
0.4209104 0.39479268 0.00047149265 0.00047149265 0.4950238 0.35684532 0.42269167 0.39555648
0.00047149265 0.00047149265 0.4955469 0.35790524 0.28209293 0.07473421 0.00047149265 0.00047149265
0.29453772 0.24276325 0.32697615 0.0745266 0.00047149265 0.00047149265 0.33683673 0.27153438
0.29623327 0.07195348 0.00047149265 0.00047149265 0.3072928 0.24568954 0.4531599 0.07126211
0.00047149265 0.00047149265 0.4569261 0.32375625 0.43260962 0.065536246 0.00047149265 0.00047149265
0.43685952 0.29572248 0.46107578 0.063929 0.00047149265 0.00047149265 0.4579578 0.31122354
0.47684816 0.058230698 0.00047149265 0.00047149265 0.47472596 0.310563 0.24913356 0.043927923
0.00047149265 0.00047149265 0.24003826 0.2055027 0.29075664 0.046317346 0.00047149265 0.00047149265
0.28316915 0.22778612 0.28549302 0.16988643 0.00047149265 0.00047149265 0.23108797 0.1932931
0.33105937 0.19014259 0.00047149265 0.00047149265 0.2782369 0.21458155 0.42138222 0.3953608
0.00047149265 0.00047149265 0.49478006 0.3552321 0.4230949 0.39611956 0.00047149265 0.00047149265
0.4953027 0.356323 0.28250828 0.0748327 0.00047149265 0.00047149265 0.29056138 0.2375098
0.3273704 0.074618 0.00047149265 0.00047149265 0.33372483 0.26715377 0.29673606 0.072058894
0.00047149265 0.00047149265 0.30368733 0.24062335 0.45357624 0.07135007 0.00047149265 0.00047149265
00000000: 00ff 8f3e b5b4 983d ac32 f739 ac32 f739
00000010: 03be 9a3e 1d71 813e 8bfe a63e 2057 983d
00000020: ac32 f739 ac32 f739 4b8e af3e ce59 8f3e
00000030: 6c26 973e 04f8 923d ac32 f739 ac32 f739
00000040: b0ea a03e a4c4 823e 8897 e73e 999d 913d
00000050: ac32 f739 ac32 f739 7ff6 ea3e 8d76 a83e
00000060: f2ee dc3e 39d3 853d ac32 f739 ac32 f739
00000070: 74ea e03e 39aa 9a3e daf8 ec3e dc90 823d
00000080: ac32 f739 ac32 f739 be02 ea3e 7074 a03e
00000090: 51d2 f43e 32c6 6d3d ac32 f739 ac32 f739
000000a0: 76b5 f23e 5f5f a03e f499 843e 8e86 333d
000000b0: ac32 f739 ac32 f739 dbd9 743e 8378 543e
000000c0: 21e0 983e ce39 3d3d ac32 f739 ac32 f739
000000d0: c887 903e 3d82 6b3e a74b 963e 0727 2d3e
000000e0: ac32 f739 ac32 f739 d6ff 6b3e 9f65 483e
000000f0: b4a2 ac3e 2d12 423e ac32 f739 ac32 f739
00000100: 0204 8e3e ea23 5e3e ab44 d73e 78d7 c93e
00000110: ac32 f739 ac32 f739 2b93 fd3e 1385 b73e
00000120: bd34 d83e 403c ca3e ac32 f739 ac32 f739
00000130: 3ad7 fd3e 170c b83e 8136 903e f5df 983d
00000140: ac32 f739 ac32 f739 82ca 983e b3cd 7d3e
00000150: 6f33 a73e 9a7e 983d ac32 f739 ac32 f739
00000160: f104 ae3e 1336 8d3e cc68 973e 3a2c 933d
00000170: ac32 f739 ac32 f739 f923 9f3e c84f 803e
00000180: 10ce e73e 03cb 913d ac32 f739 ac32 f739
00000190: 2875 ea3e bc1f a73e 1637 dd3e 7806 863d
000001a0: ac32 f739 ac32 f739 344c e03e 1b0d 993e
000001b0: db85 ec3e 6bc5 823d ac32 f739 ac32 f739
000001c0: bc3d ea3e 2ae7 9f3e e47c f43e c22f 6e3d
000001d0: ac32 f739 ac32 f739 d9e2 f23e 11b2 9f3e
000001e0: bb1c 823e 74c3 333d ac32 f739 ac32 f739
000001f0: 4953 753e 2d76 533e c7e4 963e 1d85 3d3d
00000200: ac32 f739 ac32 f739 0ac2 903e b063 6a3e
00000210: 1042 943e 2091 2d3e ac32 f739 ac32 f739
00000220: 6151 6c3e 042c 473e 0515 ab3e 0765 423e
00000230: ac32 f739 ac32 f739 203c 8e3e f9f0 5c3e
00000240: 9181 d73e 4422 ca3e ac32 f739 ac32 f739
00000250: c273 fd3e 6eb4 b63e 0b6b d83e 6186 ca3e
00000260: ac32 f739 ac32 f739 53b8 fd3e 5b3f b73e
00000270: 7c6e 903e 400e 993d ac32 f739 ac32 f739
00000280: a6cd 963e ee96 783e 6b69 a73e 67a1 983d
00000290: ac32 f739 ac32 f739 dd75 ac3e 8e06 8b3e
000002a0: e3ab 973e 595c 933d ac32 f739 ac32 f739
000002b0: 7b55 9d3e 0a96 7b3e 9304 e83e def1 913d
000002c0: ac32 f739 ac32 f739 38f2 e93e 61c3 a53e
000002d0: 027f dd3e de37 863d ac32 f739 ac32 f739
000002e0: 0dac df3e f068 973e 2012 ec3e 35ed 823d
000002f0: ac32 f739 ac32 f739 7279 ea3e b158 9f3e
00000300: 7125 f43e 5083 6e3d ac32 f739 ac32 f739
00000310: 480f f33e 1d02 9f3e de1c 7f3e c4ed 333d
00000320: ac32 f739 ac32 f739 97cc 753e 4d6f 523e
00000330: 0ede 943e 42b7 3d3d ac32 f739 ac32 f739
00000340: 8cfb 903e c440 693e 242c 923e b5f6 2d3e
00000350: ac32 f739 ac32 f739 53a2 6c3e a0ee 453e
00000360: 9d80 a93e bdb4 423e ac32 f739 ac32 f739
00000370: 1175 8e3e 44bb 5b3e 69bf d73e bb6c ca3e
00000380: ac32 f739 ac32 f739 d053 fd3e fbe0 b53e
00000390: e59f d83e 2fd0 ca3e ac32 f739 ac32 f739
000003a0: 5198 fd3e f86f b63e eda4 903e e341 993d
000003b0: ac32 f739 ac32 f739 76c4 943e c535 733e
000003c0: 189d a73e 52d1 983d ac32 f739 ac32 f739
000003d0: fbdd aa3e 61c8 883e caed 973e 9d93 933d
000003e0: ac32 f739 ac32 f739 e87c 9b3e f865 763e
000003f0: 253b e83e fc1f 923d ac32 f739 ac32 f739

59 f4 [88]
49.237816 32.443153 64.76794 66.07101 32.30564 54.88635 0.03264595 0.36671165
0.028488532 0.19725218 13.378532 0.00047149265 0.00047149265 0.70402694 77.52498 32.331543
49.69035 31.417215 0.47568882 0.06406252 0.5570252 0.14356847 45.695835 26.630657
64.77399 63.885178 26.478909 54.80606 0.032545857 0.36657616 0.0284811 0.19228709
13.256813 0.00047149265 0.00047149265 0.69062096 76.571815 26.480057 49.22442 30.968714
0.4755181 0.06369553 0.5575251 0.13370703 41.82595 19.068714 64.779045 61.60301
18.878744 54.72373 0.032444194 0.3664382 0.02847344 0.18714698 13.132769 0.00047149265
0.00047149265 0.67686427 75.59708 18.837309 48.749516 30.51079 0.4753437 0.06332245
0.5580165 0.1229836 37.520805 3.9196687 64.785675 59.210747 3.002461 54.642406
0.032342482 0.36630046 0.028465623 0.18181136 13.006827 0.00047149265 0.00047149265 0.6627424
74.59876 2.4119017 48.269302 30.042324 0.4751697 0.0629467 0.5585027 0.11112956
00000000: 86f3 4442 cac5 0142 2f89 8142 5b24 8442
00000010: fa38 0142 9f8b 5b42 c2b7 053d a1c1 bb3e
00000020: c860 e93c 7afc 493e 780e 5641 ac32 f739
00000030: ac32 f739 1c3b 343f ca0c 9b42 8053 0142
00000040: ebc2 4642 7556 fb41 7c8d f33e 3633 833d
00000050: 3499 0e3f 9d03 133e 89c8 3642 960b d541
00000060: 488c 8142 6c8a 7f42 ced4 d341 6839 5b42
00000070: ce4e 053d dfaf bb3e 3251 e93c e8e6 443e
00000080: e81b 5441 ac32 f739 ac32 f739 89cc 303f
00000090: c524 9942 28d7 d341 cee5 4442 edbf f741
000000a0: 1c77 f33e cd72 823d f7b9 0e3f 7fea 083e
000000b0: c64d 2742 ba8c 9841 df8e 8142 7b69 7642
000000c0: ab07 9741 19e5 5a42 34e4 043d ca9d bb3e
000000d0: 2241 e93c 75a3 3f3e d21f 5241 ac32 f739
000000e0: ac32 f739 fa46 2d3f b431 9742 cfb2 9641
000000f0: 81ff 4242 1916 f441 4060 f33e 33af 813d
00000100: 2bda 0e3f d3de fb3d 4e15 1642 dadb 7a40
00000110: 4492 8142 ced7 6c42 5228 4040 d391 5a42
00000120: 8d79 043d bc8b bb3e bd30 e93c c22c 3a3e
00000130: f71b 5041 ac32 f739 ac32 f739 7ca9 293f
00000140: 9132 9542 995c 1a40 c413 4142 ae56 f041
00000150: 7149 f33e 33ea 803d 08fa 0e3f e597 e33d
