results/ppo2/AI Car/AI Car-5498317.onnx (onnx, 277974 bytes, 11 tensors)

network_body.observation_encoder.processors.0.normalizer.running_mean f4 [312]
000000 c3 e0 b0 3d c0 a9 c0 3b 00 00 00 00 00 00 00 00
       0.0863662 0.005879611 0.0 0.0
000010 7c 4d 66 3f 43 e6 6a 3f 96 55 00 3e 0f 45 bb 3b
       0.8996198 0.917576 0.12532648 0.0057150195
000020 00 00 00 00 00 00 00 00 12 5f 5c 3f dc b3 63 3f
       0.0 0.0 0.86082566 0.8894632
000030 69 4b bd 3d 0d 01 b8 3b 00 00 00 00 00 00 00 00
       0.09242899 0.0056153596 0.0 0.0
000040 95 d1 64 3f fb a8 6a 3f 6b f0 96 3e b9 72 a7 3b
       0.89382297 0.91664094 0.294803 0.0051101116
000050 00 00 00 00 00 00 00 00 cc 23 31 3f 0a 8f 4a 3f
       0.0 0.0 0.69195247 0.7912451
000060 dc dc 75 3e bd 5f a0 3b 00 00 00 00 00 00 00 00
       0.24010032 0.0048942254 0.0 0.0
000070 05 33 3f 3f a1 a9 56 3f 38 5e 32 3f b9 8f 85 3b
       0.74687225 0.83852583 0.69675016 0.004075971
000080 00 00 00 00 00 00 00 00 3c 03 95 3e c9 39 0d 3f
       0.0 0.0 0.2910403 0.551663
000090 34 56 23 3f c6 3c 88 3b 00 00 00 00 00 00 00 00
       0.6380341 0.0041576354 0.0 0.0
0000a0 7a 08 b3 3e 24 a3 1a 3f a1 83 6e 3f 2f e8 27 3b
       0.34967405 0.6040518 0.931696 0.002562057
0000b0 00 00 00 00 00 00 00 00 46 f6 6b 3d 06 78 d5 3e
       0.0 0.0 0.05760791 0.41693133
0000c0 ae 75 66 3f a0 fe 3e 3b 00 00 00 00 00 00 00 00
       0.90023315 0.0029143468 0.0 0.0
0000d0 7c b2 b5 3d d2 52 ed 3e 53 fa 67 3f 6f a5 ed 3c
       0.08871934 0.4635225 0.9061634 0.029009549
0000e0 00 00 00 00 00 00 00 00 ab 37 68 3d a3 08 da 3e
       0.0 0.0 0.056693714 0.42584714
0000f0 c3 99 5e 3f d8 bc 1f 3d 00 00 00 00 00 00 00 00
       0.8695337 0.038998455 0.0 0.0
000100 55 ab aa 3d d4 56 e9 3e 29 df 6b 3e 40 30 47 3e
       0.0833346 0.45574057 0.23034348 0.19452
000110 00 00 00 00 00 00 00 00 0d 27 11 3f 83 c7 32 3f
       0.0 0.0 0.5670021 0.6983568
000120 0d 63 6c 3e 26 e0 47 3e 00 00 00 00 00 00 00 00
       0.2308466 0.195191 0.0 0.0
000130 32 da 10 3f e1 3b 32 3f 0d 63 b1 3d 49 02 c1 3b
       0.5658294 0.6962262 0.086614706 0.005890165
000140 00 00 00 00 00 00 00 00 2b ee 66 3f 33 8a 6b 3f
       0.0 0.0 0.90207165 0.9200775
000150 37 a5 00 3e ed 95 bb 3b 00 00 00 00 00 00 00 00
       0.12563024 0.0057246597 0.0 0.0
000160 27 fc 5c 3f b0 55 64 3f 16 f0 bd 3d b6 65 b8 3b
       0.86322254 0.8919325 0.092743084 0.0056273593
000170 00 00 00 00 00 00 00 00 bd 6d 65 3f 1f 4a 6b 3f
       0.0 0.0 0.8962057 0.91909975
000180 ac 54 97 3e 2b cb a7 3b 00 00 00 00 00 00 00 00
       0.29556787 0.005120655 0.0 0.0
000190 a7 a2 31 3f 09 20 4b 3f 4b ae 76 3e bd b9 a0 3b
       0.6938881 0.79345757 0.24089925 0.004904954
0001a0 00 00 00 00 00 00 00 00 87 af 3f 3f 1f 3a 57 3f
       0.0 0.0 0.7487721 0.8407306
0001b0 20 d6 32 3f 40 eb 85 3b 00 00 00 00 00 00 00 00
       0.6985798 0.004086882 0.0 0.0
0001c0 47 75 95 3e 02 a0 0d 3f 68 cc 23 3f 38 92 88 3b
       0.29191038 0.5532228 0.63983774 0.0041678213
0001d0 00 00 00 00 00 00 00 00 16 7e b3 3e 81 0c 1b 3f
       0.0 0.0 0.35057133 0.60565954
0001e0 f3 26 6f 3f 93 3a 28 3b 00 00 00 00 00 00 00 00
       0.93418807 0.0025669679 0.0 0.0
0001f0 ac d5 6c 3d a5 12 d6 3e 91 15 67 3f 44 60 3f 3b
       0.05782096 0.418111 0.9026728 0.0029201666
000200 00 00 00 00 00 00 00 00 7e 3c b6 3d 3c f7 ed 3e
       0.0 0.0 0.08898257 0.46477687
000210 bc 9a 68 3f 3d a6 ee 3c 00 00 00 00 00 00 00 00
       0.90861106 0.029132003 0.0 0.0
000220 21 ca 68 3d c9 9f da 3e f0 33 5f 3f 20 33 20 3d
       0.05683339 0.4270003 0.87188625 0.039111257
000230 00 00 00 00 00 00 00 00 ad 2b ab 3d a7 f9 e9 3e
       0.0 0.0 0.0835794 0.45698282
000240 2b 81 6c 3e 42 d4 47 3e 00 00 00 00 00 00 00 00
       0.23096149 0.19514564 0.0 0.0
000250 21 87 11 3f 24 40 33 3f 3f f6 6c 3e f7 83 48 3e
       0.56846815 0.70019746 0.2314081 0.1958159
000260 00 00 00 00 00 00 00 00 0e 3e 11 3f a9 b6 32 3f
       0.0 0.0 0.5673531 0.6980997
000270 bd e6 b1 3d 63 5f c1 3b 00 00 00 00 00 00 00 00
       0.08686588 0.0059012636 0.0 0.0
000280 9e 8e 67 3f eb 2d 6c 3f db f6 00 3e 18 dc bb 3b
       0.9045199 0.92257565 0.12594168 0.0057330243
000290 00 00 00 00 00 00 00 00 b4 98 5d 3f 00 f7 64 3f
       0.0 0.0 0.8656113 0.8943939
0002a0 54 97 be 3d 4f c4 b8 3b 00 00 00 00 00 00 00 00
       0.09306207 0.005638636 0.0 0.0
0002b0 b6 09 66 3f fe ea 6b 3f 4d b9 97 3e f3 15 a8 3b
       0.8985857 0.92155445 0.2963356 0.0051295697
0002c0 00 00 00 00 00 00 00 00 5a 21 32 3f ff b0 4b 3f
       0.0 0.0 0.6958214 0.7956695
0002d0 82 7f 77 3e c7 10 a1 3b 00 00 00 00 00 00 00 00
       0.24169734 0.00491533 0.0 0.0
0002e0 2b 2c 40 3f b5 ca 57 3f 82 4d 33 3f 76 2e 86 3b
       0.75067395 0.8429368 0.7004014 0.004094894
0002f0 00 00 00 00 00 00 00 00 92 e8 95 3e 9e 06 0e 3f
       0.0 0.0 0.29279 0.5547885
000300 7d 43 24 3f de d6 88 3b 00 00 00 00 00 00 00 00
       0.6416548 0.004176005 0.0 0.0
000310 ee f1 b3 3e 6a 75 1b 3f 53 ca 6f 3f 92 7a 28 3b
       0.35145515 0.60726035 0.936681 0.0025707823
000320 00 00 00 00 00 00 00 00 6c b5 6d 3d ce ac d6 3e
       0.0 0.0 0.058034346 0.41928715
000330 02 b6 67 3f 50 a0 3f 3b 00 00 00 00 00 00 00 00
       0.90512097 0.002923984 0.0 0.0
000340 3c c4 b6 3d 28 9b ee 3e 7f 3b 69 3f c9 9b ef 3c
       0.089241475 0.4660275 0.9110641 0.029249089
000350 00 00 00 00 00 00 00 00 fb 5c 69 3d ee 36 db 3e
       0.0 0.0 0.05697344 0.42815346
000360 2a ce 5f 3f 04 a3 20 3d 00 00 00 00 00 00 00 00
       0.87423956 0.039217964 0.0 0.0
000370 33 ae ab 3d ea 9c ea 3e 73 26 6d 3e 9f 78 48 3e
       0.08382835 0.4582284 0.23159198 0.19577263
000380 00 00 00 00 00 00 00 00 61 e6 11 3f 5c b8 33 3f
       0.0 0.0 0.56992155 0.70203185
000390 47 86 6d 3e 62 27 49 3e 00 00 00 00 00 00 00 00
       0.23195754 0.1964393 0.0 0.0
0003a0 ba a2 11 3f ec 31 33 3f c7 66 b2 3d a2 c8 c1 3b
       0.56888926 0.6999805 0.087110095 0.00591381
0003b0 00 00 00 00 00 00 00 00 a5 2f 68 3f 47 d2 6c 3f
       0.0 0.0 0.906977 0.9250836
0003c0 d1 44 01 3e c2 3d bc 3b 00 00 00 00 00 00 00 00
       0.12623908 0.005744667 0.0 0.0
0003d0 3b 36 5e 3f 32 99 65 3f 05 3c bf 3d 92 30 b9 3b
       0.868015 0.8968688 0.0933762 0.005651542
0003e0 00 00 00 00 00 00 00 00 1c a6 66 3f 1f 8c 6c 3f
       0.0 0.0 0.9009721 0.9240131
0003f0 37 1e 98 3e 05 70 a8 3b 00 00 00 00 00 00 00 00
       0.29710552 0.005140307 0.0 0.0

network_body.observation_encoder.processors.1.normalizer.running_mean f4 [88]
000000 c4 19 a0 c3 cf bb a4 43 25 03 8b 42 0d 33 94 c3
       -320.2013 329.46725 69.50614 -296.39883
000010 c3 8e a4 43 7a e4 a6 42 3a 5c 57 3d 14 d9 dd 3e
       329.11533 83.44624 0.05257819 0.4332968
000020 34 57 00 bd 41 f0 49 3f bc ad 0b 42 00 00 00 00
       -0.031333163 0.78882223 34.919662 0.0
000030 00 00 00 00 8e ae 28 40 97 51 5c c3 30 fc a4 43
       0.0 2.635654 -220.31871 329.9702
000040 18 4d 08 43 b1 13 c6 42 4f 9d 10 3f f8 4c 08 be
       136.30115 99.03846 0.56490034 -0.13310611
000050 40 6d aa 3e f2 3f 6e 3f 87 91 a0 c3 09 2f a5 43
       0.33286476 0.9306632 -321.13693 330.36746
000060 67 3c 8b 42 06 a6 94 c3 d5 01 a5 43 1f 3c a7 42
       69.61797 -297.29706 330.0143 83.617424
000070 6d 02 58 3d 46 33 de 3e be 8e 00 bd 38 8e 4a 3f
       0.05273669 0.43398494 -0.03138613 0.7912326
000080 ef 0b 0c 42 00 00 00 00 00 00 00 00 96 15 29 40
       35.011654 0.0 0.0 2.6419425
000090 86 08 5d c3 97 6f a5 43 f5 9f 08 43 e9 94 c6 42
       -221.0333 330.8718 136.62483 99.29084
0000a0 86 db 10 3f b0 aa 08 be 4e 4e ab 3e 63 e8 6e 3f
       0.56584966 -0.13346362 0.3345818 0.93323344
0000b0 5c 09 a1 c3 60 a2 a5 43 e0 75 8b 42 1a 19 95 c3
       -322.07312 331.26855 69.730225 -298.1961
0000c0 ff 74 a5 43 e9 93 a7 42 75 a9 58 3d 99 8d de 3e
       330.91403 83.78889 0.05289598 0.43467405
0000d0 7e c6 00 bd 0c 2c 4b 3f 5e 6a 0c 42 00 00 00 00
       -0.031439297 0.79364085 35.103874 0.0
0000e0 00 00 00 00 a5 7c 29 40 58 bf 5d c3 e6 e2 a5 43
       0.0 2.6482327 -221.74744 331.77264
0000f0 ef f2 08 43 29 16 c7 42 dd 19 11 3f d2 08 09 be
       136.94896 99.54328 0.5668009 -0.13382271
000100 38 2f ac 3e b0 90 6f 3f 39 81 a1 c3 d3 15 a6 43
       0.33629775 0.9358015 -323.00955 332.1705
000110 f5 ae 8b 42 49 8c 95 c3 40 e8 a5 43 6b eb a7 42
       69.84171 -299.09598 331.81445 83.9598
000120 2d 50 59 3d d7 e7 de 3e 1d fe 00 bd 1d ca 4b 3f
       0.053054977 0.43536255 -0.03149234 0.79605275
000130 7e c8 0c 42 00 00 00 00 00 00 00 00 ec e3 29 40
       35.195793 0.0 0.0 2.6545362
000140 73 76 5e c3 12 56 a6 43 c6 45 09 43 a4 97 c7 42
       -222.46269 332.67242 137.27255 99.79617
000150 04 58 11 3f d6 66 09 be 7d 10 ad 3e 5f 39 70 3f
       0.56774926 -0.13418135 0.33801642 0.9383754

network_body._body_endoder.seq_layers.0.weight f4 [128, 400]
000000 b0 d1 87 3c 8c 29 a9 bd 6a e6 bf 3d a7 3d ac 3b
       0.016579479 -0.082598776 0.0937012 0.005256373
000010 98 bd 45 bc 12 63 be 3d c3 7c 64 3d 5d bc bc 3d
       -0.012069128 0.0929624 0.055783045 0.09215615
000020 62 45 b6 3d 24 54 1f 3d e2 30 a5 3d c2 02 42 bd
       0.088999525 0.038898602 0.08065964 -0.04736591
000030 e0 b4 86 bd e4 ca b6 3c 50 29 07 3d 83 90 3c 3d
       -0.06577468 0.022313543 0.032998383 0.046036255
000040 a4 4f fd 3c b7 f4 00 3d 62 ce 1f bd 24 ab c4 3d
       0.030921765 0.03148338 -0.03901518 0.09602955
000050 6b fd 39 bd cc 05 b3 3d b1 6b e1 3b c8 db 7c bd
       -0.045407694 0.0874134 0.006879293 -0.061733037
000060 22 7d 41 bc 60 d7 ef bd 3f 14 a3 3d 32 6a a9 bc
       -0.011809619 -0.117110014 0.07962846 -0.02068052
000070 5a bc 92 3d 4c 73 09 3c d6 37 15 3e 90 58 3d bd
       0.071648315 0.008389305 0.14572081 -0.046227038
000080 9f a7 ca bd d8 ce f5 bc fe b9 16 3d ad 19 d5 bd
       -0.098952524 -0.030005857 0.03679847 -0.10405288
000090 77 11 bf 3d 4c 1e fd bd a8 d6 e3 3d 1c 06 28 bd
       0.09329503 -0.12359294 0.11124927 -0.04102145
0000a0 7d 06 82 bd fe ed 11 be e3 a0 ca 3c b3 a8 5e 3e
       -0.06348894 -0.14250943 0.02473492 0.21744041
0000b0 71 e0 0b 3d 0b b3 0c 3d 55 c6 e0 3c 27 1c 28 3d
       0.03414959 0.034350436 0.027438322 0.041042473
0000c0 9f db 59 bc 4b 75 9b 3b 33 47 a8 bc da 69 06 bd
       -0.013296991 0.004744207 -0.020541763 -0.03281579
0000d0 4d 45 a4 3d 5a 5b 05 bc c0 c0 8a 3d 7c 14 53 3e
       0.080210306 -0.008139456 0.067750454 0.20613283
0000e0 a0 b4 bf 3c d9 21 c2 3c 20 d9 90 bd 7f 26 19 bd
       0.023401558 0.02369778 -0.07072663 -0.03739023
0000f0 ae 45 17 bb 38 04 9f 3c c4 56 0b 3d 1b 36 ad 3c
       -0.0023082304 0.019411191 0.034018293 0.021143964
000100 0d 51 f7 bc 2e b3 e7 3d dc 80 5b bd 1b b9 aa 3c
       -0.030190015 0.11313473 -0.053589687 0.020840218
000110 28 b2 b3 3c 10 77 ee 3d f5 3e fe bc 76 b6 c0 bc
       0.021935537 0.11643803 -0.03103588 -0.023524504
000120 f3 55 61 be c2 c2 e1 bc 52 4c ad 3c 14 e5 be 3d
       -0.22005443 -0.027558688 0.021154556 0.09321037
000130 65 6a 19 3e 37 79 16 3e 04 4b 0e be b9 32 ac bd
       0.14981993 0.14694677 -0.13895804 -0.08408112
000140 8f d9 22 bd d5 8d 34 3c 6a 0b da 3d 1f 93 f2 3d
       -0.03975826 0.0110201435 0.10646708 0.11844467
000150 31 e3 c4 bd 4a 0d fb 3c 6d bd 08 3c d5 54 6f bd
       -0.09613646 0.030645985 0.008345944 -0.05843051
000160 80 eb f5 3d a6 2c 49 3e c6 c5 5e bc ad a5 50 bd
       0.12007809 0.19645938 -0.013596958 -0.05093925
000170 b3 2f 0c bd 2b c8 8c bd e1 2f f4 3d fa b1 32 3d
       -0.034225177 -0.068741165 0.11923195 0.043626763
000180 b7 fe 82 bd b1 c2 bd 3c 9a 36 0a bd 63 39 9c 3c
       -0.06396239 0.023164125 -0.03374348 0.019070333
000190 92 8d 14 3d e0 ec 9d 3d 79 c0 a7 3d 22 c3 88 bd
       0.036267824 0.07711196 0.08191008 -0.06677844
0001a0 b3 0e f4 3c 3b b4 97 3c 80 87 1d 3d 23 bb a1 bc
       0.029792165 0.018518558 0.0384593 -0.019742554
0001b0 27 1a 18 be 60 4f eb 3c 47 c2 54 3d cb 75 21 3c
       -0.14853726 0.028724372 0.05194309 0.009854744
0001c0 4b 69 86 3d ab 87 fb 3d e1 0c d4 3d 9a fe 9e bd
       0.06563052 0.12281736 0.10354019 -0.07763405
0001d0 af fa fb bd cd 8a 59 bd 7c 22 22 bc a0 37 49 be
       -0.123036735 -0.053110886 -0.009895917 -0.19650126
0001e0 87 d7 c4 3c cb 68 99 3d c6 b0 8b 3d a0 81 65 3d
       0.024028553 0.07490691 0.06820826 0.056031823
0001f0 26 1b 9a 3d 81 ec 8e 3d fa 13 c3 bc aa 8e 25 3e
       0.075247094 0.06978703 -0.023813237 0.16167703
000200 3d db ea bd 1f 96 87 3d 53 6b d3 3d 2a 23 95 3d
       -0.11467598 0.0662043 0.10323205 0.07282098
000210 5c fb 99 bd cf 90 3d 3e 03 24 bd bc b9 38 3f ba
       -0.07518646 0.18512271 -0.02308846 -0.0007294524
000220 70 8c 00 be f9 5f bc bd 9d 28 29 bd ae d1 2c bb
       -0.12553573 -0.09197993 -0.041298497 -0.0026370096
000230 9d d5 f7 bb 24 13 08 bd f1 06 9d bc 97 90 bd bc
       -0.0075633065 -0.03322138 -0.019168349 -0.023140235
000240 04 52 90 3d 29 22 e7 3d 58 30 3a 3c 76 7d 0c bd
       0.07046893 0.112858124 0.011364065 -0.034299336
000250 4e 74 7c bd 76 c8 d7 bd 5f 4a 2f be 8e 10 24 3e
       -0.061634354 -0.10536282 -0.17118214 0.1602194
000260 a7 0a 73 bd eb 99 33 bc f3 89 43 3d f2 d0 61 3d
       -0.05933633 -0.01096199 0.04773898 0.055130906
000270 e7 27 83 3c fa a9 5b 3d 69 73 91 bd 63 ca 5e bc
       0.016010238 0.0536289 -0.07102091 -0.013598057
000280 2c 8c 39 3e 72 5a 26 3d a0 c1 9e bd c2 1a 2f be
       0.18119878 0.0406136 -0.07751775 -0.17100051
000290 1f 6f 4a 3c bd 72 cc bc 95 f0 68 bb 13 a4 51 3d
       0.012355595 -0.024957055 -0.0035543789 0.051181864
0002a0 f3 d6 ce bb 73 2b 66 bd c2 82 39 3d 37 ef 99 bd
       -0.006312245 -0.05619378 0.045290716 -0.0751633
0002b0 50 ab 1d 3d 40 6e ea bc e8 94 88 3a 32 a2 d4 3b
       0.038493454 -0.028617024 0.0010420354 0.0064890618
0002c0 32 b7 19 bd 8d 32 81 bb 0d 28 87 bd b3 aa 45 bd
       -0.037528224 -0.0039427937 -0.06599436 -0.048258495
0002d0 9f f4 e0 3d 65 d9 82 3d 92 f3 76 3d 90 cd 4e bd
       0.10984158 0.06389121 0.06029088 -0.05048901
0002e0 cc 81 a9 bc 51 76 36 bd bb 1d 16 be 52 35 be bc
       -0.020691775 -0.04454643 -0.14659779 -0.023218784
0002f0 c8 d8 56 bd c3 a0 9a bc be 47 52 bd fa 08 f4 bd
       -0.052452832 -0.018875485 -0.05133795 -0.11915775
000300 8a ba 1b be 00 59 13 be 03 b2 6a bd b3 0b 0b 3c
       -0.15207878 -0.1438942 -0.05729867 0.008486676
000310 49 6f 3a 3e ee 0b 2c 3e 32 4f 73 bd 8f 5a 77 3d
       0.18206514 0.16801426 -0.0594017 0.060389098
000320 32 49 7e bc 98 d0 f5 bb 5b b2 35 3d d8 37 9b 3d
       -0.015520381 -0.007501673 0.044359546 0.07579011
000330 8c df cf 3b 46 27 04 3c 77 62 05 bd 77 17 e7 bc
       0.0063437875 0.008066004 -0.032564607 -0.028209431
000340 ff e4 d9 bd 8b 83 a7 bd 78 0b 8b bd cf dd 7b bb
       -0.10639381 -0.08179387 -0.06789297 -0.0038431769
000350 95 79 01 bd fb 6c 29 bc f3 8c cb bd a9 66 a8 3a
       -0.03161009 -0.010340924 -0.09938993 0.0012847978
000360 be ec 82 3d a5 e8 3d be 28 69 dd bb 33 3a 49 bd
       0.06392811 -0.18545778 -0.0067569204 -0.04912777
000370 ff 55 c6 3d 0b c7 04 3d 2a 8f de 3c 58 43 3e 3e
       0.09684371 0.032416385 0.027167875 0.18580377
000380 4b b4 fc 3c 07 51 29 3b 83 58 be bd 25 ae ee bd
       0.03084769 0.002583565 -0.09294226 -0.11654309
000390 59 4f 9c bd 23 cb a7 3d d7 5b 0d bd ab a7 dc bc
       -0.07632322 0.08193042 -0.034511413 -0.026935419
0003a0 d5 99 92 bc 7e 1f 86 3d 65 9a fb bd a5 06 27 3d
       -0.017895618 0.065489754 -0.12285308 0.04077782
0003b0 ee a0 44 3d 76 5f 49 bc 55 97 8a 3c 09 86 8f 3d
       0.048005037 -0.012290826 0.016917864 0.07007987
0003c0 78 2c 4f 3d 21 b5 86 3c 72 b4 fc bc ff 94 e1 bc
       0.050579518 0.01644379 -0.030847762 -0.027536867
0003d0 93 0b 99 bb 32 10 4d bd 64 8a 82 3d aa b5 48 be
       -0.004670569 -0.050064273 0.06374052 -0.1960055
0003e0 e3 35 1a 3c 27 e4 c6 bc ca 20 0d 3e 49 45 0d bd
       0.009412262 -0.024278713 0.1378204 -0.034489904
0003f0 8e aa 9a 3d db 0d d9 ba c2 99 f5 3c 0a 43 9f bd
       0.07552062 -0.0016559915 0.029980544 -0.077764586

network_body._body_endoder.seq_layers.0.bias f4 [128]
000000 0c 94 9c bd e8 d9 1f be 81 86 06 bd aa 0e 0c be
       -0.07645425 -0.15610468 -0.032843117 -0.13677469
000010 23 dd cf bd 76 5b 88 bd 47 2b 51 be d2 fe fb bd
       -0.101496 -0.0665807 -0.20426665 -0.123044625
000020 03 a1 15 be dd 1e 06 bd 2f 18 c3 bd 87 e0 ac bd
       -0.14612202 -0.032744277 -0.09526097 -0.08441263
000030 c8 b1 94 bd 87 a0 b7 bd 39 2b 3a bd 68 81 75 be
       -0.072604716 -0.08966165 -0.045451377 -0.23975146
000040 a9 56 43 be b3 b3 05 be 20 da 92 bd 7e a9 4a be
       -0.19076027 -0.13056831 -0.0717051 -0.19791219
000050 e4 d9 c5 bd 8d 9b b9 bd 45 92 cb bd d9 74 48 bd
       -0.096607 -0.09062872 -0.09940008 -0.04893956
000060 66 ec 19 be a9 bc 3f bd 00 e7 46 be a8 13 37 be
       -0.15031585 -0.04681078 -0.19424057 -0.17878592
000070 a5 d2 30 be 89 7c c7 bd 89 ab 00 be 00 5a 31 be
       -0.17267855 -0.0974055 -0.12565435 -0.17319489
000080 0f 1f 56 bc d9 f3 a4 bd c6 bb 69 bd 88 97 06 bc
       -0.013068928 -0.08054323 -0.05706384 -0.008214839
000090 9c 91 5e bd c8 07 57 3c ff 8e 77 be 9b 6f e5 bd
       -0.054338083 0.013124414 -0.24175642 -0.11202928
0000a0 03 3e e7 3a 82 b8 0e be 63 74 71 bd ab ec 00 be
       0.0017642382 -0.13937572 -0.058948886 -0.12590282
0000b0 6e ba 93 bd 3f 16 a9 bd 85 af 37 be b1 2c 6b be
       -0.07213293 -0.08256196 -0.17938049 -0.22966267
0000c0 5e f2 55 bd 66 51 27 be 76 bd 5f bd b3 a0 27 bd
       -0.052233092 -0.16339645 -0.054624043 -0.04092474
0000d0 57 8a 37 be 3d bc 54 be 71 0d 88 bd cb ba 25 be
       -0.17923866 -0.20774932 -0.06643189 -0.16184537
0000e0 bc 54 4c be 49 24 10 bd c4 e7 e1 bd 1a 01 62 bd
       -0.19954199 -0.035190854 -0.11030534 -0.05517683
0000f0 fa 7b 53 3c 58 78 e7 bd e5 d1 b1 bd 1d e7 09 be
       0.012907976 -0.113022506 -0.08682612 -0.13467069
000100 47 89 ad bd bc dd ce bc e9 79 8f bc c1 99 b1 bc
       -0.08473449 -0.025252216 -0.017514186 -0.02167976
000110 3f db 13 be ca 00 f0 bd 86 01 05 be 86 be 0d be
       -0.14439104 -0.117189005 -0.12988862 -0.1384221
000120 53 4a 1c be be a1 20 bd d0 1b 40 bc 2c 69 21 be
       -0.15262727 -0.03921675 -0.011725381 -0.15762776
000130 fa e4 86 bd 6f 90 05 be 2b 07 52 bb 15 75 6e bd
       -0.065866426 -0.13043378 -0.003204773 -0.058217127
000140 e8 cc ca bd 75 ab d6 bd e8 da 46 bd f6 e7 1f be
       -0.09902364 -0.104819216 -0.04854861 -0.1561583
000150 7b 17 14 bd c1 42 d6 bd 45 b6 d8 bd e2 7c 34 be
       -0.036155205 -0.10461951 -0.1058164 -0.17625764
000160 ff 5d 02 be ee 81 94 bd af 59 1f be 88 f0 f0 bd
       -0.12731169 -0.072513446 -0.15561555 -0.11764628
000170 bf c3 d1 bd d6 75 c2 bd 28 9f 7b bd 2f 6e 06 be
       -0.10242414 -0.09495132 -0.06143108 -0.13127969
000180 cc 30 51 bd b5 89 32 be 91 28 1e bd 0e f9 10 bd
       -0.051071927 -0.17435344 -0.038612906 -0.035393767
000190 44 1e 1e bd 1f 39 99 bd 71 f3 6c bd fe ea 28 be
       -0.038603082 -0.07481598 -0.05784935 -0.16495892
0001a0 80 e6 0c be 86 a1 19 be da b1 23 be 1f 80 0b be
       -0.13759804 -0.15003023 -0.15985814 -0.13623093
0001b0 e9 fd f5 3b 31 ed 81 bd 91 40 4d be f2 c4 d8 bb
       0.007507075 -0.06344069 -0.20044161 -0.0066152746
0001c0 b9 ae a5 bd 25 ec e1 bd 50 77 20 be be f0 a4 bd
       -0.08089966 -0.11031369 -0.15670514 -0.080537304
0001d0 66 5e 10 bd 75 08 10 be 41 63 47 bd 0f fb 05 be
       -0.035246275 -0.14065726 -0.04867864 -0.13084053
0001e0 eb 98 93 bd da 6c 12 be 29 48 a6 bd ee 7f de bd
       -0.07206901 -0.14299336 -0.08119232 -0.108642444
0001f0 9a 95 25 bd 4d 84 ed bd d0 8d 0c be 6a 05 ea bd
       -0.040425874 -0.115975 -0.13725972 -0.11426814

network_body._body_endoder.seq_layers.2.weight f4 [128, 128]
000000 d3 0c b2 3d 3f 57 07 b8 a9 0f 46 bd 40 30 a1 3d
       0.08693852 -3.2267762e-05 -0.04835478 0.07870531
000010 1e c9 04 bd 53 b3 3a 3d 10 63 6a 3d b3 ad a0 bc
       -0.032418363 0.045581173 0.05722338 -0.019614076
000020 56 24 5e bc 75 21 b5 bd c9 d2 76 bd 37 4b 83 3d
       -0.013558468 -0.08844272 -0.060259614 0.064108305
000030 12 be 66 bd 1e f3 93 bd 97 ca bc bc 05 0d ac bd
       -0.05633361 -0.07224105 -0.023045821 -0.08400921
000040 53 6b 0b be 04 92 96 bd 99 ec a4 3d 9e b6 51 bd
       -0.1361516 -0.07352069 0.0805294 -0.051199548
000050 de 75 f2 bd 56 22 15 3e 5e cf b0 bd 35 46 1a 3a
       -0.11838888 0.1456388 -0.08633302 0.00058850955
000060 ba ed 44 bd a8 7a 18 3d 5e 1f 38 bd e3 54 8b bd
       -0.048078276 0.03722635 -0.04495179 -0.068033
000070 4e 23 ef 3c a2 fb 72 3c ac 51 08 bd 64 6b 6a bd
       0.02919164 0.014830502 -0.033281013 -0.057231322
000080 a3 c0 41 be d6 d1 68 bd 38 1f f2 bd 2f 92 45 be
       -0.18921141 -0.05684074 -0.11822361 -0.19294046
000090 28 db 4d bd ea fd cb bd 97 8d dd 3c 59 61 0e bd
       -0.05025783 -0.0996054 0.027045054 -0.034760807
0000a0 52 44 f4 bc 06 a9 da 3d 31 e6 1e bd c6 c0 57 be
       -0.029817734 0.1067677 -0.038793746 -0.21069631
0000b0 4a 93 2e bd da ec ba 3c f7 19 fd bc dc 62 a7 3d
       -0.042620935 0.022818018 -0.03089617 0.08173153
0000c0 a2 18 09 be 00 60 12 3c af 37 ca 3c 9c 1d da bd
       -0.13388303 0.008934021 0.024684755 -0.10650179
0000d0 01 3f 8d bd 23 ad c9 bd 27 23 5f bd cb 77 9a bd
       -0.06896783 -0.09847476 -0.054476883 -0.0754238
0000e0 36 18 86 3d 46 ad 90 bc 68 0a c2 bd e3 3b ca bd
       0.065475866 -0.017660748 -0.09474641 -0.09874704
0000f0 de 1f c3 39 72 2f 8e bd e4 17 ba 3d 16 bf 07 be
       0.0003721704 -0.06942643 0.09086588 -0.13256487
000100 b0 e7 4b bb 7d 4a 89 be a8 51 e8 3c 95 f5 29 be
       -0.0031113438 -0.26814643 0.02835925 -0.16597588
000110 05 01 b4 bd c3 6c 49 3d 4c 3c 00 bd 68 8e 66 bd
       -0.08789257 0.04917599 -0.031307504 -0.056288153
000120 f3 c4 c3 3a a4 75 17 3e 91 16 33 be 46 0b 0c be
       0.0014936015 0.1479097 -0.17489077 -0.13676175
000130 48 49 03 bd 65 f6 a2 3d 27 51 5e bc b1 61 e3 bd
       -0.03205231 0.07957152 -0.013569153 -0.111026175
000140 bc 6a 48 bd b5 9b 72 bd b1 75 a0 bb 3b 47 11 bd
       -0.048929915 -0.059230525 -0.0048968424 -0.03546832
000150 e3 04 83 bd f0 72 f2 3c ab d3 92 bd 9d 9a ff bd
       -0.063974164 0.029595822 -0.07169279 -0.12480662
000160 34 96 d3 3d 58 27 3c be d2 63 18 3e 1b fb a6 3d
       0.10331383 -0.18374383 0.14881828 0.08153363
000170 fe e5 be 3d f6 46 8b be 18 57 73 bd 15 62 51 3c
       0.09321211 -0.27202576 -0.05940923 0.012779732
000180 fc 85 82 3d 5f 3d 0c 3e a2 c5 c7 ba d8 c4 18 bc
       0.06373212 0.13695286 -0.0015241394 -0.009324275
000190 e3 94 2a be ba 34 1e be 0b b9 ac bb 58 3b b6 3d
       -0.16658358 -0.15449801 -0.0052710823 0.08898038
0001a0 93 15 1b be be 3b 98 3d 7b ee b8 bd eb 75 4b be
       -0.15144949 0.0743327 -0.090298615 -0.19869201
0001b0 1d 88 9b bd 75 94 c2 3d 55 f4 86 bd e4 fe 41 be
       -0.07594321 0.09500972 -0.065895714 -0.1894489
0001c0 2b 15 0f 3e 20 3a 90 bd 14 10 e9 3b ea a0 0a be
       0.13972919 -0.070423365 0.0071125124 -0.13537946
0001d0 0e 90 2f bc ab ed bf bc dd db 7f bc 04 7a 8d 3c
       -0.010715498 -0.023428759 -0.015616384 0.017270096
0001e0 8d c5 7c be 68 12 3c be d6 5d 64 bd 89 a0 49 be
       -0.24684735 -0.18366396 -0.05575355 -0.19690146
0001f0 4e df 87 bd b4 81 9d bd 06 7f ef 3b c5 83 3d 3d
       -0.06634389 -0.076907545 0.0073088435 0.046268243
000200 3f fc 80 be df c6 df 3d 04 8d eb bc a9 8c 13 3c
       -0.25192448 0.109266035 -0.028753765 0.009005704
000210 b6 76 31 3d 6e b0 a1 bc 8b c4 7b 3d dc 14 c5 bb
       0.043326102 -0.019737449 0.061466735 -0.0060144495
000220 ba 63 2f be 4a ea eb bd f8 a9 11 be f0 10 17 be
       -0.17127886 -0.115192965 -0.14224994 -0.14752555
000230 92 b7 a8 bd 71 e6 f5 bd 85 8e 68 bd ec 12 88 bd
       -0.08238138 -0.12006844 -0.056776542 -0.06644234
000240 de 25 80 3c 0b 24 90 bd d3 5e 53 be 1c 77 8c 3d
       0.015643056 -0.07038125 -0.20641641 0.06858656
000250 4d 78 81 3c 85 0b da bc 61 eb 4e 3d 13 1a 40 bd
       0.015804434 -0.026616821 0.050517444 -0.046899866
000260 f7 9b f9 bd 89 ea 3b be 85 46 43 3e a6 4b 46 3d
       -0.12187951 -0.18351187 0.1906987 0.048411988
000270 32 45 81 bc 98 9c b6 3d c7 91 b2 bc a9 26 ff bd
       -0.015780065 0.08916587 -0.021798028 -0.12458546
000280 a0 96 e5 bd 08 a3 90 bc d2 a8 7c 3d f0 4a 42 3d
       -0.1121037 -0.017655864 0.061684437 0.047434747
000290 23 c8 87 bd d1 c1 4b bd f1 65 8c bd 8c 07 b3 bc
       -0.0662997 -0.049745385 -0.06855381 -0.021854185
0002a0 c5 e6 d9 3c 81 62 3b be 65 60 be bd 98 51 a5 bd
       0.026599297 -0.18299295 -0.092957295 -0.080722034
0002b0 d0 9c 30 bd 30 fc 92 bd 5c 2d 1b bd 17 28 43 be
       -0.043118298 -0.07177007 -0.037885055 -0.19058262
0002c0 42 31 09 be 1b c3 aa 3d 04 eb 48 be 3f b1 4d be
       -0.13397697 0.08337995 -0.19620901 -0.20087145
0002d0 c4 ef 4d 3d e4 40 68 bd 99 18 9f 3d 7a cd 15 3d
       0.050277486 -0.05670251 0.077683635 0.03657291
0002e0 89 cd 07 3c 00 ea 24 3d a6 57 37 3c ff bd b0 3d
       0.0082887495 0.040262222 0.011190331 0.08629989
0002f0 cc 48 0e 3c e7 2c 74 bd 7d db 24 bd 7f f7 98 bc
       0.008684348 -0.059613135 -0.040248383 -0.018672703
000300 ac 4b f7 3b fc bc 7a bd 32 58 29 be c3 80 90 bc
       0.0075468626 -0.061215386 -0.1653755 -0.017639523
000310 88 21 4f 3d 5a 0d 8a be f0 95 b6 bd 33 db d5 3c
       0.050569087 -0.2696331 -0.08915317 0.026105499
000320 72 16 ae bd a1 8a 0b 3e a5 f3 7f ba cc ba 5e 3d
       -0.08500375 0.13627101 -0.0009763784 0.054377362
000330 df 80 df bc 8e 79 16 bd 95 07 67 bd 86 5d cc bd
       -0.02728313 -0.036737017 -0.056403715 -0.09978776
000340 57 cf 5f 3d f5 b2 b1 bd 4f 36 33 be 77 a5 a3 bd
       0.054641094 -0.086767115 -0.17501186 -0.07990544
000350 2d 9f 66 3d 22 17 35 be fe 6e 0c be 45 37 8f 3d
       0.056304146 -0.17684606 -0.13714215 0.06992964
000360 e2 7f 0a 3c ae c4 c0 bc 1d e8 e3 3d 2c 32 c4 bd
       0.008453341 -0.023531284 0.111282565 -0.09579882
000370 c4 ee 0a be 0c 2a 91 bc 9d ce 9c bd 57 4d 23 3c
       -0.13567644 -0.017720245 -0.07656596 0.00996717
000380 e7 c7 6e be 8c c1 4d be e0 31 62 bd f7 c1 9d bd
       -0.23318444 -0.20093364 -0.055223346 -0.077030115
000390 e4 96 4f be 7b 76 6e be 57 06 22 be 09 60 f4 bd
       -0.20272404 -0.23287384 -0.15822731 -0.1193238
0003a0 47 ec 2e be 16 03 b6 bd 4d a7 0a 3d 03 3d c6 bc
       -0.1708232 -0.08887307 0.033850957 -0.024199015
0003b0 11 e2 1e 3d fa 6f d7 bd 98 4e 08 3e 59 f7 59 3d
       0.038789812 -0.10519405 0.13311231 0.053214405
0003c0 df 95 8d bd fa 30 0f 3e 28 d2 3e bd 51 65 f8 3d
       -0.06913351 0.13983527 -0.04658714 0.121286996
0003d0 ad 82 b4 bd 8e 1f 6b 3d d5 72 db bd af d5 1f bc
       -0.08813987 0.05740314 -0.10715262 -0.009755536
0003e0 c8 1d 26 be af 3c c1 bc e4 98 2b bd df 43 39 bd
       -0.16222298 -0.023588507 -0.041893855 -0.045230743
0003f0 68 2d bf bc 78 09 05 be 43 ae c0 3c 4d ea 03 3e
       -0.023337081 -0.12991893 0.023520594 0.12882347

network_body._body_endoder.seq_layers.2.bias f4 [128]
000000 f8 f4 03 be 1d ec 42 bd 68 ef 64 bd d0 fc 06 bd
       -0.12886417 -0.047588456 -0.055892378 -0.032955945
000010 42 92 44 bd 8e 4c d6 bd 4e 3b 0f be c2 6e be bd
       -0.047991045 -0.104638204 -0.13987467 -0.09298469
000020 4e ae 20 bd 7c 7f 56 3c d1 15 a0 3c 4f eb 16 bd
       -0.03922873 0.013091918 0.019541653 -0.0368455
000030 73 f5 ea bd 6c f1 ee bd da c3 8d bd 89 23 77 bd
       -0.11472597 -0.11667141 -0.06922121 -0.060336623
000040 dd 20 92 bd d5 7d 88 bc 8c dc 9e bd 84 a7 13 bd
       -0.071351744 -0.016661564 -0.0775691 -0.036048427
000050 41 c6 a6 bd a2 69 b5 bd 47 c4 f9 bc db f8 b8 bd
       -0.08143283 -0.088580385 -0.0304891 -0.090318404
000060 3b 4e 82 bd 2b 75 fa bc cb 07 d4 bd 57 ff 82 bd
       -0.063625775 -0.030573448 -0.10353049 -0.063963585
000070 32 b4 91 bd f5 2f e3 bd f4 75 30 bd 35 36 9a bd
       -0.07114448 -0.110931315 -0.04308124 -0.075298704
000080 f8 5e 62 bd ff 9a 00 be 15 8e ce bc 48 95 44 ba
       -0.05526635 -0.12559126 -0.025214234 -0.0007499051
000090 61 77 11 be ad 84 2d bd b9 b0 7d bd cd ce fb bd
       -0.14205696 -0.042362858 -0.061936114 -0.122953035
0000a0 04 22 9d bd b2 25 36 bc 1d f5 2c 3c 80 75 8e bd
       -0.076725036 -0.011117386 0.010556486 -0.06956005
0000b0 c9 a0 98 bd 43 ca 5c bd 8c 08 cc bd 31 32 06 be
       -0.07452542 -0.05390383 -0.09962568 -0.13105084
0000c0 10 3f b4 bd 92 0e b5 bd 1f 81 3e bd ea 03 77 bd
       -0.08801091 -0.0884067 -0.04650986 -0.060306467
0000d0 43 35 bc bd 89 f1 f3 bd 68 9a 24 3d bb 37 8e bd
       -0.09189846 -0.119113036 0.040186316 -0.069442235
0000e0 e2 7b b7 bd dc 96 e2 bc a8 51 bd bd 48 c4 88 bd
       -0.08959176 -0.027659826 -0.0924409 -0.06678063
0000f0 ca f6 9d bd 6d 55 90 bd fc 02 6a 3c 8a c6 cf bd
       -0.07713087 -0.07047544 0.014282938 -0.1014529
000100 78 72 93 bd 7e 88 79 bd 02 50 b8 bd a0 93 ed bc
       -0.071995676 -0.060921185 -0.08999635 -0.029001057
000110 f0 f0 b6 bd c5 2b 61 bd 3d 82 9d bd f4 82 d4 bd
       -0.08932674 -0.054973383 -0.076908566 -0.1037654
000120 25 87 d7 bd fb bb 24 bd 02 16 58 bd 9f a6 d8 bc
       -0.10523824 -0.040218335 -0.052755363 -0.026446639
000130 b1 28 50 bd c3 7a c4 bd 76 f9 56 bd 98 89 b1 bd
       -0.050820056 -0.095937274 -0.052484 -0.08668822
000140 dd 63 08 be 1e cc a2 bd 6b 56 a2 bd ec 7c 45 bd
       -0.13319345 -0.079490885 -0.07926639 -0.048214838
000150 30 8d 56 bd 36 9a 83 be 46 ee 08 bd 2e 00 20 bc
       -0.05238074 -0.2570359 -0.03343036 -0.009765668
000160 5e 51 f7 bd 7d ca c8 3b 7c 16 18 bd b2 ac 1d be
       -0.120760664 0.006127654 -0.037130818 -0.1539791
000170 ad 2e 1b be d1 81 17 be cf 42 b5 bc 4a 32 0d be
       -0.15154524 -0.14795615 -0.022126583 -0.13788715
000180 d6 a5 1a be f9 3e 23 bd f4 0c c3 bd a5 f6 b9 bc
       -0.15102324 -0.039854977 -0.09523955 -0.022700617
000190 88 ec f7 bd 2c c0 59 bd 8c 82 a8 bd 93 5e 10 be
       -0.12105662 -0.053161785 -0.08228025 -0.14098577
0001a0 22 bd 8c bd c6 9b 64 bd 93 8e 88 bd 5d 9b 20 bd
       -0.06872012 -0.05581262 -0.06667819 -0.039210666
0001b0 30 46 10 be ba 3a ba bd b5 bc bf bd 5f 4b a2 bd
       -0.14089274 -0.090932325 -0.09362165 -0.07924532
0001c0 4f 0a b3 bd f2 9c e4 bd fc f4 17 be d1 26 cb bd
       -0.087422006 -0.111627474 -0.14839548 -0.09919513
0001d0 16 60 e7 bd ff 06 e1 bd 33 7c 9f bc e7 d9 a9 bd
       -0.11297624 -0.109876625 -0.019468402 -0.08293515
0001e0 ca c5 84 bd 2b ca f2 bd c4 f0 51 bd 67 73 12 be
       -0.06483038 -0.11854967 -0.051255003 -0.14301835
0001f0 cd a3 f6 bd c8 aa 5b bc f7 f1 e0 bd 1a 5c 50 bd
       -0.12042961 -0.013407417 -0.10983651 -0.050869085

action_model._continuous_distribution.log_sigma f4 [1, 2]
000000 0d 79 91 3e d8 40 95 3e
       0.28412667 0.29151034

action_model._continuous_distribution.mu.weight f4 [2, 128]
000000 6a a7 60 bc c7 e1 5a bc c3 bb 88 bc 76 f6 82 3a
       -0.01371179 -0.013359494 -0.016691094 0.0009991664
000010 52 b9 c6 3b 4a 14 58 3c d2 b4 0c bd 7f 57 65 3c
       0.0060645724 0.013188431 -0.03435213 0.0139979115
000020 4f 09 d1 bc 72 f5 3d 3c a7 e1 61 3d 73 e5 3f bc
       -0.025517134 0.011594163 0.05514684 -0.01171242
000030 58 44 81 3c ff 5f c0 bc 8d e6 1e 3c 40 1f d7 3b
       0.01577966 -0.023483275 0.009698522 0.0065650046
000040 12 a8 a6 bc a4 30 31 3d 74 59 fa bb 1a dc 16 3b
       -0.020343814 0.043259278 -0.007640058 0.0023019374
000050 39 c3 d5 bb 0b 35 35 bc e5 78 a3 bc 1e b5 47 3c
       -0.0065235165 -0.01106001 -0.019955108 0.012189178
000060 9c 90 38 bb ff 69 58 bc 3b d8 a1 3b 57 b6 80 bc
       -0.0028162366 -0.013208865 0.0049391068 -0.015711946
000070 be 55 c8 bc e7 c4 b5 bc dc f7 e2 bc 09 b2 f1 ba
       -0.024454948 -0.022188617 -0.02770608 -0.00184399
000080 6e 1f 3b bb 21 50 a1 bc 5e 0e 5a bc bd 4d 11 3d
       -0.002855267 -0.019691529 -0.0133090895 0.035474528
000090 17 57 c5 bc 70 38 db 3c a9 52 8b 3c 79 23 0f bd
       -0.02408938 0.02676031 0.017007189 -0.03494594
0000a0 19 e7 da 3c 66 b1 58 bd 2b a1 2a 3d 20 76 08 bc
       0.026721524 -0.052903555 0.041657608 -0.008328944
0000b0 1d 0d 2f 3b ee 61 85 3c 0d e1 82 3a 67 d2 24 3d
       0.0026710697 0.016282048 0.0009985283 0.040239718
0000c0 f9 68 6a ba d7 da c7 bb c5 04 1a bc 59 8a d7 b9
       -0.0008942034 -0.006099086 -0.009400551 -0.00041111073
0000d0 95 e1 30 bb d1 26 02 bc a1 c3 0b bb 16 16 64 3c
       -0.0026989926 -0.007943825 -0.002132632 0.013921281
0000e0 8e 4e 70 3c 82 3f 6f ba 32 38 e7 bc 6d 75 3b bc
       0.014667166 -0.000912659 -0.028225038 -0.011441571
0000f0 cb 94 09 bc 38 e0 41 3c aa c3 03 3d 8f 25 bb bc
       -0.008397291 0.011833243 0.03216902 -0.022845058
000100 ef 38 43 3d 49 76 b7 bc 07 fb cd 3c c4 59 e6 3c
       0.047661718 -0.02239527 0.025144113 0.028118975
000110 bf 96 28 3a 07 bc d0 bc e2 84 30 bc 7d 39 1f 3c
       0.00064311543 -0.025480283 -0.010773869 0.009718296
000120 f5 92 4e 3c 23 68 37 3d e9 fc e2 bc 46 af 88 3c
       0.0126082795 0.044777047 -0.027708488 0.01668514
000130 12 a8 02 bd 13 63 0d 3c 07 b5 0d 3c a2 a7 20 bd
       -0.031898566 0.008629578 0.008649117 -0.039222367
000140 01 be ae 3b 60 90 e9 bb 4a cc 55 3c c6 66 e8 3c
       0.005332709 -0.0071278065 0.013049195 0.028369319
000150 72 cc 45 bc 05 87 59 3c cb da d6 3c ea d2 15 3d
       -0.012072669 0.01327682 0.026227375 0.036578096
000160 20 62 85 bb 61 fc d3 bc ee f0 ac 3b 2b cf e7 3b
       -0.0040705353 -0.02587718 0.0052777445 0.007074257
000170 4c b2 bb 3b cc bc fa bc 90 1d 29 3c 32 9f 8a bc
       0.0057280418 -0.030607603 0.01032199 -0.016921613
000180 93 5d ec bb 3d 1f c9 bb e1 c9 8a bc 79 dc 0a 3c
       -0.0072133034 -0.006137757 -0.016941966 0.008475416
000190 6b 5a 52 bd 55 7d e0 3c f4 8e 06 bb 74 bf aa bc
       -0.05135576 0.027403513 -0.0020531984 -0.020843245
0001a0 28 84 15 bd 42 f3 f1 3b 0f 95 a1 3c 96 4f b6 bb
       -0.036502987 0.007383735 0.019724397 -0.0055636866
0001b0 ba 00 d0 ba bd e2 93 bc f2 eb ae bc 57 94 08 3c
       -0.0015869357 -0.018052453 -0.021352742 0.008336148
0001c0 7e b5 85 bc 32 c8 23 3c b7 7b 42 bc 03 59 9b bb
       -0.016321894 0.009996461 -0.011870316 -0.0047408356
0001d0 03 b4 3e bc 07 70 b6 bc b3 80 c7 38 b7 9c 65 3b
       -0.011639598 -0.022270216 9.5130315e-05 0.0035036036
0001e0 88 0c 95 3c ab 6e 2b bd 3b 41 0c bc c8 be 40 3d
       0.018194452 -0.041853588 -0.008560474 0.047056943
0001f0 b4 f2 9d ba 33 47 80 3d a0 55 91 3b 18 64 0d bd
       -0.001205048 0.0626358 0.004435256 -0.034519285
000200 dd 48 14 3c 74 c9 1f 3a 68 ea 51 ba 01 ea 29 bc
       0.009050575 0.00060953875 -0.00080076465 -0.010370732
000210 ea a6 88 3c ba 85 cf 39 ed 0e 77 bc 9f c8 99 bc
       0.016681153 0.0003958175 -0.015079242 -0.018772421
000220 bd 98 c6 bc 33 cb e2 3c b2 64 fb 3c df 10 50 3c
       -0.024242753 0.027684784 0.030687664 0.012699335
000230 36 ce 4e bb b9 cd c6 bc fd 6a ce bc 9b 69 83 3a
       -0.0031556017 -0.024268018 -0.0251975 0.001002598
000240 7b 9b 62 b9 c5 c6 2e 39 81 4b ff bc f2 3f d0 bb
       -0.0002161096 0.0001666798 -0.031163933 -0.006355279
000250 94 a6 8e ba f6 a4 bf bc c2 83 bf bc d3 a4 9b bc
       -0.0010883384 -0.02339409 -0.023378257 -0.018999493
000260 59 9d 0b 3c a2 1f 98 bc c6 33 18 bc de 9d fb b9
       0.008521401 -0.018569771 -0.0092896875 -0.0004799207
000270 f9 f6 86 3c ec 00 62 3c fc 64 06 bd e9 6b 03 3c
       0.016475188 0.013794165 -0.03281115 0.008021333
000280 86 e2 84 bc aa 44 9b bc 02 fb 47 3b 06 11 fb 3c
       -0.016221296 -0.01895364 0.0030514603 0.030647766
000290 9f 5a c7 bc 08 08 b3 bc d0 04 2c bc f9 bc b5 3b
       -0.024335204 -0.021854416 -0.010499194 0.005546209
0002a0 18 8b 22 bd 36 01 1e bc 92 e9 02 3d 78 69 d2 3c
       -0.03968343 -0.009643843 0.03196103 0.025685057
0002b0 b6 5a ac 3b 1f b9 0e bc 53 0b c7 ba 98 c1 0e bc
       0.005259837 -0.0087111285 -0.001518587 -0.0087131485
0002c0 e3 44 e7 bc d6 ac 29 bb bf 4e 1a bd 8e 16 00 3b
       -0.02823109 -0.0025890372 -0.037672754 0.0019544694
0002d0 ff f9 47 3c 61 68 d5 3c a6 55 f3 bc 31 c8 50 bd
       0.0122056 0.026050748 -0.029703926 -0.050972167
0002e0 13 44 03 3c ae ab e8 3c ff 8a 1e 3d a8 ff 79 bb
       0.008011836 0.028402176 0.038706776 -0.0038146768
0002f0 71 6d 48 3b d8 f2 81 3b c1 e6 fa 3c e3 f6 ef 3c
       0.003058281 0.003965717 0.03062761 0.02929253
000300 50 95 ca 3c 7b a8 b4 3c 00 b6 dd bc 07 38 6b bb
       0.0247294 0.022052994 -0.027064323 -0.003589155
000310 c4 af 95 3b 4a bd 59 bb ab 12 88 bb 01 ef 44 3b
       0.004568072 -0.0033224397 -0.004152616 0.0030049684
000320 5f 18 5e 3c 41 95 13 bb 5d a2 01 3d 44 ba 3f bc
       0.013555615 -0.0022519382 0.031648982 -0.011702124
000330 3d 19 15 3d ec 26 b9 3b 6d 07 16 3c b3 6b 11 3c
       0.036401022 0.005650392 0.009157044 0.008875775
000340 aa cc 0d 3c 24 28 93 3c 58 63 e5 bb e9 3e d7 bc
       0.008654753 0.017963476 -0.007000368 -0.026275115
000350 ba 35 83 bc de 79 58 b9 cb 75 55 3b e4 f4 d3 3b
       -0.01601683 -0.00020644764 0.003257143 0.006468402
000360 04 e0 06 bb ea 68 99 3c 4c 5f 1d 3d bb 92 0b 3c
       -0.00205803 0.018726785 0.03842096 0.00851887
000370 cd b7 d0 3c 73 36 82 3b 48 af 5f bd b2 ae 35 bc
       0.025478268 0.003973776 -0.05461052 -0.011089014
000380 d8 79 91 3c 91 e1 4e bc 24 7c 14 bd 2d b5 6d 3c
       0.017758295 -0.012627021 -0.036251202 0.014508528
000390 07 13 9e 3b 6a 63 6b bd 03 57 dc 3b fd a0 e2 3c
       0.0048240456 -0.057467856 0.00672424 0.027664656
0003a0 0e b6 b0 3c ec e9 4b 3c c3 a4 26 bd 1c 8e cd bc
       0.021571185 0.012445908 -0.040684473 -0.025092177
0003b0 04 60 13 3c e6 dc 3e bc 44 e9 1e 3d 32 9a 0b bb
       0.00899506 -0.011649346 0.03879668 -0.0021301624
0003c0 a9 44 d9 3c a3 36 c1 b9 f1 37 5e bb 5b f6 44 bc
       0.026521998 -0.00036852536 -0.0033907855 -0.012021626
0003d0 46 bf f7 3c 99 b7 75 3c cc 4c 77 bb 09 ed 40 3b
       0.030242573 0.014997386 -0.0037734983 0.002943816
0003e0 23 1e a1 3b 30 61 2a bd 42 bc bb ba 8b 1d 0f bc
       0.0049169227 -0.04159659 -0.0014323073 -0.008735071
0003f0 61 e0 a9 3b b0 c1 ee bc 96 b8 61 bb aa 80 33 bc
       0.0051842188 -0.029145092 -0.0034442297 -0.010955969

action_model._continuous_distribution.mu.bias f4 [2]
000000 bf 19 9a 3d b7 39 78 3d
       0.07524442 0.060601916

56 f4 [312]
000000 b4 d2 8f 3e e6 93 9c 3d 62 97 df 39 62 97 df 39
       0.2809044 0.07645397 0.00042646663 0.00042646663
000010 df db 99 3e a3 49 80 3e 87 84 a9 3e 32 62 9a 3d
       0.3005056 0.2505618 0.33108923 0.075382605
000020 62 97 df 39 62 97 df 39 dd 37 b1 3e 27 66 90 3e
       0.00042646663 0.00042646663 0.34612933 0.28202936
000030 7f 4a 94 3e 03 0a 99 3d 62 97 df 39 62 97 df 39
       0.28963086 0.07472613 0.00042646663 0.00042646663
000040 bd ba 9d 3e d6 11 7f 3e cd 72 e9 3e 80 07 92 3d
       0.30806533 0.24909148 0.455954 0.07130337
000050 62 97 df 39 62 97 df 39 23 62 ec 3e 5d e7 a9 3e
       0.00042646663 0.00042646663 0.46168622 0.3318433
000060 ac b2 da 3e 50 ed 8e 3d 62 97 df 39 62 97 df 39
       0.4271444 0.069788575 0.00042646663 0.00042646663
000070 9b 9e de 3e 32 ab 97 3e df 58 eb 3e c7 7c 82 3d
       0.4348038 0.296228 0.4596624 0.06371456
000080 62 97 df 39 62 97 df 39 76 92 e8 3e bb 0f a0 3e
       0.00042646663 0.00042646663 0.4542424 0.31262
000090 1d 0d f6 3e 61 c8 83 3d 62 97 df 39 62 97 df 39
       0.4805688 0.064347036 0.00042646663 0.00042646663
0000a0 f5 27 f4 3e f6 2c a0 3e 1c 29 81 3e 8a 11 4f 3d
       0.47686735 0.31284302 0.25226676 0.050553836
0000b0 62 97 df 39 62 97 df 39 c9 97 6e 3e 62 d0 51 3e
       0.00042646663 0.00042646663 0.23300089 0.20489648
0000c0 f2 70 99 3e 47 ce 5c 3d 62 97 df 39 62 97 df 39
       0.29968983 0.05390766 0.00042646663 0.00042646663
0000d0 d7 94 91 3e 0a 0f 6c 3e d8 4c 95 3e a3 dc 2b 3e
       0.28433868 0.23052612 0.2916019 0.16783385
0000e0 62 97 df 39 62 97 df 39 9f ce 6c 3e 32 1b 49 3e
       0.00042646663 0.00042646663 0.23125695 0.1963928
0000f0 2a 73 ac 3e e8 3c 46 3e 62 97 df 39 62 97 df 39
       0.33681613 0.19359171 0.00042646663 0.00042646663
000100 ae 82 8d 3e 88 61 5d 3e 42 94 d7 3e 63 aa ca 3e
       0.27638763 0.21619236 0.421053 0.3958312
000110 62 97 df 39 62 97 df 39 e9 b0 fd 3e 4c a4 b7 3e
       0.00042646663 0.00042646663 0.49549034 0.35867536
000120 68 be d7 3e 22 ee ca 3e 62 97 df 39 62 97 df 39
       0.42137456 0.39634806 0.00042646663 0.00042646663
000130 8d c5 fd 3e b5 95 b7 3e 99 02 90 3e 9e b7 9c 3d
       0.49564782 0.35856405 0.28126982 0.0765221
000140 62 97 df 39 62 97 df 39 fd 2c 98 3e bf 2d 7c 3e
       0.00042646663 0.00042646663 0.29721823 0.24626826
000150 81 b1 a9 3e 4d 83 9a 3d 62 97 df 39 62 97 df 39
       0.33143237 0.07544575 0.00042646663 0.00042646663
000160 2e ee af 3e 6f 98 8e 3e 62 84 94 3e a5 33 99 3d
       0.34361404 0.27850673 0.2900725 0.074805535
000170 62 97 df 39 62 97 df 39 21 28 9c 3e 00 b6 7a 3e
       0.00042646663 0.00042646663 0.30499366 0.2448349
000180 e1 9f e9 3e dd 2d 92 3d 62 97 df 39 62 97 df 39
       0.4562979 0.07137654 0.00042646663 0.00042646663
000190 17 f8 eb 3e 8e c9 a8 3e 35 f2 da 3e 31 15 8f 3d
       0.46087715 0.32966274 0.42762914 0.06986464
0001a0 62 97 df 39 62 97 df 39 7b 10 de 3e 83 3b 96 3e
       0.00042646663 0.00042646663 0.4337195 0.2934228
0001b0 af f1 ea 3e 48 a9 82 3d 62 97 df 39 62 97 df 39
       0.45887515 0.06379944 0.00042646663 0.00042646663
0001c0 bf c6 e8 3e b9 99 9f 3e c1 c8 f5 3e 7c f1 83 3d
       0.4546413 0.3117197 0.48004726 0.06442544
0001d0 62 97 df 39 62 97 df 39 e2 4c f4 3e 84 93 9f 3e
       0.00042646663 0.00042646663 0.47714907 0.31167233
0001e0 51 e7 7d 3e 2e 44 4f 3d 62 97 df 39 62 97 df 39
       0.24795271 0.05060213 0.00042646663 0.00042646663
0001f0 b5 01 6f 3e 67 f4 50 3e 02 c2 97 3e 86 06 5d 3d
       0.23340495 0.20405732 0.29640204 0.0539613
000200 62 97 df 39 62 97 df 39 b4 c6 91 3e 02 14 6b 3e
       0.00042646663 0.00042646663 0.2847191 0.22956851
000210 f4 89 93 3e 98 36 2c 3e 62 97 df 39 62 97 df 39
       0.28816187 0.16817701 0.00042646663 0.00042646663
000220 ae 14 6d 3e 5a 10 48 3e 89 1e ab 3e 35 83 46 3e
       0.2315242 0.19537488 0.33421734 0.19385989
000230 62 97 df 39 62 97 df 39 fd b2 8d 3e 10 56 5c 3e
       0.00042646663 0.00042646663 0.2767562 0.21517205
000240 0c c8 d7 3e 83 e9 ca 3e 62 97 df 39 62 97 df 39
       0.4214481 0.3963128 0.00042646663 0.00042646663
000250 a7 96 fd 3e 72 f2 b6 3e 65 ed d7 3e f7 2c cb 3e
       0.49529 0.35731846 0.42173305 0.39682743
000260 62 97 df 39 62 97 df 39 b6 aa fd 3e 0e e5 b6 3e
       0.00042646663 0.00042646663 0.49544305 0.3572163
000270 f7 32 90 3e 29 dd 9c 3d 62 97 df 39 62 97 df 39
       0.28163883 0.076593705 0.00042646663 0.00042646663
000280 3a 77 96 3e 35 af 77 3e 95 df a9 3e 03 a0 9a 3d
       0.29387838 0.2418793 0.33178392 0.07550051
000290 62 97 df 39 62 97 df 39 a2 a0 ae 3e b7 c2 8c 3e
       0.00042646663 0.00042646663 0.34106928 0.27492306
0002a0 07 bf 94 3e b4 5a 99 3d 62 97 df 39 62 97 df 39
       0.29051992 0.074880034 0.00042646663 0.00042646663
0002b0 a0 8f 9a 3e 6e 41 76 3e d4 cc e9 3e 3a 4e 92 3d
       0.30187702 0.24048397 0.45664084 0.07143827
0002c0 62 97 df 39 62 97 df 39 d4 8c eb 3e ed a7 a7 3e
       0.00042646663 0.00042646663 0.4600588 0.32745305
0002d0 83 31 db 3e b3 3b 8f 3d 62 97 df 39 62 97 df 39
       0.42811212 0.069938086 0.00042646663 0.00042646663
0002e0 c9 80 dd 3e 43 c6 94 3e c5 89 ea 3e e1 c9 82 3d
       0.43262318 0.29057512 0.45808235 0.063861616
0002f0 62 97 df 39 62 97 df 39 6d fb e8 3e cc 22 9f 3e
       0.00042646663 0.00042646663 0.45504323 0.31081235
000300 f1 82 f5 3e 7a 12 84 3d 62 97 df 39 62 97 df 39
       0.47951463 0.064488366 0.00042646663 0.00042646663
000310 0e 71 f4 3e 09 f8 9e 3e 80 61 79 3e 8b 6b 4f 3d
       0.47742504 0.3104861 0.243536 0.05063967
000320 62 97 df 39 62 97 df 39 85 6b 6f 3e 1c 15 50 3e
       0.00042646663 0.00042646663 0.23380859 0.20320553
000330 6a 0a 96 3e 64 2b 5d 3d 62 97 df 39 62 97 df 39
       0.2930482 0.05399646 0.00042646663 0.00042646663
000340 9c f7 91 3e 89 15 6a 3e e9 bd 91 3e 73 8c 2c 3e
       0.28509223 0.22859778 0.28465202 0.16850452
000350 62 97 df 39 62 97 df 39 f3 5a 6d 3e 32 03 47 3e
       0.00042646663 0.00042646663 0.23179226 0.19434813
000360 b6 c4 a9 3e af c5 46 3e 62 97 df 39 62 97 df 39
       0.3315789 0.19411348 0.00042646663 0.00042646663
000370 18 e4 8d 3e d6 48 5b 3e b5 fc d7 3e a9 28 cb 3e
       0.27713084 0.21414503 0.42184988 0.3967946
000380 62 97 df 39 62 97 df 39 06 7c fd 3e 89 3e b6 3e
       0.00042646663 0.00042646663 0.49508685 0.35594586
000390 29 1b d8 3e 81 6b cb 3e 62 97 df 39 62 97 df 39
       0.42208222 0.39730456 0.00042646663 0.00042646663
0003a0 02 8f fd 3e 6a 32 b6 3e db 61 90 3e 95 07 9d 3d
       0.4952317 0.35585338 0.28199658 0.07667462
0003b0 62 97 df 39 62 97 df 39 08 b8 94 3e 65 10 73 3e
       0.00042646663 0.00042646663 0.29046655 0.23736723
0003c0 79 0b aa 3e fa c7 9a 3d 62 97 df 39 62 97 df 39
       0.33211878 0.07557674 0.00042646663 0.00042646663
0003d0 69 4c ad 3e 3a e2 8a 3e a6 f8 94 3e 60 87 99 3d
       0.3384736 0.27125722 0.29095954 0.07496524
0003e0 62 97 df 39 62 97 df 39 2f ef 98 3e 27 ae 71 3e
       0.00042646663 0.00042646663 0.29869983 0.2360159
0003f0 c8 f9 e9 3e 2e 75 92 3d 62 97 df 39 62 97 df 39
       0.4569838 0.071512565 0.00042646663 0.00042646663

59 f4 [88]
000000 5a 55 5d 42 b5 cc f0 41 3d e6 90 42 31 37 8a 42
       55.33335 30.099955 72.449684 69.107796
000010 62 c0 ef 41 ac 86 81 42 5e 7e 03 3d 08 2c be 3e
       29.968937 64.76303 0.032102935 0.37142968
000020 2e a2 ed 3c 70 68 48 3e 3c 6b 55 41 62 97 df 39
       0.029007997 0.1957109 13.33868 0.00042646663
000030 62 97 df 39 8f c9 59 3f fc 7d 9b 42 e7 09 f0 41
       0.00042646663 0.8507318 77.74606 30.004835
000040 55 2f 73 42 3f 34 ff 41 72 1d f6 3e fc b9 82 3d
       60.796223 31.90051 0.4806934 0.0638313
000050 ca 53 0e 3f 7b 55 15 3e 0b 40 53 42 67 c3 c5 41
       0.555966 0.1458339 52.812542 24.720411
000060 89 e6 90 42 8b e5 86 42 d4 95 c4 41 df 63 81 42
       72.450264 67.448326 24.573158 64.69506
000070 29 2b 03 3d 3a 18 be 3e 1b 90 ed 3c ce 2f 44 3e
       0.032023583 0.37127858 0.028999379 0.19158861
000080 c8 bd 53 41 62 97 df 39 62 97 df 39 bc 2e 57 3f
       13.233833 0.00042646663 0.00042646663 0.84055686
000090 45 08 9a 42 50 af c4 41 6a c0 71 42 b5 1c fc 41
       77.01615 24.585602 60.437904 31.514017
0000a0 3e 04 f6 3e 46 18 82 3d 2e 78 0e 3f 91 eb 0c 3e
       0.48050112 0.06352286 0.5565213 0.13761736
0000b0 69 97 48 42 7e e3 8d 41 67 e6 90 42 07 78 83 42
       50.14786 17.73608 72.450005 65.73443
0000c0 f8 61 8c 41 57 40 81 42 c2 d6 02 3d 3e 04 be 3e
       17.547836 64.62566 0.03194309 0.37112612
0000d0 36 7e ed 3c 40 d7 3f 3e ec 08 52 41 62 97 df 39
       0.028990846 0.18734455 13.127178 0.00042646663
0000e0 62 97 df 39 2d 88 54 3f 97 8b 98 42 46 2b 8c 41
       0.00042646663 0.8302029 76.27264 17.52113
0000f0 36 4c 70 42 0d f7 f8 41 d9 ea f5 3e 59 74 81 3d
       60.074425 31.12063 0.48030737 0.0632102
000100 31 9c 0e 3f 94 eb 03 3e 46 3e 3d 42 f9 0f 80 40
       0.5570708 0.12882835 47.310814 4.00195
000110 f3 e6 90 42 8b d6 7f 42 c0 58 4a 40 36 1d 81 42
       72.45107 63.959515 3.1616669 64.55705
000120 7b 82 02 3d 35 f0 bd 3e 18 6c ed 3c 18 5b 3b 3e
       0.031862717 0.37097326 0.028982207 0.18296468
000130 99 4e 50 41 62 97 df 39 62 97 df 39 b0 d5 51 3f
       13.019189 0.00042646663 0.00042646663 0.81966686
000140 43 07 97 42 6f 4f 2f 40 a1 d5 6e 42 b4 c1 f5 41
       75.51418 2.7392232 59.708622 30.719582
000150 77 d1 f5 3e a4 cf 80 3d ed bf 0e 3f 5f 5f f4 3d
       0.48011371 0.06289604 0.55761606 0.11932253
