results/lasttest/AI Car/AI Car-5940.pt (torch, 100898 bytes, 83 tensors)

discrete_act_size_vector f4 [1, 2]
00000000: 0000 0040 0000 4040
2.0 3.0

network_body._body_endoder.seq_layers.0.weight f4 [20, 38]
00000000: 6556 57bd aa80 393c 7630 813d 3923 acbd
00000010: 641f 8bbd 7c87 553e e7cb f8bb eb46 5abe
00000020: cd36 9abd 7538 9fbd 96b1 bb3d 8550 f8bd
00000030: d28a 00bd 7a5b bb3d 1f6b 95bd efc6 aa3d
00000040: e2d7 5a3e d5a9 713d 02e8 7a3e 4d36 1bbe
00000050: 9865 df3b 237c c0bd 995b 68bd dbab 7bb9
00000060: a8ad 7b3e 3b92 443e 4a4a 323e 892a 42be
00000070: bd92 343e 206d 563d 74e3 b73e 608e aa3d
00000080: 76f2 93be 080d 603e 973c 5f3d 41d6 a73e
00000090: 8ee6 0a3e c2ab 22be 76b9 77bd 34d5 263e
000000a0: b46a 683e 91f2 f13d c819 b63d 6c11 783e
000000b0: 2520 09bd 50dc fa3d 2032 993e a695 d23e
000000c0: 7bdc 05be 4da0 4bbe 67d1 b63d 3760 9d3d
000000d0: 5d8b 94be bac6 853e 87ad 11bc c41c ccbd
000000e0: af3c 5d3c 093d 853d 6afa c9be d0fa a2bd
000000f0: bfab 60bd 02bd d83d 007e e83d 8f66 a6be
00000100: 7651 cc3e 260e 4f3e 1e3e 4dbd 1c8d 3e3d
00000110: 1979 aa3d 5d03 713c e362 193e 7095 b1be
00000120: 5ff5 9a3e 13ca 4f3e 30b1 2f3d 88d1 e9bc
00000130: 3442 f1bd 3f78 1ebe 7184 fcbc a169 ac3e
00000140: eb03 74bc dc26 82bd fbfa 8cbe fa1d 68be
00000150: fd1b 083e f109 253e 518b 99be 8c32 adbe
00000160: dd16 79be e5a5 c93d 6fae 6f3d 6ec4 083c
00000170: 29aa 993e cd12 903d 102c 88bd ae36 f6bb
00000180: 9f1f 75bc e8bb 193b 9c2e 54be 4c07 bebe
00000190: 10f4 683e ab2b 5f3d 6832 49be 1645 8fbd
000001a0: 9a7b 443e 01cb b23d 6af7 57bd 3a5e e3bc
000001b0: 915b 5cbc 2590 5ebd a763 f5bd 4d16 983e
000001c0: b6e7 02bd 63a2 b5bd 5234 253e e346 a9bc
000001d0: 6a03 95be f5c6 d8bd c043 dcbe e35e 3dbe
000001e0: 72dd 263d c3ad 293d e8fa 50be 84b9 37be
000001f0: 8c04 a9be 21f4 5dbd 8a9d c73d 18a6 a23d
00000200: 5e16 013d f2c6 0f3e 392e 0d3e ecbe 643e
00000210: 56f8 9d3d e41b 393e 3040 a13e fb85 e73c
00000220: 824c 593d e028 093e 6d5d 343d da91 013e
00000230: 7083 3cbc fe10 8bbd 7d80 11bd c727 973e
00000240: 95a8 a0bd 4802 ddbe 30c1 5bbc 3815 d7bd
00000250: c448 d03d dce4 6a3e d506 923d 913d 1dbe
00000260: 52da b4be f29c 4bbc fec9 b4bc a43d 103e
00000270: 1521 763e 25e1 93bc 0416 1cbc 6bed d6bc
00000280: 42f7 c13d 8d65 973d cfe4 eebd 05d7 863d
00000290: 8108 db3c 9382 8f3c 05a6 db3d 7a6c 8f3e
000002a0: 7631 85bd 9d30 813e abe3 493e aa5a c43b
000002b0: de77 78bd 97dd 4cbe 1358 3e3e 01b8 9a3e
000002c0: 8a16 1bbc 76bc fb3d f265 3cbd 0099 32bd
000002d0: 5168 873c 317d 893e 9b0a bcbd 904c 0f3e
000002e0: ada7 c7bd 84ac a03e dfd6 ce3d ebfc 2b3c
000002f0: f571 063e cbb6 c2bd 7259 dc3c 7739 dbbc
00000300: 702f 4a3d ddf1 eb3d 23ac 12be c27e 913d
00000310: a34f 42be 6d8e b83d 3772 893c 12d1 803d
00000320: 81af b8be f57f 94bc 4476 f8bc c81a 403e
00000330: faea 41be a50e 273b 2db3 40bd 771b 383d
00000340: 31cb 893e c42b 2d3e 1062 70be 681e 9a3e
00000350: cd51 b5bd df04 82be 6819 233d a024 bf3e
00000360: d10f 2fbd b70f a7be 17d6 87bc 66e9 fcbc
00000370: f684 ef3c 02a4 4ebd d1f1 1f3d 1aa6 783e
00000380: e57d 183e 6b2f 86bc ea7b 98bd 20f2 f43d
00000390: 4f56 bc3d e77f 613e 2c31 383d 3313 84be
000003a0: 1ea2 58bd 389e 633a 777d 3bbe 49ba c3bd
000003b0: 9844 19be dc3a 953d 47fe 8b3e 3cec 85be
000003c0: 73f3 4c3e cd65 933c 235e 103e 35ef 97bc
000003d0: 2e51 123e 7628 8ebd ad60 ec3d 4268 763e
000003e0: 5263 093d 60bd c53d f800 c7bd 718d 493e
000003f0: 383e 42be a402 3a3d 58a9 9a3e b923 3fbe
-0.052572627 0.01132218 0.06308071 -0.08405156 -0.06793097 0.20852464 -0.0075926664 -0.21316116
-0.07529984 -0.0777444 0.09164731 -0.12124733 -0.03138239 0.09148307 -0.07295822 0.08338725
0.21371415 0.058999855 0.24502566 -0.15157433 0.006817531 -0.09398677 -0.05672798 -0.00024001246
0.24577963 0.19196407 0.17411152 -0.18961538 0.17634101 0.052350163 0.3591572 0.08327937
-0.2889592 0.21879971 0.054501142 0.3278065 0.13564512 -0.15885833 -0.060479604 0.16292268
0.22696954 0.11813844 0.08891636 0.24225396 -0.03347792 0.122490525 0.29921055 0.41129798
-0.13072388 -0.19885369 0.08926659 0.07684367 -0.29012576 0.2612818 -0.00889147 -0.09966424
0.013503238 0.06505782 -0.39448863 -0.07957995 -0.05485129 0.105829254 0.113521576 -0.3250012
0.399059 0.20220241 -0.050108068 0.04652129 0.08323879 0.0147102745 0.14979129 -0.34684324
0.30265328 0.20291929 0.04289359 -0.028542295 -0.11780205 -0.15475558 -0.030824872 0.33674338
-0.014893512 -0.06355068 -0.27535233 -0.22667685 0.13291927 0.16117074 -0.29989102 -0.33827627
-0.24325128 0.09846095 0.058515962 0.008347614 0.30012634 0.07034836 -0.06649029 -0.0075138425
-0.014961152 0.0023457948 -0.20720905 -0.37114942 0.22749352 0.054485004 -0.19648135 -0.06995599
0.19187775 0.08730126 -0.052726187 -0.027754892 -0.0134495655 -0.054336686 -0.11981898 0.29704514
-0.031959258 -0.088688634 0.1613324 -0.020663684 -0.29104167 -0.10584823 -0.4302044 -0.18493228
0.04073853 0.041425478 -0.20408213 -0.17941862 -0.33011281 -0.054187898 0.09746845 0.07941836
0.03151547 0.14040735 0.13787164 0.22338456 0.07713382 0.18077046 0.31494284 0.028262129
0.05305148 0.13394499 0.04403441 0.12653294 -0.0115059465 -0.067903504 -0.035522927 0.29522535
-0.078446545 -0.43165803 -0.013412759 -0.10502094 0.10170129 0.22938865 0.07130209 -0.15355517
-0.35322815 -0.012427555 -0.022068974 0.14086014 0.24036057 -0.018051693 -0.009526733 -0.026236257
0.09470989 0.07392416 -0.116647355 0.065839805 0.026737453 0.017518317 0.10725025 0.2801245
-0.065035746 0.25232401 0.19715755 0.0059922533 -0.06066119 -0.20006405 0.18588285 0.3021851
-0.009465823 0.122918054 -0.04599566 -0.043602943 0.016529234 0.26853326 -0.0918171 0.1399405
-0.097487785 0.3138162 0.10099577 0.010497312 0.13129409 -0.09507521 0.02689812 -0.0267608
0.049361646 0.11520741 -0.14323477 0.07104255 -0.18975691 0.090115406 0.016778095 0.06289877
-0.360714 -0.01812742 -0.030329831 0.18760216 -0.18937293 0.0025490907 -0.047045875 0.044948068
0.26912835 0.16911227 -0.23474908 0.30101323 -0.08853493 -0.2539434 0.03981915 0.3733263
-0.042739693 -0.32629177 -0.016581578 -0.030873012 0.029238205 -0.05044938 0.039048973 0.24282113
0.14891775 -0.016380033 -0.0744551 0.11960244 0.091961496 0.22021447 0.04496877 -0.25795898
-0.052888982 0.0008682939 -0.1830958 -0.095570154 -0.14967573 0.07286617 0.27342436 -0.26156795
0.20014744 0.017992878 0.1409841 -0.01854668 0.1428878 -0.06941311 0.11541877 0.24063209
0.033541985 0.09655261 -0.09716982 0.19682862 -0.18969047 0.045412675 0.30207324 -0.18665971

network_body._body_endoder.seq_layers.0.bias f4 [20]
00000000: c8c9 023c 0000 0000 1c8d c6bb 0000 0000
00000010: 9139 e93b 74c2 003c 06f1 da3b b2f7 cd3b
00000020: 0000 0000 0000 0000 852b a7bb 0000 0000
00000030: a861 d5bb 5864 cca9 41f4 b2bb 790c 8517
00000040: dcb8 ac3b 0000 0000 d17e adb6 9172 dabb
0.007982679 0.0 -0.006059302 0.0 0.007117458 0.007858861 0.0066815643 0.006285631
0.0 0.0 -0.0051016235 0.0 -0.0065118857 -9.076827e-14 -0.0054612462 8.598072e-25
0.0052710604 0.0 -5.170565e-06 -0.0066664894

network_body._body_endoder.seq_layers.2.weight f4 [20, 20]
00000000: f85e 31bd 72cb d0be ad52 dbbe 3aa6 403e
00000010: 3019 88bd 64d1 5e3e 5f1a 71be abad 0abe
00000020: 807c 83be 48a8 96be 3559 153c 12f7 25be
00000030: 186d 97be 3e27 2b3e 6089 6fbd 0680 8abe
00000040: a563 583e 9614 bbbe 0a91 023d 358f 2b3e
00000050: d17e bc3e 156b 3e3d 637d dd3d 75fc 0abf
00000060: 2931 29bd 2d08 b5be 2133 163e dc65 a23e
00000070: 2e73 f53d 16b5 633e 63e7 693e ff65 7e3e
00000080: 1a60 9a3e f743 c63d d5ba 163d bf55 883d
00000090: 1286 7a3e 1f18 d5be d02f 8c3c 36ec d13e
000000a0: 822e 5e3e e927 4db8 9023 2d3e 045e eb3b
000000b0: 04fb b5be 2010 60bd 57d0 63be 1230 42be
000000c0: e775 42bf 9430 f43d acaa 43be 86f7 183e
000000d0: 2abd b9bd 2b01 6e3d 4698 723e 187f 00be
000000e0: 664d 4ebe 2f07 a7bb cd6a 9abe 1ef1 77be
000000f0: 4855 343e 2995 583e 025c 813e bc50 0a3f
00000100: 953a 8d3e 092e 2e3e 91fb ffbb ebe2 c93d
00000110: 63f7 e53d 36a2 24be 3ceb 6cbe 50c9 27bd
00000120: 616a 0bbe 8037 c33d a2d0 173e dc74 cd3d
00000130: 58a6 f53d 426c 5d3c 5402 943e 6206 2abf
00000140: d269 a63e 80c3 363d b6ad b5be 2996 b3bd
00000150: 7b22 ac3e 7639 96bd 0a82 a33d 3be1 e03e
00000160: cf75 a9bd 1f60 683e 6de7 3ebc 5463 21be
00000170: 5cd6 43be 728f d23e 1dec e0bd 6ca0 62bd
00000180: 9ba2 12be 9d4f 723e a8e3 c6be d07b 40bc
00000190: aa91 e1be 9ff5 95be a33d 273b 4760 93bd
000001a0: 9930 c8bd 982d b8bd dc5a 8cbe cb7b 863e
000001b0: 9734 ddbd 6592 c13e c252 bb3d 1864 333d
000001c0: e5a7 c6bc 5448 ffbc 69f2 90be 06a6 93be
000001d0: c6b8 dbbb 20e4 573d e9f7 923d 22df 91bd
000001e0: cb6d 253e ad75 64be f2e7 943c d8c0 d53d
000001f0: 1c81 443d e5b8 443d b1ce c4be e9d2 933d
00000200: 76a9 b7be 7f45 87be e976 8abd fd8b 27be
00000210: 06b7 4f3d 05ea 31be 86eb b23d 4704 5d3e
00000220: 800d 1e3e 28e9 17be 20ae e5bd f610 5b3d
00000230: 5101 c23c 9a62 a63d e70f 903e acbe aabe
00000240: af12 ebbd 64fd 83be b66a df3d dea4 03be
00000250: d280 a5bd 75f4 88be 350a 78bc 1e4c 46be
00000260: 8ce2 59bd a646 b2bd 57ea 1ebd 2cb4 34be
00000270: 9b95 c7be 0dd8 24be 39a2 27be be81 953e
00000280: b390 0abe 3c36 94be 32ce c5bd 7410 67be
00000290: bd3d 913e 4579 933d 9c43 86b9 3724 953d
000002a0: 3524 3e3e 6d3a 6dbd a3ce 493d f50f 48bd
000002b0: 082a 2dbb a6bd f9bd 4b43 9d3e 1b76 fbbd
000002c0: b27b 5bbe 48e0 fe3e eec8 ebbd af73 c43c
000002d0: 9c3a 3bbe a93c f93c 8e93 a23e b72d d33e
000002e0: 7c0c 153e 6654 713d 2f92 043e 4f6d 843d
000002f0: b8d6 d53d 10c2 0d3d baf6 3abe f13c 37be
00000300: 4d80 0a3e afd7 24bd 7a34 2d3e 374a 423d
00000310: 3942 2f3c bab6 fa3d 1f45 a4bd 8d3f 3cbe
00000320: 0478 d13e f768 80bc 6f7f 053e 47f4 933d
00000330: fc93 343e b1af 8e3d 4ed0 63be bbcc 96bc
00000340: 0e07 c0be 1d38 3f3e c37b 84bb fb19 e6bb
00000350: 4f47 c63c 6a4b bd3e 552c 34be d0d7 6b3e
00000360: 0857 cb3d c319 0d3e db9b 123e bcef c2bd
00000370: b4dc 683e fedd b73d d5c6 3ebe 70d0 1dbe
00000380: 0717 3bbe 1aa4 743d e633 193e afbe 36bd
00000390: f44e 8a3e 8c3a 593e 6e05 24be 5326 a1bb
000003a0: 6444 2ebd 7a0a 48be 0483 233f 36c1 953e
000003b0: 58b1 5abd 62f1 b73e 71b8 d9be bd00 913c
000003c0: d22e 873d 257f b8be d861 f03e 5f4d 3ebe
000003d0: 4fe9 993e 21f8 0c3f b61e edbd 14b7 5abe
000003e0: 33de 9abe 999b 9bbd a3a6 e2bc fbb2 05bd
000003f0: 1e2e 9fbd 2cb3 7b3d c8e3 89be 578e 1e3e
-0.04330346 -0.40780216 -0.42836514 0.1881341 -0.06645429 0.21759564 -0.23545216 -0.13542812
-0.25680923 -0.29425263 0.009115507 -0.16207531 -0.2957542 0.16714188 -0.05848062 -0.270508
0.21131761 -0.36539143 0.0318766 0.16753848 0.36815503 0.04648884 0.10814931 -0.5429147
-0.04130665 -0.353578 0.14667942 0.31718338 0.119848594 0.22237048 0.22842173 0.24843596
0.30151445 0.09680932 0.03679927 0.0665698 0.24465206 -0.41619965 0.017112643 0.41000527
0.21697429 -4.8912978e-05 0.16908097 0.0071828384 -0.35543072 -0.054702878 -0.22247444 -0.1896365
-0.75961155 0.11923328 -0.19108075 0.14938173 -0.09069283 0.058106583 0.236909 -0.12548482
-0.20146713 -0.005097292 -0.30159608 -0.24213073 0.17610657 0.2115065 0.2526551 0.5402944
0.27583757 0.17009749 -0.0078119715 0.09857734 0.11228826 -0.16077504 -0.2313661 -0.04096347
-0.13614799 0.0953207 0.14825681 0.10032055 0.11994618 0.01351458 0.28908026 -0.6641599
0.3250261 0.044620037 -0.35484093 -0.08768875 0.33620057 -0.073351786 0.07983787 0.43921837
-0.08274423 0.22692917 -0.011651856 -0.15760547 -0.1912474 0.41125065 -0.10982535 -0.05532877
-0.14319842 0.23663183 -0.38845563 -0.011748269 -0.44056445 -0.29288957 0.0025518916 -0.07196098
-0.09774894 -0.08993071 -0.2741307 0.26266322 -0.10801046 0.37807003 0.09146644 0.04379663
-0.02424998 -0.031162418 -0.28309944 -0.28837603 -0.0067053763 0.05270779 0.07176191 -0.07122637
0.16155164 -0.22310515 0.018177006 0.10437173 0.04797469 0.04802789 -0.38438943 0.07217962
-0.35871476 -0.2642021 -0.067609616 -0.16361995 0.050711654 -0.17374428 0.08736329 0.21583663
0.15434837 -0.14835036 -0.11214852 0.053482972 0.023682268 0.081242755 0.28137133 -0.33348596
-0.11478173 -0.2577926 0.10909025 -0.1285586 -0.08081211 -0.26749006 -0.015139152 -0.19364974
-0.053194568 -0.08704881 -0.038797703 -0.17646855 -0.38981327 -0.16098042 -0.16370477 0.29200548
-0.13531761 -0.28947628 -0.09658469 -0.2256487 0.28367415 0.07200865 -0.00025608845 0.07282298
0.185685 -0.057917047 0.04926933 -0.048843343 -0.0026422758 -0.12194376 0.30715403 -0.12278386
-0.21433905 0.49780488 -0.11512934 0.023980943 -0.18284076 0.030424433 0.317532 0.41245815
0.14555544 0.05891838 0.1294639 0.064661615 0.10441345 0.0346089 -0.18258181 -0.17894341
0.13525505 -0.040244754 0.1691455 0.047434058 0.010696941 0.122418836 -0.08020996 -0.18383618
0.40911877 -0.015675051 0.13036893 0.072243266 0.17634577 0.06967104 -0.2224743 -0.01840817
-0.37505382 0.1867375 -0.004043074 -0.00702214 0.024203924 0.369716 -0.17595036 0.23031545
0.09928709 0.13779359 0.14317267 -0.09518382 0.22740442 0.089778885 -0.18630536 -0.15411544
-0.18270503 0.059726812 0.14961204 -0.044615444 0.2701336 0.2121374 -0.16017696 -0.0049178987
-0.04254569 -0.19535246 0.6387179 0.2924897 -0.053391784 0.35926348 -0.4252353 0.017700547
0.06600727 -0.36034504 0.4694965 -0.18584202 0.30060813 0.55066115 -0.11578123 -0.21358901
-0.3024765 -0.07598037 -0.02766735 -0.032641392 -0.07772468 0.06145017 -0.26931596 0.15483986

network_body._body_endoder.seq_layers.2.bias f4 [20]
00000000: 7d9f 550d c145 b53b 238d f0b0 37c5 d93b
00000010: 6042 ef3b 034b 2e32 5336 d3bb f13f 8abb
00000020: f8b3 ef3b c3b3 bebb 475e 073c c36b bfbb
00000030: 9a0e 1a3c 4182 313c 34b4 65b4 8ce8 3393
00000040: 01c5 e03b 2d1f dd3b 49a1 6aad 80db a0a6
6.582767e-31 0.005531997 -1.7502412e-09 0.0066458243 0.0073016137 1.0145189e-08 -0.006445685 -0.004219048
0.007315155 -0.005819769 0.008262224 -0.0058417036 0.009402895 0.010834278 -2.1392844e-07 -2.270763e-27
0.006859422 0.006748101 -1.33371725e-11 -1.1161726e-15

action_model._discrete_distribution.branches.0.weight f4 [2, 20]
00000000: 8ea0 14bb 2b38 1bbc 7ac6 1d3c ec18 fe3c
00000010: e751 c43c e4d1 96bc 5139 31bd 6bd4 183d
00000020: d50c 2ebb 67cb bcbc 0e84 1d3c 6320 59b7
00000030: 089d f23b a61e 98bd 51e2 43bc 4d1e ca3c
00000040: 016c 8dbb 1b70 b6ba af9b 543c 72ad 843c
00000050: 271b e63c c05a acbc ceac 20bc 2b41 0ebd
00000060: f8fa 26bb 41ca 63bb d79c 3c3c 95a9 193d
00000070: 377d f1bc adb5 60bc a59d dabb d079 613c
00000080: a04e d1bb 39c0 303d ec8d c6bc 5b5e 66bc
00000090: 7807 2abd e6d8 21bd 17ed 65bc b7be 01bc
-0.0022678706 -0.009473841 0.00962984 0.031017743 0.023964835 -0.01841063 -0.04326755 0.037311953
-0.0026557941 -0.023046209 0.009614004 -1.29417485e-05 0.0074039735 -0.07427721 -0.0119558135 0.024672652
-0.0043158536 -0.0013918908 0.012976571 0.016195986 0.02808912 -0.021039367 -0.009806825 -0.034730118
-0.002547918 -0.0034758004 0.011512003 0.03751524 -0.029478652 -0.01371519 -0.0066716247 0.0137619525
-0.0063875467 0.043152068 -0.024237595 -0.014060582 -0.04151103 -0.03951349 -0.014033577 -0.007919005

action_model._discrete_distribution.branches.0.bias f4 [2]
00000000: 8d67 d63b 8e67 d6bb
0.006543106 -0.0065431064

action_model._discrete_distribution.branches.1.weight f4 [3, 20]
00000000: 75ff d53c 6bed efbc 19f9 b9bc e213 ecbc
00000010: cc3c 183c 5373 31bc db82 c9bc b7ab ccbb
00000020: b216 d8bc 5694 c9bc 92f3 aebc 9467 88bc
00000030: a6c3 8cbc dce0 e93c bf73 c73c d6d0 08bd
00000040: efb7 85bc 01fc dbbc 1d84 703c aa41 2d3d
00000050: affc b23c 9466 c63c 6a2c 553c 9031 f23c
00000060: 95ab f2bc 471c dfbc 326e 603c 3498 b83c
00000070: 4082 5ebd dc4a 6cbc 0472 7dbc a62e b5bb
00000080: f6ae 76bd 7d9c 8e3d 856c 7dbc 4e99 a8bc
00000090: 7a1c e4bc 7400 253c 471a 07bc f385 bc3c
000000a0: 1f85 05bc ac90 a63c bbd5 eebc 3a23 193c
000000b0: 10b4 2e3c 0756 5dbd 2b42 453b cb7e 0dbc
000000c0: e0c4 843b 4ae9 663d c688 933c 7075 753b
000000d0: e706 123c d950 93bd 7a8e e93b f7df b6bc
000000e0: bb19 bbbc 903c 38bc 4c8d 27bd 671d c43c
0.026122788 -0.029288014 -0.022701787 -0.028818075 0.009291839 -0.010830718 -0.02459853 -0.006246056
-0.02637801 -0.024606865 -0.021356378 -0.016650952 -0.017183136 0.028549604 0.024347184 -0.033402286
-0.016323058 -0.026853563 0.014679936 0.04229895 0.021849005 0.024218835 0.013011077 0.029564649
-0.029622832 -0.027235163 0.013698148 0.022533514 -0.054323435 -0.014422145 -0.015469078 -0.0055292426
-0.06022545 0.069634415 -0.015467768 -0.020580914 -0.02784561 0.010070909 -0.008246011 0.02301309
-0.008149414 0.020332657 -0.029154649 0.009346778 0.010663047 -0.05403712 0.0030099254 -0.008636187
0.0040517896 0.056374826 0.018009555 0.0037454031 0.008912778 -0.07193155 0.0071275802 -0.022323592
-0.022839418 -0.011244908 -0.040906236 0.023939801

action_model._discrete_distribution.branches.1.bias f4 [3]
00000000: 37f9 10bc 0da7 1fbc ccf2 1f3c
-0.00884848 -0.009744418 0.009762477

q1_network.network_body._body_endoder.seq_layers.0.weight f4 [20, 38]
00000000: 992b b4bc 762a d83d 7657 b43c 4dd4 7cbd
00000010: 9c33 e9bd 6688 0dbe 2a03 733d 116f 303e
00000020: bd7c 99be 9401 55bd 1e3c d9bb d415 513d
00000030: 65fd 88bd dcfa ec3c fecd 743e 7d0f d33c
00000040: b8b9 cd3d d869 bf3d 8a70 93bc 001b 4cbe
00000050: 7039 5ebb fb5f bbbd e436 723e b183 113e
00000060: e64a 323e ded8 ad3d a861 babb 0138 953e
00000070: dafd 093e 2369 053b 8dd4 ee3c 8ef5 3cbc
00000080: d31d 923d 481b 4ebe 0e9c 703e 3623 94bb
00000090: 6bc9 cf3c 2d77 46be eadf ae3d 8a3a b83e
000000a0: 07e6 e63d c732 df3d 2857 d0bd e8a9 d73d
000000b0: 65a6 2d3e 2487 eabd dfe4 fd3d 8830 6b3e
000000c0: cd36 2bbd 8511 45be 8430 393d 69e8 013e
000000d0: 85d2 21be 6cd4 653e 2f06 a73e f6d4 983d
000000e0: 56c8 0a3e cb80 57be 91d5 0cbe 9863 f13d
000000f0: 19f6 cd3d 25a7 83bb 43b7 77be 4fff d23c
00000100: 60b9 b7bd 535b 433e fef7 743e 0fb3 913d
00000110: ef82 49bd bd7e d0bc 4980 0abe 2d2f 293d
00000120: 36d2 ba3d 4fe9 d43d 98e7 a3bd 021e fb3d
00000130: 405d 5fbe be66 bf3d 6c38 3e3d 079b f0bd
00000140: c3a2 a53d 5a81 aa3d 274a c63c ff26 533d
00000150: 873f 963d 908b f83d 3157 7e3e f6fb 343e
00000160: ba9d 0abf 0a51 043e d650 8c3d 7c65 a3be
00000170: 5648 81bc 2ffd 203d c93b c33d 4fe7 87bd
00000180: 73da aebd 09df 403e f604 963d aa74 c4bd
00000190: 4031 a33c 0210 663e 4b8d 443e 0fb2 853e
000001a0: 0e34 bdbc 270e e93c ced8 233d 3e4e 2fbe
000001b0: a5a7 adbd 8078 023e 576f eb3e 16c3 da3d
000001c0: d6e9 133e 1aa8 52be ad89 87be c44f aebd
000001d0: 592f 083d 6e72 6ebb 44ca 3a3d 65f8 a73c
000001e0: c017 0dbe b130 033e 84e2 fc3c 6af1 2ebe
000001f0: b1ed 0c3d 94cd 1b3e cac0 973d 01ac 87be
00000200: 0b09 b8bd 70b3 b53d b848 25be 34b2 e7bd
00000210: 8dca ba3c 33ee 88be 5343 00bc ed40 06bd
00000220: e1c5 c13d de99 5fbd ceab 213e e6ea 993e
00000230: 6082 903d 69ff 413e 90ca 12bd 7f61 a6be
00000240: e06b f03d 66a4 fa3d 21c4 dabc 2110 683d
00000250: a9f4 87bc 5d8f 9bbe 2205 003d 00f3 d33c
00000260: 11f7 513c a743 383d e50d a03d cff6 4f3e
00000270: b3f8 f83c e151 03bd b73f 87bd b4e1 253e
00000280: 2877 9f3d 4d95 343d 3be7 513e ec02 84be
00000290: 9655 a83d d4b4 2cbe f4d3 61bd 2b85 20be
000002a0: 34aa 00be 8429 c6bd 2bba 493e 7e5d e53d
000002b0: 8565 62be 8fb3 a5bb cb44 78bd 064f 2b3d
000002c0: 2ef9 a63d 9bbf 91be 3e23 86be 56f4 7e3e
000002d0: 966a 233e 698b 74bd 0f1f 8f3e 1c64 613d
000002e0: 7328 0b3e 45d4 323c 3add b13e 05e4 4e3e
000002f0: 9027 2abe 25a2 ce3c 4836 103d 45cb e73d
00000300: 8d8d 763e bf92 ccbd f50f db3d a970 24be
00000310: db39 4cbe 0e56 9dbe 239e debd 69f9 75bd
00000320: 72c9 11be 3d0c 17bb cfcf 9f3d c2a2 0f3e
00000330: 7a26 e3bd 81c4 dabd 6dc6 403d fd32 99bd
00000340: f11e adbd 69b9 e93d 6ca6 f6bd 079a b4bd
00000350: ad9f 45be ef94 75be 71cc ba3d 4f7d 2abd
00000360: 8cba 983d 9899 87be c807 40be 49c7 11be
00000370: e973 003e ca62 f1bd 6864 c0bd f281 06bd
00000380: d53d 153e f343 a7bd 142a 1cbd 0e6f 6b3e
00000390: e60c cebd 3681 9cbd 0971 64bd 533e 613d
000003a0: fb37 373d 2284 36be f686 1d3e 8552 83be
000003b0: f438 8fbe 010a 20be 5175 8ebe ba6c a9bd
000003c0: 4574 463e fe1c 85be 0b4f 30bd a875 f73d
000003d0: d923 82be 4bd4 043e 5479 293d 6610 1fbe
000003e0: 5bc1 013e 0425 11be 9d1c a7bd 10b3 c1bd
000003f0: 06cd 963d e144 1c3c 7c8c bfbd 5988 38be
-0.021993445 0.10554974 0.02201436 -0.061725903 -0.11386797 -0.13821563 0.05932919 0.17229868
-0.2997798 -0.05200346 -0.006629481 0.051046208 -0.06688956 0.028928213 0.23906705 0.025764221
0.10045189 0.0934636 -0.017997999 -0.19932175 -0.0033908747 -0.09149166 0.23653752 0.14210393
0.17411384 0.0848863 -0.005687911 0.2914429 0.13475743 0.0020356856 0.029154086 -0.011533154
0.07134595 -0.20127594 0.2349703 -0.004520799 0.025364598 -0.193814 0.08538802 0.35982162
0.11274343 0.10898357 -0.10172874 0.10530454 0.16958006 -0.11451557 0.12397169 0.22967732
-0.04180031 -0.19244964 0.045212284 0.12686314 -0.15802963 0.22444314 0.32621905 0.07462494
0.13552985 -0.21045224 -0.13753344 0.11786574 0.10056705 -0.004017728 -0.24191003 0.025756506
-0.08970904 0.19077806 0.23922727 0.07114231 -0.049197134 -0.025451059 -0.135255 0.041304756
0.09122126 0.103960626 -0.080031574 0.12261583 -0.21812916 0.093457684 0.046440527 -0.11748319
0.08087685 0.08325453 0.02420528 0.05155086 0.07336336 0.121359944 0.24837948 0.1767424
-0.5414692 0.12921539 0.06851356 -0.31913364 -0.015781563 0.039303955 0.095328875 -0.066359155
-0.0853776 0.18835081 0.07325165 -0.095925644 0.019920945 0.22467044 0.19194524 0.2611241
-0.02309611 0.028449131 0.040001683 -0.17119691 -0.08479241 0.1274128 0.45983383 0.10681741
0.1444467 -0.20571938 -0.26472226 -0.08511308 0.03324828 -0.0036384123 0.04560305 0.020504186
-0.13778591 0.12811543 0.03086973 -0.1708428 0.034406368 0.1521514 0.074098185 -0.26498416
-0.089861 0.088721156 -0.16141021 -0.113132864 0.022801662 -0.26744232 -0.007828551 -0.03277676
0.094615705 -0.0545901 0.15788195 0.30062026 0.07056117 0.18945087 -0.03583771 -0.3249626
0.117393255 0.12238388 -0.02670485 0.056656007 -0.016596155 -0.30382815 0.031254895 0.025872707
0.012815253 0.044986393 0.0781515 0.20308994 0.030392027 -0.032060508 -0.066039495 0.1619938
0.07786399 0.044087697 0.20498364 -0.2578348 0.08219449 -0.16865855 -0.055133775 -0.156758
-0.12564927 -0.09675887 0.19699924 0.11199473 -0.22109039 -0.0050568054 -0.06061248 0.04182341
0.08152996 -0.28466496 -0.26198763 0.24897894 0.15958628 -0.059703264 0.27953383 0.055027112
0.13589649 0.010914867 0.34739095 0.2020417 -0.16616654 0.0252238 0.035208017 0.113180675
0.24077435 -0.09988927 0.10696403 -0.16058601 -0.19943945 -0.30729717 -0.10870006 -0.06005231
-0.14237002 -0.0023048066 0.07803308 0.14026931 -0.11091323 -0.106820114 0.047064234 -0.07480428
-0.08453167 0.11412317 -0.12043461 -0.08818441 -0.19299193 -0.23982595 0.09121025 -0.04162341
0.07457456 -0.2648437 -0.18752968 -0.14236178 0.12544216 -0.11786421 -0.09394151 -0.03283877
0.14574368 -0.08167257 -0.038126066 0.22991583 -0.10061054 -0.076418325 -0.05577186 0.054991078
0.04473112 -0.17823842 0.15383515 -0.25648895 -0.2797314 -0.15628816 -0.2782388 -0.08272691
0.19380291 -0.25998682 -0.04304413 0.12082988 -0.25417975 0.12971608 0.041375473 -0.155336
0.12671416 -0.14174277 -0.081597544 -0.094579816 0.07363324 0.009537906 -0.09352967 -0.18020763

q1_network.network_body._body_endoder.seq_layers.0.bias f4 [20]
00000000: 0000 0000 535e 153c 0000 0000 1f92 98bb
00000010: 0000 0000 696f 03bd 1297 00bd 0000 0000
00000020: 2ef2 b519 5fbf 3b3c 4cc1 213c fd28 1c3d
00000030: f88b 0bbc cc31 8b2b 676c cd26 0300 9cbc
00000040: 8348 d2bc 0000 0000 0dd1 bfbc 0000 0000
0.0 0.009116727 0.0 -0.004656091 0.0 -0.03208867 -0.031394072 0.0
1.8812777e-23 0.011459201 0.009872746 0.038125027 -0.008517258 9.890365e-13 1.4254115e-15 -0.019042974
-0.025669342 0.0 -0.023415113 0.0

q1_network.network_body._body_endoder.seq_layers.2.weight f4 [20, 20]
00000000: fdfd 78be cf60 b83d e8b3 aebe 5a03 f03d
00000010: d2fc 003f 2aff a2bd f1f0 963e 38a3 9abd
00000020: 48dd 71bc 0d0a dbbe 5f0a 3abb 26a6 c33e
00000030: 458a d83d aa3e a43e 91c8 87bc 3a9f b33e
00000040: 6a05 023e d117 b03e 75b7 1ebe 9b25 733d
00000050: 63fb a13d a617 3fbd 5353 163d 76e2 e73d
00000060: 8438 0abe fda2 bfbe 4889 a43d 854d d9ba
00000070: be4d b53c 2088 d8bc 0c3f ad3e 213d 093e
00000080: f668 efbe 711c 2c3e f769 72be 84e6 9fbe
00000090: 9997 88be 6864 4bbe e5cb 08bd 1063 acbe
000000a0: ffe4 fd3d 7476 0b3d 7844 bb3c 60e7 30bd
000000b0: 6994 56be 2893 fc3d 548f 03bd 3935 77be
000000c0: ed91 6dbe 3642 35b8 21cf 053e 6e4a dabe
000000d0: dc52 cbbc 51e0 c83e cb15 4abc 6e86 fbbc
000000e0: eac8 b43e 6664 873e 5d75 a5bd b311 1fbe
000000f0: aa6f 2bbe 8e12 233e 1cec 933d e466 68bd
00000100: f227 40bc 4d77 d3bd 1879 853e fb37 8dbd
00000110: af75 d5bd a27e 9f3c 912b 783e 42f5 73be
00000120: b927 b2bc f90d d9be 7916 13be 4ae2 fd3d
00000130: 96db 36be 0c73 56bd bf3e c4bd a51f d339
00000140: f288 0abe 3517 463e 11c5 b0bd 9082 0dbd
00000150: d994 093e 9bae 0abe aee0 6abc ed82 523e
00000160: 426a 8abd 8559 02be 671d 32be b77b b9be
00000170: 17df d03d 038c 47bd b073 3c3d 1ab8 23bc
00000180: c698 863b af14 a03e 19c2 b33d 6c81 2a3d
00000190: 0ee4 7b3e 38c2 d93e cd06 24be 48a2 d23e
000001a0: 2705 8dbe 8d56 f03d 6b60 163e ea33 fd3d
000001b0: bf99 993d 9324 91bc dc29 e03d bcfd 523e
000001c0: c2b1 3cbc 6e1d 4ebe fb06 a73d 1901 813e
000001d0: f996 113f d111 0fbe 1ef0 bdbc 4344 a3be
000001e0: 0b31 9dbd af88 4b3d 1f33 b4be 4bc4 86be
000001f0: 83d7 933e c31d 0c3e 5103 253f 6140 d83c
00000200: ceaf 723d c0ab a83e e3d9 213e 62b6 96bd
00000210: bbfd 303d a086 9e3d 0a72 223e 3ef4 643d
00000220: 367c 943e 95cb 2c3d 525b c83d e295 17be
00000230: e6c2 ad3d 8cd3 f8bd 966f 47be 3d0d b4be
00000240: 3964 ad3e 1eb4 9ebc c6a9 b13e d5e3 813d
00000250: 3106 eebd 09ac 153f 4301 ba3d 532c 6e3d
00000260: 79df 12be 37c4 213e 59ee 993e 7c58 bc3d
00000270: 0fd7 2c3d c05b 113e b4ec 8fbd 3f66 bd3d
00000280: 8899 cabd 7233 2dbd 8044 9ebe 50f3 163e
00000290: 0dc8 d53c 2ab5 1c3e 9d77 92be 19b1 603d
000002a0: 5df2 8fbe e008 833e 68ab a4bd 7cd1 71be
000002b0: 6e2a 703e cbe4 243e 997d 99be 1436 c03d
000002c0: ca9c 8abe 664d 8bbe 1d20 c2be 8961 15bb
000002d0: 3c0e 54bd 5c4f 8dbe 7e0a bcbd 12bc 86be
000002e0: 9bc8 08be 82ed 8e3d 8adf 103f 14bb 4fbd
000002f0: d8e5 80bd 6dc7 a93e 0bc7 843c bf02 04be
00000300: 51d2 0ebe 115b 623e c08d ef3c f35b 4fbe
00000310: 34e0 093f a949 b0bd f218 97bd 2ad5 2dbe
00000320: 4cda bcbd 2699 753e 0ee5 ddbe 6ee6 983d
00000330: 8baf adbe ec4a d8bd 70ac 2c3d c6b5 98bb
00000340: 94a8 b83c d9fd 1a3e f1c4 183f 14fb 403e
00000350: 22aa 0f3e 19b8 20bd 7f92 ffbd 47e1 11be
00000360: 62f6 4b3e 0887 38bd c49c 4cbe 4b6b 81bd
00000370: 7a79 b2bd 505b 15be 219f 293e d18e 233e
00000380: 7aaf 83bd 04df 3dbd 45e0 e8bd 384a 5abd
00000390: aae5 cfbd d445 31be d2a1 813d d331 953e
000003a0: ad36 543e aeed aabb 22f5 59be 3972 e5bd
000003b0: 7261 753d 1a1e 97bd ade5 37be 1d91 0ebe
000003c0: c225 18be 2c8f f93e a324 1cbd 02df d5bb
000003d0: 796c 10bd d17f 853d d3c5 f23d 1902 8f3e
000003e0: 26d5 33bd 7ea9 ddbd 2751 3e3d 45ed 3bbe
000003f0: a602 253e a52d 443e 892a 013d 4b88 ab3e
-0.24315639 0.0900284 -0.34121633 0.11719389 0.50385773 -0.07958825 0.294807 -0.07550663
-0.01476223 -0.42781106 -0.002838753 0.382127 0.10573248 0.3207906 -0.01657513 0.35082418
0.12697378 0.3439317 -0.15499671 0.059362035 0.07909276 -0.046653412 0.036700558 0.11322491
-0.13498122 -0.37429038 0.08033997 -0.0016578889 0.022131797 -0.026432097 0.33837163 0.13402225
-0.46759766 0.16807725 -0.23673235 -0.31230557 -0.2667816 -0.1986252 -0.033397574 -0.3366933
0.12397193 0.034048513 0.022859797 -0.043189406 -0.20955051 0.12332755 -0.03211911 -0.24141397
-0.23200198 -4.3215427e-05 0.13067295 -0.4263491 -0.024819784 0.3923364 -0.012334297 -0.03070375
0.35309535 0.26443785 -0.08079026 -0.15534095 -0.16741815 0.15925047 0.07222769 -0.05673875
-0.011728274 -0.10325489 0.2606895 -0.06895443 -0.10422837 0.019469563 0.2423537 -0.23824027
-0.021747457 -0.42393473 -0.14364041 0.12396677 -0.17857203 -0.05235581 -0.0958228 0.00040268633
-0.13528803 0.1934479 -0.086313374 -0.034548342 0.13435687 -0.13543169 -0.014335794 0.20557757
-0.06758548 -0.12729461 -0.17394029 -0.362272 0.10198801 -0.04871751 0.046008766 -0.009992624
0.0041075675 0.3126578 0.087772556 0.041627333 0.24598715 0.4253099 -0.1601822 0.41139436
-0.27542993 0.11735258 0.14685218 0.123634174 0.07500028 -0.017717635 0.10945484 0.20604604
-0.01151699 -0.20128414 0.08155628 0.2519615 0.5687099 -0.1397164 -0.023185786 -0.31888017
-0.0767537 0.0496909 -0.35195252 -0.26321635 0.2887536 0.13683228 0.64458185 0.026397886
0.05924969 0.32943535 0.15805773 -0.073590055 0.043210726 0.077405214 0.15863815 0.05589699
0.29001015 0.04218634 0.09783043 -0.1480327 0.084844396 -0.12149724 -0.1947616 -0.3516635
0.33865526 -0.019372996 0.3469984 0.06342284 -0.11622275 0.5846563 0.09082272 0.05814774
-0.1434306 0.15797506 0.30064657 0.091965646 0.042197283 0.14195156 -0.070275694 0.092480175
-0.09892565 -0.04228539 -0.30911636 0.14741254 0.026096368 0.15303484 -0.28606883 0.054856393
-0.28114596 0.2559271 -0.08040506 -0.23615068 0.23453686 0.16102903 -0.29978636 0.093853146
-0.27072746 -0.27207488 -0.37915125 -0.0022793731 -0.051771387 -0.2759961 -0.09181689 -0.2631536
-0.13357775 0.06978895 0.56591094 -0.05071552 -0.06293839 0.33159962 0.016208192 -0.12891673
-0.13947417 0.22105052 0.029242396 -0.2024992 0.5385773 -0.086077996 -0.07377805 -0.16975847
-0.09221324 0.23984203 -0.43338817 0.07465826 -0.3392299 -0.10561165 0.042156637 -0.004660341
0.022541322 0.15135898 0.5967551 0.18845779 0.14029744 -0.03923807 -0.12479114 -0.14246093
0.19918206 -0.04505065 -0.19981676 -0.06319293 -0.08714576 -0.14585614 0.16564609 0.15972449
-0.06429954 -0.046355262 -0.11370901 -0.053293437 -0.10151227 -0.17311794 0.06329693 0.29139575
0.20723982 -0.005216322 -0.21284917 -0.11203427 0.059907384 -0.07378788 -0.17958708 -0.13922544
-0.14858153 0.48742044 -0.038120877 -0.0065268287 -0.035259698 0.0651852 0.11854138 0.27931288
-0.043904446 -0.10823344 0.04646411 -0.1835223 0.16114292 0.19158037 0.031534705 0.3350242

q1_network.network_body._body_endoder.seq_layers.2.bias f4 [20]
00000000: c7e0 9e3c 5243 c6bc eca7 54bb 4c19 2f3d
00000010: 2100 273d a04d 8ebb f9f7 22bd 438a f5bc
00000020: 0000 0000 4b6e c0bc 1bcd 0ab4 9ffd 3428
00000030: a5c6 6fbc ee9c e6bc 49c4 0fbd bc9e fa3c
00000040: 8f68 ed3c e299 e2bb 4229 063c ec39 9abb
0.019394292 -0.024202023 -0.0032448722 0.042748734 0.040771607 -0.0043427497 -0.039787266 -0.029973155
0.0 -0.023490092 -1.2926868e-07 1.00470025e-14 -0.014634763 -0.028151002 -0.0350993 0.030593269
0.028980521 -0.006915317 0.008188548 -0.004706612

q1_network.value_heads.value_heads.extrinsic.weight f4 [5, 20]
00000000: bb65 aabe 1042 acbe a9e5 d4be 01db c33e
00000010: ec45 d63d ce46 d13e 4af3 b33e 76f5 283c
00000020: 05c3 b23d dde6 93be 53e4 223d 3244 8dbe
00000030: 6ed4 5d3e e36c 7c3e 61c7 e93e c793 fabe
00000040: dca4 dd3c 303e 2ebe 487a abbe 131f 0ebd
00000050: 4c69 ab3a 877d 27be 2375 993e 44d0 aabe
00000060: 056c e0be 8507 9b3d 366e 72be faf2 cabe
00000070: 1ad7 e63d 1b31 aabe b917 d63d 1e5c e4bd
00000080: f9d8 243d a63c c9be 79d3 24be 14e0 a23e
00000090: 4a5e 5f3e 29dd dfbb 8cc0 ebbe 1635 f13e
000000a0: c243 a6bd 9f17 6c3e 0b7f eebe f7d7 e93e
000000b0: 72c0 eabe 2756 04be 0f45 ab3e ae5d 003e
000000c0: 7c58 a23e f5e0 cfbe 6c49 34be 6116 393d
000000d0: 2b8c 9b3e dfb7 f1be 8514 84be ec3f 673e
000000e0: 6a28 24be 72fd 483e 72a3 54bd ee01 db3e
000000f0: 8c75 0c3e 8f4a e0be 75d4 2dbe 3735 c4be
00000100: fd42 c63e 2b3c bf3e 4b65 5b3e 7d24 33bc
00000110: 17ad a4be de7e a9bd a5cf cc3d 3bbb 9fbc
00000120: f665 fa3e fdbf 47be ae95 573e f64c c33d
00000130: d22c 82be dea5 9ebe 670c 06be fadc b5be
00000140: dc57 99be d9ce d23e 5273 1fbe a1bf f03e
00000150: a041 babd 8c2d de3e 6f1d 2f3e d990 34bd
00000160: 2d49 e5be 44cc 593d 612e a5be ce43 ea3e
00000170: d1d5 cbbd 4497 d3be 5c9f 81bd 4c76 e53e
00000180: d477 54bd 2572 a3be 20df 583d 9aee dabe
-0.3328074 -0.33644152 -0.41581467 0.38253024 0.10462555 0.40874332 0.35146552 0.010312429
0.08728603 -0.28887072 0.03976853 -0.2759109 0.21663067 0.24650912 0.45659927 -0.4894087
0.02705615 -0.1701591 -0.3349173 -0.034697603 0.0013077646 -0.16356479 0.2997218 -0.3336202
-0.43832412 0.075697936 -0.23674855 -0.396385 0.11271496 -0.3324059 0.104537435 -0.111503825
0.040245984 -0.39304084 -0.16096295 0.31811583 0.21813312 -0.0068317843 -0.4604534 0.47110814
-0.081183925 0.23055886 -0.465813 0.4567258 -0.4584995 -0.1292349 0.33451125 0.12535736
0.31708133 -0.40601316 -0.17606133 0.045187358 0.30380377 -0.47210595 -0.25796905 0.22582978
-0.16031042 0.19627932 -0.051913686 0.4277491 0.13716716 -0.43806884 -0.16975577 -0.3832185
0.38722983 0.37350592 0.21425359 -0.010933992 -0.32163307 -0.08276151 0.100005426 -0.019498458
0.48905915 -0.19506831 0.21053192 0.095361635 -0.2542482 -0.30985922 -0.13090669 -0.35520154
-0.29949844 0.41173437 -0.15571335 0.470212 -0.09094548 0.43394125 0.17101072 -0.04408345
-0.4478239 0.05317332 -0.32261947 0.45754856 -0.099528916 -0.41326344 -0.063292235 0.44816816
-0.05187209 -0.31923023 0.052947164 -0.42760164

q1_network.value_heads.value_heads.extrinsic.bias f4 [5]
00000000: fcc1 30bd 0d3a 013d d38c 6c3a 3b0d 5b3d
00000010: ac4a f13b
-0.043153748 0.031549502 0.000902367 0.053479414 0.007363638

q2_network.network_body._body_endoder.seq_layers.0.weight f4 [20, 38]
00000000: f03f 093e 5617 023e 45ce 5abe 2e2a bebc
00000010: b0a8 d9bd eb8e 65bc 5c6c d0bd 3969 28be
00000020: 8a83 9ebd c39f 90be 1af4 c13d 22ef cf3d
00000030: ffac 91be 3120 343c 2ac5 41bd d9ca fc3c
00000040: 2fea 4fbd c8e2 3abb f32a 01bd d250 ef3d
00000050: f0d0 1cbe daac d43c 20df b7bb f04f bbbd
00000060: 67bf 3c3d 4c75 19bd f7e2 1f3e f57c 98bc
00000070: 2a16 d8bd 747b 4ebe df0e 533e def4 3a3e
00000080: dcbb 5e3e 6aee 573e b961 003e 8a06 323e
00000090: 1eba 81be 1fb0 85be a769 9c3d 3510 6e3e
000000a0: a981 8b3e c00c 903e 0486 2dbe e73f 143d
000000b0: 8e42 80be 55b5 bd3d fc8b 03be e86b 4b3e
000000c0: 95fe 493b c783 7abd 9cb4 62be 1fb4 3abe
000000d0: 043d af3d c0b5 d8bd 634f 79bd e55b a33c
000000e0: ed78 a53c aefe 7ebe 0b3f e43c 0cf3 2abe
000000f0: 5fce 653c e215 e63d 76c1 2d3e 2fb6 66be
00000100: 7de4 32bd 0594 69bd 856e 42bd 92b7 92bd
00000110: d2cc 9abe 21be 7bbd 701b 9ebe e03e cf3c
00000120: c7bd c63d 4c44 12be 1d55 69be cd81 dfbc
00000130: b992 cfbc c50f bf3d dd00 cabd 3f8a b7bc
00000140: 17dd 5cbe ea0f 6bbe a417 473e 75e4 87be
00000150: 0d3d aa3e 8e02 87be 69cb f53d 6eb0 5bbe
00000160: 3a31 83bc 2479 873e b233 153e 81fe 243e
00000170: f804 50bd cf6d f23d ca2a 113e 1816 ba3d
00000180: 23bd d2bd f2b0 193e 0c05 f13d 930b 113d
00000190: 096e cfbb 1f5e 363e 73f5 ad3d 00dc 24be
000001a0: a268 cabd 3843 2e3e d007 723e 5ed8 a8bd
000001b0: 03f7 1b3e 0bea 81be 8eb9 663a d6fd 13be
000001c0: f99f 963d 0df2 973e a745 673e 5b1b 17be
000001d0: f72c 48be bd16 4fbe 84c2 83be e9e9 fabd
000001e0: 7637 86be 5127 9ebd 27f6 9cbc 815b d3bd
000001f0: cf82 72be 5d6d edbd f124 853d 3368 013e
00000200: 07c1 fabe 6bba 06be cda5 153e d007 e53d
00000210: e034 aab8 370f 75bd cc90 59be 3b21 e6bd
00000220: cb46 043c a339 e53d 3440 f43c a43d 363d
00000230: c853 45be 19b3 973e c918 b8bc bd9a 833d
00000240: 2138 6a3d c160 42be 628a d5bd 768f fb3d
00000250: 0bc9 8ebd 5d1c b73c 2f11 9bbd ff12 6fbc
00000260: 84ec c3be fce1 0c3e f53e 1a3d b9df 183e
00000270: b523 ffbd 2052 fabd b79b 8dbd cd7a 60bd
00000280: 4edc 673e 2915 d1bc 6226 4b3d 488a e93d
00000290: 810b 053e 7122 7e3e 52a4 33bd 05af 0b3e
000002a0: 28c5 0c3e 7eb8 6e3e 5e30 98be db34 d4bc
000002b0: 94a1 a33d f0a4 af3b ec3b 303e 567c 133e
000002c0: ee50 453d 6a4b 343d 9a96 523e 09f4 fabd
000002d0: d674 0ebe e372 823e 5999 bb3e 8631 a4be
000002e0: dcaa 62ba b4f7 083e de3b a03e 09c8 d13c
000002f0: 32f7 f7bc 3c68 bebb 24c8 ba3d bda7 a03e
00000300: 78b8 c7bd c716 143e 1740 7b3e 6700 a83e
00000310: 2553 0ebd 08a8 b43d 58cc 583e 88e2 44be
00000320: 018f da3d e9a7 693e 00e6 973e 6f9a 8ebe
00000330: 390e 9bbc 8b67 593d c392 0d3e 2243 1a3d
00000340: 239d ae3d 3d40 0c3e df0f 89be f9c1 103e
00000350: 8f82 cfbd 3e41 61bc fe08 483e aaf0 be3d
00000360: 928c 9b3c 098e 5f3c c323 173e ab2e 1cbd
00000370: 3f8d 8abe a351 45bd fee0 c0bd 75f7 533b
00000380: f234 c03d f9d6 d43d 03de 503d 7ec9 433e
00000390: ac5c d8bd 8b98 db3d 0b36 093d ca65 3abd
000003a0: 38de aabe 6004 8e3d 951c 1f3e abb0 553d
000003b0: 4761 2bbe c0c9 e6bd 7184 153d 942c d0bd
000003c0: d0c2 bf3b 0e71 b33d 865c 143e f473 fa3d
000003d0: 9a89 a43d 090f 89bb 3f55 4e3d 1d3f 50bd
000003e0: 19fd aebe 7e14 79bc 3756 d3bd 0e6c e1bd
000003f0: cf6b b13c 9700 2dbe 8881 0bbd d5fd 9c3e
0.13403296 0.12704214 -0.21367748 -0.023213472 -0.10627878 -0.014011125 -0.10176918 -0.1644639
-0.07739933 -0.2824689 0.09470387 0.10153033 -0.28452298 0.010994003 -0.04730717 0.030858444
-0.050760444 -0.002851652 -0.0315351 0.11685337 -0.15314078 0.025961328 -0.0056113154 -0.09146106
0.046080973 -0.03746538 0.15613924 -0.018614272 -0.105511025 -0.20164281 0.20611142 0.18257472
0.2175135 0.21087041 0.12537278 0.17385307 -0.2533731 -0.26110932 0.07637339 0.2324837
0.2724736 0.28134727 -0.16945654 0.036193755 -0.25050777 0.09263102 -0.12846369 0.19865382
0.0030821909 -0.06116083 -0.2213921 -0.18232773 0.0855656 -0.10581541 -0.060866725 0.01994128
0.020199263 -0.2490184 0.027862092 -0.16694278 0.0140262535 0.112346426 0.1696833 -0.22530435
-0.043674935 -0.057025928 -0.04746868 -0.071639195 -0.3023439 -0.061460618 -0.30880308 0.025298536
0.09704166 -0.14283866 -0.22786374 -0.027283574 -0.025338518 0.0932918 -0.09863446 -0.022404788
-0.21568714 -0.2295529 0.19442612 -0.26541486 0.33249703 -0.26369137 0.12001688 -0.21454021
-0.016014684 0.2645961 0.14570501 0.1611271 -0.05078599 0.118373506 0.14176479 0.09086245
-0.10289981 0.15008906 0.11768541 0.03541143 -0.006330256 0.17809342 0.08494081 -0.16099548
-0.098832384 0.1701783 0.23635793 -0.08244394 0.15230946 -0.25373873 0.00088014535 -0.144523
0.07354731 0.29676858 0.22585164 -0.14756529 -0.19548403 -0.20223518 -0.2573434 -0.12251646
-0.26214188 -0.07722343 -0.019160343 -0.10320187 -0.23682712 -0.11593125 0.06501187 0.12637405
-0.48975393 -0.1315705 0.14614029 0.11183131 -8.1160804e-05 -0.059828963 -0.21246642 -0.11236807
0.008073519 0.11192634 0.02981577 0.04449238 -0.19270241 0.29628828 -0.022472756 0.06425998
0.057182435 -0.18982221 -0.10426785 0.122832224 -0.0697194 0.022352392 -0.07571637 -0.014591931
-0.38266385 0.13758081 0.037657697 0.14929093 -0.124579825 -0.12222695 -0.06914466 -0.054804612
0.22642633 -0.025522785 0.04959715 0.11403328 0.1299267 0.24817826 -0.04385788 0.13640983
0.13747084 0.23312566 -0.297244 -0.02590411 0.07989803 0.0053602383 0.17210358 0.14402899
0.048172884 0.044017233 0.20565262 -0.12253577 -0.13911757 0.25478277 0.36640432 -0.32069033
-0.0008646676 0.13375741 0.31295675 0.02560808 -0.03026924 -0.0058107655 0.09120205 0.31377974
-0.097519815 0.14461814 0.24536167 0.32812807 -0.03474726 0.08821112 0.21171701 -0.1922704
0.10671807 0.22817959 0.29667664 -0.27852198 -0.01892768 0.053077262 0.13825516 0.03766168
0.08526065 0.1369638 -0.2676992 0.14136495 -0.10132324 -0.013748465 0.1953468 0.09323247
0.018987928 0.013644704 0.14759736 -0.038130444 -0.27060887 -0.048173558 -0.09417914 0.003234354
0.093850985 0.10392565 0.050992977 0.19119832 -0.10564551 0.10722455 0.033498805 -0.04550723
-0.33372664 0.06934428 0.15538247 0.052170437 -0.16736327 -0.112689495 0.03650326 -0.101647526
0.005852081 0.08761798 0.1448842 0.122291476 0.08034058 -0.0041827005 0.050374266 -0.05084144
-0.34177473 -0.01520264 -0.103191786 -0.11006938 0.021657852 -0.16894756 -0.034059078 0.30662408

q2_network.network_body._body_endoder.seq_layers.0.bias f4 [20]
00000000: 431c 77ab a4c4 14bd 0000 0000 0000 0000
00000010: 0000 0000 2bfc 133d 0000 0000 dd3f 4a39
00000020: 0000 0000 0040 133c e0df 8a3c 0000 0000
00000030: e8ef 0abd 4f9d 2bb8 c42a 08bd f60c 04bd
00000040: 394a 22bd c92f 89bb a494 ecbc 46ca f1bc
-8.779125e-13 -0.036320344 0.0 0.0 0.0 0.036129158 0.0 0.00019288012
0.0 0.008987427 0.016952455 0.0 -0.0339202 -4.0916082e-05 -0.03324391 -0.032238923
-0.039621565 -0.0041866046 -0.028879471 -0.029515397

q2_network.network_body._body_endoder.seq_layers.2.weight f4 [20, 20]
00000000: 14f0 4cbe 2ab1 db3c c56e aebb 4b93 803e
00000010: 58fa 403e 44b2 7cbe 4faf 823e e5f8 d23e
00000020: aba7 903e ebfe 2bbe 3bc0 57be 3883 a33d
00000030: edcd d93d 94a0 163e f210 663d 1a9f b63e
00000040: 3fd5 273d dd54 973e a42e 573e 933e d13e
00000050: 8d42 9ebe a765 1fbe 3d0d a2bd 1ba8 b23d
00000060: d0e8 84be b9a5 07be ce49 0f3e 04db 97be
00000070: 6dad e53d 52ea d13b c6aa b5bd 1bfe 8abd
00000080: 1167 9c3e 46f3 debd ba2d dabd 89ea 263e
00000090: 74fb c43d aea7 bdbe 9423 a63e 32b3 203e
000000a0: c804 69be 1d7c 88be f4de 88bd 37c1 6fbb
000000b0: 93fe fbbd ad39 a8bd 30f7 aa3e c322 0dbe
000000c0: cf25 5c3e c5a1 6b3e 9a66 a03d a9af b03d
000000d0: 4e17 f5ba 9ae4 5bbe 68d5 59be 8475 36be
000000e0: e963 d8be c58f 16ba 1ad9 3c3d 4b13 e1be
000000f0: ab10 eabc 8178 e9be e52f adbe b0a4 88be
00000100: 3548 10bf 0c63 55be a6dc b43e 4e52 e33d
00000110: e1f1 22bd 7c98 693d d654 8c3e a2e5 0dbd
00000120: c161 3cbe 5fbc 763e db11 ed3b ba00 1dbe
00000130: e513 4cbe 7f6c 3e3e 462f b9bd c3dc 373e
00000140: a6f8 2cbf 0419 b73e 9e4a f9bd 6564 abbc
00000150: 626a 39be ee5e 25be a79e 843e b651 e53d
00000160: 2e3b 42be 5f2d 98be 0b7e 9e3e 88cc 913e
00000170: 6781 823d 9710 933e 2c58 ee3e eda0 523e
00000180: 246b ae3e 5fbd 163c f693 ee3d f099 803d
00000190: 12a1 1bbd 360a 043e a8f5 c3bd c16f 273c
000001a0: 95f7 033e fe60 07be c507 9b3d aa1e cd3d
000001b0: a7e2 92be 1e7a ee3e bcf8 4cbd 2ab3 69be
000001c0: 4ad6 dabe 82cd a83d 1fd8 19be a2a4 a03e
000001d0: a626 26be cbe0 84be ee5f 893d b601 53be
000001e0: 9bcf 87be 88ea 9a3d c41f aebe 8042 61be
000001f0: 6fa1 d1be 996e f13d fd1e 70bd d6c1 29bd
00000200: 5dfb cfbd d42a 24bd 7ec9 5f3d 718a f83d
00000210: fdd5 4cbd 52d9 5fbe 99ad fcbd ae84 9dbd
00000220: 813d 6abc dc52 883c 7326 1e3e 95d0 c6be
00000230: d4d6 4bbd 775a 2d3d caed f03e aee1 333e
00000240: 10f9 253e a002 283e ab19 ddbd f568 15be
00000250: 030c 9bbe 072a 6a3e d92b 043e 36f6 70bd
00000260: 930e 46bd 5b48 ce3e 43fd 03bd 28a4 95bd
00000270: 782b 9b3c 4c48 dc3e 894a af3c 0e09 8e3d
00000280: 0aef 20be b0ce c3bc 7b78 9abe cd02 f0bd
00000290: c5e5 e8bd 8ad4 183e c546 883d 3307 dd3d
000002a0: 9494 d1be 5038 ec3d 908a 0cbe 6649 373e
000002b0: 9c8d 4abe 0e41 f63e a8ac bbbd 8ec4 4fbe
000002c0: 8cac 943d e358 243e 303e 563e 5acc a93e
000002d0: 8a23 8ebc 7a2b 6f3e 4e8e 943d 860c d2bd
000002e0: 645c e33c b71d 26be e54f 913e ee7e b33e
000002f0: 5b87 e7bd 741e b53e 2890 c6be d03a 223e
00000300: 59aa 9bbe 6efd 843e 47ed 393e 3362 d53e
00000310: 9bc1 44bd 1921 e13c 48ec 933d 0b92 3abe
00000320: d30c fd3d 2853 d0bd fb91 c03d 6b4a 173e
00000330: 1275 b8bd cbbf e5bd 9348 223c 4733 793e
00000340: acbd d7bd 618d 15be 9ee5 38be 17ca 993d
00000350: 7770 b33d 5f2c 593d 63e3 25be 6a9b bcbd
00000360: 044b 913e b832 443e 0dee f8bb c937 82be
00000370: ff9e 85be 6bd5 83bc c736 04be 19ae 73bd
00000380: 941d 993e f9d1 093e cf40 733d 5b5d bc3d
00000390: 4905 b3bd dc17 ccbd d6e3 d93d 2de9 a1be
000003a0: e8d8 e3bd 6523 4dbe 5905 e7bd f3b4 03bd
000003b0: dcdd 0ebf 5f75 2abe 97e6 1cbb 8414 fcbd
000003c0: 46be 8abe cca6 193d b40b 783e 0b85 fabd
000003d0: fe61 be3e b79c af3d 1f7c 7fbe 8a97 a53e
000003e0: 9621 0ebe 2be9 383e 34fe 80bc f1ec 84bd
000003f0: 3405 43be fb86 b7be 6a8d d73d 22e3 473e
-0.20013458 0.026817877 -0.0053232634 0.25112376 0.18845499 -0.24677378 0.25524375 0.41205516
0.2825292 -0.16796462 -0.21069424 0.07984012 0.1063498 0.14709693 0.056168504 0.3566826
0.04097485 0.29556933 0.21013886 0.40868053 -0.3091015 -0.15566121 -0.07912681 0.0872347
-0.25958872 -0.13246812 0.13992998 -0.29659283 0.11214719 0.006406107 -0.08870463 -0.06786748
0.30547383 -0.108862445 -0.10653253 0.16300406 0.096182734 -0.37041992 0.3244902 0.15693358
-0.2275573 -0.2665719 -0.0668315 -0.003658367 -0.123044156 -0.08214126 0.33391714 -0.13782792
0.21498798 0.23010929 0.0783207 0.086272545 -0.0018698962 -0.21473923 -0.21272814 -0.17818266
-0.42263725 -0.0005743469 0.04610548 -0.43960032 -0.028572401 -0.4559975 -0.33825603 -0.26688147
-0.5636018 -0.20838565 0.3532459 0.11099683 -0.039781455 0.057030186 0.27408475 -0.034642823
-0.18396665 0.24095295 0.0072347946 -0.15332308 -0.19929464 0.18596075 -0.0904222 0.17955308
-0.6756691 0.35761273 -0.12172435 -0.020921895 -0.18106988 -0.16149494 0.25902292 0.11197226
-0.18967888 -0.29722115 0.30955538 0.28476357 0.06372338 0.28723595 0.46551645 0.20569201
0.34066117 0.009200423 0.11649315 0.06279361 -0.037995405 0.1289452 -0.095683396 0.010219515
0.12887414 -0.13220593 0.07569841 0.10015614 -0.28688547 0.46577543 -0.0500419 -0.22822252
-0.42741615 0.082423225 -0.1502385 0.31375605 -0.1622568 -0.25952753 0.0670775 -0.20606121
-0.26525578 0.075642645 -0.3400861 -0.21998024 -0.40943477 0.11788673 -0.058623303 -0.041444622
-0.101553656 -0.040079907 0.054635517 0.121357806 -0.050008763 -0.21860245 -0.123377986 -0.07691322
-0.01429689 0.016641073 0.15444355 -0.3883101 -0.049765423 0.042322602 0.4705642 0.17566559
0.16208291 0.16407251 -0.107959114 -0.14590819 -0.30282602 0.22867595 0.12907352 -0.058828555
-0.048353743 0.40289578 -0.03222395 -0.07306701 0.018941626 0.43023908 0.021397846 0.06935321
-0.15716186 -0.023902267 -0.30170044 -0.11719284 -0.1137195 0.14924827 0.06654123 0.10792389
-0.4093367 0.11534178 -0.13724732 0.17899093 -0.19780582 0.48096508 -0.09163791 -0.20289823
0.07259473 0.16049533 0.2092216 0.3316372 -0.01735093 0.23356429 0.07253705 -0.10256295
0.027754016 -0.16222273 0.28381267 0.35057777 -0.11305114 0.35374796 -0.38781857 0.15842748
-0.30403402 0.25974602 0.1815692 0.41676483 -0.0480362 0.027481603 0.072228014 -0.18219773
0.12355962 -0.10172111 0.094028436 0.14774482 -0.090067044 -0.11218222 0.009904998 0.24335967
-0.10534224 -0.14604713 -0.18056342 0.07509249 0.08761685 0.05302083 -0.16200022 -0.092093304
0.28377545 0.19159973 -0.0075967372 -0.25433186 -0.26097867 -0.016092977 -0.12911521 -0.059492204
0.2990538 0.13459004 0.05938798 0.09197494 -0.087412424 -0.09965488 0.106391594 -0.31623212
-0.11125356 -0.20033033 -0.11280317 -0.03215499 -0.5580728 -0.16646336 -0.0023941153 -0.123086005
-0.27098292 0.037512586 0.24223214 -0.12232407 0.37184137 0.08574813 -0.24949692 0.32342178
-0.1388 0.18057697 -0.015746213 -0.064905055 -0.19044954 -0.3584517 0.105250195 0.19520238

q2_network.network_body._body_endoder.seq_layers.2.bias f4 [20]
00000000: 246f 133c bb67 fcbc 0000 0000 c5de 1ba3
00000010: 2fce 2ebd e1f5 ffb1 6010 8bb7 44cd 4d3c
00000020: ca8b 463c 9b8e 10bc 0000 0000 1939 0ea5
00000030: 037f 35bd 0000 0000 5877 19bd 5d9b d73c
00000040: 0000 0000 0683 2bbd 8676 f635 10e9 433d
0.008998666 -0.030811181 0.0 -8.44974e-18 -0.0426771 -7.44943e-09 -1.6577716e-05 0.012561146
0.012118289 -0.008823062 0.0 -1.2335882e-16 -0.04431058 0.0 -0.03746733 0.0263192
0.0 -0.041873 1.8362923e-06 0.047829688

q2_network.value_heads.value_heads.extrinsic.weight f4 [5, 20]
00000000: 5476 38be 9505 66be 28e3 b4be 563c 6b3e
00000010: 4d8c 9b3e b40e 383e e1dc 5b3e b386 45be
00000020: ccf3 b7be 3e1a adbe dd23 613e 44bc 9dbd
00000030: 778b 8f3e f45d 853e aa63 a0be cb74 c73e
00000040: 0d11 43be f167 99be 64ee 1abe c07f 01be
00000050: d9fc e93d 45a6 e4be 69dc de3d 8424 ebbd
00000060: c59a 8abb d6fb 923e 0931 3f3e ea41 fb3c
00000070: cdab 4b3e 044f bfbe 25a8 f4be c926 37be
00000080: 6db0 dfbe f491 b5be 1a43 083e 83fc 1fbe
00000090: 53ed df3e ac6d afbe c627 f1be fbf6 113e
000000a0: 5f9b 503e 0351 e63d 770e c6be 4380 17be
000000b0: b96d b2be 06c4 a93e 7be9 3fbc 6713 fe3c
000000c0: 853c 8bbe 6c1d 52be f885 babd 5977 55bd
000000d0: 8685 c1be 2096 143d ff65 cf3d 9e25 00be
000000e0: c7e9 bfbe 3506 b53e e4b6 97be 0851 6c3e
000000f0: d05d b0bd 1fac eebe 8c3f 69be d047 873e
00000100: 0a13 92be 02d8 fb3d f729 7b3d 4aa4 583e
00000110: 46a9 053f e585 bebb ff09 e73e 7090 e83d
00000120: 07d0 183d 57d5 e6be 0f4b 563e fb50 b3be
00000130: 9ffb 2d3d dda8 3fbe de0d e3bc dfa6 c6be
00000140: 9b52 85bd 45ba b0be 3da9 97bd 6e5a ef3e
00000150: 8a10 87be 5e20 6b3e 167e 83bd a1f6 a8bb
00000160: 0b20 93be 6e2d 453d e6c5 1bbe 4fa1 7c3e
00000170: d8d9 09be 6183 913e c0e9 0dbe 0168 ec3e
00000180: c678 9d3e 30af 69bc badc a0be 6511 463e
-0.18013889 -0.22463067 -0.35329556 0.22972235 0.30380479 0.17974359 0.21470977 -0.19289665
-0.3592819 -0.33809084 0.21986337 -0.077019244 0.2803609 0.26048243 -0.31326038 0.38956293
-0.19049473 -0.29962113 -0.15130001 -0.12646389 0.1142518 -0.44658104 0.10881884 -0.11481574
-0.0042298757 0.2870776 0.18671049 0.030671079 0.19889756 -0.37364972 -0.47784534 -0.17885889
-0.4368929 -0.35462916 0.13306847 -0.1562367 0.43735752 -0.3426336 -0.47100657 0.14254372
0.2037177 0.112459205 -0.3868291 -0.14795022 -0.34849337 0.33157367 -0.011713381 0.031015111
-0.2719461 -0.20519036 -0.09107584 -0.052115772 -0.37797183 0.036275983 0.10126876 -0.1251435
-0.37483045 0.35356298 -0.29631722 0.23077786 -0.08611643 -0.46615693 -0.22778147 0.26421976
-0.2853015 0.122970596 0.061319318 0.21156421 0.52211416 -0.0058143013 0.45124814 0.11355674
0.037307765 -0.4508464 0.2092707 -0.3502272 0.042476293 -0.1871676 -0.027716573 -0.38799188
-0.06509896 -0.34517112 -0.074053265 0.4674868 -0.26379806 0.22961566 -0.06420533 -0.0051563536
-0.28735384 0.04813903 -0.15212211 0.2467091 -0.13462007 0.28420547 -0.138587 0.461731
0.30756205 -0.014262959 -0.314184 0.19342573

q2_network.value_heads.value_heads.extrinsic.bias f4 [5]
00000000: f964 073c 68d0 3b3d 633f eb3b 2758 423d
00000010: 9f06 273d
0.00826382 0.04585305 0.007179187 0.04744735 0.0407778
