results/lasttest/AI Car/AI Car-3999996.pt (torch, 99872 bytes, 74 tensors)

network_body._body_endoder.seq_layers.0.weight f4 [20, 38]
1.3820186 -0.67728347 -0.54690224 -1.1375383 0.7453914 0.41141927 1.2602425 -1.2022604
-0.3823525 0.31267127 -2.3987732 -2.313378 -0.16478343 -0.45826435 0.6984897 -0.46657485
0.9302723 -1.076567 -0.2811032 0.341193 0.5463737 -2.4504564 0.84807646 0.5005368
2.3689213 -0.21081358 -0.30649707 0.193371 0.20290883 -0.013314828 0.29193866 -0.11611966
-0.89845353 1.3138235 8.304842 -4.566099 2.6021173 -0.4550269 -0.021923555 0.03959569
-0.008235732 -0.234221 0.0611642 0.0108490065 0.09556933 -0.07060614 -0.094177686 0.02697907
0.0954349 0.18880068 0.11275854 -0.30401123 -0.055264685 0.011136036 0.10864296 -0.07630891
-0.28444457 -0.1802316 0.02826348 -0.07326161 -0.3447799 -0.07651127 -0.27340338 0.017948488
0.23743905 0.14031824 -0.24408711 -0.048628673 -0.11293476 -0.3174224 0.02642947 0.36287957
-0.30277014 0.085861586 -0.046856336 -0.027962817 -0.9400376 0.9467566 1.0018666 -0.5843395
0.7559874 1.0613219 0.14924148 -0.11172598 -0.21358414 -0.29096213 0.64134437 1.2788337
0.21877153 -0.15249234 -0.43930176 1.2455301 -0.6970628 -0.2943416 1.527958 -1.2391398
-2.1209092 0.3250496 -0.41314438 -0.15956475 0.70085436 -0.41485256 -0.18337099 -0.10350274
0.06646412 0.61030096 -0.088292666 0.21626325 0.18910134 12.057717 3.2230191 -6.8630166
2.7286665 0.03335764 -0.010960356 -0.13261697 0.063215286 0.10995519 -0.003351625 0.09803318
0.11804518 -0.06761156 -0.15475366 -0.16592638 0.06910663 -0.06608517 -0.022235641 0.07701452
-0.09062126 0.11227779 -0.063732356 0.24853025 0.03536938 -0.12148838 -0.046222795 0.1679343
0.19790065 0.30768028 -0.016013864 -0.04372493 0.20944794 0.28290194 -0.11895691 -0.026043655
-0.11156091 0.14589891 0.11784796 -0.050978906 0.10146443 -0.07749085 -0.3362883 -0.14999121
0.07493416 0.13045377 0.08586022 0.12926339 0.07120347 -0.038073815 0.0035478221 0.17008172
-0.19779322 -0.12062419 -0.016069017 -0.105792075 -0.029784694 0.06915395 0.081912175 -0.11670684
-0.20171729 0.16160311 0.18665855 0.06696744 -0.101826854 0.055270195 -0.14696409 0.11967234
0.19121209 -0.03346376 -0.112898715 0.2965553 0.044504967 0.03736663 -0.033541173 -0.15458673
-0.14743909 -0.271305 0.23331104 0.19061086 -0.17600812 0.0020641978 -4.41562 1.9222904
1.4923242 -3.1462436 2.0982904 1.9395176 -1.8453327 1.0779245 0.3853584 -0.37765762
1.429835 1.8194623 2.4532394 -1.5833604 -2.0575917 1.125376 -0.9921113 0.83802646
0.64351857 -0.7555031 -2.6844585 1.314862 -1.1195321 -0.94818455 -0.46714297 -0.44291186
-0.37098134 -0.25495812 -0.31154865 0.089876056 -0.36435023 -0.24814355 0.06414835 -7.6584687
-16.905334 15.922446 -1.1982508 -0.15383792 0.1839819 -0.11608828 -0.32145044 1.7598085
-1.378887 -0.9095669 -1.6181976 0.53246 0.67265934 -0.034845788 0.1758104 -0.085898556
-2.4816532 2.3768725 1.3184936 -0.46359962 -0.21307182 -0.8467862 -0.30743933 0.22988088
-0.42734995 -0.35367522 0.2373903 0.3892472 -0.6894414 0.10129658 0.11597936 0.08492085
00000000: fce5 b03f 7362 2dbf c901 0cbf db9a 91bf
00000010: f9d1 3e3f 8ca5 d23e a04f a13f abe3 99bf
00000020: b5c3 c3be 7316 a03e 8085 19c0 630e 14c0
00000030: fdbc 28be a0a1 eabe 39d0 323f e6e2 eebe
00000040: 5326 6e3f f3cc 89bf c2ec 8fbe d9b0 ae3e
00000050: 26df 0b3f 47d4 1cc0 8a1b 593f 2e23 003f
00000060: 689c 1740 84df 57be 2fed 9cbe 0c03 463e
00000070: 55c7 4f3e 7026 5abc fc78 953e 25d0 edbd
00000080: 0d01 66bf 5e2b a83f a2e0 0441 7c1d 92c0
00000090: 1789 2640 49f9 e8be 0799 b3bc 172f 223d
000000a0: 2aef 06bc a1d7 6fbe 5087 7a3d 08c0 313c
000000b0: dab9 c33d f499 90bd 3be0 c0bd 3603 dd3c
000000c0: 5f73 c33d f754 413e f3ed e63d 5ca7 9bbe
000000d0: 395d 62bd ec73 363c 3380 de3d d947 9cbd
000000e0: b8a2 91be a28e 38be d088 e73c 2f0a 96bd
000000f0: fe86 b0be f1b1 9cbd 87fb 8bbe b508 933c
00000100: 3923 733e 96af 0f3e f9f1 79be dc2e 47bd
00000110: 574a e7bd 3085 a2be 9e82 d83c 5acb b93e
00000120: b004 9bbe 33d8 af3d 6eec 3fbd 4712 e5bc
00000130: 4ea6 70bf a45e 723f 2a3d 803f 4697 15bf
00000140: 6488 413f 65d9 873f c2d2 183e 97d0 e4bd
00000150: cdb5 5abe fdf8 94be 252f 243f d3b0 a33f
00000160: a505 603e f426 1cbe 29ec e0be 886d 9f3f
00000170: b572 32bf f1b3 96be 2194 c33f 229c 9ebf
00000180: fabc 07c0 e76c a63e a987 d3be f164 23be
00000190: 316b 333f 8e67 d4be 9bc5 3bbe 3ff9 d3bd
000001a0: 571e 883d af3c 1c3f c9d2 b4bd 1d74 5d3e
000001b0: c8a3 413e 69ec 4041 f245 4e40 d59d dbc0
000001c0: 79a2 2e40 05a2 083d 1193 33bc becc 07be
000001d0: 0477 813d 3030 e13d f0a6 5bbb 9fc5 c83d
000001e0: acc1 f13d ee77 8abd be77 1ebe 9be8 29be
000001f0: c787 8d3d a957 87bd 8527 b6bc cab9 9d3d
00000200: a497 b9bd e6f1 e53d 1c86 82bd b77e 7e3e
00000210: 7cdf 103d e6ce f8bd 1d54 3dbd f8f6 2b3e
00000220: 78a6 4a3e 4588 9d3e 822f 83bc ea18 33bd
00000230: 8579 563e 86d8 903e ae9f f3bd 8159 d5bc
00000240: 0c7a e4bd 8666 153e 455a f13d 42cf 50bd
00000250: 95cc cf3d 86b3 9ebd fb2d acbe 4c97 19be
00000260: 1577 993d ac95 053e 7cd7 af3d 9f5d 043e
00000270: 20d3 913d 4af3 1bbd 9482 683b e729 2e3e
00000280: 4e8a 4abe d109 f7bd 2ca3 83bc 84a9 d8bd
00000290: 08ff f3bc 96a0 8d3d 92c1 a73d ff03 efbd
000002a0: fa8e 4ebe 497b 253e 6b23 3f3e 3a26 893d
000002b0: 998a d0bd 0063 623d c17d 16be c616 f53d
000002c0: 1acd 433e 4c11 09bd 7137 e7bd 19d6 973e
000002d0: d74a 363d c00d 193d 7862 09bd fc4b 1ebe
000002e0: 46fa 16be 7de8 8abe 17e9 6e3e 7e2f 433e
000002f0: 793b 34be 7e47 073b c24c 8dc0 9d0d f63f
00000300: 7b04 bf3f 0e5c 49c0 644a 0640 1d42 f83f
00000310: dd33 ecbf 6ef9 893f b24d c53e 575c c1be
00000320: d504 b73f 24e4 e83f e001 1d40 8eab cabf
00000330: 95af 03c0 520c 903f 02fb 7dbf e788 563f
00000340: a2bd 243f a768 41bf 2bce 2bc0 664d a83f
00000350: d44c 8fbf 39bc 72bf 5d2d efbe 58c5 e2be
00000360: 44f1 bdbe df89 82be 4e83 9fbe f010 b83d
00000370: 1d8c babe 5819 7ebe 3660 833d 2d12 f5c0
00000380: 203e 87c1 57c2 7e41 4860 99bf b087 1dbe
00000390: c065 3c3e b1bf edbd 2795 a4be 6841 e13f
000003a0: 5f7f b0bf 60d9 68bf 1921 cfbf 4c4f 083f
000003b0: 6733 2c3f 75ba 0ebd a407 343e 95eb afbd
000003c0: 68d3 1ec0 ae1e 1840 66c4 a83f ee5c edbe
000003d0: 802f 5abe fbc6 58bf b068 9dbe e565 6b3e
000003e0: 9dcd dabe eb14 b5be 7116 733e 694b c73e
000003f0: 3b7f 30bf 9574 cf3d 9686 ed3d fcea ad3d

network_body._body_endoder.seq_layers.0.bias f4 [20]
-0.15579657 0.0 0.090917304 -0.03638475 0.0 -0.096496314 -0.21036787 1.0218768e-06
-0.16948614 -0.1397673 -0.08161565 0.044404875 -0.14154375 8.756421e-11 -0.029984025 -0.00010040588
-0.06639882 0.0 -0.09871207 0.045022704
00000000: 2389 1fbe 0000 0000 da32 ba3d 2d08 15bd
00000010: 0000 0000 dc9f c5bd ad6a 57be 6b27 8935
00000020: c68d 2dbe 291f 0fbe 1b26 a7bd e3e1 353d
00000030: d8f0 10be 458e c02e 0fa1 f5bc ff90 d2b8
00000040: 1bfc 87bd 0000 0000 8e29 cabd ba69 383d

network_body._body_endoder.seq_layers.2.weight f4 [20, 20]
-0.6457849 -0.23300324 -0.10346616 -0.12343448 0.121256456 -0.07635753 -0.06394405 -0.4251501
-0.23007528 -0.12058384 0.14993817 -0.26789543 0.0033011723 0.29404193 -0.093311116 0.4382653
0.20185828 0.16942203 -0.05075615 -0.77583116 -0.1682171 0.17137115 -0.01174924 0.18353607
0.044950884 0.0013555156 -0.7520264 -0.20826851 -0.063154116 -0.024720892 -0.08846799 -0.28969976
-0.06972696 -0.37157673 -0.13282226 -0.02844557 0.319747 0.13908766 0.59098923 -0.9321006
-0.046163853 -0.1704188 -0.040802393 -0.16087629 0.22684908 -0.019171774 0.003986699 -0.56740874
-0.054741465 0.0071382215 0.13328518 -0.24863128 -0.08127526 -0.08458938 -0.036645498 0.16894267
0.09054852 0.28602841 0.07994742 -0.13961561 -0.19305436 0.22538057 -0.008190254 0.15683278
0.17446147 0.14666563 -0.09130331 0.06452166 1.6672326 -0.13867027 -0.10810175 0.14896172
-0.036678 -0.13623485 -0.08946287 -0.44473112 -0.24297902 0.2349929 -0.24780282 0.030458238
-0.10923966 0.09088584 0.049725812 -0.36333182 0.13529646 -0.12844242 -0.77301115 -0.12250167
-0.35787052 -0.022294722 -0.088866666 0.1261109 -0.06583901 0.12065483 0.25388044 0.34604418
-0.15452108 -0.22243102 0.18477538 -0.31629416 -0.080397144 -0.026816258 0.30540082 0.1999082
-0.20578179 -0.23649406 0.17018345 0.16770078 1.6582404 0.1141299 0.32414284 -0.6567712
-0.40397093 0.16254145 0.06854626 0.08878212 0.103420556 -0.09552532 0.046254203 0.0724616
-1.4930798 -0.21654698 -0.07761748 0.40599307 -0.028079187 -0.03000831 0.2502369 -0.01382241
0.14843021 -0.026728587 0.10789628 0.15903187 -0.415883 0.24371082 -0.37767968 -0.22937694
-0.22934948 0.08348379 -0.99741113 -0.14076857 0.056806985 0.21883225 -0.1255209 -0.014347624
-0.38320795 -0.10532092 -0.061770033 0.26482505 0.78587866 -0.085868366 -0.18068916 0.08462153
-0.051272873 0.1339268 0.19747908 0.018050926 0.23001225 0.24498937 0.04136242 0.050181087
-0.2382402 0.039721176 0.4656261 0.18424973 0.09110691 -0.5863081 -0.21961167 -0.37673885
0.540831 0.24887168 0.011935957 -0.13287888 -0.45403677 0.24795437 0.009982861 -0.03423317
-0.2037363 0.23996903 0.016276682 -2.527574 -0.3202978 0.036270037 0.26028648 0.20650186
0.42162696 -0.505216 0.10876539 0.3359981 -0.40834865 0.26159996 0.04620322 -0.53688174
-0.39200583 -0.16647024 0.06810731 0.029103622 -0.055783175 -0.54513854 -0.09057502 -1.8739384
-0.028686082 -0.15222788 0.028230228 0.09510585 0.39852157 -0.10943771 0.23515484 0.015599272
0.6204171 -0.3761882 0.022390276 -0.15326136 -0.021366164 -0.35540307 -0.7475632 -0.30058995
0.16067034 -0.078411035 -0.070682555 -0.11682239 -0.7683778 0.24077097 -0.049501862 -0.06478944
0.09913339 0.023375066 -0.49564755 0.051185284 0.06703754 -0.18839216 -0.11599177 -0.71681374
0.060731445 0.059078157 0.18117397 0.057216942 0.051521093 -0.018299485 0.10554516 -0.017677793
-0.19243321 -0.24589652 -0.006612823 -0.3040263 -0.42831933 -0.005201934 0.10292144 0.20250079
0.3361493 -0.48497254 -0.22957131 -0.90343463 -0.09276375 -0.0738417 -0.2897386 -0.24972549
00000000: 2952 25bf 6798 6ebe 11e6 d3bd 37cb fcbd
00000010: 4e55 f83d 5661 9cbd 19f5 82bd 46ad d9be
00000020: db98 6bbe a9f4 f6bd 6489 193e 9729 89be
00000030: 7b58 583b aa8c 963e e619 bfbd 4f64 e03e
00000040: f0b3 4e3e f87c 2d3e aee5 4fbd df9c 46bf
00000050: 1a41 2cbe eb7b 2f3e e27f 40bc e1f0 3b3e
00000060: 6b1e 383d 8eab b13a cd84 40bf 5744 55be
00000070: f256 81bd 7883 cabc b52e b5bd 8753 94be
00000080: 02cd 8ebd 4e3f bebe 8f02 08be af06 e9bc
00000090: e1b5 a33e ff6c 0e3e 124b 173f 259e 6ebf
000000a0: 4f16 3dbd 4482 2ebe 6920 27bd c1bc 24be
000000b0: 204b 683e 200e 9dbc dba2 823b b341 11bf
000000c0: 9638 60bd bee7 e93b e97b 083e 3399 7ebe
000000d0: a573 a6bd 323d adbd 9719 16bd 4fff 2c3e
000000e0: 8171 b93d 5172 923e 79bb a33d 65f7 0ebe
000000f0: 0bb0 45be 2aca 663e 6a30 06bc c698 203e
00000100: 07a6 323e 842f 163e 3bfd babd ef23 843d
00000110: e167 d53f 94ff 0dbe 7364 ddbd 6c89 183e
00000120: ac3b 16bd 2681 0bbe 4f38 b7bd ccb3 e3be
00000130: 7ecf 78be fba1 703e 06c0 7dbe 8e83 f93c
00000140: 0bb9 dfbd 5b22 ba3d 4bad 4b3d a106 babe
00000150: 288b 0a3e 6986 03be 0fe4 45bf 28e2 fabd
00000160: ce3a b7be 6ca3 b6bc baff b5bd 3723 013e
00000170: 9ad6 86bd e119 f73d 9efc 813e b42c b13e
00000180: c63a 1ebe f5c4 63be c235 3d3e 4ff1 a1be
00000190: 42a7 a4bd c5ad dbbc 7f5d 9c3e bcb4 4c3e
000001a0: 76b8 52be 802b 72be 9244 2e3e c1b9 2b3e
000001b0: 3941 d43f f0bc e93d 0df6 a53e 2822 28bf
000001c0: 47d5 cebe 4471 263e fb61 8c3d 66d3 b53d
000001d0: 28ce d33d c7a2 c3bd 0c75 3d3d bf66 943d
000001e0: 3d1d bfbf 7ebe 5dbe eaf5 9ebd 53de cf3e
000001f0: 5306 e6bc fdd3 f5bc 0d1f 803e 6477 62bc
00000200: 17fe 173e e9f5 dabc baf8 dc3d 40d9 223e
00000210: 9eee d4be 548f 793e 3b5f c1be cae1 6abe
00000220: 97da 6abe 8df9 aa3d 5656 7fbf a325 10be
00000230: 71ae 683d 9015 603e 8d88 00be 4c12 6bbc
00000240: d533 c4be 7fb2 d7bd 9302 7dbd 2697 873e
00000250: 582f 493f c1db afbd 9406 39be 0d4e ad3d
00000260: 8103 52bd 1b24 093e f537 4a3e 89df 933c
00000270: 5588 6b3e 7ede 7a3e a46b 293d af8a 4d3d
00000280: 3df5 73be acb2 223d 8b66 ee3e f6ab 3c3e
00000290: 4296 ba3d 4a18 16bf e2e1 60be eae3 c0be
000002a0: e773 0a3f 38d8 7e3e 088f 433c 6711 08be
000002b0: 8277 e8be c0e7 7d3e 278f 233c 1538 0cbd
000002c0: 40a0 50be 71ba 753e ad56 853c c6c3 21c0
000002d0: 13fe a3be e48f 143d 4544 853e 3975 533e
000002e0: 7ddf d73e d655 01bf 64c0 de3d f107 ac3e
000002f0: 1313 d1be 6ef0 853e 963f 3d3d 1571 09bf
00000300: fdb4 c8be 2d77 2abe d87b 8b3d b86a ee3c
00000310: e67c 64bd 338e 0bbf 657f b9bd 37dd efbf
00000320: 13ff eabc a0e1 1bbe 1443 e73c dbc6 c23d
00000330: 050b cc3e e120 e0bd 6ecc 703e 1794 7f3c
00000340: a8d3 1e3f bd9b c0be d06b b73c 8cf0 1cbe
00000350: 1808 afbc 64f7 b5be 4d60 3fbf ede6 99be
00000360: c486 243e f795 a0bd 04c2 90bd 9440 efbd
00000370: 68b4 44bf aa8c 763e 77c2 4abd 53b0 84bd
00000380: 7206 cb3d 117d bf3c 84c5 fdbe a9a7 513d
00000390: fa4a 893d e0e9 40be 188d edbd 1b81 37bf
000003a0: 89c1 783d f0fb 713d ab85 393e 505c 6a3d
000003b0: c807 533d cde8 95bc 1028 d83d 05d1 90bc
000003c0: 360d 45be 4ccc 7bbe 61b0 d8bb 56a9 9bbe
000003d0: ac4c dbbe fc74 aabb 7ac8 d23d 5e5c 4f3e
000003e0: c31b ac3e 524e f8be be14 6bbe 7e47 67bf
000003f0: ecfa bdbd 513a 97bd 9e58 94be 0ab8 7fbe

network_body._body_endoder.seq_layers.2.bias f4 [20]
-0.16607179 0.1439053 -0.08504539 1.0348824 0.41613072 0.2543565 -0.2979771 -0.8759986
0.2566468 -0.109449975 -0.3727149 -1.0301969 -0.6749395 0.56160486 -1.4332595 -0.14431414
-1.2348017 -0.27874124 -0.52955896 -1.1566576
00000000: b90e 2abe e95b 133e 472c aebd 0777 843f
00000010: 160f d53e 043b 823e 7490 98be 7241 60bf
00000020: 3667 833e 4f27 e0bd 7dd4 bebe 7edd 83bf
00000030: d6c8 2cbf 56c5 0f3f 0c75 b7bf 16c7 13be
00000040: fb0d 9ebf 2cb7 8ebe 2d91 07bf 5b0d 94bf

action_model._continuous_distribution.mu.weight f4 [2, 20]
-5.9937954 -2.2168078 -3.7716963 -0.14382938 3.7829723 -0.056424398 -3.7218754 2.8659847
0.36263043 -0.8814057 0.54862875 0.9296603 4.0583644 -2.1824303 0.13169675 5.8736415
0.14765488 3.6518526 -6.8457785 3.6347947 -0.98956484 4.54084 -2.938105 0.046209898
2.0946379 0.3707499 1.4738832 -0.8530406 -0.41836104 0.25840306 -8.774776 3.7932513
-2.4894261 1.370625 0.06760041 -1.1246796 -0.043694254 -3.5922236 -1.6556133 -0.972486
00000000: 2ccd bfc0 2ee0 0dc0 7963 71c0 0248 13be
00000010: 381c 7240 451d 67bd 3533 6ec0 4b6c 3740
00000020: b2aa b93e cea3 61bf ef72 0c3f 38fe 6d3f
00000030: 1fde 8140 f0ac 0bc0 83db 063e dff4 bb40
00000040: d732 173e f4b7 6940 9e10 dbc0 7aa0 6840
00000050: 1f54 7dbf 904e 9140 ea09 3cc0 9746 3d3d
00000060: 8c0e 0640 eed2 bd3e 34a8 bc3f de60 5abf
00000070: 6b33 d6be 684d 843e 7c65 0cc1 a1c4 7240
00000080: c252 1fc0 a470 af3f 1572 8a3d 80f5 8fbf
00000090: bff8 32bd fee6 65c0 23eb d3bf d8f4 78bf

action_model._continuous_distribution.mu.bias f4 [2]
-0.9642418 -1.6492333
00000000: 8dd8 76bf 141a d3bf

action_model._continuous_distribution.log_sigma.weight f4 [2, 20]
0.14726189 0.44009325 -0.7325827 -0.005668182 0.24260782 -0.004529102 0.31278124 -0.72949445
-0.01731705 0.011358725 0.15337801 -0.07510065 -0.010595569 -0.45384145 0.008546394 0.31840336
-0.004498526 -0.1635302 0.14853232 -0.6539343 0.10492223 0.26478863 -0.6358343 -0.0036006463
0.30418023 0.007509735 -0.117569916 -0.7112844 -0.016826155 -0.022637272 -0.13173702 -0.48219192
-0.08268613 -0.7598998 0.009191833 1.0999649 0.004284654 -0.011724933 -0.00048541295 0.50467026
00000000: d2cb 163e e753 e13e 8a8a 3bbf 28bc b9bb
00000010: 2f6e 783e dc68 94bb dd24 a03e 26c0 3abf
00000020: 7cdc 8dbc f219 3a3c 200f 1d3e 5fce 99bd
00000030: 0a99 2dbc e85d e8be 2d06 0c3c c405 a33e
00000040: 5f68 93bb 7674 27be db18 183e 3d68 27bf
00000050: 77e1 d63d 6092 873e 09c6 22bf d2f8 6bbb
00000060: 83bd 9b3e 3914 f63b 7fc8 f0bd bc16 36bf
00000070: 01d7 89bc cd71 b9bc 12e6 06be dce1 f6be
00000080: 5957 a9bd cb88 42bf 5899 163c a6cb 8c3f
00000090: 4866 8c3b ef19 40bc 067f feb9 1232 013f

action_model._continuous_distribution.log_sigma.bias f4 [2]
-0.5816388 -0.78402233
00000000: 48e6 14bf b0b5 48bf

q1_network.network_body._body_endoder.seq_layers.0.weight f4 [20, 40]
-0.01185377 -0.7481388 0.031212205 -0.46234277 0.7727019 0.5906228 1.3105521 -0.7015735
-0.2368689 0.0129423635 0.114695415 0.2503842 0.22860727 -0.41877836 -0.6904856 -0.17745093
-0.11795174 -0.6575297 0.53752226 -0.74984694 -2.6988213 0.34689593 -0.28892165 -0.5627483
-0.4224992 -0.13842198 -0.018184152 -0.11050089 -0.12736718 0.32709536 0.052538104 -0.044561476
-0.19840905 1.2294416 -0.4797492 -1.4830397 -1.4514716 -0.025625357 0.31044087 -0.3157249
-0.044732075 0.13594961 0.07609838 0.11264042 -0.032578755 0.06520946 0.01838219 -0.24044476
0.17447585 0.10802204 0.15952356 0.32475924 -0.10793718 0.25808483 -0.28418273 -0.2665598
-0.060698647 -0.12318755 -0.08972041 -0.047154095 0.15656768 -0.04293928 -0.022186726 0.14844914
0.13980354 0.12745096 -0.08267742 0.030372424 0.12849393 0.095451206 0.050727867 -0.21089719
-0.016846387 -0.050485153 -0.07507021 0.03512097 0.0028559603 0.1380833 0.243375 0.0077504506
-0.44376725 0.099345714 -0.118627526 0.16934125 -0.36550343 -0.6224146 -1.3054606 0.2919532
0.45816574 0.53085196 -0.522604 -0.7642486 -0.66694736 0.020738838 0.6653031 0.0070793554
-0.48827112 -0.75762004 -0.11105604 -0.33215123 0.90690506 0.11549485 -0.19903477 -0.18075964
-0.63973767 0.032196216 0.05684203 -0.15686084 0.00058267795 0.09742912 0.13167088 0.08411376
0.12566067 -3.8613186 1.7251687 1.3776524 -0.94607204 -0.04856172 0.06335156 -0.2807595
-0.074415505 0.2310964 -0.26512367 0.1391379 -0.030854765 -0.2798642 -0.06582739 -0.28474703
-0.011680392 -0.04191759 -0.15828033 -0.20446768 0.239429 0.034204498 0.06424921 0.3425063
0.09620511 -0.088457555 0.1113072 -0.079969384 0.13256839 0.01395886 0.054086316 -0.0155570675
0.08255149 -0.4811266 0.20269886 0.1289792 -0.11545745 0.15616925 0.2266811 0.22141851
-0.13227531 0.18097413 -0.39353958 0.25053754 -0.08264519 -0.043197285 0.2686291 0.15304758
-0.39479706 -0.09416191 0.09133847 0.13962309 -0.5010598 0.14830457 0.44726545 -0.20975006
-0.52557325 -0.27609783 -0.012007907 0.10079837 0.16522793 -0.38663086 -0.5851242 -0.21653894
0.0051961537 0.08578121 -0.09241659 -0.085056305 0.25199562 0.12313844 -0.035950862 0.193446
-0.17025596 -0.058600143 -0.22508155 0.008722261 0.051178902 0.045440197 0.1468086 0.004208502
0.100758485 -0.39266887 1.3001764 0.11157503 -0.34155148 -0.18698655 0.24970853 0.46532136
-0.018099574 -0.043666437 -0.35505262 1.5081024 -1.3439205 -0.88669336 -1.8471452 0.7596517
0.7642364 0.82824606 -1.3728789 -1.1740538 -0.7474326 0.14426133 0.26739278 -0.28184804
0.51078266 -0.17304899 0.43764257 -0.078162365 -0.3800479 0.2525515 -0.08687946 0.07080398
-1.9879956 0.61734873 0.5072821 0.09036099 0.0841831 0.17594789 0.021330284 -0.07047756
-0.055981494 2.4265294 -1.693455 2.8694065 -0.66768676 -0.086977795 -0.5628682 0.023776803
0.7098698 -0.57653713 -0.045156084 0.14845195 -0.21491052 0.18992886 0.9306742 -0.628768
-0.5416857 0.09918437 -0.43325877 -0.25254485 0.28752586 0.14207597 0.026470542 -0.19132657
00000000: 5136 42bc 0686 3fbf bdb0 ff3c 31b8 ecbe
00000010: cbcf 453f 0e33 173f 2cc0 a73f 529a 33bf
00000020: c38d 72be 350c 543c 6ee5 ea3d 5c32 803e
00000030: 0618 6a3e 1e6a d6be aac3 30bf b2b5 35be
00000040: af90 f1bd de53 28bf 0f9b 093f f8f5 3fbf
00000050: 7db9 2cc0 589c b13e 8aed 93be 4610 10bf
00000060: d151 d8be 7ebe 0dbe eef6 94bc 4a4e e2bd
00000070: 8b6c 02be 0b79 a73e 3232 573d 1886 36bd
00000080: be2b 4bbe 585e 9d3f b0a1 f5be 3fd4 bdbf
00000090: d2c9 b9bf 45ec d1bc 1bf2 9e3e b2a6 a1be
000000a0: fb38 37bd 6036 0b3e 78d9 9b3d 05b0 e63d
000000b0: 4d71 05bd 8a8c 853d 3f96 963c 2737 76be
000000c0: cca9 323e a93a dd3d 255a 233e d846 a63e
000000d0: 2b0e ddbd b223 843e 6680 91be 877a 88be
000000e0: 259f 78bd c149 fcbd 56bf b7bd a724 41bd
000000f0: 4753 203e 19e1 2fbd f0c0 b5bc 0d03 183e
00000100: a928 0f3e 8182 023e c752 a9bd 97cf f83c
00000110: ea93 033e ec7b c33d 06c8 4f3d 6ff5 57be
00000120: 6f01 8abc 85c9 4ebd 69be 99bd 02db 0f3d
00000130: 102b 3b3b b565 0d3e 4c37 793e 7ef7 fd3b
00000140: 7635 e3be c475 cb3d fdf2 f2bd cb67 2d3e
00000150: 4423 bbbe 9056 1fbf 5519 a7bf e47a 953e
00000160: b394 ea3e eae5 073f 60c9 05bf cca5 43bf
00000170: 10bd 2abf 7fe4 a93c 4e51 2a3f f0f9 e73b
00000180: acfe f9be 63f3 41bf 5971 e3bd ba0f aabe
00000190: ee2a 683f 9088 ec3d c5cf 4bbe 0e19 39be
000001a0: d9c5 23bf 2ee0 033d 30d3 683d 21a0 20be
000001b0: dbbe 183a eb88 c73d bbd4 063e d643 ac3d
000001c0: 31ad 003e d81f 77c0 54d2 dc3f ea56 b03f
000001d0: c731 72bf a7e8 46bd 76be 813d b6bf 8fbe
000001e0: 2867 98bd 89a4 6c3e 4abe 87be 2a7a 0e3e
000001f0: 22c3 fcbc 5c4a 8fbe 83d0 86bd 5dca 91be
00000200: 1d5f 3fbc c7b1 2bbd 3d14 22be fa5f 51be
00000210: e02c 753e 041a 0c3d 1795 833d fc5c af3e
00000220: 2f07 c53d 3c29 b5bd 07f5 e33d fdc6 a3bd
00000230: 02c0 073e b4b3 643c 9d89 5d3d 12e3 7ebc
00000240: c110 a93d 3a56 f6be 4a90 4f3e 2013 043e
00000250: f574 ecbd d5ea 1f3e 171f 683e 89bb 623e
00000260: 2e73 07be 4851 393e 057e c9be 7546 803e
00000270: e241 a9bd a3ef 30bd c189 893e 81b8 1c3e
00000280: d722 cabe f6d7 c0bd aa0f bb3d 5bf9 0e3e
00000290: 7445 00bf 27dd 173e faff e43e b8c8 56be
000002a0: f88b 06bf b25c 8dbe d0bc 44bc 606f ce3d
000002b0: 8331 293e 7bf4 c5be b3ca 15bf 62bc 5dbe
000002c0: 7f44 aa3b 0fae af3d e944 bdbd 0032 aebd
000002d0: 9205 813e 0230 fc3d 3641 13bd b516 463e
000002e0: 9457 2ebe b406 70bd c77b 66be d0e7 0e3c
000002f0: f8a0 513d 801f 3a3d fe54 163e 79e7 893b
00000300: 775a ce3d e50b c9be 2e6c a63f 7381 e43d
00000310: d6df aebe 6779 3fbe 98b3 7f3e 9a3e ee3e
00000320: 8f45 94bc 94db 32bd 75c9 b5be 8009 c13f
00000330: 9605 acbf 56fe 62bf 416f ecbf 8978 423f
00000340: ffa4 433f ef07 543f 7fba afbf 6547 96bf
00000350: be57 3fbf 3eb9 133e b5e7 883e 634e 90be
00000360: a7c2 023f c133 31be b012 e03e 9713 a0bd
00000370: a395 c2be 6e4e 813e dced b1bd ad01 913d
00000380: a476 febf 910a 1e3f 3ddd 013f 2f0f b93d
00000390: 3068 ac3d af2b 343e d9bc ae3c 8a56 90bd
000003a0: da4c 65bd 424c 1b40 22c3 d8bf 5ba4 3740
000003b0: 85ed 2abf 6a21 b2bd 2118 10bf 92c7 c23c
000003c0: 07ba 353f f097 13bf 96f5 38bd ca03 183e
000003d0: 8111 5cbe b67c 423e aa40 6e3f f1f6 20bf
000003e0: eaab 0abf 2d21 cb3d 18d4 ddbe 8f4d 81be
000003f0: 9736 933e 5d7c 113e c0d8 d83c 1deb 43be

q1_network.network_body._body_endoder.seq_layers.0.bias f4 [20]
-0.04208082 -0.013387579 -0.08975098 4.6429693e-16 -0.08430262 -0.09376252 -0.043058693 0.021713132
0.024717256 -0.083512165 -0.017861014 0.0 0.0 -0.02578768 -0.07501927 -0.038480178
-0.07579667 -0.15539518 -1.9795022e-11 -0.03939991
00000000: f05c 2cbd 9357 5bbc 5dcf b7bd 11d3 0526
00000010: daa6 acbd 9006 c0bd 505e 30bd bddf b13c
00000020: d87b ca3c 6d08 abbd 4351 92bc 0000 0000
00000030: 0000 0000 af40 d3bc b4a3 99bd 649d 1dbd
00000040: 493b 9bbd ea1f 1fbe 6d1e aead cd61 21bd

q1_network.network_body._body_endoder.seq_layers.2.weight f4 [20, 20]
0.16093083 -0.2421845 0.23100787 0.1147177 0.046553366 -0.1357899 -0.00045557 -0.17482181
-0.0674726 0.10702341 -0.4827418 -0.15558738 0.43697858 -0.049118765 0.37484568 -0.060094353
-0.10949773 -0.019004857 0.038451936 -0.21940218 -0.24023797 0.15226267 0.10974004 0.25985396
-0.21528605 -0.055831235 0.30864227 -0.039216667 0.09515137 -0.32299843 0.28745902 -0.17633097
0.11452275 0.054645147 -0.09714862 -1.363781 0.06016284 -0.08698743 0.13825868 0.35863298
-0.3941004 -0.032612916 -0.32107645 0.30095023 0.16386215 -0.15965207 -0.24275124 0.19154619
-0.1271536 0.20045666 -0.5395739 -0.6850623 -0.22031693 -0.085508846 -0.8301153 -0.3315676
-0.49272946 0.07599554 -0.15343504 -1.9541506 -0.3178583 0.13908525 0.22632344 0.15403023
-0.29750434 0.31194595 -0.18315999 -0.07582016 -0.9706494 -0.031970732 -0.3443979 -0.1465154
-0.07661634 0.21041559 -0.10898094 0.43540308 0.0496691 -0.24573702 0.28979012 -0.43640175
0.4150954 0.11734409 -0.05722467 0.21901481 -0.03956051 -0.087732024 0.10320026 0.07881076
-0.110236205 0.24461336 0.11552977 -0.4307657 0.1366016 0.27004093 0.2084025 -0.63414055
-0.20821238 -0.16892399 0.07522874 -0.2941948 -0.12577936 0.12744474 -0.29911345 -0.19797903
0.36251378 0.14043127 -0.25557458 0.089127846 0.09718854 0.2845381 -0.078574054 0.0713383
-0.004528449 0.020298108 -0.04440937 -0.16728473 -0.21818975 -0.16775578 0.11315119 0.14711905
-0.3607652 0.31410536 -0.28241864 0.027294284 0.070170805 -0.112240754 -0.0037532006 -0.82304883
-0.26286754 -0.16008803 0.044781256 0.26038834 -0.2790881 0.15756734 0.061433766 0.4971074
-0.42373586 0.044063356 -0.4620447 0.12923199 0.16216832 -0.09402271 0.07523818 -0.2960365
0.21947865 0.37721 -0.119312584 0.02883104 -0.05434459 0.15360191 -0.20127907 0.17471081
-0.11338403 -0.43338716 -0.36501545 0.16908196 -0.0126278885 -0.15396787 0.1781544 -0.700917
-0.061286736 0.029181536 0.3215668 -0.113195375 0.024818191 -0.2779955 0.17467555 0.115397945
-0.3215886 -0.20919557 -0.33057857 0.31961316 -0.25429386 0.0013832265 0.3749213 -0.28066522
0.21423067 -0.27863377 -0.10582613 0.0072329193 -0.13135195 0.10249788 -0.3180598 0.03553613
0.4153874 0.45683104 0.044682384 0.02000884 -0.054896224 -0.018283132 -0.24692544 -0.0008227718
-0.12560056 0.12658334 0.3062757 -0.10279211 0.010443113 -0.13097396 0.34964085 -0.38180578
-0.43182686 -0.00240004 -0.5652485 0.013577369 0.49327964 -0.14430828 -0.093374476 0.15875107
0.13611433 -0.16167434 0.5914231 0.09185891 -0.35842663 -0.07983611 -0.0028901568 -2.5710256
-0.3699549 -0.47924468 -0.4078281 -1.1549339 0.31700352 0.16212231 -0.54186875 -0.21050267
0.29047614 0.011658613 -0.14440109 0.10944532 -2.0117412 -0.0755218 0.2798115 -0.08271768
-0.31697738 0.5759777 -0.98091 -1.579057 -0.19097894 -0.20165959 -0.1979236 -0.27212882
0.08474237 0.17792647 0.27729917 0.124545805 -0.08946202 -0.14014865 0.11565405 0.09167355
-0.04529278 -0.04323335 0.1958877 0.32801569 0.24025603 0.06963726 0.16581543 -0.025721323
00000000: 0dcb 243e 37ff 77be 548d 6c3e 1df1 ea3d
00000010: beae 3e3d 820c 0bbe 92d9 eeb9 7d04 33be
00000020: 132f 8abd 172f db3d ef29 f7be 4c52 1fbe
00000030: a8bb df3e c230 49bd c6eb bf3e 7f25 76bd
00000040: 5940 e0bd 13b0 9bbc c77f 1d3d f7aa 60be
00000050: f100 76be bfea 1b3e 63bf e03d 940b 853e
00000060: f273 5cbe 4baf 64bd 5c06 9e3e a8a1 20bd
00000070: b9de c23d 0d60 a5be d42d 933e 1b90 34be
00000080: e78a ea3d 97d3 5f3d dbf5 c6bd 6090 aebf
00000090: 4f6d 763d 7726 b2bd af93 0d3e be9e b73e
000000a0: 87c7 c9be 1f95 05bd 2264 a4be 2616 9a3e
000000b0: 7bcb 273e d57b 23be c893 78be af24 443e
000000c0: 8e34 02be 8344 4d3e 8421 0abf 3e60 2fbf
000000d0: c39a 61be 431f afbd 7082 54bf 3ac3 a9be
000000e0: 0947 fcbe 8da3 9b3d 131e 1dbe 9b21 fabf
000000f0: 53be a2be 5d6c 0e3e 55c1 673e 1aba 1d3e
00000100: 7d52 98be 61b7 9f3e 4b8e 3bbe 9a47 9bbd
00000110: 7b7c 78bf bef3 02bd ec54 b0be 2208 16be
00000120: 07e9 9cbd 2f77 573e 6631 dfbd 27ed de3e
00000130: d471 4b3d 7ca2 7bbe 5f5f 943e 0d70 dfbe
00000140: 6287 d43e 1952 f03d 6a64 6abd 6b45 603e
00000150: 340a 22bd d9ac b3bd a85a d33d 8967 a13d
00000160: 85c3 e1bd ed7b 7a3e df9a ec3d 528d dcbe
00000170: 4ae1 0b3e ce42 8a3e 7767 553e 0957 22bf
00000180: a035 55be 69fa 2cbe 8711 9a3d b3a0 96be
00000190: 4ecc 00be e080 023e 6625 99be 04bb 4abe
000001a0: 689b b93e 37cd 0f3e acda 82be a988 b63d
000001b0: c90a c73d faae 913e 6feb a0bd d119 923d
000001c0: 6263 94bb 3848 a63c 99e6 35bd b04c 2bbe
000001d0: 226d 5fbe 2cc8 2bbe d0bb e73d 60a6 163e
000001e0: 37b6 b8be 6bd2 a03e 2d99 90be 4398 df3c
000001f0: b6b5 8f3d 7bde e5bd 42f8 75bb 54b3 52bf
00000200: 9396 86be 1eee 23be 8d6c 373d 9f51 853e
00000210: a3e4 8ebe 5559 213e f9a1 7b3d dc84 fe3e
00000220: e8f3 d8be c77b 343d 1f91 ecbe 6455 043e
00000230: 740f 263e fb8e c0bd 7a16 9a3d 1992 97be
00000240: 03bf 603e ab21 c13e 285a f4bd 132f ec3c
00000250: 6f98 5ebd d249 1d3e 1a1c 4ebe 64e7 323e
00000260: e335 e8bd ece4 ddbe 4ee3 babe d223 2d3e
00000270: 34e5 4ebc c1a9 1dbe 1b6e 363e 4c6f 33bf
00000280: cd07 7bbd 1e0e ef3c 67a4 a43e fad2 e7bd
00000290: 854f cb3c 6d55 8ebe 26de 323e c255 ec3d
000002a0: 43a7 a4be 5d37 56be 9841 a9be 56a4 a33e
000002b0: ce32 82be 614d b53a aff5 bf3e 5ab3 8fbe
000002c0: 495f 5b3e 16a9 8ebe 5fbb d8bd 2002 ed3b
000002d0: 2081 06be 69ea d13d bcd8 a2be 558e 113d
000002e0: a8ad d43e c2e5 e93e e004 373d 94e9 a33c
000002f0: ddda 60bd 82c6 95bc 06da 7cbe 48af 57ba
00000300: 6f9d 00be 109f 013e 2bd0 9c3e ab84 d2bd
00000310: 9719 2b3c 0a1e 06be 2004 b33e 0c7c c3be
00000320: 6918 ddbe fd49 1dbb 20b4 10bf 9d73 5e3c
00000330: 268f fc3e 8dc5 13be 1e3b bfbd a48f 223e
00000340: 8e61 0b3e f58d 25be 8167 173f 8620 bc3d
00000350: b283 b7be 1d81 a3bd c968 3dbb af8b 24c0
00000360: bb6a bdbe 8f5f f5be d8ce d0be e0d4 93bf
00000370: 494e a23e 6403 263e e9b7 0abf 038e 57be
00000380: 4ab9 943e c403 3f3c e1dd 13be de24 e03d
00000390: 5ec0 00c0 2cab 9abd 7443 8f3e e367 a9bd
000003a0: dc4a a2be 4673 133f eb1c 7bbf 8a1e cabf
000003b0: fc8f 43be da7f 4ebe 7cac 4abe 7854 8bbe
000003c0: 688d ad3d 5b32 363e 28fa 8d3e df11 ff3d
000003d0: dd37 b7bd 2183 0fbe 08dc ec3d 58bf bb3d
000003e0: ec84 39bd 7415 31bd c996 483e acf1 a73e
000003f0: ad05 763e fb9d 8e3d 85cb 293e 86b5 d2bc

q1_network.network_body._body_endoder.seq_layers.2.bias f4 [20]
-0.42272514 -0.20972492 -0.3143535 -0.5120892 -0.27787578 -0.023403758 0.5895321 -0.54229707
-0.41958585 -0.34679124 -0.63104004 0.15133554 0.3203409 -0.075961 -0.49923494 0.20989348
0.063291244 -0.14736074 -0.01654347 -0.40106985
00000000: 6e6f d8be 21c2 56be f1f2 a0be 4718 03bf
00000010: bc45 8ebe 3db9 bfbc 93eb 163f fbd3 0abf
00000020: f5d3 d6be 9f8e b1be d78b 21bf b4f7 1a3e
00000030: b903 a43e 7191 9bbd b99b ffbe 51ee 563e
00000040: d79e 813d bce5 16be 2c86 87bc 0759 cdbe

q1_network.value_heads.value_heads.extrinsic.weight f4 [1, 20]
0.02603536 0.0478337 0.34351313 1.1810402 -0.035910126 0.7150757 -0.7646704 0.9925831
0.037479416 0.027376192 -0.16490342 -0.98594326 -0.14426073 -0.5952267 -0.48002476 -0.06035698
2.2009573 -0.68144137 -0.49535462 0.36341974
00000000: 1b48 d53c 45ed 433d f4e0 af3e 532c 973f
00000010: 7f16 13bd 330f 373f 70c1 43bf ed19 7e3f
00000020: 0484 193d 0944 e03c 71dc 28be c766 7cbf
00000030: 16b9 13be c760 18bf cec5 f5be e138 77bd
00000040: 7cdc 0c40 f172 2ebf 1f9f fdbe 2712 ba3e

q2_network.network_body._body_endoder.seq_layers.0.weight f4 [20, 40]
0.36371565 -0.3746404 -0.065674946 -0.81863344 0.22378294 -0.08572137 0.5153487 -0.10256239
-0.32030374 -1.5260968 0.8163264 0.33600378 0.15232398 0.5455252 -0.5278678 -0.29024088
0.19524397 -0.4501071 -0.3065134 0.9961039 -0.75997204 -0.09643401 0.31901336 -0.54281455
-1.1938378 0.8845033 0.6203812 0.09831351 -0.06887834 0.004853826 -0.058518328 0.2153986
0.015681176 -16.768923 -0.0046148747 1.8078338 -5.9341254 -0.4584789 0.34024298 0.45172384
0.9734923 -0.46720538 -0.6632009 -0.5334452 0.16299991 -0.2639826 -0.09484839 0.14398746
-1.2237978 -0.4140567 0.27998632 0.65369344 -0.13976009 0.4349236 -0.87712365 -0.26249123
-0.5065851 1.19767 -0.08293938 -0.504551 0.55733466 0.47093055 -0.44046572 0.49035865
-0.44416812 0.16781586 0.44716907 -0.14557517 -0.25036985 0.037117586 -0.24061817 -0.1845357
-0.026005056 -2.0562947 -7.803147 5.4765453 0.80153775 0.028240494 -0.3840921 -0.09130141
-0.66080236 0.6449333 1.0395187 -2.4106297 0.9229172 1.2244513 -0.16948348 -0.040762994
1.1557863 0.008185472 -0.812049 0.10417598 0.49180475 -0.92048746 0.45669162 -0.05631368
-1.2677859 -1.4359436 -0.021288898 -0.74731165 -1.0134102 0.1637173 -0.5485714 0.35855845
0.41718543 -0.5265514 -0.34210682 -0.20910957 -0.130337 0.22171597 0.042920392 -0.00054643565
0.44968525 1.7416986 -2.4724934 5.8538504 1.0789124 -0.08298394 0.78600115 -1.8155216
0.4250825 -0.12824081 -0.9249379 0.09237809 -0.21232991 -1.3129625 -0.7171875 0.46837032
-0.67087173 0.5514482 -0.5176573 -0.88398683 -0.40427002 1.0420433 0.50937057 0.00856937
-0.47300702 0.38891795 -0.17435409 0.3529023 1.6580166 0.14479499 -0.25924084 -0.6012081
-0.3649542 0.33654866 0.94162285 -0.4208482 -0.08472633 -0.20302196 0.2694126 -0.054619737
0.23778507 -15.897505 0.721727 4.3927813 -0.9686456 0.06330241 -0.21583523 -0.4311763
-0.029506395 0.11529716 -0.26000386 -0.06060256 0.016480453 -0.19412903 -0.12623595 -0.28179175
-0.052362565 0.18280669 -0.2841086 0.20449787 -0.30299264 0.06448731 -0.09245057 0.12859699
-0.18220063 -0.10714154 -0.06284759 -0.21797259 0.30295867 -0.044952888 0.09211248 0.09126044
-0.2051237 0.08439688 0.10864359 0.067498825 -0.09995227 0.16021249 0.08678902 -0.20190217
0.1404528 -0.24914698 -0.14739724 0.028317679 -0.07424872 -0.009016704 -0.022867944 -0.08934517
0.69298416 -0.78502166 -3.1440072 1.1495125 -0.39674518 -2.253152 1.0347909 -2.0519278
-4.316798 -0.26083824 0.59053695 -0.5380343 0.5949703 -0.89137685 -2.9572895 1.1986989
-0.9149526 -0.4028126 0.887128 -1.214276 -1.3848966 -1.0151535 1.3020341 -0.04167769
-0.00265723 -0.34299776 -0.68663615 0.2655433 0.23388916 -0.19722334 -0.051825814 -0.05668609
0.013938324 -0.4874499 -0.302184 1.0823264 -4.435538 0.037124835 0.9481859 1.124298
0.5731293 -0.10928398 -0.47233304 1.008568 -0.6236782 -0.14337604 0.2758325 0.12561144
-0.052670907 0.599068 -0.5103447 -0.40762794 -0.3578859 0.52192044 0.5849247 -0.09712098
00000000: f038 ba3e ded0 bfbe 9680 86bd f691 51bf
00000010: 5b27 653e b08e afbd e4ed 033f 3b0c d2bd
00000020: dafe a3be 2457 c3bf c4fa 503f b008 ac3e
00000030: d1fa 1b3e 8aa7 0b3f 5822 07bf 749a 94be
00000040: 09ee 473e 7074 e6be 53ef 9cbe aa00 7f3f
00000050: 878d 42bf 327f c5bd b855 a33e e5f5 0abf
00000060: adcf 98bf cf6e 623f 4dd1 1e3f 9858 c93d
00000070: 1610 8dbd d80c 9f3b eab0 6fbd 7391 5c3e
00000080: cf75 803c c126 86c1 6038 97bb 1967 e73f
00000090: 5be4 bdc0 bfbd eabe 5434 ae3e 5948 e73e
000000a0: cb36 793f 8b35 efbe 89c7 29bf dd8f 08bf
000000b0: 73e9 263e ba28 87be df3f c2bd 7371 133e
000000c0: 68a5 9cbf 3dff d3be 5e5a 8f3e 7458 273f
000000d0: 451d 0fbe 4eae de3e 2d8b 60bf 4065 86be
000000e0: 90af 01bf 404d 993f 1fdc a9bd 412a 01bf
000000f0: 7cad 0e3f cf1d f13e b984 e1be 4a10 fb3e
00000100: 016a e3be ecd7 2b3e 58f3 e43e a811 15be
00000110: 7a30 80be 9c08 183d 9c64 76be edf6 3cbe
00000120: 8e08 d5bc 559a 03c0 61b3 f9c0 dc3f af40
00000130: 9431 4d3f 9c58 e73c b8a7 c4be 3cfc babd
00000140: 582a 29bf 591a 253f f30e 853f c247 1ac0
00000150: 4d44 6c3f d2ba 9c3f 148d 2dbe 19f7 26bd
00000160: cef0 933f 5c1c 063c 71e2 4fbf 375a d53d
00000170: d5cd fb3e 11a5 6bbf 7cd3 e93e 2ca9 66bd
00000180: cf46 a2bf 00cd b7bf 0e66 aebc d14f 3fbf
00000190: 6db7 81bf 82a5 273e 2d6f 0cbf f994 b73e
000001a0: 5499 d53e 13cc 06bf a028 afbe d220 56be
000001b0: 1077 05be 8309 633e 4bcd 2f3d ad3e 0fba
000001c0: 253d e63e fbef de3f 553d 1ec0 be52 bb40
000001d0: cd19 8a3f 7cf3 a9bd 5f37 493f 0363 e8bf
000001e0: 6aa4 d93e 8f51 03be bbc8 6cbf b930 bd3d
000001f0: 036d 59be 280f a8bf 9a99 37bf 3cce ef3e
00000200: 40be 2bbf b62b 0d3f 3085 04bf f64c 62bf
00000210: 7bfc cebe ad61 853f 1c66 023f 8b66 0c3c
00000220: fa2d f2be 4120 c73e e189 32be 9caf b43e
00000230: e339 d43f 2345 143e 37bb 84be c6e8 19bf
00000240: 47db babe 1b50 ac3e 320e 713f 6a79 d7be
00000250: 0085 adbd fde4 4fbe 73f0 893e f2b8 5fbd
00000260: ee7d 733e 2e5c 7ec1 1ac3 383f aa91 8c40
00000270: 28f9 77bf b2a4 813d e903 5dbe 24c3 dcbe
00000280: 65b7 f1bc eb20 ec3d 3a1f 85be 643a 78bd
00000290: 0402 873c c3c9 46be ff43 01be 0247 90be
000002a0: 217a 56bd ad31 3b3e af76 91be e467 513e
000002b0: da21 9bbe ec11 843d b956 bdbd eeae 033e
000002c0: cd92 3abe 066d dbbd 3db6 80bd 3534 5fbe
000002d0: 661d 9b3e 8520 38bd 78a5 bc3d c1e6 ba3d
000002e0: f20b 52be 45d8 ac3d 8880 de3d d33c 8a3d
000002f0: c7b3 ccbd be0e 243e 71be b13d 71bf 4ebe
00000300: dcd2 0f3e 6320 7fbe 4def 16be 7afa e73c
00000310: b70f 98bd ccba 13bc 8e55 bbbc 9afa b6bd
00000320: 6967 313f 2ef7 48bf 6a37 49c0 3a23 933f
00000330: 2f22 cbbe a433 10c0 0774 843f c952 03c0
00000340: 3623 8ac0 978c 85be 6e2d 173f 9ebc 09bf
00000350: f94f 183f 4631 64bf 3b44 3dc0 f76e 993f
00000360: 553a 6abf 743d cebe d21a 633f 656d 9bbf
00000370: 4b44 b1bf 8df0 81bf 0ea9 a63f 3ab6 2abd
00000380: ec24 2ebb 679d afbe 63c7 2fbf 4bf5 873e
00000390: a480 6f3e eaf4 49be 4e47 54bd ac2f 68bd
000003a0: 915d 643c 0993 f9be dcb7 9abe ac89 8a3f
000003b0: edef 8dc0 3610 183d 50bc 723f ffe8 8f3f
000003c0: 9ab8 123f 48d0 dfbd a3d5 f1be c218 813f
000003d0: 60a9 1fbf 2bd1 12be eb39 8d3e 49a0 003e
000003e0: 73bd 57bd 855c 193f f3a5 02bf 9cb4 d0be
000003f0: d23c b7be 949c 053f a0bd 153f 5de7 c6bd

q2_network.network_body._body_endoder.seq_layers.0.bias f4 [20]
-0.022138532 -0.070266366 -0.058745187 -0.12041537 -1.5647776e-31 -0.09804382 -0.031970352 0.0
-0.097934544 0.0 -0.05599428 -1.921648e-06 -0.025800634 -0.043836873 0.0 -0.053733733
0.07824744 -0.042568106 -0.01176124 -0.07959265
00000000: de5b b5bc d0e7 8fbd cb9e 70bd 559c f6bd
00000010: a81e 4b8c 33cb c8bd 58f3 02bd 0000 0000
00000020: e891 c8bd 0000 0000 425a 65bd a9f5 00b6
00000030: da5b d3bc 4b8e 33bd 0000 0000 e717 5cbd
00000040: 3240 a03d e55b 2ebd 37b2 40bc 7901 a3bd

q2_network.network_body._body_endoder.seq_layers.2.weight f4 [20, 20]
-0.20534016 0.09256995 -0.27497676 -0.4208571 -0.08504712 -1.3885232 0.1387254 -0.1895682
0.021338632 0.21866369 0.09840134 0.16896255 -1.2058473 -3.9973834 -0.09877637 0.04066427
0.17597201 -0.13636337 -0.20416546 -0.27925426 -0.051169876 -0.1408842 -1.4958415 -0.0429921
0.07186629 -0.26518106 0.13504665 0.13999489 -0.11800684 0.13301243 -0.21328 0.20938967
0.064063355 0.15999228 -0.070019856 -0.1491228 0.22562636 0.15469797 -0.13541101 -0.13325249
-0.054680336 -0.24452901 0.03344525 0.31231657 0.016219527 0.03568641 -0.096753664 0.2509416
-0.13931137 0.037320513 0.05405761 0.4144742 0.06483707 -0.048722215 -0.2941524 0.043841917
-0.1471287 0.2270657 0.049782928 0.0032011715 -0.0058491766 -0.40479475 -0.038372442 -0.10058886
-0.3035034 -0.24949677 0.021190988 0.15033376 -0.015399379 -0.09156603 0.011383334 0.12942106
-0.11850838 0.53043956 -0.56612855 -0.90627396 -0.3285233 0.12443793 -0.038364854 -0.03724729
-0.031159747 -0.13640366 0.28478214 0.048465278 0.088447005 0.06020622 0.12650692 0.28869453
-0.34918308 0.26906925 0.09093446 0.36498016 0.13710761 0.03201777 0.26789254 0.007335207
-1.165898 0.012754911 -0.3651867 -0.10010395 -0.12633522 0.18287376 -0.1921209 -0.10519562
-0.18530023 -0.049349274 -0.18709718 -0.29492456 -0.24967332 -0.6008453 0.2922556 -0.73759913
0.046418935 0.24222182 0.028079271 -0.32838485 0.10270045 0.29016218 -0.40313601 0.0359854
0.28609574 -0.4691176 -0.17850423 -0.12291896 0.21399958 -0.21333764 -0.0633379 0.007458176
-0.30478856 -0.5205521 0.35322753 -0.17037293 -0.40633678 0.4204919 0.43088645 -0.20220989
-0.3465368 0.07805787 -0.0866312 -0.20811398 -0.012385964 0.12152343 0.015493331 0.006493226
-0.2401981 0.038569517 -0.056717608 -0.14285447 -0.15363851 -0.1309132 0.13979065 0.11240942
0.07579335 0.21839267 -0.06289285 -0.2859549 0.016096326 0.1628122 -0.15178911 -0.007852548
-0.02683117 -0.54964393 0.23178865 -0.24902403 0.08397464 -0.07967262 0.2834274 0.16477856
0.10712602 0.030663561 0.14215657 -0.05093635 -0.37959564 -0.55166316 -0.15348314 0.15015672
-0.10522632 -0.33426228 -0.2642414 -0.032610778 0.084882975 0.31257007 -0.09685523 -0.50786895
0.12790659 -0.07463677 0.27867714 -0.6190766 -0.14018124 -0.032765236 0.029591406 -0.13045053
-0.09680642 0.037266865 -0.1439997 -0.0019592487 0.17683667 0.4642743 0.32326132 -0.21098283
0.109686606 0.33609632 -0.792472 -0.082273416 -0.021676034 -0.4193357 0.002699451 0.079100944
0.061240505 0.13559721 -0.3404161 0.08705294 -0.28833848 -0.021634826 -0.10177094 -0.090574875
-0.3924611 -0.58747256 0.31585997 -0.21773309 -0.22009052 -0.114547096 -2.0552585 0.09391471
-0.1462903 -0.008601437 0.25365523 0.0059328796 -0.085837685 -0.011752529 -0.05562509 -0.31957418
0.069460265 0.21142489 -0.08176322 -0.45307314 -1.362092 -0.16626804 -0.3242684 0.01968962
0.05580908 -0.13831756 0.015080682 0.17023617 -0.30385813 -0.014138254 0.16544545 0.30018574
0.2168723 0.038910437 -0.2313491 0.15646873 -0.10852883 -0.017583275 -0.3158757 0.031714167
00000000: b144 52be 5095 bd3d c1c9 8cbe 957a d7be
00000010: 2f2d aebd 21bb b1bf 080e 0e3e 2b1e 42be
00000020: 5bce ae3c 60e9 5f3e a486 c93d 8504 2d3e
00000030: 3459 9abf 21d5 7fc0 444b cabd 948f 263d
00000040: 0232 343e d7a2 0bbe c010 51be 6afa 8ebe
00000050: 8197 51bd f343 10be bc77 bfbf 7c18 30bd
00000060: a22e 933d d0c5 87be ab49 0a3e d25a 0f3e
00000070: 92ad f1bd 6934 083e 1366 5abe 3f6a 563e
00000080: a633 833d 04d5 233e 9266 8fbd a6b3 18be
00000090: 990a 673e 2569 1e3e 2fa9 0abe 5773 08be
000000a0: 7df8 5fbd d065 7abe e3fd 083d f5e7 9f3e
000000b0: d0de 843c ea2b 123d c926 c6bd 6b7b 803e
000000c0: a4a7 0ebe 65dd 183d 836b 5d3d f635 d43e
000000d0: 4cc9 843d f290 47bd 259b 96be 9593 333d
000000e0: e8a8 16be e983 683e 2fe9 4b3d bfca 513b
000000f0: 73aa bfbb 4241 cfbe 6c2c 1dbd 8801 cebd
00000100: cc64 9bbe 157c 7fbe b998 ad3c 18f1 193e
00000110: ad4d 7cbc f986 bbbd 2a81 3a3c f486 043e
00000120: 86b4 f2bd e3ca 073f cded 10bf 9201 68bf
00000130: 3534 a8be 50d9 fe3d 7724 1dbd 9d90 18bd
00000140: ba42 ffbc 67ad 0bbe f7ce 913e 8783 463d
00000150: b423 b53d cc9a 763d 088b 013e c5cf 933e
00000160: 20c8 b2be 72c3 893e d93b ba3d aede ba3e
00000170: f065 0c3e 1125 033d 3629 893e 2d5c f03b
00000180: 253c 95bf f9f9 503c c0f9 babe 4d03 cdbd
00000190: 055e 01be 4243 3b3e 57bb 44be cd70 d7bd
000001a0: 58bf 3dbe 7722 4abd 6796 3fbe 5a00 97be
000001b0: 5daa 7fbe ffd0 19bf 87a2 953e 4cd3 3cbf
000001c0: c821 3e3d ff08 783e 8006 e63c 0f22 a8be
000001d0: 9d54 d23d 2390 943e d867 cebe 6d65 133d
000001e0: 247b 923e 2f30 f0be d0c9 36be f0bc fbbd
000001f0: b522 5b3e 2f75 5abe 4db7 81bd b763 f43b
00000200: 3f0d 9cbe e742 05bf 3dda b43e 3e76 2ebe
00000210: 600b d0be b74a d73e 269d dc3e 1c10 4fbe
00000220: 456d b1be cedc 9f3d b36b b1bd d51b 55be
00000230: 80ee 4abc 47e1 f83d bdd7 7d3c 21c5 d43b
00000240: 7ef6 75be 12fb 1d3d b950 68bd 7148 12be
00000250: 6a53 1dbe 1c0e 06be 4825 0f3e e936 e63d
00000260: 8b39 9b3d 54a2 5f3e f7cd 80bd ae68 92be
00000270: 71dc 833c 3eb8 263e 9b6e 1bbe f9a7 00bc
00000280: 0bcd dbbc 77b5 0cbf 015a 6d3e 2800 7fbe
00000290: e5fa ab3d 662b a3bd 651d 913e b6bb 283e
000002a0: e364 db3d 2632 fb3c 7e91 113e a2a2 50bd
000002b0: 5c5a c2be cc39 0dbf af2a 1dbe afc2 193e
000002c0: e680 d7bd 6d24 abbe a64a 87be e192 05bd
000002d0: 20d7 ad3d 2f09 a03e 095c c6bd b303 02bf
000002e0: f2f9 023e 2adb 98bd c5ae 8e3e ce7b 1ebf
000002f0: ac8b 0fbe d734 06bd ad69 f23c d394 05be
00000300: 7242 c6bd 24a5 183d a874 13be bd66 00bb
00000310: ac14 353e 5cb5 ed3e 8282 a53e e20b 58be
00000320: 5fa3 e03d d114 ac3e 72df 4abf f77e a8bd
00000330: f091 b1bc 2bb3 d6be 46e9 303b adff a13d
00000340: 53d7 7a3d ffd9 0a3e 054b aebe d048 b23d
00000350: 1aa1 93be 853b b1bc 486d d0bd 527f b9bd
00000360: a9f0 c8be 9a64 16bf 66b8 a13e 6cf5 5ebe
00000370: 695f 61be ab97 eabd 5b89 03c0 5b56 c03d
00000380: 20cd 15be 0bed 0cbc 19df 813e 9a68 c23b
00000390: abcb afbd ae8d 40bc 22d7 63bd 3a9f a3be
000003a0: 2f41 8e3d c47f 583e 7a73 a7bd 34f9 e7be
000003b0: 0859 aebf 2b42 2abe 8206 a6be 204c a13c
000003c0: 1098 643d 1ea3 0dbe f714 773c 6452 2e3e
000003d0: 4b93 9bbe 23a4 67bc 886a 293e f2b1 993e
000003e0: c613 5e3e 8d60 1f3d c7e6 6cbe 5739 203e
000003f0: 5d44 debd cd0a 90bc 76ba a1be b7e6 013d

q2_network.network_body._body_endoder.seq_layers.2.bias f4 [20]
-0.09478777 0.05097747 -0.27027407 0.1964075 0.25277296 -0.06964646 -0.08430382 -0.053966716
-0.2813746 -0.13976882 -0.027517395 0.018399242 0.43553966 0.0647284 0.46221992 -0.5982026
-0.44028622 0.51207036 -0.052027196 -0.16675922
00000000: 1720 c2bd c0cd 503d 5d61 8abe 0c1f 493e
00000010: 756b 813e cea2 8ebd 7ba7 acbd 340c 5dbd
00000020: 5510 90be 8f1f 0fbe 296c e1bc 02ba 963c
00000030: 0eff de3e 5390 843d 17a8 ec3e ce23 19bf
00000040: 326d e1be 0b17 033f 781a 55bd eec2 2abe

q2_network.value_heads.value_heads.extrinsic.weight f4 [1, 20]
-0.004601938 -0.042253193 0.045998637 0.81020933 0.54681915 1.0642493 -0.61217666 0.9060127
0.017941335 0.6534142 0.03602726 -0.41008836 -0.07224665 0.049895495 -0.05495888 -0.12193821
0.014106648 -0.013937556 -0.6474981 -0.052891754
00000000: dbcb 96bb af11 2dbd 1169 3c3d e169 4f3f
00000010: 57fc 0b3f 5239 883f 9cb7 1cbf 73f0 673f
00000020: b5f9 923c 2746 273f 5291 133d 1af7 d1be
00000030: 0df6 93bd 385f 4c3d 901c 61bd beba f9bd
00000040: 921f 673c 595a 64bc 6fc2 25bf 06a5 58bd

network_body._body_endoder.seq_layers.0.weight f4 [20, 38]
0.024744049 0.058873765 0.100951746 0.21257935 0.05351141 -0.016193453 -0.27036145 0.23641002
0.11174944 0.026439307 -0.03087018 -0.21502371 0.024389993 0.2640213 -0.012647563 0.12000508
0.13481693 0.18740563 0.030344497 0.066950396 0.15209757 -0.04877122 -0.26779255 0.18562996
0.03898581 0.034614637 0.16275667 0.042192496 -0.4002321 0.017034493 0.19177237 0.23068684
-0.23705745 -0.08996115 0.13561442 0.168774 0.044882923 0.32111907 -0.24919575 -0.4602771
-0.10426858 0.0010818369 -0.35532925 0.06148233 0.5179322 -0.056360777 0.06240989 -0.027522989
-0.15463759 -0.08678723 -0.17463405 0.06588392 -0.1617543 0.1944734 0.25642493 -0.023660421
-0.051502973 0.19046268 -0.11767986 -0.07090785 -0.09859048 0.33945066 0.208499 0.13228555
-0.36389118 0.31217027 -0.069268174 0.102792695 -0.32395482 -0.21158528 -0.24019468 -0.14957646
0.16193394 0.18102494 -0.026153818 -0.051045902 -0.18763585 0.059960358 0.30145618 -1.6919011
0.84597933 1.0538635 -0.035112247 -0.16215444 0.09518733 0.050589036 -0.32441482 -0.41924095
1.0579314 -1.0444721 -0.7502193 -0.032349274 -0.20456249 -0.7999371 0.56588185 -1.1509848
-1.4962298 0.11736228 -0.313462 -0.68356586 0.029626295 -0.05681776 0.11410823 0.052716874
-0.12804717 0.1614483 -0.21714342 -0.15645906 -0.057861302 2.3293922 -3.460987 1.2840897
-1.5187598 -0.072064556 0.14979497 -0.13231939 -0.35444742 0.20948899 -0.4501276 -0.03663553
-0.11466592 -0.6103473 -0.47242105 -0.026358435 -0.07776749 0.04465747 -0.40736166 0.47529766
0.42189768 0.007186732 0.050024614 -0.21302141 -0.3160813 0.30453438 0.2242109 0.298666
-0.23713106 -0.27897543 -0.4460142 0.109322086 -0.13070811 0.19894317 -0.17513599 -0.13140154
-0.24818088 -0.09143562 -0.010522749 1.2642633 1.7466575 -3.2140183 0.31183463 0.15152392
0.20596755 0.002569444 -0.1333731 -0.04042175 -0.1384363 -0.29302445 -0.1489697 -0.017674116
0.114760004 -0.027095847 -0.28074902 -0.025360188 0.04200735 0.19223775 0.1238977 0.20272812
0.22850643 0.03292341 0.04080293 -0.08199742 -0.11240885 -0.03232997 -0.28581858 -0.010937816
-0.02903435 0.021022692 0.19194299 0.1809016 0.08720465 0.0017844582 0.14999127 0.044826634
0.028051635 -0.18517724 0.06582787 -0.37282452 0.41463578 -0.030564219 -0.14570118 -0.08196084
-0.16452865 -0.012370192 -0.088086314 0.09557009 0.20725347 -0.11567745 0.074545555 -0.33799258
-0.24418256 0.19065742 -0.07077169 -0.069400735 -0.023949452 -0.013767305 -0.109901816 0.17102973
-0.13926569 -0.18782587 -0.3723177 0.03297406 -0.091186866 -0.051877283 0.12885699 -0.104640774
0.12564228 -0.09404652 -0.0029629765 0.15858611 0.17222035 -0.19724311 0.14385614 0.00087636476
-0.21778049 -0.3158839 -0.055302404 -0.14471722 0.055692166 0.14900988 -0.104043745 0.0830053
0.19107783 -0.21837804 -0.01079695 0.071315266 -0.075842574 0.24402975 0.09524996 -0.0036519659
0.39378518 0.16944656 -0.20011929 -0.028093912 0.07372132 -0.014384269 0.08782094 -0.052197054
-0.15101181 -0.23578821 -0.24486516 -0.26290897 0.22523212 -0.019725049 -0.09189293 0.258318
00000000: 08b4 ca3c 9e25 713d cabf ce3d 67ae 593e
00000010: c82e 5b3d 22a8 84bc d16c 8abe 7815 723e
00000020: e4dc e43d 3f97 d83c 76e3 fcbc 2d2f 5cbe
00000030: 86cd c73c cd2d 873e b937 4fbc 39c5 f53d
00000040: 730d 0a3e 43e7 3f3e 0695 f83c 4a1d 893d
00000050: 77bf 1b3e 55c4 47bd 1b1c 89be c815 3e3e
00000060: 96af 1f3d 14c8 0d3d afa9 263e 0ad2 2c3d
00000070: 39eb ccbe ec8b 8b3c fa5f 443e 2c39 6c3e
00000080: 30bf 72be 8d3d b8bd 82de 0a3e 17d3 2c3e
00000090: 28d7 373d b869 a43e 2c2d 7fbe 71a9 ebbe
000000a0: c48a d5bd 6ccc 8d3a b7ed b5be e5d4 7b3d
000000b0: 3497 043f 8fda 66bd 83a1 7f3d e477 e1bc
000000c0: 5159 1ebe 81bd b1bd 45d3 32be 26ee 863d
000000d0: eba2 25be 0924 473e 214a 833e 80d3 c1bc
000000e0: c8f4 52bd a608 433e 2302 f1bd 2338 91bd
000000f0: cee9 c9bd 7acc ad3e c380 553e dd75 073e
00000100: f24f babe c8d4 9f3e 79dc 8dbd fa84 d23d
00000110: 68dd a5be d0a9 58be 98f5 75be 922a 19be
00000120: 03d2 253e 9a5e 393e 8840 d6bc 8215 51bd
00000130: 9d23 40be fe98 753d 7758 9a3e 3790 d8bf
00000140: 1a92 583f 00e5 863f dcd1 0fbd d00b 26be
00000150: 93f1 c23d 7336 4f3d b319 a6be c0a6 d6be
00000160: 4c6a 873f 43b1 85bf 5f0e 40bf ac80 04bd
00000170: d478 51be aec8 4cbf a2dd 103f 7853 93bf
00000180: 7584 bfbf a35b f03d 177e a0be 2cfe 2ebf
00000190: d8b2 f23c bdb9 68bd 93b1 e93d a6ed 573d
000001a0: cc1e 03be b452 253e d85a 5ebe ce36 20be
000001b0: f9ff 6cbd c314 1540 d080 5dc0 0d5d a43f
000001c0: b966 c2bf 9596 93bd da63 193e bc7e 07be
000001d0: 227a b5be 4884 563e 2077 e6be 230f 16bd
000001e0: f7d5 eabd b83f 1cbf 2ce1 f1be a5ed d7bc
000001f0: 9044 9fbd c0ea 363d b591 d0be 375a f33e
00000200: f902 d83e ad7e eb3b 9ce6 4c3d 4922 5abe
00000210: 68d5 a1be eeeb 9b3e 8b97 653e c0ea 983e
00000220: 7cd2 72be ded5 8ebe f95b e4be 42e4 df3d
00000230: 59d8 05be c2b7 4b3e d956 33be 208e 06be
00000240: 2123 7ebe 9942 bbbd 9c67 2cbc 61d3 a13f
00000250: 7992 df3f 7ab2 4dc0 caa8 9f3e 1629 1b3e
00000260: 28e9 523e 1e64 283b f592 08be 4791 25bd
00000270: 3fc2 0dbe 4d07 96be 838b 18be 4fc9 90bc
00000280: 4b07 eb3d 1cf8 ddbc 56be 8fbe 2bc0 cfbc
00000290: e60f 2c3d f9d9 443e 14be fd3d f697 4f3e
000002a0: 97fd 693e b3da 063d f920 273d 43ee a7bd
000002b0: 9c36 e6bd 6e6c 04bd d056 92be 8734 33bc
000002c0: 72d9 edbc c837 ac3c b48c 443e 453e 393e
000002d0: 5a98 b23d 7be4 e93a 5097 193e 229c 373d
000002e0: 8bcc e53c 1a9f 3dbe c3d0 863d dbe2 bebe
000002f0: 244b d43e d061 fabc b132 15be 16db a7bd
00000300: 337a 28be 59ac 4abc 9966 b4bd 40ba c33d
00000310: 413a 543e 4de8 ecbd 57ab 983d 5d0d adbe
00000320: fe0a 7abe b33b 433e bff0 90bd f921 8ebd
00000330: a431 c4bc 4390 61bc 3414 e1bd 6b22 2f3e
00000340: aa9b 0ebe 6d55 40be 6da0 bebe cf0f 073d
00000350: 2ec0 babd 467d 54bd 16f3 033e e74d d6bd
00000360: 5fa8 003e 769b c0bd 7f2e 42bb 6664 223e
00000370: 885a 303e 19fa 49be 064f 133e d8bb 653a
00000380: d901 5fbe 89bb a1be c684 62bd c030 14be
00000390: 781d 643d 0c96 183e e314 d5bd affe a93d
000003a0: e8a9 433e 7e9e 5fbe b1e5 30bc bd0d 923d
000003b0: 5a53 9bbd efe2 793e 6912 c33d d255 6fbb
000003c0: 369e c93e 6683 2d3e 12ec 4cbe 3425 e6bc
000003d0: 34fb 963d ffab 6bbc 77db b33d 94cc 55bd
000003e0: d7a2 1abe 7772 71be efbd 7abe 019c 86be
000003f0: 40a3 663e 6d96 a1bc 5c32 bcbd 4242 843e

network_body._body_endoder.seq_layers.0.bias f4 [20]
-4.355174e-21 -1.1684035e-16 -0.07795526 -0.08783989 -4.2975842e-10 -0.0034343703 -1.5578433e-06 -0.015456948
-0.089068376 0.0144094685 -0.0021692382 -0.06382097 -0.064974174 -0.12196514 -0.11181592 -9.733404e-31
-0.045103338 -0.021519652 -0.06799261 1.868006e-28
00000000: a988 a49d 2fb5 06a5 02a7 9fbd 66e5 b3bd
00000010: 1f43 ecaf 2c13 61bb 1717 d1b5 243f 7dbc
00000020: 7b69 b6bd b115 6c3c c729 0ebb 92b4 82bd
00000030: 2e11 85bd dcc8 f9bd bfff e4bd faee 9d8d
00000040: 47be 38bd fb49 b0bc b63f 8bbd 43cc 6c11
