results/lasttest/AI Car/AI Car-307189.onnx (onnx, 8021 bytes, 9 tensors)

discrete_action_output_shape f4 [1, 2]
2.0 3.0
00000000: 0000 0040 0000 4040

network_body._body_endoder.seq_layers.0.weight f4 [20, 38]
1.3880616 -0.35307148 -0.05551061 0.5319648 -0.40972167 -0.27718392 1.8165615 -0.92438704
-0.47209778 -0.5107037 0.36718345 0.28995264 0.3623422 -0.3513858 -0.51193917 -0.5310122
0.96882725 0.4719118 0.5314397 -1.8502845 -1.3446865 -1.776234 1.3250246 1.1476693
0.38376102 0.0057075103 -0.26791987 -0.052454464 0.13541378 0.18639709 -0.04261777 -0.08703523
-0.067225404 0.5932094 -2.052198 3.0519924 1.1023674 -0.82978356 -0.4748153 0.5489954
0.26254132 -1.750466 1.2778597 1.031298 -0.054243058 0.17917883 0.09825791 -0.3878172
0.92797375 1.0712011 -0.2547357 -0.3715137 -0.3676332 -0.12835124 -0.09285697 -0.085480414
-0.5145533 0.77086306 0.009228053 -0.40581775 0.4679771 0.33469397 0.33569238 -0.13411143
-0.021858247 -0.029367747 -0.23276114 0.2634796 -0.3347938 0.026672417 0.14084554 0.14266793
-3.2128 2.9661803 -0.4931529 0.21905921 -0.7574789 0.35099322 0.27485448 1.5367134
-0.20965874 -0.29395783 0.042781856 0.14750467 0.3221227 0.7370008 -0.3367057 -0.3295874
0.056529842 0.19719192 0.3427741 -0.43394214 1.1429327 0.49713948 -0.48996213 0.5867097
0.851496 -0.894719 0.23375595 0.19862637 0.059590314 -0.2962008 -0.07585157 -0.120463826
0.0019503223 0.082745984 0.074037984 0.32066122 0.007219247 0.3174901 -2.077128 1.7592574
-0.04863537 -0.164052 -1.1054859 0.15173078 -0.15510629 -0.095863186 -0.04552147 -0.16701542
-1.0911249 0.6411203 0.40596765 0.5123975 -0.3487029 -0.47570157 -0.28334615 0.3582353
0.13799866 0.20771843 -1.0532917 -0.6573371 -0.3843036 1.0910217 0.7876788 1.1413172
-0.8870307 -0.75299287 0.10644296 -0.15158696 -0.13903731 0.018654147 0.06806694 0.4875855
-0.124027394 0.21141432 0.0051107113 -0.29792583 -2.2596319 1.6126976 -0.95558137 0.37450752
-0.14951715 0.09599197 -0.2688007 -0.37609664 -0.011973887 -0.32183397 -0.15336719 0.49946064
-0.14880998 -0.27352378 -0.076899946 0.256775 0.6188722 -1.1252216 -1.3373767 0.4256139
-0.6156033 0.028029794 -0.24186046 -0.062413424 -0.689441 1.1886077 -1.126537 -0.56447
0.9926695 -0.15430084 -0.38524404 0.21863617 0.20658885 0.025126424 0.08574207 -0.02236769
-0.032995842 0.07567701 1.6601315 -2.1032934 -0.17262262 0.40532666 0.19924344 -0.11861646
-0.07881241 0.054678697 0.37107134 -0.051494226 0.40138605 -0.32816184 -0.008079506 0.11731666
-0.11627801 -0.1919644 0.1361482 -0.094549194 -0.026948128 -0.23922276 0.070931934 -0.054853894
-0.11854357 0.0023954925 -0.17188449 0.036734343 0.026167037 0.08845784 -0.040382918 0.15890084
0.2232323 0.031787854 -0.14706612 0.081336126 0.12093975 0.004318105 0.12251586 0.057110563
-0.28692326 0.19060773 0.09105179 0.05823022 0.5162957 -0.36017045 -0.4872057 -0.98016596
0.31807026 0.24125214 0.6187091 -0.2085747 -0.7196485 -1.010054 1.1288635 1.1252315
0.2744266 -0.629073 -0.74214613 -0.5348365 1.3623414 1.1464775 0.15820521 -0.5623654
-0.93543166 -0.5148201 0.18219681 0.455872 1.034841 0.07746986 -0.22475307 0.08298669
00000000: 01ac b13f c9c5 b4be 185f 63bd d82e 083f
00000010: 0ac7 d1be 0deb 8dbe 1685 e83f a1a4 6cbf
00000020: cdb6 f1be 7abd 02bf 78ff bb3e ac74 943e
00000030: eb84 b93e d7e8 b3be 720e 03bf 6af0 07bf
00000040: 1005 783f 6c9e f13e 6f0c 083f 1fd6 ecbf
00000050: b01e acbf a35b e3bf 689a a93f d4e6 923f
00000060: 537c c43e 1106 bb3b cb2c 89be 7eda 56bd
00000070: e9a9 0a3e e1de 3e3e f98f 2ebd 873f b2bd
00000080: 79ad 89bd 92dc 173f 3657 03c0 d853 4340
00000090: 601a 8d3f b26c 54bf fe1a f3be f68a 0c3f
000000a0: d16b 863e 450f e0bf e890 a33f 9301 843f
000000b0: f82d 5ebd a87a 373e 713b c93d fa8f c6be
000000c0: b08f 6d3f 1e1d 893f b86c 82be 0b37 bebe
000000d0: 6b3a bcbe 826e 03be cc2b bebd 5b10 afbd
000000e0: c4b9 03bf 4857 453f 4231 173c 58c7 cfbe
000000f0: b29a ef3e 025d ab3e dfdf ab3e 8254 09be
00000100: 1110 b3bc a194 f0bc f058 6ebe cce6 863e
00000110: 186a abbe 1d80 da3c d039 103e 8b17 123e
00000120: 849e 4dc0 e6d5 3d40 897e fcbe 0f51 603e
00000130: 23ea 41bf 62b5 b33e bab9 8c3e 06b3 c43f
00000140: c8b0 56be a481 96be 073c 2f3d 770b 173e
00000150: 44ed a43e 16ac 3c3f b164 acbe aebf a8be
00000160: d68b 673d aeec 493e 1680 af3e aa2d debe
00000170: 9e4b 923f 1189 fe3e 51dc fabe 9b32 163f
00000180: a4fb 593f 4e0c 65bf b85d 6f3e b664 4b3e
00000190: f914 743d a2a7 97be 1158 9bbd bdb5 f6bd
000001a0: f5a1 ff3a ba76 a93d 3aa1 973d b52d a43e
000001b0: 6f8f ec3b 108e a23e aaef 04c0 592f e13f
000001c0: e235 47bd 3ffd 27be 9080 8dbf 505f 1b3e
000001d0: 2fd4 1ebe eb53 c4bd b974 3abd 1706 2bbe
000001e0: fba9 8bbf 7620 243f feda cf3e 7c2c 033f
000001f0: 3089 b2be 288f f3be bf12 91be 9e6a b73e
00000200: 854f 0d3e 24b4 543e 43d2 86bf 3f47 28bf
00000210: 71c3 c4be 99a6 8b3f 51a5 493f af16 923f
00000220: 7214 63bf 24c4 40bf c4fe d93d 9d39 1bbe
00000230: cc5f 0ebe 95d0 983c ae66 8b3d cfa4 f93e
00000240: 1302 febd ff7c 583e c177 a73b bc89 98be
00000250: cf9d 10c0 e06c ce3f fba0 74bf 73bf bf3e
00000260: 061b 19be 7097 c43d 3fa0 89be bd8f c0be
00000270: 1f2e 44bc 6cc7 a4be 4a0c 1dbe 4eb9 ff3e
00000280: a561 18be 4f0b 8cbe b87d 9dbd 0378 833e
00000290: 696e 1e3f 4307 90bf 292f abbf 11ea d93e
000002a0: 2e98 1dbf bd9e e53c 45aa 77be 38a5 7fbd
000002b0: 357f 30bf 4c24 983f 5d32 90bf 1b81 10bf
000002c0: 971f 7e3f 0a01 1ebe b53e c5be 29e2 5f3e
000002d0: 078c 533e eed5 cd3c 8a99 af3d 723c b7bc
000002e0: a626 07bd 8cfc 9a3d 307f d43f 5c9c 06c0
000002f0: fcc3 30be fa86 cf3e 7906 4c3e 30ed f2bd
00000300: 6768 a1bd c5f6 5f3d 10fd bd3e 9ceb 52bd
00000310: 7982 cd3e d404 a8be e85f 04bc b843 f03d
00000320: 2a23 eebd 5192 44be 6f6a 0b3e 02a3 c1bd
00000330: 52c2 dcbc d0f6 74be c344 913d 7aae 60bd
00000340: f9c6 f2bd b2fd 1c3b 7d02 30be c076 163d
00000350: 415c d63c 6229 b53d 8f68 25bd e7b6 223e
00000360: 0297 643e fb33 023d 8098 16be 8e93 a63d
00000370: 42af f73d e47e 8d3b 98e9 fa3d c4ec 693d
00000380: 9be7 92be ac2e 433e 5c79 ba3d d082 6e3d
00000390: f42b 043f 4368 b8be 0773 f9be 28ec 7abf
000003a0: 1bda a23e cd0a 773e b863 1e3f 9b94 55be
000003b0: e23a 38bf 7349 81bf 997e 903f 9607 903f
000003c0: a581 8c3e ee0a 21bf 4afd 3dbf 0beb 08bf
000003d0: 3461 ae3f c6bf 923f 8c00 223e 2ef7 0fbf
000003e0: 7378 6fbf 40cb 03bf cd91 3a3e 0e68 e93e
000003f0: ab75 843f 85a8 9e3d ab25 66be edf4 a93d

network_body._body_endoder.seq_layers.0.bias f4 [20]
-0.05914959 0.0013735048 0.07474943 -0.025470916 -0.06981759 2.9282853e-07 -0.010454638 0.008818272
9.2534114e-10 -0.04749357 0.061476845 -0.045817245 -0.02309189 -0.039518043 -0.06060717 9.2818997e-32
-0.02224152 -0.028485902 0.044514894 -0.00937873
00000000: d746 72bd 2c07 b43a 3b16 993d 62a8 d0bc
00000010: 86fc 8ebd 0c36 9d34 ee49 2bbc 837a 103c
00000020: 185b 7e30 9e88 42bd 25cf 7b3d ddaa 3bbd
00000030: 342b bdbc acdd 21bd 393f 78bd cef8 f00b
00000040: d933 b6bc 445b e9bc 4055 363d 3fa9 19bc

network_body._body_endoder.seq_layers.2.weight f4 [20, 20]
0.20573084 0.61351424 -0.02415391 0.41162002 -0.20940289 0.038560886 0.61036956 0.09724806
-0.07910253 0.0045920666 0.057809103 -0.31198978 0.032143094 -0.034127954 -0.03625394 -0.024541562
0.257106 -0.25770247 0.36394918 -0.10328012 0.24739277 0.24033134 -0.2013759 -0.057158653
0.35856995 -0.019524626 -0.23888226 -0.10639157 -0.45218787 -0.0808188 -0.039920624 -0.2611663
0.1563563 -0.37937117 0.022549164 0.15891193 0.16355594 0.14439887 -0.11151155 -0.3455669
-0.010955494 -0.5861193 -0.040103223 0.014348606 0.008522698 0.15189481 0.17634112 0.019363454
-0.17901857 0.094092526 0.04646533 -0.2902463 0.12339105 0.027223093 -0.47339213 -0.3349304
0.034312487 -0.2808729 -0.28187335 0.67819846 -0.6893453 -0.21075451 -0.06332742 0.18661568
-0.05881891 0.014056762 -0.31011608 -0.4535037 -0.01545306 -0.3193651 -0.39342162 -0.00020132345
0.28949198 -0.025748497 0.28160805 0.25094265 0.47062844 0.02367178 0.25279456 0.08457688
0.21736662 -0.3816438 0.1458507 -0.07844617 -0.16559173 -0.012150203 -0.21395373 0.019166881
-0.09292552 -0.294613 -0.05702139 -0.47431284 0.13314822 0.08191445 0.09946938 0.22804068
-0.024104862 0.010820388 -0.30791643 -0.11789565 0.3095741 -0.119288586 -0.12157156 0.37220973
0.7306137 -0.09660305 0.3797547 -0.21492605 0.15691184 0.0019510129 -0.89064753 -0.1485532
-0.0074324817 -0.14170976 -0.031628136 0.33787134 0.012268026 -0.25411767 0.30812383 0.077707574
0.2610994 0.35814038 -0.056326218 -0.024031123 -0.47131962 -0.009118629 0.2960931 -0.20749404
-0.18079773 0.1618907 0.6007008 0.20073943 0.04767349 -0.3239106 0.48419666 0.033695925
0.040789146 0.41157657 -0.015281024 -0.022182195 -0.18921508 -0.29289785 -0.14305383 -0.14465651
-0.26313055 -0.25745514 0.026857272 -0.01288977 0.075687155 -0.16896847 -0.0073196446 0.1928375
0.12846938 0.06833902 0.15785027 -0.030763162 -0.086898886 -0.31962416 -0.3038991 0.2364242
0.055048224 0.034574915 0.09992933 -0.5322529 0.17997916 0.08801534 -0.052999116 -0.12406392
-0.09623624 -0.17365155 -0.2338422 0.1940867 -0.42702305 0.11594576 0.08323352 0.17216742
-0.17764623 0.43606508 0.05201921 -0.52169263 -0.18613775 -0.020319408 -0.1945314 -0.12791903
0.12216321 -0.12550247 -0.016072745 -0.12584504 0.050024625 0.22521216 -0.07152129 -0.005615865
0.29982266 0.15454097 -0.10324425 -0.5812804 -0.059000626 0.31998664 -0.18547311 -0.08104938
-0.35050192 -0.08334922 -0.3491502 -0.13308124 -0.30459493 0.07367459 0.23204799 -0.08539646
0.63461125 -0.1239443 0.27996036 -0.03833419 0.13345501 0.052533735 -0.30917963 -0.14862879
-0.057673253 0.055791255 -0.12174535 0.33704704 -0.626147 0.40178773 0.030341469 0.45419264
-0.23685093 -0.21836793 -0.21495835 -0.2973997 -0.10184158 0.19577776 0.23063911 -0.11706366
-0.11804383 0.33583495 0.17310803 -0.103142224 0.30488124 0.012672012 0.11839926 0.2560101
0.3270481 -0.3679235 0.23594531 0.032965783 -0.2778 -0.20162907 -0.6471226 -0.013541489
-0.0035139094 -0.022501232 -0.49007168 -0.07231117 0.046831407 -0.114423335 -0.119557075 0.0562772
00000000: 1bab 523e 450f 1d3f 6cde c5bc dcbf d23e
00000010: b66d 56be 05f2 1d3d 2e41 1c3f fe29 c73d
00000020: 8200 a2bd 0c79 963b 3dc9 6c3d 20bd 9fbe
00000030: 7aa8 033d c1c9 0bbd 037f 14bd 630b c9bc
00000040: 66a3 833e 94f1 83be 8c57 ba3e 8784 d3bd
00000050: 8854 7d3e 6b19 763e 7c35 4ebe 311f 6abd
00000060: 7b96 b73e 1cf2 9fbc 8d9d 74be d3e3 d9bd
00000070: 2b85 e7be 5484 a5bd cf83 23bd 97b7 85be
00000080: de1b 203e f03c c2be 06b9 b83c cfb9 223e
00000090: 357b 273e 4cdd 133e 2b60 e4bd 25ee b0be
000000a0: ac7e 33bc ea0b 16bf 4743 24bd 6a16 6b3c
000000b0: c9a2 0b3c 508a 1b3e c492 343e 1ba0 9e3c
000000c0: a550 37be 95b3 c03d 6e52 3e3d 2a9b 94be
000000d0: 72b4 fc3d f702 df3c 7460 f2be ff7b abbe
000000e0: 408b 0c3d 93ce 8fbe b451 90be 6a9e 2d3f
000000f0: ef78 30bf 08d0 57be ceb1 81bd 2e18 3f3e
00000100: 19ec 70bd 554e 663c 89c7 9ebe a331 e8be
00000110: d52e 7dbc d383 a3be 8f6e c9be 5a1a 53b9
00000120: 4b38 943e 83ee d2bc ee2e 903e 8e7b 803e
00000130: 36f6 f03e 52eb c13c 4a6e 813e a536 ad3d
00000140: 5b95 5e3e d166 c3be e359 153e 63a8 a0bd
00000150: e190 29be a511 47bc b016 5bbe dd03 9d3c
00000160: bc4f bebd 84d7 96be 438f 69bd 22d9 f2be
00000170: 0258 083e c3c2 a73d 9ab6 cb3d 7f83 693e
00000180: 8f77 c5bc ff47 313c 39a7 9dbe 4673 f1bd
00000190: 7f80 9e3e 934d f4bd 83fa f8bd 4692 be3e
000001a0: 8009 3b3f d2d7 c5bd 356f c23e 9315 5cbe
000001b0: 7fad 203e 21b9 ff3a 7a01 64bf 541e 18be
000001c0: 2d8c f3bb 5d1c 11be 818c 01bd 79fd ac3e
000001d0: d5ff 483c b61b 82be 68c2 9d3e 2625 9f3d
000001e0: d2ae 853e 2d5e b73e 52b6 66bd ebdc c4bc
000001f0: ce50 f1be 4d66 15bc 8499 973e 5179 54be
00000200: 0a23 39be adc6 253e 87c7 193f a38e 4d3e
00000210: 4745 433d 9cd7 a5be a0e8 f73e bd04 0a3d
00000220: 8512 273d 2aba d23e 435d 7abc 6fb7 b5bc
00000230: 99c1 41be b5f6 95be b47c 12be d620 14be
00000240: 0cb9 86be 29d1 83be c803 dc3c 9d2f 53bc
00000250: de01 9b3d 1206 2dbe a1d9 efbb 3277 453e
00000260: 7a8d 033e 54f5 8b3d 80a3 213e 0703 fcbc
00000270: 0bf8 b1bd c7a5 a3be aa98 9bbe 2f19 723e
00000280: 3f7a 613d 6d9e 0d3d c0a7 cc3d ba41 08bf
00000290: 754c 383e 6341 b43d 9a15 59bd 3915 febd
000002a0: 8117 c5bd b6d1 31be 5474 6fbe aabe 463e
000002b0: c4a2 dabe f874 ed3d 5676 aa3d a84c 303e
000002c0: e5e8 35be ec43 df3e 1812 553d a68d 05bf
000002d0: e59a 3ebe e374 a6bc 3d33 47be 35fd 02be
000002e0: b430 fa3d b883 00be fdaa 83bc 86dd 00be
000002f0: 9fe6 4c3d 049e 663e c179 92bd 4a05 b8bb
00000300: 5b82 993e fd3f 1e3e b971 d3bd cbce 14bf
00000310: a4aa 71bd 4ad5 a33e aaec 3dbe 38fd a5bd
00000320: fd74 b3be ffb2 aabd d1c3 b2be 7346 08be
00000330: def3 9bbe b4e2 963d fd9d 6d3e 57e4 aebd
00000340: e275 223f 82d6 fdbd f756 8f3e 5004 1dbd
00000350: 6ea8 083e 9d2d 573d cb4c 9ebe 2532 18be
00000360: ca3a 6cbd 5f85 643d a055 f9bd 6e91 ac3e
00000370: 2b4b 20bf 1fb7 cd3e ac8e f83c f08b e83e
00000380: 0d89 72be d89b 5fbe 0b1e 5cbe c644 98be
00000390: 5192 d0bd f779 483e a92c 6c3e 12bf efbd
000003a0: f7c0 f1bd 8ff2 ab3e 3b43 313e 3b3c d3bd
000003b0: 6519 9c3e 459e 4f3c 507b f23d c113 833e
000003c0: d972 a73e 7860 bcbe a69b 713e 2107 073d
000003d0: cd3b 8ebe da77 4ebe d4a9 25bf 1fdd 5dbc
000003e0: 9e49 66bb 8154 b8bc adea fabe e117 94bd
000003f0: 4ad2 3f3d c856 eabd 57da f4bd ec82 663d

network_body._body_endoder.seq_layers.2.bias f4 [20]
0.045046687 -2.0440909e-10 -0.04231376 0.060966954 0.012134949 -0.062305797 -0.13323136 0.033978876
0.0071791513 0.019292675 -0.010260807 0.017376477 -0.04932178 0.00053115736 0.039720967 -0.065499954
-0.036238182 -0.020279504 -0.043367125 -0.05176389
00000000: e082 383d 0bc0 60af 3151 2dbd 7cb8 793d
00000010: aad1 463c 5d34 7fbd cd6d 08be 6f2d 0b3d
00000020: 163f eb3b ac0b 9e3c f21c 28bc 1d59 8e3c
00000030: a305 4abd 5e3d 0b3a 74b2 223d d724 86bd
00000040: 7d6e 14bd 3421 a6bc baa1 31bd 5f06 54bd

action_model._discrete_distribution.branches.0.weight f4 [2, 20]
-0.4454291 -0.009177807 0.06498327 0.613505 0.07092656 -0.26207876 -0.05168799 0.009161583
-0.36487138 -0.04393391 -0.18055345 -0.13626933 -0.026552 0.040084947 0.41045588 -1.731555
-0.3265132 0.3625041 0.50302863 0.119231835 0.41432577 0.035848837 -0.071712315 -0.5574689
-0.12295111 0.30723754 0.04063121 0.0076784687 0.37408856 0.016977321 0.14351477 0.16351599
0.014278687 -0.0017885988 -0.39656302 1.7043519 0.36026984 -0.39951688 -0.54731643 -0.07704705
00000000: 480f e4be 835e 16bc f315 853d aa0e 1d3f
00000010: f241 913d 302f 86be c9b6 53bd 771a 163c
00000020: 6cd0 babe 0bf4 33bd 01e3 38be 308a 0bbe
00000030: 9483 d9bc 1d30 243d 4627 d23e 98a3 ddbf
00000040: bd2c a7be 239a b93e 7cc6 003f d22f f43d
00000050: 8222 d43e 3bd6 123d e8dd 92bd 48b6 0ebf
00000060: cbcd fbbd 3d4e 9d3e e96c 263d aa9b fb3b
00000070: 8988 bf3e 0614 8b3c 89f5 123e bc70 273e
00000080: 27f1 693c 6b6f eaba 4f0a cbbe 3428 da3f
00000090: 4a75 b83e 7a8d ccbe ee1c 0cbf d8ca 9dbd

action_model._discrete_distribution.branches.0.bias f4 [2]
-0.04249503 0.042513162
00000000: 450f 2ebd 4822 2e3d

action_model._discrete_distribution.branches.1.weight f4 [3, 20]
-0.38816252 -0.034317072 0.34526685 0.2595491 0.35935807 0.12223201 -0.12712885 -0.0020041566
0.05325668 -0.13646504 -0.26960692 -0.03605948 0.2534567 -0.04477665 0.022934228 0.44000754
0.45321834 0.17908831 0.040562537 0.16283616 -0.018604858 0.005748505 -0.5689711 -0.144584
0.57289183 -0.14953463 0.045401514 0.026641909 -0.04688004 -0.039322797 0.0062503493 0.08805152
-0.35000178 0.030187072 0.014619865 0.8501489 -0.13251142 0.08673292 0.112425335 -0.13936162
0.19605824 -0.011052499 0.22458918 -0.036990386 -0.32439744 0.050512582 0.12401236 0.04805558
0.26617783 0.13073833 0.25276655 -0.1171637 0.13857904 0.054612987 -0.2126305 -0.6253419
-0.46736386 -0.054162137 0.1067979 0.061174884
00000000: 3dbd c6be 0f90 0cbd d1c6 b03e 9fe3 843e
00000010: c8fd b73e c754 fa3d 112e 02be 2b58 03bb
00000020: ad23 5a3d 7ebd 0bbe eb09 8abe 1bb3 13bd
00000030: 14c5 813e b867 37bd 90e0 bb3c ab48 e13e
00000040: 3c0c e83e ed62 373e e724 263d 86be 263e
00000050: 3769 98bc f45d bc3b 17a8 11bf d40d 14be
00000060: 0aa9 123f 9b1f 19be f0f6 393d 2240 da3c
00000070: 4905 40bd f110 21bd bbcf cc3b 5b54 b43d
00000080: 6f33 b3be e14a f73c 2988 6f3c 5ca3 593f
00000090: 13b1 07be 07a1 b13d 413f e63d d0b4 0ebe
000000a0: 7ec3 483e 8a15 35bc b5fa 653e 3b83 17bd
000000b0: 6c17 a6be 48e6 4e3d 31fa fd3d eed5 443d
000000c0: 7648 883e 45e0 053e 9e6a 813e 86f3 efbd
000000d0: aae7 0d3e deb1 5f3d cfbb 59be 6816 20bf
000000e0: 514a efbe 1ed9 5dbd dbb8 da3d 8492 7a3d

action_model._discrete_distribution.branches.1.bias f4 [3]
-0.02352638 -0.01237547 0.111357644
00000000: 65ba c0bc 7cc2 4abc 7a0f e43d
