results/lasttest/AI Car/AI Car-30420.pt (torch, 100900 bytes, 83 tensors)

discrete_act_size_vector f4 [1, 2]
2.0 3.0
00000000: 0000 0040 0000 4040

network_body._body_endoder.seq_layers.0.weight f4 [20, 38]
0.15596016 0.07613482 -0.2434758 0.077104755 -0.0819947 -0.20485501 0.08927412 0.102469884
-0.041601483 -0.22224891 -0.21415795 -0.04519523 -0.07925846 0.24368823 -0.30628023 -0.2564928
0.30632237 -0.022612045 0.020344906 0.11796523 -0.18440804 0.21355182 0.12939072 -0.07069518
-0.14721426 -0.09657863 0.0059981765 -0.039194353 -0.0662064 -0.09864012 -0.16537116 0.031348802
-0.20588146 -0.08520506 -0.23991024 -0.10481167 0.04875926 0.0899386 0.09975403 0.05216287
0.13227092 0.24188937 -0.048259158 0.089957334 -0.18252003 -0.15169612 0.19182837 0.055443063
-0.15080608 -0.20406558 0.18026602 -0.15828508 0.05542918 0.13075246 0.21547955 -0.116930686
-0.03846911 -0.027027031 0.1573594 0.028470263 -0.018016793 0.25777945 0.06345188 -0.0106949
0.103754684 0.40901652 0.08146161 0.066898964 0.04077539 -0.090719126 0.07470929 -0.117380954
0.1718792 -0.01058093 0.12004268 0.043195926 -0.32440326 0.40813994 0.20056815 0.1424344
0.026306394 0.12637183 0.010743898 -0.02918122 0.054963652 0.027022371 -0.059901956 0.07400258
-0.12810503 -0.3147218 -0.10307627 -0.01982567 0.11297534 -0.062178735 0.12483121 -0.09892418
0.14101566 0.03281402 -0.092416525 -0.10758513 -0.021967556 -0.070354305 0.0074250433 -0.23108701
0.020605907 0.21098629 -0.42250946 -0.07488793 -0.012673056 -0.10774698 0.034130737 -0.05208552
-0.07076113 -0.081091486 -0.037036918 0.03931133 0.08526993 0.14809196 -0.06619643 0.0361237
-0.16070788 0.1383912 -0.033213425 0.089031056 0.16231467 0.108861476 0.012228823 0.08826987
0.24395768 0.06803501 -0.22076909 0.06927153 0.33764878 0.12295081 -0.1682911 0.055834144
0.21858275 0.020212132 -0.06818418 0.24649164 -0.14373782 -0.2867094 -0.02963589 -0.1395015
0.07058162 -0.12360609 0.2737569 -0.034416188 -0.3027035 0.074263856 -0.16738848 0.3423704
0.11052813 0.03634702 -0.07194619 0.13455887 -0.12035327 -0.0998202 0.0155598475 0.108186
-0.10586255 0.020526174 0.13055754 -0.11133055 -0.23861617 0.1988491 -0.11403649 0.078337036
-0.23461543 -0.2037389 0.03754297 0.22622484 0.17357011 0.2709761 0.076827995 -0.2238532
-0.105528116 -0.06968222 0.011232973 0.069854915 0.035726145 0.07748329 -0.07416385 -0.24352358
-0.3678616 0.1036834 0.181419 0.03267495 -0.075007714 0.075183235 -0.3418609 0.037796743
-0.13065252 -0.42965674 -0.013214332 -0.03140007 0.19156778 0.062335506 -0.16631374 -0.059555173
-0.19770007 -0.2372377 -0.2743589 -0.18693067 -0.053271797 -0.15701996 -0.27688196 -0.09632919
-0.103357285 0.052433234 0.11273547 0.054921396 0.18815374 -0.23443167 -0.085112125 -0.06479331
-0.14830701 -0.15219845 -0.124612495 -0.15724401 -0.099328786 -0.038771402 -0.31763014 -0.27254537
0.05132748 -0.31189108 0.0066257776 -0.23666033 -0.018399114 0.3023828 0.099357925 0.08129732
-0.0082241455 0.047806162 -0.16432674 0.11745417 -0.07591932 0.1066674 0.13113685 0.07214082
-0.09412174 -0.04864113 0.32456967 -0.08876329 0.20479482 -0.071997814 -0.081840605 0.038150378
0.09376794 -0.10371741 0.09739883 0.04430745 -0.028246399 0.2172573 0.046942286 -0.13308086
00000000: 05b4 1f3e 93ec 9b3d b851 79be 19e9 9d3d
00000010: d6ec a7bd 83c5 51be 5ad5 b63d bbdb d13d
00000020: 5166 2abd 3895 63be 394c 5bbe a21e 39bd
00000030: 4252 a2bd 6889 793e c3d0 9cbe 0653 83be
00000040: 49d6 9c3e e53c b9bc 5caa a63c c197 f13d
00000050: 76d5 3cbe 54ad 5a3e 007f 043e a2c8 90bd
00000060: 56bf 16be 04cb c5bd 5a8c c43b 428a 20bd
00000070: 3997 87bd d503 cabd 0f57 29be 9a67 003d
00000080: 97d2 52be fe7f aebd 08ab 75be 80a7 d6bd
00000090: cab7 473d bb31 b83d d74b cc3d bca8 553d
000000a0: 0772 073e d9b1 773e 65ab 45bd 8d3b b83d
000000b0: 88e6 3abe 3a56 1bbe a86e 443e 4418 633d
000000c0: e96c 1abe 91f6 50be a897 383e 7c15 22be
000000d0: b509 633d f9e3 053e aca6 5c3e 5b79 efbd
000000e0: c991 1dbd cb67 ddbc d322 213e 783a e93c
000000f0: f497 93bc abfb 833e 0ff3 813d a939 2fbc
00000100: 567d d43d 9d6a d13e 58d5 a63d 5302 893d
00000110: 1804 273d f3ca b9bd 2f01 993d 6d65 f0bd
00000120: 1a01 303e a35b 2dbc f0d8 f53d 36ee 303d
00000130: 2f18 a6be b8f7 d03e bd61 4d3e 53da 113e
00000140: 8280 d73c 9e67 013e 2d07 303c 740d efbc
00000150: 9121 613d 055e dd3c c15b 75bd aa8e 973d
00000160: f72d 03be 3723 a1be a719 d3bd 7269 a2bc
00000170: 9d5f e73d 21af 7ebd 81a7 ff3d c398 cabd
00000180: 6966 103e fe67 063d e044 bdbd 9855 dcbd
00000190: 4ef5 b3bc eb15 90bd c74d f33b 13a2 6cbe
000001a0: b8cd a83c ca0c 583e 2953 d8be d85e 99bd
000001b0: a6a2 4fbc 73aa dcbd accc 0b3d a057 55bd
000001c0: 36eb 90bd 4b13 a6bd 06b4 17bd eb04 213d
000001d0: 00a2 ae3d 6ba5 173e fe91 87bd 72f6 133d
000001e0: 9b90 24be 6cb6 0d3e cd0a 08bd ea55 b63d
000001f0: d135 263e c4f2 de3d 675b 483c d5c6 b43d
00000200: 0bd0 793e f055 8b3d 4b11 62be 3bde 8d3d
00000210: 4de0 ac3e a2cd fb3d 8154 2cbe 58b2 643d
00000220: 28d4 5f3e ea93 a53c 26a4 8bbd 4e68 7c3e
00000230: 0230 13be 93cb 92be f7c6 f2bc 7bd9 0ebe
00000240: 198d 903d 3125 fdbd dd29 8c3e fdf7 0cbd
00000250: f4fb 9abe a617 983d e367 2bbe 2c4b af3e
00000260: 925c e23d 9de0 143d 8658 93bd cdc9 093e
00000270: c67b f6bd 886e ccbd bbee 7e3c 9f90 dd3d
00000280: 77ce d8bd 8226 a83c e0b0 053e 4501 e4bd
00000290: cc57 74be 199f 4b3e f78b e9bd 2b6f a03d
000002a0: 073f 70be eea0 50be a8c6 193d 7ca7 673e
000002b0: 5dbc 313e 61bd 8a3e ff57 9d3d c639 65be
000002c0: 201f d8bd 8db5 8ebd 810a 383c 1810 8f3d
000002d0: 9455 123d 8faf 9e3d 37e3 97bd 3f5e 79be
000002e0: 5b58 bcbe f657 d43d e7c5 393e 2bd6 053d
000002f0: a59d 99bd abf9 993d 6408 afbe c2d0 1a3d
00000300: c6c9 05be f8fb dbbe ed80 58bc 5c9d 00bd
00000310: 582a 443e 8453 7f3d 264e 2abe 20f0 73bd
00000320: e371 4abe 71ee 72be c578 8cbe c16a 3fbe
00000330: 8733 5abd d7c9 20be 79c3 8dbe 3d48 c5bd
00000340: fcac d3bd 3bc4 563d dbe1 e63d 42f5 603d
00000350: 60ab 403e db0e 70be 444f aebd 5bb2 84bd
00000360: cbdd 17be e9d9 1bbe d634 ffbd 9304 21be
00000370: e46c cbbd c3ce 1ebd 6ba0 a2be 118b 8bbe
00000380: c33c 523d 30b0 9fbe 0d1d d93b 1657 72be
00000390: bdb9 96bc ebd1 9a3e 2b7c cb3d 367f a63d
000003a0: 91be 06bc 65d0 433d 4545 28be d08b f03d
000003b0: 977b 9bbd 7074 da3d bd48 063e 91be 933d
000003c0: e6c2 c0bd ec3b 47bd ff2d a63e 87c9 b5bd
000003d0: bcb5 513e 9773 93bd 0c9c a7bd 9243 1c3d
000003e0: 6809 c03d cb69 d4bd 0a79 c73d bb7b 353d
000003f0: fe64 e7bc b378 5e3e 8e46 403d 5946 08be

network_body._body_endoder.seq_layers.0.bias f4 [20]
-0.008772119 0.0 -0.003037514 0.00026865903 -0.00060903106 -0.005059691 -0.0023406565 0.0053373934
0.00556713 -2.1551797e-13 0.022227675 0.04997096 -0.0042560427 2.2868217e-10 0.0 0.0020502182
0.0024691026 -0.014205102 -0.009894574 -2.8062391e-32
00000000: efb8 0fbc 0000 0000 0711 47bb ceda 8c39
00000010: 62a7 1fba c4cb a5bb b365 19bb 4de5 ae3b
00000020: 796c b63b d3a6 72aa d016 b63c 59ae 4c3d
00000030: 4676 8bbb 4f70 7b2f 0000 0000 f45c 063b
00000040: abd0 213b 84bc 68bc da1c 22bc 51b5 118b

network_body._body_endoder.seq_layers.2.weight f4 [20, 20]
0.03364645 -0.34572893 0.15988109 0.010398951 0.5959926 -0.44934815 0.03593538 -0.06210999
-0.14965306 -0.23916745 -0.43478784 -0.0776103 -0.47323802 -0.14794528 -0.15150797 -0.23039466
-0.010475695 -0.1279327 0.19395591 0.14810738 0.29938728 0.3284509 -0.17194207 -0.2938409
0.103536956 -0.16247374 0.050749425 0.31920287 -0.56490225 -0.08106794 -0.21129271 -0.13909128
0.25999907 -0.16961388 -0.23716535 0.1596439 -0.043561924 0.13758646 0.12336994 0.19498314
-0.12592237 -0.155294 -0.16743281 0.044722576 -0.065765195 -0.016857171 -0.21897624 0.36763692
0.097044244 -0.0007857277 0.038543165 -0.02818105 -0.072092056 -0.18357407 -0.162923 0.4427754
0.13116974 -0.15885912 0.21644026 0.19901744 0.16176099 0.43099302 -0.40577552 0.170602
0.13598362 -0.015182275 0.107586354 -0.21082567 0.11642721 -0.073341705 -0.20927256 -0.043234557
-0.1259459 -0.10446396 0.29517457 -0.24565005 0.1040691 0.048583034 -0.06461876 0.13367939
-0.31648597 -0.0139599815 0.120383106 -0.1437073 0.01682072 0.25891402 -0.009136643 0.023889096
0.23342662 0.053089052 0.22562139 0.3338542 0.22505689 0.1168919 -0.25552312 0.27952015
-0.0830171 -0.020990113 -0.12919052 -0.0059839864 -0.008987944 -0.09990999 -0.21085024 -0.32862833
-0.24031208 -0.029922735 -0.010078031 0.43049577 0.41737884 -0.056031268 0.5436927 0.185404
-0.25702766 -0.22596796 0.07401904 0.036944598 -0.08477264 -0.0077562034 -0.0112393405 0.1896146
-0.10370925 -0.055649083 -0.30997524 -0.05105871 0.07298504 0.026479978 0.31884095 0.0631129
-0.20268904 -0.18101852 -0.09253468 0.06150992 0.20530665 0.043754406 0.6394918 0.0021627482
0.24129514 -0.097101964 -0.15269867 0.26361644 0.28674763 -0.22854842 0.095542915 0.34493
-0.28721392 0.11919127 -0.20769595 -0.10479591 -0.21998765 0.2737053 0.18449403 0.290636
-0.08052333 0.22445206 -0.10278086 0.1240395 -0.31619543 -0.26958457 0.19099252 -0.119705305
0.048775014 0.1426373 0.11360012 0.116277225 -0.081860624 0.095375225 -0.42591056 0.012397236
-0.00037966738 -0.12079022 -0.1717709 0.072886005 0.1231 -0.0064461892 0.08621496 -0.62450606
0.07275235 -0.048339825 0.10893365 0.17256804 -0.20005037 0.037176587 0.117634214 0.19720396
0.053609237 0.101111606 0.18051182 0.0055296803 0.2044168 0.21822505 0.48982388 0.6141585
-0.018365651 -0.57390463 -0.064618535 -0.10009816 0.09307021 -0.28687975 -0.422073 -0.06971081
-0.04515149 0.3900544 -0.12569876 0.19769527 -0.08453629 0.2020017 0.46899837 0.053474557
0.108498864 -0.12688966 -0.36816058 0.27621883 0.16071907 0.082009636 0.25012532 0.005688152
-0.20738846 -0.09248176 -0.16517095 0.027875932 0.032937434 -0.26126015 0.20835964 -0.1094892
0.4310612 -0.09826156 0.07272345 0.11658177 0.4653862 0.09995769 -0.029770812 0.008867905
0.19697808 0.083903745 -0.15205441 -0.41089427 -0.31023356 0.14553484 -0.10314263 0.27662534
-0.35887367 -0.17090884 0.00968084 -0.16673747 -0.08033317 -0.025249055 -0.0985557 0.2947122
0.46761045 0.026928646 -0.25766742 -0.1112793 0.26555693 0.47582844 -0.06680374 0.040878005
00000000: dcd0 093d 6203 b1be deb7 233e 5d60 2a3c
00000010: f992 183f f610 e6be fa30 133d 0b67 7ebd
00000020: a73e 19be 50e8 74be 839c debe 26f2 9ebd
00000030: 414c f2be f87e 17be e824 1bbe 94ec 6bbe
00000040: 40a2 2bbc ca00 03be 619c 463e 76a9 173e
00000050: 4a49 993e b72a a83e 9511 30be 5072 96be
00000060: 2f0b d43d 845f 26be a1de 4f3d 8f6e a33e
00000070: 6f9d 10bf f306 a6bd 1e5d 58be f26d 0ebe
00000080: 991e 853e 43af 2dbe 79db 72be b179 233e
00000090: fd6d 32bd 77e3 0c3e 61a9 fc3d a9a9 473e
000000a0: cbf1 00be 6405 1fbe 8273 2bbe 052f 373d
000000b0: e7af 86bd 0d18 8abc 4f3b 60be e83a bc3e
000000c0: 22bf c63d 4bf9 4dba 70df 1d3d f2db e6bc
000000d0: 00a5 93bd d7fa 3bbe 49d5 26be 75b3 e23e
000000e0: 5c51 063e f7ab 22be 84a2 5d3e 3acb 4b3e
000000f0: aca4 253e 1eab dc3e cfc1 cfbe 4ab2 2e3e
00000100: 4a3f 0b3e 14bf 78bc 3c56 dc3d afe2 57be
00000110: 6471 ee3d 2d34 96bd 8c4b 56be b816 31bd
00000120: f6f7 00be 33f1 d5bd 1f21 973e b08b 7bbe
00000130: 2e22 d53d 01ff 463d d756 84bd 40e3 083e
00000140: 730a a2be 68b8 64bc 6b8b f63d 0228 13be
00000150: 9bcb 893c 6190 843e dcb1 15bc 11b3 c33c
00000160: 6307 6f3e e873 593d 4b09 673e f0ee aa3e
00000170: 5075 663e 0565 ef3d edd3 82be 441d 8f3e
00000180: df04 aabd 75f3 abbc 854a 04be 5115 c4bb
00000190: 2b42 13bc 9c9d ccbd 20e9 57be f941 a8be
000001a0: 5f14 76be 8620 f5bc 531e 25bc f169 dc3e
000001b0: aeb2 d53e 0b81 65bd 722f 0b3f 8cda 3d3e
000001c0: 2199 83be 2564 67be 4b97 973d 3853 173d
000001d0: 479d adbd c027 febb 3625 38bc 542a 423e
000001e0: 8465 d4bd 4bf0 63bd 13b5 9ebe f022 51bd
000001f0: 2e79 953d 8aec d83c 1f3f a33e 5641 813d
00000200: b78d 4fbe eb5c 39be d382 bdbd d3f1 7b3d
00000210: e83b 523e d237 333d bcb5 233f e5bc 0d3b
00000220: 1316 773e 65dd c6bd 0a5d 1cbe bcf8 863e
00000230: 96d0 923e 9908 6abe 01ac c33d aa9a b03e
00000240: b40d 93be 8d1a f43d 3fae 54be 3d9f d6bd
00000250: 7144 61be 1a23 8c3e 01ec 3c3e 3ece 943e
00000260: 6ae9 a4bd c3d6 653e c67e d2bd 6c08 fe3d
00000270: 5ee4 a1be fd06 8abe 8b93 433e 0e28 f5bd
00000280: 4fc8 473d 830f 123e 2ea7 e83d c122 ee3d
00000290: 8ba6 a7bd 1654 c33d f310 dabe c71d 4b3c
000002a0: 180e c7b9 dd60 f7bd b6e4 2fbe 4245 953d
000002b0: da1b fc3d 8e3a d3bb 7891 b03d a1df 1fbf
000002c0: 2fff 943d fbff 45bd 9b18 df3d adb5 303e
000002d0: 01da 4cbe 7a46 183d 35ea f03d d6ef 493e
000002e0: 5c95 5b3d 9a13 cf3d 17d8 383e 5232 b53b
000002f0: a352 513e 6376 5f3e 32ca fa3e 7e39 1d3f
00000300: 9073 96bc 6aeb 12bf b956 84bd 4400 cdbd
00000310: 989b be3d e7e1 92be f419 d8be 8bc4 8ebd
00000320: c5f0 38bd 36b5 c73e 2db7 00be a170 4a3e
00000330: 5d21 adbd 89d9 4e3e 8e20 f03e 2308 5b3d
00000340: a734 de3d 5def 01be 8b7f bcbe 8e6c 8d3e
00000350: 8a93 243e abf4 a73d 6d10 803e ad63 ba3b
00000360: a45d 54be 1467 bdbd 9322 29be 115c e43c
00000370: 67e9 063d e4c3 85be 3b5c 553e e03b e0bd
00000380: 0eb4 dc3e 5b3d c9bd 08f0 943d 6cc2 ee3d
00000390: 1a47 ee3e 9eb6 cc3d ebe1 f3bc b04a 113c
000003a0: 9fb4 493e bad5 ab3d 27b4 1bbe bc60 d2be
000003b0: efd6 9ebe 1607 153e 713c d3bd d6a1 8d3e
000003c0: 4abe b7be ba02 2fbe 639c 1e3c 3abd 2abe
000003d0: b885 a4bd 1bd7 cebc 92d7 c9bd 84e4 963e
000003e0: a36a ef3e 7799 dc3c fcec 83be 67e6 e3bd
000003f0: 14f7 873e c99f f33e 66d0 88bd b26f 273d

network_body._body_endoder.seq_layers.2.bias f4 [20]
0.0 -0.005342703 0.0034700648 0.0 0.013450768 0.003428085 -5.1322764e-05 -0.0025807514
-1.1972846e-28 0.07257833 -1.9234193e-30 3.763491e-12 -5.8984124e-18 0.0 0.002030691 1.1992945e-28
-0.009659168 -0.009225774 -0.0054326463 0.0
00000000: 0000 0000 d711 afbb 076a 633b 0000 0000
00000010: 9c60 5c3c b9a9 603b 6643 57b8 d321 29bb
00000020: 1bc6 1791 f3a3 943d db0b 1c8e 836a 842c
00000030: ee9c d9a2 0000 0000 5715 053b 5507 1811
00000040: 7d41 1ebc b327 17bc 5704 b2bb 0000 0000

action_model._discrete_distribution.branches.0.weight f4 [2, 20]
-0.030793896 0.020925913 -0.023515917 -0.028219203 -0.002869299 -0.0011119079 -0.022986224 0.007433477
-0.029695386 -0.10715953 -0.03953547 0.016932344 0.042161874 -0.00856284 -0.017310724 -0.026499528
-0.01915086 -0.0153968 -0.011868959 0.008771599 -0.01521606 -0.0056134393 0.026737573 -0.042202294
0.02490645 0.02465096 0.017117266 0.035370894 0.0057470286 0.029800288 -0.04687799 -0.045534037
0.018887023 -0.015022325 0.026631372 0.021777907 0.022548541 0.0067760325 0.0048958557 -0.040581748
00000000: 7b43 fcbc d26c ab3c 74a4 c0bc f52b e7bc
00000010: d90a 3cbb 70bd 91ba 9b4d bcbc 8694 f33b
00000020: bd43 f3bc 7576 dbbd f2ef 21bd b3b5 8a3c
00000030: eeb1 2c3d 274b 0cbc 38cf 8dbc 8a15 d9bc
00000040: 44e2 9cbc dc42 7cbc 0676 42bc c1b6 0f3c
00000050: c84c 79bc f1f0 b7bb c108 db3c 50dc 2cbd
00000060: 9d08 cc3c cff0 c93c 8239 8c3c 12e1 103d
00000070: 9251 bc3b bc1f f43c 2303 40bd e681 3abd
00000080: f5b8 9a3c 3320 76bc 092a da3c 9567 b23c
00000090: b8b7 b83c 7b09 de3b 6a6d a03b 0c39 26bd

action_model._discrete_distribution.branches.0.bias f4 [2]
-0.0051258337 0.0033840458
00000000: 9cf6 a7bb dec6 5d3b

action_model._discrete_distribution.branches.1.weight f4 [3, 20]
0.006148919 0.011022688 0.006119653 0.009992551 0.035195034 0.034605004 0.030150963 -0.016657356
-0.03668299 0.11831244 0.02003401 -0.037328254 -0.00029664033 -0.02221797 0.05632288 -0.04039219
-0.009352899 -0.01609643 0.011333673 0.029637093 -0.015824592 -0.025589217 0.027336963 -0.038167205
-0.018534577 0.049034122 0.018215664 -0.013519074 0.008974353 0.013146687 -0.009557485 -0.009141222
0.014154556 0.03452235 -0.028543476 -0.032876693 -0.017171647 -0.0177617 -0.008721476 -0.008667379
-0.010078796 -0.019077351 -0.046934452 0.006244166 -0.02074738 -0.020157807 0.01392377 -0.028884243
-0.016015466 -0.039619166 -0.017607303 0.0020735322 -0.010158287 -0.008060573 0.0050195334 -0.019694025
-0.008987296 -0.00062406645 0.017873708 0.010622619
00000000: df7c c93b 8198 343c 5f87 c83b ccb7 233c
00000010: ab28 103d fabd 0d3d 27ff f63c 0275 88bc
00000020: e740 16bd cb4d f23d 5d1e a43c 83e5 18bd
00000030: 6486 9bb9 7602 b6bc d2b2 663d 4872 25bd
00000040: e73c 19bc a9dc 83bc dfb0 393c 7dc9 f23c
00000050: 93a2 81bc 7aa0 d1bc c4f1 df3c 3755 1cbd
00000060: d3d5 97bc 01d8 483d 0439 953c 1b7f 5dbc
00000070: 2a09 133c 3465 573c ff96 1cbc 10c5 15bc
00000080: 83e8 673c 4f67 0d3d 02d4 e9bc b6a9 06bd
00000090: 8eab 8cbc fc80 91bc 86e4 0ebc 9f01 0ebc
000000a0: 8921 25bc 1b48 9cbc 573e 40bd dc9b cc3b
000000b0: 69f6 a9bc fc21 a5bc 8620 643c a69e ecbc
000000c0: de32 83bc b547 22bd 313d 90bc 19e4 073b
000000d0: f26e 26bc 7e10 04bc e67a a43b 5d55 a1bc
000000e0: 743f 13bc 6498 23ba e26b 923c 7e0a 2e3c

action_model._discrete_distribution.branches.1.bias f4 [3]
0.014229709 0.00094463973 -0.006133586
00000000: ba23 693c b3a1 773a 40fc c8bb

q1_network.network_body._body_endoder.seq_layers.0.weight f4 [20, 38]
0.1714657 0.06823024 -0.10613018 -0.04200399 0.16613285 -0.29053032 -0.082642265 -0.0066801636
0.26381972 0.06523127 0.29300803 0.06739259 -0.0038864156 0.101547055 0.0051258323 0.0021825593
-0.28819737 0.05420536 -0.09463484 0.073565036 -0.12843914 0.09243677 0.15837625 0.311993
0.018375887 -0.19918749 -0.05207552 -0.19406244 -0.14500692 -0.03970201 -0.26951563 0.17150812
-0.11477099 -0.1213598 -0.01575033 -0.07447905 -0.2924917 0.012566944 -0.07109438 0.086790554
0.23665458 0.0120706605 0.19134259 0.073686846 0.07657517 0.1799041 0.27390358 0.12229194
0.14498526 0.114306144 -0.122267395 0.13888374 -0.0041967947 -0.13247113 0.022445919 0.20004003
0.06241967 -0.11890791 -0.050696168 -0.1020181 -0.06670182 -0.00513968 -0.053105086 0.17092283
0.40255743 0.026599852 -0.0104326 -0.0221918 0.08393749 0.04490966 0.22607861 0.04637112
0.0054302793 0.13566422 -0.09856075 -0.06492765 0.28605464 0.052554764 -0.070726894 -0.24623318
-0.008313779 -0.12107877 0.09918403 0.32930163 -0.16464192 -0.051394176 0.038627014 0.28254306
0.014202692 -0.030829165 -0.17583534 -0.044310022 -0.14139546 -0.0037998955 -0.083803244 -0.12469861
0.100697875 0.27222827 0.10522616 0.0036284064 0.01389175 0.026771616 0.09276478 0.21542591
-0.035545938 0.18519002 -0.14048819 -0.19547467 -0.24844007 0.11514826 0.14979976 0.21953487
0.16306138 -0.102501005 -0.11979477 0.18217683 -0.10044428 0.29015008 0.03809018 -0.20124644
0.12122602 0.0147992475 0.11073227 -0.08429285 -0.02691694 0.26139194 -0.07005235 -0.08798894
-0.25265238 -0.11862482 -0.07645908 0.04792796 0.022812676 0.122898646 0.0055351704 -0.034748282
-0.43511885 -0.09752753 -0.11610169 -0.1349816 -0.10629813 0.15895121 0.12613499 0.18153735
-0.09157009 0.08498551 -0.058184687 0.12815866 -0.07062397 0.2191012 0.0025623816 0.13794377
0.15323362 0.11390802 0.17063919 0.15786465 0.112727694 0.20408437 0.07967511 0.05419108
-0.011432272 0.059735514 -0.15100531 0.22394457 -0.11710939 -0.18548669 0.37359178 -0.12390389
-0.048070405 -0.0073016104 0.12591185 0.07066732 0.103624135 0.1557106 0.1369549 -0.024061881
0.21508844 0.16996747 0.006538311 -0.09626782 -0.110394105 0.10371693 0.018135995 -0.17845184
0.14092271 -0.1572734 0.106092066 0.040778518 -0.0060876315 -0.051919747 -0.050504778 0.023618031
0.048214827 -0.08485715 0.10522428 -0.032155897 -0.07107752 -0.029018212 -0.07963634 0.006788794
-0.04224373 0.007505899 -0.108895354 0.34651884 -0.088751115 -0.20661394 -0.18907778 -0.19365215
-0.09155122 -0.24834248 -0.03943398 0.09680861 -0.35853064 0.06912009 0.17683484 0.14313042
-0.04340129 -0.045694467 -0.036104616 0.31411728 0.035541344 0.17347725 0.26378104 -0.077047296
0.11386711 0.013514071 -0.14051667 -0.40278926 -0.24789879 0.010147284 -0.13385543 0.15443836
-0.17132129 0.15455544 0.06239759 8.975567e-05 0.5090639 0.24776487 -0.057827763 0.4210202
0.103872284 0.04598947 -0.066300325 -0.017316451 0.23217928 0.047777098 -0.0010247948 0.033435978
-0.00090143824 0.011414666 -0.004730628 -0.17017022 0.023442721 0.14803672 -0.26175138 0.35059494
00000000: b494 2f3e 4cbc 8b3d c85a d9bd 600c 2cbd
00000010: bb1e 2a3e 64c0 94be 5940 a9bd 46e5 dabb
00000020: 6113 873e f997 853d 2605 963e 2005 8a3d
00000030: 3cb3 7ebb e7f7 cf3d 99f6 a73b 4509 0f3b
00000040: 9b8e 93be 7106 5e3d e9cf c1bd 44a9 963d
00000050: 8d85 03be 7d4f bd3d 622d 223e 8cbd 9f3e
00000060: 0789 963c cef7 4bbe 244d 55bd 4eb8 46be
00000070: b27c 14be 939e 22bd f4fd 89be d39f 2f3e
00000080: 0e0d ebbd 7d8b f8bd d606 81bc 7988 98bd
00000090: 79c1 95be 95e5 4d3c ee99 91bd 3fbf b13d
000000a0: 9455 723e 05c4 453c 50ef 433e 21e9 963d
000000b0: 71d3 9c3d c838 383e 173d 8c3e 3274 fa3d
000000c0: 0477 143e 5719 ea3d 5467 fabd 8a37 0e3e
000000d0: 4485 89bb 83a6 07be 81e0 b73c 4bd7 4c3e
000000e0: c5ab 7f3d fe85 f3bd c9a6 4fbd deee d0bd
000000f0: f79a 88bd c36a a8bb b884 59bd 6506 2f3e
00000100: 021c ce3e efe7 d93c 7fed 2abc 94cb b5bc
00000110: 6be7 ab3d 31f3 373d 2781 673e a5ef 3d3d
00000120: 7cf0 b13b 90eb 0a3e 38da c9bd caf8 84bd
00000130: c175 923e aa43 573d 43d9 90bd 8d24 7cbe
00000140: 8436 08bc 25f8 f7bd ff20 cb3d 399a a83e
00000150: e497 28be b382 52bd 5c37 1e3d 7ca9 903e
00000160: 68b2 683c 728d fcbc 2e0e 34be 6d7e 35bd
00000170: f9c9 10be ab07 79bb 09a1 abbd fc61 ffbd
00000180: b03a ce3d 8161 8b3e d080 d73d 8fca 6d3b
00000190: 399a 633c 2650 db3c 76fb bd3d 9c98 5c3e
000001a0: 9e98 11bd 74a2 3d3e 23dc 0fbe 832a 48be
000001b0: 1367 7ebe dad2 eb3d 1c65 193e c0cd 603e
000001c0: 90f9 263e 0cec d1bd f656 f5bd 908c 3a3e
000001d0: bbb5 cdbd 8d8e 943e 7304 1c3d 8c13 4ebe
000001e0: 5945 f83d 8b78 723c 9ac7 e23d bba1 acbd
000001f0: ea80 dcbc 2ad5 853e 9b77 8fbd 8c33 b4bd
00000200: a75b 81be 92f1 f2bd 9496 9cbd 1c50 443d
00000210: a6e1 ba3c 49b2 fb3d 6060 b53b 3754 0ebd
00000220: e6c7 debe 83bc c7bd b9c6 edbd 9e38 0abe
00000230: d5b2 d9bd 1bc4 223e 8829 013e ede4 393e
00000240: 1989 bbbd e20c ae3d 1153 6ebd 063c 033e
00000250: 4da3 90bd 115c 603e a1ed 273b 2241 0d3e
00000260: 46e9 1c3e 9c48 e93d 0abc 2e3e 45a7 213e
00000270: c7dd e63d 7efb 503e b42c a33d 77f7 5d3d
00000280: 6d4e 3bbc 3aad 743d 23a1 1abe ba51 653e
00000290: 0cd7 efbd 39f0 3dbe 6c47 bf3e 53c1 fdbd
000002a0: 79e5 44bd 5942 efbb 09ef 003e 07ba 903d
000002b0: e438 d43d 9972 1f3e e83d 0c3e 6c1d c5bc
000002c0: 2540 5c3e f40b 2e3e 543f d63b 1028 c5bd
000002d0: 4e16 e2bd 8b69 d43d f091 943c 14bc 36be
000002e0: 0b4e 103e 470c 21be cc46 d93d 6007 273d
000002f0: c17a c7bb cda9 54bd 19de 4ebd 9a7a c13c
00000300: e97c 453d 96c9 adbd d47f d73d e7b5 03bd
00000310: 1791 91bd 9ab7 edbc 6118 a3bd 8874 de3b
00000320: c307 2dbd 0bf4 f53b 8704 dfbd eb6a b13e
00000330: 25c3 b5bd 9b92 53be 9b9d 41be c04c 46be
00000340: 357f bbbd 7e4d 7ebe 8685 21bd 9843 c63d
00000350: 5491 b7be d58e 8d3d 3114 353e c890 123e
00000360: 8dc5 31bd 1f2a 3bbd 6fe2 13bd fbd3 a03e
00000370: cd93 113d 05a4 313e 4f0e 873e f9ca 9dbd
00000380: 2933 e93d 1f6a 5d3c 9ae3 0fbe 653a cebe
00000390: 2ed9 7dbe cb40 263c 6611 09be 1725 1e3e
000003a0: d96e 2fbe c843 1e3e 9e94 7f3d 353b bc38
000003b0: 0352 023f 13b6 7d3e cedc 6cbd f68f d73e
000003c0: feba d43d 745f 3c3d 77c8 87bd 3bdb 8dbc
000003d0: 68c0 6d3e ebb1 433d 6852 86ba 2af4 083d
000003e0: 7f4e 6cba 9404 3b3c 6203 9bbb 1a41 2ebe
000003f0: f30a c03c f096 173e 4704 86be 2e81 b33e

q1_network.network_body._body_endoder.seq_layers.0.bias f4 [20]
0.022155799 0.0037916843 -1.2508468e-29 -0.012762579 -2.984171e-16 -0.0087502105 0.0 0.018087154
0.014593128 -0.0031384968 0.085729145 0.014423055 -0.01648201 -0.019459708 5.6909617e-22 -0.01804776
0.0 0.013016758 0.013564404 -0.0039224736
00000000: 1480 b53c e87d 783b aeb3 7d8f 231a 51bc
00000010: 9706 aca5 0b5d 0fbc 0000 0000 832b 943c
00000020: 0418 6f3c 3daf 4dbb c392 af3d ad4e 6c3c
00000030: 4805 87bc f769 9fbc afff 2b1c e5d8 93bc
00000040: 0000 0000 3d44 553c 3c3d 5e3c 1888 80bb

q1_network.network_body._body_endoder.seq_layers.2.weight f4 [20, 20]
-0.11246825 -0.06431135 0.29755753 0.13225268 -0.18264689 0.22127615 0.05209327 -0.51623154
-0.18800315 -0.026530826 -0.015397441 -0.08018006 0.19911796 -0.14447227 0.29696608 -0.3112838
-0.039240472 0.3072899 0.09188314 0.10295588 0.19146971 0.09749369 0.14303334 -0.024756778
0.0503945 0.20361742 0.13517985 0.52691555 -0.063552395 0.27718008 0.11171535 -0.061150867
-0.20414779 -0.064417735 -0.07561507 -0.20743911 -0.21306291 -0.018145813 0.39182884 -0.035366695
-0.6949223 -0.17563026 -0.25002187 0.4312937 0.00956508 0.11391723 0.05827115 0.116354965
0.1866859 -0.04623859 0.01888836 -0.05678449 0.06967258 0.18202469 -0.13904159 0.0824756
-0.32537752 0.4730069 0.15751341 0.147168 -0.069206454 -0.13531137 0.2319959 -0.26522005
0.38055998 0.11546349 -0.10715516 0.09513144 0.13410968 0.27284843 0.21678495 -0.31567916
0.023264399 0.14247571 -0.4186996 -0.07376808 0.28563073 0.19420777 -0.021372018 -0.07752944
0.10798338 0.03405176 -0.30315098 -0.3244621 0.3635142 0.0928364 -0.30457827 0.020707749
0.19899909 0.06390893 0.19703025 -0.29496476 0.057217542 0.09905672 -0.45894885 -0.36458495
0.080479115 0.033097815 -0.14919333 -0.17259823 -0.14234698 0.6637978 -0.17407234 0.21556893
0.024305442 0.028062604 0.23555592 0.34098184 0.22035483 0.049062766 0.18622819 -0.38105336
0.12541392 0.10075964 -0.09174498 0.20648706 0.021699922 -0.20791548 0.010106171 -0.08991641
0.013463405 0.33589813 0.20880257 0.0634463 0.112129815 -0.010130814 -0.2645073 -0.30566034
0.12091531 -0.20459324 -0.23878969 0.13298585 0.14952564 0.27404642 0.2449952 -0.035856213
0.1747283 -0.25861225 0.068188824 -0.049966652 0.0663677 -0.14142232 0.018791672 -0.046152588
0.22341956 -0.07619886 -0.19961797 0.20902362 0.14782336 0.062524766 -0.39076734 -0.074152954
-0.07633426 -0.4510398 -0.17497207 -0.26308948 0.16251285 0.7081364 0.43794057 -0.119629264
0.23578772 -0.29632902 -0.28010336 -0.1794861 -0.06444877 -0.15877298 -0.25094917 -0.08237812
-0.08911142 -0.050394755 -0.14062871 0.59530073 -0.05855906 -0.20831916 -0.07318919 0.216349
-0.09851515 0.062306613 -0.066523336 -0.053908776 -0.15603909 -0.049443904 -0.04527969 0.31967437
-0.16536407 0.13398209 0.32071623 0.08459763 -0.1859904 0.0019650268 0.094181195 -0.1480304
0.114372335 -0.22338691 -0.15817395 -0.16875863 -0.14108424 -0.29395506 0.023808002 0.22306915
0.48051968 0.031487755 0.13352191 0.15493275 -0.057319112 -0.2690242 0.3822644 0.42616904
-0.052942563 -0.18781283 -0.3705098 -0.43873003 0.022956071 -0.01812229 0.04819016 -0.35419476
0.29647204 0.20703961 -0.0382584 0.2543676 0.129763 -0.14848205 0.16664988 -0.05579491
0.3844867 0.21564905 0.31923717 0.21226051 -0.0033163251 -0.100194484 0.032612633 0.18903717
0.46302804 0.076658376 0.24777545 0.21376255 -0.15667306 0.2831983 -0.10405251 0.15176696
0.049854554 -0.026962036 0.13768506 -0.11023927 -0.06299677 -0.053761296 0.50039655 0.063347116
0.10814748 -0.016643243 -0.1600407 -0.50770086 -0.12249129 -0.348098 -0.027642695 -0.11876158
00000000: c155 e6bd abb5 83bd 7659 983e 3f6d 073e
00000010: c907 3bbe 3796 623e c15f 553d c027 04bf
00000020: e683 40be 2d57 d9bc 8c45 7cbc 7135 a4bd
00000030: 94e5 4b3e 8af0 13be f00b 983e 9760 9fbe
00000040: 9eba 20bd 1a55 9d3e 3a2d bc3d 88da d23d
00000050: a310 443e c6aa c73d 5577 123e bace cabc
00000060: 776a 4e3d 1681 503e 966c 0a3e f0e3 063f
00000070: c227 82bd 8cea 8d3e 04cb e43d 5579 7abd
00000080: 1e0c 51be 72ed 83bd 13dc 9abd eb6a 54be
00000090: 2a2d 5abe 87a6 94bc ca9d c83e abdc 10bd
000000a0: 6ee6 31bf 6bd8 33be de02 80be 87d2 dc3e
000000b0: dab6 1c3c 704d e93d bbad 6e3d 834b ee3d
000000c0: 972a 3f3e ad64 3dbd c3bb 9a3c da96 68bd
000000d0: 7fb0 8e3d ae64 3a3e eb60 0ebe f8e8 a83d
000000e0: e297 a6be f62d f23e 324b 213e 35b3 163e
000000f0: 1dbc 8dbd 108f 0abe 5590 6d3e ecca 87be
00000100: c2d8 c23e 1f78 ec3d 2a74 dbbd 46d4 c23d
00000110: 0c54 093e cab2 8b3e e0fc 5d3e b3a0 a1be
00000120: fb94 be3c 27e5 113e cb5f d6be b813 97bd
00000130: 313e 923e 67de 463e 5f14 afbc c1c7 9ebd
00000140: 6426 dd3d dc79 0b3d 9b36 9bbe e51f a6be
00000150: 891e ba3e 0321 be3d aff1 9bbe 4ca3 a93c
00000160: 6bc6 4b3e afe2 823d 4cc2 493e 9f05 97be
00000170: f15c 6a3d 40de ca3d 58fb eabe e1aa babe
00000180: 3cd2 a43d 9391 073d 23c6 18be 97bd 30be
00000190: 68c3 11be a7ee 293f 0540 32be 1abe 5c3e
000001a0: 351c c73c 8ce3 e53c 9235 713e 2c95 ae3e
000001b0: b2a4 613e 0af6 483d 9ab2 3e3e 6d19 c3be
000001c0: 826c 003e 125b ce3d cbe4 bbbd 5871 533e
000001d0: 09c4 b13c cce7 54be 5a94 253c 1826 b8bd
000001e0: 9d95 5c3c d7fa ab3e 57d0 553e 22f0 813d
000001f0: 51a4 e53d b7fb 25bc 806d 87be 837f 9cbe
00000200: 72a2 f73d e480 51be 4985 74be 712d 083e
00000210: 401d 193e d04f 8c3e 06e0 7a3e f7dd 12bd
00000220: faeb 323e d368 84be 95a6 8b3d d5a9 4cbd
00000230: caeb 873d 03d1 10be fef0 993c 7f0a 3dbd
00000240: 19c8 643e 260e 9cbd a768 4cbe 4a0a 563e
00000250: 025f 173e fc0c 803d a812 c8be 81dd 97bd
00000260: 2355 9cbd b0ee e6be e12b 33be aab3 86be
00000270: c569 263e 6d48 353f bf39 e03e 3000 f5bd
00000280: 5672 713e 70b8 97be b569 8fbe 34cb 37be
00000290: b7fd 83bd 6295 22be 697c 80be dcb5 a8bd
000002a0: 0c80 b6bd bb6a 4ebd f900 10be a165 183f
000002b0: a0db 6fbd 9e51 55be 37e4 95bd 988a 5d3e
000002c0: 50c2 c9bd 3835 7f3d 633d 88bd 73cf 5cbd
000002d0: b6c8 1fbe b185 4abd 3277 39bd 5cac a33e
000002e0: 3355 29be 9a32 093e eb34 a43e 8641 ad3d
000002f0: 4474 3ebe aec7 003b 12e2 c03d 4895 17be
00000300: 0b3c ea3d 8abf 64be 5af8 21be 10cf 2cbe
00000310: 6378 10be 4781 96be 0009 c33c 3d6c 643e
00000320: ad06 f63e 4ef9 003d f8b9 083e b1a6 1e3e
00000330: 72c7 6abd 8abd 89be 29b8 c33e d432 da3e
00000340: 4dda 58bd 0252 40be 76b3 bdbe 39a1 e0be
00000350: 5f0e bc3c 3275 94bc 0c63 453d 0459 b5be
00000360: 2fcb 973e 3102 543e d7b4 1cbd 783c 823e
00000370: 98e0 043e ae0b 18be 44a6 2a3e 3489 64bd
00000380: 71db c43e 1bd3 5c3e 0e73 a33e d25a 593e
00000390: b456 59bb c432 cdbd d394 053d f692 413e
000003a0: 0312 ed3e 11ff 9c3d d9b8 7d3e 92e4 5a3e
000003b0: e76e 20be 5eff 903e 7b19 d5bd cc68 1b3e
000003c0: 4a34 4c3d 7ddf dcbc 50fd 0c3e 20c5 e1bd
000003d0: 7304 81bd ce34 5cbd fd19 003f 22bc 813d
000003e0: 6d7c dd3d 6957 88bc b6e1 23be aff8 01bf
000003f0: b7dc fabd e739 b2be ef72 e2bc 4539 f3bd

q1_network.network_body._body_endoder.seq_layers.2.bias f4 [20]
0.010555864 0.017330369 0.005354359 -0.005777381 -0.019308703 0.010358093 -0.029416675 0.0126157915
0.065330125 -0.005129134 0.17487928 0.009448664 -0.007926395 -0.037741702 0.041090462 0.015603377
2.034625e-08 -0.003948994 -8.575641e-29 -0.014875042
00000000: 81f2 2c3c 6bf8 8d3c 9e73 af3b 2f50 bdbb
00000010: 492d 9ebc feb4 293c 3dfb f0bc 77b2 4e3c
00000020: cdcb 853d 4b12 a8bb 8e13 333e 92ce 1a3c
00000030: b6dd 01bc 0b97 1abd 794e 283d 4ea5 7f3c
00000040: e0c5 ae32 9066 81bb 186b d990 73b6 73bc

q1_network.value_heads.value_heads.extrinsic.weight f4 [5, 20]
-0.43821096 -0.07217584 -0.3535635 0.44888616 -0.3216723 0.30201665 0.055063095 0.4013517
0.13394894 -0.1418309 0.2028528 -0.42952836 0.4658473 -0.33550298 0.41827717 0.21080565
-0.120032325 -0.13915855 -0.047839962 -0.28404626 0.34256315 0.011170719 -0.34091106 -0.12151083
0.4532327 0.22390491 0.2814621 0.31099182 -0.123331465 0.46692407 -0.15697509 0.27157632
0.16907558 0.3441781 -0.21870364 0.10963397 -0.39407018 -0.4621995 0.21528754 -0.2917309
-0.06968681 -0.19658224 0.3572133 0.035560485 -0.07380409 0.37903336 0.057665832 -0.0022669677
-0.2480068 0.44192985 -0.3937582 0.1347973 0.2264596 -0.18145926 -0.47018966 0.20595492
-0.1486592 -0.028124748 -0.12410794 0.3320328 0.4119064 -0.08037417 0.2847174 -0.061279207
0.51263154 -0.0013233103 0.1095798 -0.093405105 0.060967762 -0.062991165 -0.6868068 0.31656915
0.33695135 -0.04244473 -0.4216151 -0.043549743 -0.3522412 0.01803618 0.24899285 -0.35484022
-0.06111163 0.48197225 -0.002381012 -0.4598492 0.08903653 -0.06970197 -0.41896462 0.0157595
-0.5308002 -0.12429267 -0.6295252 0.023595084 -0.022754537 -0.40040326 -0.44706613 0.27269438
0.21678719 0.37724823 0.065035135 0.11792377
00000000: 305d e0be edd0 93bd 4606 b5be 68d4 e53e
00000010: 3bb2 a4be eda1 9a3e d789 613d f87d cd3e
00000020: e929 093e 1f3c 11be a5b8 4f3e 24eb dbbe
00000030: 8a83 ee3e 0cc7 abbe 6d28 d63e 70dd 573e
00000040: 82d3 f5bd 947f 0ebe d6f3 43bd 836e 91be
00000050: 7064 af3e 6405 373c e58b aebe acda f8bd
00000060: 1e0e e83e 5447 653e cd1b 903e 523a 9f3e
00000070: 3595 fcbd ac10 ef3e 14be 20be 0d0c 8b3e
00000080: 2622 2d3e 1d38 b03e d9f3 5fbe c687 e03d
00000090: 91c3 c9be 6aa5 ecbe 5674 5c3e c15d 95be
000000a0: f5b7 8ebd db4c 49be a9e4 b63e dfa7 113d
000000b0: 9926 97bd a910 c23e 0233 6c3d 6891 14bb
000000c0: 7ff5 7dbe a144 e23e ad9a c9be 4e08 0a3e
000000d0: 06e5 673e 75d0 39be b3bc f0be d9e5 523e
000000e0: 1e3a 18be df65 e6bc 4e2c febd 3400 aa3e
000000f0: 65e5 d23e 369b a4bd 7bc6 913e e8ff 7abd
00000100: d23b 033f ed72 adba 606b e03d 2d4b bfbd
00000110: 55b9 793d 8301 81bd 92d2 2fbf 5a15 a23e
00000120: e384 ac3e 86da 2dbd efdd d7be 3761 32bd
00000130: f558 b4be 9cc0 933c fbf7 7e3e 9ead b5be
00000140: 3050 7abd 11c5 f63e c10a 1cbb 5b71 ebbe
00000150: c958 b63d e8bf 8ebd 8882 d6be 111a 813c
00000160: 86e2 07bf 288d febd 9028 21bf 7a4a c13c
00000170: b967 babc a801 cdbe dae5 e4be 999e 8b3e
00000180: 76fd 5d3e ae26 c13e 2431 853d 0482 f13d

q1_network.value_heads.value_heads.extrinsic.bias f4 [5]
0.0 0.012831997 0.00477555 -0.026276622 0.01667822
00000000: 0000 0000 4c3d 523c 387c 9c3b 1242 d7bc
00000010: c3a0 883c

q2_network.network_body._body_endoder.seq_layers.0.weight f4 [20, 38]
-0.026349608 0.1379794 0.30682063 0.2916203 0.13300742 -0.055363156 -0.10762232 0.15787576
0.247439 0.08200653 0.110036284 -0.033149753 -0.053350747 0.3351748 0.12421474 0.020935869
-0.07119916 0.023098482 -0.09413119 0.014031229 -0.11432159 0.102568716 -0.2769261 -0.19981092
0.116847016 0.03119343 0.10955671 -0.1102928 0.11084333 0.21752998 -0.10162448 -0.07367307
0.082050085 -0.08263573 -0.038021423 0.038079556 -0.11527104 0.19427826 0.23593374 0.22067381
-0.033328846 0.085191615 -0.14376153 0.07260987 -0.021470329 -0.14644095 -0.41669747 0.08336655
-0.20856673 0.005046898 -0.10684742 0.06632135 -0.15454784 0.004694771 -0.07387708 0.08823813
0.17391664 0.12779747 -0.082567565 0.30087706 0.13196777 0.023113564 -0.535468 -0.07886986
-0.17408907 0.056840908 0.13361764 -0.104470834 0.043450795 -0.13503121 -0.08385075 -0.13593753
-0.07421383 0.11402532 0.3583556 -0.25580823 0.15032603 -0.2739878 -0.054417845 -0.22836949
0.14470683 -0.1778502 0.037533417 -0.11323999 -0.051299535 0.08924874 -0.028531002 -0.041746907
-0.09873337 0.16940951 0.30537108 0.0952855 0.077334024 -0.063271485 -0.076277316 0.11897236
0.01872571 -0.038792126 0.14333315 -0.049090274 -0.31047904 0.121864714 -0.07179588 0.13110265
-0.15481825 -0.10235832 0.19699532 0.12691027 -0.03434301 0.09663795 0.14122424 -0.061026275
-0.18700753 0.25164515 0.021622892 -0.03586409 -0.13119017 -0.091500014 0.16696341 0.16818464
0.06459001 0.09516155 -0.18915491 0.01839157 -0.22298299 0.22931026 0.20086963 0.042965796
-0.08471211 -0.23344238 -0.043452468 0.33638877 -0.27949873 -0.14795285 0.04324971 0.04195742
-0.022308335 0.114886895 -0.17418018 -0.28116393 -0.06501579 0.20001115 -0.32271504 0.13943663
-0.075543195 0.02380293 0.21933354 0.120452 0.13646577 0.07651806 0.03432031 -0.069835365
-0.11578177 0.18522167 0.19329044 -0.3189364 -0.17113398 -0.06125703 0.20554361 -0.108757585
0.21029079 0.21026741 -0.22506148 -0.04783469 0.009621646 0.03607612 -0.020317301 -0.118946016
0.3577275 0.06858532 -0.045778822 0.4547681 0.36855727 -0.1417319 0.034688134 -0.0511804
0.009300683 0.15780765 -0.08743183 0.21630046 0.151071 0.40377873 -0.23140012 0.038389623
0.2215744 0.014157147 0.08939253 0.074110515 0.14328197 0.04416113 0.11210238 -0.013289898
-0.040623527 -0.29165754 -0.07569749 0.28253478 0.11792727 -0.07838957 -0.0667708 0.021340132
-0.06512245 -0.013364713 -0.050516568 -0.061839778 -0.08389204 -0.08569141 -0.034496687 -0.123108394
0.27011934 0.2527291 0.051042326 0.2592361 -0.11100458 0.02882672 0.076889984 0.2962629
-0.23240982 -0.027479693 -0.13506538 -0.19556184 -0.003310045 0.12606345 0.07289629 -0.13007513
-0.022821993 0.1731392 -0.0033024151 0.018329201 0.1360311 0.14211999 -0.10039689 0.0075877653
0.2902277 -0.14208864 0.0973299 -0.008098434 0.06024455 0.20961685 0.14923283 -0.1980485
0.085399166 -0.29377744 -0.026233131 0.26788342 -0.25986576 -0.3693954 0.19029483 -6.944691e-05
-0.12255204 -0.03944499 0.1541603 0.10394963 -0.1364418 0.0061010313 -0.0036668887 0.26272085
00000000: 22db d7bc 794a 0d3e 9817 9d3e 424f 953e
00000010: 1933 083e 7ac4 62bd 1769 dcbd 2faa 213e
00000020: a660 7d3e 0af3 a73d b45a e13d 09c8 07bd
00000030: 5086 5abd 089c ab3e 4c64 fe3d b381 ab3c
00000040: ddd0 91bd 0739 bd3c dac7 c0bd 3de3 653c
00000050: 7021 eabd 8c0f d23d 42c9 8dbe 3c9b 4cbe
00000060: 7d4d ef3d 5d89 ff3c 455f e03d 31e1 e1bd
00000070: d401 e33d 2ec0 5e3e 7f20 d0bd e8e1 96bd
00000080: e009 a83d ec3c a9bd 5abc 1bbd 4ff9 1b3d
00000090: 3913 ecbd e1f0 463e 9d98 713e 51f8 613e
000000a0: d483 08bd f178 ae3d 3936 13be 7cb4 943d
000000b0: 8be2 afbc 9ef4 15be 5f59 d5be 15bc aa3d
000000c0: 8492 55be 7360 a53b d2d2 dabd 7dd3 873d
000000d0: ca41 1ebe 98d6 993b de4c 97bd 31b6 b43d
000000e0: 3417 323e 57dd 023e 2f19 a9bd 8f0c 9a3e
000000f0: 8f22 073e a858 bd3c 6e14 09bf 8586 a1bd
00000100: 6844 32be 03d2 683d 10d3 083e cef4 d5bd
00000110: 76f9 313d 9f45 0abe f1b9 abbd 3533 0bbe
00000120: 6cfd 97bd 1b86 e93d 637a b73e 4cf9 82be
00000130: 11ef 193e 2148 8cbe 3fe5 5ebd b1d9 69be
00000140: 072e 143e 5d1e 36be a4bc 193d 5eea e7bd
00000150: 761f 52bd 0bc8 b63d d9b9 e9bc cefe 2abd
00000160: b934 cabd b079 2d3e 9959 9c3e 0b25 c33d
00000170: 4d61 9e3d 7b94 81bd 4837 9cbd c8a7 f33d
00000180: a966 993c 7ee4 1ebd edc5 123e e212 49bd
00000190: 1cf7 9ebe 3594 f93d b809 93bd c63f 063e
000001a0: ad88 1ebe 3da1 d1bd 24b9 493e c4f4 013e
000001b0: 42ab 0cbd 1eea c53d 169d 103e b0f6 79bd
000001c0: e77e 3fbe a2d7 803e 7e22 b13c 39e6 12bd
000001d0: b756 06be 5c64 bbbd 75f8 2a3e 9838 2c3e
000001e0: c447 843d 0fe4 c23d d3b1 41be eba9 963c
000001f0: a755 64be 4fd0 6a3e c5b0 4d3e e7fc 2f3d
00000200: 8b7d adbd 850b 6fbe 37fb 31bd 263b ac3e
00000210: 751a 8fbe f480 17be 9c26 313d 8bdb 2b3d
00000220: f8bf b6bc d249 eb3d 4a5c 32be b8f4 8fbe
00000230: 0027 85bd b9cf 4c3e e83a a5be 7ac8 0e3e
00000240: 64b6 9abd 5dfe c23c f998 603e 8aaf f63d
00000250: afbd 0b3e 80b5 9c3d 7493 0c3d d805 8fbd
00000260: fe1e edbd c0aa 3d3e eeed 453e a24b a3be
00000270: bf3d 2fbe a7e8 7abd 067a 523e 4cbc debd
00000280: 7856 573e 5750 573e 8476 66be 4fee 43bd
00000290: 1ca4 1d3c 8ec4 133d 7870 a6bc f899 f3bd
000002a0: 0f28 b73e 7676 8c3d 9382 3bbd 5dd7 e83e
000002b0: 8ab3 bc3e 2b22 11be 2515 0e3d 8aa2 51bd
000002c0: e461 183c 5498 213e 760f b3bd de7d 5d3e
000002d0: 5bb2 1a3e 16bc ce3e 27f4 6cbe 703e 1d3d
000002e0: 66e4 623e 61f3 673c 6e13 b73d 41c7 973d
000002f0: 82b8 123e 4de2 343d ef95 e53d dfbd 59bc
00000300: db64 26bd 2354 95be 4907 9bbd 66a8 903e
00000310: da83 f13d b68a a0bd 21bf 88bd 80d1 ae3c
00000320: eb5e 85bd abf7 5abc 76ea 4ebd b54b 7dbd
00000330: 97cf abbd fa7e afbd 664c 0dbd 4120 fcbd
00000340: 154d 8a3e b565 813e c211 513d 98ba 843e
00000350: 5f56 e3bd 0326 ec3c 7f78 9d3d c5af 973e
00000360: d7fc 6dbe 181d e1bc 944e 0abe 5d41 48be
00000370: 57ed 58bb c716 013e a64a 953d 6a32 05be
00000380: 30f5 babc 674b 313e 556d 58bb 1f27 963c
00000390: bd4b 0b3e e787 113e e29c cdbd caa2 f83b
000003a0: ba98 943e af7f 11be e654 c73d 4baf 04bc
000003b0: fdc2 763d cda5 563e 7ed0 183e 3acd 4abe
000003c0: c2e5 ae3d ff69 96be dde6 d6bc 0428 893e
000003d0: 200d 85be 6521 bdbe a6dc 423e 07a4 91b8
000003e0: 90fc fabd 1291 21bd 33dc 1d3e 8be3 d43d
000003f0: 66b7 0bbe 29eb c73b 2f50 70bb 5983 863e

q2_network.network_body._body_endoder.seq_layers.0.bias f4 [20]
0.013347143 -0.016075183 -8.1673495e-29 0.0 0.024334267 -0.0077759856 -0.0039829086 -0.009024046
0.0 -1.5305259e-28 0.0018981505 -0.005861629 -0.00523269 0.001497497 -8.074875e-23 -0.009491862
0.0051653204 -0.012888384 8.615919e-27 0.0066108066
00000000: faad 5a3c 1ab0 83bc 2111 cf90 0000 0000
00000010: a858 c73c b2cd febb 0f83 82bb 98d9 13bc
00000020: 0000 0000 6804 4291 5dcb f83a e812 c0bb
00000030: fc76 abbb a947 c43a 0e3d c39a c183 1bbc
00000040: d941 a93b cd29 53bc e6a7 2a14 779f d83b

q2_network.network_body._body_endoder.seq_layers.2.weight f4 [20, 20]
0.0046548634 0.028416393 0.079867445 -0.33692867 -0.10701015 -0.23394306 -0.44617146 -0.13199742
-0.0033856025 0.07377228 -0.21665134 0.17468242 -0.100476146 -0.10318769 0.08481306 -0.105509415
-0.26322207 0.07468938 -0.094012104 -0.15177049 -0.004538411 0.35119092 -0.25596058 0.050331853
-0.04412554 -0.053404707 -0.11306841 0.21114613 0.11805551 -0.02098324 0.11749367 -0.21284409
0.20089382 0.015020371 0.09451389 -0.2475366 -0.12919445 0.1613451 -0.099723786 -0.13579251
0.09009579 -0.014815031 -0.19130377 -0.25181714 -0.73102146 -0.41469246 -0.19046555 -0.1091307
0.21565776 -0.01251163 -0.22985852 -0.016407063 -0.2078431 0.23611909 -0.18389699 -0.025075153
0.03869415 0.20802383 0.27378944 0.35118282 0.02289249 0.084935695 -0.2600333 0.059567425
-0.007366976 0.3360458 -0.041893084 -0.13433422 0.10932735 0.18610482 -0.1894783 0.1753735
-0.20675117 -0.28262126 0.35653165 0.055915073 -0.12077977 0.0057982355 0.10953973 -0.14754719
-0.28674987 -0.04283401 0.15933819 -0.11399912 0.37351018 0.15868531 -0.36811802 -0.11308495
-0.07010173 -0.015438736 -0.43308288 0.19999553 -0.026218686 0.06995992 -0.03133172 -0.2867729
0.17760809 0.28171685 -0.18787621 -0.055437893 0.3270821 0.13485645 -0.21382222 0.23888905
-0.037764966 -0.16761155 -0.389279 -0.4441438 0.20742485 -0.3455297 0.5034953 -0.13270421
-0.12856585 -0.048547205 0.243172 0.09779325 -0.4828298 -0.13614872 -0.3401896 0.100821085
0.2891629 0.23620366 0.29023144 0.29242897 0.22901285 0.004374137 0.25866166 -0.37277198
-0.05528596 0.007920956 -0.21537904 -0.026806675 0.20491095 -0.02249045 -0.035035852 0.08510472
-0.022999696 0.16345944 0.12582247 -0.122930564 -0.0976174 0.5416833 0.16243373 -0.10929658
0.33926958 -0.04563103 -0.13233164 -0.04838758 0.5954228 0.44959185 0.12118636 -0.045364834
-0.071088895 -0.25539967 0.018431868 -0.10208944 -0.20212676 0.26433408 -0.39777738 -0.12737606
-0.22605892 0.17676292 0.0692715 -0.16648561 -0.078017645 0.03303449 -0.24923095 -0.35483924
0.04656429 0.2084647 -0.20719415 -0.050452996 -0.41388464 -0.4029615 -0.25038612 -0.01577049
0.21465039 0.09974388 0.0048724413 -0.14527263 -0.11023492 0.35223377 0.06118194 0.1597143
0.032372784 0.072089344 0.16610537 0.047113445 0.35827258 -0.074177034 0.23274788 7.446797e-05
0.0042365547 0.08843422 0.21249606 0.11488326 0.17863517 -0.14739709 -0.07544871 -0.05600516
0.14692985 0.032293003 0.22845513 0.07991697 -0.18151537 0.076583646 -0.014532033 0.048495054
-0.09621888 -0.37357727 -0.14415382 -0.4615428 0.095579684 0.15960532 0.11368019 -0.17128816
0.14394826 0.1902684 0.2436937 0.044800267 0.3023437 -0.42534572 -0.39182618 -0.002600946
0.15988445 -0.06646088 0.17711483 0.13599364 -0.07033514 0.29652596 -0.0019243229 0.09325741
-0.06957684 0.28620392 -0.03682816 0.17509705 -0.07352931 0.039691098 0.069280066 -0.16389884
0.14085653 -0.19992039 0.43938828 0.368447 -0.15800898 -0.035062242 -0.3806198 -0.09038293
0.29570496 0.18685472 0.08054479 0.4595122 0.18838061 -0.15360306 0.25970858 0.1651285
00000000: d387 983b 7fc9 e83c 8b91 a33d ea81 acbe
00000010: 2328 dbbd c58e 6fbe 9670 e4be 552a 07be
00000020: fce0 5dbb ec15 973d d9d9 5dbe f3df 323e
00000030: 70c6 cdbd 1154 d3bd 78b2 ad3d 5215 d8bd
00000040: 0bc5 86be bff6 983d 6b89 c0bd b969 1bbe
00000050: f3b6 94bb 4ccf b33e 440d 83be c628 4e3d
00000060: fbbc 34bd e5be 5abd 6990 e7bd b136 583e
00000070: 16c7 f13d 0be5 abbc 85a0 f03d cdf3 59be
00000080: 1cb7 4d3e 0118 763c 8090 c13d 3c7a 7dbe
00000090: 8d4b 04be a637 253e fc3b ccbd 310d 0bbe
000000a0: 2484 b83d beba 72bc 23e5 43be 2dee 80be
000000b0: 3924 3bbf 9252 d4be 6709 43be eb7f dfbd
000000c0: 63d5 5c3e 94fd 4cbc 0860 6bbe 1b68 86bc
000000d0: d2d4 54be 34c9 713e 7e4f 3cbe 686a cdbc
000000e0: c27d 1e3d 3304 553e 212e 8c3e 3cce b33e
000000f0: 0889 bb3c c4f2 ad3d 1623 85be f9fc 733d
00000100: ac66 f1bb 320e ac3e 1598 2bbd e98e 09be
00000110: 05e7 df3d 4392 3e3e 9906 42be 1c95 333e
00000120: 94b6 53be bcb3 90be 518b b63e 3407 653d
00000130: 625b f7bd 20ff bd3b 5e56 e03d 9c16 17be
00000140: e1d0 92be b772 2fbd 8d29 233e 5f78 e9bd
00000150: ba3c bf3e 677e 223e f779 bcbe 1599 e7bd
00000160: 7f91 8fbd c1f2 7cbc 0abd ddbe a1cb 4c3e
00000170: 92c8 d6bc 2647 8f3d b155 00bd e6d3 92be
00000180: e5de 353e 313d 903e 9f62 40be d812 63bd
00000190: 4e77 a73e cf17 0a3e 36f4 5abe 559f 743e
000001a0: 70af 1abd 5da2 2bbe 944f c7be d166 e3be
000001b0: 2e67 543e 45e9 b0be 11e5 003f 9de3 07be
000001c0: c4a6 03be 6fd9 46bd 1502 793e d447 c83d
000001d0: 7835 f7be 926a 0bbe 552d aebe 497b ce3d
000001e0: 290d 943e 5fdf 713e 3799 943e 40b9 953e
000001f0: 5882 6a3e ec54 8f3b 4d6f 843e f8db bebe
00000200: 8873 62bd e6c6 013c 538c 5cbe ac99 dbbc
00000210: 2dd4 513e e43d b8bc c181 0fbd 624b ae3d
00000220: dc69 bcbc e961 273e 9bd7 003e 05c3 fbbd
00000230: a2eb c7bd c2ab 0a3f 0755 263e e3d6 dfbd
00000240: beb4 ad3e 9ae7 3abd f281 07be 0e32 46bd
00000250: a16d 183f e730 e63e 8e30 f83d 7ad0 39bd
00000260: 0e97 91bd bfc3 82be 6efe 963c 4514 d1bd
00000270: 51fa 4ebe cc56 873e 7aa9 cbbe df6e 02be
00000280: fd7b 67be 5701 353e 37de 8d3d 347b 2abe
00000290: b7c7 9fbd 2c4f 073d 6636 7fbe 7dad b5be
000002a0: 32ba 3e3d c577 553e b42a 54be cda7 4ebd
000002b0: b0e8 d3be f850 cebe 9c32 80be 1d31 81bc
000002c0: 50cd 5b3e 8546 cc3d 00a9 9f3b 59c2 14be
000002d0: d9c2 e1bd fc57 b43e ea99 7a3d 258c 233e
000002e0: 5399 043d 94a3 933d 8717 2a3e 07fa 403d
000002f0: 816f b73e 21ea 97bd 7655 6e3e b02b 9c38
00000300: ccd2 8a3b 001d b53d 9198 593e ea47 eb3d
00000310: 23ec 363e 43ef 16be da84 9abd ab65 65bd
00000320: c774 163e ab45 043d 24f0 693e 82ab a33d
00000330: 2adf 39be e3d7 9c3d c417 6ebc c0a2 463d
00000340: 670e c5bd 8545 bfbe 0f9d 13be 564f ecbe
00000350: 48bf c33d 946f 233e 29d1 e83d 2a66 2fbe
00000360: 2c67 133e b8d5 423e d78a 793e 7c80 373d
00000370: cbcc 9a3e eac6 d9be 719d c8be a274 2abb
00000380: c0b8 233e a41c 88bd 975d 353e eb41 0b3e
00000390: df0b 90bd 40d2 973e 9039 fcba befd be3d
000003a0: 4d7e 8ebd 5289 923e 20d9 16bd a44c 333e
000003b0: 8996 96bd 2293 223d b5e2 8d3d 19d5 27be
000003c0: b23c 103e eeb7 4cbe 80f7 e03e 16a5 bc3e
000003d0: 1bcd 21be 6d9d 0fbd 99e0 c2be b01a b9bd
000003e0: a466 973e d856 3f3e abf4 a43d 2f45 eb3e
000003f0: d9e6 403e 1f4a 1dbe 86f8 843e 7217 293e

q2_network.network_body._body_endoder.seq_layers.2.bias f4 [20]
1.0958732e-15 -0.019951886 -0.06928655 -2.6432556e-26 -0.0775675 -0.001856468 0.005929321 -0.007684894
0.0 -0.02761194 0.007852522 -0.017703194 1.651435e-13 0.013857186 -0.004934085 -0.008383891
0.012025738 -0.13314982 8.2307245e-28 0.010720253
00000000: 96ee 9d26 2372 a3bc 1be6 8dbd 3fe3 0295
00000010: b6db 9ebd bb54 f3ba c04a c23b 90d1 fbbb
00000020: 0000 0000 6f32 e2bc dda7 003c 4a06 91bc
00000030: 60ef 392a 4009 633c 1bae a1bb 965c 09bc
00000040: 9a07 453c 6d58 08be c96b 8212 00a4 2f3c

q2_network.value_heads.value_heads.extrinsic.weight f4 [5, 20]
0.3900102 -0.44160482 -0.43512037 -0.021516073 -0.05111625 0.1446247 -0.00993262 0.4700434
-0.17974438 0.25780815 0.27029678 0.09680512 0.4605574 -0.03908428 0.44974598 -0.1807084
0.21014316 -0.075031176 -0.36534712 0.1565365 -0.093122594 0.15465806 0.08065596 0.24590014
0.085605964 0.0068299472 -0.32944107 0.20601688 0.46578914 0.19832085 -0.25137845 -0.22128093
-0.0763877 -0.19103388 -0.4752803 -0.2237995 0.13063079 0.07931891 -0.42088854 0.47409952
-0.30685467 -0.07436844 0.24277586 -0.3758435 0.37055376 -0.7347611 -0.5954938 -0.10126623
-0.45740882 0.013172226 -0.21551678 0.30811915 0.041012723 0.13779905 -0.33586362 0.105033584
0.044557746 0.16843563 -0.047366012 0.07659385 -0.41801786 0.29922935 -0.30635753 0.17716049
0.32037473 0.47706887 0.048846588 0.31252068 0.033851724 0.33666807 -0.04088798 -0.08565359
-0.29268876 0.22530667 -0.0015710538 -0.38950974 0.109101154 -0.15720353 -0.3741862 0.10161334
0.018275466 -0.4141086 -0.06762436 0.3908767 -0.12871714 0.6599074 -0.06505544 -0.39080465
-0.18490537 -0.19412503 0.18596658 -0.073419794 -0.2573173 0.26481652 0.08571545 -0.34628105
0.28951988 -0.0489536 0.41627136 0.26969045
00000000: 6baf c73e 071a e2be 19c8 debe 7a42 b0bc
00000010: 465f 51bd 7f18 143e 6ebc 22bc 87a9 f03e
00000020: e90e 38be 6eff 833e 5764 8a3e c341 c63d
00000030: 2ece eb3e d716 20bd 1b45 e63e 9f0b 39be
00000040: c52f 573e f2a9 99bd c70e bbbe 1b4b 203e
00000050: 0fb7 bebd af5e 1e3e f42e a53d 3fcd 7b3e
00000060: 2e52 af3d c0cd df3b 80ac a8be 17f6 523e
00000070: ea7b ee3e 9f14 4b3e adb4 80be 7897 62be
00000080: 2871 9cbd 639e 43be f157 f3be b22b 65be
00000090: 14c4 053e f471 a23d b47e d7be 2cbd f23e
000000a0: 0e1c 9dbe 7b4e 98bd 3c9a 783e 8f6e c0be
000000b0: 39b9 bd3e 4e19 3cbf 4872 18bf ab64 cfbd
000000c0: 7d31 eabe 52d0 573c 6eb0 5cbe cbc1 9d3e
000000d0: f5fc 273d 321b 0d3e 51f6 abbe d91b d73d
000000e0: 2f82 363d 647a 2c3e dd02 42bd 3ddd 9c3d
000000f0: 7006 d6be 9734 993e e5da 9cbe 8f69 353e
00000100: 2808 a43e 5f42 f43e 5c13 483d b602 a03e
00000110: 1ba8 0a3d c25f ac3e 287a 27bd 266b afbd
00000120: 4ddb 95be cbb6 663e d1eb cdba d26d c7be
00000130: 6d70 df3d f6f9 20be 5595 bfbe a81a d03d
00000140: 6eb6 953c 0b06 d4be a47e 8abd fe20 c83e
00000150: 6dce 03be b1ef 283f c93b 85bd 8c17 c8be
00000160: d557 3dbe b6c8 46be 066e 3e3e 1e5d 96bd
00000170: 18bf 83be 0896 873e 958b af3d c04b b1be
00000180: f33b 943e 9283 48bd 8521 d53e de14 8a3e

q2_network.value_heads.value_heads.extrinsic.bias f4 [5]
0.0 0.009980829 -0.13019891 0.0056265173 0.016048977
00000000: 0000 0000 a286 233c dd52 05be a65e b83b
00000010: 2579 833c
