results/lasttest/AI Car/AI Car-357407.onnx (onnx, 8021 bytes, 9 tensors)

discrete_action_output_shape f4 [1, 2]
0	0x40000000	2.0
1	0x40400000	3.0

network_body._body_endoder.seq_layers.0.weight f4 [20, 38]
0	0x3fa178e2	1.2615016
1	0xbeac2005	-0.3361818
2	0xbd28c735	-0.041205604
3	0x3ef916c0	0.4865017
4	0xbec7499a	-0.3892334
5	0xbe858365	-0.2607681
6	0x3fda3229	1.7046558
7	0xbf5c345e	-0.86017406
8	0xbed8eec1	-0.42369655
9	0xbeff9bb1	-0.4992347
10	0x3eb4a2b3	0.3528038
11	0x3e8fca63	0.28084096
12	0x3eab3937	0.3344209
13	0xbe802191	-0.2502561
14	0xbee211ca	-0.44154197
15	0xbf1decfb	-0.6168973
16	0x3f991077	1.195815
17	0x3f1fa8a3	0.62366694
18	0x3f00a14a	0.5024611
19	0xbfde179b	-1.7350954
20	0xbfa027e0	-1.2512169
21	0xc00008dc	-2.0005407
22	0x3fb5bb2d	1.4197747
23	0x3f9ce629	1.2257739
24	0x3e983d9e	0.2973451
25	0x3d349ef7	0.044096913
26	0xbe769522	-0.24080327
27	0xbd5f5e02	-0.054533012
28	0x3e0cc73e	0.1374788
29	0x3e3114b9	0.17293061
30	0xbd2f6a83	-0.042826187
31	0xbdaf957e	-0.08573435
32	0xbda9a065	-0.08282546
33	0x3f337d0b	0.70112675
34	0xbff9171e	-1.946018
35	0x403d68e2	2.9595265
36	0x3f8f2d27	1.1185654
37	0xbf4d72ac	-0.802531
38	0xbef9f995	-0.48823228
39	0x3f08532b	0.53251904
40	0x3e8080e0	0.25098324
41	0xbfa1b3ac	-1.2632957
42	0x3f88bf76	1.0683429
43	0x3f5ecc43	0.8703043
44	0x3b8a92ed	0.0042289407
45	0x3daab7bd	0.083358265
46	0x3d2ef414	0.04271324
47	0xbd2fcfa4	-0.04292263
48	0x3f11950b	0.56868047
49	0x3f455c3e	0.77093875
50	0xbea501ba	-0.3222788
51	0xbec2152d	-0.3790678
52	0xbeb59e72	-0.35472447
53	0x3bdc72b3	0.0067275404
54	0xbeb8e03f	-0.36108586
55	0xbeaae2b6	-0.33376092
56	0xbed4eb15	-0.41585603
57	0x3f14f603	0.58187884
58	0xbde3f581	-0.111308105
59	0xbe410fa3	-0.18853621
60	0x3ea0018d	0.31251183
61	0x3e41c1f0	0.18921638
62	0x3efdbd4d	0.49558488
63	0xbe7d4692	-0.24733952
64	0xbde05310	-0.10953343
65	0xbcedd3a0	-0.029031575
66	0xbe6e66a0	-0.23281336
67	0x3e89fef9	0.2695234
68	0xbeac708a	-0.3367961
69	0x3cd54420	0.026033461
70	0x3e0d7a9a	0.138163
71	0x3cef8cb2	0.029241893
72	0xc0519ad9	-3.2750762
73	0x4042d587	3.0442827
74	0xbf1d34a4	-0.6140845
75	0x3e383561	0.17989112
76	0xbebb8a26	-0.36628836
77	0x3e901f5e	0.2814893
78	0x3e5944a9	0.21217598
79	0x3f97a8b9	1.1848365
80	0xbda197f0	-0.07890308
81	0xbe476d3b	-0.19475262
82	0x3e60f053	0.21966676
83	0x3d82af68	0.06381112
84	0x3e7341a3	0.23755507
85	0x3eff6056	0.49878186
86	0xbdad3522	-0.084574
87	0xbdf81936	-0.121141836
88	0x3e3a0de6	0.18169364
89	0x3d598411	0.053104464
90	0x3e54512f	0.20734094
91	0xbed44d5d	-0.41465273
92	0x3f811615	1.0084864
93	0x3efb8228	0.4912274
94	0xbf011fc2	-0.50439084
95	0x3f18b593	0.5965206
96	0x3f4e4433	0.80572814
97	0xbf52828c	-0.8223045
98	0x3e643a8a	0.22287956
99	0x3e53726a	0.20649114
100	0x3e4dbf78	0.20092571
101	0xbeb719ee	-0.3576197
102	0xbe07b81a	-0.13253823
103	0xbdea1a75	-0.114308275
104	0xbb8a43be	-0.0042195013
105	0x3d94ce27	0.07265883
106	0x3dab6ca3	0.0837033
107	0x3ea0ae34	0.31382906
108	0xbbe7f5a9	-0.0070788455
109	0x3eda71de	0.42665
110	0xbfe7712b	-1.8081411
111	0x3fb6e31d	1.428806
112	0x3da637b9	0.08116097
113	0xbda3362a	-0.07969315
114	0xbfa42faa	-1.2827046
115	0x3e23ae1f	0.1598439
116	0xbe15fef7	-0.14648043
117	0x3e4c642a	0.19960085
118	0xbe27b3ef	-0.16377233
119	0xbe87507c	-0.26428592
120	0xbf8eee26	-1.1166427
121	0x3f1bda54	0.6088002
122	0x3ec8d5e4	0.39225686
123	0x3f61c6a2	0.88193715
124	0xbf449f2a	-0.76805365
125	0xbf516912	-0.8180095
126	0xbee5b226	-0.4486248
127	0x3f06c2a1	0.5264073
128	0x3e8e4943	0.2779027
129	0x3ea8c690	0.3296399
130	0xbfb02183	-1.3760227
131	0xbf728698	-0.94736624
132	0xbeaeae9c	-0.3411759
133	0x3f71331e	0.94218624
134	0x3f3ad2cd	0.72977906
135	0x3fb2cfbb	1.3969644
136	0xbf88df2d	-1.0693108
137	0xbf6d214d	-0.9262894
138	0x3e2cc3cd	0.16871567
139	0xbe58918f	-0.21149276
140	0xbe38985b	-0.18026869
141	0x3ccb694e	0.024830487
142	0x3d7cc0e4	0.061707392
143	0x3ef9c96c	0.48786485
144	0xbdfaa79e	-0.12239002
145	0x3e52420d	0.20533009
146	0x3ca925fc	0.020647995
147	0xbf0144e5	-0.5049575
148	0xc01e7378	-2.4757977
149	0x3fea4246	1.8301475
150	0xbf8f05d2	-1.1173651
151	0x3ead7fac	0.33886468
152	0xbe18cefd	-0.1492271
153	0x3db1a1c4	0.086734325
154	0xbe8e498d	-0.2779049
155	0xbec6191b	-0.3869103
156	0xbc2f546e	-0.010701282
157	0xbea4e7c5	-0.32208076
158	0xbe1ff637	-0.15621267
159	0x3efc0986	0.49226016
160	0xbe20c486	-0.15699968
161	0xbe9083e9	-0.2822564
162	0xbd9c7735	-0.076399244
163	0x3e835afe	0.2565536
164	0x3f1c654a	0.61092055
165	0xbf900732	-1.1252196
166	0xbfabc555	-1.3419596
167	0x3ed5770b	0.41692385
168	0xbf1d9829	-0.615603
169	0x3ce1a667	0.027545167
170	0xbe800855	-0.25006357
171	0xbd7fa333	-0.0624115
172	0xbf3172ec	-0.6931598
173	0x3f9701bc	1.1797404
174	0xbf90325c	-1.1265368
175	0xbf10a6d0	-0.56504536
176	0x3f7d551e	0.98958004
177	0xbe24a481	-0.16078378
178	0xbec8bb14	-0.3920523
179	0x3e670511	0.22560526
180	0x3e4c34df	0.19942044
181	0x3caf8e9b	0.021430304
182	0x3dbd9a88	0.0925799
183	0xbcf28783	-0.029605633
184	0xbd250fbf	-0.04029822
185	0x3da3740b	0.07981118
186	0x3fd477a7	1.6599015
187	0xc0069a83	-2.1031806
188	0xbe387dd3	-0.18016748
189	0x3ecb6cc4	0.3973142
190	0x3e4c067a	0.19924346
191	0xbdf2ed2c	-0.11861643
192	0xbda16863	-0.07881238
193	0x3d5ff6ba	0.054678656
194	0x3ebdfd10	0.37107134
195	0xbd52eb9e	-0.051494233
196	0x3ecd827d	0.40138617
197	0xbea804d4	-0.32816184
198	0xbc045fe3	-0.008079502
199	0x3df043b8	0.11731666
200	0xbdee2329	-0.116278
201	0xbe44924f	-0.19196437
202	0x3e0b6a71	0.13614823
203	0xbdc1a302	-0.094549194
204	0xbcdcc252	-0.026948128
205	0xbe74f6d5	-0.23922284
206	0x3d9144d8	0.07093209
207	0xbd60ae64	-0.05485381
208	0xbdf2c6f8	-0.118543565
209	0x3b1cfdb2	0.0023954925
210	0xbe30027d	-0.17188449
211	0x3d1676c0	0.036734343
212	0x3cd65c01	0.026166918
213	0x3db52963	0.088457845
214	0xbd2568ab	-0.040383022
215	0x3e22b6e7	0.15890084
216	0x3e649702	0.2232323
217	0x3d025ffa	0.03182981
218	0xbe16a302	-0.1471062
219	0x3da67ddf	0.08129477
220	0x3df7c53a	0.12098165
221	0x3b8c2ddc	0.004277928
222	0x3dfad05a	0.12246771
223	0x3d69ecc4	0.057110563
224	0xbe92e79b	-0.28692326
225	0x3e432eac	0.19060773
226	0x3dba795c	0.09105179
227	0x3d6e7da9	0.058225308
228	0x3ee40807	0.44537374
229	0xbeb97a86	-0.3622629
230	0xbefde7df	-0.49590966
231	0xbf6d2e83	-0.92649096
232	0x3e802ad6	0.2503268
233	0x3e3f215a	0.18665066
234	0x3f1ea0d4	0.61964154
235	0xbe8d5617	-0.27604744
236	0xbf418a0a	-0.75601256
237	0xbf7cd844	-0.98767495
238	0x3f8797c0	1.0593185
239	0x3f888293	1.0664848
240	0x3e86bfe0	0.26318264
241	0xbf36b42d	-0.71368676
242	0xbf4bb36a	-0.7957064
243	0xbf11073b	-0.5665166
244	0x3faade8e	1.3349168
245	0x3f8de011	1.1084005
246	0x3e0d12ee	0.13776752
247	0xbf2188c3	-0.63099307
248	0xbf7d3e13	-0.9892284
249	0xbefcde75	-0.4938847
250	0x3de64fda	0.11245699
251	0x3ec9fa6c	0.3944887
252	0x3f89955f	1.074871
253	0x3b5ed46a	0.003400112
254	0xbe94135b	-0.28921017
255	0x3ded1a78	0.11577314

network_body._body_endoder.seq_layers.0.bias f4 [20]
0	0xbd69b39c	-0.057056054
1	0x3a879d8e	0.0010346638
2	0x3d8c8db3	0.068629645
3	0xbd0198b5	-0.031639773
4	0xbd9d3ef4	-0.07678023
5	0x343f7990	1.7832485e-07
6	0xbd312e42	-0.043257006
7	0xbc753f44	-0.014968697
8	0x2fb922f8	3.367615e-10
9	0xbdb9e5e8	-0.09077054
10	0x3da4b5df	0.08042502
11	0xbd91034d	-0.07080708
12	0xbcbd2b34	-0.02309189
13	0xbd85e5b8	-0.06537956
14	0xbd520335	-0.05127259
15	0x0bde7ac3	8.5696e-32
16	0x3bd4011d	0.0064698593
17	0xbd2f69f4	-0.042825654
18	0x3d442a50	0.047891915
19	0xbd1f4f15	-0.038893778

network_body._body_endoder.seq_layers.2.weight f4 [20, 20]
0	0x3e21df7a	0.15807906
1	0x3f089da7	0.5336556
2	0xbc4e0ddc	-0.0125765465
3	0x3ec8766b	0.39152846
4	0xbe55158c	-0.20809
5	0x3d1df236	0.03856107
6	0x3f192225	0.59817725
7	0x3dc79fbc	0.09747264
8	0xbda20082	-0.07910253
9	0xbc8fd8f3	-0.017559504
10	0x3d2523fa	0.040317513
11	0xbe9d3eaa	-0.3071187
12	0x3d03a87a	0.032143094
13	0x3c0db424	0.008648906
14	0xbc7b77fc	-0.015348431
15	0xbcc90b63	-0.024541562
16	0x3e73f8f5	0.23825438
17	0xbe73aa1e	-0.23795363
18	0x3eb38110	0.35059404
19	0xbdd059dd	-0.1017339
20	0x3e8c4f2e	0.2740416
21	0x3e5e1788	0.21688664
22	0xbe3362ed	-0.17518206
23	0xbdc0630c	-0.09393892
24	0x3eb7967b	0.35856995
25	0xbc9ff21c	-0.019524626
26	0xbe749cdf	-0.23887967
27	0xbe59d14b	-0.21271245
28	0xbee7852b	-0.45218787
29	0xbd94dc8f	-0.07268631
30	0xbd8606d7	-0.06544273
31	0xbe94dab3	-0.29073104
32	0x3e201bde	0.1563563
33	0xbed8050e	-0.42191356
34	0x3d654657	0.055975284
35	0x3e22b9cf	0.15891193
36	0x3e1e3d0b	0.15452974
37	0x3e8acf41	0.27111247
38	0xbe038e54	-0.12847263
39	0xbe3b5a93	-0.1829627
40	0xbdb3e3ea	-0.087837055
41	0xbf161a46	-0.5863384
42	0xbdd2bfeb	-0.10290512
43	0xbcc50a1c	-0.024052672
44	0x3c0ba95d	0.008524266
45	0x3e1b8a50	0.15189481
46	0x3e169056	0.14703497
47	0xbc626cba	-0.013819868
48	0xbe3750a5	-0.17901857
49	0x3d940aeb	0.07228645
50	0x3d3e526f	0.046465334
51	0xbe955da2	-0.29173
52	0x3dfcb472	0.12339105
53	0xbca793a0	-0.020456135
54	0xbf07d704	-0.5306246
55	0xbeab7bff	-0.3349304
56	0xbc8568d5	-0.01628534
57	0xbeacccc7	-0.33749983
58	0xbe938af9	-0.28816965
59	0x3f1f9281	0.6233292
60	0xbf195ea3	-0.5991003
61	0xbe1af177	-0.15131174
62	0xbd119de8	-0.03555098
63	0x3e497c1d	0.19676252
64	0xbd7762a8	-0.06039682
65	0x3c664d13	0.014056462
66	0xbe956502	-0.29178625
67	0xbedb7a25	-0.42866626
68	0xbc7d2ed5	-0.01545306
69	0xbe91b00e	-0.28454632
70	0xbec2fdb8	-0.38084197
71	0xbcbdcf04	-0.023170002
72	0x3e94384b	0.28949198
73	0xbd11ad7b	-0.035565834
74	0x3e93076c	0.287166
75	0x3e807b8e	0.25094265
76	0x3efd62fd	0.49489585
77	0x3d8cad1d	0.06868956
78	0x3e8cbbd5	0.27487054
79	0x3df07051	0.11740173
80	0x3e947b16	0.29000157
81	0xbeb857c6	-0.36004466
82	0x3e7afd01	0.24510576
83	0x3d064c2f	0.032787498
84	0xbe449338	-0.19196784
85	0xbc4711a5	-0.012150203
86	0xbe1f3280	-0.15546608
87	0x3d8f27cf	0.06990015
88	0xbdbe4fbc	-0.09292552
89	0xbe5d6fa8	-0.21624625
90	0xbd70ed0a	-0.058819808
91	0xbec9b1b5	-0.39393392
92	0x3e085802	0.13314822
93	0x3e191e23	0.14952902
94	0x3e425480	0.18977547
95	0x3e69837f	0.22804068
96	0x3a607ddf	0.0008563678
97	0x3dce7278	0.10080427
98	0xbe1c9eb6	-0.15294918
99	0xbdae16d5	-0.085004486
100	0x3e6e72e4	0.23286015
101	0xbdc11a6e	-0.09428869
102	0xbe0fe28f	-0.14051269
103	0x3ebda380	0.37038803
104	0x3f3af527	0.7303032
105	0xbdc5d7d2	-0.09660305
106	0x3ed5533a	0.4166506
107	0xbe7c6e43	-0.24651437
108	0x3e20ad7f	0.15691184
109	0xbc848927	-0.01617868
110	0xbf626ac0	-0.8844414
111	0xbda5285f	-0.08064341
112	0xbbf38c32	-0.007432484
113	0xbe0c6641	-0.13710882
114	0xbca52e4f	-0.020163683
115	0x3eacfd79	0.33787134
116	0x3d096f49	0.033553395
117	0xbea181f4	-0.3154446
118	0x3eac956f	0.3370776
119	0x3db8ca21	0.09022928
120	0x3e5f5547	0.21809874
121	0x3e8a56d1	0.2701936
122	0xbd7d10e2	-0.06178368
123	0xbd091e00	-0.033475876
124	0xbef127a8	-0.47100568
125	0xbc15664e	-0.00911863
126	0x3e8ebdf5	0.278793
127	0xbe6addab	-0.22936122
128	0xbe39230a	-0.18079773
129	0x3e1ddb6c	0.15415734
130	0x3f16e9eb	0.5895068
131	0x3e38352e	0.17989036
132	0x3d434547	0.04767349
133	0xbeafb859	-0.34320334
134	0x3ef06d0f	0.46958205
135	0x3d0a04bd	0.033695925
136	0x3c3c18aa	0.01148049
137	0x3ece4c61	0.40292647
138	0x3c351baf	0.011053964
139	0xbd5e9898	-0.054344743
140	0xbe41e75c	-0.18935913
141	0xbe95f5fc	-0.29289234
142	0xbe1360cf	-0.14392398
143	0xbe14d552	-0.145345
144	0xbe86b90c	-0.26313055
145	0xbe83d129	-0.25745514
146	0x3cdc07d1	0.026859196
147	0xbc53303f	-0.012889921
148	0x3d9b01de	0.075687155
149	0xbe2d05b8	-0.16896713
150	0xbbefda1f	-0.007319703
151	0x3e45777c	0.19283861
152	0x3e038d7a	0.12846938
153	0x3d8ba35f	0.0681827
154	0x3e209e39	0.15685357
155	0xbcfc0307	-0.030763162
156	0xbdbe847e	-0.09302615
157	0xbea3bbbb	-0.31979164
158	0xbe9c0256	-0.30470532
159	0x3e71c981	0.23612024
160	0x3d31dfe5	0.043426413
161	0xbd0d13e4	-0.034442797
162	0x3d892e68	0.066983044
163	0xbf256bd2	-0.64617646
164	0x3e384c75	0.17997916
165	0x3db44163	0.08801534
166	0xbdb78465	-0.08960799
167	0xbdcfc442	-0.10144855
168	0xbdc51781	-0.09623624
169	0xbe316d83	-0.17326932
170	0xbe6738f0	-0.22580314
171	0x3e22b156	0.15887961
172	0xbedaa2c4	-0.42702305
173	0x3dcc3bff	0.09972381
174	0x3d3771e2	0.04478634
175	0x3e304ca8	0.17216742
176	0xbe7eef5c	-0.24895996
177	0x3ed39810	0.41326952
178	0xbdac3c73	-0.08409967
179	0xbf0899e3	-0.5335981
180	0xbe490329	-0.19630112
181	0xbc83581f	-0.01603323
182	0xbe4294ca	-0.19002071
183	0xbdf4608a	-0.11932476
184	0x3dfa30b4	0.12216321
185	0xbe0083b8	-0.12550247
186	0xbc25a171	-0.010109291
187	0xbdfda4bd	-0.12384937
188	0x3d4ce69f	0.050024625
189	0x3e6b603d	0.2298593
190	0xbd9279c1	-0.07152129
191	0xbbb41bae	-0.0054964637
192	0x3e99825b	0.29982266
193	0x3e22766a	0.15865484
194	0xbdcee367	-0.10101967
195	0xbf14cecb	-0.5812804
196	0xbd72328a	-0.05913023
197	0x3ea59e7f	0.32347485
198	0xbe3de43f	-0.185441
199	0xbda0ff2a	-0.07861169
200	0xbeb379f0	-0.35053968
201	0xbdaaad29	-0.08333809
202	0xbeb2c2d6	-0.34914273
203	0xbe084567	-0.13307725
204	0xbe9bf3de	-0.30459493
205	0x3d96e2b4	0.07367459
206	0x3e6d9f7c	0.2320537
207	0xbdaedff0	-0.085388064
208	0x3f2275e2	0.63461125
209	0xbdfdd34f	-0.123938195
210	0x3e8f56f7	0.27996036
211	0xbd1d0047	-0.038330343
212	0x3e08a86e	0.13345501
213	0x3d5733fa	0.052539803
214	0xbe9e4c5a	-0.30917627
215	0xbe183225	-0.14862879
216	0xbd6c3b2c	-0.05767362
217	0x3d648b39	0.055796836
218	0xbdf94aa1	-0.121724375
219	0x3eac9252	0.33705384
220	0xbf2e706f	-0.6814031
221	0x3ebc3f0f	0.3676686
222	0x3c9d3761	0.019191446
223	0x3ee9901d	0.45617762
224	0xbe716d95	-0.23576958
225	0xbe5f9bda	-0.21836796
226	0xbe6a3cb3	-0.22874717
227	0xbea56dcc	-0.3231033
228	0xbdd09251	-0.10184158
229	0x3e323299	0.17402114
230	0x3e609c19	0.21934547
231	0xbdb5ccb6	-0.08876936
232	0xbdf1c0f7	-0.11804383
233	0x3eb2adc7	0.34898207
234	0x3e2cf01e	0.16888472
235	0xbdd33c3b	-0.103142224
236	0x3e930e88	0.28722024
237	0xbb639eba	-0.003473206
238	0x3e114975	0.14188178
239	0x3e699fe7	0.22814904
240	0x3ebd49a9	0.3697026
241	0xbdd22528	-0.10260993
242	0x3e8366c2	0.25664335
243	0x3c0acd35	0.008471777
244	0xbe8e2b5d	-0.2776746
245	0xbe4e77da	-0.20162907
246	0xbf268de2	-0.65060246
247	0x3dc9689d	0.098344065
248	0xbb66499e	-0.0035139094
249	0x3d09b56d	0.033620287
250	0xbf0b9668	-0.54526377
251	0xbe0162f2	-0.12635401
252	0x3d3fd24a	0.046831407
253	0xbd812074	-0.06305018
254	0xbda1371e	-0.07871841
255	0x3d6682ec	0.0562772

network_body._body_endoder.seq_layers.2.bias f4 [20]
0	0x3d5f68a0	0.054543138
1	0x3ce3a62a	0.027789194
2	0xbddb5339	-0.10709233
3	0x3dba6056	0.09100406
4	0x3dc522ce	0.09625779
5	0xbda01202	-0.07815935
6	0xbe1478b8	-0.14499176
7	0x3d084d4a	0.033276834
8	0xbcddbeb6	-0.027068477
9	0x3cb770b3	0.022392606
10	0xbc2801e2	-0.010254355
11	0x3b4b17a4	0.0030989433
12	0xbc5d4592	-0.013505356
13	0xbc212535	-0.009835531
14	0x3d41f55e	0.04735314
15	0xbd5ac97b	-0.053414803
16	0xbd1372e8	-0.035998255
17	0xbd03bdfa	-0.032163598
18	0xbd3d183e	-0.046165697
19	0xbd6aa51d	-0.05728637

action_model._discrete_distribution.branches.0.weight f4 [2, 20]
0	0xbecba6e6	-0.3977577
1	0xbea5edbb	-0.32407936
2	0x3d7ef455	0.062244732
3	0x3f0ac3b7	0.5420489
4	0x3e7a4ceb	0.24443404
5	0xbe941d8b	-0.2892879
6	0xba99d616	-0.0011736776
7	0x3c6b4f60	0.014362186
8	0xbeb468a9	-0.352361
9	0xbd4ed3b3	-0.05049486
10	0xbe391197	-0.18073116
11	0xbe012761	-0.12612678
12	0x3d447055	0.04795869
13	0x3d1cb274	0.038256124
14	0x3ecf55f6	0.4049527
15	0xbfceed47	-1.6166161
16	0xbee84101	-0.45362094
17	0x3eb9eac3	0.3631192
18	0x3f004c67	0.5011658
19	0x3e41846f	0.18898176
20	0x3ebbba6e	0.36665672
21	0x3eb3958f	0.35075042
22	0xbd8d4220	-0.06897378
23	0xbef8d6ae	-0.48601288
24	0xbe97dbb4	-0.29659808
25	0x3eab3ca7	0.33444712
26	0xbc21e1a9	-0.009880462
27	0x3b226412	0.0024778885
28	0x3eb92249	0.3615897
29	0x3cc0d2b9	0.02353798
30	0x3e13241f	0.14369248
31	0x3e1d0e79	0.15337552
32	0xbd74ee9a	-0.05979786
33	0x3828e3a5	4.026633e-05
34	0xbec838d2	-0.3910585
35	0x3fcb71ea	1.5894139
36	0x3ef98988	0.4873774
37	0xbeccdddf	-0.40013024
38	0xbf0ba2d9	-0.5454536
39	0xbe16517f	-0.14679526

action_model._discrete_distribution.branches.0.bias f4 [2]
0	0xbce549f2	-0.027989361
1	0x3ce574c1	0.028009774

action_model._discrete_distribution.branches.1.weight f4 [3, 20]
0	0xbeac078f	-0.33599517
1	0x3d91e048	0.071228564
2	0x3eaa34d8	0.33243442
3	0x3e8b92c7	0.2726042
4	0x3ed9b6bc	0.42522228
5	0x3e591a28	0.21201384
6	0xbde2d373	-0.11075487
7	0xbaa49d10	-0.0012559015
8	0x3d2b623d	0.041841734
9	0xbe07ad03	-0.13249592
10	0xbe8a0919	-0.26960066
11	0xbca9af50	-0.020713478
12	0x3e807ff6	0.25097626
13	0xbd09da8d	-0.033655692
14	0x3d935cc8	0.07195431
15	0x3f0d1325	0.5510734
16	0x3f171a53	0.5902454
17	0x3df77610	0.120830655
18	0x3d269984	0.040673748
19	0x3dcc5a70	0.09978187
20	0xbd2e4340	-0.042544603
21	0x3e0b3f2f	0.13598321
22	0xbf098f67	-0.5373444
23	0xbe202986	-0.1564084
24	0x3f2e5d5f	0.68111223
25	0xbdb63483	-0.088967346
26	0x3d200b99	0.03907356
27	0x3cb1b28d	0.021691585
28	0xbd3befd7	-0.045883026
29	0xbd8b21be	-0.06793545
30	0x3bcccfa4	0.0062503386
31	0x3dbcaa91	0.092122205
32	0xbeae1c97	-0.34006187
33	0x3c2c72b5	0.010525395
34	0xbd637435	-0.055530746
35	0x3f39946e	0.7249211
36	0xbe8c8d94	-0.27451766
37	0x3dd07ca5	0.10180024
38	0x3de64ce6	0.11245136
39	0xbd744aa5	-0.0596415
40	0x3e38de76	0.18053612
41	0xbe15aa07	-0.14615642
42	0x3e67df91	0.22643878
43	0xbcae3680	-0.021266222
44	0xbea85596	-0.32877797
45	0xbdbc0df6	-0.0918235
46	0x3dfbb84d	0.12291012
47	0x3d44d6b7	0.04805633
48	0x3e884876	0.26617783
49	0x3e09b959	0.13449611
50	0x3e8169cd	0.25276032
51	0xbdee501a	-0.11636372
52	0x3db79276	0.08963482
53	0x3d3d9334	0.046282962
54	0xbe3f3e54	-0.1867612
55	0xbf18c1cb	-0.59670705
56	0xbeef4b5e	-0.46737188
57	0xbd6d0e59	-0.05787501
58	0x3dda7ee3	0.10668733
59	0x3d8e3c19	0.069450565

action_model._discrete_distribution.branches.1.bias f4 [3]
0	0xbd07d91e	-0.033166043
1	0x3be640e0	0.0070267767
2	0x3dd8276f	0.10554396
