results/lasttest/AI Car/AI Car-15780.pt (torch, 100972 bytes, 83 tensors)

discrete_act_size_vector f4 [1, 2]
0	0x40000000	2.0
1	0x40400000	3.0

network_body._body_endoder.seq_layers.0.weight f4 [20, 38]
0	0x3e524183	0.20532803
1	0x3cf16c5a	0.029470611
2	0x3e2bd0f8	0.16778934
3	0x3e141afd	0.1446342
4	0xbdbb461c	-0.09144232
5	0xbe226763	-0.15859751
6	0xbe361d5c	-0.17784637
7	0xbd55a735	-0.052161414
8	0xbbc5a737	-0.0060318965
9	0xbcd67a0a	-0.02618124
10	0xbe83c617	-0.25737068
11	0x3e19b99f	0.15012215
12	0xbb939838	-0.00450423
13	0x3e662e7e	0.22478673
14	0x3e7cef12	0.24700573
15	0x3e35e6c3	0.1776381
16	0x3e5192ac	0.20466107
17	0xbc11bef6	-0.008895626
18	0x3d34ce1c	0.044141874
19	0xbdbe680c	-0.09297189
20	0xbe821f95	-0.2541472
21	0x3dcdc26e	0.1004685
22	0x3ca338fe	0.019924637
23	0xbe1d8d4c	-0.15385932
24	0xbd6c39a5	-0.05767216
25	0xbe536592	-0.20644215
26	0xbdf69a04	-0.12041095
27	0xbd317e23	-0.043333184
28	0xbddca920	-0.107744455
29	0x3e686f55	0.2269872
30	0xbe0a99a6	-0.13535175
31	0xbccfa36a	-0.025346477
32	0xbdea492e	-0.11439739
33	0x3e0ce4e6	0.13759193
34	0xbd528a2b	-0.0514013
35	0xbd2346a6	-0.039862297
36	0x3e9e5678	0.30925345
37	0xba087f67	-0.0005206973
38	0x3de40b82	0.111350074
39	0x3e6993f6	0.22810349
40	0x3e337e9c	0.17528766
41	0x3ea115fa	0.3146208
42	0x3e43d0c9	0.19122614
43	0x3e2ac38e	0.1667616
44	0x3e3a8ba1	0.18217327
45	0x3e1f2400	0.15541077
46	0x3c9e09af	0.019291727
47	0x3d9dac5b	0.0769889
48	0x3c5f437a	0.0136269275
49	0xbe08f70a	-0.13375488
50	0xbd983817	-0.07432573
51	0xbedc0092	-0.42969185
52	0x3ece7f77	0.40331623
53	0xbda9d060	-0.082916975
54	0xbca80fa9	-0.02051528
55	0x3df52674	0.11970225
56	0x3eaf83da	0.34280282
57	0xbe0b449a	-0.13600388
58	0xbc67993c	-0.014135655
59	0xbe02aad9	-0.12760486
60	0xbe24333f	-0.16035174
61	0x3e82c0a3	0.25537595
62	0x3de62845	0.112381496
63	0xbd2341ba	-0.039857604
64	0x3e583a16	0.21115908
65	0x3e7fa5be	0.2496557
66	0xbeba8b2b	-0.36434302
67	0xbbcd45d9	-0.00626443
68	0xbddab509	-0.10679061
69	0xbd694fb5	-0.05696078
70	0x3e27700f	0.1635134
71	0x3db4a7e7	0.08821087
72	0x3e3a25f7	0.18178545
73	0x3b94830e	0.0045322245
74	0x3d5e90b0	0.054337204
75	0x3dec7c7a	0.115471795
76	0xbdd047bc	-0.10169932
77	0x3e44d3ec	0.19221467
78	0x3c4ae7b8	0.012384348
79	0xbb3e411b	-0.0029030505
80	0x3d5763c9	0.052585397
81	0xbbd0e2f6	-0.006374712
82	0x3c3ef339	0.0116546685
83	0xbe839cf2	-0.25705677
84	0xbd323f51	-0.043517414
85	0xbddccefa	-0.10781665
86	0xbe347b8e	-0.17625257
87	0x3da31167	0.079623036
88	0xbda6b120	-0.08139253
89	0x3d023b72	0.031794973
90	0x3d527457	0.05138048
91	0xbcb28f4f	-0.02179685
92	0x3cdded26	0.02709062
93	0xbdf85c29	-0.12126953
94	0xbd6c1e74	-0.05764623
95	0x3dba501e	0.090973124
96	0x3de4ee49	0.11178262
97	0x3db53abd	0.08849094
98	0xbe89c9d3	-0.26911792
99	0x3d683d37	0.056699004
100	0xbe1afc82	-0.15135387
101	0xbe318ec7	-0.17339621
102	0x3e433694	0.19063789
103	0xbe020777	-0.1269816
104	0xbe2ba196	-0.16760859
105	0x3dc5cc23	0.096580766
106	0x3de274ea	0.11057456
107	0xbd94c9ad	-0.07265029
108	0x3e2807b3	0.16409187
109	0x3e08898d	0.13333721
110	0xbe03cfd2	-0.12872246
111	0xbcb29241	-0.021798255
112	0xbda09630	-0.07841146
113	0xbe0fe5c9	-0.140525
114	0xbdb5b784	-0.088728935
115	0x3e61072b	0.2197539
116	0x3d29dbc1	0.04146934
117	0x3da91f41	0.08257914
118	0xbd53ea43	-0.05173708
119	0x3da45800	0.08024597
120	0xbd381fb9	-0.044952128
121	0x3e868981	0.26276782
122	0xbe992e89	-0.29918316
123	0x3ea6b6aa	0.32561237
124	0x3da22148	0.07916504
125	0xbd0470e4	-0.032334223
126	0xbdfcb9f5	-0.12340156
127	0xbd11fdbc	-0.03564237
128	0xbd006eb4	-0.031355575
129	0xbe3c5cf1	-0.1839483
130	0x3d892585	0.066966094
131	0x3d843e0a	0.064571455
132	0x3dcd38a3	0.10020568
133	0xbd88effe	-0.066864
134	0xbca1bec1	-0.019744279
135	0xbe640c65	-0.22270353
136	0x3b967123	0.0045911237
137	0x3c8eed47	0.017447127
138	0x3d2878a4	0.041130677
139	0xbe4a8f12	-0.1978114
140	0x3dd65e20	0.10467172
141	0x3e399f0b	0.18127076
142	0xbd2b642c	-0.04184358
143	0x3e870704	0.2637254
144	0xbd26d9b5	-0.040734965
145	0x3dbb6109	0.09149367
146	0xbcf9db52	-0.030500088
147	0x3bd1a48e	0.0063977903
148	0xbe010015	-0.12597688
149	0xbe10a103	-0.14123921
150	0x3dcf8daa	0.10134442
151	0x3d661db8	0.056180686
152	0xbdd373ac	-0.10324797
153	0xbe93ecf8	-0.2889173
154	0xbccfbc50	-0.02535835
155	0x3ed2ed46	0.4119665
156	0x3d12d5ec	0.035848543
157	0xbd573fd4	-0.052551106
158	0xbec7c377	-0.39016315
159	0x3e02936b	0.12751548
160	0xbe2ce366	-0.1688362
161	0xbe857e3b	-0.2607287
162	0x3d954dbb	0.072902165
163	0x3db400e7	0.087892346
164	0x3ea582c1	0.3232632
165	0xbd8dc213	-0.06921782
166	0x3dba5bc9	0.09099538
167	0xbebe4da5	-0.37168613
168	0xbd01751d	-0.03160583
169	0xbd0db393	-0.034595083
170	0x3dd58a5c	0.104267806
171	0xbe6128f3	-0.21988277
172	0x3b9338d0	0.0044928566
173	0x3e167c53	0.14695863
174	0xbecb1bee	-0.39669746
175	0xbe26c0bb	-0.16284458
176	0x3d9d7a08	0.07689291
177	0x3d36172c	0.044455692
178	0xbe3c0195	-0.18359978
179	0x3df2022d	0.11816821
180	0x3e8c42a4	0.27394593
181	0x3ccd92cc	0.025094412
182	0xbe9a8c4f	-0.30185172
183	0x3cf717b4	0.03016267
184	0xbe798e22	-0.24370626
185	0x3cb8fbc1	0.022580983
186	0xbe057867	-0.13034211
187	0xbd7b6ec2	-0.061384924
188	0xbde24556	-0.11048381
189	0xbe45f775	-0.19332679
190	0xbc810929	-0.015751438
191	0xbcb5af03	-0.022178179
192	0x3d01b0fc	0.031662926
193	0x3d80c1d9	0.062869735
194	0xbd0bfb8c	-0.03417544
195	0xbe8ebade	-0.27876943
196	0x3e1e4f77	0.15460001
197	0xbb8de635	-0.0043304213
198	0x3e4b4255	0.19849522
199	0xbd83d0d7	-0.064363174
200	0xbda0b935	-0.078478254
201	0xbe64413b	-0.22290508
202	0xbdf5fb77	-0.12010854
203	0xbe7f5664	-0.24935299
204	0xbc34fa7f	-0.011046051
205	0x3dcb0add	0.099141814
206	0x3dfacbc1	0.12245894
207	0xbe1ff466	-0.15620574
208	0xbdde37c0	-0.10850477
209	0x3ca24f2e	0.019813146
210	0xbe101a05	-0.14072426
211	0xbe841e87	-0.2580454
212	0xbdb3352e	-0.087503776
213	0x3ca21a88	0.019788042
214	0xbd0aba06	-0.033868812
215	0xbc2d41de	-0.010574786
216	0x3bde6799	0.006787252
217	0x3e357570	0.1772058
218	0x3e62bc7c	0.22142214
219	0xbde45afb	-0.11150166
220	0xbb89daa1	-0.004206971
221	0x3c5a8a6f	0.013338669
222	0x3d8e810f	0.0695821
223	0xbb978021	-0.0046234285
224	0x3b51adf0	0.0031994544
225	0xbd15bd98	-0.036557764
226	0xbe0858a6	-0.13315067
227	0x3ec56057	0.38550064
228	0x3e3f635c	0.18690246
229	0x3e67510f	0.22589515
230	0xbe291803	-0.16513066
231	0x3d5a65ae	0.053319626
232	0x3e653947	0.22385131
233	0xbe15e635	-0.14638598
234	0xbd2dbe20	-0.042417645
235	0xbe6152d1	-0.22004248
236	0x3e74e2d6	0.23914656
237	0xbe8e08a5	-0.2774097
238	0xbe6fd344	-0.23420435
239	0x3e2087c8	0.15676796
240	0xbb779747	-0.0037779377
241	0xbdeff4e7	-0.11716633
242	0x3d22f476	0.039783917
243	0xbe045f37	-0.12926947
244	0xbdeaa348	-0.11456925
245	0x3d8375ff	0.0641899
246	0xbc0c7b1b	-0.0085742725
247	0x3bb0ca31	0.005395197
248	0x3d8ae044	0.067810565
249	0x3dff6d13	0.12471976
250	0x3dc9ecd9	0.09859628
251	0x3d2babc1	0.041911844
252	0xbd7b13b6	-0.061298095
253	0xbdff7e32	-0.12475242
254	0x3debe142	0.11517574
255	0x3d95c7bc	0.07313487

network_body._body_endoder.seq_layers.0.bias f4 [20]
0	0xbb3b7719	-0.0028604923
1	0x00000000	0.0
2	0x11a6c972	2.6314332e-28
3	0x2e9214fe	6.64304e-11
4	0xbc488bad	-0.012240333
5	0x3c200b13	0.009768265
6	0x3c06662d	0.008203072
7	0xbbcf247a	-0.006321487
8	0x15db5ef6	8.860322e-26
9	0xbbe30b4c	-0.006928837
10	0xbc0f51b4	-0.008747507
11	0xb6f88c8d	-7.407338e-06
12	0x3b6a6f6e	0.0035771984
13	0x3c998cdc	0.018743925
14	0x00000000	0.0
15	0xbc8b1f75	-0.016982773
16	0x3b2922f2	0.0025808183
17	0xbb8e3589	-0.004339878
18	0x2ebaef09	8.500762e-11
19	0x3c883204	0.016625412

network_body._body_endoder.seq_layers.2.weight f4 [20, 20]
0	0x3b9d5ca8	0.0048023053
1	0xbe06b604	-0.13155371
2	0xbe02f76e	-0.127897
3	0x3d54a45b	0.051914554
4	0x3e808be7	0.25106737
5	0x3edc7f7e	0.4306602
6	0x3cda81ba	0.026673187
7	0xbe316c23	-0.17326407
8	0x3ecb742f	0.3973708
9	0x3de25e1b	0.110531054
10	0xbd09ad71	-0.033612672
11	0x3def0f1a	0.11672802
12	0x3d5c05fa	0.053716637
13	0xbeb73d73	-0.3578907
14	0x3e2aea5b	0.16690962
15	0x3ea5a9ab	0.3235601
16	0xbea2fb7a	-0.31832486
17	0xbde7fb78	-0.11327261
18	0xbe06a93c	-0.13150495
19	0xbf067eac	-0.52537036
20	0x3c901a71	0.017590733
21	0x3d1943c3	0.03741814
22	0x3da707f6	0.08155815
23	0xbd33cb3e	-0.043895
24	0x3e2004a1	0.15626766
25	0x3bbabe6d	0.00569897
26	0xbd8a0357	-0.06738918
27	0x3e82819b	0.25489506
28	0xbbe4b23e	-0.006979256
29	0x3ed1e29c	0.40993202
30	0x3e1f5c69	0.15562595
31	0x3e949c85	0.29025665
32	0xbe2d20fd	-0.16907115
33	0x3e867201	0.26258853
34	0xbd8ea52c	-0.06965098
35	0x3d08148d	0.033222724
36	0xbe3a13f8	-0.1817168
37	0x3ed9bed5	0.42528406
38	0x3e4aa663	0.19790034
39	0x3eb2fec8	0.34960008
40	0x3ec58aef	0.3858256
41	0x3e73a6b6	0.23794064
42	0xbe7f5914	-0.24936324
43	0x3e1b596c	0.1517083
44	0x3e5b9581	0.2144375
45	0xbd788ce0	-0.060681224
46	0xbde0d1f7	-0.109775476
47	0x3df72812	0.1206819
48	0xbf022b68	-0.5084748
49	0xbf13cca1	-0.57734114
50	0x3e483019	0.19549598
51	0xbebe1606	-0.37126178
52	0x3f1383b5	0.57622844
53	0xbd71efcf	-0.05906659
54	0x3df92092	0.121644154
55	0x3e844570	0.25834227
56	0xbddd72f1	-0.10812939
57	0x3d927282	0.07150747
58	0xbe16a5b4	-0.14711648
59	0xbe94222a	-0.28932315
60	0xbcd42617	-0.025897069
61	0xbe03bd60	-0.1286521
62	0x3d9292c6	0.07156901
63	0x3cf66af5	0.030080298
64	0xbe588cde	-0.21147487
65	0xbd10f75a	-0.035392143
66	0x3e869be2	0.26290804
67	0x3ee22f6b	0.44176802
68	0x3ce4fefd	0.02795362
69	0x3e0e2c83	0.13884167
70	0x3ea5efc9	0.32409504
71	0xbe4c4fc3	-0.19952302
72	0xbe475209	-0.19464888
73	0xbe5d1a1e	-0.21591994
74	0x3e4c1a68	0.19931948
75	0xbe4d7716	-0.20064959
76	0x3e8978ea	0.26850063
77	0xbe7acf2e	-0.24493095
78	0xbed8ff85	-0.42382446
79	0x3deb38ab	0.11485418
80	0x3c821d2c	0.01588305
81	0xbc191c8b	-0.009345184
82	0x3f0766cc	0.5289123
83	0x3ea3217c	0.31861484
84	0x3ec7e55c	0.39042175
85	0xbeabc890	-0.33551455
86	0xbe0931c4	-0.1339789
87	0x3d645ba4	0.055751458
88	0xbc3c6ceb	-0.011500577
89	0x3daea222	0.08527018
90	0x3e5f897c	0.2182979
91	0xbdf7d68b	-0.12101468
92	0x3ceec774	0.029147841
93	0xbdfaddd2	-0.1224934
94	0xbe928867	-0.28619692
95	0x3de22250	0.11041701
96	0x3e09addd	0.1344523
97	0x3e460b60	0.19340277
98	0x3e35b707	0.177456
99	0xbe942fb6	-0.2894265
100	0x3d9f8735	0.077894606
101	0x3ef92090	0.48657656
102	0x3e862f69	0.26208046
103	0x3dfe4ce2	0.12417008
104	0xbe94823a	-0.29005605
105	0xbbf8a53f	-0.0075880582
106	0x3ce6f887	0.028194679
107	0xbcb3bed4	-0.02194158
108	0x3dd6b198	0.10483092
109	0xbe1ebd9f	-0.15502022
110	0xbcb5f8e3	-0.022213405
111	0x3e812a4e	0.25227588
112	0xbe1de307	-0.15418635
113	0xbe051dec	-0.12999696
114	0xbe578119	-0.2104534
115	0x3d16fc05	0.03686144
116	0x3e04d220	0.12970781
117	0xbea7b0e4	-0.32752144
118	0xbcd39ff5	-0.02583311
119	0x3e9b0727	0.30278894
120	0x3ec58552	0.38578278
121	0xbdbaaefd	-0.091154076
122	0x3c9c9abc	0.019116752
123	0xbe446f30	-0.1918304
124	0x3d702d00	0.058636665
125	0x3e40dd59	0.18834437
126	0x3e3a8fa8	0.18218863
127	0x3eb9b919	0.3627403
128	0x3e5395db	0.20662634
129	0xbe2e35f6	-0.17012772
130	0x3d83eced	0.064416744
131	0xbe5d166c	-0.21590585
132	0x3dc4c6bd	0.09608219
133	0x3dc5afc2	0.09652664
134	0x38e2ffcf	0.00010824168
135	0xbe7441d0	-0.2385323
136	0xbdb62a21	-0.08894754
137	0x3df68d72	0.12038697
138	0xbe4d6053	-0.20056276
139	0x3e72ee1a	0.23723641
140	0x3e811eea	0.25218898
141	0x3e0dce16	0.13848147
142	0xbe8406e3	-0.25786504
143	0xbd733a70	-0.059381902
144	0xbdbd5d29	-0.092462845
145	0xbc597fae	-0.01327507
146	0x3e689200	0.22711945
147	0x3bc4abb9	0.0060019162
148	0xbe2bd853	-0.1678174
149	0xbd6a5fc3	-0.05722023
150	0x3e0b2072	0.13586596
151	0x3ed9422c	0.42433298
152	0xbec693ce	-0.3878464
153	0xbe141c4c	-0.1446392
154	0x3e92092f	0.28522632
155	0x3e45098b	0.19241922
156	0x3dc73c23	0.09728267
157	0xbb9e512f	-0.004831455
158	0x3e7954a5	0.24348696
159	0xbc384c1d	-0.011248616
160	0x3e652aa4	0.22379547
161	0x3dc59139	0.0964684
162	0x3e8af11d	0.2713708
163	0xbe2c498e	-0.16824934
164	0x3e0b966f	0.13631605
165	0xbd697976	-0.0570006
166	0x3ed33db0	0.41258
167	0xbe28f93d	-0.16501327
168	0x3e1f7ce4	0.15574986
169	0xbec0fff7	-0.37695286
170	0xbd803a5f	-0.062611334
171	0xbe4d5733	-0.20052795
172	0x3d0ca79d	0.034339536
173	0x3d8fbc91	0.07018388
174	0xbda253e6	-0.079261586
175	0x3ed2fc3e	0.4120807
176	0xbc8779a2	-0.016537491
177	0xbe0b7d88	-0.13622105
178	0x3ea11ae7	0.31465837
179	0x3d630fae	0.055434875
180	0x3e01de0f	0.12682365
181	0xbe0bb7ee	-0.13644382
182	0x3e0a5e59	0.13512553
183	0x3e92701c	0.28601158
184	0xbe88f4a7	-0.26749155
185	0x3d44294d	0.04789095
186	0xbe915041	-0.2838154
187	0x3dad17b1	0.084517844
188	0xbeb48ed4	-0.3526522
189	0xbdec85d2	-0.11548962
190	0xbd0e7dfc	-0.034788117
191	0x3e2305c3	0.15920167
192	0xbcd405b3	-0.025881624
193	0xbee69ec5	-0.45043007
194	0xbe41a880	-0.18911934
195	0xbdcc3d46	-0.099726245
196	0xbe91316c	-0.28358018
197	0x3db8d585	0.090251006
198	0x3e8e9615	0.27848879
199	0xbe90592f	-0.28193042
200	0xbe8b221d	-0.27174464
201	0x3d1dd79e	0.038535707
202	0x3ec68ce2	0.3877936
203	0xbe5db805	-0.21652229
204	0x3c8d8393	0.017274654
205	0x3dbe2642	0.09284641
206	0x3d37e770	0.04489845
207	0x3d856315	0.06513039
208	0x3f299e2d	0.6625698
209	0xbd3bc3c6	-0.045841
210	0x3e1f8b26	0.15580425
211	0xbce4d5b4	-0.027933933
212	0x3ef1f1d9	0.47254828
213	0xbe78fcb9	-0.24315156
214	0xbdaff106	-0.085908934
215	0xbe35ab14	-0.17741042
216	0x3e49f1b0	0.19721103
217	0x3d9247d7	0.071426086
218	0x3d8a9f64	0.067686826
219	0x3c82110a	0.015877265
220	0xbea9249b	-0.3303574
221	0xbdacc9cd	-0.08436928
222	0x3e99bec9	0.3002837
223	0xbe926758	-0.2859447
224	0x3da815b2	0.08207263
225	0xbeeaef70	-0.458858
226	0x3e874837	0.26422283
227	0xbdb8b10c	-0.09018144
228	0xbdfcd320	-0.123449564
229	0xbe1cbec8	-0.15307152
230	0xbe69b91d	-0.22824521
231	0x3d05bb41	0.032649282
232	0xbd9c91d5	-0.07645003
233	0x3e427d0d	0.18993016
234	0xbe2c1330	-0.16804194
235	0x3e331e08	0.17491925
236	0xbd75b862	-0.059990294
237	0xbe7fd9f3	-0.24985485
238	0xbe3e0563	-0.18556742
239	0x3b3d1a44	0.0028854767
240	0x3e8ed856	0.27899426
241	0xbdc2d1c7	-0.09512668
242	0x3ec622eb	0.38698515
243	0xbeb730f2	-0.3577953
244	0x3d8923dc	0.06696293
245	0x3ec91e44	0.39280903
246	0xbe8b27f4	-0.2717892
247	0xbdf43fec	-0.11926255
248	0x3d22f5d9	0.03978524
249	0xbe72351e	-0.23653075
250	0xbd16a35f	-0.036776897
251	0x3e2285f9	0.15871419
252	0xbe1e5a43	-0.1546412
253	0xbdc8875c	-0.09791443
254	0x3d74281f	0.059608575
255	0x3e881374	0.26577342

network_body._body_endoder.seq_layers.2.bias f4 [20]
0	0x3bdf73b2	0.006819212
1	0x3c0cca66	0.008593177
2	0x3c062d5a	0.008189524
3	0xbb6bc867	-0.0035977603
4	0xbc96695f	-0.018360792
5	0xa71e637c	-2.1980835e-15
6	0x3c86195b	0.016369512
7	0x2b59509e	7.7205766e-13
8	0x3c89b08b	0.016807815
9	0x00000000	0.0
10	0x3bac86e6	0.0052651046
11	0xba906f82	-0.001101956
12	0x8f2585d6	-8.160904e-30
13	0x3bd40f52	0.006471553
14	0x2b4c7988	7.264402e-13
15	0x3c5c5b3e	0.013449488
16	0x3b96791c	0.004592074
17	0x00000000	0.0
18	0xbbe9cc78	-0.0071349703
19	0xbc9414a2	-0.018076245

action_model._discrete_distribution.branches.0.weight f4 [2, 20]
0	0xbca5db88	-0.020246282
1	0xbcf2e8d7	-0.029652042
2	0xbc744355	-0.014908631
3	0xbbb1c808	-0.005425457
4	0xbc5bbcdd	-0.013411728
5	0x3c581a22	0.013189824
6	0x3c816adf	0.01579803
7	0x3b7b2bc8	0.0038325656
8	0xbe138546	-0.14406309
9	0xbcecd022	-0.02890784
10	0xbd81c7b3	-0.06336918
11	0x3c01e3ed	0.007927877
12	0xbc2e2edf	-0.010631292
13	0xbb4b544d	-0.003102559
14	0x3c52bdcd	0.012862635
15	0xbc72858b	-0.014802347
16	0x3c829ac1	0.015942933
17	0xba6e2165	-0.00090839557
18	0x3c01ac1a	0.007914567
19	0xbcfa7631	-0.030573936
20	0x3b59d553	0.0033238723
21	0x3c3e41b9	0.011612349
22	0xbce2de3f	-0.027693866
23	0x3d01cd86	0.031690143
24	0xbc6b82ab	-0.014374415
25	0x3d465014	0.048416212
26	0xbac8359c	-0.0015274766
27	0xbd08e602	-0.033422478
28	0x3d18065f	0.03711545
29	0xbc95b221	-0.018273415
30	0x3c96e732	0.01842079
31	0xbc6ffd31	-0.014647768
32	0xbc58ae70	-0.013225183
33	0x3affeb84	0.0019525145
34	0xbadb3ca5	-0.0016726448
35	0x3cb7b9a5	0.02242739
36	0x3c2a88d3	0.010408598
37	0xbcfb81b3	-0.030701494
38	0x3c316ac9	0.010828682
39	0x3d2589e5	0.04041471

action_model._discrete_distribution.branches.0.bias f4 [2]
0	0xbc0baaad	-0.008524579
1	0x3bfceb98	0.0077185147

action_model._discrete_distribution.branches.1.weight f4 [3, 20]
0	0xbc3befa6	-0.011470711
1	0x3d273569	0.04082242
2	0x3c7fddc6	0.01561684
3	0x3bf7e89e	0.007565572
4	0xbc4a3303	-0.012341264
5	0x3c8957fb	0.016765585
6	0x3c3ed9f2	0.011648642
7	0xba710725	-0.0009194485
8	0x3c74e316	0.01494672
9	0x3bcc5d2f	0.0062366943
10	0x3c9edca5	0.01939232
11	0xbb521e6d	-0.0032061592
12	0xbc6c286b	-0.014413933
13	0x3cabaf77	0.020957692
14	0xbcb7ec64	-0.022451587
15	0x3cb6527d	0.02225613
16	0x3b4525e1	0.0030082392
17	0x3c9864a3	0.018602675
18	0xbcbf05c7	-0.023318185
19	0xbbe1093b	-0.0068675554
20	0x3c2051e5	0.00978515
21	0x3c9d8cf3	0.019232249
22	0xbd41de08	-0.047330886
23	0xbab9efbc	-0.0014185826
24	0xbb1843dc	-0.0023233807
25	0x3c6d9b75	0.014502396
26	0xbc842fcf	-0.016136078
27	0x3ca588da	0.020206857
28	0xbcd10e3b	-0.02551948
29	0xbc6854e0	-0.014180392
30	0xbc806525	-0.01567323
31	0x3c7494ca	0.014928052
32	0x3ce496a0	0.027903855
33	0xbc719be4	-0.01474664
34	0xbc18a137	-0.00931578
35	0xbab132c7	-0.0013519161
36	0xbcd059ef	-0.025433509
37	0x3c2b337f	0.010449289
38	0xbccfd642	-0.02537072
39	0xbc0337df	-0.008008926
40	0xbd08551e	-0.0332843
41	0xbc80776c	-0.015681945
42	0xbcffb8f0	-0.031216115
43	0xbd1aca29	-0.03779045
44	0x3b83b3f5	0.0040192553
45	0x3c4e8d0b	0.012606869
46	0xbce1f5b5	-0.027582983
47	0x38f1d2c3	0.00011531033
48	0x3b98291b	0.004643572
49	0x3cae1a4d	0.021252776
50	0x3c4041c0	0.011734426
51	0x39ba8115	0.00035572858
52	0x3baee798	0.0053376667
53	0x3b9f4182	0.004860104
54	0x3cfa81d8	0.030579492
55	0xbc95045b	-0.018190553
56	0xbc0b237e	-0.008492349
57	0xbb387d4d	-0.0028150857
58	0x3d0b7aad	0.03405254
59	0xba564d1a	-0.0008174941

action_model._discrete_distribution.branches.1.bias f4 [3]
0	0x3c99bf09	0.01876785
1	0xbbf36e0a	-0.007428889
2	0xbbf31895	-0.007418702

q1_network.network_body._body_endoder.seq_layers.0.weight f4 [20, 38]
0	0x3e30a5ea	0.17250791
1	0xbe1152c0	-0.14191723
2	0x3e502b76	0.20329079
3	0x3e0e5c1b	0.13902323
4	0xbd056792	-0.032569475
5	0xbe640202	-0.22266391
6	0x3d9cbe33	0.07653465
7	0xbe0385b9	-0.1284398
8	0x3e030f57	0.1279882
9	0x3d5dee0e	0.054182105
10	0x3d4e7b21	0.050410394
11	0x3e0f1e4f	0.13976406
12	0xbe082020	-0.13293505
13	0x3e7f2d23	0.24919562
14	0x3e7c3e93	0.24633245
15	0x3d975d33	0.07390823
16	0x3e202c8b	0.15641992
17	0x3e09d86f	0.13461469
18	0xbefc638f	-0.49294707
19	0x3e131225	0.1436239
20	0x3e0051b2	0.12531164
21	0xbdfd759a	-0.12375946
22	0x3e5748ee	0.21023914
23	0x3e458cd8	0.19292009
24	0x3c60c88d	0.01371969
25	0x3cd59505	0.026072035
26	0x3dd6b78f	0.1048423
27	0xbea67f69	-0.3251908
28	0xbe49d30c	-0.19709414
29	0x3e1ee21f	0.15515946
30	0x3e7b221b	0.24524729
31	0xbcb58513	-0.022158181
32	0x3e9ac4e7	0.3022835
33	0x3da27b7f	0.07933711
34	0x3e79c372	0.24390963
35	0x3c3e673f	0.0116212955
36	0x3e255e63	0.16149287
37	0x3e18046d	0.14845438
38	0xbd990c53	-0.07473054
39	0x3df39133	0.11892929
40	0xbcc676fe	-0.024226662
41	0xbcbe03d0	-0.023195177
42	0x3c8117a5	0.015758345
43	0xbe29663c	-0.16542906
44	0xbdc1f598	-0.094706714
45	0xbd025214	-0.031816557
46	0x3e16a142	0.14709952
47	0xbca91675	-0.020640591
48	0x3e4680c2	0.19385055
49	0xbe310f8d	-0.17291088
50	0xbdbcb074	-0.09213343
51	0xbc963f2a	-0.018340666
52	0xbd0c0340	-0.034182787
53	0x3d49368c	0.049124286
54	0xbd3388e6	-0.04383173
55	0x3e23f94d	0.1601307
56	0x3d95f20b	0.07321557
57	0xbd945f3d	-0.07244728
58	0xbdfc770f	-0.12327396
59	0xbdeab7a2	-0.114608064
60	0x3d6f57a1	0.05843318
61	0x3e7feb6d	0.24992152
62	0x3e9daa52	0.30794007
63	0x3cc1f6ba	0.023677219
64	0x3e280f87	0.16412173
65	0xbc43b268	-0.011944391
66	0x3cef3f4d	0.029204989
67	0x3d424ee3	0.047438513
68	0xbcba6735	-0.022754291
69	0x3e4a4a09	0.19754805
70	0xbe58f925	-0.21188791
71	0x3d90bd60	0.070673704
72	0x3e3cca5f	0.18436573
73	0xbe0947ce	-0.13406298
74	0x3dc0aabe	0.094075665
75	0xbcd23685	-0.025660763
76	0xbe3c365a	-0.18380108
77	0xbddc6b84	-0.107626945
78	0xbd2a78f3	-0.041619252
79	0x3d639f44	0.05557181
80	0xbd7bbf61	-0.06146181
81	0xbd0226d3	-0.031775307
82	0xbc290111	-0.010315196
83	0xbe44fead	-0.19237776
84	0x3ee91a38	0.45527816
85	0xbdb922a1	-0.09039808
86	0x3e18b2d3	0.14911966
87	0xbe51e657	-0.20498024
88	0x3e29cc2d	0.16581793
89	0xbe31f59b	-0.17378847
90	0xbebc90ec	-0.36829317
91	0xbe35722d	-0.17719336
92	0xbc0cc373	-0.008591521
93	0xbd907d09	-0.070550986
94	0x3ee473b5	0.44619527
95	0xbd5a0365	-0.053225894
96	0xbd8a8d48	-0.067652285
97	0x3e2fb85a	0.17160168
98	0x3d89ac87	0.0672236
99	0x3e509431	0.2036903
100	0x3e0144d0	0.12623906
101	0xbe2ace20	-0.16680193
102	0xbd202e4b	-0.03910665
103	0x3dad4672	0.08460702
104	0x3e855bc4	0.26046574
105	0x3be99dab	0.007129391
106	0x3cb91c62	0.022596542
107	0xbd8f73c8	-0.070045054
108	0x3d8093a1	0.06278158
109	0xbe431512	-0.19051006
110	0x3eaa5859	0.3327053
111	0xbcf05331	-0.029336544
112	0x3ece0edb	0.4024571
113	0x3dba3332	0.09091796
114	0xbdc62e66	-0.096768185
115	0x3e55333a	0.20820323
116	0x3d0b03ab	0.033939045
117	0x3e0738c4	0.13205248
118	0x3d81d54c	0.06339511
119	0x3e60eda0	0.21965647
120	0xbcb715ee	-0.022349324
121	0x3d2efbe8	0.042720705
122	0x3dbfb5dd	0.093608595
123	0x3e2af00f	0.16693138
124	0x3ddc6d22	0.10763003
125	0x3d768844	0.060188547
126	0xbf14d126	-0.58131635
127	0x3e01ae22	0.12664083
128	0x3e4ccf2d	0.20000906
129	0x3d490749	0.049079213
130	0xbec4a7fc	-0.38409412
131	0xbdbd8459	-0.09253759
132	0xbe62d2dd	-0.2215075
133	0x3ea55183	0.3228875
134	0x3d98df25	0.074644364
135	0x3f0e7554	0.5564778
136	0xbdd73209	-0.1050759
137	0x3bc8675b	0.0061158366
138	0xbec557a0	-0.38543415
139	0xbe4e9c0b	-0.20176713
140	0x3e653d02	0.22386554
141	0xbdb0c5af	-0.08631455
142	0x3dd73e0b	0.10509881
143	0x3e473ea1	0.19457485
144	0x3d2d4dbe	0.04231047
145	0xbb2b9207	-0.0026179568
146	0x3d11b45e	0.035572402
147	0xbedbe9ac	-0.42951715
148	0xbf08a8af	-0.5338239
149	0x3f06339b	0.52422494
150	0xbedcf4f1	-0.43155625
151	0x3e100c36	0.14067158
152	0xbd88f61d	-0.066875674
153	0x3e884afa	0.26619703
154	0xba0e35bf	-0.0005424879
155	0xbbedf927	-0.0072623673
156	0x3ea0baca	0.3139251
157	0x3e55589c	0.20834583
158	0xbd940429	-0.07227356
159	0x3e807c0b	0.25094637
160	0xbe11ad1b	-0.14226191
161	0xbde17207	-0.11008077
162	0x3d9ce71a	0.076612666
163	0xbe00743e	-0.12544343
164	0xbead6eb7	-0.3387353
165	0x3ea1757b	0.31534943
166	0xbed661e4	-0.4187156
167	0x3dc02839	0.09382672
168	0xbe2626a7	-0.16225682
169	0x3d94f0e1	0.072725065
170	0x3d0cacd6	0.034344517
171	0x3e128295	0.14307626
172	0x3e8d70c3	0.27625093
173	0x3daab0c8	0.083344996
174	0xbd056add	-0.032572616
175	0xbe254eb4	-0.16143304
176	0x3d651f1d	0.055937875
177	0xbe768d77	-0.24077402
178	0xbd858d88	-0.065211356
179	0x3e103ed6	0.1408647
180	0xbd895730	-0.06706083
181	0xbe0fa53f	-0.1402788
182	0x3d884625	0.06654004
183	0x3e6e3011	0.23260523
184	0xbe5a1638	-0.21297538
185	0xbdcdc848	-0.10047966
186	0xbdd099cd	-0.10185585
187	0x3dd8d3a9	0.10587246
188	0x3e80c232	0.2514816
189	0x3e0be978	0.1366328
190	0x3e42d456	0.19026312
191	0xbe156cb8	-0.14592254
192	0x3e3dd9f6	0.18540177
193	0xbe3a6463	-0.18202357
194	0xbcb922b6	-0.02259956
195	0xbda1e5cf	-0.07905161
196	0xbe8f31b5	-0.2796761
197	0x3e982b8d	0.29720727
198	0x3d17eb30	0.037089527
199	0x3db74fd9	0.089507766
200	0x3dc88e57	0.09792774
201	0xbda435ce	-0.08018075
202	0x3d5ffdd3	0.054685425
203	0xbd8f3821	-0.069931276
204	0xbb10f108	-0.0022116322
205	0x3dc01e4b	0.09380778
206	0xbea5b071	-0.32361177
207	0xbe057605	-0.13033302
208	0xbc715bb5	-0.014731337
209	0x3e1afe86	0.15136155
210	0xbbb24f5a	-0.0054415883
211	0xbe02d73f	-0.12777422
212	0x3cc95292	0.024575505
213	0xbe662eb8	-0.2247876
214	0xbe3eeae9	-0.18644299
215	0x3d9d5f3b	0.076841794
216	0xbdabbe59	-0.08385915
217	0xbcdf5216	-0.027260821
218	0xbd195746	-0.037436746
219	0x3d28e066	0.041229628
220	0xbec17a70	-0.37788725
221	0x3e60448a	0.21901146
222	0xbdccc38a	-0.099982336
223	0x3e29ecd1	0.16594245
224	0xbdaa7ea9	-0.0832494
225	0xbcc32a23	-0.023823803
226	0x3e0954f6	0.13411316
227	0xbe061591	-0.13094164
228	0xbd83636b	-0.06415447
229	0x3d6648ad	0.056221653
230	0x3d667a84	0.056269184
231	0xbd0268fc	-0.031838402
232	0x3d184ed1	0.03718454
233	0xbd57bbd9	-0.05266938
234	0xbdc9fbfa	-0.09862514
235	0x3d9ebf77	0.07751363
236	0x3cfc2a13	0.030781781
237	0x3d08f009	0.03343204
238	0xbe3e5793	-0.18588094
239	0x3e1dc8a1	0.15408565
240	0xbddd3301	-0.10800744
241	0x3e989435	0.29800573
242	0x3e87e567	0.26542208
243	0xbeb5f8de	-0.35541433
244	0xbe61778e	-0.22018263
245	0xbe2c5fd4	-0.1683343
246	0xbde7ccf3	-0.11318388
247	0x3ea37700	0.31926727
248	0x3ea7aa7e	0.32747263
249	0x3d9af4ec	0.075662464
250	0xbe21e724	-0.1581083
251	0xbe9acae7	-0.30232927
252	0x3edc2118	0.42994
253	0xbd08a522	-0.033360608
254	0x3d728c17	0.05921563
255	0xba40d336	-0.00073556916

q1_network.network_body._body_endoder.seq_layers.0.bias f4 [20]
0	0xb99fb37b	-0.00030460567
1	0xb6897c73	-4.097406e-06
2	0x3c28183b	0.010259683
3	0xbb2ab841	-0.0026049765
4	0xbc07384a	-0.008253166
5	0xbc86bacd	-0.016446495
6	0x3b8fb0ee	0.0043851053
7	0x3bb30151	0.0054628034
8	0x3cb92460	0.022600353
9	0x3c19a899	0.009378576
10	0xbc08a94d	-0.008341146
11	0x00000000	0.0
12	0x3c4f2665	0.012643431
13	0x3c8a5835	0.016887764
14	0x3d09b763	0.033622157
15	0xa76a55ee	-3.2520606e-15
16	0xbbf2b383	-0.0074066534
17	0x3bdd02cc	0.006744718
18	0x21dc62bb	1.4933914e-18
19	0x3b74a5bf	0.0037330238

q1_network.network_body._body_endoder.seq_layers.2.weight f4 [20, 20]
0	0xbaaf6acc	-0.0013383268
1	0x3da3fe59	0.08007497
2	0x3f206cda	0.62666094
3	0xbea6fb54	-0.32613623
4	0x3dc9692f	0.09834515
5	0x3d35e453	0.0444072
6	0x3e3067f2	0.17227152
7	0xbdbe5b7c	-0.09294793
8	0x3e1a2ac1	0.15055372
9	0xbdb29db1	-0.087214835
10	0x3c5ed1f3	0.0135998605
11	0xbd40d737	-0.047080245
12	0xbd0184f2	-0.031620927
13	0x3e60f3fe	0.21968076
14	0x3d743f50	0.059630692
15	0x3da81391	0.08206857
16	0xbd88aea3	-0.06673934
17	0x3e87fdac	0.26560724
18	0x3e4f9fd2	0.2027581
19	0x3bc2e4f3	0.005947703
20	0xbc00ca1c	-0.007860687
21	0xbd9400e0	-0.072267294
22	0xbdfe246e	-0.12409292
23	0xbe9589ab	-0.29206595
24	0xbdaebf20	-0.08532548
25	0xbea0b1cb	-0.31385645
26	0x3e0fe045	0.14050396
27	0xbee648e2	-0.4497748
28	0x3e6f92a6	0.23395786
29	0xbe9cbbc8	-0.30612016
30	0x3e61ea82	0.22062114
31	0xbdb02a6e	-0.08601843
32	0x3c16c5ee	0.009202464
33	0x3e1f278a	0.15542427
34	0x3d46f476	0.04857298
35	0xbe750883	-0.23929028
36	0xbe0d17b0	-0.13778567
37	0x3e5e0ed8	0.2168535
38	0xbea0adb7	-0.31382534
39	0xbe78846b	-0.24269263
40	0x3e2a8aa0	0.16654444
41	0xbd26c582	-0.040715702
42	0x3e66a2c3	0.22523026
43	0x3e31bfb5	0.17358287
44	0xbe3886c5	-0.1802016
45	0x3e9b8525	0.3037502
46	0xbdbe6c2a	-0.092979744
47	0xbe25fffd	-0.16210933
48	0xbe24d90d	-0.16098423
49	0xbe1b2486	-0.15150651
50	0xbe9eaf5a	-0.30993158
51	0x3c9e2fa8	0.019309834
52	0xbe3fb506	-0.18721399
53	0x3e166714	0.14687759
54	0x3e491e28	0.1964041
55	0xbea21cde	-0.3166265
56	0x3f0159c3	0.5052759
57	0xbd590b5c	-0.05298935
58	0xbe55f6af	-0.20894884
59	0x3edb6a33	0.4285446
60	0xbe199b5a	-0.15000668
61	0x3e705552	0.23470047
62	0x3e853e19	0.2602394
63	0xbcb3b86e	-0.021938529
64	0xbd10c014	-0.03533943
65	0xbeaadc46	-0.3337118
66	0xbeab82df	-0.33498284
67	0x3e21128c	0.15729731
68	0xbe7a7684	-0.24459273
69	0xbf130523	-0.57429713
70	0x3dc0d5e3	0.09415796
71	0x3da34fbf	0.07974195
72	0xbe4b5aba	-0.19858828
73	0x3e49db61	0.19712593
74	0x3ec88b9f	0.39169022
75	0x3d134e12	0.035963126
76	0xbb9ff9d2	-0.004882076
77	0xbd878d44	-0.06618741
78	0x3d3e711e	0.046494596
79	0x3dcb9d08	0.09942061
80	0x3e0fafae	0.1403186
81	0x3edaa39d	0.42702952
82	0x3eca707f	0.39538953
83	0x3e7d8a56	0.24759802
84	0x3efc2899	0.49249724
85	0x3d7c130c	0.061541602
86	0xbddfe48f	-0.10932266
87	0x3da3b65e	0.07993768
88	0xbd9da631	-0.07697714
89	0x3d23a9b0	0.03995675
90	0xbe3b4a57	-0.18290077
91	0xbe282c88	-0.16423237
92	0xbec9bdb5	-0.39402547
93	0x3e5ac94f	0.21365856
94	0xbd8160fc	-0.063173264
95	0xbdfb00c4	-0.122560054
96	0x3e1ce269	0.15320744
97	0x3dde9080	0.10867405
98	0xbc5557a9	-0.013021388
99	0x3c274970	0.01021038
100	0xbe057f22	-0.13036779
101	0xbcd67163	-0.026177114
102	0x3d29a571	0.041417543
103	0x3e33c24b	0.17554586
104	0x3e8f549a	0.27994233
105	0xbe91d5b4	-0.28483355
106	0xbc35889e	-0.011079935
107	0xbd1b150f	-0.03786188
108	0x3d97d8c1	0.074143894
109	0x3daa243e	0.08307694
110	0x3e1df154	0.1542409
111	0x3e86974e	0.2628731
112	0x3ea007c3	0.31255922
113	0xbe2ca0db	-0.16858236
114	0x3be82ebf	0.0070856507
115	0x3c8ec7c9	0.01742925
116	0xbdf1d0b6	-0.118073866
117	0xbe1985fa	-0.14992514
118	0xbc69cfdd	-0.01427075
119	0x3de15c27	0.11003905
120	0xbe8941da	-0.26808053
121	0xbd2553d5	-0.04036315
122	0x3be890f8	0.0070973597
123	0xbe74d964	-0.23911053
124	0xbd2f8a7f	-0.04285669
125	0xbde3799d	-0.1110718
126	0x3e4adc0a	0.198105
127	0xbd41cb1b	-0.047312837
128	0xbeade588	-0.3396418
129	0xbecde28e	-0.4021191
130	0x3f0d2f23	0.5515005
131	0x3ebfeafa	0.3748396
132	0x3de82afe	0.11336325
133	0xbed45661	-0.41472152
134	0x3e3c3be9	0.18382229
135	0x3e8e6b1c	0.27816093
136	0x3e873ec0	0.26415062
137	0xbdb9443d	-0.090462185
138	0xbdd704f5	-0.10498992
139	0x3dede36f	0.11615645
140	0xbec30373	-0.3808857
141	0xbdbedc11	-0.09319318
142	0xbe0fbb08	-0.1403619
143	0xbe47e0b5	-0.19519313
144	0xbdd85ff3	-0.10565176
145	0x3e9402ab	0.28908285
146	0xbe46e7ef	-0.19424413
147	0x3ebe2a1b	0.371415
148	0xbd2ee473	-0.042698335
149	0xbe4df506	-0.20113
150	0xbcc012e9	-0.023446517
151	0x3e7631ec	0.24042481
152	0x3da706ab	0.08155569
153	0xbe29f748	-0.16598237
154	0xbc467965	-0.012113904
155	0xbe97b232	-0.2962814
156	0xbe5e0a4a	-0.21683612
157	0xbe039e98	-0.12853467
158	0x3ebc9c30	0.36837912
159	0x3de7f044	0.11325124
160	0xbe68f468	-0.22749484
161	0xbdbbe3d2	-0.09174313
162	0x3ef7caf8	0.4839704
163	0x3e4719b2	0.19443396
164	0xbdbd7e15	-0.09252564
165	0xbe33a006	-0.17541513
166	0xbef36375	-0.47536817
167	0xbb86f65b	-0.0041187233
168	0xbe2b6676	-0.16738304
169	0xbdd90c3c	-0.10598037
170	0x3e63c0ab	0.22241466
171	0xbe863789	-0.26214245
172	0xbe0fad18	-0.14030874
173	0xbdc55956	-0.0963618
174	0x3dde3790	0.108504415
175	0x3db5ea9d	0.088826396
176	0x3d44b0ec	0.04802029
177	0x3e1ce9c6	0.15323552
178	0x3dd59eda	0.10430689
179	0x3ecccd2b	0.4000028
180	0x3e3476a4	0.17623383
181	0x3d239df2	0.03994555
182	0x3e2d3afa	0.16917029
183	0x3c8b3793	0.016994273
184	0x3e211fb3	0.15734749
185	0xbdfbf634	-0.12302819
186	0xbd9fa7f1	-0.07795704
187	0x3e822fd0	0.25427103
188	0xbecf0e6c	-0.4044069
189	0xbd29b57d	-0.041432846
190	0x3e3d2670	0.18471694
191	0x3e8e1e21	0.27757362
192	0x3dc33fcc	0.09533653
193	0xbcbf5980	-0.023358107
194	0x3f0a9d9b	0.54146737
195	0x3ed356e7	0.4127724
196	0xbe870368	-0.26369786
197	0xbe833350	-0.25625086
198	0x3d5fe735	0.054663856
199	0x3dd8fd84	0.10595229
200	0xbb1af3e8	-0.0023643915
201	0x3dc59199	0.09646911
202	0x3d0fde77	0.03512427
203	0x3e93c1d3	0.28858814
204	0x3ec65401	0.38735965
205	0x3e2ac68d	0.16677304
206	0x3e1c4e93	0.15264349
207	0x3e14b57b	0.14522354
208	0x3d974863	0.073868535
209	0x3ca17654	0.019709744
210	0x3d0196f1	0.03163809
211	0x3deb199a	0.114794925
212	0x3e201c02	0.15635684
213	0x3d167bee	0.036739282
214	0x3d68240d	0.056675006
215	0xbea2c7c0	-0.31793022
216	0x3ea28b96	0.3174712
217	0x3e053364	0.13007885
218	0xbec12289	-0.3772166
219	0x3e203dff	0.1564865
220	0x3cb16a64	0.021657176
221	0x3d10f4d8	0.03538975
222	0xbecbccc6	-0.39804667
223	0x3da7dd3b	0.08196493
224	0xbda34edb	-0.07974025
225	0x3d92b6d3	0.07163777
226	0xbc8d19a3	-0.017224139
227	0xbe68ddac	-0.22740811
228	0xbe9582c7	-0.29201338
229	0xbb8fb0df	-0.0043850983
230	0x3dc38a8f	0.09547912
231	0xbe66708f	-0.22503875
232	0xbee744c7	-0.4516966
233	0xbe6223e3	-0.22084002
234	0x3e907f33	0.28222045
235	0x3e50a151	0.20374037
236	0x3e1b1873	0.15146045
237	0x3d0a0aec	0.033701822
238	0xbdc93ff7	-0.098266535
239	0xbec1acd8	-0.37827182
240	0xbe78e809	-0.24307264
241	0x3e38f78d	0.18063183
242	0x3d670f3e	0.05641102
243	0x3d01c01a	0.031677343
244	0xbe6bb4de	-0.23018214
245	0x3f116cf7	0.5680689
246	0xbe1f6f5f	-0.15569828
247	0x3c3c60b0	0.0114976615
248	0xbe235d39	-0.1595353
249	0xbdf41884	-0.119187385
250	0x3e171193	0.14752798
251	0xbe60ce21	-0.21953632
252	0xbf01cde3	-0.50704783
253	0x3d7f5ec7	0.062346246
254	0x3e07b874	0.13253957
255	0xbe4a812e	-0.1977584

q1_network.network_body._body_endoder.seq_layers.2.bias f4 [20]
0	0xbc910775	-0.017703751
1	0x00000000	0.0
2	0x3a9bb6db	0.0011880057
3	0xbc86547d	-0.016397709
4	0x3b6bebb8	0.0035998654
5	0xa677722c	-8.585007e-16
6	0xbcfa5440	-0.030557752
7	0xba195e7c	-0.0005850566
8	0x3c419e96	0.011817595
9	0x2223c819	2.219655e-18
10	0xbbfa0e2f	-0.0076310853
11	0xbc3a0548	-0.011353798
12	0xbb19e45b	-0.0023482058
13	0x3c394f8e	0.011310471
14	0xbc311477	-0.010808102
15	0xbbf3d3ab	-0.0074410043
16	0x3c546c6f	0.012965306
17	0x3a1ec294	0.0006056216
18	0xb39c27f7	-7.271586e-08
19	0x0f0c6e75	6.923806e-30

q1_network.value_heads.value_heads.extrinsic.weight f4 [5, 20]
0	0xbe897b4a	-0.26851875
1	0x3e9fb7c9	0.31194904
2	0xbce3cfd7	-0.027809067
3	0x3eab5707	0.33464834
4	0xbebac8b6	-0.36481255
5	0xbe4651d6	-0.19367155
6	0xbebcf2d8	-0.36904025
7	0xbe01c6b6	-0.12673458
8	0xbeef2a40	-0.46711922
9	0xbcf03dba	-0.029326309
10	0xbe842779	-0.25811365
11	0x3dc4c554	0.0960795
12	0xbce08d7b	-0.027411213
13	0x3e27a0e3	0.16369967
14	0x3e96b888	0.2943766
15	0x3e271d3e	0.16319749
16	0x3b8bd7c8	0.0042676665
17	0xbeec02b8	-0.46095824
18	0xbeba2bb3	-0.36361465
19	0x3e49acad	0.19694777
20	0xbcf84003	-0.03030396
21	0xbe1fd4c4	-0.15608507
22	0x3e279afc	0.16367716
23	0x3ecac8e4	0.39606392
24	0x3e9f1ca8	0.3107655
25	0xbb0cfcbe	-0.002151295
26	0x3d9aea0d	0.07564173
27	0xbd83c06a	-0.064331844
28	0x3d7c9b01	0.06167126
29	0x3d93cdf1	0.072170146
30	0xbe80c14c	-0.25147474
31	0xbeb16e31	-0.34654382
32	0x3c3ce3fc	0.011528965
33	0x3e58a320	0.21155977
34	0xbe8ec57f	-0.27885053
35	0xbee2a30a	-0.44265014
36	0x3c82bc0f	0.015958814
37	0xbecfb5b3	-0.40568313
38	0x3e52c608	0.20583355
39	0xbdd60633	-0.10450401
40	0x3d71b679	0.05901191
41	0x3d32429b	0.04352055
42	0x3e90f0f2	0.28308827
43	0x3e98fdea	0.2988122
44	0x3d2dda34	0.042444423
45	0xbeb890d9	-0.3604801
46	0x3eae966c	0.34099138
47	0x3d9be35b	0.07611724
48	0xbed95b97	-0.4245269
49	0xbeae6e6b	-0.34068617
50	0x3d570559	0.052495334
51	0x3e150188	0.14551365
52	0x3e714b89	0.2356397
53	0xbe7c1500	-0.24617386
54	0xbead777d	-0.33880225
55	0xbea3b46f	-0.31973597
56	0xbebae60d	-0.3650364
57	0xbedf1ecf	-0.43578193
58	0xbeeabf18	-0.45848918
59	0xbec00749	-0.37505558
60	0x3b7711db	0.0037699852
61	0x3d3a64bc	0.045506224
62	0x3caa9b79	0.020826088
63	0xbe7db2d2	-0.24775246
64	0x3e98dc8c	0.29855764
65	0x3ef9ae6a	0.4876588
66	0xbe1d4b70	-0.15360808
67	0xbdfd7130	-0.123751044
68	0x3d04edb1	0.032453243
69	0xbe65845e	-0.22413775
70	0x3ec18259	0.3779476
71	0xbe638a97	-0.22220837
72	0xbeb5d648	-0.35515046
73	0xbead2646	-0.33818263
74	0x3eddbb58	0.43306994
75	0xbd7be6be	-0.06149935
76	0xbeda4903	-0.4263383
77	0x3c89606e	0.016769614
78	0xbdf851d0	-0.121249795
79	0x3ec6d812	0.38836724
80	0xbc7e95da	-0.015538657
81	0xbc8a06bf	-0.01684892
82	0x3e785cc2	0.24254134
83	0xbee93187	-0.455456
84	0xbe079095	-0.13238747
85	0x3eeac80e	0.45855755
86	0xbe5096a5	-0.20369966
87	0x3eb405df	0.3516073
88	0xbe60efb5	-0.21966441
89	0xbed38bfb	-0.41317734
90	0xbe854248	-0.2602713
91	0x3e9ceb53	0.30648288
92	0x3ed9cda9	0.4253972
93	0x3e0d8cdf	0.1382327
94	0x3e868c79	0.26279047
95	0xbec4568e	-0.38347286
96	0x3e5ef82c	0.21774358
97	0xbd091e27	-0.03347602
98	0x3e50f447	0.20405684
99	0xbe8ca429	-0.27468994

q1_network.value_heads.value_heads.extrinsic.bias f4 [5]
0	0x00000000	0.0
1	0x3b977d02	0.0046230564
2	0xbd2b058b	-0.041753333
3	0x3c229255	0.009922584
4	0x3c417a15	0.011808892

q2_network.network_body._body_endoder.seq_layers.0.weight f4 [20, 38]
0	0x3a35f2a8	0.00069407606
1	0xbd7dd464	-0.06197013
2	0x3da49c39	0.080376096
3	0x3e176f20	0.14788485
4	0x3d717735	0.058951575
5	0xbe69f53d	-0.22847457
6	0x3c441b02	0.01196933
7	0xbe1500f2	-0.14551142
8	0xbe065d1e	-0.13121459
9	0x3da5c4c3	0.0809417
10	0x3e677034	0.22601396
11	0xbe63dd5b	-0.22252409
12	0x3d80e91d	0.06294463
13	0x3e7d44ac	0.24733227
14	0xbcbd9a5f	-0.023144899
15	0x3e11ce15	0.1423877
16	0x3da68873	0.081314944
17	0xbcf846c2	-0.030307177
18	0x3e15502b	0.14581363
19	0x3ed6b5f6	0.419357
20	0x3c6ad018	0.01433184
21	0xbe189471	-0.14900376
22	0x3c75e446	0.015008038
23	0x3e33fa38	0.1757592
24	0x3df334f4	0.118753344
25	0xbeab6e54	-0.3348261
26	0x3d04049d	0.032230962
27	0x3e815518	0.25260234
28	0x3e93cf42	0.28869063
29	0xbe16b731	-0.1471832
30	0x3ead3fe7	0.33837816
31	0x3e2b40d7	0.16723953
32	0x3ede341c	0.4339913
33	0xbe42a7c7	-0.19009314
34	0xbdf67f95	-0.12036053
35	0xbe6d4b39	-0.23173226
36	0x3d4c02b0	0.04980725
37	0xbd9636eb	-0.073346935
38	0x3dcc9337	0.099890165
39	0xbd060c5c	-0.03272663
40	0xbdd68ffe	-0.10476683
41	0xbe64f022	-0.22357228
42	0xbe39ba61	-0.18137504
43	0x3db6d7c6	0.08927874
44	0x3d2bb263	0.04191817
45	0xbd8d6c00	-0.06905365
46	0xbe75e572	-0.24013308
47	0xbe57e289	-0.2108251
48	0x3dc1e775	0.09467975
49	0x3df0c2e4	0.117559224
50	0xbe61fa51	-0.22068144
51	0x3edcc858	0.431216
52	0x3ebecc55	0.37265268
53	0x3e63c1b4	0.2224186
54	0xbdb1f846	-0.086899325
55	0xbe264b65	-0.16239698
56	0xbede9ea3	-0.43480405
57	0x3f08098f	0.53139585
58	0x3ea9d238	0.33168197
59	0x3ec12f68	0.3773148
60	0xbde20267	-0.110356145
61	0xbe9981e6	-0.29981917
62	0xbec68d56	-0.38779706
63	0x3e847d4a	0.25876838
64	0x3e480f49	0.19537081
65	0x3df29da7	0.11846476
66	0x3eb18024	0.34668076
67	0xbe1d3715	-0.15353043
68	0xbc914fc5	-0.017738232
69	0x3dcae0ca	0.09906156
70	0x3e58ca38	0.2117089
71	0xbe9e1620	-0.30876255
72	0xbed2b9df	-0.41157433
73	0x3eae0864	0.33990777
74	0xbecd1048	-0.40051484
75	0xbd9afd3a	-0.075678304
76	0x3e53a29f	0.20667504
77	0x3e13219d	0.14368291
78	0xbabc433b	-0.0014363298
79	0xbea1f078	-0.31628776
80	0x3c08bf88	0.008346446
81	0xbe865003	-0.2623292
82	0xbc8fef9d	-0.017570311
83	0x3ddba18f	0.10724174
84	0x3c76229f	0.015022903
85	0x3da1ee2b	0.07906755
86	0x3e0e2528	0.13881361
87	0x3e62e5f1	0.22158028
88	0x3ea641fd	0.3247222
89	0x3dbd23de	0.09235357
90	0xbe31264a	-0.17299762
91	0xbe386f81	-0.18011285
92	0xbe6ebaf2	-0.23313501
93	0xbc493843	-0.01228148
94	0x3eaf26dc	0.34209335
95	0x3e0f604d	0.1400158
96	0x3e7c242f	0.24623178
97	0x3d120753	0.035651516
98	0xbe614bc5	-0.2200156
99	0xbdb8b4f2	-0.090188876
100	0x3e800821	0.25006202
101	0xbcc0cbe6	-0.023534726
102	0xbc812f83	-0.015769726
103	0xbdec793c	-0.11546561
104	0xbde574c2	-0.112039104
105	0x3d33fc5e	0.043941848
106	0x3c96ac3f	0.01839268
107	0x3d6c115d	0.057633746
108	0xbc572a5f	-0.013132661
109	0x3ed71a58	0.42012286
110	0x3e6d55f9	0.23177327
111	0xbe2348ff	-0.15945815
112	0x3e092abc	0.13395208
113	0x3e0cbe95	0.13744576
114	0xbda76e30	-0.081753135
115	0xbe6250fe	-0.22101209
116	0x3d0c6c3a	0.0342829
117	0x3d2dd8ac	0.042442963
118	0x3d244ed3	0.040114235
119	0xbe4cf5f7	-0.20015703
120	0xbd82b0a7	-0.0638135
121	0xbe6a7244	-0.22895151
122	0xbe293321	-0.1652341
123	0xbe1701c2	-0.14746764
124	0xbde87c82	-0.11351873
125	0x3c907dc4	0.017638095
126	0x3e6fb07b	0.23407166
127	0xbe57985b	-0.21054213
128	0xbed882be	-0.42287248
129	0x3de7b689	0.11314113
130	0x3eae7eae	0.34081024
131	0x3d2483a0	0.04016459
132	0x3e30c1c5	0.17261417
133	0x3c0dfe01	0.008666516
134	0xbe141435	-0.14460833
135	0xbe0fb367	-0.1403328
136	0xbdd25859	-0.10270757
137	0xbd0860b8	-0.033295363
138	0xbe51b298	-0.20478284
139	0xbd5cb97f	-0.05388784
140	0x3e5ec109	0.21753325
141	0xbc9bf69c	-0.019038491
142	0x3e3ef00c	0.18646258
143	0x3dff1deb	0.12456878
144	0xbd8b9519	-0.068155475
145	0xbe09abd1	-0.13444449
146	0xbca1ebc5	-0.019765744
147	0x3d7e6165	0.0621046
148	0xbcca7e71	-0.024718495
149	0x3e0fa321	0.14027072
150	0x3ea65a4b	0.32490763
151	0xbdf9b636	-0.12192957
152	0xbe2bb378	-0.1676768
153	0xbe86ab45	-0.26302543
154	0xbd212717	-0.03934392
155	0xbd1f6865	-0.038917918
156	0x3de93e2f	0.11388814
157	0xbe4c4c1c	-0.19950908
158	0xbbcddb30	-0.0062822327
159	0x3e05b52e	0.13057396
160	0xbe344044	-0.1760264
161	0x3ccb789e	0.024837788
162	0x3e16b856	0.14718756
163	0x3e41b622	0.18917134
164	0x3e1270a8	0.14300787
165	0xbe9d42df	-0.3071508
166	0xbd90fe32	-0.07079734
167	0x3e0edb65	0.1395088
168	0x3d910c75	0.07082454
169	0xbdfd291e	-0.12361358
170	0xbd4338a7	-0.04766145
171	0xbe08149a	-0.13289109
172	0xbe23a02a	-0.15979066
173	0x3cdb7193	0.026787555
174	0xbdab8a3a	-0.08375974
175	0x3dbc8836	0.09205668
176	0x3e85d69c	0.26140296
177	0x3d750214	0.059816435
178	0x3df2232c	0.11823115
179	0x3eefdfd5	0.46850458
180	0x3bb0a579	0.0053908196
181	0x3c7c0592	0.015382187
182	0xbcf00187	-0.029297603
183	0x3da989ff	0.08278274
184	0xbe005bfd	-0.1253509
185	0xbe79c582	-0.2439175
186	0xbdc5a9ee	-0.09651552
187	0xbdab9ce5	-0.08379535
188	0x3e140e2f	0.14458536
189	0x3de7c7b6	0.11317389
190	0xbdd194be	-0.102334484
191	0x3e757e87	0.23974048
192	0x3dd6e0ad	0.10492072
193	0x3dec4e79	0.11538405
194	0x3e6fc37b	0.23414414
195	0xbba64f95	-0.005075405
196	0xbd88a965	-0.066729344
197	0xbe6a1118	-0.22858083
198	0x3d83b5ce	0.06431161
199	0x3d61bb65	0.055110354
200	0x3db5a576	0.0886945
201	0x3d9eb82b	0.07749971
202	0xbdad9590	-0.084757924
203	0xbd1edf8d	-0.038787413
204	0x3c983416	0.018579524
205	0x3e627686	0.22115526
206	0x3de89881	0.11357213
207	0x3cd604bf	0.02612531
208	0xbddc3c37	-0.107536726
209	0x3cb9f2e5	0.022698829
210	0xbe0a774d	-0.13522072
211	0xbe9f1603	-0.3107148
212	0x3c79d09a	0.015247488
213	0x3e47dd11	0.19517924
214	0xbdb493ac	-0.08817229
215	0xbb219e6e	-0.0024661082
216	0xbc00f3cd	-0.007870627
217	0xbe13f094	-0.14447242
218	0x3d2448a4	0.040108338
219	0xbde3f90d	-0.11131487
220	0x3b14e8ec	0.002272184
221	0x3eaefe07	0.34178182
222	0xbd8a8afc	-0.067647904
223	0xbd94534c	-0.0724245
224	0x3e403a7f	0.18772314
225	0xbb722061	-0.003694557
226	0x3da0705e	0.07833932
227	0x3e909468	0.28238225
228	0xbe476fe8	-0.19476283
229	0xbe763eb7	-0.24047361
230	0x3dfdeef7	0.123990946
231	0xbbad0d11	-0.0052810987
232	0x3d9a3dcd	0.07531319
233	0x3e2b1595	0.16707452
234	0x3e745f10	0.23864388
235	0x3dd493c0	0.103797436
236	0x3e2aed18	0.16692007
237	0xbdc532a0	-0.096287966
238	0xbe719c58	-0.23594797
239	0x3d6e97b3	0.05825014
240	0x3c2dfd48	0.010619469
241	0x3d1244a0	0.035709977
242	0xbd5e7c81	-0.054317955
243	0xbdd3f040	-0.103485584
244	0xbe779993	-0.24179678
245	0xbc7a0292	-0.015259402
246	0xbd9b7477	-0.07590573
247	0x3e2318d9	0.15927447
248	0x3d0b8044	0.03405787
249	0xbe2d50ce	-0.16925356
250	0xbe2f75bd	-0.17134757
251	0xbe2ae031	-0.16687085
252	0x3e7070ac	0.23480481
253	0x3e0fe870	0.14053512
254	0x3c958bd1	0.018255146
255	0xbc0469ff	-0.008081912

q2_network.network_body._body_endoder.seq_layers.0.bias f4 [20]
0	0x24e0e052	9.752453e-17
1	0x3cb484f1	0.022036048
2	0x3c17720e	0.009243501
3	0xbca19adf	-0.019727169
4	0x00000000	0.0
5	0xbbd3f64c	-0.00646857
6	0xbb8897e3	-0.004168497
7	0xbca3152e	-0.01990756
8	0xa000a8cc	-1.0897872e-19
9	0x32230812	9.489684e-09
10	0x3c49752e	0.012296004
11	0xbc6157c8	-0.013753839
12	0x271117dc	2.0135727e-15
13	0xbaf61fee	-0.0018777826
14	0xbb0caca6	-0.0021465211
15	0xbc403c52	-0.0117331315
16	0x14e1e6c2	2.2810212e-26
17	0xbc2a5c7f	-0.010398029
18	0x3ba77b1a	0.0051111104
19	0x3bacbbe2	0.005271421

q2_network.network_body._body_endoder.seq_layers.2.weight f4 [20, 20]
0	0x3d29e34a	0.041476525
1	0x3e06bee4	0.13158756
2	0x3dacefe0	0.0844419
3	0x3f0ce3bd	0.55035
4	0xbed8d3c3	-0.4234906
5	0x3e01bba4	0.12669235
6	0x3d4d16b9	0.0500705
7	0x3e17b3e3	0.14814715
8	0xbcd56a9c	-0.026051812
9	0xbedcd7ce	-0.43133396
10	0xbf01e298	-0.5073638
11	0xbe494721	-0.1965604
12	0xbdd0cf8a	-0.10195835
13	0xbe549a1b	-0.20761912
14	0xbe91a154	-0.28443396
15	0xbe96b9a6	-0.29438514
16	0x3bd60eeb	0.00653254
17	0xbe6a1652	-0.22860077
18	0xbea44d7e	-0.32090372
19	0x3e6a7c30	0.22898936
20	0xbe6a1106	-0.22858056
21	0xbe961a0d	-0.2931675
22	0x3e4a4271	0.19751908
23	0x3e9434ab	0.28946432
24	0x3e1035d7	0.14083038
25	0xbe7f2244	-0.24915415
26	0x3e2bc4d9	0.1677431
27	0x3e78d420	0.2429967
28	0x3e08b0a6	0.13348636
29	0x3cadf05a	0.021232773
30	0xbe93a4b8	-0.28836608
31	0xbeb9fe33	-0.3632675
32	0xbeb50f6b	-0.35363325
33	0xbc383c7e	-0.011244891
34	0x3d57c97d	0.05268239
35	0xbe8ab778	-0.270931
36	0xbdff0030	-0.12451208
37	0xbd1e9566	-0.038716696
38	0xbe9a1471	-0.3009372
39	0x3e685f79	0.2269267
40	0xbe07856e	-0.13234493
41	0x3d1b36d5	0.03789409
42	0xbe92b9c1	-0.28657344
43	0xbcd4d5de	-0.025980886
44	0x3d4ac149	0.049500737
45	0x3c7c5df5	0.0154032605
46	0xbe484328	-0.19556868
47	0x3edaa524	0.42704117
48	0x3dceecf4	0.10103789
49	0xbe232056	-0.15930304
50	0xbe162641	-0.1466303
51	0xbd97128f	-0.07376587
52	0xbeac209e	-0.33618635
53	0x3cde78a6	0.027157139
54	0xbe2fdfc2	-0.171752
55	0x3f05dd66	0.5229095
56	0xbd70c4dd	-0.058781493
57	0xbe2f531f	-0.17121552
58	0x3db564ea	0.088571385
59	0xbdfd49fd	-0.12367628
60	0x3eba9602	0.36442572
61	0xbd41b941	-0.047295813
62	0xbdba250e	-0.09089099
63	0xbea1b6fa	-0.31584913
64	0x3e162b3a	0.14664927
65	0xbe9dce00	-0.30821228
66	0x3ecccefb	0.40001664
67	0xbd8f79b4	-0.07005635
68	0x3dc4baab	0.096059166
69	0x3da6ee22	0.08150889
70	0xbdd9f747	-0.106428675
71	0xbd1acba6	-0.03779187
72	0xbe602370	-0.21888518
73	0xbead2449	-0.33816746
74	0x3df649e3	0.120258115
75	0x3cb0b33c	0.02156984
76	0x3e30843f	0.17237948
77	0x3ca6fee2	0.02038521
78	0x3e577382	0.21040156
79	0x3e9f0145	0.31055656
80	0xbe3d9b63	-0.18516307
81	0xbce8b059	-0.028404402
82	0xbe2a2d16	-0.16618761
83	0xbe29f033	-0.16595535
84	0xbcb55f3f	-0.022140143
85	0x3d6e6cc1	0.058209185
86	0x3e1687f1	0.14700295
87	0xbd54e414	-0.051975325
88	0x3dad54cf	0.084634416
89	0xbe6d3e2a	-0.23168245
90	0xbe138511	-0.1440623
91	0x3bfda538	0.007740643
92	0x3e772a4b	0.24137227
93	0x3e7dba23	0.24778037
94	0xbd8e94ea	-0.06961997
95	0xbe2e40e8	-0.17016947
96	0x3d453c20	0.048153043
97	0xbde7b652	-0.11314072
98	0x3e0cfcb9	0.13768281
99	0xbea38914	-0.3194052
100	0xbe6848a3	-0.22683959
101	0x3da707aa	0.08155759
102	0x3d9e69d2	0.077350274
103	0x3ddbda49	0.10734994
104	0xbe52539c	-0.20539707
105	0x3deb6235	0.11493341
106	0xbe09b10e	-0.13446447
107	0x3e14df41	0.1453829
108	0xbee242bf	-0.44191548
109	0x3e17c922	0.1482282
110	0xbd8cf8fd	-0.06883428
111	0xbebb995a	-0.36640435
112	0x3e2e5a19	0.17026557
113	0x3bbd44ee	0.0057760393
114	0xbc11c149	-0.00889618
115	0x3e41d1ff	0.18927763
116	0xbe6816a3	-0.22664885
117	0x3eb31fa7	0.34985086
118	0x3da54732	0.0807022
119	0xbe020bc7	-0.12699805
120	0x3e795cc7	0.24351798
121	0x3d60bac5	0.054865617
122	0xbec62d86	-0.38706607
123	0x3e6ee7be	0.2333059
124	0x3d56bae0	0.05242431
125	0xbdb15f13	-0.08660712
126	0xbe3bf792	-0.1835616
127	0x3f04fca9	0.5194803
128	0x3e661815	0.22470124
129	0xbde16bde	-0.11006902
130	0xbe3bfb7e	-0.18357655
131	0x3e6a7fc4	0.22900301
132	0x3e3ee97f	0.18643759
133	0xbe74c32d	-0.23902579
134	0x3e1bc8ed	0.15213366
135	0x3e29b450	0.1657269
136	0xbe8e43b5	-0.2778603
137	0x3f15352b	0.5828425
138	0xbd24c91e	-0.040230863
139	0xbea6df4e	-0.32592243
140	0x3e89d593	0.26920757
141	0xbd99e900	-0.07515144
142	0x3dd1690e	0.10225116
143	0xbc1fbcbf	-0.00974959
144	0xbea1bf82	-0.3159142
145	0x3e99a926	0.30011863
146	0x3e7818ee	0.2422826
147	0x3dd4def6	0.10394089
148	0x3eb82ae8	0.35970235
149	0xbd1f2ca5	-0.038860936
150	0xbe86805f	-0.26269814
151	0x3c946c07	0.018117918
152	0xbdfcb2db	-0.123388015
153	0x3eab3f71	0.3344684
154	0x3e3f8aa7	0.18705235
155	0x3ed85f4a	0.422602
156	0xbdefd6bd	-0.1171088
157	0xbe069e27	-0.13146268
158	0x3cc21f1f	0.02369648
159	0x3e7eecd6	0.24895033
160	0x3ed9df55	0.425532
161	0x3d478693	0.048712324
162	0xbbd2d7c9	-0.006434415
163	0x3cf2f7a4	0.0296591
164	0x3e6454d7	0.22297989
165	0xbe4b1bc3	-0.19834809
166	0x3d55a33c	0.052157626
167	0x3d42853b	0.04749034
168	0xbd2b7de5	-0.04186811
169	0x3d302f2b	0.043013733
170	0x3d2cdeaa	0.042204536
171	0xbe9c91df	-0.3058004
172	0xbe1b71cc	-0.15180129
173	0x3ee63839	0.4496477
174	0xbe5fbf9a	-0.21850434
175	0x3e86c321	0.26320747
176	0x3e362cd6	0.17790541
177	0xbde10f67	-0.10989266
178	0x3e0f025c	0.13965744
179	0x3e980c97	0.29697105
180	0x3cc74d8c	0.02432897
181	0xbd4813a7	-0.048846867
182	0x3d9bd53a	0.07609029
183	0xbe5264ce	-0.20546266
184	0x3e31b2c1	0.17353345
185	0x3d0e33d1	0.034717385
186	0x3e9733b8	0.29531646
187	0x3e2b5208	0.16730511
188	0x3e109e91	0.14122988
189	0xbe1ee4c1	-0.1551695
190	0x3e8782d4	0.26467
191	0xbd7b8018	-0.061401457
192	0xbd0cfcd0	-0.03442079
193	0xbbd86da5	-0.0066048675
194	0x3e973872	0.29535252
195	0x3ea67757	0.32512924
196	0xbd7c8c1a	-0.06165705
197	0xbca484b9	-0.020082818
198	0xbcab2c9e	-0.020895299
199	0xbc913775	-0.01772664
200	0x3d3d4b65	0.04621448
201	0xbe9dd050	-0.30822992
202	0x3e001a50	0.12510037
203	0x3d2004dc	0.039067134
204	0xbe77a0bb	-0.24182408
205	0x3e6056c9	0.21908106
206	0xbdc0d2cb	-0.094152056
207	0x3e1ae872	0.15127733
208	0x3e4430aa	0.19159189
209	0x3d11d55e	0.035603873
210	0x3d9e9231	0.077427275
211	0xbe37e783	-0.17959408
212	0x3ee88d23	0.4542018
213	0xbd94756e	-0.072489604
214	0x3dbc2492	0.09186663
215	0x3e96050c	0.29300725
216	0x3e56b8d9	0.20968951
217	0x3e8852f2	0.26625782
218	0x3d29ee38	0.04148695
219	0x3dc3a6d9	0.09553308
220	0xbbfd7e21	-0.007735983
221	0x3da2ca01	0.079486854
222	0x3c545404	0.012959484
223	0x3d190b01	0.03736401
224	0xbe5d0afc	-0.21586221
225	0x3e8a0f3a	0.26964742
226	0xbe3faa9a	-0.18717423
227	0xbe64b4b6	-0.22334561
228	0xbe07fece	-0.13280794
229	0xbe7d0419	-0.24708594
230	0xbe8bb857	-0.27289078
231	0x3ed171e3	0.409072
232	0x3e7dfeb4	0.24804193
233	0x3e6c1f3d	0.23058791
234	0xbe3de73a	-0.18545237
235	0x3e68b48c	0.22725123
236	0x3dabb1c4	0.083835155
237	0xbe1619ee	-0.14658329
238	0x3e77a17b	0.24182694
239	0xbe2e5066	-0.17022857
240	0xbc7a172b	-0.015264313
241	0xbe9d2a15	-0.3069617
242	0x3eacc460	0.33743572
243	0xbec2ab3b	-0.38021263
244	0xbe8562d2	-0.26051956
245	0xbea1c3b5	-0.31594625
246	0xbe4cf2f4	-0.20014554
247	0xbde9b03d	-0.11410568
248	0x3ede51fb	0.4342192
249	0xbd2d1ac9	-0.042261872
250	0xbf014752	-0.5049945
251	0x3df17a15	0.117908634
252	0xbdf04d85	-0.11733536
253	0x3e8b1250	0.2716241
254	0xbeb75446	-0.35806483
255	0xbe1f9848	-0.15585434

q2_network.network_body._body_endoder.seq_layers.2.bias f4 [20]
0	0x00000000	0.0
1	0x00000000	0.0
2	0xbc502875	-0.012704958
3	0x3c82459b	0.015902331
4	0xbc1516a6	-0.009099638
5	0x3c38e48c	0.011284959
6	0xbc193b82	-0.009352567
7	0xbc98a600	-0.018633842
8	0xbbee57b1	-0.007273637
9	0x3d072aef	0.03299993
10	0xbc656acf	-0.014002516
11	0x3c4b0237	0.012390665
12	0x00000000	0.0
13	0x00000000	0.0
14	0x00000000	0.0
15	0x3b384dad	0.002812247
16	0x3c05ccd9	0.008166515
17	0xba9167f3	-0.0011093601
18	0x3c03639d	0.008019355
19	0x1c138f0b	4.88231e-22
