results/ppo3/AI Car/AI Car-199997620.onnx (onnx, 277974 bytes, 11 tensors)

network_body.observation_encoder.processors.0.normalizer.running_mean f4 [312]
00000000: b657 373e 25c1 613d 3471 5a36 13ba d73a
00000010: 8d80 3f3f 409e 583f 421b 8e3e 5485 403d
00000020: a072 5b36 9df3 983a bd7b 283f 555a 4d3f
00000030: 1289 a93e 3d35 4e3d 894d 7836 34c8 ad3a
00000040: 71df 193f 544d 473f 52a2 153f 8c78 ef3c
00000050: ec6b d735 6ee1 0a3a a03b bd3e d4a7 293f
00000060: c1a2 1f3f 9c6b 0a3d 0b0a 5036 c376 113b
00000070: fd06 a63e 13d6 233f 5ebc 593f a171 783c
00000080: f161 5134 be73 dc39 4b27 f13d 4825 003f
00000090: ac81 4f3f 643b 823c 11f9 4536 cf1e 753b
000000a0: f056 1d3e d776 033f 4a2d 633f 4069 033c
000000b0: 0000 0000 8cab 6739 15a7 b43d 46f0 e33e
000000c0: bf4a 5b3f 1cf1 d23b 2083 b235 195e 8f3b
000000d0: 9077 ee3d 778a ee3e 4668 553f 7540 743d
000000e0: f6cc ab31 97df 4539 d32f b93d ca53 e93e
000000f0: 5344 4f3f ad75 643d 345a 1a35 ce77 913b
00000100: 1a81 e93d 690d f03e cae9 243f c5db 783e
00000110: 534a c335 dcba f339 acfa c43d 11f9 ea3e
00000120: c8c7 223f 3ba6 6d3e 9c7b 2e36 e54f 773b
00000130: c8ac e53d f8ff e83e cf69 383e c077 623d
00000140: 06c7 c136 ceb3 da3a cc8e 403f c0cc 593f
00000150: f9f7 8e3e 9d31 413d 57e5 a036 36b7 9b3a
00000160: 8e61 293f 8675 4e3f 2845 aa3e 1edc 4e3d
00000170: 9d4e f836 96c7 b03a 7ad5 1a3f 4374 483f
00000180: 108b 163f 338f f03c 56d7 3136 8b4a 0f3a
00000190: 5117 be3e 6789 2a3f 6074 203f 11e5 0a3d
000001a0: 9ad6 e336 87f9 123b e511 a73e 98cb 243f
000001b0: dee5 5a3f 180d 7a3c f2aa 1735 a992 e139
000001c0: 00a6 f23d 3ad3 003f 83a1 503f 3dc4 823c
000001d0: f44b ab36 dc7b 763b 0a42 1e3e 0a36 043f
000001e0: 7765 643f 8f80 043c 0bcd ab32 ed2a 6b39
000001f0: 1ac6 b53d 7b29 e53e 6d80 5c3f 9ff0 d33b
00000200: 3293 0936 70f3 8f3b b2b3 ef3d 11db ef3e
00000210: 8993 563f 8095 753d f6cc ab31 e49e 4639
00000220: 8f2d ba3d 0c8f ea3e 306f 503f f18c 653d
00000230: 6d76 5d35 6df2 913b 5f97 ea3d 755b f13e
00000240: 56d2 253f d64c 7a3e 534a c335 ceec f339
00000250: 1cd4 c53d 9c2e ec3e aeb6 233f 92e4 6e3e
00000260: a52c 3236 c6fe 773b efb9 e63d 4a45 ea3e
00000270: 1083 393e 7f2c 633d 704b 1e37 16b2 dd3a
00000280: 869c 413f 59fa 5a3f f3d5 8f3e 5bdb 413d
00000290: 0d78 f836 a880 9e3a ce46 2a3f 988f 4f3f
000002a0: 3b03 ab3e 3581 4f3d af83 3f37 c4d7 b33a
000002b0: a1ca 1b3f 629a 493f 6072 173f 4aa4 f13c
000002c0: a8ea 8a36 d8b9 133a b0f5 be3e 386a 2b3f
000002d0: 1545 213f 0660 0b3d 9cf3 3537 207b 143b
000002e0: 6f1e a83e ecc0 253f 330f 5c3f 1aa7 7b3c
000002f0: 036b a435 7f90 e639 6f22 f43d fc80 013f
00000300: f9be 513f 7f4c 833c 11b6 1137 eed6 773b
00000310: 1235 1f3e 39f6 043f 2d9d 653f b99d 053c
00000320: 01cd ab33 bf26 6f39 03e5 b63d 1d62 e63e
00000330: f7b5 5d3f 02f6 d43b 803b 8836 7c87 903b
00000340: a0f5 f03d 992c f13e 76be 573f 1eea 763d
00000350: f6cc ab31 988d 4739 cf2f bb3d 8dcb eb3e
00000360: dc9a 513f d7a6 663d b20d d235 186d 923b
00000370: 5fac eb3d 1ba9 f23e 69ba 263f 4dbe 7b3e
00000380: ebf5 c335 281b f439 e5b3 c63d 7f66 ed3e
00000390: baa2 243f c825 703e 09ab 4936 21ae 783b
000003a0: f2d2 e73d 618a eb3e 9c95 3a3e 69e1 633d
000003b0: 4139 5f37 6690 e03a 66ab 423f da28 5c3f
000003c0: 64b1 903e bb86 423d 1e34 3637 352f a13a
000003d0: ba2d 2b3f 4caa 503f b2ba ab3e bf24 503d
000003e0: 33bb 8137 a8c6 b63a 8cc3 1c3f c8c1 4a3f
000003f0: 4358 183f 36bb f23c 7001 e436 a43d 183a
0.17904553 0.055115838 3.2550424e-06 0.0016458653 0.7480553 0.8461647 0.2775517 0.04700215
3.2700264e-06 0.0011669282 0.6581381 0.8021596 0.3311239 0.05034374 3.7000011e-06 0.0013258518
0.6010657 0.7785237 0.58450806 0.029232286 1.6050158e-06 0.0005297874 0.36959553 0.6627171
0.6235772 0.03379403 3.100026e-06 0.0022196032 0.32427207 0.63998526 0.8505305 0.01516381
1.9500273e-07 0.00042047905 0.11775073 0.50056887 0.8105724 0.01589746 2.9500263e-06 0.0037402397
0.15365195 0.5135321 0.8874098 0.008020699 0.0 0.00022093783 0.08820931 0.44519252
0.8566093 0.006437434 1.3300196e-06 0.004375231 0.116438985 0.46590015 0.83362234 0.059631784
5.0000564e-09 0.00018870678 0.09042325 0.45571738 0.8096363 0.055776287 5.7500733e-07 0.0044393307
0.11401577 0.4688523 0.64419234 0.24302585 1.4550263e-06 0.00046487793 0.09618124 0.45893148
0.6358609 0.23207943 2.599997e-06 0.003773683 0.11214596 0.4550779 0.18009113 0.055289984
5.7750176e-06 0.0016685666 0.7521789 0.8507805 0.27923563 0.047166456 4.7950703e-06 0.0011880163
0.6616448 0.80648077 0.33255887 0.05050289 7.4001277e-06 0.0013487216 0.6048199 0.783024
0.5880594 0.029365158 2.6500397e-06 0.0005466125 0.37127164 0.6661591 0.62677574 0.03390986
6.79011e-06 0.0022426562 0.3263084 0.6437316 0.85507 0.015261911 5.650064e-07 0.00043024615
0.11848068 0.50322306 0.8149645 0.015962714 5.1050392e-06 0.0037610447 0.1545488 0.5164496
0.89217323 0.008087291 2.0000263e-08 0.00022427338 0.088756755 0.4475821 0.8613346 0.0064678933
2.050027e-06 0.0043930337 0.11704196 0.46846822 0.8381887 0.059957027 5.0000564e-09 0.00018941943
0.09090721 0.4581226 0.8141966 0.056042615 8.250125e-07 0.0044539482 0.11454653 0.4714009
0.6477407 0.24443373 1.4550263e-06 0.00046525005 0.09659597 0.4612931 0.6395062 0.2332938
2.6550053e-06 0.0037841066 0.11265933 0.45755988 0.18116403 0.055462357 9.435098e-06 0.0016914036
0.7562946 0.8553825 0.28092918 0.047328334 7.4049517e-06 0.0012092786 0.6651429 0.8107848
0.33400902 0.05066033 1.1415147e-05 0.0013720919 0.6085606 0.78751194 0.591589 0.029497284
4.140038e-06 0.0005635298 0.3729682 0.6695895 0.62996036 0.034027122 1.084516e-05 0.0022656396
0.3283572 0.647475 0.8596069 0.015359664 1.2250097e-06 0.00043976677 0.1192063 0.5058744
0.81932026 0.016027687 8.685064e-06 0.0037817317 0.15547588 0.51938206 0.89692956 0.00815528
8.000098e-08 0.0002280725 0.08930399 0.4499673 0.8660578 0.006499053 4.0600426e-06 0.0044106822
0.11765599 0.47104338 0.84274995 0.060281865 5.0000564e-09 0.00019030867 0.09139978 0.46053734
0.8187692 0.056311455 1.5650205e-06 0.0044685714 0.115074866 0.47394642 0.6512819 0.24584313
1.4600204e-06 0.0004655954 0.09702281 0.4636726 0.643108 0.23451912 3.005089e-06 0.0037945586
0.113195315 0.46004012 0.18221134 0.05563489 1.3305166e-05 0.0017132878 0.76042783 0.85999835
0.28260338 0.04749177 1.086018e-05 0.0012297394 0.6686665 0.8150985 0.33540875 0.050816294
1.546517e-05 0.0013944702 0.6123588 0.79201937 0.59509677 0.029630285 6.795097e-06 0.0005807525

network_body.observation_encoder.processors.1.normalizer.running_mean f4 [88]
00000000: 394f a542 f5fb a043 8e39 31c2 7475 9d42
00000010: 70ae a043 0c5c 32c2 c746 923c 26eb 053d
00000020: b8e7 7cba 2d52 083f 74bb 1442 0000 0000
00000030: 0000 0000 4635 b041 700e 6f42 a300 a143
00000040: c008 1ac2 062c a042 c803 97be ad80 8cbd
00000050: 0efc abbc 0499 553f d617 a742 e1e2 a143
00000060: ed62 2ec2 344f 9f42 5291 a143 3472 2fc2
00000070: fc08 933c 7269 0c3d 199d 85ba c625 093f
00000080: 2c83 1542 0000 0000 0000 0000 3fc8 b041
00000090: 05fd 7242 b1e4 a143 3921 17c2 4a10 a142
000000a0: b9d5 96be f435 8dbd 11fb aabc a7d4 563f
000000b0: 55e1 a842 b7cc a243 338b 2bc2 1429 a142
000000c0: df76 a243 e687 2cc2 d5c6 933c dcec 123d
000000d0: e5e6 8cba fef8 093f d14a 1642 0000 0000
000000e0: 0000 0000 515b b141 e9ec 7642 dfcd a243
000000f0: 1a39 14c2 bef4 a142 3aa8 96be 1dec 8dbd
00000100: 2504 aabc 1810 583f b6aa aa42 35b2 a343
00000110: 45b3 28c2 e703 a342 cd5f a343 db9c 29c2
00000120: 8487 943c ac71 193d 301a 94ba b8cb 0a3f
00000130: c711 1742 0000 0000 0000 0000 21ee b141
00000140: dadd 7a42 21b6 a343 9a4f 11c2 06d9 a242
00000150: 0d7b 96be 94a4 8ebd b221 a9bc f84b 593f
82.65473 321.9684 -44.306206 78.7294 321.3628 -44.58989 0.017856015 0.03269496
-0.0009647566 0.5325039 37.18306 0.0 0.0 22.026012 59.7641 322.00497
-38.508545 80.08598 -0.29495072 -0.068604805 -0.020994212 0.8343661 83.546555 323.7725
-43.596607 79.65469 323.1353 -43.861526 0.01794862 0.034280248 -0.0010193913 0.5357326
37.378098 0.0 0.0 22.097776 60.74709 323.78665 -37.782444 80.531815
-0.29459932 -0.06895056 -0.02087167 0.8391823 84.4401 325.59933 -42.885937 80.58023
324.92868 -43.132713 0.018039146 0.035870418 -0.0010749964 0.53895557 37.573063 0.0
0.0 22.169588 61.731358 325.60837 -37.055763 80.97801 -0.29425222 -0.06929801
-0.02075393 0.8439956 85.33342 327.39224 -42.175068 81.50762 326.74844 -42.40318
0.018131025 0.03746192 -0.0011299308 0.542171 37.76736 0.0 0.0 22.241274
62.716652 327.42288 -36.327736 81.423874 -0.29390755 -0.069649845 -0.02064595 0.84881544

network_body._body_endoder.seq_layers.0.weight f4 [128, 400]
00000000: 47a3 d63e b058 ed3d 57d6 063e 48c8 073e
00000010: 1638 5ebd 7e72 7ebd ff1a 573e 6400 02bd
00000020: 1bb2 743d 1670 923e 477a 8d3e c3c8 db3c
00000030: 7da5 cabe 26ad 553e 2f20 a73d 4adf af3e
00000040: ab62 f73e d736 b73e b852 20be 0042 3e3e
00000050: d970 963d a885 6c3e 2891 de3e dd17 f83e
00000060: 22b3 85be c7d6 023f e4a6 d2bc f9fb c13e
00000070: b890 943e aa7c 623d f316 08be 82fa 0e3e
00000080: 3a10 bd3c 3fe9 e23e faa9 c13e 2260 e73e
00000090: f4c8 85be c84e 313e 123f c9bd 56ed 453d
000000a0: 86ac f43e a74c 6b3d ef9f 36ba ceae 083d
000000b0: 5319 043d 3c48 ef3e 1653 f03e 1d12 fd3e
000000c0: b89d 533e a0a8 0a3f 3a45 e33d 8e2c 75be
000000d0: 09cb fbbd 8d75 7bbd 09f7 963d fa55 863e
000000e0: 10bb 8e3e 1ed3 423e f736 c83d 5e72 6b3d
000000f0: c83e 20bd ecf0 c93e 9f48 f13c aef5 c6bd
00000100: 18fa 433e ed00 77bb b1f1 8dbd 24f3 073e
00000110: 6c1e e13e 30d0 f83d d53c 303e 3393 9e3d
00000120: 1b93 513d 6412 693e a8ec 033e e0e1 efbc
00000130: 0254 aa3d 9ea1 a2be d757 2f3f 05e1 203d
00000140: 319b 2f3e ddd0 3d3e 4dd5 44be 6adb 9fbe
00000150: ad82 f63e 05d7 16bd d57c d23d faea 6b3e
00000160: 4d6d b6bc a455 43be f4b0 3dbe 5179 f93e
00000170: c996 9f3d a52c cd3e 30b9 443e 3a9c 463d
00000180: 0f85 dd3d 588e ed3d 4bac 1d3e 308d 5c3e
00000190: e5b1 d23d f855 963d ecba 2c3e e208 d53e
000001a0: c7e3 1a3d 2026 573c aca0 463d f92d abbe
000001b0: 8c85 863e 8542 1e3d 2ec1 dd3d d8f8 ae3e
000001c0: 1dde 653d 61a9 f43d ee0c 16be 74c3 1b3f
000001d0: 117e 843d 0b32 1abe 2508 823e 4275 76bb
000001e0: a012 e23d dc34 483d bd05 833d b9d8 cd3e
000001f0: e964 01bc b627 663d 2140 863d 0842 983c
00000200: 3e38 6fbc e3e2 873c 0542 be3e 0950 a13e
00000210: e9f9 db3c 1c81 073f 5e2c 5b3e 6905 323e
00000220: 68d3 dbbc 3380 83bd 8fd5 1a3e 5db0 463d
00000230: cae0 553d 85e5 9f3c 1483 1a3e 9ca6 eebd
00000240: 8065 533d 13d9 9f3d 3a29 2d3f 967f cf3d
00000250: ad9c be3e accf 713d 64a7 343e c0f2 133f
00000260: f6b2 f13e 1ce8 343e 0f9d febe 8f0e 02bf
00000270: be04 ca3e 2537 7d3c fdbc 933b 9c68 0cbe
00000280: ffd7 f0bc 29c0 d7bd 7669 d03e 30b6 34bc
00000290: 72f2 2e3e 815f 3c3d dba6 99bd 9ffc 38be
000002a0: 6d48 053e d089 203e fd5b f23d 34c8 623e
000002b0: 6885 14bd 0668 d3bd 759f 843c 2262 af3d
000002c0: 06af 9d3d 4333 ba3e 9d75 053e 2769 c43c
000002d0: fb7f 11be 998f 633e c5e5 843d 6cfa edbd
000002e0: c52e 3d3e 53fa 5b3e ffb2 da3c a8c1 aa3d
000002f0: 0206 8cbb 62b3 1b3f 4c26 413e 7411 1d3e
00000300: 3369 98bb 3467 133f 7571 113e 398a cbbe
00000310: f03c 263e 71e6 72be 8d56 053e d28f 8ebe
00000320: d17e 8a3d 7427 8f3e 15cc 483d f56b c3bc
00000330: 5ce6 07be d7ed e13e b83d bc3c 1e9c 61be
00000340: 4f31 803e 3945 cdbd c003 c3bd fb5b ab3c
00000350: 7f94 173e 2305 55bd fb0d 843e f189 7b3e
00000360: d19c 223e a99d 2e3e a883 1a3d 93c1 bfbe
00000370: c20c 083e eead 8ebb 0a28 963e 36e5 c4bd
00000380: 88e3 e53e 8ac8 003d 2d22 473b a000 edbc
00000390: ff55 a93e 4236 533e 7f7a 0f3f 112c 41bd
000003a0: 956f 3bbe 0060 80bd 9417 883d 63f2 fbbe
000003b0: d69a f23d 5f0c bdbc 0ec0 133e dbeb 9b3d
000003c0: 1063 b43d 2e3c 2cbd c21b d03d 1542 a53d
000003d0: b197 493d 5b9d 58be 7182 31bf 6a68 85bc
000003e0: 41fd 983d 86ac 183e c322 1c3f 97e6 1e3f
000003f0: 17ec 8a3d ce0f 28bd 5aa1 a93d fd49 853e
0.41921446 0.115891814 0.13167702 0.13259995 -0.054252706 -0.062120907 0.21006392 -0.031738654
0.059740167 0.2860114 0.27632353 0.02682913 -0.39579383 0.20866832 0.081604354 0.34350044
0.48317465 0.35784027 -0.15656555 0.18579865 0.07345743 0.23097861 0.4347012 0.48455706
-0.2611323 0.51108974 -0.025714345 0.37887552 0.29016662 0.05529467 -0.13290004 0.13962749
0.023079026 0.44318578 0.37824994 0.4519053 -0.26129878 0.17315209 -0.09826483 0.048322044
0.47787875 0.05744615 -0.0006966581 0.03336983 0.032250714 0.46734798 0.4693839 0.49427882
0.20665634 0.5416355 0.11097188 -0.23942778 -0.12294585 -0.061391402 0.07371337 0.2623747
0.27877092 0.19025847 0.09776109 0.057482116 -0.039122373 0.3944162 0.029453574 -0.097148284
0.19138372 -0.003768976 -0.069308646 0.13276345 0.43968523 0.121490836 0.17210706 0.0774292
0.05116568 0.22760922 0.12883246 -0.02928251 0.083168045 -0.3176393 0.6849341 0.039277095
0.17149045 0.18536706 -0.19221993 -0.31222087 0.48146573 -0.036826152 0.10277716 0.23038855
-0.022268916 -0.19075638 -0.18524534 0.4872537 0.07792432 0.40073124 0.19211268 0.048488833
0.108163945 0.115994155 0.15397756 0.21538234 0.10287837 0.07340616 0.1686818 0.4160834
0.03781488 0.013131648 0.048493072 -0.33433512 0.26273763 0.038637657 0.10827862 0.34174228
0.056120027 0.11946369 -0.1465337 0.6084511 0.06469358 -0.15058152 0.2539684 -0.0037606512
0.11038709 0.048878536 0.06397579 0.4020441 -0.007897594 0.056190215 0.065552 0.018586174
-0.0146008115 0.01658768 0.37159744 0.31506374 0.026852565 0.5293138 0.21403643 0.17384876
-0.026834205 -0.064209364 0.15120529 0.048508037 0.05221633 0.019518623 0.15089065 -0.11652872
0.05161047 0.078050755 0.6764103 0.10131757 0.3722891 0.059035942 0.1764198 0.5779228
0.4720685 0.17666668 -0.497292 -0.50803465 0.39456743 0.015455042 0.004508613 -0.1371178
-0.02939987 -0.105346985 0.4070546 -0.011029765 0.17084673 0.045989517 -0.07502528 -0.18065117
0.1301591 0.15677571 0.118339516 0.22146684 -0.03626004 -0.10322575 0.016189316 0.08563639
0.07699399 0.36367235 0.13033147 0.023975922 -0.14208977 0.22222747 0.064891376 -0.1162003
0.18474872 0.2148221 0.02669668 0.08337718 -0.004273177 0.6082059 0.18862265 0.15338689
-0.0046512126 0.5757935 0.14203437 -0.39753893 0.16234183 -0.23720719 0.13021298 -0.278441
0.067624696 0.27959788 0.049022753 -0.023855189 -0.13271469 0.4412677 0.022978649 -0.2203221
0.2503762 -0.10022969 -0.095222 0.020917883 0.1480274 -0.052006852 0.25791916 0.24564339
0.15880133 0.1705233 0.037723213 -0.37452373 0.13286117 -0.00435423 0.29327422 -0.09614031
0.44900155 0.03144125 0.003038536 -0.028930962 0.33073422 0.20626166 0.5604629 -0.047161166
-0.18304284 -0.062683105 0.06645122 -0.49208364 0.11845939 -0.023077188 0.14428732 0.07613345
0.08807957 -0.04204958 0.101615444 0.08069245 0.04921693 -0.21153776 -0.6933966 -0.01628514
0.07470179 0.14909562 0.6099054 0.620706 0.06783312 -0.041030698 0.082827285 0.2603301

network_body._body_endoder.seq_layers.0.bias f4 [128]
00000000: 9ecd 83bf 237b 34bf 6f57 90bf 8984 0bbf
00000010: 993e 06bf c78a 23bf d299 50be a484 0cbf
00000020: 32d6 1abf 8d6c 83bf 0b49 6bbe 5a02 9bbe
00000030: 0110 a9be 697f 6fbe 1c93 14bf 56a8 d8be
00000040: 2f8d 64be fde9 83bd 8386 17bf b1a8 36be
00000050: 1b2e c6be e48b 16bf bbd2 9dbe d0e7 47bf
00000060: 7453 31bf d90e 5abf a546 5bbf 6bb0 5fbf
00000070: a26e 30bf e102 2bbf e112 e6be d672 21bf
00000080: 93a4 28be ecb0 23bf f640 59bf 9012 b7be
00000090: 61f7 1abf 757b 29bf 4fd5 f9be 7295 e7be
000000a0: 0576 50bf 15f5 42bf 6c12 babf 2195 5dbe
000000b0: e320 54bf 09d2 1fbf 1442 77bf ebef 98bf
000000c0: bdde 13bf c8ed 2ebf 3c47 a0bf 0af0 84bf
000000d0: 3af5 86bf f3e2 6ebf 76a5 79bf 84a8 f9bc
000000e0: 863a 70bf c406 46bf 78e9 81bf 89aa a9be
000000f0: ce7d 0e3e 3ea8 93bf d348 58be e2ee 1bbf
00000100: 5f93 bfbe 4440 88bf 58cc 86bf 1b02 ccbe
00000110: cd89 a3be 5a64 95bf 1063 b4bf 4983 87bd
00000120: f96d 39bf 261c 82bf 626b 0ebf d7a2 00bf
00000130: 5847 f9be 845c a1bf 5386 28bf 6b8d 0bbf
00000140: 7f8e 71bf 042c 4abf b369 f73d 67b5 4ebf
00000150: 0b22 b8be 5d3a 7abe f823 46bf 569f b0bf
00000160: be1c 46bf 60d1 74bf 17ce 99be fbac 4cbf
00000170: 24c8 75bf 4619 f3be a278 8abf d84f fcbe
00000180: 0a58 6bbe 0a1f 06bf afa5 9bbe 3bf4 5cbe
00000190: 4e92 2abf 43be 1abf 364e 27bf 4ddd d6be
000001a0: b31d 35be fdc0 e9be c5ce 0ebf 28b9 afbf
000001b0: 5ba7 83bf 8430 e3be 69e2 2fbf 4e15 1fbf
000001c0: d658 933d 7d28 43bf 5307 64bd 789a 61bf
000001d0: 4f9b 43bf 2b4d 11bf a6ce 57bf 5db8 10bf
000001e0: 2597 57bf ffae 1fbf 1944 c73c 22bf b1be
000001f0: 0298 73be 9e13 dbbe aea4 0cbe 021d a8be
-1.0297124 -0.7050039 -1.1276683 -0.5449911 -0.52439266 -0.6388363 -0.20371178 -0.54889894
-0.60483086 -1.0267502 -0.22977082 -0.30275232 -0.33020023 -0.23388447 -0.5803697 -0.4231593
-0.22319482 -0.06441114 -0.59189624 -0.17837788 -0.3870705 -0.58807206 -0.30824837 -0.7808809
-0.69267964 -0.85178906 -0.8565467 -0.8737857 -0.6891881 -0.6680127 -0.44936278 -0.6306585
-0.1646903 -0.63941836 -0.8486475 -0.3575635 -0.6053372 -0.66204005 -0.48795554 -0.45231205
-0.81430084 -0.76155216 -1.4536872 -0.2163892 -0.8286268 -0.62429863 -0.965852 -1.1948217
-0.57761747 -0.68331575 -1.2521739 -1.0385754 -1.0543587 -0.9331505 -0.975181 -0.030475862
-0.938393 -0.77354074 -1.0149374 -0.3313792 0.13915178 -1.1535718 -0.2112153 -0.6091138
-0.37417123 -1.0644612 -1.0531111 -0.39845356 -0.3194107 -1.167125 -1.4092731 -0.066168375
-0.7243343 -1.016484 -0.55632603 -0.50248474 -0.48687243 -1.2606359 -0.6582996 -0.5451266
-0.94358057 -0.7897341 0.120807074 -0.8074555 -0.35963473 -0.24436326 -0.77398634 -1.3798625
-0.7738761 -0.9563198 -0.30040047 -0.7995145 -0.96008515 -0.4748022 -1.0818064 -0.49279666
-0.22982803 -0.5239111 -0.30399844 -0.21577542 -0.66629493 -0.60446566 -0.65353715 -0.41965714
-0.1768711 -0.4565505 -0.55784255 -1.372838 -1.0285448 -0.44372952 -0.6870485 -0.62141883
0.071946785 -0.76233655 -0.055671047 -0.88126326 -0.7640886 -0.56758374 -0.84299695 -0.56531316
-0.84215003 -0.623764 0.024324464 -0.34716135 -0.23788455 -0.42788404 -0.13734695 -0.3283463

network_body._body_endoder.seq_layers.2.weight f4 [128, 128]
00000000: 2ee3 8f3e 7774 c73d e40d 5d3e ca5a 32be
00000010: 8c69 81be 5b31 153f d5f3 2bbe e81c 27be
00000020: 333f 7ebd a7e8 34be fd8e 3fbf 052f e4be
00000030: b83c 93be f85b 8dbe 00f5 30bf a057 e03a
00000040: 578d c23c 3056 0dbe 79bb 19be 9704 fbbd
00000050: eadb 4abe 961e 2fbf 4a78 31be 5995 0dbe
00000060: f49e 55be 485d e43d 4ea3 073f 4a10 bd3d
00000070: ab5b 41bf cf62 dabd 3fa2 31be 5a92 28bd
00000080: aba9 96be 65e2 1cbe 8d94 bebe de08 56be
00000090: 26b1 ec3d bd74 d63d 9819 63be 0e71 04bf
000000a0: fc16 7e3e a38b a23e 5f4b 03bf 4636 8ebe
000000b0: 6cd4 b2be ef0b b63d cb9b d63d 43a0 80be
000000c0: 0825 f4be 8031 513d 366d 33bd a63e ad3d
000000d0: 30a2 a9bb bb3d e2bc dd94 843e ffc0 11be
000000e0: f2a0 543d 09fc 323e b1a0 38bf f30d 65be
000000f0: 0ac0 64be c1d3 3fbe 01d0 e8be 9658 da3d
00000100: ec4e 08bf 803b 603e a271 293e ebb9 4e3d
00000110: 2bac af3c f4cd ecbe 3e61 613e 6709 e8be
00000120: f672 62bf 7efa efbc 07c9 2dbf 4f65 0cbd
00000130: a295 27be a441 d63e 404c dbbe a8fd 11bf
00000140: cdca abbe 0aba 803e d746 a5be cc68 69be
00000150: 018d 723e 55b9 29bf e135 82be 2521 233e
00000160: 0cfa dfbe e48f 8fbe 6115 26be 3f16 13be
00000170: 1b3b 043d d098 0c3d 45dd c7bd f045 a3be
00000180: 4bea 413d fb8d 9ebb 745e 413d 6bb3 22be
00000190: 33b1 aebe e92d 06bf 45fe f2bd f43a 13be
000001a0: 708c dbbd 3cfe 47be bd4a abbd 78c7 afbe
000001b0: 3c55 17bf ab85 b53c 39c5 183e b9cb 0abd
000001c0: 8388 15bf e507 dcbe 6cc4 9dbe 6a27 d8be
000001d0: 82dc 1fbc 5148 01be 01d6 623e 2384 06bf
000001e0: 9ed7 05bf be7d f0be 85db d9bd 8232 1b3e
000001f0: 9e42 9cbe d07c 083e 3414 563e f7cd 593e
00000200: 5415 8ebe 3123 643e fb91 183e 37e9 40be
00000210: 77f3 90be 500c 36bc 6a09 35be d89a 25bf
00000220: fd36 fc3d 2ff2 3c3d 8d13 18bf 6cb7 5bbe
00000230: 3876 bdbe 2cfc 37be 4c18 853e 3a94 02bf
00000240: e91c c8be 1a0a efbe e458 a3bd f84b 3e3e
00000250: e934 51bf cb2f 683c b32e 143f d65b f83d
00000260: e6f5 71be a0f5 25be 3851 eebd be11 26be
00000270: bb16 a9be b531 c8bc f520 0dbe 0f64 7ebe
00000280: b0fc 9c3d 800e e0be 9278 703e dc29 03bf
00000290: 26b5 3a3c d9ed abbe 7067 bf3e bf45 5b3e
000002a0: 0898 8f3e 2f80 4a3e e084 74be 6a57 2fbe
000002b0: cfb7 0ebe 29bc 49bf 16cb 1b3e a4c1 d73e
000002c0: adf4 a5be 66b2 06be ab59 b7be b4b3 b83d
000002d0: 1a4f d8bc b52d 4ebe 5995 953e 8ba0 02be
000002e0: 6a08 313e eae2 513b d02e a73e 8742 813e
000002f0: 192b be3d a566 e2be 1455 123e fad5 d6be
00000300: 9c64 ebbe 565b 973e d64e 7abe a6ce a3be
00000310: af93 9e3d eda5 02bf 385f cb3c 712d 17bc
00000320: 0192 6fbd 42b0 36bc 0e48 bfbe 0159 f2be
00000330: 9bd9 6cbe 57c6 1c3e 553d 783e bc2e d3be
00000340: fa73 4a3e bacd e43e 8fc6 d0be a16a 3dbe
00000350: d8e7 58be 4869 98bd 0dff 52bd ba02 3d3e
00000360: 50ad e6be 3b2a fbbe e7a9 47be 4214 cc3e
00000370: ee22 86be 7a46 bcbe ddb3 8c3e 3062 16bf
00000380: eae9 ec3c 8477 2cbc 64b9 803e f863 1b3d
00000390: e66e 14bc 12b4 0fbf 61c0 f83d 5667 87bf
000003a0: 9d91 f8bb 6423 7abf 5e69 05bf e527 413e
000003b0: 864d e9be 8cf0 3a3e 43b6 33be c999 7abe
000003c0: 1a7f 5c3e 864f 303d e0bd 55bf 76e1 70be
000003d0: 1b56 8dbe 3f48 0ebf 9b4b db3e 83cc 043f
000003e0: d870 df3d 275f 8ebe 3347 3fbe 2fec 24bf
000003f0: ebea 0cbe 26a7 5cbe d373 71be c60a 1e3e
0.28103012 0.09739011 0.2158733 -0.17417446 -0.25275838 0.58278435 -0.16792233 -0.1631962
-0.06207199 -0.17666875 -0.7482756 -0.44567123 -0.28757262 -0.2760923 -0.6912384 0.0017115958
0.023749037 -0.13802409 -0.15012921 -0.12256735 -0.19810453 -0.68406045 -0.17331043 -0.13826503
-0.20861417 0.111506045 0.5298356 0.092316225 -0.755305 -0.106633775 -0.17347048 -0.041155197
-0.2942632 -0.15320738 -0.3722271 -0.2090182 0.11557226 0.10471485 -0.22177732 -0.5173501
0.24813455 0.3174716 -0.5128688 -0.27775782 -0.3492769 0.08888995 0.10478934 -0.2512227
-0.47684503 0.051072598 -0.043805324 0.08459215 -0.005176805 -0.027617326 0.25894824 -0.14233778
0.051911302 0.17478956 -0.72120196 -0.22368602 -0.22338882 -0.18733121 -0.45471194 0.10661428
-0.53245425 0.21897697 0.16547254 0.050470274 0.0214444 -0.4625088 0.22009751 -0.45319673
-0.88456666 -0.029294249 -0.6788487 -0.034276303 -0.16365674 0.41846955 -0.42831612 -0.57027674
-0.33553162 0.25141937 -0.3228061 -0.22793883 0.23686601 -0.6629842 -0.2543173 0.15930612
-0.43745458 -0.28039467 -0.16219093 -0.14363955 0.03228293 0.03432542 -0.09759001 -0.31889296
0.04734258 -0.0048387027 0.04720922 -0.15888755 -0.34119567 -0.52413803 -0.11864904 -0.14377958
-0.10720146 -0.19530576 -0.083638646 -0.3433187 -0.5911443 0.022158464 0.14918984 -0.03388569
-0.58411425 -0.42974773 -0.3081392 -0.4221757 -0.009757163 -0.12625243 0.22151949 -0.52545375
-0.5228213 -0.46970934 -0.10637573 0.15155986 -0.30519575 0.13328862 0.20906144 0.21269976
-0.27750647 0.2227905 0.14899437 -0.18838964 -0.2831075 -0.011111334 -0.17679372 -0.646894
0.12315176 0.0461294 -0.5940483 -0.21456689 -0.37004256 -0.1796729 0.259951 -0.51007426
-0.39084557 -0.46687394 -0.07975939 0.18583667 -0.8172136 0.014171551 0.5788376 0.12126891
-0.23628959 -0.1620698 -0.11636585 -0.16217706 -0.33025154 -0.024437765 -0.13782103 -0.24842857
0.07665384 -0.43761063 0.23483494 -0.5123575 0.011395728 -0.335799 0.37383604 0.21413325
0.28045678 0.1977546 -0.23878813 -0.1712319 -0.13937305 -0.78802735 0.1521419 0.42139924
-0.32413235 -0.13153991 -0.358106 0.09018651 -0.026404906 -0.20134623 0.29215506 -0.12756555
0.17288366 0.003202612 0.32652903 0.2524607 0.09285564 -0.44218937 0.14290267 -0.41960126
-0.45975196 0.2956187 -0.24444136 -0.31993598 0.07743012 -0.5103443 0.024825677 -0.009227143
-0.05848885 -0.011150422 -0.3735966 -0.4733353 -0.23129885 0.15310036 0.24242146 -0.41246593
0.19770804 0.44688207 -0.40776488 -0.18497707 -0.21182191 -0.07441956 -0.051512767 0.18458071
-0.45054102 -0.49055657 -0.19498406 0.39859205 -0.26198524 -0.3677252 0.27480975 -0.5874357
0.028920133 -0.010526542 0.25141442 0.037937135 -0.009059643 -0.5613414 0.12146068 -1.0578411
-0.007585718 -0.9771025 -0.521139 0.18862875 -0.45566958 0.18255824 -0.17549996 -0.24472727
0.2153286 0.04304459 -0.8349285 -0.23523507 -0.27604756 -0.5557899 0.4283112 0.5187456
0.10910195 -0.2780697 -0.18679504 -0.6442289 -0.13761489 -0.21548137 -0.2357934 0.15433797

network_body._body_endoder.seq_layers.2.bias f4 [128]
00000000: 84f8 cebe 0751 48be 1c8d cdbd 1f8f 22be
00000010: 755f 21be 1795 acbe 6815 99be 1e05 f1bd
00000020: 7668 1f3d 6dd9 89be e746 76be 7dfa 803d
00000030: 998b d0be 7056 01be 27d9 99be 7b56 80be
00000040: bb30 c4bd f667 ac3c adba ffbe 1890 37be
00000050: c2c4 4c3d 60f5 25be f524 30be 160c a5bd
00000060: 24a2 57be bb02 69bd 872e 61be 0908 9bbe
00000070: 4289 a1be 2096 abbe 7281 e83d 42a6 6fbe
00000080: 9561 1ebe 8d61 fa3d adb3 adbe e9a2 2abe
00000090: 5436 07bf 1761 bcbe 803d 7abd dedf d3be
000000a0: 3ca9 16be 2cbc cfbe d62a 2e3e 4691 a1bd
000000b0: 1c33 0abe 39a1 20be 2d98 83be 5f73 74be
000000c0: e78a 65be 1636 9c3d 207b 84be 6a51 b6be
000000d0: 7b98 3dbe 2c8c 59be e33c 85be fd12 84bc
000000e0: aa6b 44be 980c cbbe 62ee 8cbe 42fc 6b3e
000000f0: 1b55 61be 0216 0d3c 2603 2dbe 647c bdbe
00000100: 174e a3be 667a 73be 96b2 10be 7efb f7be
00000110: f4ae 5bbe 7516 1abe 836b 7abd 616b b2bd
00000120: 0036 493d 0a97 0b3e 4db1 bdbe a4a4 8abe
00000130: a68c c8be 6b46 eabe 33f7 083c 8b17 08bf
00000140: 36e9 23be 5455 8f3c 7dae 4ebe 1987 d9be
00000150: a72d f4be 9b44 103d e40c 10bf 670b 7f3c
00000160: f893 79be 4284 84be 2b8f cebe 8534 ec3d
00000170: 0676 e7be 289b 3cbe 1a4c 84bd d6e1 16bf
00000180: 3e55 85be ead3 8dbe 2209 8abe 3726 69be
00000190: 92c1 d5be e4aa 9fbe 80e9 9abd 69ad a6be
000001a0: eee7 933d b536 1ebf 7a0d 1fbe 2858 debe
000001b0: 3e37 e53c a45e ebbe 83c9 49be f748 32be
000001c0: 87bc 2cbe 3e2f 80be 11c3 24bd 71bf cf3e
000001d0: 994b 5bbe 99e9 94be f010 de3d 2f0e 18be
000001e0: e324 0abf 8e2a bfbe 0410 68be 9b2b 91be
000001f0: edd5 98be 69b6 69be de61 d5be c154 60bd
-0.40423977 -0.1956216 -0.1003668 -0.15874909 -0.1575907 -0.33707497 -0.29899144 -0.11768554
0.03891798 -0.26923695 -0.24050485 0.06297777 -0.40731505 -0.1263063 -0.30048487 -0.2506598
-0.09579607 0.021045666 -0.4994711 -0.17926061 0.04999233 -0.16206884 -0.17201598 -0.08058946
-0.21057945 -0.05688737 -0.21990405 -0.30279568 -0.31550032 -0.33512974 0.11352815 -0.23403266
-0.15466912 0.122256376 -0.33926144 -0.16663708 -0.52817273 -0.36792824 -0.061093807 -0.41381735
-0.14712995 -0.4057325 0.17008528 -0.07889037 -0.13496059 -0.15686502 -0.25702038 -0.23872136
-0.22416268 0.076275036 -0.25875187 -0.3560899 -0.18515198 -0.21244878 -0.26023015 -0.016122336
-0.19181696 -0.39658046 -0.27525622 0.23045447 -0.22005121 0.008611204 -0.16895732 -0.37008965
-0.31895515 -0.2377716 -0.14130625 -0.4843406 -0.21453458 -0.15047629 -0.061137687 -0.08711887
0.049123764 0.13631836 -0.37049332 -0.27078736 -0.39169806 -0.4575685 0.008359718 -0.53160924
-0.16006932 0.017496742 -0.2018375 -0.42485884 -0.4769108 0.035221677 -0.5626967 0.015566683
-0.24372852 -0.25882155 -0.40343603 0.11533455 -0.45207232 -0.18418562 -0.06459828 -0.5893835
-0.26041597 -0.2770074 -0.26960093 -0.22768484 -0.41749245 -0.31185067 -0.07564068 -0.32554176
0.072219715 -0.61802226 -0.15532485 -0.43426633 0.027980443 -0.45970643 -0.19705777 -0.17410646
-0.16868792 -0.25036043 -0.040225092 0.40575746 -0.21415557 -0.2908447 0.10843074 -0.1484916
-0.53962535 -0.37337154 -0.2266236 -0.2835358 -0.29850712 -0.2282349 -0.4167623 -0.054768328

action_model._continuous_distribution.log_sigma f4 [1, 2]
00000000: 148e 1ebf ceb8 863e
-0.61935544 0.2631287

action_model._continuous_distribution.mu.weight f4 [2, 128]
00000000: 35a1 8b3e 6e88 b83d 2e30 163e ff81 dbbd
00000010: bcf9 273d be4a 0f3e c6a5 5fbd e1e6 a6bc
00000020: 977a e73d aa2a 293f 55c1 93be ec97 58bd
00000030: 2f6f 28be ff0a 8d3d 7666 873e 659c 94bd
00000040: b78f 9fbd 3a80 af3c 57f5 e3bd d722 32be
00000050: c4b0 dbbd d542 91bd 7062 3fbd 3d27 04bd
00000060: 5ad3 c2bd 17e7 103d de15 55bd 4520 d03e
00000070: 6196 06c0 e524 c73d 6728 38bc bfbb 66bd
00000080: 0bf2 7c3d 0bb1 29be 43bd 5e3f f63e 87bd
00000090: 5745 dd3d a7db a73d 6da3 99bd 00b7 c53e
000000a0: a9f1 713e 2e73 8a3e de68 9dbc ec52 29bb
000000b0: b2a2 acbe ab19 c3ba 7020 3d3f 335b 8dbd
000000c0: 317c 6bbc cc0d 97bd 01a6 b0be 8cc4 e0bd
000000d0: dc92 f2be 8683 8abd da0b 97bd d07a 88be
000000e0: d9fb c0bd 5604 e1bd 5a8b a8bd a672 65bd
000000f0: 79ed 20be f216 ba3d acf1 9f3d 40fe 703d
00000100: 3c6e 29be 6819 7ebf b6ef 28be 5f70 febf
00000110: d307 d2bd 38d2 af3e 00c4 7dbd 62fc 44be
00000120: 3906 3e3d 9d1e 43bd 401b b83d 47fc 943b
00000130: 66d6 1f3f 9baf 123e 81e7 c63d c503 8bc0
00000140: d4cd cabd 49dd b1bd f28b cf3c 67fb 16bf
00000150: cba4 793f 896c bbbd b718 f93e 2213 92bd
00000160: 3eb0 aa3e de2a 06be 99fe 24be 57eb be3d
00000170: f890 a7bd 1aa4 1fbe e13f ae3c 3928 9e3f
00000180: 1aff d4bd 36dd 573e 7f9f d6bd 54f7 eb3d
00000190: 9b94 f73d ae82 42be 90e7 723d 6bab 81ba
000001a0: d508 fabd 0c70 abbf e1b2 a03d c375 74bf
000001b0: f99c 4cbe 3366 9c3f 9f25 1c3d 6873 423f
000001c0: 987f 2c3e a4b6 9bbc 8618 a5bd ed14 06be
000001d0: 5e5f 223e 620e 1f3e edae fdbd 465d 27bc
000001e0: cf51 80be e084 103d fdc4 133e 71c7 fc3e
000001f0: f939 c3bc e02a b0bd b884 243d 1204 113d
00000200: 0eb0 a0be eb6a 89bd 0f09 65be c2d0 f33d
00000210: 25d2 0fbe 6926 91be ea8c 69bf 294a 4ebe
00000220: 17c0 db3d b66d 3cbf 9d3b 7ebc b7fd 4dbe
00000230: f587 1a3c 5a7d e9bd cf06 03be 7cd5 013e
00000240: cc92 9ebe a370 73be 97f8 813e 5de0 943c
00000250: 4bd4 413d 9b41 e53d e4c2 8cbe c75d a63e
00000260: e966 f6bb 93b6 5fbe d1ad c53d f1b9 20be
00000270: cb9b 5dc0 3f92 6dbd 0674 25be be32 25bf
00000280: 0f78 183d 2700 93bd 9ea0 adbb 5404 edbd
00000290: d510 513e 51c8 53bd 8cc7 89be 2f7f 81bd
000002a0: 6082 0f3d 86ba 093f 8762 dcbd 72f6 41be
000002b0: a76e bbbe 14f5 893e 9edf ee3d 8927 10be
000002c0: c3af 59be 80f2 58bd cffe bcbe 6c90 61be
000002d0: 1f38 ee3d 2dbf 2a3e 9851 de3d 0e83 f93e
000002e0: 8988 70bd 4ff4 cbbd fdb9 ffbd 914e 46be
000002f0: 10fd b2be df40 093e af7b b0be b551 3e3e
00000300: d5dc 103e a31b 61bf cfa1 bebe dbfd 34c0
00000310: ca5f 183d d285 503e c2fe 25be f74b 263b
00000320: 75dc 49be 5e64 84be ce55 2fbe 012f 00bd
00000330: af0e 1dbf 58fc f63e 8486 2b3e 6347 40c0
00000340: ea0d f13d f270 43bd 24c7 b8be 9596 333e
00000350: ef04 38bf fd59 84bd fc24 af3e 233d 093d
00000360: 10ec 92be cd39 6abe 4f7e a43d c9f2 2c3e
00000370: 78e1 78bf 48f3 a93c a049 ddbd 8d80 843e
00000380: 574d 373f 98b6 eabd 058e 893e 1f88 833d
00000390: a2d6 e53e c519 88bc cf22 723e 16a0 38be
000003a0: 23d4 ee3d ee02 0fc0 1840 283e 7c8a c5be
000003b0: f530 223d e570 1fbf 88d5 88be a9d5 febd
000003c0: 2f44 143f be51 953e c384 bf3e 50ed c93d
000003d0: 30c3 923e 4787 b23e f1f6 123d 6155 96be
000003e0: 59fa 4c3f ea4d bb3e fd7b a7be 4ee3 d0bd
000003f0: 0b96 84be 0438 65bd 10ae 663d 11b9 7b3e
0.2727143 0.09010397 0.14666817 -0.10718154 0.04100965 0.13993356 -0.054601453 -0.020373764
0.11302679 0.66080725 -0.28858438 -0.05287926 -0.16448663 0.06886863 0.2644536 -0.072563924
-0.07791083 0.021423448 -0.11130779 -0.17396103 -0.10727075 -0.07092825 -0.046724737 -0.032263983
-0.09512968 0.035376634 -0.052022807 0.4064962 -2.1029284 0.09723834 -0.011240101 -0.056331392
0.061754268 -0.16571443 0.8700754 -0.06603806 0.10804241 0.08196192 -0.07501874 0.3861618
0.23627342 0.27041 -0.019215044 -0.0025836779 -0.33717877 -0.0014884969 0.7387762 -0.069021605
-0.014372871 -0.073756784 -0.3450165 -0.10974988 -0.4737767 -0.06763367 -0.073753074 -0.26656199
-0.09423036 -0.10987155 -0.08229704 -0.05601754 -0.15715589 0.09086408 0.07809767 0.05883622
-0.16545957 -0.99257517 -0.16497692 -1.9878043 -0.102553986 0.34340072 -0.0619545 -0.19236901
0.046392653 -0.047636617 0.089895725 0.0045466754 0.6243652 0.143248 0.097121246 -4.34421
-0.0990254 -0.08684785 0.025335286 -0.5897736 0.9751708 -0.09151561 0.48651668 -0.071325555
0.33337587 -0.1310229 -0.16112746 0.09322231 -0.081819475 -0.15589944 0.021270694 1.2356025
-0.10400219 0.21080479 -0.1047964 0.115217835 0.12088891 -0.18995163 0.059302866 -0.0009893005
-0.12208716 -1.3393569 0.078466184 -0.9549219 -0.19981755 1.2218689 0.038121816 0.75957346
0.16845548 -0.019007988 -0.08061318 -0.1309392 0.15856692 0.1553283 -0.1238688 -0.010215109
-0.25062415 0.03528297 0.14430614 0.49370912 -0.023831354 -0.08601928 0.040165633 0.035404272
-0.3138432 -0.06709846 -0.22366737 0.11905052 -0.14045008 -0.28349617 -0.9123064 -0.20145477
0.107299976 -0.73604906 -0.015517143 -0.20116316 0.009431829 -0.11400862 -0.12795566 0.12679094
-0.30971372 -0.23773436 0.25384971 0.018173391 0.0473216 0.11194154 -0.2749244 0.3249342
-0.007519592 -0.2184699 0.096522935 -0.15695931 -3.4626338 -0.0580008 -0.1615754 -0.6453055
0.03722387 -0.071777634 -0.005298688 -0.11573091 0.20416577 -0.05170471 -0.26910055 -0.063230865
0.035036445 0.5380024 -0.1076098 -0.18941668 -0.3660786 0.26944792 0.11663745 -0.14077581
-0.21258454 -0.05296564 -0.36913154 -0.22027749 0.11631798 0.1667449 0.108554065 0.487328
-0.05872396 -0.099587075 -0.12486646 -0.19365908 -0.34958696 0.13403653 -0.34469363 0.18585856
0.1414674 -0.87932795 -0.37232825 -2.827994 0.037200727 0.20363548 -0.16210464 0.0025374868
-0.19713004 -0.25857824 -0.17122576 -0.031294826 -0.6135053 0.48239398 0.16750532 -3.004357
0.11770232 -0.047715135 -0.36089432 0.17537911 -0.7188253 -0.064624764 0.34207904 0.03350557
-0.28695726 -0.22873612 0.08031904 0.1688949 -0.9721904 0.020745888 -0.108050585 0.25879326
0.71602386 -0.11460608 0.26866165 0.064224474 0.44890314 -0.01661385 0.23646091 -0.18029818
0.116615556 -2.2345538 0.164307 -0.38582218 0.03959747 -0.6228164 -0.2672541 -0.12443096
0.5791654 0.29163927 0.37405977 0.09859717 0.2866454 0.34868833 0.035880033 -0.29362014
0.800695 0.3658288 -0.32711783 -0.10199605 -0.25895724 -0.055961624 0.056318343 0.24582316

action_model._continuous_distribution.mu.bias f4 [2]
00000000: 289f 0440 469d cc3f
2.0722141 1.5985496

56 f4 [312]
00000000: 854b c43e 06af 693e 4fa8 ec3a bc08 263d
00000010: 5946 de3e 2910 963e 2645 e53e 55b9 583e
00000020: 8633 ed3a 65d6 0b3d d1db f23e 6315 a03e
00000030: f0f4 f03e 89e6 5f3e 0a4b fc3a 2d0a 153d
00000040: 5ab7 fa3e 811f a03e 3351 fc3e e87f 2c3e
00000050: 0550 a63a 0977 bc3c c323 f73e 00c3 9f3e
00000060: d80e f83e 2109 393e 99f6 e63a 69c1 403d
00000070: 66ab ef3e 0e48 9d3e 9a8d b63e 5646 fa3d
00000080: 5a78 ea39 2de4 a73c 1106 a53e e930 803e
00000090: 54a0 c83e c114 003e b650 e13a 0d07 7a3d
000000a0: 8ea2 b83e 5778 893e 0ad6 a13e 9aac b63d
000000b0: bb4a 9438 3578 733c 0234 913e ce5b 683e
000000c0: 8670 b33e 3bca a33d ba71 973a 202b 873d
000000d0: 5c39 a43e 203d 7f3e c9ad be3e a77c 723e
000000e0: 69b7 d138 880b 613c ced5 923e e51f 6a3e
000000f0: 9101 c93e d0fd 6a3e e0a4 473a 3b28 883d
00000100: d2ba a23e a458 7c3e bf1f f53e 319a db3e
00000110: 3460 9e3a 6597 b03c 52f5 963e c1ff 803e
00000120: f45d f63e 4c25 d83e 258d d33a 8522 7b3d
00000130: 1b8f a13e f27b 853e 37be c43e fe07 6a3e
00000140: 448f 1d3b f82c 273d 6c0d dd3e 9c04 933e
00000150: adb1 e53e 5115 593e 1e95 0f3b bb18 0d3d
00000160: af40 f23e 969d 9d3e c137 f13e 7f3c 603e
00000170: 7756 323b d851 163d 5e4f fa3e 8eca 9d3e
00000180: b8ff fb3e 2de1 2c3e 6792 d53a 7c6f bf3c
00000190: f85e f73e ba30 9e3e 7da2 f73e 5a57 393e
000001a0: b0d5 2a3b 1cc1 413d 740e f03e d7ce 9b3e
000001b0: 803d b43e 0712 fb3d 61ea 453a e5d3 a93c
000001c0: 3b77 a53e 664b 7e3e f0d2 c63e e156 003e
000001d0: 8c25 143b 0eb8 7a3d f912 b93e 0771 883e
000001e0: 7acd 9e3e 706d b73d a0cb 2539 9d4c 753c
000001f0: df9b 913e 9593 663e a1f1 b03e c62c a43d
00000200: 6ee5 bb3a 2771 873d b797 a43e 5369 7d3e
00000210: 258f bc3e e51a 733e 69b7 d138 c577 613c
00000220: 4530 933e c22e 683e 5c24 c73e 0086 6b3e
00000230: 6ed3 6e3a b060 883d 200f a33e d569 7a3e
00000240: be91 f43e 4808 dc3e 3460 9e3a 5da9 b03c
00000250: b83f 973e ee20 803e 66d5 f53e 038a d83e
00000260: e0c5 d53a 1f7b 7b3d c2e1 a13e b1ad 843e
00000270: d432 c53e ac5f 6a3e 595b 493b c650 283d
00000280: 8fcf db3e 09e0 8f3e b11e e63e df6f 593e
00000290: d565 323b 195b 0e3d 14a2 f13e f314 9b3e
000002a0: 437b f13e 1491 603e 1478 5d3b 729d 173d
000002b0: 71e4 f93e db63 9b3e 48ab fb3e a041 2d3e
000002c0: 486d 053b a560 c23c 6699 f73e b196 9c3e
000002d0: a133 f73e 81a6 393e f7de 573b 4abe 423d
000002e0: 9271 f03e 004c 9a3e 13dd b13e 19dc fb3d
000002f0: dd5d 913a c1b1 ab3c 80e7 a53e 5e28 7c3e
00000300: c1fd c43e 9998 003e 4131 413b 3867 7b3d
00000310: e486 b93e 3e65 873e 1eac 9b3e 0130 b83d
00000320: 17db 9839 165e 773c 5d03 923e 30c1 643e
00000330: bb62 ae3e 5591 a43d 1c22 043b ceb6 873d
00000340: 41f7 a43e 9a8c 7b3e 3c63 ba3e 76b8 733e
00000350: 69b7 d138 30ff 613c 2a8c 933e 1a34 663e
00000360: ed3a c53e f90d 6c3e ce3b a43a 0e9a 883d
00000370: f962 a33e 816f 783e 5c00 f43e fe75 dc3e
00000380: 92a5 9e3a dfb9 b03c 298c 973e b27c 7e3e
00000390: 684a f53e fdee d83e 0967 e33a 12d4 7b3d
000003a0: bc37 a23e 79db 833e 31a4 c53e 5bb7 6a3e
000003b0: ec17 6f3b cd66 293d 7288 da3e 049f 8c3e
000003c0: fd88 e63e 23cb 593e 2e05 583b 468e 0f3d
000003d0: b6fe f03e 3d79 983e 98bb f13e ace4 603e
000003e0: d4e1 803b 49d9 183d c273 f93e eeea 983e
000003f0: 0c54 fb3e 72a2 2d3e b1e5 2a3b 9b53 c53c
0.38338867 0.22820672 0.0018055531 0.040535673 0.43413046 0.29309204 0.4477932 0.21164449
0.001809702 0.03414001 0.47433332 0.31266317 0.47061872 0.21865286 0.0019248438 0.036386658
0.4896801 0.31274036 0.492807 0.16845667 0.0012688643 0.02300598 0.48269472 0.3120346
0.48448825 0.18069889 0.0017621099 0.04705945 0.46810454 0.30719036 0.35654908 0.12220447
0.00044721627 0.020494545 0.3223119 0.25037315 0.3918482 0.12507917 0.0017190191 0.06104188
0.3606152 0.26849625 0.3160861 0.0891964 7.0711096e-05 0.014860203 0.2835999 0.2269127
0.35046786 0.07997557 0.0011554279 0.06600022 0.32075012 0.24925661 0.37241963 0.23680364
0.000100000594 0.013735659 0.28678745 0.2286373 0.39259008 0.22948384 0.0007615816 0.06648298
0.31783158 0.24643189 0.47875783 0.42891076 0.0012083114 0.021556566 0.2948404 0.25195125
0.48118556 0.42215955 0.0016140087 0.061312217 0.31554493 0.26071125 0.38426372 0.22854611
0.0024041692 0.04081437 0.43174303 0.28714454 0.44862118 0.21199538 0.002190895 0.034447413
0.47314975 0.3078429 0.4711285 0.21898077 0.0027212182 0.036699146 0.48888677 0.308186
0.49218535 0.16882773 0.0016294242 0.02336859 0.48314643 0.3089655 0.48366156 0.18099728
0.002606731 0.047303304 0.46886027 0.30431244 0.3520317 0.12259298 0.0007549879 0.020730922
0.32317528 0.2483345 0.38832808 0.12533142 0.0022605387 0.061210684 0.36147287 0.26648733
0.3101614 0.089564204 0.00015811482 0.014971879 0.28439233 0.22517236 0.34559348 0.08016352
0.0014335343 0.06613379 0.32147 0.24747209 0.3682796 0.23740728 0.000100000594 0.013761465
0.28747764 0.22674087 0.38894928 0.23000336 0.0009110485 0.06659067 0.31847477 0.24454434
0.47767442 0.42975068 0.0012083114 0.021565134 0.295408 0.25025123 0.48014373 0.42292795
0.0016309582 0.061396714 0.31617552 0.25913766 0.3851534 0.22888058 0.0030724613 0.041092657
0.42931792 0.28100613 0.4494529 0.21234082 0.002722134 0.034754846 0.47193968 0.3028942
0.47164354 0.21930343 0.0033793496 0.037015386 0.488071 0.3034962 0.49154115 0.16919565
0.0020359326 0.023727724 0.4835922 0.30583718 0.48281577 0.18129922 0.0032939294 0.047544755
0.46961647 0.30136108 0.3473898 0.1229784 0.0011090596 0.020958783 0.32403183 0.24624774
0.3847485 0.12558211 0.002947882 0.061377734 0.36235726 0.2644443 0.30404752 0.08993531
0.00029154934 0.015098115 0.2851819 0.2233932 0.340597 0.080355324 0.0020161932 0.06626664
0.3221989 0.24565354 0.36403835 0.23800835 0.000100000594 0.013793752 0.28817874 0.22480813
0.3852152 0.23052205 0.001253003 0.066700086 0.31911448 0.24261285 0.47656524 0.4305877
0.0012103787 0.021573005 0.2959912 0.24852255 0.4790833 0.42369834 0.0017349432 0.061481543
0.31683147 0.25753382 0.3860183 0.22921507 0.0036482764 0.041357804 0.42682225 0.2746507
0.4502639 0.21268897 0.0032962072 0.035047792 0.4706933 0.29779997 0.47213435 0.21962231
0.003933171 0.037316594 0.4872113 0.29866737 0.4908756 0.16956499 0.0026076848 0.024087718

59 f4 [88]
00000000: 4d10 bf43 accf 2a42 c85f 8743 c940 c143
00000010: aecf 2a42 949d 8943 dad9 fb3c 8309 353f
00000020: 62ca 0f3d 930a e33e 9543 9541 bb4a 9438
00000030: bb4a 9438 795f 4b41 d732 c143 0c54 2b42
00000040: 13f8 8543 bf19 fe41 b731 393f fb87 893d
00000050: 226d 1a3f b3e7 a03e e29d bf43 f63a 0e42
00000060: 49b0 8743 cdcc c143 6a58 0e42 f4f0 8943
00000070: ce33 fc3c c57d 353f 8a24 103d 8aa2 e23e
00000080: 13ff 9341 bb4a 9438 bb4a 9438 113c 4a41
00000090: 73b7 c143 a6d5 0e42 bd56 8643 af61 fa41
000000a0: 5db7 393f 5a7b 893d 5af9 1a3f 8712 9e3e
000000b0: d82a c043 ed64 d341 4400 8843 2b58 c243
000000c0: cb06 d441 ea43 8a43 278d fc3c ddf1 353f
000000d0: be80 103d ba37 e23e d5b2 9241 bb4a 9438
000000e0: bb4a 9438 b014 4941 c13b c243 2f03 d541
000000f0: f7b4 8643 928e f641 993c 3a3f e26d 893d
00000100: 5b85 1b3f a025 9b3e 55b7 c043 2feb 3241
00000110: ef4f 8843 02e3 c243 1ec5 3741 5996 8a43
00000120: 08e5 fc3c b065 363f 7dde 103d d5c9 e13e
00000130: d85d 9141 bb4a 9438 bb4a 9438 44ea 4741
00000140: 4fbf c243 cca4 3a41 d812 8743 419e f241
00000150: 3fc1 3a3f 9e5f 893d c010 1c3f a71f 983e
382.12735 42.702805 270.7483 386.50613 42.702812 275.23108 0.030743528 0.7071764
0.035105117 0.44344005 18.657999 7.0711096e-05 7.0711096e-05 12.710809 386.3972 42.832077
267.93808 31.762571 0.72341484 0.06715389 0.60322773 0.31426772 383.23346 35.55758
271.37723 387.6 35.58634 275.88245 0.030786421 0.70895034 0.035191096 0.44264632
18.499548 7.0711096e-05 7.0711096e-05 12.639665 387.4332 35.70864 268.67764 31.297697
0.72545415 0.067129806 0.6053673 0.3087351 384.33472 26.42428 272.00208 388.6888
26.503317 276.53058 0.030829025 0.7107218 0.035279028 0.4418314 18.33732 7.0711096e-05
7.0711096e-05 12.567551 388.46683 26.626554 269.4138 30.819614 0.72748715 0.067104116
0.6075036 0.30302143 385.43228 11.182418 272.62448 389.7735 11.485624 277.1746
0.03087093 0.7124891 0.03536843 0.44099298 18.170822 7.0711096e-05 7.0711096e-05 12.494694
389.4946 11.665234 270.14722 30.327272 0.7295112 0.06707691 0.6096306 0.2971165
