results/ppo3/AI Car/AI Car-198497620.onnx (onnx, 277974 bytes, 11 tensors)

network_body.observation_encoder.processors.0.normalizer.running_mean f4 [312]
00000000: ab06 383e 930b 613d ce17 5c36 1340 d63a
00000010: 7559 3f3f 297c 583f 28ae 8e3e 98df 3f3d
00000020: 2d1b 5d36 2117 983a 9a35 283f 3828 4d3f
00000030: 6414 a93e 23ae 4d3d e12d 7a36 f4ef ad3a
00000040: aa1a 1a3f 9f64 473f f3e9 153f 3176 ee3c
00000050: ac0c d935 f5ca 0b3a 22ad bc3e 926e 293f
00000060: 1f65 1f3f af22 0a3d 889c 5136 0e13 123b
00000070: 2b7b a63e 6701 243f 1ea2 593f 759b 773c
00000080: 01f7 5234 901d de39 5bd6 f13d 780e 003f
00000090: 255b 4f3f d506 823c 0a78 4736 698b 753b
000000a0: 1ed8 1d3e 8d9c 033f 7b12 633f ed21 033c
000000b0: 0000 0000 9f63 6939 0c4a b53d e1dd e33e
000000c0: 9133 5b3f 1a83 d23b 8adc b335 0382 8f3b
000000d0: a5f9 ee3d 0fc3 ee3e 2c52 553f 8f88 743d
000000e0: 3e19 ad31 58df 4639 c47f b93d 5240 e93e
000000f0: 7335 4f3f 817c 643d d584 1b35 267f 913b
00000100: 33b8 e93d 7a38 f03e 47c4 243f 4d4e 793e
00000110: 1ec4 c435 af6a f339 4a06 c53d 27de ea3e
00000120: feb7 223f 758b 6d3e 9876 2f36 a80c 773b
00000130: a426 e63d 912a e93e c91a 393e 95c3 613d
00000140: ee3d c336 363f d93a 9869 403f cdac 593f
00000150: 868c 8f3e 2a8d 403d 881c a236 d2df 9a3a
00000160: 011d 293f 6945 4e3f acd1 a93e 4256 4e3d
00000170: f52e fa36 2ff5 b03a 7c12 1b3f aa8d 483f
00000180: 5dd4 163f f28e ef3c 4d2f 3336 913c 103a
00000190: 428a bd3e bd51 2a3f 3338 203f 0b9d 0a3d
000001a0: 528f e536 cd98 133b 0088 a73e a9f8 243f
000001b0: b9cd 5a3f 003a 793c 4dd0 1835 6046 e339
000001c0: ea57 f33d 9ebd 003f 007d 503f c890 823c
000001d0: 6497 ac36 2aeb 763b e7c4 1e3e 145d 043f
000001e0: dd4c 643f 593b 043c 5319 ad32 bae9 6c39
000001f0: 2a6b b63d 4919 e53e 706b 5c3f 8c84 d33b
00000200: 539d 0a36 8b18 903b 0e38 f03d 0d16 f03e
00000210: 8f7f 563f e7df 753d 3e19 ad31 02a0 4739
00000220: 547f ba3d c37d ea3e 6e62 503f b395 653d
00000230: e022 5f35 0ffb 913b 69d0 ea3d e088 f13e
00000240: 77ae 253f f7c1 7a3e 1ec4 c435 e89c f339
00000250: 52e1 c53d e215 ec3e 9aa8 233f eecb 6e3e
00000260: b52e 3336 f7bc 773b c635 e73d 3a72 ea3e
00000270: 1936 3a3e c179 623d ba7d 1f37 4843 dc3a
00000280: 2d79 413f 8fdc 5a3f 2e6c 903e 3838 413d
00000290: bd58 fa36 c9ae 9d3a cb03 2a3f 7261 4f3f
000002a0: 0791 aa3e a4fc 4e3d 31f6 4037 3f0b b43a
000002b0: 6909 1c3f f8b5 493f 5fbd 173f 16a6 f03c
000002c0: 6cf7 8b36 73b4 143a 0c6a be3e 0f34 2b3f
000002d0: 670a 213f ec18 0b3d 8b53 3737 431d 153b
000002e0: 8696 a83e c6ef 253f 21f9 5b3f 1cd7 7a3c
000002f0: 23a9 a535 e24d e839 fed6 f43d a36c 013f
00000300: 749c 513f 041a 833c e6cf 1237 ca48 783b
00000310: bab9 1f3e a91e 053f b486 653f 9d5a 053c
00000320: 4919 ad33 3eed 7039 1f8c b73d 2654 e63e
00000330: 2da3 5d3f e58b d43b 0c43 8936 abad 903b
00000340: 457c f13d fc69 f13e adac 573f f336 773d
00000350: 3e19 ad31 7e90 4839 6b83 bb3d 84bc eb3e
00000360: 3490 513f 8fb1 663d 15a4 d335 6476 923b
00000370: 58e7 eb3d d6d8 f23e 2b98 263f 0936 7c3e
00000380: fd70 c535 86cb f339 c7c2 c63d fa4f ed3e
00000390: 5e96 243f 490f 703e 92da 4a36 b46d 783b
000003a0: d650 e83d a6b9 eb3e ac4a 3b3e ef2f 633d
000003b0: 21e9 6037 cd26 df3a ed89 423f 3c0d 5c3f
000003c0: 4149 913e e1e4 413d 9894 3737 1562 a03a
000003d0: 49ec 2a3f 207e 503f ae49 ab3e 70a1 4f3d
000003e0: 2cb6 8237 c5ff b63a 2704 1d3f 78df 4a3f
000003f0: e8a4 183f 1cbf f13c 78ba e536 ac40 193a
0.17971294 0.05494268 3.279641e-06 0.0016346 0.74745876 0.84564453 0.27867246 0.046844095
3.2947385e-06 0.0011603573 0.6570679 0.80139494 0.3302337 0.050214898 3.7279608e-06 0.0013270364
0.60196936 0.7788791 0.58560103 0.029109092 1.6171448e-06 0.0005332672 0.3685084 0.6618434
0.62263674 0.033724483 3.123454e-06 0.002228919 0.32515845 0.6406464 0.85012996 0.015112747
1.9647634e-07 0.00042365165 0.11808463 0.5002208 0.8099845 0.015872398 2.9723183e-06 0.0037467128
0.15414473 0.5141075 0.88700074 0.008003694 0.0 0.00022257723 0.08852014 0.44505218
0.8562556 0.00642432 1.3400725e-06 0.0043795123 0.1166871 0.46633193 0.8332851 0.059700545
5.0378324e-09 0.00018965953 0.090575725 0.45556885 0.8094093 0.0557828 5.7935296e-07 0.004440206
0.11412086 0.46918088 0.64361995 0.24346276 1.4660216e-06 0.00046428057 0.0962034 0.45872614
0.63562 0.2319773 2.6146063e-06 0.0037696753 0.11237839 0.45540288 0.18076624 0.055118162
5.8186624e-06 0.0016574624 0.75161123 0.850293 0.28036898 0.047009625 4.8312977e-06 0.0011815971
0.6605988 0.8057466 0.3316778 0.05037523 7.456047e-06 0.0013500805 0.6057508 0.7834116
0.5891779 0.029242966 2.6700611e-06 0.0005502189 0.37019545 0.6653097 0.62585753 0.033841174
6.8414165e-06 0.0022521496 0.32720947 0.64441925 0.8547016 0.015211582 5.692753e-07 0.00043349247
0.11882003 0.5028933 0.81440735 0.015938178 5.1436236e-06 0.003767679 0.155048 0.51704526
0.89179784 0.00807079 2.0151367e-08 0.00022593784 0.08907159 0.44745854 0.86101437 0.00645501
2.0655177e-06 0.004397457 0.117294416 0.46891823 0.8378839 0.060027983 5.0378324e-09 0.00019037726
0.09106317 0.45799074 0.8140019 0.056050967 8.3124723e-07 0.0044549773 0.11465532 0.4717474
0.6471934 0.24488054 1.4660216e-06 0.00046465476 0.09662117 0.46110445 0.6392914 0.2331998
2.6700266e-06 0.003780184 0.11289553 0.45790273 0.18184699 0.055291895 9.5064115e-06 0.0016804719
0.75575525 0.85492796 0.28207535 0.047172755 7.460911e-06 0.001203024 0.6641204 0.81008065
0.33313772 0.050533906 1.1501413e-05 0.0013736262 0.6095186 0.7879329 0.5927333 0.029376071
4.1713265e-06 0.0005672641 0.37190282 0.6687631 0.629065 0.033959314 1.0927101e-05 0.0022753037
0.3292734 0.6481899 0.85927016 0.015310075 1.2342683e-06 0.00044308515 0.11955069 0.5055639
0.81879354 0.016003616 8.750683e-06 0.0037885183 0.15598193 0.5199991 0.89658666 0.00813928
8.0605396e-08 0.00022976563 0.08962273 0.44986075 0.8657711 0.0064864033 4.0907235e-06 0.004415234
0.11791281 0.47151172 0.8424786 0.060355138 5.0378324e-09 0.00019127314 0.09155925 0.46042264
0.8186066 0.056321677 1.5768479e-06 0.0044696797 0.11518735 0.47431058 0.6507594 0.24629988
1.4710528e-06 0.0004650021 0.097051196 0.4635008 0.6429194 0.23443331 3.022757e-06 0.0037907185
0.11343543 0.46040076 0.18290204 0.055465635 1.340572e-05 0.0017025113 0.7599171 0.85957694
0.283762 0.047337417 1.0942247e-05 0.0012236262 0.6676679 0.8144245 0.3345465 0.05069107
1.5582038e-05 0.0013961723 0.6133446 0.79247236 0.59626627 0.029510073 6.8464396e-06 0.00058461237

network_body.observation_encoder.processors.1.normalizer.running_mean f4 [88]
00000000: ff75 a842 baff a043 004b 2bc2 99c4 a042
00000010: 50b2 a043 1c57 2cc2 df29 923c 07f5 0e3d
00000020: 2d44 89ba eb64 083f 00a7 1442 0000 0000
00000030: 0000 0000 4aa7 af41 224c 7642 7404 a143
00000040: 4104 15c2 2634 a042 09b3 95be a274 8cbd
00000050: 0b14 abbc 8898 553f 6942 aa42 1be7 a143
00000060: dc6d 28c2 56a2 a242 0397 a143 ad66 29c2
00000070: 6ced 923c b181 153d 797d 90ba fe39 093f
00000080: 1e70 1542 0000 0000 0000 0000 243b b041
00000090: 3943 7a42 aae9 a143 5316 12c2 fe19 a142
000000a0: 5a84 95be 2e2b 8dbd 0c11 aabc 59d6 563f
000000b0: bc0f ac42 93d2 a243 b18f 25c2 3080 a442
000000c0: ce7c a243 bd75 26c2 8dac 933c a613 1c3d
000000d0: 58d7 97ba bb0e 0a3f 3739 1642 0000 0000
000000e0: 0000 0000 22cf b041 ab3b 7e42 bbd3 a243
000000f0: c727 0fc2 1600 a242 2156 95be a0e2 8dbd
00000100: 2b18 a9bc 0214 583f ebdc ad42 04ba a343
00000110: 4fb1 22c2 f25e a642 9d67 a343 0e84 23c2
00000120: 806e 943c dfa6 223d b71a 9fba e4e2 0a3f
00000130: a401 1742 0000 0000 0000 0000 cf62 b141
00000140: 9d1a 8142 f1bd a343 c537 0cc2 02e6 a242
00000150: 4f28 95be 559c 8ebd f533 a8bc 3052 593f
84.23046 321.99786 -42.823242 80.38398 321.39307 -43.085068 0.017842231 0.034901645
-0.0010472588 0.5327899 37.163086 0.0 0.0 21.956684 61.57435 322.0348
-37.254154 80.10185 -0.29238155 -0.068581834 -0.02088358 0.8343587 85.12971 323.8055
-42.107285 81.31706 323.17978 -42.35027 0.017935477 0.036500636 -0.0011023722 0.53604114
37.35949 0.0 0.0 22.028877 62.565647 323.8255 -36.5218 80.550766
-0.2920254 -0.068930015 -0.020760082 0.8392082 86.03073 325.6451 -41.390324 82.25037
324.97504 -41.61498 0.018026615 0.038104676 -0.0011584563 0.53928727 37.555874 0.0
0.0 22.10114 63.55827 325.65414 -35.788845 81.00017 -0.29167274 -0.06927991
-0.020641407 0.8440553 86.93148 327.45325 -40.673153 83.18544 326.80948 -40.87896
0.018119097 0.039709922 -0.0012138699 0.5425246 37.751602 0.0 0.0 22.173246
64.55198 327.48392 -35.054462 81.449234 -0.29132316 -0.06963412 -0.020532588 0.84891033

network_body._body_endoder.seq_layers.0.weight f4 [128, 400]
00000000: b1ae d63e 4d8b ed3d 26da 063e 5ed7 063e
00000010: 3d41 5fbd 8341 7fbd 167a 573e 757f 01bd
00000020: 3dc1 743d 54f1 913e be35 8d3e 6588 d73c
00000030: 25f1 cabe 03a8 553e bc27 a73d 053f af3e
00000040: be8f f73e 4837 b73e 74d4 1fbe 7f0f 3e3e
00000050: 8978 963d affe 6b3e d34f de3e fba7 f73e
00000060: b81c 86be 55da 023f b488 d2bc 3c5c c13e
00000070: 25f6 943e 8b74 653d ecd2 07be b1dc 0e3e
00000080: 4c2c bd3c b7eb e23e 2e63 c13e 44f0 e63e
00000090: 74e8 85be b139 313e 2037 c9bd 6123 443d
000000a0: 6de1 f43e 94ad 6e3d d1f3 23ba c49e 093d
000000b0: 5319 043d 3a4d ef3e 74ec ef3e 5c79 fc3e
000000c0: 5178 533e 5899 0a3f 0a4d e33d e724 75be
000000d0: adf3 fabd fe89 78bd ff58 963d d980 863e
000000e0: dfbc 8e3e 52bc 423e aaf6 c73d 9677 683d
000000f0: 6a31 21bd 5ff1 c93e 2068 f13c 853d c6bd
00000100: c306 443e 81cf 4fbb 0c99 8ebd c2e4 073e
00000110: f81f e13e 92a3 f83d f07c 303e 0424 9e3d
00000120: 5fd6 4f3d 2d5d 693e 3ced 033e 6592 ecbc
00000130: ff57 aa3d 8977 a2be e237 2f3f c3dc 213d
00000140: fc9e 2f3e 1f68 3d3e 26f3 44be bffe 9fbe
00000150: ecb4 f63e 92e5 15bd 5584 d23d f281 6b3e
00000160: fae4 bbbc 700f 44be 78d1 3ebe b48e f93e
00000170: 2e9e 9f3d b8ca cc3e c051 453e d1f9 463d
00000180: 7fdb dd3d f5b8 ed3d 20b0 1d3e 43e8 5b3e
00000190: accb d13d ef4c 943d 337d 2b3e a132 d53e
000001a0: 81eb 1a3d b4b2 4c3c 8f7f 4a3d 77cc aabe
000001b0: bb25 863e 659d 203d 38c8 dd3d 80fa ae3e
000001c0: 600d 663d 41be f23d b4b9 16be 7fcf 1b3f
000001d0: 2d81 843d d739 1bbe 5460 823e e5e8 45bb
000001e0: 4824 e13d ee8a 4a3d ff0b 833d 6adb cd3e
000001f0: e147 08bc 17ed 603d c00e 863d cfea 963c
00000200: d6f7 6ebc 8490 803c e073 be3e b4ab a13e
00000210: 6332 d73c d6ac 073f f82f 5b3e fb47 323e
00000220: c7b6 debc 53bb 85bd d0ae 1a3e ed37 463d
00000230: 6af0 553d 1e26 9e3c cfcb 1a3e a639 edbd
00000240: a9ae 513d 3a7c a03d 8b28 2d3f 35e1 d03d
00000250: 9896 be3e d41a 6e3d d7fa 333e 6817 143f
00000260: 1db4 f13e 6f4b 353e b3a5 febe 3ef6 01bf
00000270: f620 ca3e 4a9e 813c fc31 943b 6432 0cbe
00000280: 65df fbbc ed62 dabd acc9 cf3e ae0b 2ebc
00000290: 1cf6 2e3e 882d 3c3d 0c19 9bbd fa3b 3abe
000002a0: a7d2 043e 33c4 203e 2e61 f23d ceb3 623e
000002b0: 0087 17bd 6754 d5bd db2e 803c 5a22 b03d
000002c0: 79b6 9d3d e10f ba3e 5aaa 043e 8267 b83c
000002d0: 615f 13be 5dd3 633e fdc8 843d 85b8 ecbd
000002e0: 4cd2 3d3e f09c 5b3e 8b76 ce3c 1310 ac3d
000002f0: 6e93 8bbb f3b2 1b3f e360 413e 4092 1b3e
00000300: 0852 d3bb 7884 133f c061 113e 2446 cbbe
00000310: bb0c 273e 70c3 72be 2df3 033e 520e 8ebe
00000320: 7985 8a3d 1251 8f3e 02eb 463d 0a7f cfbc
00000330: 6546 09be 7a14 e23e 0b46 bc3c a8f6 61be
00000340: f97e 803e 46dd ccbd 266a c5bd 2304 af3c
00000350: 1998 173e 9c14 53bd 2b0a 843e a94f 7a3e
00000360: bdc9 213e 9586 2e3e 3e93 1a3d 14c3 bfbe
00000370: f433 083e 7760 8dbb 96a0 953e 2c42 c4bd
00000380: f3e4 e53e 03b3 023d b498 333b cd47 f8bc
00000390: c1ae a83e 7b31 533e e676 0f3f 76f2 41bd
000003a0: e785 3abe 3e05 80bd 152a 8a3d 7409 fbbe
000003b0: b9ca ed3d 7216 bdbc d38d 123e 3693 9b3d
000003c0: 1a7f b33d c0e7 2abd 072c cb3d d097 a43d
000003d0: d587 4c3d 2766 58be 7675 31bf 2848 88bc
000003e0: b22a 943d aa8e 183e a02a 1c3f 37f6 1e3f
000003f0: e518 8b3d 622c 29bd 0d71 a43d 5728 853e
0.41930154 0.11598835 0.13169155 0.13168094 -0.054505575 -0.062318336 0.21042666 -0.031615693
0.0597546 0.2850443 0.27580065 0.026310155 -0.39637104 0.20864873 0.081618756 0.34227768
0.48351854 0.35784364 -0.15608388 0.18560599 0.07347209 0.23046373 0.43420276 0.48370346
-0.26193786 0.511144 -0.02569995 0.37765682 0.29094043 0.056019347 -0.13264054 0.13951375
0.023092411 0.4432046 0.3777098 0.45105183 -0.2615391 0.17307164 -0.098249674 0.047885302
0.47828236 0.058271006 -0.0006254288 0.033598676 0.032250714 0.46738607 0.46860087 0.4931134
0.20651366 0.54140234 0.110986784 -0.23939858 -0.12253509 -0.060678475 0.073411934 0.26270178
0.27878472 0.19017151 0.09763844 0.05675467 -0.039353766 0.39441964 0.029468596 -0.09679703
0.19143204 -0.0031709375 -0.06962785 0.13270858 0.43969703 0.121405736 0.1723516 0.07721713
0.05074155 0.2278945 0.12883466 -0.0288784 0.08317565 -0.31731823 0.68444645 0.039517175
0.17150491 0.1849675 -0.19233379 -0.31249043 0.48184907 -0.03659589 0.102791466 0.22998789
-0.022936333 -0.19146514 -0.18634593 0.48741686 0.07793842 0.39998412 0.19269466 0.048578087
0.10832881 0.116075434 0.15399218 0.2147532 0.102439255 0.072412364 0.16746978 0.4164019
0.03782225 0.012493778 0.049438056 -0.3335912 0.2620066 0.039212603 0.10829204 0.3417549
0.0561651 0.11852694 -0.14719278 0.6086349 0.06469951 -0.15158783 0.25464118 -0.003019863
0.10993248 0.0494489 0.063987724 0.40206462 -0.0083179185 0.054913606 0.06545782 0.018422512
-0.014585456 0.01569391 0.3719778 0.31576312 0.026269143 0.529981 0.21405017 0.17410271
-0.027186764 -0.0652987 0.15105748 0.04839318 0.05223123 0.019305285 0.1511681 -0.11583261
0.05119196 0.07836194 0.6763999 0.10199205 0.3722427 0.058131054 0.17576157 0.57848215
0.47207728 0.17704557 -0.49735793 -0.5076636 0.39478272 0.015822548 0.00452256 -0.13691097
-0.030746171 -0.106634 0.4058355 -0.010622902 0.17086071 0.04594186 -0.07573137 -0.18186942
0.12970982 0.15699844 0.11834942 0.22138903 -0.03699398 -0.10416489 0.015647342 0.08600302
0.077008195 0.3634024 0.12955609 0.022510294 -0.14391853 0.22248597 0.06483648 -0.11558632
0.18537253 0.21446586 0.02520301 0.084015034 -0.0042595183 0.6081993 0.18884616 0.15192509
-0.006448988 0.57624006 0.14197445 -0.3970195 0.1631345 -0.23707366 0.12885733 -0.277453
0.06763739 0.2799154 0.048563965 -0.025329132 -0.1340576 0.44156247 0.022982618 -0.22066748
0.25096872 -0.10003142 -0.09639387 0.021364277 0.14804114 -0.051533327 0.25789008 0.2444445
0.15799613 0.17043526 0.037738077 -0.3745352 0.13301069 -0.004314478 0.2922408 -0.09582934
0.44901237 0.031909 0.002740425 -0.030307675 0.32945827 0.20624344 0.560408 -0.04735037
-0.18215142 -0.06251 0.06746308 -0.4903065 0.11610932 -0.023081992 0.14311914 0.07596438
0.08764477 -0.04172492 0.09920507 0.080367684 0.049934227 -0.21132718 -0.69319856 -0.01663597
0.07234706 0.14898172 0.6100254 0.62094444 0.06791858 -0.041302092 0.08029375 0.2600734

network_body._body_endoder.seq_layers.0.bias f4 [128]
00000000: 01ce 83bf 008a 34bf 8c47 90bf dbbd 0bbf
00000010: 9b2a 06bf a196 23bf 831c 51be d096 0cbf
00000020: 5ca9 1abf bb68 83bf 8e67 6bbe 4c1c 9bbe
00000030: ee38 a9be 8f87 6fbe ec7d 14bf d728 d8be
00000040: c711 64be 1f02 85bd 555c 17bf f836 37be
00000050: f183 c5be 2b9b 16bf 14d6 9dbe b9e5 47bf
00000060: 5748 31bf 92d0 59bf a259 5bbf cac2 5fbf
00000070: da57 30bf 281a 2bbf 34eb e5be 3190 21bf
00000080: c907 28be 72d4 23bf 90e5 58bf 32f6 b7be
00000090: 0de9 1abf 6773 29bf 277b fabe dab1 e7be
000000a0: 1398 50bf 361d 43bf ce2a babf 3881 5cbe
000000b0: a9f8 53bf a3c6 1fbf 825f 77bf 59f1 98bf
000000c0: c691 13bf 22d0 2ebf 6a49 a0bf faf1 84bf
000000d0: f5da 86bf d0f5 6ebf 4cce 79bf 04f1 f7bc
000000e0: bf47 70bf 3b0b 46bf 98f9 81bf c5af a9be
000000f0: 774d 0e3e 49a2 93bf aff2 57be 0704 1cbf
00000100: 436d bfbe 523b 88bf c1b8 86bf ca40 ccbe
00000110: 6b9f a3be 5270 95bf 8e5a b4bf bb02 87bd
00000120: 806e 39bf 1729 82bf f43c 0ebf 9ba8 00bf
00000130: 045f f9be 3076 a1bf dc37 28bf 4da4 0bbf
00000140: ea84 71bf 45c0 49bf 4470 f83d 601b 4fbf
00000150: a65c b8be 4a57 7abe 99a8 46bf 3d6c b0bf
00000160: fce0 45bf 3a00 75bf fb9b 99be b9b5 4cbf
00000170: 1fa8 75bf 8314 f3be 2980 8abf 2131 fcbe
00000180: 7eac 6abe 508b 06bf 3551 9bbe 234f 5cbe
00000190: 7d82 2abf f9ab 1abf 105e 27bf 2d22 d7be
000001a0: 34f3 33be 47e7 eabe cbe5 0ebf 6d59 afbf
000001b0: d092 83bf 1a7f e3be 7b17 30bf 2a44 1fbf
000001c0: fff0 923d b3fc 42bf 60ab 62bd 5a74 61bf
000001d0: b9d5 43bf 1eb2 11bf bcf3 57bf e189 10bf
000001e0: 04bd 57bf 4b82 1fbf 9c25 c93c f2ec b1be
000001f0: fb99 73be ca74 dabe 1025 0ebe 127c a7be
-1.0297242 -0.7052307 -1.1271834 -0.5458657 -0.5240876 -0.63901716 -0.20421033 -0.5491762
-0.6041467 -1.0266336 -0.22988722 -0.30295026 -0.33051246 -0.23391555 -0.5800464 -0.42218658
-0.22272407 -0.06494545 -0.5912526 -0.17892063 -0.38577226 -0.5883052 -0.3082739 -0.78084904
-0.69251007 -0.8508388 -0.85683644 -0.874066 -0.6888405 -0.66836786 -0.44906008 -0.63110644
-0.1640922 -0.6399604 -0.84725285 -0.3593002 -0.6051186 -0.66191715 -0.48922083 -0.45252877
-0.81482047 -0.7621645 -1.4544313 -0.21533668 -0.828013 -0.6241247 -0.9663011 -1.1948653
-0.5764431 -0.68286335 -1.2522404 -1.0386345 -1.053557 -0.9334383 -0.9758041 -0.030266292
-0.93859476 -0.77360886 -1.0154295 -0.33141914 0.13896738 -1.15339 -0.2108867 -0.60943645
-0.37388048 -1.0643103 -1.0525132 -0.3989318 -0.31957564 -1.1674902 -1.4090135 -0.06592318
-0.72434235 -1.016879 -0.5556176 -0.5025727 -0.48705304 -1.2614193 -0.65710235 -0.5454758
-0.94343436 -0.78809005 0.12130788 -0.80901146 -0.36008185 -0.2444736 -0.7760101 -1.3783032
-0.77296424 -0.9570347 -0.30001816 -0.79964787 -0.9595966 -0.47476587 -1.0820361 -0.49256232
-0.22917363 -0.52556324 -0.30335394 -0.21514563 -0.6660536 -0.6041866 -0.65377903 -0.42018262
-0.17573243 -0.45879576 -0.55819386 -1.3699166 -1.0279179 -0.44432908 -0.6878583 -0.62213385
0.071748726 -0.7616684 -0.055339217 -0.88068163 -0.7649799 -0.5691241 -0.84356284 -0.56460387
-0.8427279 -0.62308186 0.024554066 -0.34751087 -0.23789208 -0.42667228 -0.13881326 -0.32711846

network_body._body_endoder.seq_layers.2.weight f4 [128, 128]
00000000: 6bda 8f3e 2bcc c73d 37de 5d3e c187 32be
00000010: 4d5f 81be 9b3d 153f 1064 2bbe d2cb 26be
00000020: 41ce 7dbd 4c13 35be e87b 3fbf 5c34 e4be
00000030: e3de 92be c346 8dbe 1014 31bf 1f19 023b
00000040: 214a c33c 5eb2 0cbe 7e89 1abe 33c0 fabd
00000050: f682 4bbe ca0e 2fbf 3223 31be 80f7 0dbe
00000060: fe8a 55be 5353 e63d 038c 073f c403 bc3d
00000070: f53c 41bf 85a1 d9bd fa62 31be 1c8c 25bd
00000080: 2cba 96be 7483 1cbe fc4b bebe 875a 55be
00000090: 4345 ed3d 8df4 d63d 5703 63be 4170 04bf
000000a0: 41ed 7d3e 7d8a a23e 1e54 03bf b44f 8ebe
000000b0: 14ce b2be b380 b53d 8ee0 d73d e83b 80be
000000c0: 6c54 f4be abcc 4c3d 0da3 35bd 3f14 ac3d
000000d0: c792 aebb 4f80 e5bc 45aa 843e 307e 11be
000000e0: b521 543d bc61 333e ea82 38bf 7705 65be
000000f0: 513b 64be 2b36 40be 75ef e8be acbe db3d
00000100: c441 08bf 0994 603e fc15 293e a8b7 503d
00000110: 58e2 b13c 57b5 ecbe c8e8 603e b024 e8be
00000120: c996 62bf b683 ebbc 53d4 2dbf db17 0cbd
00000130: d94a 27be a387 d63e 1cbc dbbe aaf8 11bf
00000140: 1be7 abbe d18a 803e b279 a5be 5085 69be
00000150: 7626 723e 37ac 29bf 06ff 81be d5cf 223e
00000160: a294 dfbe 7bc3 8fbe b49d 25be f75f 12be
00000170: 51b5 063d 0cf3 0b3d 4d50 c7bd 0577 a3be
00000180: 7334 423d 7027 8ebb 1198 403d 8983 22be
00000190: 0080 aebe 5d0a 06bf 4c87 f2bd 96ad 13be
000001a0: f1fa dabd 186d 47be 0ed1 aabd da09 b0be
000001b0: 6034 17bf cc87 b73c e8ab 183e f2f1 0abd
000001c0: 5a89 15bf 5343 dcbe eb9f 9dbe ccfa d7be
000001d0: 9a00 1ebc d7ba 00be 433c 633e 84c4 06bf
000001e0: abb6 05bf f77a f0be 5549 dbbd eb33 1b3e
000001f0: 8b47 9cbe 228e 083e 7a5b 563e b5d6 593e
00000200: ae0b 8ebe 9fdb 633e 2b60 183e edcf 40be
00000210: c518 91be f1f7 33bc aa1e 35be 1aa5 25bf
00000220: 5d01 fc3d 6a8d 3d3d e213 18bf 8e1e 5cbe
00000230: c89a bdbe 1240 38be 60f7 843e 069c 02bf
00000240: 3217 c8be 476a efbe 3470 a3bd bd1a 3e3e
00000250: c40d 51bf d690 653c f247 143f 7305 f83d
00000260: cf23 72be 8f28 26be 8543 eebd d795 26be
00000270: bcfa a8be 18c7 c6bc 53f5 0cbe 7d5b 7ebe
00000280: a95b 9d3d 4800 e0be 4d39 703e 993b 03bf
00000290: ce6f 393c d133 acbe d613 bf3e 6cbc 5a3e
000002a0: fa95 8f3e 16b5 4a3e 0aba 74be 6bdc 2fbe
000002b0: 7669 0ebe e7b4 49bf a025 1b3e 55a6 d73e
000002c0: f01d a6be 0cac 06be 9466 b7be fc66 b83d
000002d0: cbb7 d9bc 0a59 4ebe ecf8 953e d2f3 02be
000002e0: 00aa 303e 031c 613b b81c a73e 9244 813e
000002f0: 24b1 be3d c774 e2be 6e08 123e feef d6be
00000300: 1852 ebbe b248 973e 6769 7abe 81dc a3be
00000310: 948a 9d3d c6b9 02bf 2fd6 ca3c 2219 1bbc
00000320: ec2f 6ebd 3e5e 3ebc 2903 bfbe 467e f2be
00000330: 6209 6dbe d162 1c3e 1600 783e 2145 d3be
00000340: c8b6 4a3e 2dba e43e dde9 d0be 793a 3dbe
00000350: 26c5 58be 865a 98bd b564 53bd e8d8 3c3e
00000360: bab7 e6be 0d5d fbbe 01c3 47be 630a cc3e
00000370: b240 86be ee30 bcbe 3adc 8c3e 8371 16bf
00000380: 2599 eb3c 1234 2fbc f485 803e d3d7 1b3d
00000390: 8580 17bc 7ba4 0fbf 39f3 f73d 9c67 87bf
000003a0: d975 fcbb f334 7abf 6481 05bf 613a 413e
000003b0: 42e5 e8be 1a31 3b3e c9e0 33be d093 7abe
000003c0: 19f4 5c3e b120 313d 2ec4 55bf bf3c 71be
000003d0: 0188 8dbe 1512 0ebf fd63 db3e 7ab7 043f
000003e0: fe18 df3d 7b97 8ebe 1040 3fbe d11c 25bf
000003f0: 38d9 0cbe 7551 5dbe a345 71be ed1c 1e3e
0.28096327 0.09755739 0.216668 -0.17434599 -0.2526802 0.5829713 -0.1673739 -0.16288689
-0.061964277 -0.17683142 -0.7479844 -0.44571197 -0.28685674 -0.2759305 -0.6917124 0.00198514
0.023839058 -0.13739917 -0.15091512 -0.1224369 -0.19874176 -0.6838194 -0.17298582 -0.13863945
-0.20853803 0.112463616 0.52948016 0.09180406 -0.7548364 -0.106265105 -0.17322913 -0.04041682
-0.29438913 -0.1528452 -0.37167346 -0.20835315 0.11585476 0.10495863 -0.22169243 -0.51733786
0.24797536 0.31746283 -0.5130023 -0.27795184 -0.3492285 0.08862438 0.10540877 -0.25045705
-0.4772066 0.049999874 -0.04434495 0.08402299 -0.005327556 -0.028015284 0.25911155 -0.14208293
0.051789958 0.17517751 -0.7207476 -0.22365366 -0.22288252 -0.18770663 -0.4549519 0.10729727
-0.5322535 0.21931471 0.16512293 0.0509564 0.021714374 -0.462321 0.21963799 -0.4534049
-0.8851133 -0.028749328 -0.67902106 -0.034202438 -0.16337146 0.41900358 -0.42916954 -0.57020056
-0.33574757 0.2510591 -0.3231941 -0.22804761 0.23647484 -0.66278404 -0.2538988 0.15899594
-0.43668085 -0.28078827 -0.1617344 -0.1429442 0.03288776 0.034167334 -0.09732113 -0.31926742
0.0474133 -0.0043381974 0.04702002 -0.15870489 -0.3408203 -0.52359563 -0.11842212 -0.14421687
-0.106923945 -0.1947521 -0.08340655 -0.34382516 -0.5906429 0.02240362 0.14909327 -0.033922143
-0.58412707 -0.43020114 -0.3078607 -0.4218353 -0.009643698 -0.12571274 0.22190957 -0.5264361
-0.52231854 -0.46968815 -0.10707346 0.15156524 -0.30523333 0.1333547 0.20933333 0.2127331
-0.27743286 0.22251748 0.14880435 -0.18829317 -0.2833921 -0.010984407 -0.17687479 -0.6470505
0.123049475 0.04627744 -0.5940534 -0.2149603 -0.3703215 -0.17993191 0.25969982 -0.5101932
-0.39080197 -0.4676077 -0.079803854 0.18564887 -0.8166163 0.014011582 0.5792228 0.12110414
-0.23646472 -0.1622641 -0.11633972 -0.16268097 -0.33003795 -0.024264857 -0.13765459 -0.24839588
0.076834984 -0.43750215 0.23459359 -0.51262814 0.01131816 -0.33633283 0.3731982 0.2136094
0.2804411 0.19795641 -0.23899093 -0.17173927 -0.13907418 -0.7879166 0.15151072 0.4211909
-0.32444715 -0.13151568 -0.35820448 0.09004018 -0.026576897 -0.20151153 0.29291475 -0.12788323
0.1725235 0.0034348972 0.32639098 0.25247627 0.09311131 -0.4422972 0.14261028 -0.41979975
-0.4596107 0.2954765 -0.2445427 -0.3200417 0.07692447 -0.5106472 0.024760334 -0.009466441
-0.05815117 -0.011619149 -0.37307099 -0.47361964 -0.2314811 0.1527207 0.24218783 -0.4126368
0.19796288 0.4467329 -0.40803424 -0.18479337 -0.21168956 -0.07439141 -0.051609714 0.18442118
-0.45062047 -0.4909443 -0.19507982 0.39851674 -0.26221234 -0.3675608 0.2751177 -0.58766955
0.028759548 -0.010693567 0.25102198 0.038047623 -0.00924695 -0.5611035 0.12106938 -1.0578494
-0.007704478 -0.97737044 -0.5215056 0.18869926 -0.4548741 0.1828045 -0.17566217 -0.24470448
0.21577491 0.043244068 -0.8350247 -0.23558329 -0.27642825 -0.5549634 0.42849723 0.51842463
0.10893439 -0.27849945 -0.18676782 -0.64497095 -0.13754737 -0.21613105 -0.2356172 0.15440722

network_body._body_endoder.seq_layers.2.bias f4 [128]
00000000: 8af9 cebe 7136 48be 9fb3 cdbd 25c5 22be
00000010: da48 21be 8358 acbe 6822 99be f366 f2bd
00000020: e945 1f3d 20a8 89be 4e0c 77be 27b0 803d
00000030: 73de d0be c65e 01be 8993 99be 702f 80be
00000040: e8c7 c4bd 3b3f ad3c f891 ffbe 1505 37be
00000050: 0a36 4c3d 063e 26be 5d7e 30be ac8f a4bd
00000060: 4cbe 57be 2f3e 6bbd fbd9 60be 900f 9bbe
00000070: 9293 a1be d180 abbe 6027 e73d 641a 6fbe
00000080: 460e 1ebe 02a7 fa3d 35b1 adbe 789e 2abe
00000090: d73a 07bf 3df3 bbbe 3c14 7bbd f4b2 d3be
000000a0: 785d 17be ef92 cfbe d6a6 2b3e d9f7 a0bd
000000b0: 9017 0abe 3a79 20be dedd 83be e5c4 74be
000000c0: 8904 65be 63d2 9b3d 3b0d 84be b656 b6be
000000d0: eaf5 3cbe 3000 5abe a242 85be 3bb1 87bc
000000e0: 61f7 44be 4f0d cbbe e6ef 8cbe eb2a 6c3e
000000f0: 4941 61be d01f 0c3c 7985 2dbe cf8e bdbe
00000100: e38e a3be 9f6f 73be 7b10 11be cdee f7be
00000110: f429 5cbe c203 1abe 5454 7bbd d82f b3bd
00000120: c9c6 493d c838 0b3e e6a9 bdbe d408 8bbe
00000130: 6252 c8be 6517 eabe 96f6 023c fb12 08bf
00000140: 9df5 23be 0fbc 903c f1b0 4fbe a385 d9be
00000150: f621 f4be f9aa 0e3d 7bf5 0fbf b4a5 7d3c
00000160: f722 79be 2d83 84be fa92 cebe 6bf3 eb3d
00000170: 995f e7be 7f00 3dbe 04a3 83bd 200a 17bf
00000180: 665b 85be 49e2 8dbe 8c04 8abe 080f 69be
00000190: 17e0 d5be 4186 9fbe d2ac 9abd 27fe a6be
000001a0: bea4 933d d240 1ebf 9934 1fbe 25a2 debe
000001b0: 02fe e33c c93a ebbe 68f0 49be 0dda 32be
000001c0: a273 2cbe 2330 80be e9de 25bd 6b9d cf3e
000001d0: bf89 5bbe 0cd7 94be b8bb dd3d f6e0 17be
000001e0: a41d 0abf ca6d bfbe 1624 68be e573 91be
000001f0: 3a75 99be adc0 69be 51b1 d5be c845 64bd
-0.40424758 -0.19552018 -0.10044026 -0.15895517 -0.15750447 -0.3366128 -0.29909062 -0.11836042
0.03888503 -0.26886082 -0.24125788 0.062835984 -0.40794715 -0.1263381 -0.29995373 -0.25036192
-0.096084416 0.021148315 -0.49916053 -0.17873032 0.049856223 -0.16234598 -0.17235704 -0.08035216
-0.21068686 -0.05743235 -0.21958153 -0.3028531 -0.315579 -0.33496717 0.11286807 -0.23349911
-0.15435132 0.122388855 -0.3392426 -0.16662014 -0.5282416 -0.36709014 -0.061298594 -0.41347468
-0.14781749 -0.4054179 0.16762862 -0.07859773 -0.13485551 -0.15671244 -0.2575521 -0.23903234
-0.22365011 0.076084875 -0.25791344 -0.3561303 -0.18453184 -0.21289134 -0.260274 -0.016564002
-0.19234993 -0.3965859 -0.27526778 0.23063247 -0.2199756 0.008552507 -0.16945447 -0.37023017
-0.3194495 -0.23773049 -0.14166443 -0.48424378 -0.21500379 -0.15040496 -0.06135972 -0.0874936
0.049261842 0.13595879 -0.37043685 -0.27155173 -0.39125353 -0.45720974 0.007993361 -0.5315396
-0.16011663 0.017667798 -0.20282342 -0.4248477 -0.4768216 0.03483102 -0.5623395 0.015481401
-0.24329744 -0.2588133 -0.4034651 0.11521038 -0.45190123 -0.1845722 -0.06427577 -0.58999825
-0.26046294 -0.27711704 -0.26956594 -0.2275964 -0.4177253 -0.31157115 -0.07552494 -0.32615778
0.072091565 -0.6181766 -0.15547408 -0.4348308 0.027831081 -0.45943287 -0.19720614 -0.17465992
-0.16840985 -0.25036725 -0.040495787 0.40549788 -0.21439265 -0.29070318 0.1082682 -0.1483191
-0.5395148 -0.3738845 -0.22670016 -0.28408733 -0.2997225 -0.22827406 -0.41736844 -0.05573061

action_model._continuous_distribution.log_sigma f4 [1, 2]
00000000: d724 1dbf 2241 893e
-0.6138434 0.26807505

action_model._continuous_distribution.mu.weight f4 [2, 128]
00000000: 40b3 8b3e b08f b93d afce 153e 6c89 dbbd
00000010: ebdc 273d d4eb 0f3e 5601 62bd 66b3 a4bc
00000020: 91cc e73d 5fff 283f 8481 93be af0d 57bd
00000030: 1694 27be 3dae 8c3d 9a8c 873e c882 95bd
00000040: c498 9ebd 02a0 b13c 0a7c e3bd 6145 32be
00000050: 4818 dbbd 0c30 91bd 6c2a 3fbd ee81 04bd
00000060: dad5 c1bd 7679 123d 2860 54bd a53e d03e
00000070: be7e 06c0 fe9b c63d 853a 38bc 776a 68bd
00000080: 747d 7c3d d88b 29be 0280 5c3f 585c 87bd
00000090: 6371 dc3d 4dc0 a73d ab0e 99bd 047c c53e
000000a0: 56f7 703e 2afe 893e c8d8 8bbc e2a9 22bb
000000b0: 6696 acbe b4a4 84ba b60f 3d3f 99b3 8bbd
000000c0: c2dd 70bc 69d4 96bd 9faf b0be 0746 e1bd
000000d0: 51b9 f2be b154 8abd a533 97bd b255 88be
000000e0: 2c27 bebd 3a56 e1bd 7971 a9bd 60a2 66bd
000000f0: 399e 20be a4fa b93d 8a33 a03d b734 703d
00000100: 8a0d 29be 8923 7ebf 9124 29be 5470 febf
00000110: 209d d0bd 4dee af3e 14bd 7cbd bfc1 44be
00000120: 5378 3e3d e528 40bd 693f b73d 8b34 8d3b
00000130: 12f1 1f3f c6cb 123e 0e8a c43d b603 8bc0
00000140: 613d cbbd 841a b2bd cd08 cf3c 5af5 16bf
00000150: b28c 793f 2da3 bbbd 8e41 f93e 2af7 91bd
00000160: 5fc7 aa3e c828 06be ac88 25be 5f75 bf3d
00000170: 1f71 a7bd ce46 1fbe d8c2 ae3c 8b01 9e3f
00000180: 54b3 d5bd bad8 573e c8b2 d5bd d21e ec3d
00000190: 9647 f73d 83b4 42be e32f 733d 1453 bdba
000001a0: e443 f8bd 144c abbf 3ee3 a03d b04e 74bf
000001b0: 1f7f 4cbe 7c66 9c3f f7bc 183d 3242 423f
000001c0: da7d 2c3e ed40 9dbc d338 a4bd f48d 05be
000001d0: c616 223e 535d 1f3e 3a85 fdbd 6acf 27bc
000001e0: 095d 80be 2b79 103d 8a39 133e 21b5 fc3e
000001f0: c5e6 bebc 9a0d b0bd 37e2 233d 0040 153d
00000200: 5da7 a0be 1c95 88bd 2006 65be 7389 f33d
00000210: ddeb 0fbe e93a 91be 4299 69bf 5684 4dbe
00000220: 4f75 db3d ed64 3cbf 21b5 7fbc 82fe 4dbe
00000230: 5f2e 133c 6ae3 e8bd 9bce 01be 7af3 013e
00000240: f246 9ebe 9448 73be 9915 823e 2321 973c
00000250: 27dc 423d cb9f e33d ddcc 8cbe b95e a63e
00000260: 9d77 f9bb 1d6c 5fbe 5538 c63d d65c 20be
00000270: b38f 5dc0 c29a 70bd b6ea 25be 103e 25bf
00000280: d069 183d 07c2 94bd 0419 77bb b60d edbd
00000290: bfd8 503e 5af3 55bd b2d0 89be aa08 83bd
000002a0: 31b8 0d3d 67d1 093f 9bb1 d7bd 7807 42be
000002b0: b718 bbbe 26eb 893e f3c4 ef3d 298f 10be
000002c0: 3d6b 5abe bacb 58bd c849 bdbe 7257 61be
000002d0: c389 ed3d 64e9 2a3e 4ec3 de3d 2538 f93e
000002e0: 5636 72bd 534d cbbd 5472 ffbd 6c11 46be
000002f0: 580d b3be de1c 093e 9512 b0be 28d7 3d3e
00000300: 0a1e 113e 0429 61bf ec58 bebe 80fc 34c0
00000310: e386 183d d093 503e dacf 25be 1969 2c3b
00000320: 6ea4 49be 5ec5 84be e7ac 2ebe ccb6 fdbc
00000330: 15fa 1cbf 94eb f63e e2be 2b3e 1e41 40c0
00000340: 6472 f13d 637a 44bd 894d b8be 25a6 333e
00000350: 3df3 37bf ee15 83bd 8dec ae3e e1a3 093d
00000360: 8ff8 92be bd8d 6abe f2b9 a53d 6b3b 2c3e
00000370: 5bd2 78bf 0747 a83c 65f9 ddbd 934b 843e
00000380: 6f47 373f 7331 ebbd 3372 893e b54a 843d
00000390: b793 e53e f0eb 8abc ba82 713e 69a3 37be
000003a0: 877d ef3d 7ffe 0ec0 f2d7 273e cc66 c5be
000003b0: 072f 223d a07d 1fbf 03f1 88be 139e febd
000003c0: 053c 143f 4558 953e 3e8c bf3e 1c74 c93d
000003d0: 6c08 933e f8a7 b23e 830c 133d e249 96be
000003e0: d701 4d3f d42c bb3e c85d a7be 4f79 d1bd
000003f0: 496f 84be daf1 65bd a409 643d b05c 7a3e
0.27285194 0.09060609 0.14629625 -0.107195705 0.04098217 0.14054805 -0.055177055 -0.020105075
0.11318315 0.66014665 -0.2880975 -0.052503284 -0.16365084 0.06869171 0.26474458 -0.07300335
-0.077439815 0.021682743 -0.11107643 -0.17409278 -0.10697991 -0.07089242 -0.046671316 -0.032350473
-0.09464617 0.035760365 -0.051849514 0.40672794 -2.1014857 0.09697722 -0.011244421 -0.056742158
0.06164308 -0.16557252 0.86132824 -0.0660941 0.10763814 0.08190975 -0.07473501 0.3857118
0.23531851 0.26951724 -0.017071143 -0.0024820496 -0.33708495 -0.0010119886 0.738521 -0.06821365
-0.014701309 -0.07364733 -0.34508988 -0.10999685 -0.4740701 -0.06754435 -0.07382897 -0.2662788
-0.09284815 -0.110027745 -0.08273596 -0.056307197 -0.15685357 0.09081009 0.0782233 0.058644023
-0.16509071 -0.9927297 -0.16517855 -1.987803 -0.10186219 0.34361497 -0.061703756 -0.19214533
0.04650147 -0.046914 0.089476414 0.004309242 0.6247722 0.14335546 0.09596644 -4.344203
-0.099238165 -0.08696464 0.025272751 -0.58968127 0.9748031 -0.09161983 0.48682827 -0.07127221
0.33355233 -0.13101494 -0.16165417 0.09348559 -0.08175873 -0.15554354 0.021333143 1.2344221
-0.10434595 0.21078768 -0.104344904 0.11529316 0.12074201 -0.19014172 0.05937184 -0.0014444315
-0.12122324 -1.3382592 0.07855843 -0.9543257 -0.19970368 1.2218776 0.037289586 0.75882256
0.16844884 -0.019195998 -0.08018651 -0.13042432 0.15829 0.15562944 -0.123789266 -0.010242322
-0.2507098 0.035271805 0.14377418 0.4935694 -0.023303399 -0.08596344 0.040010657 0.03643799
-0.31377688 -0.06669065 -0.22365618 0.11891451 -0.14054818 -0.28365257 -0.9124948 -0.20070013
0.10715734 -0.735915 -0.015607149 -0.20116618 0.008983224 -0.11371501 -0.1267647 0.12690535
-0.30913502 -0.23758155 0.25407103 0.018448418 0.047573235 0.111144625 -0.27500048 0.32494143
-0.007613136 -0.21818586 0.09678713 -0.15660414 -3.4618957 -0.05874134 -0.16202816 -0.64547825
0.037210286 -0.0726357 -0.003770412 -0.11574881 0.20395182 -0.05223403 -0.26917034 -0.06398137
0.034599487 0.5383515 -0.105319224 -0.18948162 -0.36542293 0.26937217 0.11707487 -0.14117111
-0.2132997 -0.052928664 -0.36970353 -0.22006014 0.115985416 0.16690594 0.10877095 0.48675647
-0.05913385 -0.09926858 -0.12472978 -0.19342583 -0.34971118 0.13389918 -0.34389177 0.18539107
0.14171615 -0.8795321 -0.37177217 -2.8279114 0.037238013 0.20368886 -0.1619257 0.002630776
-0.19691631 -0.2593183 -0.17058145 -0.030970953 -0.61319095 0.48226607 0.16772035 -3.0039744
0.117893964 -0.04796828 -0.35996655 0.17543848 -0.7185553 -0.06400667 0.3416485 0.033603553
-0.2870526 -0.22905631 0.08092107 0.16819541 -0.97195977 0.020541681 -0.10838584 0.2583891
0.71593374 -0.11484041 0.2684494 0.06459562 0.4483926 -0.016958207 0.23585024 -0.1793343
0.11693864 -2.2342832 0.1639097 -0.3855499 0.03959563 -0.62301064 -0.26746377 -0.12432494
0.5790408 0.29168907 0.37411684 0.09836599 0.28717363 0.34893775 0.035900604 -0.29353243
0.8008093 0.3655764 -0.32688737 -0.10228216 -0.25866154 -0.05613885 0.055673257 0.2444942

action_model._continuous_distribution.mu.bias f4 [2]
00000000: 9994 0440 5cc1 cc3f
2.0715697 1.5996509

56 f4 [312]
00000000: 9d94 c43e 7556 693e ca8c ed3a 4477 253d
00000010: fd72 de3e f14d 963e e98d e53e 9360 583e
00000020: 8718 ee3a 9871 0b3d 6a0a f33e 644d a03e
00000030: f0ca f03e 09a1 5f3e 9d3e fd3a 1e1b 153d
00000040: c89e fa3e 9129 a03e 7238 fc3e 8825 2c3e
00000050: 96f0 a63a 3215 bd3c 14fd f63e 3cd3 9f3e
00000060: 292e f83e 14da 383e 95d5 e73a ba28 413d
00000070: e6d6 ef3e 2c4b 9d3e 23c1 b63e fadb f93d
00000080: b85a eb39 0286 a83c ee39 a53e be52 803e
00000090: 60dd c83e a9f6 ff3d 3d2a e23a 073e 7a3d
000000a0: 83e0 b83e 1a86 893e c717 a23e 617b b63d
000000b0: e7d9 9438 045f 743c 176f 913e 95a7 683e
000000c0: ac9f b33e c09f a33d f103 983a 033c 873d
000000d0: 3b60 a43e 4b48 7f3e 3dd5 be3e 259e 723e
000000e0: e281 d238 ba9c 613c 59f2 923e fd44 6a3e
000000f0: 0019 c93e 2f01 6b3e a065 483a dc2b 883d
00000100: 88cb a23e 724c 7c3e 5136 f53e 71bc db3e
00000110: 1bf9 9e3a 587a b03c 4cf9 963e 0a03 813e
00000120: d466 f63e c91c d83e 3025 d43a b000 7b3d
00000130: 87b4 a13e 1782 853e c107 c53e 3cb0 693e
00000140: 6227 1e3b 939e 263d e438 dd3e 2f3f 933e
00000150: 91fa e53e 69bd 583e bd1f 103b 1bb7 0c3d
00000160: 6c6f f23e 5cd3 9d3e 920e f13e c0f7 5f3e
00000170: a402 333b 1b65 163d 1a35 fa3e c4cf 9d3e
00000180: 54e5 fb3e c187 2c3e 9860 d63a e110 c03c
00000190: 3d39 f73e 873f 9e3e e9c1 f73e fa28 393e
000001a0: 9e7a 2b3b d129 423d 103a f03e 30ce 9b3e
000001b0: 2b6e b43e 9ea9 fa3d 74a9 463a 9a77 aa3c
000001c0: abab a53e cb8c 7e3e 200e c73e 013e 003e
000001d0: 93b4 143b 37f0 7a3d 6f51 b93e 2f7c 883e
000001e0: b80b 9f3e dc3d b73d b16b 2639 3835 763c
000001f0: 79d7 913e 14dd 663e 7e1d b13e 2403 a43d
00000200: d59a bc3a 8982 873d 1ebf a43e 0570 7d3e
00000210: bfb3 bc3e 5c3d 733e e281 d238 8209 623c
00000220: 594d 933e 1851 683e ec38 c73e 4a8a 6b3e
00000230: 02ba 6f3a bc64 883d 6420 a33e 1359 7a3e
00000240: e9a7 f43e 182b dc3e 1bf9 9e3a 768c b03c
00000250: 3c44 973e e822 803e 93dd f53e 3582 d83e
00000260: 9b60 d63a 025a 7b3d a407 a23e fab1 843e
00000270: cb7c c53e bf08 6a3e bf1d 4a3b 8ec5 273d
00000280: b0f9 db3e 2f17 903e ac67 e63e cc18 593e
00000290: 1112 333b c6fc 0d3d cfd0 f13e 5148 9b3e
000002a0: f852 f13e 134d 603e e44d 5e3b 09b3 173d
000002b0: 62c8 f93e f663 9b3e 2a8f fb3e 2fe9 2c3e
000002c0: 19ee 053b 3c05 c33c 9374 f73e f4a3 9c3e
000002d0: 1b53 f73e d078 393e 61af 583b 5e28 433d
000002e0: 529d f03e 7347 9a3e b00a b23e 9075 fb3d
000002f0: 35ea 913a 4457 ac3c 861c a63e 5367 7c3e
00000300: fc36 c53e 4780 003e c6eb 413b 8ca0 7b3d
00000310: dcc5 b93e b06d 873e ade6 9b3e 1402 b83d
00000320: aa6e 9939 b948 783c 7a3f 923e 5a08 653e
00000330: 1b8b ae3e 8f68 a43d ada1 043b aec8 873d
00000340: 2f1f a53e a28e 7b3e c684 ba3e f1db 733e
00000350: e281 d238 9b91 623c cda9 933e 7553 663e
00000360: 794c c53e 2213 6c3e 5dda a43a 889e 883d
00000370: c474 a33e fd59 783e 0c16 f43e 4f99 dc3e
00000380: bc3e 9f3a 1a9d b03c 3791 973e ef7d 7e3e
00000390: cc51 f53e f9e7 d83e 0712 e43a acb3 7b3d
000003a0: 1a5e a23e dbdd 833e 8fee c53e 5961 6a3e
000003b0: c1fe 6f3b 74de 283d 44b1 da3e 7ad2 8c3e
000003c0: 0ed2 e63e f774 593e bcd5 583b e832 0f3d
000003d0: 702d f13e 0faa 983e 1894 f13e 66a1 603e
000003e0: 425e 813b 01f1 183d d155 f93e a5e5 983e
000003f0: 2436 fb3e ee4a 2d3e ae8a 2b3b 2bfb c53c
0.38394633 0.22786887 0.0018123623 0.040396944 0.43447104 0.2935634 0.4483483 0.2113059
0.0018165269 0.03404388 0.47468883 0.31309044 0.4702983 0.21838774 0.0019321028 0.036402814
0.48949265 0.31281713 0.49261814 0.16811192 0.0012736495 0.023081396 0.48239958 0.31215847
0.48472717 0.1805194 0.0017687554 0.04715798 0.46843642 0.30721414 0.35694227 0.1220016
0.00044890284 0.020571712 0.3227076 0.25063127 0.39231396 0.124982186 0.001725502 0.06109431
0.3610879 0.26860124 0.31658766 0.089102514 7.0977774e-05 0.014915232 0.28405067 0.22720177
0.35082757 0.07989454 0.0011597854 0.06603243 0.32104668 0.24929921 0.37272063 0.2369314
0.00010037773 0.013770277 0.28700522 0.2287788 0.39276886 0.2294967 0.0007644538 0.066489905
0.31795907 0.24638537 0.47893003 0.42917207 0.0012128683 0.021542713 0.29487073 0.2519763
0.48125327 0.4220946 0.0016185399 0.061279953 0.31583044 0.26075813 0.38482478 0.22821134
0.002413236 0.040678572 0.43207467 0.28759143 0.4491773 0.21166004 0.0021991574 0.03435431
0.47350633 0.30825317 0.4708143 0.21871853 0.0027314806 0.036717515 0.48868638 0.30822575
0.491984 0.16848661 0.0016355691 0.023445548 0.48285857 0.30907843 0.4839013 0.18082038
0.0026165615 0.04740316 0.46919298 0.30430746 0.352403 0.12239383 0.0007578351 0.020808984
0.32357535 0.24858396 0.38877964 0.12523653 0.0022690638 0.061264243 0.3619494 0.26657245
0.31063628 0.089473456 0.00015871112 0.015027337 0.28484705 0.22545272 0.34592813 0.080084115
0.0014389405 0.066166945 0.3217706 0.24749763 0.36855885 0.23753875 0.00010037773 0.013796212
0.2876995 0.22687185 0.38910615 0.23001972 0.0009144844 0.066598386 0.3186065 0.24448042
0.47784355 0.43001628 0.0012128683 0.021551352 0.29544246 0.2502663 0.4802061 0.4228684
0.0016355695 0.061365135 0.31646454 0.25917035 0.38571772 0.22854899 0.0030840484 0.040959887
0.42963934 0.28142688 0.4500097 0.21200866 0.0027324 0.03466489 0.4722962 0.3032861
0.47133613 0.21904401 0.0033920938 0.037035976 0.48785692 0.30349702 0.49132663 0.16885827
0.0020436107 0.023806207 0.48331127 0.30593836 0.48305592 0.18112493 0.0033063518 0.04764592
0.46995026 0.30132636 0.3477378 0.12278283 0.0011132421 0.021037705 0.32443637 0.2464879
0.38518512 0.12548934 0.0029589995 0.061432406 0.36283767 0.26450872 0.3044943 0.08984771
0.00029264885 0.015154057 0.28564054 0.22366467 0.34090504 0.080277555 0.0020237968 0.066300735
0.32250354 0.24566129 0.36429423 0.2381437 0.00010037773 0.01382866 0.28840485 0.22492774
0.38534907 0.23054174 0.0012577284 0.066708624 0.31925023 0.24253078 0.4767307 0.43085715
0.0012149434 0.021559287 0.29602978 0.24852727 0.4791397 0.4236448 0.0017400392 0.061450645
0.3171242 0.257552 0.38658568 0.22888698 0.003662035 0.041227773 0.42713368 0.2750433
0.45082134 0.21236025 0.003308638 0.034960657 0.4710498 0.29817244 0.471833 0.21936569
0.003948004 0.037339214 0.48698285 0.29862705 0.49064744 0.16923115 0.0026175189 0.024167618

59 f4 [88]
00000000: c122 bf43 c161 2b42 7e38 8743 5f4a c143
00000010: dd60 2b42 7878 8943 41b9 fb3c 74fd 343f
00000020: d6d9 0f3d 14dd e23e 8949 9541 e7d9 9438
00000030: e7d9 9438 8020 4b41 6d1e c143 a7e6 2b42
00000040: 86f2 8543 2a58 fe41 db36 393f ec8a 893d
00000050: 08b3 1a3f a1cd a03e d2b0 bf43 89af 0e42
00000060: 1e89 8743 d2d6 c143 87cc 0e42 fbcb 8943
00000070: ed13 fc3c 3a72 353f 6e34 103d f673 e23e
00000080: 3903 9441 e7d9 9438 e7d9 9438 40fc 4941
00000090: 72a3 c143 e14a 0f42 6c51 8643 cf99 fa41
000000a0: 65bd 393f 437e 893d 0e40 1b3f cdf2 9d3e
000000b0: 403e c043 edfc d341 3bd9 8743 a862 c243
000000c0: c79d d441 111f 8a43 026e fc3c d9e6 353f
000000d0: 1c91 103d 0c08 e23e 0ab5 9241 e7d9 9438
000000e0: e7d9 9438 f9d3 4841 2528 c243 d49c d541
000000f0: e7af 8643 09c0 f641 7943 3a3f bf70 893d
00000100: dacc 1b3f dcff 9a3e 3ccb c043 06ae 3241
00000110: 0729 8843 f6ed c243 fa88 3741 a271 8a43
00000120: 9cc6 fc3c 255b 363f 5cef 103d fd98 e13e
00000130: 045e 9141 e7d9 9438 e7d9 9438 9fa8 4741
00000140: 10ac c243 e976 3a41 080e 8743 abc8 f241
00000150: 01c9 3a3f 6862 893d 0b59 1c3f 70f3 973e
382.2715 42.845463 270.44135 386.58102 42.844593 274.94116 0.030727984 0.7069924
0.035119854 0.44309294 18.660906 7.0977774e-05 7.0977774e-05 12.695435 386.2377 42.975246
267.8947 31.793049 0.7234933 0.0671595 0.6042943 0.31406882 383.3814 35.67142
271.07123 387.67828 35.699734 275.5936 0.03077122 0.7087742 0.03520625 0.44229096
18.501574 7.0977774e-05 7.0977774e-05 12.624084 387.27692 35.823124 268.6361 31.325102
0.7255462 0.06713536 0.60644615 0.30849305 384.48633 26.498499 271.6971 388.77075
26.57704 276.2427 0.030814175 0.7105537 0.035294637 0.44146764 18.338398 7.0977774e-05
7.0977774e-05 12.551751 388.31363 26.701576 269.37424 30.843767 0.72759205 0.06710958
0.60859454 0.3027333 385.58777 11.167486 272.32053 389.85907 11.470942 276.88776
0.030856423 0.71232826 0.03538452 0.44062033 18.170906 7.0977774e-05 7.0977774e-05 12.478667
389.34424 11.654031 270.10962 30.347982 0.7296296 0.06708223 0.6107337 0.29677916
