results/ppo3/AI Car/AI Car-98999949.onnx (onnx, 277974 bytes, 11 tensors)

network_body.observation_encoder.processors.0.normalizer.running_mean f4 [312]
0.24260153 0.032196496 0.0 0.0010639406 0.69316196 0.79549116 0.37850285 0.027519165
0.0 0.0010097161 0.56199294 0.7295517 0.2666409 0.029900026 0.0 0.0012331157
0.6712493 0.79963577 0.65985876 0.017819436 0.0 0.0010258374 0.29032323 0.58881974
0.5364154 0.02037101 0.0 0.0018615888 0.41037765 0.6942665 0.80883855 0.010858124
0.0 0.00084753596 0.14847967 0.4730941 0.75304323 0.010422594 0.0 0.002448582
0.20310965 0.5628578 0.8483441 0.007052132 0.0 0.00042024185 0.11320389 0.4337444
0.82307035 0.0048372447 0.0 0.0026388788 0.13847588 0.50164646 0.79715055 0.07252657
1.0101014e-08 0.00017492923 0.09917365 0.44203362 0.7849187 0.05236638 0.0 0.0025534288
0.12918931 0.4992534 0.5860882 0.28373143 1.7070728e-06 9.994915e-05 0.09910074 0.4421045
0.6109357 0.22012025 2.0100952e-06 0.0021305806 0.13583443 0.48571226 0.24463177 0.032534618
0.0 0.0011086445 0.70106727 0.80433726 0.38178086 0.027838482 0.0 0.0010515593
0.56867325 0.737813 0.26932836 0.030208794 0.0 0.0012786571 0.678529 0.80830395
0.66673833 0.01808019 0.0 0.0010597801 0.29346824 0.59536713 0.54251426 0.020595333
0.0 0.0019072428 0.4143273 0.7014851 0.81753445 0.01105268 0.0 0.0008672648
0.14989269 0.47817335 0.7614649 0.010549407 0.0 0.002489232 0.2048397 0.56847876
0.85747534 0.00718448 0.0 0.00042698046 0.11425629 0.43831816 0.8321443 0.0048971586
0.0 0.002673244 0.13962556 0.50658804 0.80591273 0.07315343 1.0101014e-08 0.0001763531
0.100100435 0.44664115 0.7936936 0.05286997 0.0 0.002581022 0.13019988 0.5041528
0.59289706 0.28643614 1.7070728e-06 0.00010060575 0.099905826 0.4466372 0.6179441 0.22241944
2.0100952e-06 0.0021503374 0.13683052 0.4904927 0.24671346 0.03286861 0.0 0.0011538633
0.708937 0.8131557 0.3850846 0.028153425 0.0 0.0010939348 0.57533824 0.7460465
0.27205378 0.030512996 0.0 0.0013252771 0.6857798 0.8169639 0.6735867 0.018339463
0.0 0.0010939264 0.29665187 0.6019041 0.54858625 0.020822193 0.0 0.0019527768
0.41830933 0.7087247 0.8262381 0.011246173 0.0 0.0008864868 0.15129824 0.48324558
0.76983124 0.010675818 0.0 0.0025295876 0.20663248 0.5741348 0.866602 0.007318643
0.0 0.00043465514 0.115310326 0.4428949 0.84120595 0.004958175 0.0 0.0027075165
0.14079665 0.5115506 0.81466806 0.073779844 1.0101014e-08 0.00017811093 0.1010428 0.45126414
0.80247724 0.053376593 0.0 0.0026091998 0.13120827 0.5090505 0.5996854 0.2891472
1.7171761e-06 0.000101191516 0.10073419 0.45120123 0.62488127 0.22474334 2.1313135e-06 0.0021701823
0.1378716 0.49527684 0.24874927 0.033203926 0.0 0.0011968937 0.71684945 0.8219927
0.3883533 0.028471278 0.0 0.001134394 0.5820405 0.7542969 0.27467796 0.030814914
0.0 0.0013699296 0.69313514 0.8256492 0.6803874 0.01860075 0.0 0.001128649
00000000: 896c 783e 79e0 033d 0000 0000 ec73 8b3a
00000010: 1073 313f 4fa5 4b3f 20cb c13e df6f e13c
00000020: 0000 0000 7358 843a c5de 0f3f e6c3 3a3f
00000030: 2885 883e e6f0 f43c 0000 0000 7fa0 a13a
00000040: fed6 2b3f eeb4 4c3f 81ec 283f 11fa 913c
00000050: 0000 0000 6475 863a 3fa5 943e e4bc 163f
00000060: 8552 093f 1be1 a63c 0000 0000 8e00 f43a
00000070: 051d d23e 73bb 313f 0b10 4f3f 46e6 313c
00000080: 0000 0000 2d2d 5e3a 0e0b 183e 6439 f23e
00000090: 71c7 403f 87c3 2a3c 0000 0000 6478 203b
000000a0: fafb 4f3e 7317 103f 142d 593f 9215 e73b
000000b0: 0000 0000 e853 dc39 71d7 e73d bf13 de3e
000000c0: bdb4 523f c081 9e3b 0000 0000 0af1 2c3b
000000d0: 9fcc 0d3e e76b 003f 0f12 4c3f cf88 943d
000000e0: bb88 2d32 356d 3739 8e1b cb3d 3b52 e23e
000000f0: 6ff0 483f 217e 563d 0000 0000 6d57 273b
00000100: 344a 043e 249e ff3e e009 163f 3f45 913e
00000110: 931e e535 cb9b d138 54f5 ca3d 855b e23e
00000120: 4866 1c3f 3467 613e 2ce5 0636 36a1 0b3b
00000130: 2e18 0b3e 47af f83e c080 7a3e 0543 053d
00000140: 0000 0000 f04f 913a 2579 333f 0ce9 4d3f
00000150: c878 c33e 870d e43c 0000 0000 7ad4 893a
00000160: 9294 113f 50e1 3c3f 68e5 893e 6f78 f73c
00000170: 0000 0000 9d98 a73a 14b4 2d3f 02ed 4e3f
00000180: 5daf 2a3f e81c 943c 0000 0000 52e8 8a3a
00000190: 7841 963e fb69 183f 37e2 0a3f 8bb7 a83c
000001a0: 0000 0000 73fc f93a b522 d43e 8794 333f
000001b0: f049 513f 4d16 353c 0000 0000 2859 633a
000001c0: 787d 193e 23d3 f43e 5def 423f 6cd7 2c3c
000001d0: 0000 0000 6222 233b 80c1 513e d387 113f
000001e0: 8183 5b3f c96b eb3b 0000 0000 59dc df39
000001f0: 34ff e93d 3d6b e03e 6907 553f 5878 a03b
00000200: 0000 0000 9831 2f3b 01fa 0e3e c1af 013f
00000210: 4c50 4e3f 77d1 953d bb88 2d32 6deb 3839
00000220: 7501 cd3d 26ae e43e 812f 4b3f 2f8e 583d
00000230: 0000 0000 5d26 293b 1e53 053e 2810 013f
00000240: 1ac8 173f c2a7 923e 931e e535 4dfc d238
00000250: 6d9b cc3d a2ad e43e 9631 1e3f ecc1 633e
00000260: 2ce5 0636 adec 0c3b 4d1d 0c3e dc21 fb3e
00000270: 74a2 7c3e 3ca1 063d 0000 0000 3a3d 973a
00000280: e57c 353f f92a 503f cf29 c53e 03a2 e63c
00000290: 0000 0000 5c62 8f3a 5e49 133f e7fc 3e3f
000002a0: a24a 8b3e 64f6 f93c 0000 0000 ecb4 ad3a
000002b0: 448f 2f3f 8c24 513f 2e70 2c3f a43c 963c
000002c0: 0000 0000 1462 8f3a c1e2 973e 6316 1a3f
000002d0: 2670 0c3f 4e93 aa3c 0000 0000 51f4 ff3a
000002e0: a42c d63e fb6e 353f 5784 533f de41 383c
000002f0: 0000 0000 1f63 683a eded 1a3e f76b f73e
00000300: a913 453f a0e9 2e3c 0000 0000 70c7 253b
00000310: 7797 533e 80fa 123f a1d9 5d3f 3ad1 ef3b
00000320: 0000 0000 6de2 e339 d227 ec3d 1fc3 e23e
00000330: 4659 573f 3078 a23b 0000 0000 9770 313b
00000340: ff2c 103e fbf4 023f 168e 503f e319 973d
00000350: bb88 2d32 4ac3 3a39 87ef ce3d 180c e73e
00000360: 266f 4d3f 6aa1 5a3d 0000 0000 1cff 2a3b
00000370: 765b 063e 2251 023f fb84 193f 1a0b 943e
00000380: b979 e635 c836 d438 ba4d ce3d d903 e73e
00000390: 38f8 1f3f 1e23 663e b007 0f36 9e39 0e3b
000003a0: 362e 0d3e ed94 fd3e 21b8 7e3e d700 083d
000003b0: 0000 0000 17e1 9c3a 7283 373f 1d6e 523f
000003c0: 3ed6 c63e 993c e93c 0000 0000 f2af 943a
000003d0: 9b00 153f 9a19 413f 97a2 8c3e 8f6f fc3c
000003e0: 0000 0000 368f b33a 4e71 313f bf5d 533f
000003f0: de2d 2e3f 9a60 983c 0000 0000 2def 933a

network_body.observation_encoder.processors.1.normalizer.running_mean f4 [88]
245.3933 324.73972 134.14069 249.83238 324.379 137.0287 0.01734308 0.26098678
-0.009274965 0.570084 35.060184 0.0 0.0 13.639971 249.0272 325.1035
122.86496 85.398315 -0.019625388 -0.067004055 0.017098814 0.8364526 247.24496 328.1995
135.70573 251.75798 327.8424 138.63353 0.01751768 0.26434696 -0.009391503 0.57628286
35.435066 0.0 0.0 13.767407 251.09442 328.55936 124.453445 86.25529
-0.0185817 -0.06766374 0.017388113 0.8456803 249.09799 331.66705 137.27286 253.68358
331.28824 140.23853 0.017688273 0.26771683 -0.009509959 0.5824779 35.81004 0.0
0.0 13.895005 253.16118 332.02792 126.04442 87.11415 -0.017543936 -0.06832537
0.017668257 0.85491973 250.95396 335.11404 138.84116 255.6127 334.76047 141.84604
0.01786131 0.271092 -0.009627313 0.58865887 36.18475 0.0 0.0 14.022615
255.23065 335.49905 127.63663 87.97307 -0.016515715 -0.06899475 0.017929649 0.86416095
00000000: af64 7543 af5e a243 0424 0643 17d5 7943
00000010: 8330 a243 5907 0943 1313 8e3c 0fa0 853e
00000020: 06f6 17bc 06f1 113f a13d 0c42 0000 0000
00000030: 0000 0000 523d 5a41 f706 7943 3f8d a243
00000040: dcba f542 f0cb aa42 6cc5 a0bc 6c39 89bd
00000050: d012 8c3c c221 563f b63e 7743 8919 a443
00000060: abb4 0743 0bc2 7b43 d4eb a343 2fa2 0a43
00000070: 3d81 8f3c 7c58 873e d2de 19bc 4687 133f
00000080: 82bd 0d42 0000 0000 0000 0000 4d47 5c41
00000090: 2c18 7b43 9947 a443 2ae8 f842 b582 ac42
000000a0: a638 98bc 4993 8abd 8471 8e3c 817e 583f
000000b0: 1619 7943 62d5 a543 da45 0943 ffae 7d43
000000c0: e5a4 a543 103d 0c43 ffe6 903c 2e12 893e
000000d0: a9cf 1bbc 461d 153f 7b3d 0f42 0000 0000
000000e0: 0000 0000 f151 5e41 4329 7d43 9303 a643
000000f0: be16 fc42 723a ae42 4db8 8fbc 2cee 8bbd
00000100: 05bd 903c 05dc 5a3f 37f4 7a43 998e a743
00000110: 56d7 0a43 da9c 7f43 5761 a743 96d8 0d43
00000120: e251 923c 92cc 8a3e e1bb 1dbc 59b2 163f
00000130: 2fbd 1042 0000 0000 0000 0000 a25c 6041
00000140: 0c3b 7f43 e1bf a743 f445 ff42 36f2 af42
00000150: f74b 87bc 1f4d 8dbd 33e1 923c a739 5d3f

network_body._body_endoder.seq_layers.0.weight f4 [128, 400]
0.40879685 0.111598276 0.060612965 0.12999046 -0.09674115 -0.05298565 0.17469867 -0.041312546
-0.027715405 0.30002218 0.26195222 -0.040625326 -0.31652948 0.1785013 0.018955262 0.35183617
0.3983396 0.29761228 -0.20063476 0.10558387 -0.032434948 0.18401733 0.5189636 0.4472949
-0.31523475 0.43650675 -0.046790887 0.25582215 0.37411702 0.02036245 -0.076190256 -0.07174967
-0.061445322 0.3082692 0.4051383 0.4682464 -0.35710084 0.14894356 -0.058440782 0.12565194
0.5345957 0.14075741 -0.048679393 0.021500409 0.032250714 0.33399153 0.49782047 0.40565136
0.16343279 0.5215902 0.052753534 -0.18304858 -0.10200396 0.06677708 0.30206817 0.043954384
0.20435986 0.1595819 -0.039651003 0.025388906 -0.1040028 0.4145269 -0.030371845 -0.068410374
0.20579329 0.10878563 0.0200756 -0.011800176 0.32230085 0.30745932 0.113981955 0.11812438
0.1479097 0.24970645 -0.023186486 0.02323407 -0.18512838 -0.38402054 0.68519324 0.012030583
0.054903466 0.11088102 -0.2087734 -0.28639916 0.44914478 -0.116906136 -0.035828695 0.14986661
0.029035626 -0.17380118 -0.13515252 0.4791311 -0.010011284 0.27673084 0.11893182 -0.014556408
0.0051573287 0.022060262 0.038379695 0.0780251 0.25193435 0.111171074 0.30197793 0.40631747
-0.041131027 0.056953885 -0.1636526 -0.46707413 0.2885708 -0.07033314 0.018394997 0.31522992
0.07283588 0.13034 -0.21787685 0.57507926 0.09197187 -0.12523943 0.26751927 -0.038626
0.028088676 -0.06478737 0.011978388 0.43895727 0.17681699 0.10989065 0.17387529 -0.0852129
0.02851495 -0.0010062626 0.27593568 0.3068405 0.081592746 0.3195032 0.13962837 0.22388372
0.05923119 0.05719626 0.11417624 0.18329772 -0.0014001391 0.0012647161 0.004280721 -0.13639587
0.038329214 0.05151091 0.61512613 0.17771961 0.36022067 0.17402121 0.24113196 0.49896067
0.33180174 0.18094665 -0.5439584 -0.46736577 0.31911325 0.054424964 -0.069647275 0.04932534
-0.06326216 -0.15439513 0.24003464 0.037899334 0.09229907 0.14059241 -0.0027722847 -0.21974793
0.16563407 0.17162849 0.06513071 0.23461895 -0.13007185 -0.21178913 -0.13700476 0.08133633
-0.039039675 0.21860807 0.24050216 0.026983531 -0.18584804 0.18095924 -0.0031111282 -0.08763242
0.20691524 0.09973681 -0.047177922 0.08161413 -0.11099634 0.42002442 0.1991867 0.10261657
0.078918315 0.59923965 0.06754715 -0.34105876 -0.04951709 -0.4238781 0.23389958 -0.49732712
-0.0076129856 0.363533 0.018811345 -0.041259404 -0.12175697 0.39322135 0.031062102 -0.15844081
0.2098928 -0.09546927 -0.050510127 -0.16942897 0.07361703 0.04987962 0.28839546 0.30427718
0.081034675 0.20988043 -0.0025303264 -0.25032806 0.09400827 0.02432937 0.3195192 -0.13520794
0.24352357 0.07700993 -0.035262506 0.09210416 0.21043262 0.3018845 0.40362185 0.057084348
-0.23898672 -0.09057407 0.054756913 -0.42005658 0.0016061686 0.037280098 0.13858135 0.04953545
0.06702013 -0.16794612 -0.044043913 0.11697988 0.11521973 -0.17546947 -0.5528914 -0.271697
0.04811369 0.18541266 0.616874 0.61966735 0.21103817 -0.23757587 -0.0021719944 0.14893727
00000000: d24d d13e a38d e43d 4d45 783d 381c 053e
00000010: 3920 c6bd 7b07 59bd 35e4 323e 5837 29bd
00000020: 6b0b e3bc 829c 993e 9a1e 863e be66 26bd
00000030: 2710 a2be 0bc9 363e 1148 9b3c df23 b43e
00000040: 2bf3 cb3e a360 983e 3373 4dbe 5b3c d83d
00000050: 82da 04bd 0a6f 3c3e ccda 043f d603 e53e
00000060: 7366 a1be d07d df3e cda7 3fbd 1ffb 823e
00000070: 448c bf3e 27cf a63c a309 9cbd 7ef1 92bd
00000080: 17ae 7bbd 76d5 9d3e 4a6e cf3e febd ef3e
00000090: ecd5 b6be a984 183e 9a5f 6fbd e7aa 003e
000000a0: 44db 083f b622 103e 0b64 47bd a021 b03c
000000b0: 5319 043d f000 ab3e 53e2 fe3e 89b1 cf3e
000000c0: ed5a 273e ef86 053f 1714 583d 1671 3bbe
000000d0: 74e7 d0bd 6cc2 883d aea8 9a3e 8309 343d
000000e0: b643 513e 7069 233e 1769 22bd 65fc cf3c
000000f0: 6cff d4bd df3c d43e 60ce f8bc bd1a 8cbd
00000100: 7abb 523e 00cb de3d 9675 a43c 8755 41bc
00000110: 9e04 a53e 4f6b 9d3e 5f6f e93d 32eb f13d
00000120: a475 173e 0cb3 7f3e 96f1 bdbc 6055 be3c
00000130: 4b92 3dbe 579e c4be d368 2f3f ec1b 453c
00000140: 75e2 603d 9715 e33d b2c8 55be e9a2 92be
00000150: 4ef6 e53e 7c6c efbd 1cc1 12bd a276 193e
00000160: 1fdc ed3c f0f8 31be 6c65 0abe ac50 f53e
00000170: 5e06 24bc aaaf 8d3e 8792 f33d 007e 6ebc
00000180: cffe a83b b9b7 b43c 0734 1d3d a0cb 9f3d
00000190: 8afd 803e a9ad e33d da9c 9a3e d808 d03e
000001a0: 0279 28bd 7a48 693d 8c94 27be 5724 efbe
000001b0: 8dbf 933e d20a 90bd 1bb1 963c d165 a13e
000001c0: fa2a 953d d977 053e 1c1b 5fbe 6538 133f
000001d0: bf5b bc3d c43e 00be 49f8 883e 4c36 1ebd
000001e0: 391a e63c 3eaf 84bd 0041 443c 02bf e03e
000001f0: 830f 353e 590e e13d 5d0c 323e 1a84 aebd
00000200: 2f98 e93c 92e4 83ba 7147 8d3e 331a 9d3e
00000210: 191a a73d ec95 a33e bdfa 0e3e c641 653e
00000220: 679c 723d a046 6a3d 3cd5 e93d 66b2 3b3e
00000230: df84 b7ba d5c4 a53a 4a45 8c3b 5cab 0bbe
00000240: 18ff 1c3d 1bfd 523d e878 1d3f 21fc 353e
00000250: d86e b83e 9e32 323e 4ceb 763e c677 ff3e
00000260: ebe1 a93e 144a 393e dc40 0bbf 914a efbe
00000270: d062 a33e b6ec 5e3d 3ba3 8ebd 5e09 4a3d
00000280: 978f 81bd c219 1ebe a4cb 753e 553c 1b3d
00000290: 4b07 bd3d 75f7 0f3e 38af 35bb 9a05 61be
000002a0: fa9b 293e 61bf 2f3e 4063 853d f33f 703e
000002b0: 8e31 05be 40df 58be fa4a 0cbe a993 a63d
000002c0: 11e8 1fbd cbda 5f3e 3346 763e 910c dd3c
000002d0: f34e 3ebe 614d 393e 12e4 4bbb a078 b3bd
000002e0: 97e1 533e d042 cc3d a33d 41bd 4f25 a73d
000002f0: 0d52 e3bd 710d d73e 99f7 4b3e a328 d23d
00000300: ed9f a13d c567 193f 2956 8a3d 419f aebe
00000310: 6fd2 4abd 8d06 d9be 5f83 6f3e a9a1 febe
00000320: 5a76 f9bb ff20 ba3e 401a 9a3c 9fff 28bd
00000330: b85b f9bd 4f54 c93e f375 fe3c 4f3e 22be
00000340: 23ee 563e 6585 c3bd b5e3 4ebd ca7e 2dbe
00000350: 87c4 963d 934e 4c3d 92a8 933e 38ca 9b3e
00000360: 82f5 a53d e5ea 563e d5d3 25bb 002b 80be
00000370: 6887 c03d 634e c73c 0598 a33e f373 0abe
00000380: 3e5e 793e 62b7 9d3d 6b6f 10bd 1ba1 bc3d
00000390: a67b 573e 9b90 9a3e 86a7 ce3e 47d1 693d
000003a0: efb8 74be e67e b9bd c948 603d a811 d7be
000003b0: 1386 d23a 04b3 183d 45e8 0d3e afe5 4a3d
000003c0: da41 893d 11fa 2bbe 6467 34bd 2693 ef3d
000003d0: 52f8 eb3d 45ae 33be 4a8a 0dbf df1b 8bbe
000003e0: dc12 453d d1dc 3d3e 74eb 1d3f 85a2 1e3f
000003f0: 641a 583e 1747 73be 0558 0ebb 0383 183e

network_body._body_endoder.seq_layers.0.bias f4 [128]
-0.86716664 -0.7670998 -1.0103061 -0.58723843 -0.6342829 -0.5952606 -0.22615846 -0.5038419
-0.5792461 -0.9910518 -0.29443115 -0.012331528 -0.404402 -0.228238 -0.45787972 -0.4066579
-0.2106711 -0.12125915 -0.5567897 -0.22202447 -0.29940397 -0.6392357 -0.34462765 -0.70522213
-0.5593446 -0.8059138 -0.87782186 -0.9520764 -0.6096593 -0.59256977 -0.43241167 -0.54719514
-0.19719201 -0.5911236 -0.86437076 -0.3239874 -0.3568876 -0.596796 -0.4872616 -0.5112247
-0.8065316 -0.8151533 -1.325309 -0.19198982 -0.7749937 -0.545863 -0.93755496 -1.0699437
-0.50921637 -0.5870489 -1.1537765 -0.8940535 -0.9289382 -0.9666422 -0.8153608 -0.06263656
-0.72960776 -0.57019424 -0.78557223 -0.4067961 0.08942253 -0.94579804 -0.13155195 -0.69968486
-0.14463738 -0.9753877 -0.93500865 -0.48559734 -0.31177795 -1.0962765 -1.3090965 -0.082385935
-0.6549119 -0.96483135 -0.45717376 -0.5826301 -0.33569774 -1.2025653 -0.5955396 -0.5146426
-0.92331123 -0.84095234 0.2053812 -0.7233951 -0.21200854 -0.24766797 -0.7173144 -1.032648
-0.61340207 -0.77118105 -0.3306017 -0.7108646 -0.88581854 -0.40332177 -0.8972367 -0.46583635
-0.3464546 -0.5567036 -0.3058127 -0.16801627 -0.68390656 -0.6474357 -0.552025 -0.5635806
-0.111755386 -0.3695976 -0.38677368 -1.1926403 -0.9653719 -0.30615902 -0.7486785 -0.48627067
-0.012305206 -0.64443034 -0.13847473 -0.8982856 -0.8269453 -0.5149674 -0.8503083 -0.48748276
-0.9019135 -0.5513566 -0.021963902 -0.37501758 -0.30599606 -0.37730116 -0.17896463 -0.22076613
00000000: a2fe 5dbf a760 44bf b651 81bf 4255 16bf
00000010: 5d60 22bf 0063 18bf 1596 67be c8fb 00bf
00000020: 7949 14bf 92b5 7dbf aebf 96be 2d0a 4abc
00000030: c70d cfbe 39b7 69be 366f eabe 7735 d0be
00000040: 2aba 57be b856 f8bd c589 0ebf 625a 63be
00000050: 7a4b 99be f3a4 23bf 0973 b0be 7089 34bf
00000060: 3531 0fbf 5e50 4ebf efb8 60bf 47bb 73bf
00000070: a212 1cbf a7b2 17bf 1065 ddbe fb14 0cbf
00000080: b4ec 49be e053 17bf 6747 5dbf ade1 a5be
00000090: f9b9 b6be 9fc7 18bf 5a7a f9be 9fdf 02bf
000000a0: db78 4ebf e3ad 50bf baa3 a9bf fb98 44be
000000b0: fd65 46bf adbd 0bbf 9a03 70bf eaf3 88bf
000000c0: 015c 02bf d648 16bf f3ae 93bf b1e0 64bf
000000d0: e5ce 6dbf dd75 77bf 7cbb 50bf 9947 80bd
000000e0: 93c7 3abf 40f8 11bf 431b 49bf 9447 d0be
000000f0: 2923 b73d d21f 72bf 8eb5 06be 8c1e 33bf
00000100: d21b 14be 02b3 79bf ba5c 6fbf 37a0 f8be
00000110: 5ca1 9fbe ca52 8cbf 7990 a7bf f5b9 a8bd
00000120: 4ea8 27bf 30ff 76bf ae12 eabe 3f27 15bf
00000130: 93e0 abbe a9ed 99bf 4975 18bf 9ebf 03bf
00000140: 205e 6cbf a748 57bf 734f 523e 6c30 39bf
00000150: c418 59be ac9c 7dbe eba1 37bf cf2d 84bf
00000160: eb07 1dbf 1f6c 45bf a044 a9be 39fb 35bf
00000170: 01c5 62bf 3180 cebe 4eb1 65bf 1a82 eebe
00000180: 7f62 b1be 2184 0ebf 7b93 9cbe 750c 2cbe
00000190: 8014 2fbf 59be 25bf 8351 0dbf d146 10bf
000001a0: 02e0 e4bd e63b bdbe 3307 c6be 70a8 98bf
000001b0: 9d22 77bf e0c0 9cbe 65a9 3fbf 78f8 f8be
000001c0: c69b 49bc 63f9 24bf 52cc 0dbe 0cf6 65bf
000001d0: b0b2 53bf e7d4 03bf cead 59bf 5797 f9be
000001e0: cee3 66bf b525 0dbf a4ed b3bc 4e02 c0be
000001f0: 84ab 9cbe 9e2d c1be 8142 37be 8410 62be

network_body._body_endoder.seq_layers.2.weight f4 [128, 128]
0.31769413 0.19873808 0.32039872 -0.067025855 -0.28534964 0.5466642 -0.07456133 -0.11652728
0.1843884 -0.16623528 -0.77273536 -0.35254702 -0.4131972 -0.29692462 -0.83026516 0.09519982
0.17921944 -0.1734198 -0.04352182 -0.23560852 -0.36180997 -0.9227637 -0.24764201 -0.17621432
-0.07273802 0.24264416 0.615913 0.09175655 -0.61564434 -0.14351936 -0.3405389 -0.14500007
-0.23173207 -0.12176914 -0.279348 -0.2071895 -0.008796351 0.13956286 -0.27001917 -0.4418173
0.17358828 0.24537824 -0.4166264 -0.37272954 -0.33310145 0.18218495 0.1360251 -0.07091773
-0.36043158 -0.037134513 -0.048483834 0.15139604 0.17179118 0.058518384 0.22716989 -0.10344798
-0.0071580526 0.22038771 -0.6046058 -0.027021023 -0.12069609 -0.1503207 -0.23085904 0.09249048
-0.65552634 0.31611854 0.23540291 0.047235046 0.16755605 -0.4865409 0.10413299 -0.4775316
-0.7961292 0.052760903 -0.6509337 -0.13765635 -0.13076209 0.33619967 -0.5372043 -0.4627866
-0.5355186 0.30692995 -0.33326468 -0.25129813 0.23732425 -0.56709844 -0.4680723 0.25400317
-0.5470727 -0.08871486 -0.23376031 -0.1297585 0.04773809 0.056152083 -0.04807067 -0.1906541
0.016685784 0.16389254 0.07510797 -0.15860133 -0.19151625 -0.540844 0.027894069 -0.11102167
-0.031092588 -0.18890679 -0.1642176 -0.22952583 -0.49026966 0.084057115 0.06730577 -0.24778126
-0.7171719 -0.3648177 -0.2683628 -0.37439018 -0.043009344 -0.2873539 0.20259301 -0.49359143
-0.51669556 -0.42409265 -0.13353984 0.08186347 -0.46755815 0.06660306 0.18306392 0.10295274
-0.4329501 0.14579123 0.11222219 -0.15956742 -0.047865756 0.01713486 -0.17092338 -0.640242
0.08803361 0.076099515 -0.69057447 -0.21041152 -0.33186367 -0.296998 0.2744513 -0.32711476
-0.42082325 -0.34539762 -0.16004092 0.16517685 -0.9281902 -0.059245355 0.40364388 0.15102743
-0.25104216 -0.2749026 -0.1083925 -0.026631124 -0.21457395 -0.04163455 -0.17396064 -0.15845613
-0.09673186 -0.48890933 0.22320873 -0.35488233 -0.035976592 -0.41844994 0.3237178 0.04944134
0.22590776 0.19388495 -0.177299 -0.17726363 -0.3380182 -0.91053563 0.19790858 0.32396075
-0.086275555 -0.2705672 -0.19440605 0.03964282 0.08456245 -0.21930395 0.19578873 -0.1099199
0.04925304 0.03221563 0.3456211 0.32187864 -0.17416786 -0.4291438 0.14644775 -0.30708358
-0.44053376 0.32842624 -0.21987449 -0.20156349 0.15523507 -0.37844643 0.053359237 -0.03972893
-0.033553984 0.02191944 -0.44851503 -0.41111416 -0.24428837 0.16673641 0.25085777 -0.43907768
0.15368599 0.3045998 -0.3530481 -0.15488584 -0.0132690715 -0.1342833 -0.17150493 0.21794777
-0.35371402 -0.44106954 -0.17262928 0.43404666 -0.302899 -0.3570205 0.16968012 -0.48442492
0.016170492 0.06538987 0.03086022 -0.030203862 0.023644544 -0.5476664 0.20696709 -0.884243
-0.00970952 -0.9022986 -0.40167806 0.44205156 -0.3559701 0.27850565 -0.21098185 -0.20221512
0.26911098 0.0075648944 -0.63906735 0.018332055 -0.20957117 -0.5289304 0.46429425 0.51646024
0.16863655 -0.19460438 -0.34913456 -0.6753482 -0.13632764 -0.19893323 -0.23632254 0.101092696
00000000: cea8 a23e ff81 4b3e 4d0b a43e da44 89bd
00000010: 5919 92be 2ff2 0b3f 9cb3 98bd dba5 eebd
00000020: 50d0 3c3e 9539 2abe fcd1 45bf 0b81 b4be
00000030: 958e d3be 8106 98be 428c 54bf 20f8 c23d
00000040: 4d85 373e f694 31be f043 32bd 5c43 71be
00000050: 283f b9be 3e3a 6cbf de95 7dbe 8771 34be
00000060: acf7 94bd b677 783e 79ac 1d3f dcea bb3d
00000070: de9a 1dbf bdf6 12be 1d5b aebe e67a 14be
00000080: 2c4b 6dbe 1962 f9bd b306 8fbe 7c29 54be
00000090: 921e 10bc 91e9 0e3e f43f 8abe e135 e2be
000000a0: 20c1 313e 6f44 7b3e 0e50 d5be 68d6 bebe
000000b0: 468c aabe b18e 3a3e 2a4a 0b3e 513d 91bd
000000c0: 7d8a b8be 5c1a 18bd fc96 46bd 9007 1b3e
000000d0: 07ea 2f3e f9b0 6f3d 399f 683e 89dc d3bd
000000e0: 198e eabb 51ad 613e 72c7 1abf 315b ddbc
000000f0: 832f f7bd abed 19be 5066 6cbe a66b bd3d
00000100: 93d0 27bf 4ada a13e 760d 713e 8979 413d
00000110: d093 2b3e e41b f9be ad43 d53d 067f f4be
00000120: 20cf 4bbf d11b 583d 97a3 26bf c9f5 0cbe
00000130: 7fe6 05be 5d22 ac3e 3986 09bf 5ef2 ecbe
00000140: bf17 09bf ec25 9d3e aba1 aabe 26aa 80be
00000150: 2105 733e 5d2d 11bf 2ca7 efbe b40c 823e
00000160: f50c 0cbf 23b0 b5bd dd5e 6fbe 6adf 04be
00000170: 0489 433d baff 653d c0e5 44bd d43a 43be
00000180: a0b0 883c 72d3 273e 35d2 993d 6368 22be
00000190: d61c 44be c174 0abf 1a82 e43c 545f e3bd
000001a0: e2b5 febc c870 41be a928 28be d208 6bbe
000001b0: a004 fbbe 2326 ac3d 9cd7 893d 5fba 7dbe
000001c0: 9498 37bf 63c9 babe d966 89be 12b0 bfbe
000001d0: 912a 30bd 0d20 93be 8b74 4f3e 04b8 fcbe
000001e0: 2946 04bf ac22 d9be abbe 08be 09a8 a73d
000001f0: c863 efbe 2f67 883d 1c75 3b3e e3d8 d23d
00000200: a3ab ddbe 4c4a 153e bfd4 e53d a465 23be
00000210: e20e 44bd 685e 8c3c 8a06 2fbe e6e6 23bf
00000220: f74a b43d 10da 9b3d 7dc9 30bf 1e76 57be
00000230: 09ea a9be 1f10 98be e184 8c3e 967b a7be
00000240: 2576 d7be f5d7 b0be c4e1 23be 1f24 293e
00000250: df9d 6dbf 42ab 72bd 69aa ce3e efa6 1a3e
00000260: 9988 80be 09c0 8cbe e3fc ddbd 8429 dabc
00000270: 46b9 5bbe fd88 2abd bd22 32be 5342 22be
00000280: 5a1b c6bd 5352 fabe d490 643e 23b3 b5be
00000290: 315c 13bd 123f d6be 57be a53e 0183 4a3d
000002a0: 5d54 673e c789 463e de8d 35be 9984 35be
000002b0: b910 adbe dd18 69bf 8ca8 4a3e 2fde a53e
000002c0: 3db1 b0bd c987 8abe 6112 47be 8260 223d
000002d0: 142f ad3d 3791 60be d77c 483e af1d e1bd
000002e0: 8ebd 493d 89f4 033d 40f5 b03e 47cd a43e
000002f0: 0f59 32be bcb8 dbbe 66f6 153e 0f3a 9dbe
00000300: a48d e1be 7c27 a83e c726 61be a966 4ebe
00000310: f1f5 1e3e bbc3 c1be 378f 5a3d cdba 22bd
00000320: e76f 09bd 6690 b33c c3a3 e5be 8e7d d2be
00000330: bb26 7abe f3bc 2a3e 6e70 803e cace e0be
00000340: dc5f 1d3e 81f4 9b3e b8c2 b4be 659a 1ebe
00000350: 8566 59bc 9081 09be fd9e 2fbe b32d 5f3e
00000360: 011a b5be ded3 e1be bbc5 30be 5d3b de3e
00000370: 9415 9bbe 64cb b6be a0c0 2d3e 8b06 f8be
00000380: fb77 843c 20eb 853d 92ce fc3c 176e f7bc
00000390: 34b2 c13c dd33 0cbf 2eef 533e c05d 62bf
000003a0: ae14 1fbc 0bfd 66bf bfa8 cdbe 9554 e23e
000003b0: b741 b6be 4b98 8e3e a00b 58be 7b11 4fbe
000003c0: eac8 893e efe2 f73b eb99 23bf 1b2d 963c
000003d0: d399 56be fc67 07bf fab7 ed3e bd36 043f
000003e0: 0faf 2c3e 5f46 47be c4c1 b2be 9fe3 2cbf
000003f0: 7999 0bbe 27b5 4bbe 89fe 71be b009 cf3d

network_body._body_endoder.seq_layers.2.bias f4 [128]
-0.32011414 -0.20393881 -0.13985746 -0.096873 -0.14076582 -0.35504803 -0.26201767 -0.115339145
-0.0047165565 -0.24950226 -0.21262039 0.031758405 -0.43158403 -0.11623109 -0.30236316 -0.22452873
-0.080474734 -0.09795714 -0.49047944 -0.12677376 0.059361205 -0.22283058 -0.1467605 -0.19601321
-0.2747906 -0.061465897 -0.14070031 -0.28521773 -0.16239947 -0.29333735 0.056648474 -0.2334354
-0.109577484 0.13519986 -0.38074678 -0.27016252 -0.45920056 -0.29870728 -0.084162384 -0.35432845
-0.10651234 -0.38654 0.07678523 -0.084963515 -0.15642774 -0.21049678 -0.24987939 -0.24166594
-0.23758452 0.059702247 -0.25802302 -0.3432599 -0.20860308 -0.16642365 -0.29584986 0.009267207
-0.31392917 -0.3724239 -0.29747814 0.19108726 -0.19132373 -0.016087377 -0.21811491 -0.31168234
-0.3186809 -0.16255791 -0.16608691 -0.45934448 -0.17382267 -0.1647212 -0.020187424 -0.18185651
0.015966069 0.09469739 -0.34887558 -0.21945998 -0.36692923 -0.3236743 -0.03060397 -0.46472278
-0.16952948 0.050010387 -0.23949756 -0.36316147 -0.4679283 0.002740532 -0.42458645 0.044139728
-0.18687735 -0.12903816 -0.29681444 0.115550146 -0.33023596 -0.23161228 -0.092604585 -0.58585864
-0.1576562 -0.19913538 -0.25115228 -0.26619053 -0.46469185 -0.27656347 -0.1038876 -0.34398246
0.06912684 -0.4917759 -0.071184136 -0.43087134 0.039249916 -0.413954 -0.13328634 -0.17908199
-0.20505083 -0.28991777 -0.07190601 0.33715758 -0.19530168 -0.2710967 0.036945127 -0.09911275
-0.51108396 -0.34208456 -0.21009627 -0.2128852 -0.360811 -0.13791166 -0.39234167 -0.09394872
00000000: 00e6 a3be 56d5 50be cb36 0fbe 5a65 c6bd
00000010: ea24 10be dbc8 b5be 2e27 86be ee36 ecbd
00000020: 588d 9abb 857d 7fbe 29b9 59be 1a15 023d
00000030: 95f8 dcbe 910a eebd 58cf 9abe dcea 65be
00000040: f0cf a4bd c19d c8bd 1f20 fbbe fbd0 01be
00000050: bc24 733d b32d 64be 6248 16be b0b7 48be
00000060: 5bb1 8cbe aac3 7bbd be13 10be 0f08 92be
00000070: 0c4c 26be 5030 96be 3b08 683d b109 6fbe
00000080: 296a e0bd d571 0a3e 3ef1 c2be be52 8abe
00000090: 561c ebbe 29f0 98be 545d acbd 8a6a b5be
000000a0: 2423 dabd 92e8 c5be 9341 9d3d 5a01 aebd
000000b0: 982e 20be 788c 57be 62e0 7fbe 4777 77be
000000c0: 5b49 73be 588a 743d 981b 84be c3bf afbe
000000d0: 0c9c 55be f66a 2abe a279 97be 7cd5 173c
000000e0: 53bb a0be 58ae bebe 0e4f 98be 61ac 433e
000000f0: 5eea 43be adc9 83bc 8459 5fbe d494 9fbe
00000100: 252a a3be 9575 26be b012 2abe 332f ebbe
00000110: 92fe 31be adac 28be 1960 a5bc 9838 3abe
00000120: 46cb 823c b5f0 c13d d29f b2be 1eba 60be
00000130: 26de bbbe a3b8 a5be 2db5 fabc 25f0 edbe
00000140: 2399 2dbe b1d7 4c3d d93e 75be 4df0 b9be
00000150: 4c94 efbe 7f9a 333b 6563 d9be dccb 343d
00000160: c75c 3fbe 9422 04be 10f8 97be 8ea5 ec3d
00000170: b014 a9be c52b 6dbe 79a7 bdbd d5fa 15bf
00000180: a070 21be 25ea 4bbe 0897 80be 204a 88be
00000190: 17ec edbe ba99 8dbe 06c3 d4bd 781e b0be
000001a0: 5f92 8d3d 0dca fbbe fdc8 91bd 2b9b dcbe
000001b0: 85c4 203d c7f1 d3be 377c 08be 4561 37be
000001c0: d8f8 51be 1a70 94be 7543 93bd eb9f ac3e
000001d0: 2afd 47be 30cd 8abe c653 173d a0fb cabd
000001e0: 66d6 02bf b525 afbe 7a23 57be 94fe 59be
000001f0: 38bc b8be b738 0dbe 02e1 c8be 3068 c0bd

action_model._continuous_distribution.log_sigma f4 [1, 2]
-0.27513778 0.47334406
00000000: dcde 8cbe 275a f23e

action_model._continuous_distribution.mu.weight f4 [2, 128]
0.22141024 0.053143937 0.07418521 -0.05890695 0.0305868 0.13252123 -0.24528009 0.033849157
0.08887043 0.49146017 -0.29748043 -0.025902767 -0.09546476 0.06240946 0.15179573 0.025563875
-0.13784504 -0.01309937 -0.19076583 -0.21223588 -0.08296263 -0.017594794 -0.08275043 -0.07651842
-0.20773894 0.020607678 -0.04761659 0.2793434 -0.6940655 0.115008816 -0.022756005 0.08689086
0.06260747 -0.09998487 0.27383482 -0.11309331 0.044675637 0.09980748 0.051128734 0.14046113
0.18945768 0.13457005 -0.090382606 -0.0039504617 -0.25487682 -0.08965186 0.553648 -0.06393635
0.093919486 -0.061649337 -0.36250636 -0.19536743 -0.32140848 0.024475072 -0.09996079 -0.2460302
-0.055916395 -0.05449261 -0.077382736 -0.08953775 -0.3239337 0.106273435 0.08054003 0.20774978
-0.15932348 -0.9928996 -0.18539199 -2.0395787 -0.06773129 0.177283 -0.08382077 -0.07099458
0.051212825 -0.1505405 0.015777856 0.038280215 0.50904185 -0.06950994 0.088447124 -4.3211284
-0.02957127 -0.09630375 0.030109396 -0.58304673 1.0203531 -0.085306026 0.37386575 -0.07153331
0.34335583 -0.06254332 -0.15493847 0.11672528 -0.2240579 -0.09241917 0.08863225 0.5052707
-0.031105058 0.16669649 -0.073681474 0.11865721 0.24198318 -0.035264548 -0.031536214 0.02294822
-0.10359675 -0.69131577 0.029610153 -0.64269626 -0.14071093 1.1152816 -0.19192597 0.61366516
0.12221118 0.038797934 0.022158742 -0.14615384 0.21056281 0.50317025 -0.077266105 0.062080916
-0.26082355 0.074075796 0.1730541 0.3247033 -0.08424657 -0.101803675 0.038779758 0.017409386
-0.04982645 -0.1329096 -0.32628447 -0.03928516 -0.11525832 -0.1709858 -0.9680002 -0.13328412
0.10805439 -0.58370215 0.11621215 -0.15432538 0.14284258 -0.058038414 -0.066570885 0.26969558
-0.33039224 -0.2077117 0.038573723 0.095887706 -0.0008350783 0.12621847 -0.115109846 -0.037956648
-0.3872833 -0.16188356 0.18568195 0.033613008 -0.7557413 -0.0008506526 -0.1410444 -0.7916733
0.03968144 -0.06499307 0.120745875 -0.10023203 0.37768432 -0.110185355 -0.27825794 -0.15783581
0.08284589 0.19657862 -0.11797935 -0.07405299 -0.057429787 0.05378462 -0.11052192 -0.120746255
-0.10240412 -0.03212018 -0.3915636 -0.12735526 0.14674695 0.079104125 0.089591645 0.34308165
-0.07216713 -0.029280458 -0.24739742 -0.19935535 -0.11488311 0.14773391 -0.26164323 0.09680815
0.15451807 -1.0086689 -0.31960666 -2.8229103 0.06348305 0.18801714 -0.13876939 -0.026519185
-0.17714837 -0.23136559 -0.21043408 -0.090131715 -0.5590208 0.47502357 0.13682893 -2.9419808
0.12100437 -0.08712598 -0.25702643 0.048695076 -1.0732318 -0.06178811 0.43279192 0.031556215
-0.20684674 -0.17753318 0.06396531 0.1631107 -1.0090294 0.0022621981 -0.10437314 0.10153163
0.43671563 -0.24916822 0.18794242 0.07221145 0.3350573 -0.061768115 0.24460843 -0.14597449
0.14496478 -0.6612231 0.078435495 -0.43997535 0.0017284604 -0.7021963 -0.37215886 -0.47898394
0.29280558 0.28052205 0.393432 0.12354378 0.12458775 0.35800532 0.04952544 -0.34973145
0.59062284 0.31304422 -0.28415123 -0.25072283 -0.20992146 -0.08035635 0.08487543 0.16515921
00000000: 5eb9 623e 75ad 593d 6aee 973d 6a48 71bd
00000010: 2b91 fa3c a5b3 073e b42a 7bbe 6aa5 0a3d
00000020: b301 b63d aba0 fb3e 5b4f 98be 0a32 d4bc
00000030: 0783 c3bd 10a1 7f3d 5770 1b3e 556b d13c
00000040: 4027 0dbe bd9e 56bc 1e58 43be 5d54 59be
00000050: 50e8 a9bd f522 90bc 0f79 a9bd b0b5 9cbd
00000060: 84b9 54be 6fd1 a83c 9d09 43bd 1906 8f3e
00000070: 47ae 31bf be89 eb3d cd6a babc d6f3 b13d
00000080: 5838 803d dec4 ccbd 1434 8c3e 779d e7bd
00000090: cdfd 363d dd67 cc3d 5d6c 513d 0bd5 0f3e
000000a0: 3201 423e bbcc 093e 841a b9bd e072 81bb
000000b0: 377f 82be 659b b7bd e0bb 0d3f 10f1 82bd
000000c0: dc58 c03d 0484 7cbd 6f9a b9be 660e 48be
000000d0: a78f a4be f27f c83c 3eb8 ccbd 57ef 7bbe
000000e0: 9708 65bd a533 5fbd d77a 9ebd 915f b7bd
000000f0: a3da a5be e3a5 d93d 2cf2 a43d 5cbc 543e
00000100: b225 23be ab2e 7ebf 66d7 3dbe 7588 02c0
00000110: b4b6 8abd ad89 353e 39aa abbd 9b65 91bd
00000120: 8ac4 513d 4a27 1abe 9040 813c b7cb 1c3d
00000130: 9150 023f 3a5b 8ebd c423 b53d af46 8ac0
00000140: 733f f2bc e73a c5bd fba7 f63c 8d42 15bf
00000150: ee9a 823f edb4 aebd 556b bf3e 0e80 92bd
00000160: 56cc af3e b616 80bd 31a8 1ebe aa0d ef3d
00000170: 6f6f 65be 4346 bdbd d384 b53d 6c59 013f
00000180: 09d0 febc 7cb2 2a3e 50e6 96bd 8d02 f33d
00000190: 70ca 773e 8f71 10bd 1e2c 01bd e8fd bb3c
000001a0: 882a d4bd 12fa 30bf fe90 f23c be87 24bf
000001b0: 8716 10be 8cc1 8e3f 3e88 44be 2919 1d3f
000001c0: db49 fa3d 95ea 1e3d 4086 b53c 5aa9 15be
000001d0: c79d 573e c4cf 003f b13d 9ebd 8f48 7e3d
000001e0: aa8a 85be 0db5 973d 1835 313e 833f a63e
000001f0: 7789 acbd 727e d0bd 86d7 1e3d 219e 8e3c
00000200: d216 4cbd 7419 08be c20e a7be 7ae9 20bd
00000210: 8e0c ecbd e716 2fbe dcce 77bf a27b 08be
00000220: 9f4b dd3d 816d 15bf a300 ee3d 7907 1ebe
00000230: 5345 123e b0b9 6dbd 5156 88bd 8a15 8a3e
00000240: 2c29 a9be 60b2 54be 7bff 1d3d c660 c43d
00000250: 28e9 5aba 6a3f 013e b6be ebbd 6e78 1bbd
00000260: ff49 c6be cec4 25be 6923 3e3e cbad 093d
00000270: 4378 41bf 54fe 5eba f16d 10be 1aab 4abf
00000280: 0189 223d 161b 85bd 9d49 f73d 7346 cdbd
00000290: d75f c13e dca8 e1bd d377 8ebe b69f 21be
000002a0: 1bab a93d e84b 493e 289f f1bd 18a9 97bd
000002b0: 7f3b 6bbd 434d 5c3d 5159 e2bd d049 f7bd
000002c0: 40b9 d1bd 7390 03bd 067b c8be 6b69 02be
000002d0: d544 163e 5801 a23d d37b b73d 66a8 af3e
000002e0: 5ccc 93bd 92dd efbc c055 7dbe cf23 4cbe
000002f0: d647 ebbd 8f47 173e 1af6 85be 5a43 c63d
00000300: fc39 1e3e 101c 81bf 7ca3 a3be 90aa 34c0
00000310: 6703 823d 9187 403e 9019 0ebe c33e d9bc
00000320: 6266 35be 1aeb 6cbe 087c 57be fa96 b8bd
00000330: fd1b 0fbf 4a36 f33e e21c 0c3e 6a49 3cc0
00000340: 24d1 f73d 1b6f b2bd f898 83be 7d74 473d
00000350: a95f 89bf 8715 7dbd e796 dd3e 1741 013d
00000360: a2cf 53be 42cb 35be 3f00 833d 7e06 273e
00000370: e027 81bf 6341 143b 96c1 d5bd d1ef cf3d
00000380: 3199 df3e f425 7fbe fa73 403e 99e3 933d
00000390: a18c ab3e 9000 7dbd a27a 7a3e 567a 15be
000003a0: a671 143e eb45 29bf caa2 a03d 7344 e1be
000003b0: 828d e23a 23c3 33bf 9b8b bebe 623d f5be
000003c0: 9dea 953e 96a0 8f3e eb6f c93e 8504 fd3d
000003d0: dd27 ff3d 794c b73e 30db 4a3d 0010 b3be
000003e0: 0f33 173f 5547 a03e 457c 91be be5e 80be
000003f0: a7f5 56be df91 a4bd 2bd3 ad3d 7f1f 293e

action_model._continuous_distribution.mu.bias f4 [2]
1.7001294 1.101041
00000000: d79d d93f e9ee 8c3f

56 f4 [312]
0.42865625 0.17652132 0.00010050381 0.03260061 0.46118313 0.33421156 0.48501256 0.16359058
0.00010050381 0.031759445 0.49614236 0.34615874 0.44220304 0.17031173 0.00010050381 0.035094533
0.46975943 0.32526857 0.47375742 0.13229449 0.00010050381 0.03201244 0.45391205 0.31945732
0.4986713 0.14126582 0.00010050381 0.043105945 0.4919028 0.311272 0.39321545 0.10363439
0.00010050381 0.029096723 0.3555747 0.27339396 0.4312412 0.10155792 0.00010050381 0.049422465
0.40231398 0.27856436 0.35868335 0.083680354 0.00010050381 0.020494454 0.31684265 0.25082627
0.38160756 0.0693818 0.00010050381 0.051302135 0.34539872 0.25335336 0.4021237 0.25935838
0.00014213385 0.01322502 0.29889515 0.23818357 0.41088066 0.2227646 0.00010050381 0.050466996
0.3354079 0.24624644 0.49253348 0.45080897 0.0013104086 0.009997405 0.29879677 0.25407735
0.48753804 0.4143265 0.0014213339 0.04610899 0.34261242 0.26647887 0.42986867 0.17741466
0.00010050381 0.03327891 0.45779 0.32548866 0.48582336 0.16450961 0.00010050381 0.032411315
0.49526203 0.33950046 0.44361004 0.17116137 0.00010050381 0.03573592 0.46704024 0.3161726
0.4713804 0.13324188 0.00010050381 0.032538086 0.45535144 0.31518537 0.49818948 0.14202473
0.00010050381 0.043630414 0.4926045 0.3044661 0.38622975 0.1045484 0.00010050381 0.02943307
0.35696492 0.27030015 0.42618802 0.10216735 0.00010050381 0.04983007 0.40358487 0.27379477
0.3495866 0.08445674 0.00010050381 0.020658005 0.31812295 0.24799183 0.37373364 0.0698079
0.00010050381 0.0516342 0.34659815 0.24923013 0.39549643 0.26038852 0.00014213385 0.013278722
0.3001337 0.23492526 0.4046532 0.22377351 0.00010050381 0.050738167 0.33652332 0.24195866
0.49129534 0.45209724 0.0013104086 0.01003018 0.2998749 0.25111488 0.48588967 0.41587102
0.0014213339 0.046321824 0.34366783 0.26293752 0.43109846 0.17829272 0.00010050381 0.033950783
0.45425445 0.31628793 0.4866144 0.16541092 0.00010050381 0.033058524 0.49429262 0.33251512
0.44501838 0.17199357 0.00010050381 0.03638064 0.4642056 0.30655983 0.46890244 0.13417587
0.00010050381 0.033058524 0.45678133 0.31073016 0.49763504 0.14278904 0.00010050381 0.04414721
0.49328083 0.29732853 0.37890354 0.10544908 0.00010050381 0.029757118 0.3583394 0.26707074
0.4209399 0.102770686 0.00010050381 0.050231323 0.40488824 0.26884148 0.3400004 0.08523517
0.00010050381 0.020842787 0.3193963 0.24504253 0.36548248 0.07023947 0.00010050381 0.05196332
0.34781227 0.2449474 0.38856542 0.2614124 0.00014213385 0.013344711 0.30138636 0.23153536
0.39813104 0.22478372 0.00010050381 0.051013727 0.33762816 0.2374875 0.48996267 0.4533659
0.0013142572 0.010059336 0.30097732 0.24804619 0.4841533 0.41741222 0.001463353 0.04653463
0.34476644 0.25926617 0.43228614 0.17916892 0.00010050381 0.03457719 0.4505274 0.3065558
0.4873758 0.16631465 0.00010050381 0.033664566 0.49322325 0.32517144 0.4463521 0.17281587
0.00010050381 0.03698739 0.4611926 0.29638577 0.46632656 0.13511035 0.00010050381 0.033579294
00000000: d578 db3e 01c2 343e 92c5 d238 3888 053d
00000010: 3220 ec3e c71d ab3e 9153 f83e 4a84 273e
00000020: 92c5 d238 3116 023d 5f06 fe3e b83b b13e
00000030: 7068 e23e 3366 2e3e 92c5 d238 49bf 0f3d
00000040: 4f84 f03e 9a89 a63e 5590 f23e 3578 073e
00000050: 92c5 d238 7a1f 033d 2967 e83e e98f a33e
00000060: d851 ff3e fda7 103e 92c5 d238 dc8f 303d
00000070: afda fb3e 0b5f 9f3e 8953 c93e 443e d43d
00000080: 92c5 d238 405c ee3c e30d b63e 4bfa 8b3e
00000090: a6cb dc3e 99fd cf3d 92c5 d238 366f 4a3d
000000a0: 19fc cd3e fd9f 8e3e 58a5 b73e 9b60 ab3d
000000b0: 92c5 d238 fce3 a73c 3339 a23e 4d6c 803e
000000c0: 1162 c33e 0c18 8e3d 92c5 d238 3022 523d
000000d0: 1ad8 b03e 88b7 813e 28e3 cd3e 9fca 843e
000000e0: c409 1539 c1ad 583c c908 993e 65e6 733e
000000f0: f35e d23e 671c 643e 92c5 d238 7bb6 4e3d
00000100: 96ba ab3e 0728 7c3e 592d fc3e 6fd0 e63e
00000110: 04c2 ab3a 28cc 233c e4fb 983e 6d16 823e
00000120: 969e f93e 9a22 d43e 0d4c ba3a c8dc 3c3d
00000130: e56a af3e eb6f 883e bf17 dc3e 30ac 353e
00000140: 92c5 d238 774f 083d 7363 ea3e 73a6 a63e
00000150: d7bd f83e 3575 283e 92c5 d238 bac1 043d
00000160: fc92 fd3e 01d3 ad3e db20 e33e ed44 2f3e
00000170: 92c5 d238 d45f 123d e61f ef3e 60e1 a13e
00000180: c658 f13e 8f70 083e 92c5 d238 a846 053d
00000190: d323 e93e fa5f a13e b112 ff3e ee6e 113e
000001a0: 92c5 d238 ceb5 323d a836 fc3e fbe2 9b3e
000001b0: e8bf c53e 791d d63d 92c5 d238 9f1d f13c
000001c0: 1bc4 b63e c864 8a3e 5135 da3e 1e3d d13d
000001d0: 92c5 d238 9e1a 4c3d ada2 ce3e d42e 8c3e
000001e0: 04fd b23e a8f7 ac3d 92c5 d238 fa3a a93c
000001f0: 03e1 a23e 92f1 7d3e 045a bf3e 72f7 8e3d
00000200: 92c5 d238 627e 533d 5075 b13e 2f36 7f3e
00000210: 827e ca3e a551 853e c409 1539 ff8e 593c
00000220: 20ab 993e 3f90 703e b42e cf3e e224 653e
00000230: 92c5 d238 d3d2 4f3d c94c ac3e 03c4 773e
00000240: 108b fb3e 4a79 e73e 04c2 ab3a a055 243c
00000250: 3489 993e 2192 803e 88c6 f83e 0ced d43e
00000260: 0d4c ba3a f4bb 3d3d 3bf5 af3e bf9f 863e
00000270: f0b8 dc3e 5e92 363e 92c5 d238 fa0f 0b3d
00000280: 0a94 e83e 7ef0 a13e 8625 f93e 7b61 293e
00000290: 92c5 d238 6068 073d ec13 fd3e 6c3f aa3e
000002a0: 73d9 e33e 151f 303e 92c5 d238 de03 153d
000002b0: 5bac ed3e 69f5 9c3e fb13 f03e 6665 093e
000002c0: 92c5 d238 6068 073d 3edf e93e 0618 9f3e
000002d0: 05ca fe3e 4a37 123e 92c5 d238 b4d3 343d
000002e0: 4e8f fc3e 723b 983e a5ff c13e b0f5 d73d
000002f0: 92c5 d238 33c5 f33c 4378 b73e 7fbd 883e
00000300: 6f85 d73e 7079 d23d 92c5 d238 5cbf 4d3d
00000310: 834d cf3e 97a5 893e 8814 ae3e c78f ae3d
00000320: 92c5 d238 7ebe aa3c e987 a33e 6eec 7a3e
00000330: 8520 bb3e b6d9 8f3d 92c5 d238 7dd7 543d
00000340: 7314 b23e 7ed3 7a3e 0cf2 c63e d9d7 853e
00000350: c409 1539 c6a3 5a3c 504f 9a3e 9b17 6d3e
00000360: d5d7 cb3e b42d 663e 92c5 d238 c5f3 503d
00000370: 99dd ac3e ec2f 733e 63dc fa3e 931f e83e
00000380: 2743 ac3a eacf 243c b319 9a3e d2ff 7d3e
00000390: f1e2 f73e 0eb7 d53e fbcd bf3a 199b 3e3d
000003a0: 3a85 b03e 89be 843e 9c54 dd3e 0f78 373e
000003b0: 92c5 d238 d0a0 0d3d 87ab e63e e2f4 9c3e
000003c0: 5289 f93e 634e 2a3e 92c5 d238 dbe3 093d
000003d0: c287 fc3e df7c a63e 4388 e43e a5f6 303e
000003e0: 92c5 d238 1780 173d 7021 ec3e e0bf 973e
000003f0: 5bc2 ee3e 5e5a 0a3e 92c5 d238 718a 093d

59 f4 [88]
389.09988 58.34983 169.96088 383.35074 58.30789 176.01965 0.030964186 0.63764375
0.036155295 0.4082578 18.69977 0.00010050381 0.00010050381 7.810171 347.8093 58.491978
212.63704 34.711952 0.69564056 0.07215802 0.68901235 0.28829277 390.4543 48.025368
170.21297 384.64474 47.996532 176.2947 0.031047953 0.6401784 0.03628776 0.40602753
18.436594 0.00010050381 0.00010050381 7.723121 348.91486 48.170616 213.22678 33.75547
0.6993666 0.07212777 0.6926772 0.27643776 391.79422 34.39717 170.44978 385.92706
34.393066 176.55493 0.031130468 0.6426866 0.036423095 0.4036989 18.161077 0.00010050381
0.00010050381 7.632873 350.0036 34.565487 213.80338 32.74855 0.7030718 0.07209168
0.69632965 0.2637218 393.12173 5.927834 170.67148 387.19388 6.137592 176.80042
0.031210596 0.6451771 0.03656116 0.4012645 17.872147 0.00010050381 0.00010050381 7.5393987
351.07776 6.6668434 214.3676 31.685678 0.7067567 0.07204963 0.6999622 0.25000602
00000000: c98c c243 3a66 6942 fcf5 2943 e5ac bf43
00000010: 483b 6942 0805 3043 9ba8 fd3c 9f3c 233f
00000020: 9317 143d 2b07 d13e 2199 9541 92c5 d238
00000030: 92c5 d238 ecec f940 97e7 ad43 c9f7 6942
00000040: 15a3 5443 0ad9 0a42 8015 323f 96c7 933d
00000050: 1d63 303f 1c9b 933e 273a c343 fa19 4042
00000060: 8536 2a43 8752 c043 73fc 3f42 714b 3043
00000070: 4758 fe3c bbe2 233f 79a2 143d d7e2 cf3e
00000080: 257e 9341 92c5 d238 92c5 d238 cf23 f740
00000090: 1a75 ae43 b6ae 4042 0e3a 5543 9a05 0742
000000a0: b109 333f b9b7 933d 4b53 313f 4089 8d3e
000000b0: a9e5 c343 b496 0942 2573 2a43 aaf6 c043
000000c0: 8092 0942 108e 3043 5305 ff3c 1c87 243f
000000d0: 6230 153d 9fb1 ce3e e349 9141 92c5 d238
000000e0: 92c5 d238 7f40 f440 7600 af43 0f43 0a42
000000f0: aacd 5543 84fe 0242 83fc 333f cda4 933d
00000100: a942 323f 8b06 873e 958f c443 d1b0 bd40
00000110: e6ab 2a43 d198 c143 2767 c440 e8cc 3043
00000120: 5dad ff3c 542a 253f 28c1 153d 8a72 cd3e
00000130: 28fa 8e41 92c5 d238 92c5 d238 c142 f140
00000140: f489 af43 c856 d540 1b5e 5643 457c fd41
00000150: 02ee 343f c28e 933d b930 333f ca00 803e
