results/ppo3/AI Car/AI Car-43497689.onnx (onnx, 277974 bytes, 11 tensors)

network_body.observation_encoder.processors.0.normalizer.running_mean f4 [312]
0.10897963 0.015385098 0.0 0.00038356445 0.8724155 0.89513254 0.17804489 0.015150161
0.0 0.00036043508 0.8036098 0.8596109 0.104767 0.014606919 0.0 0.00081860594
0.87697506 0.9043088 0.39021108 0.013012349 0.0 0.00038195506 0.593562 0.7337911
0.21335804 0.01250166 0.0 0.034230348 0.7370785 0.84909487 0.72437394 0.009508277
0.0 0.00045421658 0.26282802 0.5223695 0.49711022 0.008255501 0.0 0.08581213
0.40598705 0.6519736 0.8651537 0.048270125 0.0 0.00055443565 0.083185956 0.43316582
0.7308126 0.004196989 0.0 0.138707 0.12344882 0.48624158 0.84034735 0.06092611
0.0 0.0002690669 0.09562277 0.44706565 0.7371432 0.0490183 2.2991332e-08 0.14439324
0.06661119 0.45799947 0.20544574 0.29292962 1.1495658e-07 4.57987e-05 0.49874577 0.64979136
0.14438824 0.2869997 0.0 0.08809615 0.4776815 0.648879 0.109070696 0.0153873
0.0 0.0003837018 0.87326634 0.8960048 0.17814085 0.015152421 0.0 0.00036059532
0.8044562 0.86048484 0.10489301 0.014608787 0.0 0.0008189958 0.8777903 0.9051496
0.39045453 0.013014119 0.0 0.00038211513 0.5942603 0.73459023 0.21366571 0.012503051
0.0 0.03424847 0.7376942 0.84984046 0.7249888 0.009509795 0.0 0.00045437703
0.26315552 0.52294284 0.49775505 0.008256196 0.0 0.0858537 0.40624392 0.6524941
0.8659895 0.04829013 0.0 0.00055459613 0.08327496 0.43360835 0.7315871 0.004197619
0.0 0.13876982 0.12355657 0.48665905 0.841171 0.06099086 0.0 0.00026915982
0.09567701 0.44748494 0.73790437 0.04905582 2.2991332e-08 0.14445753 0.06669198 0.45841074
0.20560709 0.29319558 1.1495658e-07 4.57987e-05 0.4992623 0.65043753 0.14456263 0.2872771
0.0 0.08813329 0.47813725 0.6494815 0.10916194 0.015389338 0.0 0.00038374765
0.87411755 0.89687234 0.17823817 0.015154513 0.0 0.00036066512 0.8053001 0.8613602
0.10502119 0.014610634 0.0 0.00081924925 0.87860423 0.9059937 0.39069882 0.013015956
0.0 0.00038223108 0.5949561 0.73539144 0.21397218 0.012504443 0.0 0.034265555
0.7383118 0.850585 0.72560066 0.0095113255 0.0 0.00045449202 0.263487 0.523518
0.4984049 0.008256848 0.0 0.08589428 0.406499 0.65301263 0.86682624 0.048309643
0.0 0.00055471226 0.08336341 0.43405262 0.73235923 0.0041979565 0.0 0.1388321
0.123665385 0.4870761 0.8419984 0.061056063 0.0 0.00026925115 0.0957289 0.44790587
0.73866427 0.049094703 2.2991332e-08 0.1445219 0.06677363 0.45882198 0.20576537 0.29346216
1.1495658e-07 4.582171e-05 0.499782 0.6510875 0.14473468 0.28755584 0.0 0.08817129
0.47859618 0.6500802 0.109257534 0.015391678 0.0 0.00038377024 0.8749656 0.8977358
0.17833614 0.015156919 0.0 0.00036068834 0.8061468 0.86223143 0.10515216 0.014612739
0.0 0.0008194555 0.8794149 0.9068322 0.3909416 0.013018053 0.0 0.000382254
00000000: b630 df3d c711 7c3c 0000 0000 2619 c939
00000010: 9f56 5f3f 6827 653f 6651 363e 6238 783c
00000020: 0000 0000 c7f8 bc39 5fb9 4d3f 760f 5c3f
00000030: 1590 d63d dc51 6f3c 0000 0000 b797 563a
00000040: 7081 603f c880 673f bfc9 c73e bf31 553c
00000050: 0000 0000 2441 c839 aef3 173f bcd9 3b3f
00000060: 887a 5a3e c3d3 4c3c 0000 0000 1f35 0c3d
00000070: 2db1 3c3f 485e 593f 9270 393f 9bc8 1b3c
00000080: 0000 0000 eb23 ee39 6591 863e 02ba 053f
00000090: 3b85 fe3e 1542 073c 0000 0000 45be af3d
000000a0: 89dd cf3e bee7 263f b67a 5d3f e5b6 453d
000000b0: 0000 0000 8c57 113a 665d aa3d e9c7 dd3e
000000c0: 8916 3b3f e586 893b 0000 0000 3509 0e3e
000000d0: bcd2 fc3d a8f4 f83e 0121 573f a88d 793d
000000e0: 0000 0000 8c11 8d39 dfd5 c33d cae5 e43e
000000f0: 6bb5 3c3f 6ac7 483d 797e c532 d2db 133e
00000100: 736b 883d e87e ea3e 5e60 523e dffa 953e
00000110: 0cde f633 fb17 4038 9b5b ff3e ba58 263f
00000120: 83da 133e a0f1 923e 0000 0000 c16b b43d
00000130: ab92 f43e ef1c 263f 7560 df3d 041b 7c3c
00000140: 0000 0000 952b c939 628e 5f3f 9260 653f
00000150: 8e6a 363e dc41 783c 0000 0000 490e bd39
00000160: d7f0 4d3f bc48 5c3f 25d2 d63d b259 6f3c
00000170: 0000 0000 e1b1 563a ddb6 603f e2b7 673f
00000180: a8e9 c73e 2c39 553c 0000 0000 a056 c839
00000190: 7121 183f 1b0e 3c3f 2fcb 5a3e 99d9 4c3c
000001a0: 0000 0000 2048 0c3d 87d9 3c3f 258f 593f
000001b0: de98 393f f9ce 1b3c 0000 0000 7439 ee39
000001c0: 52bc 863e 95df 053f c0d9 fe3e ff44 073c
000001d0: 0000 0000 11d4 af3d 34ff cf3e da09 273f
000001e0: 7db1 5d3f dfcb 453d 0000 0000 5162 113a
000001f0: 108c aa3d ea01 de3e 4b49 3b3f 2e8c 893b
00000200: 0000 0000 ad19 0e3e 3a0b fd3d 602b f93e
00000210: fc56 573f 8dd1 793d 0000 0000 051e 8d39
00000220: 4ff2 c33d bf1c e53e 4de7 3c3f c1ee 483d
00000230: 797e c532 adec 133e ce95 883d d0b4 ea3e
00000240: aa8a 523e bb1d 963e 0cde f633 fb17 4038
00000250: 4f9f ff3e 1383 263f 3a08 143e fc15 933e
00000260: 0000 0000 3a7f b43d 68ce f43e 6b44 263f
00000270: 4c90 df3d 9023 7c3c 0000 0000 bd31 c939
00000280: 2bc6 5f3f 6d99 653f 1184 363e a24a 783c
00000290: 0000 0000 a717 bd39 2628 4e3f 1a82 5c3f
000002a0: 5a15 d73d 7161 6f3c 0000 0000 e3c2 563a
000002b0: 35ec 603f 34ef 673f ad09 c83e e040 553c
000002c0: 0000 0000 3066 c839 0b4f 183f 9d42 3c3f
000002d0: 861b 5b3e 6fdf 4c3c 0000 0000 0a5a 0c3d
000002e0: 0102 3d3f f0bf 593f f7c0 393f 64d5 1b3c
000002f0: 0000 0000 e348 ee39 c5e7 863e 4705 063f
00000300: ed2e ff3e bb47 073c 0000 0000 57e9 af3d
00000310: a320 d03e d62b 273f 53e8 5d3f 55e0 453d
00000320: 0000 0000 1c6a 113a 6fba aa3d 253c de3e
00000330: e57b 3b3f 038f 893b 0000 0000 012a 0e3e
00000340: 4744 fd3d 0a62 f93e 358d 573f ec15 7a3d
00000350: 0000 0000 472a 8d39 830d c43d eb53 e53e
00000360: 1a19 3d3f 8717 493d 797e c532 8dfd 133e
00000370: 9dc0 883d b7ea ea3e 28b4 523e ac40 963e
00000380: 0cde f633 b030 4038 6de3 ff3e acad 263f
00000390: 5435 143e 853a 933e 0000 0000 2693 b43d
000003a0: 8f0a f53e a86b 263f 6ac2 df3d 602d 7c3c
000003b0: 0000 0000 c534 c939 bffd 5f3f 03d2 653f
000003c0: c09d 363e ba54 783c 0000 0000 c51a bd39
000003d0: a35f 4e3f 33bb 5c3f 045a d73d 456a 6f3c
000003e0: 0000 0000 bad0 563a 5621 613f 2826 683f
000003f0: 7f29 c83e ac49 553c 0000 0000 4369 c839

network_body.observation_encoder.processors.1.normalizer.running_mean f4 [88]
289.7033 335.02124 150.9717 297.13638 334.7029 151.1661 0.031938735 0.28132018
-0.018549785 0.5093094 31.934265 0.0 0.0 12.674487 316.9629 335.41638
128.42476 75.359566 -0.052851446 -0.13086945 -0.17121907 0.9144499 289.61273 335.3354
151.02615 297.0458 335.01822 151.23766 0.031988207 0.2813946 -0.018555837 0.510071
31.963911 0.0 0.0 12.680654 316.91122 335.73077 128.52164 75.43723
-0.052912295 -0.13099268 -0.17072456 0.9153674 289.52176 335.65115 151.08098 296.95612
335.33188 151.30984 0.032037456 0.28147164 -0.018562127 0.5108308 31.993647 0.0
0.0 12.686771 316.86145 336.04663 128.61734 75.51502 -0.052969832 -0.13111576
-0.17023066 0.91628444 289.4291 335.96484 151.1354 296.8657 335.64972 151.38206
0.032086764 0.28154513 -0.018567955 0.5115931 32.02342 0.0 0.0 12.692871
316.81006 336.36035 128.71333 75.59278 -0.05303089 -0.13123924 -0.16973491 0.9172027
00000000: 06da 9043 b882 a743 c1f8 1643 7591 9443
00000010: f959 a743 862a 1743 31d2 023d 3309 903e
00000020: b8f5 97bc 1a62 023f 6079 ff41 0000 0000
00000030: 0000 0000 b3ca 4a41 407b 9e43 4cb5 a743
00000040: bd6c 0043 19b8 9642 c27a 58bd a402 06be
00000050: 0d54 2fbe 6319 6a3f 6ece 9043 eeaa a743
00000060: b206 1743 dd85 9443 5582 a743 d73c 1743
00000070: 1106 033d f412 903e 6902 98bc 0394 023f
00000080: 17b6 ff41 0000 0000 0000 0000 f5e3 4a41
00000090: a374 9e43 8add a743 8a85 0043 dddf 9642
000000a0: 90ba 58bd f222 06be 6bd2 2ebe 8555 6a3f
000000b0: c9c2 9043 59d3 a743 bb14 1743 627a 9443
000000c0: 7baa a743 524f 1743 b539 033d 0d1d 903e
000000d0: 9a0f 98bc cfc5 023f fdf2 ff41 0000 0000
000000e0: 0000 0000 04fd 4a41 446e 9e43 f805 a843
000000f0: 0a9e 0043 b107 9742 e5f6 58bd 3643 06be
00000100: f250 2ebe 9e91 6a3f edb6 9043 80fb a743
00000110: aa22 1743 cf6e 9443 2ad3 a743 cf61 1743
00000120: 696d 033d af26 903e d31b 98bc c4f7 023f
00000130: fb17 0042 0000 0000 0000 0000 0016 4b41
00000140: b067 9e43 202e a843 9db6 0043 812f 9742
00000150: eb36 59bd 9463 06be fdce 2dbe cccd 6a3f

network_body._body_endoder.seq_layers.0.weight f4 [128, 400]
-0.09248493 -0.050530236 -0.027600367 -0.014832614 0.28844026 0.2582929 -0.059893586 -0.21067245
-0.07530441 0.002133544 0.21079051 0.1789456 0.03811222 -0.014385305 -0.07543099 0.04158927
0.17776784 0.3004914 0.11172054 -0.14489472 -0.06519531 -0.007864247 0.21381812 -0.064642645
0.059453912 -0.17150418 -0.06507435 -0.2235634 0.22192271 0.095052294 0.2407093 0.21758194
-0.0654808 0.0075597544 -0.10211399 -0.3288792 -0.02417055 -0.22007337 -0.027170012 0.09189411
0.12919737 0.2059305 0.1845138 0.31357917 -0.021121515 -0.06194136 -0.11067083 -0.20561786
0.12083226 -0.32002264 -0.005396755 -0.07952923 0.26696473 0.33575532 0.13420007 0.41838896
-0.01655364 -0.08722752 0.06286338 -0.16180655 -0.33949772 0.2369696 0.2802841 -0.17786391
0.42521942 0.36444715 -0.054180495 0.15850542 0.1941025 -0.09639519 0.08218504 -0.062334813
0.22198679 0.19508353 0.04695335 -0.2415064 -0.057870798 -0.046419255 -0.00046281514 -0.2307612
0.04778258 -0.03678815 0.18544908 0.074397735 0.3804745 -0.23761487 -0.08172905 -0.03843896
-0.20388515 -0.13043007 0.31585622 -0.20526475 -0.019018266 -0.09283028 -0.09187442 -0.14383821
0.12864868 -0.094180405 -0.063869 0.061229393 0.08440602 -0.0041187736 -0.04426455 -0.008777834
-0.037915573 -0.17618711 0.116751574 -0.045578156 0.19711927 0.087241925 0.036451038 0.048063267
0.034770977 -0.15860185 0.21712616 -0.48641977 0.111079 -0.10810276 -0.07846589 -0.080961205
0.40337923 -0.03215049 -0.05029869 -0.008447753 -0.10388833 -0.26424935 -0.044829488 0.21923643
-0.092636764 0.16897614 0.19824702 0.034812186 -0.06437345 0.30704528 0.08230332 -0.22344936
0.08391182 -0.17029136 0.17360161 0.18654221 0.24584043 -0.016129408 -0.04817828 0.13625431
0.15451911 -0.016637562 0.25121257 0.006866861 -0.013685803 -0.04248447 -0.13751976 0.048619505
-0.10087507 -0.25762266 0.2846995 0.28417885 0.049742095 0.15274338 -0.023728108 0.17941883
0.2176518 0.15427639 0.11057778 0.03460326 0.05191801 -0.009532661 0.1842976 0.10680744
-0.0772253 -0.17826201 0.022179706 0.24868807 0.26114142 0.21823458 0.006152379 -0.12576923
-0.11610945 -0.1395332 0.038220853 0.148203 0.24099055 0.13671666 0.088341616 0.13657355
-0.15890639 -0.18142726 -0.16374584 -0.23091586 0.010895096 0.14550722 0.24222134 -0.15605627
0.0020064465 -0.33293712 -0.04946872 0.03395207 0.04902556 0.078145914 0.23221551 0.13488989
0.05034685 0.07134121 -0.07564888 -0.07931261 0.11890876 0.08048737 0.06359429 -0.009595611
0.084005065 0.06498983 0.35108697 0.5746971 0.06574832 -0.26347578 -0.3197568 0.053772748
0.060043857 0.28990003 0.31236023 0.08014128 0.093366385 -0.07591044 -0.21341656 0.434244
0.32810438 -0.063368015 -0.017341014 0.052623168 0.20840183 -0.08821283 0.090405494 -0.1758989
0.08343648 0.04432756 0.45334685 0.042546954 0.04958929 0.14957298 -0.30255505 -0.27995005
0.05928443 -0.31305423 0.04636002 0.07925956 -0.033470277 -0.118739836 0.13623558 0.24531578
-0.005887972 0.06900873 -0.199145 -0.098126255 -0.105077386 -0.20596251 0.024734048 0.08509932
00000000: bd68 bdbd cbf8 4ebd 2a1a e2bc 7e04 73bc
00000010: 71ae 933e f83e 843e fa52 75bd 85ba 57be
00000020: 3339 9abd eed2 0b3b 78d9 573e 843d 373e
00000030: 8f1b 1c3d 58b0 6bbc 907b 9abd 8359 2a3d
00000040: c608 363e 02da 993e bdcd e43d 485f 14be
00000050: 1e85 85bd 0bd9 00bc 23f3 5a3e 5d63 84bd
00000060: f285 733d cb9e 2fbe b345 85bd ceed 64be
00000070: b53f 633e c7aa c23d 807c 763e cdcd 5e3e
00000080: cc1a 86bd d1b7 f73b 2421 d1bd db62 a8be
00000090: 5101 c6bc ea5a 61be a593 debc fb32 bc3d
000000a0: 514c 043e 72df 523e 30f1 3c3e 738d a03e
000000b0: 0707 adbc 39b6 7dbd 63a7 e2bd 7d8d 52be
000000c0: e776 f73d 02da a3be 43d7 b0bb 39e0 a2bd
000000d0: 9aaf 883e 1fe8 ab3e be6b 093e 1437 d63e
000000e0: 809b 87bc 58a4 b2bd 84be 803d 9eb0 25be
000000f0: a5d2 adbe 29a8 723e 6681 8f3e f521 36be
00000100: 5cb6 d93e d198 ba3e 5eec 5dbd 3f4f 223e
00000110: cec2 463e d76a c5bd a150 a83d ca52 7fbd
00000120: 8150 633e fac3 473e 2852 403d 744d 77be
00000130: ee09 6dbd 1e22 3ebd ffa5 f2b9 aa4c 6cbe
00000140: abb7 433d 2caf 16bd 5de6 3d3e d75d 983d
00000150: 8ecd c23e 5051 73be 8f61 a7bd 2c72 1dbd
00000160: 45c7 50be 768f 05be e8b7 a13e ec30 52be
00000170: 32cc 9bbc cd1d bebd a828 bcbd 534a 13be
00000180: 7bbc 033e a8e1 c0bd c0cd 82bd accb 7a3d
00000190: 10dd ac3d c7f6 86bb bf4e 35bd e7d0 0fbc
000001a0: 5c4d 1bbd 656a 34be 731b ef3d 29b0 3abd
000001b0: a2d9 493e e5ab b23d af4d 153d fddd 443d
000001c0: 036c 0e3d 8668 22be 5256 5e3e 030c f9be
000001d0: 637d e33d fb64 ddbd b9b2 a0bd fdce a5bd
000001e0: b987 ce3e 3bb0 03bd 0006 4ebd 7268 0abc
000001f0: 68c3 d4bd b14b 87be 209f 37bd 847f 603e
00000200: 58b8 bdbd 1508 2d3e 4401 4b3e 3997 0e3d
00000210: 3ad6 83bd 0a35 9d3e a58e a83d e9cf 64be
00000220: f6d9 ab3d dc60 2ebe 9fc4 313e ec04 3f3e
00000230: 98bd 7b3e d221 84bc 9756 45bd 4086 0b3e
00000240: 423a 1e3e 7f4b 88bc ef9e 803e 6803 e13b
00000250: 6b3a 60bc 3204 2ebd fbd1 0cbe 3f25 473d
00000260: 9797 cebd 1ee7 83be 22c4 913e e47f 913e
00000270: 5ebe 4b3d c368 1c3e 7361 c2bc 92b9 373e
00000280: 1de0 5e3e a1fa 1d3e 9a76 e23d 26bc 0d3d
00000290: fba7 543d e12e 1cbc 83b8 3c3e dcbd da3d
000002a0: 4c28 9ebd 518a 36be 37b2 b53c 16a8 7e3e
000002b0: 54b4 853e e378 5f3e e599 c93b a6c9 00be
000002c0: cbca edbd cbe1 0ebe 788d 1c3d 87c2 173e
000002d0: 3ac6 763e 74ff 0b3e 73ec b43d f0d9 0b3e
000002e0: 5bb8 22be 11c8 39be fdac 27be 3575 6cbe
000002f0: 5881 323c d8ff 143e df08 783e 37cd 1fbe
00000300: 967e 033b bc76 aabe b69f 4abd 5311 0b3d
00000310: 07cf 483d f70a a03d e7c9 6d3e 9320 0a3e
00000320: 8038 4e3d 571b 923d cded 9abd a66e a2bd
00000330: 7086 f33d 90d6 a43d b93d 823d e936 1dbc
00000340: d90a ac3d 6319 853d acc1 b33e 591f 133f
00000350: 0ea7 863d 4ce6 86be 2ab7 a3be d040 5c3d
00000360: 8cf0 753d c76d 943e aeed 9f3e 1d21 a43d
00000370: e036 bf3d ef76 9bbd df89 5abe 3b55 de3e
00000380: 4cfd a73e 17c7 81bd be0e 8ebc 648b 573d
00000390: 4a67 553e eea8 b4bd 8426 b93d d71e 34be
000003a0: bfe0 aa3d d190 353d 141d e83e b745 2e3d
000003b0: 241e 4b3d a929 193e 7fe8 9abe 9d55 8fbe
000003c0: 3bd4 723d a548 a0be 01e4 3d3d d652 a23d
000003d0: 2118 09bd df2d f3bd 5781 0b3e 0f34 7b3e
000003e0: e4ef c0bb 7354 8d3d abec 4bbe 6bf6 c8bd
000003f0: d032 d7bd d6e7 52be 0f9f ca3c 8d48 ae3d

network_body._body_endoder.seq_layers.0.bias f4 [128]
-0.46673977 -0.6890457 -0.8210771 -0.18402106 -0.80668175 -0.3341679 -0.7640301 -0.91070026
-0.55345565 -0.3412504 -0.54045886 -0.50566083 -0.08200377 -0.45577925 -0.81864536 -0.4091487
-0.23021303 -0.7427519 -0.41522902 -0.3737416 -0.5746909 -0.4658747 -0.43770814 -0.6903664
-0.05639805 -0.5230091 -0.5809838 -0.7864927 -0.12758297 -0.46778795 -0.40650266 -0.5910962
-0.8464745 -0.30235597 -0.25080997 -0.8594653 -0.48986375 -0.64828366 -0.07699498 -0.19100466
-0.41035223 -0.18338645 -0.8250579 -0.3577442 -0.26962435 -0.72276527 -0.4515778 -0.7028943
-0.81058115 -0.8259272 -0.033605814 -0.7429502 -0.35417542 -0.78702414 -0.52516085 -0.11960335
-0.4231693 -0.3802427 -0.91752607 0.073813304 -0.48388255 -0.41871166 -0.9331495 -0.2888188
-0.23889206 -0.8103637 -1.0947615 -0.62652266 -0.43891868 -0.68284154 -0.30928254 -0.22563925
-0.64783853 -0.78309095 -0.38361022 -0.8062678 -0.73027205 -0.4210964 -0.5670674 -0.5237401
-0.532443 -0.8537441 -0.2923243 -0.4734895 -0.46877015 -0.23994248 -0.6663076 -0.42805478
-0.030704772 -0.6460856 -0.66736096 -0.22690466 -0.6428919 -0.5381589 -0.24713854 -0.8089293
-0.21613254 -0.5024338 -0.19526315 -0.38538948 -0.37191308 -0.44102147 -0.5748927 -0.05845606
-0.72975814 -0.5960539 -0.5599809 -0.13893822 -0.45960635 -0.37736598 -0.5243491 -0.2396444
-0.31866664 -0.31838784 -0.1781323 -0.38080606 -0.6762842 -0.51195073 -0.25057325 -0.58110225
-0.30893686 -0.27044111 -0.09709599 -0.65810925 -0.7481881 -0.4021206 -0.5735023 -0.6629537
00000000: 84f8 eebe 4d65 30bf 1c32 52bf 0470 3cbe
00000010: b282 4ebf 0e18 abbe 7a97 43bf a723 69bf
00000020: 45af 0dbf 5fb8 aebe 835b 0abf fd72 01bf
00000030: 98f1 a7bd e65b e9be be92 51bf f07b d1be
00000040: f7bc 6bbe fd24 3ebf e698 d4be 0f5b bfbe
00000050: f11e 13bf 2187 eebe 481b e0be dabb 30bf
00000060: a401 67bd ede3 05bf 5bbb 14bf 9657 49bf
00000070: 1ca5 02be e781 efbe 1e21 d0be 1552 17bf
00000080: 8eb2 58bf 67ce 9abe 2a6a 80be eb05 5cbf
00000090: 6ccf fabe ebf5 25bf 8baf 9dbd ba96 43be
000000a0: b019 d2be a8c9 3bbe ff36 53bf 3f2a b7be
000000b0: 340c 8abe 2507 39bf 3535 e7be e1f0 33bf
000000c0: 3f82 4fbf f76f 53bf 40a6 09bd fc31 3ebf
000000d0: 7b56 b5be 6a7a 49bf f170 06bf 9af2 f4bd
000000e0: a6a9 d8be 2caf c2be fde2 6abf 6e2b 973d
000000f0: 74bf f7be 6061 d6be e3e2 6ebf 0fe0 93be
00000100: 1fa0 74be ff73 4fbf 2521 8cbf ca63 20bf
00000110: f3b9 e0be b4ce 2ebf 485a 9ebe fa0d 67be
00000120: bfd8 25bf a678 48bf 8f68 c4be 9167 4ebf
00000130: 1cf3 3abf f399 d7be 542b 11bf d513 06bf
00000140: 2f4e 08bf f98e 5abf 88ab 95be 376d f2be
00000150: a402 f0be 7bb3 75be 2393 2abf ff29 dbbe
00000160: 9388 fbbc de65 25bf 2bd8 2abf b259 68be
00000170: 9094 24bf c8c4 09bf e311 7dbe fe15 4fbf
00000180: d951 5dbe 809f 00bf 10f3 47be c551 c5be
00000190: 646b bebe 91cd e1be 2b2c 13bf 9f6f 6fbd
000001a0: 6ed1 3abf fd96 18bf e95a 0fbf d245 0ebe
000001b0: 8651 ebbe 1d36 c1be be3b 06bf 5765 75be
000001c0: 4628 a3be bb03 a3be 5068 36be 03f9 c2be
000001d0: f620 2dbf 340f 03bf 234b 80be 1ec3 14bf
000001e0: f92c 9ebe 4277 8abe 43da c6bd d979 28bf
000001f0: 4189 3fbf c0e2 cdbe 0cd1 12bf 55b7 29bf

network_body._body_endoder.seq_layers.2.weight f4 [128, 128]
0.256888 -0.1271811 -0.23803093 -0.34265152 0.115976244 -0.08600743 0.33569688 0.2770888
-0.26071364 -0.14320059 -0.5181694 -0.08012199 -0.1004723 0.22298068 -0.47392604 -0.21289478
-0.13931376 0.15472893 0.002446585 -0.23296629 -0.17272303 0.2120724 -0.07332722 0.13480558
-0.25686952 -0.04169863 0.110058606 -0.15295899 -0.0985925 -0.021970883 -0.03748121 0.07561429
0.18536772 -0.2429207 -0.20793486 0.24302423 -0.21171242 -0.091509 -0.47129476 0.09498857
0.067390144 -0.08097386 0.063673005 0.2688816 -0.1525041 -0.06674877 -0.19118595 -0.39058852
-0.11235041 -0.13847773 -0.4839493 -0.20943707 -0.31988832 -0.054022994 0.029100893 -0.09281729
-0.3671089 -0.16818751 -0.11823181 0.052651122 -0.2461524 -0.46062565 -0.6323393 -0.22654042
-0.3890532 -0.39278984 0.09552025 -0.13527866 -0.13315722 -0.24891791 -0.3459876 -0.09285098
-0.023575896 -0.3009521 -0.23865451 -0.054672267 -0.10711658 0.19219102 0.11437802 0.007469232
-0.6583312 -0.3642002 0.08428921 -0.15078647 -0.26181015 0.08255708 -0.12188452 0.09829491
-0.34496126 0.11152528 -0.3226647 -0.004592637 0.24812935 0.25619024 -0.19508117 -0.06272646
-0.48617864 -0.30698493 -0.255202 -0.02810022 -0.285925 -0.034764636 0.09665408 -0.16346464
-0.1726658 0.20804958 -0.39669228 0.10279663 0.3197361 -0.28441432 -0.28914773 0.011347958
0.06503789 0.16479827 0.109082304 -0.004578004 0.06937975 -0.036218245 -0.055936716 -0.06636049
-0.34502167 -0.09680743 -0.20922117 -0.14629397 -0.14410207 -0.09247398 0.0876801 -0.12043808
-0.2623887 -0.48796943 -0.2162813 -0.6912253 0.060524646 -0.13726936 -0.0874689 0.028365035
0.14326288 -0.26464015 0.0026644836 -0.26390243 0.02948383 0.24511692 -0.06423731 -0.31899405
0.15265429 -0.45214748 0.0042471653 -0.49042812 -0.26520705 -0.25231045 -0.4657218 -0.17341101
-0.10561349 0.051696144 0.22838496 0.029786441 -0.24488236 0.05716324 -0.057188448 -0.21987183
0.037885956 0.080332816 -0.46812776 -0.30679494 -0.31617457 -0.110541575 -0.10776005 -0.0060393694
0.08372636 -0.12410815 -0.11362363 -0.2321449 0.08152099 -0.30149168 0.09986458 -0.026869697
0.12119855 -0.33928645 -0.38656443 0.11418491 -0.24620013 -0.29186547 -0.24491861 -0.4080905
0.024672607 -0.38728973 -0.24808513 -0.24266288 -0.24605106 0.08234277 -0.43144938 -0.037897203
0.012846811 0.06326109 -0.058855437 -0.3658851 -0.18393263 -0.3432689 -0.16687453 -0.038541775
-0.091647446 -0.39899102 -0.11847612 0.20409396 0.06326171 -0.46003547 0.16501579 -0.34203947
-0.14137113 -0.1075887 -0.06756622 -0.293124 -0.8297699 -0.009761974 0.12944105 -0.3306073
0.06553128 0.060512815 -0.24566126 -0.029630775 0.18585803 -0.16494684 -0.17866953 -0.115204155
-0.11710826 0.028851653 -0.17189112 -0.21031304 0.12602282 0.18142827 -0.11931705 -0.20827822
-0.12650235 0.039418753 0.058379292 -0.07788643 -0.20446578 -0.32071868 -0.41167644 -0.030888593
-0.16374004 0.19563383 -0.037851118 -0.4106067 -0.1820536 -0.008559261 0.13481984 -0.16336265
-0.12625003 -0.04146044 0.04241803 -0.02858587 -0.120218694 -0.3593005 -0.1596571 0.12188084
00000000: d386 833e c33b 02be 61be 73be 0570 afbe
00000010: f484 ed3d aa24 b0bd 76e0 ab3e 95de 8d3e
00000020: 427c 85be 2da3 12be c0a6 04bf ff16 a4bd
00000030: 6cc4 cdbd 0c55 643e 6fa6 f2be 1701 5abe
00000040: 44a8 0ebe 4371 1e3e e356 203b b78e 6ebe
00000050: 4ede 30be 8229 593e 952c 96bd 790a 0a3e
00000060: 6784 83be 2fcc 2abd 6866 e13d 48a1 1cbe
00000070: ddea c9bd 48fc b3bc e685 19bd aadb 9a3d
00000080: 09d1 3d3e 34c0 78be e0ec 54be 58db 783e
00000090: 24cb 58be 1269 bbbd 8c4d f1be 5e89 c23d
000000a0: d803 8a3d a0d5 a5bd fe66 823d d9aa 893e
000000b0: 092a 1cbe 94b3 88bd 40c6 43be 38fb c7be
000000c0: f917 e6bd 1bcd 0dbe 34c8 f7be ac76 56be
000000d0: 67c8 a3be 3747 5dbd ff64 ee3c fe16 bebd
000000e0: b3f5 bbbe 5939 2cbe 8523 f2bd b4a8 573d
000000f0: 600f 7cbe 20d7 ebbe fde0 21bf 36fa 67be
00000100: fb31 c7be c01b c9be 1fa0 c33d 7d86 0abe
00000110: 5e5a 08be 56e4 7ebe 4925 b1be a828 bebd
00000120: 3d22 c1bc 6516 9abe d961 74be 07f0 5fbd
00000130: f05f dbbd b9cd 443e 063f ea3d 76c0 f43b
00000140: 6588 28bf 7378 babe d29f ac3d c567 1abe
00000150: fb0b 86be b013 a93d 979e f9bd d74e c93d
00000160: c39e b0be 5e67 e43d 4f34 a5be d57d 96bb
00000170: 9f15 7e3e 5e2b 833e 5cc3 47be bb76 80bd
00000180: 68ec f8be 212d 9dbe d6a9 82be 6f32 e6bc
00000190: c364 92be 5d65 0ebd 93f2 c53d 4663 27be
000001a0: 4ecf 30be f30a 553e 401b cbbe 0a87 d23d
000001b0: 73b4 a33e c19e 91be 2c0b 94be c9ec 393c
000001c0: 9632 853d e1c0 283e 8b66 df3d 1503 96bb
000001d0: f816 8e3d 9559 14bd e61d 65bd 02e8 87bd
000001e0: aea6 b0be f942 c6bd 133e 56be 16ce 15be
000001f0: 7e8f 13be ff62 bdbd a091 b33d 3da8 f6bd
00000200: d057 86be 21d7 f9be d878 5dbe 24f4 30bf
00000210: b1e8 773d 5790 0cbe e522 b3bd ca5d e83c
00000220: 81b3 123e ea7e 87be 9e9e 2e3b 381e 87be
00000230: 1388 f13c eeff 7a3e da8e 83bd 3053 a3be
00000240: 6851 1c3e e07f e7be ce2b 8b3b 6519 fbbe
00000250: 38c9 87be d62e 81be 1673 eebe a892 31be
00000260: e34b d8bd 56bf 533d bfdd 693e b202 f43c
00000270: 71c2 7abe 0024 6a3d 6f3e 6abd 1526 61be
00000280: 4e2e 1b3d 8885 a43d 71ae efbe 3a14 9dbe
00000290: a2e1 a1be 9f63 e2bd 4db1 dcbd e7e5 c5bb
000002a0: ba78 ab3d 6a2c febd 81b3 e8bd 65b7 6dbe
000002b0: 7af4 a63d 1e5d 9abe cd85 cc3d d71d dcbc
000002c0: f236 f83d f4b6 adbe c6eb c5be c7d9 e93d
000002d0: e31b 7cbe 646f 95be f2cb 7abe 3df1 d0be
000002e0: 351e ca3c d74a c6be 070a 7ebe 9e7c 78be
000002f0: cff4 7bbe 54a3 a83d efe6 dcbe 193a 1bbd
00000300: 6e7b 523c 088f 813d 6612 71bd 4b55 bbbe
00000310: d658 3cbe f1c0 afbe 28e1 2abe fbdd 1dbd
00000320: a8b1 bbbd 8d48 ccbe 9ca3 f2bd 02fe 503e
00000330: 5b8f 813d c589 ebbe e6f9 283e cc1f afbe
00000340: 98c3 10be 7757 dcbd 2960 8abd 5914 96be
00000350: cd6b 54bf b0f0 1fbc 328c 043e 5c45 a9be
00000360: 4435 863d 49dc 773d a08e 7bbe 3dbc f2bc
00000370: 9151 3e3e d3e7 28be 25f5 36be 28f0 ebbd
00000380: 75d6 efbd 4d5a ec3c 3a04 30be 4d5c 57be
00000390: 200c 013e 55c8 393e 7f5c f4bd e346 55be
000003a0: d589 01be 8f75 213d 201f 6f3d ec82 9fbd
000003b0: 7a5f 51be 3d35 a4be 41c7 d2be 130a fdbc
000003c0: 78ab 27be 3c54 483e c609 1bbd 0b3b d2be
000003d0: 426c 3abe 253c 0cbc 360e 0a3e 8a48 27be
000003e0: b047 01be 6cd2 29bd 87be 2d3d ea2c eabc
000003f0: 3835 f6bd 3cf6 b7be 277d 23be a99c f93d

network_body._body_endoder.seq_layers.2.bias f4 [128]
-0.4224482 -0.09154499 0.12321442 -0.3956082 -0.33830312 -0.07964022 -0.13873674 -0.34277737
-0.07235976 0.3104279 -0.13086954 -0.1090977 -0.2280305 -0.33734998 -0.16503964 -0.3674135
-0.17395216 -0.09339678 -0.17092119 -0.34620544 -0.07492633 -0.28530586 -0.5007138 0.28194264
-0.03352757 -0.20432638 -0.23653713 -0.25594744 -0.083481856 -0.1575815 -0.13499 -0.21432456
-0.08869264 -0.21530838 -0.0825162 -0.06396745 -0.39428043 -0.16767804 -0.4511064 -0.24824111
-0.39473134 0.09317825 -0.21223184 -0.34467775 -0.46692452 -0.3358509 -0.097193815 -0.1410536
-0.16623735 -0.11994237 -0.36141816 -0.29140493 -0.23896919 -0.24700439 -0.3512554 -0.28132468
-0.1881976 -0.38773483 -0.10007594 -0.34862366 -0.028676357 -0.34205887 -0.21144928 -0.4571642
0.03020483 -0.2719914 0.11165635 -0.24860942 -0.36698598 -0.3136158 -0.33236748 -0.0061753686
-0.067750975 -0.07500908 -0.039268035 -0.3248931 -0.063790865 -0.041688763 -0.32941186 0.21093862
-0.08860028 -0.0947114 0.15512192 -0.46959975 -0.0437858 -0.2566446 -0.13068214 -0.26782846
-0.16905631 -0.28013456 -0.20803213 -0.27828676 -0.18981062 -0.044799622 -0.013770288 -0.23552985
0.25774 0.08651662 -0.1520753 -0.14232215 0.2049923 -0.12548459 -0.2582861 -0.2048944
-0.22999738 -0.21344055 -0.2528992 -0.24473503 -0.15865162 -0.14851567 -0.28659093 0.02702662
-0.3431806 -0.27659804 -0.08881577 -0.23771194 0.04865769 -0.18745147 -0.26525795 0.041909825
-0.4445388 -0.029473016 -0.1222739 -0.14785011 0.17760609 -0.33640474 -0.31084135 -0.29544634
00000000: 214b d8be f17b bbbd d857 fc3d 288d cabe
00000010: 1136 adbe 691a a3bd 0111 0ebe 8480 afbe
00000020: 5b31 94bd 68f0 9e3e aa02 06be 9d6e dfbd
00000030: d480 69be 23b9 acbe 2700 29be 9f1d bcbe
00000040: 8420 32be d046 bfbd f705 2fbe d741 b1be
00000050: fa72 99bd 9c13 92be c82e 00bf c95a 903e
00000060: 3554 09bd ef3a 51be ca36 72be 8b0b 83be
00000070: 89f8 aabd 0b5d 21be d23a 0abe e677 5bbe
00000080: 7da4 b5bd cd79 5cbe 41fe a8bd 5e01 83bd
00000090: 20df c9be cbb3 2bbe 6bf7 e6be eb32 7ebe
000000a0: 3a1a cabe 3dd4 be3d 4e53 59be 9a79 b0be
000000b0: bb10 efbe a6f4 abbe 8d0d c7bd 5b70 10be
000000c0: 203a 2abe 58a4 f5bd cd0b b9be 0733 95be
000000d0: 57b4 74be b8ee 7cbe bfd7 b3be ca09 90be
000000e0: dfb6 40be 2e85 c6be 9df4 ccbd cd7e b2be
000000f0: aeea eabc 5722 afbe 2986 58be 6d11 eabe
00000100: 1f70 f73c 7542 8bbe 16ac e43d 7893 7ebe
00000110: 96e5 bbbe 4092 a0be 122c aabe bf5a cabb
00000120: 06c1 8abd 5c9e 99bd 85d7 20bd 6358 a6be
00000130: c9a4 82bd d6c1 2abd aca8 a8be 4b00 583e
00000140: 1074 b5bd 0df8 c1bd 48d8 1e3e 616f f0be
00000150: bd58 33bd ec66 83be 8ad1 05be d020 89be
00000160: 191d 2dbe cc6d 8fbe 6006 55be 9a7b 8ebe
00000170: b75d 42be cf7f 37bd c69c 61bc bd2e 71be
00000180: 7ff6 833e a02f b13d a1b9 1bbe e6bc 11be
00000190: 80e9 513e 087f 00be 133e 84be d6cf 51be
000001a0: 6f84 6bbe 2990 5abe 017c 81be d29b 7abe
000001b0: 9275 22be 7e14 18be 0cbc 92be ee66 dd3c
000001c0: 5eb5 afbe 429e 8dbe 0be5 b5bd c26a 73be
000001d0: 494d 473d 47f3 3fbe e4cf 87be a3a9 2b3d
000001e0: 979a e3be 6571 f1bc bd6a fabd 0566 17be
000001f0: 5fde 353e 3e3d acbe 9926 9fbe be44 97be

action_model._continuous_distribution.log_sigma f4 [1, 2]
-0.47798482 0.1361742
00000000: 6dba f4be 4071 0b3e

action_model._continuous_distribution.mu.weight f4 [2, 128]
0.07238127 0.23481813 0.07226147 0.53159714 0.06942087 0.04975962 -0.06710032 -0.046760738
0.034809917 -0.11869895 0.024701877 0.040825017 0.13958876 0.095286556 0.09937228 0.0305132
-0.03958472 0.040335648 0.072266094 0.18525147 0.14186034 0.1125284 0.2175171 -0.07233745
-0.013899663 -0.102135226 0.028611347 0.097020775 -0.111453965 0.102453984 -0.018332286 -0.011088466
-0.048582837 0.032347787 -0.11480028 -0.044194706 0.25567627 -0.011235997 0.20582443 0.52091986
-0.09090206 -0.05768315 0.06247298 0.410156 0.09715046 0.025741428 -0.024863353 -0.08638604
0.036113124 -0.00011854525 0.20500565 -0.09804155 0.23563886 0.027287418 -0.03957253 -0.057995774
0.07221512 -0.11040487 -8.966087e-05 -0.021987852 -0.14758983 0.36673465 -0.06812962 0.040821724
0.07556053 0.3666991 -0.17242567 -0.06927232 0.10645356 0.1181479 -0.027431076 0.17053512
0.081025 0.020990102 -0.11142373 0.48924017 0.067991056 -0.05292005 0.2625052 -0.060846705
-0.051881935 -0.069077134 -0.036016308 0.11720705 0.07169522 0.08842208 -0.14223269 0.08165655
-0.08503752 0.021734057 0.30021843 -0.13426812 0.00050525664 0.07041896 -0.063468195 0.1156145
-0.11959325 -0.082224466 0.056817856 -0.19530502 -0.10506777 0.042245355 0.06464171 0.0019869248
-0.016965052 0.28198603 -0.021739777 0.31568214 0.074351706 0.043728106 0.3778912 -0.096885495
0.06361889 0.29263175 -0.09520012 -0.06926666 -0.009211685 -0.021775771 -0.078113355 -0.018756276
0.08990084 0.03121584 0.03717435 -0.07270239 -0.093618825 0.007479589 0.11885135 0.2504859
0.10891951 0.0489466 0.08674002 -0.0044388664 0.1435028 0.030502632 0.017654296 -0.13436559
0.05257656 0.019441145 -0.030424153 0.1047385 -0.18929113 -0.14162594 -0.2517208 0.06696087
0.12068984 -0.10924405 0.051767755 -0.061445244 0.032682486 -0.2783875 -0.008836912 -0.006639435
0.11135057 -0.023069577 -0.37159222 0.011968683 0.10803637 -0.18163902 -0.18302289 0.21182916
0.036952976 -0.07641871 0.09946001 0.071598195 0.12424887 -0.1641899 -0.5759714 -0.20681557
-0.1955715 0.0729928 -0.09004138 -0.45690796 0.17804667 -0.07680161 -0.033985388 -0.06797781
-0.046994146 -0.11064171 0.24116492 0.09373506 -0.35173774 0.06548464 0.09523402 -0.11697443
-0.15540738 -0.19073366 -0.06396185 -0.22508785 0.028318701 -0.043836646 -0.112629205 0.029933918
0.08789829 -0.3380258 0.06801199 -0.058992762 -0.11590692 -0.0731812 -0.11131927 0.07126077
-0.12456119 0.057570677 0.02952074 -0.41997862 -0.049684092 -0.062119592 0.16281955 -0.0685462
-0.0473449 0.03213002 0.087480485 0.30178133 -0.056054294 0.062513806 -0.08537329 -0.24235086
-0.08098865 0.1680002 0.15546183 0.03282701 0.17175831 -0.055422664 -0.072128594 -0.007896153
0.10837521 0.1065907 0.09289376 -0.08316121 -0.02929065 -0.07961068 -0.046855353 -0.2736577
0.21139625 0.18156698 -0.070242584 -0.0036195074 0.06166949 0.10601506 -0.21687375 -0.10641418
-0.056607522 0.0725562 0.035949063 -0.13025081 -0.096715026 -0.1351229 -0.073780335 0.14254625
-0.105170056 -0.06244802 0.014752379 -0.07752209 0.12441254 -0.11937778 0.08588502 -0.27166834
00000000: a23c 943d 2a74 703e d2fd 933d c016 083f
00000010: 872c 8e3d bed0 4b3d e46b 89bd 3088 3fbd
00000020: d894 0e3d 6f18 f3bd 975b ca3c 2238 273d
00000030: 5bf0 0e3e 9925 c33d b283 cb3d d2f6 f93c
00000040: 9623 22bd fe36 253d 3f00 943d 90b2 3d3e
00000050: d643 113e 4a75 e63d cdbc 5e3e a825 94bd
00000060: 6abb 63bc 462c d1bd 5862 ea3c d4b2 c63d
00000070: fa41 e4bd 65d3 d13d 972d 96bc 66ac 35bc
00000080: ccfe 46bd 1d7f 043d 691c ebbd 8205 35bd
00000090: 00e8 823e 3017 38bc a4c3 523e 015b 053f
000000a0: dc2a babd 2b45 6cbd abe3 7f3d f8ff d13e
000000b0: d2f6 c63d b0df d23c 3bae cbbc 2aeb b0bd
000000c0: 5beb 133d 7f9b f8b8 00ed 513e 02ca c8bd
000000d0: 504b 713e dd89 df3c ce16 22bd fa8c 6dbd
000000e0: 85e5 933d f31b e2bd 5008 bcb8 de1f b4bc
000000f0: ca21 17be a5c4 bb3e 8b87 8bbd ae34 273d
00000100: 7bbf 9a3d fcbf bb3e 5b90 30be a5de 8dbd
00000110: 5304 da3d 87f7 f13d 23b7 e0bc c2a0 2e3e
00000120: 6ff0 a53d 6ff3 ab3c 2032 e4bd b07d fa3e
00000130: e53e 8b3d b2c2 58bd 1567 863e 653a 79bd
00000140: 2782 54bd 5078 8dbd d685 13bd 400a f03d
00000150: f2d4 923d a316 b53d 72a5 11be 8d3b a73d
00000160: 2728 aebd 9f0b b23c 3bb6 993e 957d 09be
00000170: 3373 043a d137 903d 9dfb 81bd 4cc7 ec3d
00000180: 4eed f4bd 4d65 a8bd d7b9 683d 0afe 47be
00000190: c52d d7bd 7709 2d3d df62 843d 1137 023b
000001a0: 4bfa 8abc 7960 903e 9e17 b2bc 17a1 a13e
000001b0: b545 983d 3e1c 333d f57a c13e e76b c6bd
000001c0: 9f4a 823d d4d3 953e 48f8 c2bd aedb 8dbd
000001d0: 9bec 16bc 1a63 b2bc e5f9 9fbd c3a6 99bc
000001e0: ee1d b83d 5cb8 ff3c 2244 183d fee4 94bd
000001f0: 3abb bfbd 5717 f53b 5668 f33d b03f 803e
00000200: 3111 df3d 3b7c 483d c0a4 b13d e973 91bb
00000210: 66f2 123e a8e0 f93c be9f 903c 2297 09be
00000220: 855a 573d 0943 9f3c 133c f9bc 2481 d63d
00000230: 89d5 41be 6406 11be 8ce1 80be c822 893d
00000240: 3c2c f73d 58bb dfbd 6d0a 543d 02ae 7bbd
00000250: 12de 053d ce88 8ebe b2c8 10bc 9e8f d9bb
00000260: c50b e43d 69fc bcbc 5641 bebe 4c18 443c
00000270: 2c42 dd3d 94ff 39be 5a6a 3bbe bee9 583e
00000280: 015c 173d 6a81 9cbd b1b1 cb3d 13a2 923d
00000290: 3176 fe3d 6621 28be dd72 13bf 76c7 53be
000002a0: e543 48be 407d 953d 9d67 b8bd d7ef e9be
000002b0: de51 363e 2a4a 9dbd 4334 0bbd f337 8bbd
000002c0: ef7c 40bd 1f98 e2bd f0f3 763e 2bf8 bf3d
000002d0: f816 b4be d01c 863d 0e0a c33d 4a90 efbd
000002e0: 1d23 1fbe af4f 43be 6efe 82bd 6e7d 66be
000002f0: 9ffc e73c 0e8e 33bd 24aa e6bd fa37 f53c
00000300: 0504 b43d b811 adbe df49 8b3d 65a2 71bd
00000310: 9b60 edbd 06e0 95bd 5cfb e3bd 2bf1 913d
00000320: f019 ffbd 3bcf 6b3d 7bd5 f13c 7007 d7be
00000330: 8c81 4bbd 1d71 7ebd 2bba 263e f361 8cbd
00000340: baec 41bd c59a 033d f828 b33d 1583 9a3e
00000350: 3099 65bd 3d07 803d 31d8 aebd d32a 78be
00000360: 61dd a5bd 3f08 2c3e 6331 1f3e 9d75 063d
00000370: 69e1 2f3e e002 63bd 28b8 93bd de5e 01bc
00000380: d2f3 dd3d 3a4c da3d 153f be3d 6d50 aabd
00000390: f2f2 efbc ed0a a3bd 66eb 3fbd dd1c 8cbe
000003a0: 4278 583e b2ec 393e 58db 8fbd 4235 6dbb
000003b0: 2699 7c3d 6c1e d93d 2714 5ebe adef d9bd
000003c0: 4add 67bd 5898 943d 533f 133d 7860 05be
000003d0: 8712 c6bd a85d 0abe 251a 97bd a5f7 113e
000003e0: 6663 d7bd 7fc9 7fbd f6b3 713c e7c3 9ebd
000003f0: 00cc fe3d 567c f4bd 7ce4 af3d 1d18 8bbe

action_model._continuous_distribution.mu.bias f4 [2]
0.031105416 -0.014039531
00000000: c9d0 fe3c 1006 66bc

56 f4 [312]
0.31161383 0.123078614 0.00015162886 0.019581119 0.3336293 0.27831206 0.38255063 0.122150406
0.00015162886 0.018981665 0.39726645 0.30378863 0.30625302 0.11997303 0.00015162886 0.028599862
0.3284679 0.26430312 0.48779795 0.11332708 0.00015162886 0.019540109 0.4911691 0.34350038
0.40967873 0.11110985 0.00015162886 0.18182021 0.4402218 0.27720922 0.4468283 0.09704588
0.00015162886 0.021307213 0.44016933 0.30828753 0.49999186 0.09048526 0.00015162886 0.28008646
0.49108282 0.30433592 0.34155765 0.21433663 0.00015162886 0.023539469 0.27616313 0.24143015
0.44353715 0.06464748 0.00015162886 0.3456402 0.3289514 0.22847481 0.36628333 0.23919459
0.00015162886 0.016401444 0.29407305 0.23436913 0.44018528 0.21590632 0.00021443557 0.35148817
0.24934657 0.18789849 0.4040269 0.45510703 0.00037141293 0.0067689684 0.50000024 0.3642516
0.35148314 0.45236152 0.00015162886 0.28343457 0.49950248 0.35183057 0.31172752 0.12308726
0.00015162886 0.019584639 0.33267543 0.27705136 0.3826313 0.12215938 0.00015162886 0.018985901
0.39661887 0.30272502 0.30641598 0.11998051 0.00015162886 0.028606687 0.3275284 0.26297563
0.48785305 0.11333468 0.00015162886 0.019544225 0.4910352 0.3428799 0.40989333 0.11111598
0.00015162886 0.18186677 0.43988803 0.27615568 0.44651857 0.09705353 0.00015162886 0.021310985
0.44034636 0.30801865 0.4999947 0.09048897 0.00015162886 0.280148 0.49113125 0.30382788
0.340662 0.21437894 0.00015162886 0.02354296 0.27629712 0.24116465 0.44313487 0.06465244
0.00015162886 0.3457057 0.32907516 0.22810036 0.36551437 0.23931359 0.00015162886 0.016404245
0.29414728 0.2340342 0.43977326 0.21598497 0.00021443557 0.351553 0.24948673 0.1874793
0.40414476 0.45522714 0.00037141293 0.0067689684 0.49999768 0.36387137 0.3516589 0.4524919
0.00015162886 0.2834888 0.49952245 0.35144472 0.31184247 0.12309541 0.00015162886 0.01958581
0.33171672 0.27578175 0.3827133 0.12216768 0.00015162886 0.018987715 0.39596856 0.301656
0.3065808 0.11998803 0.00015162886 0.0286111 0.32658678 0.2616397 0.4879067 0.11334247
0.00015162886 0.019547168 0.49090064 0.34225658 0.41010693 0.11112213 0.00015162886 0.18191065
0.4395531 0.27509505 0.44621053 0.0970612 0.00015162886 0.02131368 0.4405242 0.30774933
0.49999788 0.090492465 0.00015162886 0.28020823 0.49117956 0.30331686 0.3397613 0.21442
0.00015162886 0.023545453 0.2764309 0.24089755 0.44272956 0.06465508 0.00015162886 0.3457714
0.32919905 0.22772494 0.36474064 0.23943318 0.00015162886 0.016407046 0.29421908 0.23369743
0.43936262 0.21606596 0.00021443557 0.35161835 0.24962933 0.1870599 0.4042588 0.45534843
0.00037141293 0.0067706667 0.49999872 0.36348933 0.3518329 0.4526223 0.00015162886 0.28354427
0.49954045 0.3510571 0.3119619 0.12310464 0.00015162886 0.019586397 0.3307565 0.27450633
0.38279593 0.12217727 0.00015162886 0.01898832 0.3953155 0.3005802 0.30674958 0.1199966
0.00015162886 0.028614713 0.3256438 0.26029697 0.4879615 0.113351576 0.00015162886 0.019547757
00000000: d98b 9f3e a410 fc3d 90fe 1e39 9568 a03c
00000010: 76d1 aa3e eb7e 8e3e addd c33e fe29 fa3d
00000020: 90fe 1e39 707f 9b3c 8266 cb3e 2f8a 9b3e
00000030: 32cd 9c3e 6cb4 f53d 90fe 1e39 424a ea3c
00000040: f22c a83e bd52 873e a7c0 f93e 0718 e83d
00000050: 90fe 1e39 9412 a03c 847a fb3e 48df af3e
00000060: 69c1 d13e 908d e33d 90fe 1e39 142f 3a3e
00000070: c064 e13e 5eee 8d3e aec6 e43e febf c63d
00000080: 90fe 1e39 778c ae3c e05d e13e ddd7 9d3e
00000090: effe ff3e 5650 b93d 90fe 1e39 7e67 8f3e
000000a0: 356f fb3e ebd1 9b3e a5e0 ae3e 107b 5b3e
000000b0: 90fe 1e39 d8d5 c03c 4165 8d3e 7739 773e
000000c0: 4d17 e33e e665 843d 90fe 1e39 c1f7 b03e
000000d0: 516c a83e 4df5 693e 7d89 bb3e 6def 743e
000000e0: 90fe 1e39 525c 863c be90 963e 76fe 6f3e
000000f0: f75f e13e 8c16 5d3e 1cda 6039 42f6 b33e
00000100: b554 7f3e 7668 403e 9ddc ce3e ca03 e93e
00000110: 33ba c239 39ce dd3b 0400 003f 307f ba3e
00000120: 99f5 b33e ee9b e73e 90fe 1e39 561e 913e
00000130: cabe ff3e 2323 b43e c09a 9f3e 2c15 fc3d
00000140: 90fe 1e39 f76f a03c 6f54 aa3e add9 8d3e
00000150: 40e8 c33e b22e fa3d 90fe 1e39 5288 9b3c
00000160: a111 cb3e c6fe 9a3e 8ee2 9c3e 57b8 f53d
00000170: 90fe 1e39 9258 ea3c cdb1 a73e bea4 863e
00000180: e0c7 f93e 031c e83d 90fe 1e39 361b a03c
00000190: f768 fb3e f48d af3e 8add d13e c690 e33d
000001a0: 90fe 1e39 483b 3a3e 0139 e13e 4764 8d3e
000001b0: 159e e43e 00c4 c63d 90fe 1e39 6094 ae3c
000001c0: 1475 e13e 9fb4 9d3e 4eff ff3e 4852 b93d
000001d0: 90fe 1e39 8f6f 8f3e 8e75 fb3e 548f 9b3e
000001e0: 406b ae3e 2786 5b3e 90fe 1e39 2add c03c
000001f0: d176 8d3e def3 763e 93e2 e23e 8068 843d
00000200: 90fe 1e39 5600 b13e 8a7c a83e 2493 693e
00000210: b324 bb3e 9f0e 753e 90fe 1e39 3262 863c
00000220: 799a 963e a9a6 6f3e f629 e13e 2a2b 5d3e
00000230: 1cda 6039 c1fe b33e 7379 7f3e 93fa 3f3e
00000240: 10ec ce3e 8813 e93e 33ba c239 39ce dd3b
00000250: b2ff ff3e 594d ba3e a30c b43e 05ad e73e
00000260: 90fe 1e39 7225 913e 68c1 ff3e 90f0 b33e
00000270: d1a9 9f3e 7219 fc3d 90fe 1e39 6c72 a03c
00000280: c6d6 a93e 4433 8d3e fff2 c33e 0c33 fa3d
00000290: 90fe 1e39 208c 9b3c 64bc ca3e a872 9a3e
000002a0: 29f8 9c3e 49bc f53d 90fe 1e39 d361 ea3c
000002b0: 6236 a73e a4f5 853e e8ce f93e 1920 e83d
000002c0: 90fe 1e39 6221 a03c 5457 fb3e 413c af3e
000002d0: 89f9 d13e 0094 e33d 90fe 1e39 c946 3a3e
000002e0: 1b0d e13e 42d9 8c3e b575 e43e 06c8 c63d
000002f0: 90fe 1e39 079a ae3c 638c e13e 5291 9d3e
00000300: b9ff ff3e 1d54 b93d 90fe 1e39 7477 8f3e
00000310: e37b fb3e 594c 9b3e 31f5 ad3e eb90 5b3e
00000320: 90fe 1e39 65e2 c03c 5a88 8d3e d9ad 763e
00000330: 73ad e23e e269 843d 90fe 1e39 f308 b13e
00000340: c78c a83e ba30 693e 49bf ba3e f92d 753e
00000350: 90fe 1e39 1268 863c e2a3 963e 614e 6f3e
00000360: 23f4 e03e 6540 5d3e 1cda 6039 5207 b43e
00000370: d59e 7f3e a18c 3f3e 02fb ce3e 6e23 e93e
00000380: 33ba c239 78dc dd3b d5ff ff3e 461b ba3e
00000390: 7123 b43e 1cbe e73e 90fe 1e39 b72c 913e
000003a0: c4c3 ff3e c2bd b33e 78b9 9f3e 491e fc3d
000003b0: 90fe 1e39 a773 a03c ea58 a93e 188c 8c3e
000003c0: d4fd c33e 1438 fa3d 90fe 1e39 658d 9b3c
000003d0: cb66 ca3e a6e5 993e 480e 9d3e c7c0 f53d
000003e0: 90fe 1e39 6769 ea3c c9ba a63e a545 853e
000003f0: 17d6 f93e df24 e83d 90fe 1e39 9e22 a03c

59 f4 [88]
347.53012 18.614729 171.93614 339.15036 18.565939 171.50334 0.03225349 0.7092179
0.05368541 0.38774857 15.009764 0.00015162886 0.00015162886 6.069388 311.82516 18.507034
175.67136 31.822697 0.7471515 0.059305273 0.62143195 0.21303643 347.83737 15.505318
171.93675 339.4646 15.453238 171.4917 0.032258015 0.70934635 0.05369474 0.38767576
14.984102 0.00015162886 0.00015162886 6.0634418 312.08978 15.367776 175.65985 31.746939
0.7472927 0.059188 0.62213796 0.21119025 348.144 11.581264 171.93747 339.77774
11.520164 171.48076 0.032262556 0.70947176 0.053704094 0.3875997 14.958338 0.00015162886
0.00015162886 6.0574975 312.35294 11.385439 175.64748 31.670856 0.7474333 0.059070244
0.62284297 0.20932353 348.45163 5.249958 171.938 340.09164 5.13355 171.46964
0.032267146 0.70959884 0.05371363 0.3875228 14.932419 0.00015162886 0.00015162886 6.051546
312.61697 4.7763686 175.63536 31.594315 0.7475759 0.05895194 0.6235466 0.20743488
00000000: dbc3 ad43 f7ea 9441 a7ef 2b43 3f93 a943
00000010: 0b87 9441 db80 2b43 3c1c 043d 4e8f 353f
00000020: 3ce5 5b3d fb86 c63e fe27 7041 90fe 1e39
00000030: 90fe 1e39 6d38 c240 9fe9 9b43 680e 9441
00000040: deab 2f43 e294 fe41 5245 3f3f 16ea 723d
00000050: 2a16 1f3f 3926 5a3e 2feb ad43 c815 7841
00000060: cfef 2b43 78bb a943 7640 7741 e07d 2b43
00000070: fb20 043d b997 353f 04ef 5b3d 707d c63e
00000080: e2be 6f41 90fe 1e39 90fe 1e39 b707 c240
00000090: 7e0b 9c43 69e2 7541 eca8 2f43 bbf9 fd41
000000a0: 934e 3f3f 1e6f 723d 6f44 1f3f 4242 583e
000000b0: 6f12 ae43 db4c 3941 feef 2b43 8de3 a943
000000c0: 9752 3841 137b 2b43 be25 043d f19f 353f
000000d0: d3f8 5b3d 7873 c63e 5a55 6f41 90fe 1e39
000000e0: 90fe 1e39 05d7 c140 2d2d 9c43 c22a 3641
000000f0: c1a5 2f43 ea5d fd41 ca57 3f3f a4f3 713d
00000100: a372 1f3f e858 563e cf39 ae43 a8ff a740
00000110: 21f0 2b43 bb0b aa43 0b46 a440 3a78 2b43
00000120: 8e2a 043d 45a8 353f d302 5c3d 6369 c63e
00000130: 30eb 6e41 90fe 1e39 90fe 1e39 44a6 c140
00000140: f94e 9c43 03d8 9840 a7a2 2f43 28c1 fc41
00000150: 2261 3f3f 9777 713d c0a0 1f3f cf69 543e
