results/test/AI Car/AI Car-27774.pt (torch, 540044 bytes, 40 tensors)

discrete_act_size_vector f4 [1, 2]
2.0 3.0
00000000: 0000 0040 0000 4040

network_body._body_endoder.seq_layers.0.weight f4 [128, 37]
0.043112107 -0.17983854 -0.2916583 0.025780039 -0.022662431 -0.015866349 0.13562398 -0.21506657
0.030233389 0.1281194 -0.14051498 -0.074853204 0.022563543 0.23625971 -0.19341466 -0.1465745
0.12389784 0.17142256 -0.14601389 -0.35903978 0.23432668 0.029354358 0.011047679 0.18422289
0.017694209 0.11885545 0.1969479 0.19231005 0.22836201 0.11194906 0.23183703 -0.058370873
0.1446462 -0.3981061 -0.2505835 -0.047150902 0.027016493 -0.17517078 0.12061458 -0.2626844
0.1184591 0.052962072 -0.088297725 -0.21877079 -0.31808928 0.11368623 0.14690228 0.18790974
0.25873032 -0.045395475 0.065033264 0.07252956 0.093349874 0.24812044 0.14410247 -0.16458783
-0.2452954 0.13661419 0.060502358 -0.020422686 0.02714965 0.02924934 -0.14855003 -0.26058754
0.052464794 -0.41184407 0.16195063 -0.31338114 -0.15782894 0.051141433 0.0064614755 -0.09832908
-0.0061982907 -0.14369857 0.021850683 0.22361834 0.012935074 -0.15861697 -0.13003813 0.0092519475
-0.08572278 0.002795518 -0.003051815 -0.032855332 -0.2972579 0.10045354 -0.23382184 0.0071952655
-0.06756593 -0.11582597 0.047454312 -0.042952992 -0.19225158 -0.06986517 0.016588582 0.23129492
-0.13098955 0.13993019 -0.16915284 -0.2831743 0.05756987 -0.20004147 0.15399863 -0.09495082
-0.35774615 -0.111220956 -0.09796584 0.027634364 -0.14567348 -0.2055432 0.30079648 0.15691842
-0.085033916 -0.09614807 0.09661317 0.14214136 0.17811336 0.013225073 0.21381442 0.04163359
0.184746 0.20316613 -0.02949533 -0.284421 -0.19864734 0.29540065 0.06006801 0.06867125
0.2509098 -0.19176787 -0.025627572 -0.0432215 -0.08060136 0.1607213 0.13938576 0.11942174
0.24377237 0.012663781 0.20102426 0.2572074 -0.10182455 0.1495866 0.095388114 -0.1405275
0.15904513 0.016076405 -0.19284785 0.120922066 -0.17044975 0.26048914 -0.12233776 -0.05326519
0.0050683273 0.060530078 0.02221574 0.1753005 0.2652721 -0.24371949 -0.016872443 0.3308494
-0.09565858 -0.10351259 0.30972552 -0.058361035 -0.08363476 0.12450592 -0.108413585 -0.040405992
0.0032806827 0.19649035 -0.18028216 0.12530984 0.013135841 0.13660273 0.12352408 -0.41520888
-0.24792224 0.13982289 -0.043672014 0.23441963 0.26717874 -0.22875573 -0.14192888 -0.075597174
-0.07141932 0.39089403 0.03691635 0.3117735 -0.09185655 0.07035244 0.32328862 -0.13049512
-0.07236957 -0.0050393585 -0.16353534 0.004413541 -0.2578939 -0.053220805 -0.1650186 -0.0437333
-0.1578096 0.3072757 -0.12649946 0.12216168 -0.3259225 0.2341075 0.039832696 -0.25385112
0.12383257 0.058912154 0.2504692 0.092414 0.03761968 -0.11666254 -0.019241326 -0.028148074
0.14895916 -0.017526098 0.012719835 0.15211451 0.08851496 0.061714645 -0.2115534 -0.059108626
0.04732965 0.21580753 0.06142605 0.46017408 -0.04323393 0.15244156 -0.13886936 -0.13637292
-0.110700116 -0.31002071 0.14181785 0.012541754 0.16737485 -0.2957543 -0.059331674 0.06651115
0.36196002 -0.09719654 0.099668704 -0.2358075 -0.0028849654 0.18033348 -0.05541761 0.08231882
-0.13379626 -0.06603981 -0.121908896 -0.13328698 0.17498995 -0.18470398 -0.1084338 -0.15457955
00000000: 5296 303d 9827 38be 3d54 95be a930 d33c
00000010: 90a6 b9bc 25fa 81bc 03e1 0a3e 693a 5cbe
00000020: 03ac f73c bb31 033e 29e3 0fbe a34c 99bd
00000030: 2ed7 b83c 11ee 713e 7e0e 46be a017 16be
00000040: 27be fd3d 6589 2f3e aa84 15be 10d4 b7be
00000050: 55f3 6f3e 8d78 f03c 5301 353c eda4 3c3e
00000060: 72f3 903c 7c6a f33d b6ac 493e edec 443e
00000070: bbd7 693e 8c45 e53d b066 6d3e 4c16 6fbd
00000080: 221e 143e 90d4 cbbe 7b4c 80be 4e21 41bd
00000090: b151 dd3c f85f 33be c704 f73d 927e 86be
000000a0: af9a f23d c2ee 583d 70d5 b4bd 7305 60be
000000b0: 99dc a2be 53d4 e83d 8d6d 163e 696b 403e
000000c0: 4d78 843e 9bf0 39bd 2930 853d 618a 943d
000000d0: 382e bf3d 4913 7e3e 998f 133e b689 28be
000000e0: b82e 7bbe 97e4 0b3e 52d1 773d 7a4d a7bc
000000f0: f168 de3c 509c ef3c 801d 18be bb6b 85be
00000100: 53e5 563d 3add d2be 63d6 253e 7e73 a0be
00000110: e99d 21be ae79 513d c9ba d33b c260 c9bd
00000120: 081b cbbb b825 13be 3400 b33c 35fc 643e
00000130: a2ed 533c 7d6c 22be b728 05be 7b95 173c
00000140: 6d8f afbd 0235 373b f600 48bb 5093 06bd
00000150: 3032 98be 96ba cd3d fe6e 6fbe 43c6 eb3b
00000160: 0260 8abd 2b36 edbd 745f 423d 7aef 2fbd
00000170: 99dd 44be 7815 8fbd c7e4 873c 93d8 6c3e
00000180: 2022 06be dc49 0f3e 6736 2dbe 39fc 90be
00000190: 62ce 6b3d acd7 4cbe d1b1 1d3e 9375 c2bd
000001a0: 812a b7be d0c7 e3bd 50a2 c8bd 7661 e23c
000001b0: 6e2b 15be eb79 52be ff01 9a3e 39af 203e
000001c0: 4326 aebd 48e9 c4bd 20dd c53d 818d 113e
000001d0: 5963 363e faad 583c 2bf2 5a3e fc87 2a3d
000001e0: 0e2e 3d3e c80a 503e 31a0 f1bc a19f 91be
000001f0: 356a 4bbe c13e 973e e009 763d 83a3 8c3d
00000200: 4077 803e cc5e 44be eaf0 d1bc 0709 31bd
00000210: 5312 a5bd 2094 243e 24bb 0e3e 6393 f43d
00000220: 779f 793e bf7b 4f3c 4ed9 4d3e b0b0 833e
00000230: 6489 d0bd 3b2d 193e d85a c33d 71e6 0fbe
00000240: badc 223e aab2 833c e879 45be fda5 f73d
00000250: 618a 2ebe d55e 853e 388c fabd 9a2c 5abd
00000260: 3614 a63b 63ee 773d c9fd b53c f981 333e
00000270: bfd1 873e 9a91 79be 1438 8abc 1865 a93e
00000280: a5e8 c3bd 69fe d3bd 5894 9e3e fb0b 6fbd
00000290: b348 abbd f6fc fe3d f107 debd c180 25bd
000002a0: b900 573b c434 493e e39b 38be 3951 003e
000002b0: b637 573c 96e1 0b3e 31fa fc3d 4296 d4be
000002c0: 54df 7dbe bb2d 0f3e 6de1 32bd b30b 703e
000002d0: a7cb 883e f13e 6abe ce55 11be b1d2 9abd
000002e0: 4b44 92bd 4323 c83e 9935 173d c7a0 9f3e
000002f0: 491f bcbd f114 903d 1686 a53e 83a0 05be
00000300: 7f36 94bd 3421 a5bb cf75 27be 779f 903b
00000310: ab0a 84be 0ffe 59bd a3fa 28be b021 33bd
00000320: d798 21be 3e53 9d3e 1389 01be e72f fa3d
00000330: 50df a6be e0b9 6f3e 9c27 233d c6f8 81be
00000340: ee9b fd3d df4d 713d 803d 803e 8d43 bd3d
00000350: 1817 1a3d c5ec eebd fc9f 9dbc ca96 e6bc
00000360: c088 183e e492 8fbc db66 503c e8c3 1b3e
00000370: 5547 b53d 7fc8 7c3d 74a1 58be e31b 72bd
00000380: bcdc 413d a6fc 5c3e e299 7b3d f09b eb3e
00000390: 1016 31bd a419 1c3e c533 0ebe 58a5 0bbe
000003a0: beb6 e2bd 09bb 9ebe b338 113e ee7b 4d3c
000003b0: 5064 2b3e 1c6d 97be c505 73bd ff36 883d
000003c0: d352 b93e fb0e c7bd 1b1f cc3d 8577 71be
000003d0: b011 3dbb 57a9 383e 93fd 62bd c596 a83d
000003e0: e301 09be e13f 87bd 5fab f9bd 627c 08be
000003f0: 9130 333e 0a23 3dbe 8a12 debd 1a4a 1ebe

network_body._body_endoder.seq_layers.0.bias f4 [128]
0.0 0.0 0.0017706819 0.001871197 0.0004442494 0.001725116 2.7795124e-34 1.2646496e-23
0.0018249686 -0.0019859849 0.0020228329 0.0 -5.1151727e-07 -0.00044342494 -4.7166348e-30 0.0
0.0 -2.2062427e-06 0.00047409706 -0.0017270998 -0.00053771 -1.6849846e-17 2.3177558e-12 -0.00045506938
0.0 0.001898958 -0.0019463548 5.7345812e-27 0.0 0.0004165669 -0.00046703333 0.00042918415
2.5082851e-20 0.0013832063 0.00075058825 0.0018337684 0.0016413504 -0.002986676 0.0017527279 -0.0005658963
0.00044273157 -5.803584e-08 -0.0006412998 7.471159e-11 0.0019717196 -0.00048742752 1.1822973e-06 -1.1294295e-15
-0.0017795579 1.3012696e-27 -0.00045157917 0.0 0.0005012223 0.00047393687 0.0005200318 0.0
0.0013164146 0.001477494 -9.3542566e-20 -0.0017946496 0.0004847609 0.0 -0.00045291128 0.0
2.5329723e-33 -1.4321797e-10 -3.0791473e-22 -0.0007722655 6.597117e-35 -1.2307045e-16 0.0011469063 9.812899e-05
0.0 0.0011733262 3.0196346e-31 -0.00048095974 -0.0019376399 -0.001559822 4.4268446e-22 6.7109315e-17
0.0 0.00056336576 0.00042900533 0.0 -0.0021357147 1.4267938e-18 0.0 -3.656391e-06
-0.0005568837 -0.0017444775 -0.0017744041 0.0 -1.7446072e-12 -7.601859e-32 -0.00024365343 0.0004320534
4.562628e-16 -0.0017646227 0.0025322177 0.000542296 0.0010310176 -0.0019791198 0.0018797979 0.0
-0.0015974636 0.00025145823 0.0017721858 -0.0019066763 -0.0014778225 -3.9250303e-06 -1.99142e-24 0.0026974399
9.880314e-12 3.4858317e-38 0.0017139401 -0.00046823084 -1.670455e-13 4.137079e-21 0.0 0.0
2.8601479e-12 -0.0015765352 -0.001719389 0.0 -0.0016225498 -0.0005562865 0.0 1.110864e-05
00000000: 0000 0000 0000 0000 3a16 e83a f442 f53a
00000010: 25ea e839 4a1d e23a f4ba b807 6a9e 7419
00000020: c933 ef3a 4c27 02bb 8191 043b 0000 0000
00000030: 334f 09b5 7d7b e8b9 5654 bf8e 0000 0000
00000040: 0000 0000 f60e 14b6 3b90 f839 da5f e2ba
00000050: 1bf5 0cba 9369 9ba3 fa18 232c 6196 eeb9
00000060: 0000 0000 75e6 f83a d41c ffba 902b e313
00000070: 0000 0000 aa66 da39 27dc f4b9 1f04 e139
00000080: 9de6 ec1e b44c b53a 20c3 443a 0f5b f03a
00000090: 9522 d73a 1cbc 43bb cabb e53a a858 14ba
000000a0: 6d1e e839 1543 79b3 e71c 28ba e34a a42e
000000b0: f737 013b 6a8d ffb9 6daf 9e35 98c4 a2a6
000000c0: 0e40 e9ba c431 ce12 eec1 ecb9 0000 0000
000000d0: 7664 033a bb7a f839 be52 083a 0000 0000
000000e0: 8b8b ac3a 79a8 c13a 03df dc9f 733a ebba
000000f0: 8227 fe39 0000 0000 b974 edb9 0000 0000
00000100: 5d6e 5209 4678 1daf 7f1f ba9b dc71 4aba
00000110: a761 af06 fce3 0da5 ca53 963a 9aca cd38
00000120: 0000 0000 4bca 993a 49fc c30c 5329 fcb9
00000130: 68f8 fdba f172 ccba 0dcb 051c 59be 9a24
00000140: 0000 0000 d6ae 133a 1fec e039 0000 0000
00000150: 59f7 0bbb bf8e d221 0000 0000 5260 75b6
00000160: d5fb 11ba f4a6 e4ba 1f93 e8ba 0000 0000
00000170: 1988 f5ab 055b c58b 387d 7fb9 3a85 e239
00000180: 4182 0326 ea4a e7ba 90f3 253b de28 0e3a
00000190: 3623 873a 1fb4 01bb 8d63 f63a 0000 0000
000001a0: fc61 d1ba 27d6 8339 b048 e83a 71e9 f9ba
000001b0: 7fb3 c1ba c1b3 83b6 2314 1a98 88c7 303b
000001c0: fad0 2d2d 67c9 3d01 49a6 e03a e17c f5b9
000001d0: 9613 3caa 5f4b 9c1d 0000 0000 0000 0000
000001e0: d843 492c bea3 ceba 1f5d e1ba 0000 0000
000001f0: bdab d4ba c1d3 11ba 0000 0000 3f5f 3a37

network_body._body_endoder.seq_layers.2.weight f4 [128, 128]
-0.16698565 -0.025325032 0.007327572 0.053026333 0.06316146 -0.15761702 0.041307468 -0.012674375
-0.064133346 -0.020547604 0.03229659 0.11508218 0.024203857 0.12517682 -0.10171466 0.05108024
0.055226564 -0.13086022 0.033815097 0.021980483 0.006296107 -0.03817783 0.11677342 -0.08574352
-0.16524717 0.0068139546 -0.06998863 -0.051079642 0.016453527 0.029432949 -0.013625839 -0.086872324
0.065410346 -0.18434778 0.007986345 -0.15228619 0.02990177 -0.14197221 0.02909376 0.033900656
0.013853641 -0.1318338 -0.009597003 0.010694328 -0.1907222 0.10591339 -0.083868325 0.09642096
0.052044682 -0.1079114 -0.04389212 0.014942109 -0.012443721 -0.036520172 0.01059667 -0.024447395
-0.041058913 -0.11022933 0.12691987 -0.036925096 -0.053410545 -0.15359803 0.024206927 0.11810302
-0.13975626 -0.18744372 -0.06464479 -0.07015504 0.12886441 -0.014723226 -0.051794972 0.000895872
0.065652974 -0.1578829 -0.07395564 0.058326162 0.07804717 -0.14321992 -0.18271177 -0.006123607
0.08472057 -0.053748082 -0.027734833 0.15362135 0.09826372 -0.041718412 -0.13225281 -0.021206414
0.019724345 0.08493216 0.0070319907 -0.038939513 -0.049468257 -0.024859438 0.018855102 -0.015209268
0.021820687 -0.007613235 -0.08507463 0.028773237 0.024599666 -0.15099238 -0.054636713 -0.18348633
-0.06857103 0.15260804 -0.04144059 -0.06802393 -0.097315565 -0.020275215 -0.15070625 -0.052232176
0.055966336 -0.035337415 0.05670479 0.084791906 0.09134606 -0.09293045 -0.109352455 0.007084653
-0.015453518 0.16460897 -0.018354533 0.02559078 -0.0017232049 0.09181371 0.10747263 -0.064257346
-0.09320238 -0.057526596 0.17738293 -0.07674907 -0.09641287 0.009659951 0.08821283 0.08195576
-0.13845944 -0.21073386 0.02999646 0.025914522 -0.09805098 0.045591656 0.035324004 -0.067479484
-0.11685552 0.07517801 -0.0042658537 0.009807905 0.008496925 0.037517652 0.116036944 -0.03907855
-0.16012767 -0.022147551 -0.09198366 0.19043511 -0.036159407 -0.101980716 0.02646765 0.085711055
-0.011760393 0.08389244 -0.14124188 0.22801656 0.0626086 -0.093884595 -0.06077126 -0.028285725
0.011228042 -0.09838565 0.07459138 -0.022552105 -0.12825155 -0.013017897 -0.13225834 0.09881749
-0.026104938 0.0029065313 0.10462452 -0.12150187 0.2026649 -0.14561847 0.13677926 -0.053166773
0.006700544 0.064510524 -0.030340962 0.029732801 -0.09564258 -0.14649178 0.017685415 0.008955681
0.0069954093 -0.16438894 0.004197985 0.010760789 0.14098185 -0.087280385 0.033607025 0.023624795
0.0359003 -0.09157947 -0.08634421 0.043505438 -0.031218588 0.040165115 -0.028282281 0.020160101
-0.1164144 -0.095926605 -0.101009876 -0.03578397 0.0061853477 -0.0650835 0.20874222 -0.1151719
-0.089914694 -0.03775933 -0.0054864977 0.049332112 -0.0656354 0.10312303 0.069197364 -0.0059693237
0.10265124 -0.05746069 -0.16380486 0.098082036 -0.0045126677 -0.010807575 -0.06311291 0.026774744
-0.011133684 0.15202627 -0.14940748 -0.0483421 -0.035080653 0.03690285 0.017572545 -0.028930407
0.0702317 0.02110732 0.07882158 -0.0121804895 -0.02666527 0.07056831 -0.037202984 -0.017715978
0.16444704 -0.08360083 -0.048886552 -0.06305486 -0.032301765 -0.037295207 0.04862324 0.16366023
00000000: 49fe 2abe 7176 cfbc 211c f03b 2432 593d
00000010: cc5a 813d 5b66 21be 0532 293d 2fa8 4fbc
00000020: 5858 83bd 7353 a8bc 6e49 043d 35b0 eb3d
00000030: 2b47 c63c 5a2e 003e c74f d0bd 8439 513d
00000040: 4035 623d 3900 06be b381 0a3d 6a10 b43c
00000050: 934f ce3b 5b60 1cbd e726 ef3d 4c9a afbd
00000060: 8e36 29be 9847 df3b 3356 8fbd e338 51bd
00000070: 8cc9 863c 5e1d f13c e93e 5fbc 1eea b1bd
00000080: dcf5 853d aac5 3cbe 29d9 023c e9f0 1bbe
00000090: 8ff4 f43c 2a61 11be 0956 ee3c 6adb 0a3d
000000a0: 62fa 623c 71ff 06be c03c 1dbc 4337 2f3c
000000b0: ae4c 43be 1fe9 d83d 28c3 abbd 5a78 c53d
000000c0: ce2c 553d a700 ddbd 39c8 33bd bfcf 743c
000000d0: c0e0 4bbc 2d96 15bd a89d 2d3c e745 c8bc
000000e0: 642d 28bd eabf e1bd 48f7 013e c53e 17bd
000000f0: 04c5 5abd cd48 1dbe 9b4d c63c ffdf f13d
00000100: 441c 0fbe 3ff1 3fbe 7d64 84bd 72ad 8fbd
00000110: 08f5 033e b039 71bc f726 54bd f4d8 6a3a
00000120: 1175 863d 0eac 21be 0e76 97bd 6ae7 6e3d
00000130: 32d7 9f3d 3ea8 12be cb18 3bbe 8aa8 c8bb
00000140: fa81 ad3d f326 5cbd 2934 e3bc ea4e 1d3e
00000150: 7d3e c93d ede0 2abd 486d 07be 13b9 adbc
00000160: f394 a13c eaf0 ad3d 9d6c e63b 0a7f 1fbd
00000170: 3a9f 4abd 05a6 cbbc 0476 9a3c 4b30 79bc
00000180: 4cc1 b23c 7278 f9bb 9c3b aebd dab5 eb3c
00000190: 3d85 c93c bf9d 1abe bfca 5fbd d7e3 3bbe
000001a0: f86e 8cbd 4845 1c3e 9cbd 29bd 2150 8bbd
000001b0: 624d c7bd 3518 a6bc bd52 1abe 68f1 55bd
000001c0: f53c 653d f7bd 10bd 4843 683d 61a7 ad3d
000001d0: a513 bb3d 5252 bebd 2ef4 dfbd 6026 e83b
000001e0: c130 7dbc 418f 283e 3f5c 96bc c1a3 d13c
000001f0: 29dd e1ba d408 bc3d 9c1a dc3d 5b99 83bd
00000200: e4e0 bebd 02a1 6bbd dfa3 353e 9e2e 9dbd
00000210: 1c74 c5bd c544 1e3c eea8 b43d 6cd8 a73d
00000220: 50c8 0dbe 9eca 57be 23bb f53c b14a d43c
00000230: f4ce c8bd 51be 3a3d e7af 103d af32 8abd
00000240: f251 efbd eef6 993d 93c8 8bbb 56b1 203c
00000250: b036 0b3c 1cac 193d c7a4 ed3d d410 20bd
00000260: 82f8 23be c86e b5bc ee61 bcbd 6c01 433e
00000270: e31b 14bd 44db d0bd afd2 d83c 4789 af3d
00000280: aaae 40bc cdcf ab3d b6a1 10be 2c7d 693e
00000290: f038 803d 9146 c0bd 49eb 78bd 77b7 e7bc
000002a0: d2f5 373c 6a7e c9bd 5ec3 983d 31bf b8bc
000002b0: 6054 03be 0449 55bc bb6e 07be d360 ca3d
000002c0: 06da d5bc 817b 3e3b 6145 d63d f9d5 f8bd
000002d0: 6387 4f3e 021d 15be dd0f 0c3e 67c5 59bd
000002e0: 3d90 db3b 181e 843d 9c8d f8bc 3492 f33c
000002f0: 42e0 c3bd f101 16be 01e1 903c d9ba 123c
00000300: bf39 e53b 9355 28be 408f 893b 054e 303c
00000310: 8c5d 103e 0fc0 b2bd 85a7 093d c988 c13c
00000320: 310c 133d 048e bbbd 3cd5 b0bd c232 323d
00000330: 20be ffbc 2d84 243d 3eb0 e7bc cc26 a53c
00000340: ac6a eebd 2b75 c4bd 44de cebd 3692 12bd
00000350: 75ae ca3b 804a 85bd 85c0 553e 3fdf ebbd
00000360: 3225 b8bd 87a9 1abd 14c8 b3bb 7810 4a3d
00000370: da6b 86bd 2b32 d33d 59b7 8d3d 519a c3bb
00000380: d03a d23d e75b 6bbd 76bc 27be 3cdf c83d
00000390: 00df 93bb 4112 31bc 5741 81bd b556 db3c
000003a0: 0e6a 36bc c6ac 1b3e 46fe 18be 5e02 46bd
000003b0: bbb0 0fbd 7127 173d 4cf4 8f3c 76ff ecbc
000003c0: a3d5 8f3d 42e9 ac3c 356d a13d ad90 47bc
000003d0: 2071 dabc 1e86 903d 2862 18bd 1921 91bc
000003e0: ce64 283e e936 abbd 443d 48bd e822 81bd
000003f0: db4e 04bd dcc2 18bd 2a29 473d 8c96 273e

network_body._body_endoder.seq_layers.2.bias f4 [128]
0.0 -0.00052333786 -0.00048273947 -0.00027856155 0.0 0.0019734744 -0.0004787375 4.4535224e-23
0.0 -0.00053968455 1.8907277e-13 0.0 0.00046236755 0.00046440752 -0.00023916434 0.0004326882
-0.00047454162 -5.7840887e-22 0.00049070484 -0.00051087915 0.0017986482 -1.0957323e-06 3.8885273e-10 -0.0017557022
-0.00052913546 0.0 -0.0020569903 0.0 -0.000651184 -0.0019231571 -2.1766689e-38 0.00043708386
0.0018161898 -0.0015141935 -6.062234e-32 5.364628e-19 2.6118633e-34 -0.0018454104 0.0004349139 0.0017907543
0.00048942346 -0.00052123435 -0.0007090493 -0.0018597301 -1.9104927e-25 0.0 0.0016619293 -1.04066284e-08
2.977788e-06 -0.0019459873 1.4699707e-18 0.0020039645 3.2848116e-17 0.0 0.0 -4.9098925e-10
-6.426883e-28 -0.0015081564 0.0 0.0 -6.4661902e-09 -0.0004996954 0.0 -0.00043713523
-7.8332723e-16 -2.0934431e-13 -0.0007541377 -0.0005313482 -1.9147916e-11 0.001503898 0.0 0.0
4.7726588e-17 -0.0022093423 0.0017915973 -0.00049205916 -0.00052467943 0.0016644994 -1.4843302e-25 0.0017763951
0.0017938826 -0.00057896937 7.4233087e-26 -0.0016836884 -0.002113395 -5.0059505e-05 0.0 -0.0015292518
0.0017208155 0.0 -1.5078753e-16 -4.8940875e-16 0.0019852198 0.002163585 -0.0005144512 -1.4300038e-24
2.3401745e-30 -0.0013447879 0.0020240827 -9.411325e-22 0.00048306482 0.0019025072 0.0012961007 0.0015938155
0.0 0.0004851949 0.0018977228 1.7472012e-17 4.4299186e-13 -6.480237e-30 0.0019094899 -0.00175253
-0.0018984823 -1.8270147e-14 6.750115e-14 -0.00062440423 -0.0005028145 4.0911744e-26 0.0 -0.00045644818
2.2566526e-32 -0.0016361024 0.0004960487 -0.0012309375 0.0017559071 -6.194086e-32 -0.00065094145 -0.0011691215
00000000: 0000 0000 9c30 09ba 3218 fdb9 e60b 92b9
00000010: 0000 0000 6855 013b 0fff fab9 f05b 571a
00000020: 0000 0000 9e79 0dba 84e0 542a 0000 0000
00000030: ec69 f239 b97b f339 30c8 7ab9 6dda e239
00000040: e6cb f8b9 38d0 2e9c a5a2 003a 85ec 05ba
00000050: 9ec0 eb3a 1311 93b5 28c6 d52f 971f e6ba
00000060: aeb5 0aba 0000 0000 92ce 06bb 0000 0000
00000070: 38b4 2aba 7212 fcba ac04 ed80 6728 e539
00000080: 380d ee3a e777 c6ba 7562 9d8b fc55 1e21
00000090: 8d96 ad07 b3e1 f1ba 2805 e439 beb7 ea3a
000000a0: a74c 003a 72a3 08ba 7edf 39ba 30c2 f3ba
000000b0: ee81 6c96 0000 0000 18d5 d93a d6c8 32b2
000000c0: 02d6 4736 8010 ffba eced d821 f254 033b
000000d0: 367c 1724 0000 0000 0000 0000 4cf6 06b0
000000e0: 12ad 4b92 55ad c5ba 0000 0000 0000 0000
000000f0: 362d deb1 fefd 02ba 0000 0000 4c2f e5b9
00000100: 59c7 61a6 64b3 6baa 53b1 45ba 2d4a 0bba
00000110: 466d a8ad 711e c53a 0000 0000 0000 0000
00000120: 9c19 5c24 9dca 10bb 08d4 ea3a 88fd 00ba
00000130: a48a 09ba 552b da3a 4dc0 3796 eed5 e83a
00000140: b620 eb3a fac5 17ba cfca b715 35af dcba
00000150: e280 0abb fcf6 51b8 0000 0000 2d71 c8ba
00000160: fd8c e13a 0000 0000 a0d8 2da5 fe0f 0da6
00000170: 761a 023b efca 0d3b 3cdc 06ba 4948 dd97
00000180: 86db 3d0e 9843 b0ba 79a6 043b 4d38 8e9c
00000190: dd43 fd39 8c5d f93a ece1 a93a 93e7 d03a
000001a0: 0000 0000 c261 fe39 03bd f83a 9f26 a123
000001b0: db61 f92a 506f 038f d947 fa3a 26b5 e5ba
000001c0: 7fd6 f8ba 1790 a4a8 c4ff 9729 0faf 23ba
000001d0: 4fcf 03ba cc95 4a15 0000 0000 704f efb9
000001e0: 1e58 ea0a 7d72 d6ba 4409 023a 6957 a1ba
000001f0: 7726 e63a c3ce a08b f1a3 2aba 353d 99ba

action_model._discrete_distribution.branches.0.weight f4 [2, 128]
-0.008407928 -0.005642851 -0.0011299426 0.0048565795 0.013742949 -0.011634955 -0.005141234 -0.015789114
-0.005537282 -0.011240485 -0.0010262794 0.0088689765 0.0010100027 0.007995778 -0.01732008 0.006524542
-0.0014780477 0.007454247 -0.006493397 0.00064714026 -0.007167946 0.005436851 0.0005471317 0.0025205899
-0.0038108432 -0.0014642907 0.0018025183 -0.022579594 -0.0036026048 -0.0020392647 0.0063575893 0.0045622857
-0.0039266176 -9.435025e-05 -0.00027185943 -0.004455061 0.0008631578 -0.010155545 -0.003091989 -0.02060001
0.013673678 -0.0024471376 -0.0026996103 -0.014468946 -0.009165502 -0.0050555076 -0.011135559 -0.020647373
-0.008343825 0.012582923 0.0025180064 -0.029524243 0.007989234 -0.0069026873 -0.0043225563 0.0015407437
-0.0057080197 -0.0032220052 -0.006449841 0.013737248 -0.0020244094 -0.004900818 -0.013606264 -0.012055234
0.012941638 -0.01599567 0.008990375 -0.0011721284 -0.0058532665 0.00527523 -0.017186608 0.0059870463
0.007927382 -0.00018447264 -0.009272854 -0.0066172997 -0.013123763 -0.0042305174 -0.0028653946 -0.0056959153
-0.008487632 -0.0067175506 0.01982467 0.015818736 0.0034229152 0.004611276 -0.009598915 -0.0060296017
0.0063519087 -0.0005744605 0.016928045 -0.0076560653 0.005319892 0.0060711317 0.00068270386 -0.0008398417
-0.0060944604 5.1110994e-05 -0.0050296667 0.011451279 -0.008142421 -0.017533548 -0.017768547 -0.01316455
0.003967361 -0.0077698715 -0.014342222 -0.0052966024 -0.0012944826 0.0054821786 -0.013992504 0.00491222
0.009471295 -0.008718532 -0.013671026 0.0061934637 -0.011053064 -0.011584568 0.010855367 0.005572653
-0.015197803 0.0021270663 0.003525093 -0.0050624195 -0.005767757 -0.0010818387 -0.015449707 -0.0028172808
-0.013482171 0.00527563 0.008031738 0.0024247312 0.011454846 -0.0025252157 0.0090788705 0.003552277
-0.01134112 0.0058227903 0.010245168 0.01187444 -0.0069302856 -0.00038573085 0.008037006 0.0057531516
0.004865027 -0.008480249 -0.01442565 0.013310915 -3.6252168e-05 0.01231261 -0.018597623 -0.0061741136
0.0018517257 0.003858814 -0.01266475 0.013816838 -0.00016900268 -0.0030289423 -0.0060446393 0.004154795
0.007937469 0.00222744 0.012732573 0.02018125 -0.014159019 -0.0089221075 -0.007787081 0.010390542
0.00034764563 0.014696449 -0.009761842 -0.00076198956 -0.008668769 -0.00089292036 -0.005467262 0.0013075649
0.011078249 -0.00664581 0.01247449 0.011110253 0.006653448 -0.008524362 -0.0019177776 -0.01699014
0.0064023077 -0.002072988 -0.010135368 0.0018972496 -0.011598744 0.013978671 0.007215038 -0.00049687
0.015230069 -0.013695905 -0.0038592366 0.010165491 0.00078308885 0.010447323 -0.013917227 0.010774547
0.0036970295 -0.0046209428 -0.0033695833 -0.000116915806 0.0031786147 0.01546846 0.004071015 0.010324826
-0.00010351928 0.0042249807 0.0012950202 -0.013668511 -0.018970024 0.0126237795 0.0032780177 0.008535506
0.026459483 -0.004053576 -0.0016929529 -0.0021360524 0.020511545 0.02013011 0.015283948 0.0139288455
-0.005020118 -0.00021096766 -0.005648164 0.0013121765 -0.012162061 0.0023864366 -0.012777912 -0.0059721363
0.00090026594 -0.004604467 0.017717017 -0.0020211823 -0.007853641 -0.003266319 0.0013621232 0.0006695849
-0.00566169 0.011389544 0.0037434509 0.015590092 -0.002574071 0.005160808 0.0028161926 0.013287393
0.0058791693 -0.007519109 -0.011066304 -0.0026020834 0.012581422 -0.0051119453 0.004584108 3.4710105e-05
00000000: 68c1 09bc aae7 b8bb 951a 94ba f123 9f3b
00000010: 1b2a 613c 8aa0 3ebc cc77 a8bb 2c58 81bc
00000020: 1772 b5bb 032a 38bc 3984 86ba 2f4f 113c
00000030: 1162 843a b900 033c d7e2 8dbc d3cb d53b
00000040: 0dbb c1ba c242 f43b 90c6 d4bb d9a4 293a
00000050: 17e1 eabb 9d27 b23b 636d 0f3a 7b30 253b
00000060: 57bf 79bb 71ed bfba 7a42 ec3a d7f8 b8bc
00000070: ae19 6cbb 2fa5 05bb 5353 d03b 3a7f 953b
00000080: dbaa 80bb e8dd c5b8 5b88 8eb9 c3fb 91bb
00000090: 8a45 623a 7163 26bc f8a2 4abb 5ac1 a8bc
000000a0: 9007 603c 2860 20bb f2eb 30bb 280f 6dbc
000000b0: e72a 16bc aca8 a5bb eb71 36bc ae24 a9bc
000000c0: 8ab4 08bc 9b28 4e3c 2305 253b d3dc f1bc
000000d0: 47e5 023c f02f e2bb 3ba4 8dbb c8f2 c93a
000000e0: 570a bbbb 4728 53bb 3059 d3bb 3212 613c
000000f0: f4ab 04bb 0b97 a0bb cfec 5ebc 5183 45bc
00000100: 2a09 543c 5a09 83bc 5e4c 133c 1aa2 99ba
00000110: c2cc bfbb d6db ac3b eeca 8cbc fc2e c43b
00000120: dae1 013c ff6e 41b9 2bed 17bc efd5 d8bb
00000130: 0d05 57bc 27a0 8abb 58c9 3bbb cda4 babb
00000140: b50f 0bbc e61e dcbb 5967 a23c 4b96 813c
00000150: fd52 603b 301a 973b c544 1dbc f793 c5bb
00000160: ac23 d03b 6497 16ba afac 8a3c bbdf fabb
00000170: 7d52 ae3b 58f0 c63b 7bf7 323a d328 5cba
00000180: 0ab4 c7bb 0360 5638 e7cf a4bb 259e 3b3c
00000190: ca67 05bc 84a2 8fbc 588f 91bc 20b0 57bc
000001a0: a300 823b 689a febb a4fb 6abc 1f8f adbb
000001b0: a1ab a9ba d9a3 b33b d140 65bc b0f6 a03b
000001c0: 7e2d 1b3c 2cd8 0ebc 70fc 5fbc 8af2 ca3b
000001d0: e917 35bc 33cd 3dbc b6da 313c cd9a b63b
000001e0: 3500 79bc 4066 0b3b 3f05 673b a7e2 a5bb
000001f0: 74ff bcbb 7ccc 8dba c520 7dbc 21a2 38bb
00000200: 53e4 5cbc 31df ac3b 8d97 033c 3de8 1e3b
00000210: 1bad 3b3c 177e 25bb 8bbf 143c 52cd 683b
00000220: 1bd0 39bc 1bcd be3b 59db 273c 038d 423c
00000230: 7317 e3bb eb3b cab9 a5ad 033c ef84 bc3b
00000240: ce6a 9f3b bef0 0abc 9059 6cbc 0616 5a3c
00000250: 780d 18b8 d4ba 493c 0b5a 98bc 3850 cabb
00000260: 9bb5 f23a 28e4 7c3b d07f 4fbc 0560 623c
00000270: 5036 31b9 3881 46bb 1c12 c6bb f224 883b
00000280: 280c 023c 3efa 113b 489c 503c 2653 a53c
00000290: 3bfb 67bc 082e 12bc c52a ffbb 183d 2a3c
000002a0: 3544 b639 60c9 703c 22f0 1fbc 41c0 47ba
000002b0: 7407 0ebc df12 6aba b826 b3bb 9962 ab3a
000002c0: 8b81 353c 18c5 d9bb ce61 4c3c c707 363c
000002d0: 2b05 da3b c4a9 0bbc f05d fbba e82e 8bbc
000002e0: 73ca d13b f8da 07bb d10e 26bc 22ad f83a
000002f0: a908 3ebc cc06 653c 206c ec3b 6240 02ba
00000300: 8a87 793c ca64 60bc 3feb 7cbb 298d 263c
00000310: 3448 4d3a 402b 2b3c 1505 64bc ba87 303c
00000320: dd49 723b 476b 97bb 3ad4 5cbb b230 f5b8
00000330: 4e50 503b 6c6f 7d3c 2666 853b 7629 293c
00000340: 7e18 d9b8 b571 8a3b abbd a93a e4f1 5fbc
00000350: 0667 9bbc f8d3 4e3c 03d4 563b 82d8 0b3c
00000360: 8fc1 d83c dcd3 84bb 13e6 ddba 03fd 0bbb
00000370: d407 a83c e7e7 a43c 8669 7a3c d035 643c
00000380: cd7f a4bb 3337 5db9 3c14 b9bb 56fd ab3a
00000390: 6243 47bc c365 1c3b 735a 51bc e9b1 c3bb
000003a0: d3ff 6b3a 12e1 96bb 4723 913c d075 04bb
000003b0: 8fac 00bc bd0f 56bb 4589 b23a 1587 2f3a
000003c0: b385 b9bb 369b 3a3c af54 753b 966d 7f3c
000003d0: bfb1 28bb ff1b a93b df8f 383b 5eb3 593c
000003e0: 0ca6 c03b dc62 f6bb 714f 35bc b787 2abb
000003f0: 4f22 4e3c 1b82 a7bb 4936 963b b195 1138

action_model._discrete_distribution.branches.0.bias f4 [2]
-0.0017193162 0.0017193508
00000000: ae5a e1ba d75b e13a

action_model._discrete_distribution.branches.1.weight f4 [3, 128]
-0.011189574 0.0015229429 0.0037600726 -0.01273697 0.0062860013 -0.0077197263 -0.011334493 0.0044337045
-0.0043008467 0.011391642 0.0049729752 0.001350197 0.0029041618 -0.015917985 0.006548193 0.008862531
0.002334144 -0.0063016387 -0.0021369045 -0.016503742 0.00016187599 0.008787273 -0.013810403 -0.008851847
-0.00017941609 -0.00024745413 -0.0007950758 0.0034975738 0.0058089416 -0.015002163 -0.0034981703 -0.0029762771
0.0027559856 0.014415972 0.0009827577 0.022472419 0.001790485 0.0017960424 -0.01416516 0.015981238
0.0026317476 0.005391329 0.010748644 0.0004543247 0.0015034265 -0.013515437 -0.018014923 0.0016672472
-0.003015592 -0.0044861753 -0.004302264 -0.0107234605 -0.007303016 -0.008274629 -0.006384421 0.016295647
-0.019948088 -0.0050870962 -0.020833207 -0.011830283 0.0043540555 0.003453788 -0.005591081 0.0142237805
0.023592647 0.007852775 -0.005160788 -0.0019818689 -0.0038897318 0.007992161 0.0057375203 -0.0072663683
-0.009731875 -0.007689652 0.0067277635 -0.006244366 -0.01145726 0.01261455 0.011364291 0.0059701647
-0.0037682739 0.01062412 -0.00458092 -0.002251316 2.7335727e-05 -0.0068441555 0.009646001 -0.000254422
-0.0026985598 -0.00041450709 -0.00647714 0.01235941 -0.0064830063 0.0030870934 0.00043138498 0.005344481
-0.0038637097 -0.016380237 -0.0060869595 0.011076061 -0.0028812753 -0.0016389326 -0.009083254 -0.0032605513
0.0041142637 0.0048395875 -0.0023575767 -0.008164806 0.015578242 -0.014311209 0.0062175035 -0.014267223
0.009547003 0.0037012876 0.0036469307 0.012155691 -0.013309462 -0.0044026184 0.009790837 0.008103446
-0.005413999 0.014578101 0.0152111575 0.016947947 -0.015196282 -0.0035509814 -0.0072091394 -0.00076045375
-0.009287144 -0.0005497307 -0.0096788695 0.0050439173 -0.008228239 0.0035592408 0.0031682765 0.020770812
0.004317766 -0.0047066812 0.003138102 -0.020670267 -0.01654938 -0.013167656 0.001628216 -0.007509743
0.0030918042 0.0113221025 -0.012151621 0.00051698694 0.0012984007 0.00016306552 0.012154635 0.008641999
-0.0012415708 0.0009362185 -0.008375081 -0.009872313 0.006494609 -0.007691723 0.00991025 0.004144312
-0.0054779216 0.0022504446 -0.013022184 -0.011826937 0.012521264 0.0050208746 -0.01942749 -0.011024717
-0.008573751 0.009312137 0.010213491 -0.016029423 0.013875874 -0.0019231326 -0.005749142 -0.009683355
-0.002110227 0.014781563 0.01935217 0.0045929016 0.0031483178 0.006109021 0.005103202 -0.016496805
-0.0064621195 0.0021681301 -0.003469804 -0.009863689 -0.009258608 0.013677655 0.012691281 0.0020663124
0.009974464 0.0047587585 -0.014758453 0.0006099123 0.00442579 0.0007580049 0.011260561 0.03144433
-0.00766384 0.00571212 8.443391e-05 -0.007414082 0.00072667416 -0.016601697 0.009207667 -0.017219663
-0.005392059 -0.0074020647 0.010119727 0.000888441 -0.0036223202 0.00807111 0.0020456864 0.0016608741
-0.0010690631 -0.012471233 -0.0096633425 -0.0047392044 -0.008521991 0.0074114683 -0.0038536428 -0.013890403
-0.007591349 0.0101195695 0.0071257316 0.0073639527 0.0029265084 0.013329743 -0.011350439 -0.007016721
-0.01299164 -0.0021118799 -0.014750354 0.012488877 0.0002835932 -0.005720884 -0.0018208231 0.0046593077
0.0066225897 -0.004111836 0.010939577 0.0010994257 0.0067075826 0.015683597 0.012692913 0.0063343477
0.009341742 0.00050000014 -0.011893074 0.0049110595 -0.005911246 0.0047546057 -0.0125276325 0.0020951931
00000000: 7a54 37bc 7c9d c73a 8d6b 763b b9ae 50bc
00000010: cdfa cd3b c2f5 fcbb 4fb4 39bc 9c48 913b
00000020: 1eee 8cbb 02a4 3a3c 57f4 a23b 18f9 b03a
00000030: c053 3e3b 6f66 82bc 3992 d63b 2634 113c
00000040: 70f8 183b fa7d cebb 4f0b 0cbb db32 87bc
00000050: 41bd 2939 7ff8 0f3c 0745 62bc 5607 11bc
00000060: a421 3cb9 bbbc 81b9 a26c 50ba 8d37 653b
00000070: ef58 be3b a2cb 75bc 8f41 65bb a50d 43bb
00000080: c49d 343b f830 6c3c e0cf 803a 1418 b83c
00000090: b5ae ea3a 2f69 eb3a fd14 68bc 16eb 823c
000000a0: 6679 2c3b bfa9 b03b 151b 303c 6e32 ee39
000000b0: 9f0e c53a da6f 5dbc 0894 93bc 8887 da3a
000000c0: 3da1 45bb c400 93bb 02fa 8cbb 74b1 2fbc
000000d0: 234e efbb 4f92 07bc 6834 d1bb 737e 853c
000000e0: 2c6a a3bc a8b1 a6bb 67aa aabc ced3 41bc
000000f0: 77ac 8e3b f358 623b 6335 b7bb dc0a 693c
00000100: 5e45 c13c eda8 003c d41b a9bb 3ee2 01bb
00000110: dfea 7ebb 8ef1 023c cf01 bc3b b71a eebb
00000120: 7172 1fbc 7af9 fbbb 9274 dc3b 8a9d ccbb
00000130: 3bb7 3bbc 42ad 4e3c 4b31 3a3c 5fa1 c33b
00000140: 25f5 76bb ca10 2e3c 8b1b 96bb d18a 13bb
00000150: 074f e537 f044 e0bb 430a 1e3c f163 85b9
00000160: 52da 30bb 3352 d9b9 303e d4bb 1f7f 4a3c
00000170: 666f d4bb d550 4a3b 832b e239 c220 af3b
00000180: 4b36 7dbb d92f 86bc 1e75 c7bb 5e78 353c
00000190: c7d3 3cbb 74d1 d6ba eed1 14bc f9ae 55bb
000001a0: f2d0 863b 6795 9e3b 9381 1abb aec5 05bc
000001b0: e23b 7f3c 9079 6abc 33bc cb3b 12c1 69bc
000001c0: 086b 1c3c 4d91 723b 5801 6f3b aa28 473c
000001d0: ee0f 5abc d743 90bb bf69 203c 51c4 043c
000001e0: ea67 b1bb fdd8 6e3c 3838 793c 6cd6 8a3c
000001f0: d4f9 78bc 95b7 68bb a53a ecbb 3059 47ba
00000200: 1b29 18bc ce1b 10ba 1f94 1ebc 7247 a53b
00000210: bccf 06bc 2742 693b dca2 4f3b 8d27 aa3c
00000220: 0c7c 8d3b 813a 9abb 9da8 4d3b b154 a9bc
00000230: 9192 87bc 27bd 57bc dd69 d53a 4a14 f6bb
00000240: de9f 4a3b 5780 393c 9817 47bc 6886 073a
00000250: 192f aa3a 91fc 2a39 3c24 473c 2c97 0d3c
00000260: 34bc a2ba 8f6c 753a a337 09bc 7bbf 21bc
00000270: bbd0 d43b d90a fcbb 9a5e 223c 02cd 873b
00000280: 2380 b3bb 327c 133b 005b 55bc c5c5 41bc
00000290: fd25 4d3c 2686 a43b 6626 9fbc 04a1 34bc
000002a0: eb78 0cbc ef91 183c 7c56 273c 2350 83bc
000002b0: a257 633c 9f11 fcba 4c63 bcbb efa6 1ebc
000002c0: bc4b 0abb 5e2e 723c 7188 9e3c 0d80 963b
000002d0: 0254 4e3b 2f2e c83b c338 a73b 4f24 87bc
000002e0: 30c0 d3bb 3017 0e3b a765 63bb 4f9b 21bc
000002f0: 6bb1 17bc 3e18 603c 17ef 4f3c f86a 073b
00000300: ef6b 233c 5cef 9b3b 70cd 71bc 86e2 1f3a
00000310: 3806 913b d9b4 463a 377e 383c c5cb 003d
00000320: f320 fbbb bc2c bb3b 1c12 b138 d4f1 f2bb
00000330: 477e 3e3a 4800 88bc c1db 163c 4010 8dbc
00000340: dfaf b0bb 058d f2bb 36cd 253c 44e6 683a
00000350: 7364 6dbb b03c 043c ec10 063b b0b1 d93a
00000360: ce1f 8cba 2454 4cbc ff52 1ebc 544b 9bbb
00000370: d29f 0bbc e7db f23b 668d 7cbb 9394 63bc
00000380: dac0 f8bb 8dcc 253c f87e e93b 504d f13b
00000390: aaca 3f3b ff64 5a3c 31f7 39bc 86ec e5bb
000003a0: e3da 54bc 7767 0abb 78ab 71bc 269e 4c3c
000003b0: 3caf 9439 4176 bbbb afa8 eeba 1bad 983b
000003c0: 4f02 d93b 95bc 86bb e93b 333c 9b1a 903a
000003d0: 48cb db3b e37a 803c f0f5 4f3c 5c90 cf3b
000003e0: 1b0e 193c 7112 033a 2bdb 42bc f4ec a03b
000003f0: 20b3 c1bb 86cc 9b3b b340 4dbc 824f 093b

action_model._discrete_distribution.branches.1.bias f4 [3]
0.0005271519 -0.00049920724 0.0004991746
00000000: 9130 0a3a 3bdd 02ba 0adb 023a

exp_avg f4 [128, 37]
0.0 0.0 0.0 0.0 0.0 0.0 0.0 0.0
0.0 0.0 0.0 0.0 0.0 0.0 0.0 0.0
0.0 0.0 0.0 0.0 0.0 0.0 0.0 0.0
0.0 0.0 0.0 0.0 0.0 0.0 0.0 0.0
0.0 0.0 0.0 0.0 0.0 0.0 0.0 0.0
0.0 0.0 0.0 0.0 0.0 0.0 0.0 0.0
0.0 0.0 0.0 0.0 0.0 0.0 0.0 0.0
0.0 0.0 0.0 0.0 0.0 0.0 0.0 0.0
0.0 0.0 0.0 0.0 0.0 0.0 0.0 0.0
0.0 0.0 1.2827307e-08 -1.22273e-07 -1.2001445e-07 2.506263e-09 -1.11952e-07 -1.12734995e-07
8.278323e-09 -1.1772406e-07 -1.2007453e-07 -4.0618342e-08 -6.8827426e-08 -7.511806e-08 -1.7539827e-08 -9.1905925e-08
-9.6935565e-08 -1.0126237e-07 -8.183477e-09 -3.0344843e-08 -7.983565e-08 -2.9610135e-08 -4.955754e-08 -9.725378e-09
-9.9720424e-08 -9.912297e-08 -8.299033e-09 -1.0114673e-07 -1.0365779e-07 4.0243223e-05 -3.4202883e-05 2.3136838e-05
4.0189934e-05 -3.4173696e-05 2.1413523e-05 -6.9029776e-10 3.252673e-08 -3.3022232e-09 -1.1937248e-08 1.3996334e-08
-1.2970955e-07 -1.272505e-07 3.1577925e-09 -1.18871036e-07 -1.1961255e-07 9.135914e-09 -1.2484921e-07 -1.272761e-07
-4.248848e-08 -7.322469e-08 -7.978515e-08 -1.8436445e-08 -9.727676e-08 -1.0258592e-07 -1.0723505e-07 -8.478141e-09
-3.200861e-08 -8.458856e-08 -3.112463e-08 -5.2240974e-08 -1.0008476e-08 -1.05704686e-07 -1.049589e-07 -8.724594e-09
-1.06988644e-07 -1.0962826e-07 4.254772e-05 -3.6161524e-05 2.4461771e-05 4.2495874e-05 -3.6130496e-05 2.2610939e-05
-7.955651e-10 3.553215e-08 -3.6284138e-09 -1.2348853e-08 7.296058e-10 -5.8760867e-09 -5.7502256e-09 1.8968013e-10
-5.3361595e-09 -5.3701905e-09 1.5190342e-09 -6.665518e-09 -6.7421175e-09 -1.8264027e-09 -3.320078e-09 -3.6313474e-09
-1.726356e-10 -4.9738453e-09 -5.2217746e-09 -5.8140475e-09 6.675661e-10 -6.3162897e-10 -3.7464556e-09 -1.4000275e-09
-2.5054687e-09 -5.494438e-10 -4.597034e-09 -4.5667057e-09 2.2115465e-10 -5.367636e-09 -5.4646243e-09 1.8923606e-06
-1.6083274e-06 1.0879663e-06 1.8977363e-06 -1.6069908e-06 9.96217e-07 6.331311e-11 3.221675e-09 -3.4128744e-10
-1.3186376e-10 1.16629195e-08 -1.1944394e-07 -1.1737031e-07 1.6440174e-09 -1.0942505e-07 -1.10320904e-07 6.9145183e-09
-1.14695574e-07 -1.17069646e-07 -4.0258936e-08 -6.752212e-08 -7.3805545e-08 -1.8140472e-08 -8.964054e-08 -9.457644e-08
-9.857163e-08 -9.209385e-09 -3.079195e-08 -7.876766e-08 -2.901338e-08 -4.8473787e-08 -9.864559e-09 -9.791646e-08
-9.752496e-08 -9.343921e-09 -9.8437106e-08 -1.0096496e-07 3.9631075e-05 -3.3682656e-05 2.2784898e-05 3.956592e-05
-3.3654036e-05 2.1142074e-05 -6.3422784e-10 2.924673e-08 -2.9605747e-09 -1.2392834e-08 -3.84e-43 -1.522e-42
-1.557e-42 -7.7e-44 -1.827e-42 -1.829e-42 -1.867e-42 -3.9e-44 -6.2e-44 -8.1e-44
-1.824e-42 -1.927e-42 -2.088e-42 1.82e-43 1.88e-43 6.63e-43 -2.57e-42 -2.482e-42
-1.94e-42 3.1e-44 1.22e-43 -3.6e-43 -1.546e-42 -1.746e-42 -2.378e-42 4.72e-43
4.43e-43 7.01526e-40 -5.96233e-40 4.03327e-40 6.75687e-40 -5.95651e-40 4.19521e-40 6.9e-44
00000000: 0000 0000 0000 0000 0000 0000 0000 0000
00000010: 0000 0000 0000 0000 0000 0000 0000 0000
00000020: 0000 0000 0000 0000 0000 0000 0000 0000
00000030: 0000 0000 0000 0000 0000 0000 0000 0000
00000040: 0000 0000 0000 0000 0000 0000 0000 0000
00000050: 0000 0000 0000 0000 0000 0000 0000 0000
00000060: 0000 0000 0000 0000 0000 0000 0000 0000
00000070: 0000 0000 0000 0000 0000 0000 0000 0000
00000080: 0000 0000 0000 0000 0000 0000 0000 0000
00000090: 0000 0000 0000 0000 0000 0000 0000 0000
000000a0: 0000 0000 0000 0000 0000 0000 0000 0000
000000b0: 0000 0000 0000 0000 0000 0000 0000 0000
000000c0: 0000 0000 0000 0000 0000 0000 0000 0000
000000d0: 0000 0000 0000 0000 0000 0000 0000 0000
000000e0: 0000 0000 0000 0000 0000 0000 0000 0000
000000f0: 0000 0000 0000 0000 0000 0000 0000 0000
00000100: 0000 0000 0000 0000 0000 0000 0000 0000
00000110: 0000 0000 0000 0000 0000 0000 0000 0000
00000120: 0000 0000 0000 0000 185f 5c32 254a 03b4
00000130: 52dd 00b4 a53a 2c31 436a f0b3 b818 f2b3
00000140: 7338 0e32 7dcf fcb3 d6ed 00b4 5774 2eb3
00000150: 47ce 93b3 9750 a1b3 7daa 96b2 d15d c5b3
00000160: e42a d0b3 9475 d9b3 5097 0cb2 8254 02b3
00000170: 1d72 abb3 6059 feb2 17d9 54b3 aa14 27b2
00000180: e225 d6b3 6edd d4b3 8893 0eb2 0136 d9b3
00000190: 799a deb3 d5ca 2838 1175 0fb8 fb15 c237
000001a0: 9d91 2838 ba55 0fb8 31a1 b337 63bf 3db0
000001b0: 85b3 0b33 53ed 62b1 9214 4db2 8774 7032
000001c0: 4a46 0bb4 5aa2 08b4 7900 5931 0b46 ffb3
000001d0: d96e 00b4 2df4 1c32 4a0e 06b4 63a9 08b4
000001e0: 947c 36b3 b33f 9db3 5a56 abb3 2c5e 9eb2
000001f0: 77e6 d0b3 354d dcb3 1849 e6b3 42a7 11b2
00000200: d779 09b3 0da7 b5b3 e5ad 05b3 8f5f 60b3
00000210: bef1 2bb2 c4ff e2b3 c465 e1b3 2ce3 15b2
00000220: a1c1 e5b3 c66c ebb3 4475 3238 24ac 17b8
00000230: 4133 cd37 993d 3238 d38a 17b8 9fac bd37
00000240: ebae 5ab0 039c 1833 bb57 79b1 d426 54b2
00000250: 728d 4830 9be6 c9b1 8593 c5b1 368e 502f
00000260: 5b59 b7b1 b284 b8b1 44c6 d030 8406 e5b1
00000270: 4ba8 e7b1 d504 fbb0 6e27 64b1 578b 79b1
00000280: 9ad0 3daf 68e6 aab1 376b b3b1 e7c4 c7b1
00000290: ca7f 3730 f09e 2db0 2cba 80b1 176b c0b0
000002a0: ac2c 2cb1 ac07 17b0 f0f3 9db1 2be9 9cb1
000002b0: 8029 732f 3a6e b8b1 58c3 bbb1 04fd fd35
000002c0: b5dd d7b5 3d06 9235 b9b5 fe35 c9af d7b5
000002d0: c1b5 8535 1d3a 8b2e 4e64 5d31 f09f bbaf
000002e0: 59fc 10af 105e 4832 8040 00b4 030d fcb3
000002f0: b8f3 e130 0ffd eab3 8fe9 ecb3 bf94 ed31
00000300: 8f4e f6b3 b867 fbb3 2be9 2cb3 ae00 91b3
00000310: 077f 9eb3 52d3 9bb2 6880 c0b3 f319 cbb3
00000320: 54ae d3b3 4e37 1eb2 1b40 04b3 fb26 a9b3
00000330: 1939 f9b2 7e31 50b3 ca78 29b2 2546 d2b3
00000340: ea6e d1b3 0087 20b2 5f64 d3b3 13d2 d8b3
00000350: 8b39 2638 7a46 0db8 3222 bf37 95f3 2538
00000360: bf27 0db8 425a b137 d155 2eb0 3d3a fb32
00000370: fb72 4bb1 43e8 54b2 1201 0080 3e04 0080
00000380: 5704 0080 3700 0080 1805 0080 1905 0080
00000390: 3405 0080 1c00 0080 2c00 0080 3a00 0080
000003a0: 1605 0080 5f05 0080 d205 0080 8200 0000
000003b0: 8600 0000 d901 0000 2a07 0080 eb06 0080
000003c0: 6805 0080 1600 0000 5700 0000 0101 0080
000003d0: 4f04 0080 de04 0080 a106 0080 5101 0000
000003e0: 3c01 0000 92a3 0700 0e7e 0680 5064 0400
000003f0: 8a5b 0700 6f7c 0680 7491 0400 3100 0000

exp_avg_sq f4 [128, 37]
0.0 0.0 0.0 0.0 0.0 0.0 0.0 0.0
0.0 0.0 0.0 0.0 0.0 0.0 0.0 0.0
0.0 0.0 0.0 0.0 0.0 0.0 0.0 0.0
0.0 0.0 0.0 0.0 0.0 0.0 0.0 0.0
0.0 0.0 0.0 0.0 0.0 0.0 0.0 0.0
0.0 0.0 0.0 0.0 0.0 0.0 0.0 0.0
0.0 0.0 0.0 0.0 0.0 0.0 0.0 0.0
0.0 0.0 0.0 0.0 0.0 0.0 0.0 0.0
0.0 0.0 0.0 0.0 0.0 0.0 0.0 0.0
0.0 0.0 7.936738e-13 1.3382905e-10 1.3421819e-10 1.2875884e-12 1.187833e-10 1.2349863e-10
4.354798e-12 1.0612949e-10 1.1186217e-10 1.529415e-11 6.2480805e-11 7.3869875e-11 1.5754075e-11 6.436733e-11
7.193067e-11 6.1040444e-11 2.080291e-11 3.8261144e-11 7.4657135e-11 9.949826e-12 2.275241e-11 1.4851884e-12
1.121309e-10 1.166708e-10 1.5292956e-11 6.8904875e-11 7.500757e-11 1.8802566e-05 1.3581818e-05 6.2149807e-06
1.850321e-05 1.3559191e-05 5.6665936e-06 1.3646855e-15 1.280099e-11 1.319716e-13 2.742092e-12 8.8802517e-13
1.3895594e-10 1.3926843e-10 1.37257e-12 1.2327678e-10 1.281084e-10 4.543486e-12 1.1062994e-10 1.1654461e-10
1.5947597e-11 6.440587e-11 7.619608e-11 1.6144587e-11 6.706714e-11 7.493846e-11 6.402295e-11 2.1388715e-11
3.928189e-11 7.734699e-11 1.0265975e-11 2.3573801e-11 1.5276804e-12 1.1614848e-10 1.2075711e-10 1.5649735e-11
7.197897e-11 7.8286704e-11 1.9455276e-05 1.4053293e-05 6.430728e-06 1.9149842e-05 1.4029862e-05 5.8605297e-06
1.7591735e-15 1.3831222e-11 1.4338925e-13 2.8327828e-12 5.062737e-15 3.7930157e-13 3.7588555e-13 4.7159576e-15
3.392318e-13 3.474761e-13 2.2955437e-14 2.7399968e-13 2.882242e-13 3.8312256e-14 1.6958743e-13 1.9742171e-13
4.8608683e-14 1.6556834e-13 1.8556496e-13 1.5693801e-13 7.395293e-14 1.1592986e-13 1.946035e-13 2.7563984e-14
6.067995e-14 3.405529e-15 3.0935413e-13 3.1578646e-13 4.3813203e-14 1.868808e-13 2.0241309e-13 4.9802125e-08
3.5973976e-08 1.6461536e-08 4.9022823e-08 3.591195e-08 1.476237e-08 3.0819135e-16 5.909253e-14 6.328767e-16
9.1544975e-15 7.1370595e-13 1.3462069e-10 1.3505735e-10 1.2608134e-12 1.1932326e-10 1.2414936e-10 4.1945544e-12
1.0648902e-10 1.1231815e-10 1.5558846e-11 6.263078e-11 7.414151e-11 1.5772446e-11 6.469804e-11 7.232167e-11
6.1200336e-11 2.06173e-11 3.8305612e-11 7.5337514e-11 9.9767295e-12 2.2846574e-11 1.5107161e-12 1.1278919e-10
1.1742485e-10 1.5279979e-11 6.901271e-11 7.5208666e-11 1.8942852e-05 1.3683145e-05 6.261352e-06 1.8640865e-05
1.3660368e-05 5.7121792e-06 1.1986773e-15 1.1919038e-11 1.2257414e-13 2.8650574e-12 0.0 0.0
0.0 0.0 0.0 0.0 0.0 0.0 0.0 0.0
0.0 0.0 0.0 0.0 0.0 0.0 0.0 0.0
0.0 0.0 0.0 0.0 0.0 0.0 0.0 0.0
0.0 0.0 0.0 0.0 0.0 0.0 0.0 0.0
00000000: 0000 0000 0000 0000 0000 0000 0000 0000
00000010: 0000 0000 0000 0000 0000 0000 0000 0000
00000020: 0000 0000 0000 0000 0000 0000 0000 0000
00000030: 0000 0000 0000 0000 0000 0000 0000 0000
00000040: 0000 0000 0000 0000 0000 0000 0000 0000
00000050: 0000 0000 0000 0000 0000 0000 0000 0000
00000060: 0000 0000 0000 0000 0000 0000 0000 0000
00000070: 0000 0000 0000 0000 0000 0000 0000 0000
00000080: 0000 0000 0000 0000 0000 0000 0000 0000
00000090: 0000 0000 0000 0000 0000 0000 0000 0000
000000a0: 0000 0000 0000 0000 0000 0000 0000 0000
000000b0: 0000 0000 0000 0000 0000 0000 0000 0000
000000c0: 0000 0000 0000 0000 0000 0000 0000 0000
000000d0: 0000 0000 0000 0000 0000 0000 0000 0000
000000e0: 0000 0000 0000 0000 0000 0000 0000 0000
000000f0: 0000 0000 0000 0000 0000 0000 0000 0000
00000100: 0000 0000 0000 0000 0000 0000 0000 0000
00000110: 0000 0000 0000 0000 0000 0000 0000 0000
00000120: 0000 0000 0000 0000 3966 5f2b 8725 132f
00000130: 1093 132f 4336 b52b 879a 022f c6c9 072f
00000140: 8938 992c 9761 e92e cefc f52e 5d87 862d
00000150: 9165 892e 0b71 a22e 0693 8a2d 968b 8d2e
00000160: 5e2d 9e2e b73a 862e fdfb b62d 3846 282e
00000170: 3b2c a42e 080a 2f2d df21 c82d 8d05 d12b
00000180: 1694 f62e e947 002f ad84 862d ff85 972e
00000190: 82f1 a42e 34ba 9d37 77dd 6337 478a d036
000001a0: 5737 9b37 487c 6337 ab23 be36 02ac c426
000001b0: 8932 612d 3996 142a 23f5 402c f5f4 792b
000001c0: 9fc8 182f 9420 192f 0c2c c12b 548b 072f
000001d0: 4fdb 0c2f 15dc 9f2c 1f47 f32e 6424 002f
000001e0: cc46 8c2d 48a1 8d2e 948e a72e 6102 8e2d
000001f0: 717b 932e 9aca a42e b7c9 8c2e 1b23 bc2d
00000200: 7ac3 2c2e 7c16 aa2e d799 342d 7b5b cf2d
00000210: 7d00 d72b c869 ff2e 1bc6 042f 12a8 892d
00000220: 8f48 9e2e 7f27 ac2e e333 a337 6fc6 6b37
00000230: 88c7 d736 f9a3 a037 cc61 6b37 91a5 c436
00000240: 0c86 fd26 4952 732d 2371 212a e156 472c
00000250: 8267 b627 1e87 d52a d19a d32a 08e9 a927
00000260: 74f8 be2a 959c c32a a2c3 ce28 843f 9a2a
00000270: 7c41 a22a 068b 2c29 40f0 3e2a ef46 5e2a
00000280: ffe9 5a29 d369 3a2a 75ed 502a 4db2 302a
00000290: f686 a629 8286 022a a41a 5b2a 3846 f828
000002a0: 9ca3 8829 ec64 7527 a126 ae2a a0c5 b12a
000002b0: 2f51 4529 b968 522a 9ae5 632a 04e6 5533
000002c0: ce81 1a33 4d67 8d32 2a8d 5233 9b3d 1a33
000002d0: 979d 7d32 04a9 b125 8610 8529 0f6a 3626
000002e0: abe9 2428 efe3 482b 5b04 142f 447f 142f
000002f0: 9771 b12b 8332 032f f080 082f 3095 932c
00000300: fd2b ea2e 7ffd f62e 68db 882d ffb9 892e
00000310: f609 a32e 64bc 8a2d c245 8e2e 7b09 9f2e
00000320: ba94 862e 085a b52d 4978 282e 40ab a52e
00000330: 3283 2f2d e9f5 c82d 499d d42b ab06 f82e
00000340: 281c 012f 7467 862d b4c2 972e b762 a52e
00000350: 77e7 9e37 a990 6537 9b18 d236 f45e 9c37
00000360: d52e 6537 3fab bf36 63bf ac26 93ae 512d
00000370: 9701 0a2a 499c 492c 0000 0000 0000 0000
00000380: 0000 0000 0000 0000 0000 0000 0000 0000
00000390: 0000 0000 0000 0000 0000 0000 0000 0000
000003a0: 0000 0000 0000 0000 0000 0000 0000 0000
000003b0: 0000 0000 0000 0000 0000 0000 0000 0000
000003c0: 0000 0000 0000 0000 0000 0000 0000 0000
000003d0: 0000 0000 0000 0000 0000 0000 0000 0000
000003e0: 0000 0000 0000 0000 0000 0000 0000 0000
000003f0: 0000 0000 0000 0000 0000 0000 0000 0000

exp_avg f4 [128]
0.0 0.0 -1.09445786e-07 -1.15713185e-07 -5.1464815e-09 -1.0778106e-07 -1.907e-42 -8.4742475e-32
-4.157589e-08 5.801315e-08 -2.337155e-08 0.0 3.34611e-15 2.0373415e-07 3.5187143e-38 0.0
0.0 1.24274895e-14 -1.2040046e-07 1.5978637e-07 9.00658e-08 1.110329e-25 -1.5553346e-20 2.0234374e-07
0.0 -3.8182804e-08 5.705553e-08 -3.595579e-35 0.0 -8.132003e-08 1.17126895e-07 -1.0763858e-07
-1.727267e-28 -3.1622406e-08 -8.125876e-12 -2.4751773e-07 -1.8561566e-07 2.3732165e-08 -1.9169529e-07 7.864493e-08
-7.752807e-08 4.2458583e-16 4.9068003e-08 -5.195735e-19 -8.996883e-08 6.2175864e-08 -1.958422e-14 1.6670325e-23
9.923342e-08 -8.0381084e-36 2.899764e-07 0.0 -3.8278756e-08 -8.269151e-08 -8.7201244e-08 0.0
-3.397952e-07 -1.4025262e-07 6.146068e-28 1.6678017e-07 -9.040145e-08 0.0 2.0254879e-07 0.0
-1.6967e-41 8.5280853e-19 2.0355471e-30 3.3773873e-08 -4.82e-43 8.1082896e-25 -1.5296027e-07 -8.9138744e-13
0.0 -9.22241e-10 -5.83815e-40 1.6751515e-07 3.0293695e-08 1.1856055e-07 -3.835436e-30 -5.28145e-25
0.0 -5.6662543e-08 -1.8179729e-07 0.0 1.994162e-08 -1.1950495e-26 0.0 2.440818e-14
4.8976432e-08 5.4367472e-08 2.5079933e-07 0.0 1.320732e-20 5.1471e-40 1.5979088e-08 -1.1312568e-07
-3.2180188e-24 1.4383542e-07 -3.1311775e-08 -1.6856514e-07 -3.2516412e-09 5.3186245e-08 -3.815357e-08 0.0
1.0466444e-07 -5.001656e-09 -2.25341e-07 1.16725e-07 2.0164221e-07 3.0206676e-14 1.2644887e-32 -7.7381485e-10
-7.679919e-20 -6e-45 -5.6421477e-08 1.0798237e-07 1.1364762e-21 -2.8317423e-29 0.0 0.0
-2.2156789e-20 2.6065769e-07 2.7528293e-07 0.0 1.11617e-07 1.3569664e-08 0.0 -7.650944e-14
00000000: 0000 0000 0000 0000 7508 ebb3 ff7d f8b3
00000010: eed4 b0b1 4475 e7b3 5105 0080 0901 dc8b
00000020: 2d91 32b3 222a 7933 95c2 c8b2 0000 0000
00000030: d61c 7127 04c2 5a34 b893 3f01 0000 0000
00000040: 0000 0000 aedf 5f28 6d47 01b4 be91 2b34
00000050: 326a c133 bb73 0916 afe5 929e d343 5934
00000060: 0000 0000 70fe 23b3 380d 7533 7c2c 3f86
00000070: 0000 0000 29a2 aeb3 3187 fb33 ef26 e7b3
00000080: 05f5 5a91 34d1 07b3 b1f3 0ead 94e2 84b4
00000090: a54d 47b4 95db cb32 cdd4 4db4 82e3 a833
000000a0: 827d a6b3 cfc1 f425 d7be 5233 dd59 19a1
000000b0: e334 c1b3 8b85 8533 2366 b0a8 ba39 a119
000000c0: 261a d533 a0f3 2a85 0eae 9b34 0000 0000
000000d0: f067 24b3 2394 b1b3 6443 bbb3 0000 0000
000000e0: 196d b6b4 5998 16b4 d4c6 4212 2f14 3334
000000f0: b922 c2b3 0000 0000 307c 5934 0000 0000
00000100: 4c2f 0080 64b4 7b21 a924 250e c40e 1133
00000110: 5801 0080 7df0 7a17 663d 24b4 3ce7 7aab
00000120: 0000 0000 f180 7db0 705b 0680 37de 3334
00000130: 451c 0233 5a9b fe33 7295 9b8e f573 2397
00000140: 0000 0000 205d 73b3 0f34 43b4 0000 0000
00000150: 164c ab32 35b4 6c94 0000 0000 6ed9 db28
00000160: 285a 5233 ab81 6933 99a5 8634 0000 0000
00000170: ae7a 791e cd9a 0500 6342 8932 80ef f2b3
00000180: 6efb 7898 2e71 1a34 a97b 06b3 d5fe 34b4
00000190: 7a73 5fb1 e56e 6433 4bde 23b3 0000 0000
000001a0: e2c3 e033 08db abb1 43f5 71b4 3faa fa33
000001b0: fd82 5834 ed09 0829 e04f 830a 61b4 54b0
000001c0: 4356 b59f 0400 0080 1254 72b3 f0e3 e733
000001d0: 4bbd ab1c 1e96 0f90 0000 0000 0000 0000
000001e0: d443 d19e 85f0 8b34 99ca 9334 0000 0000
000001f0: 18b2 ef33 0320 6932 0000 0000 b048 aca9

exp_avg_sq f4 [128]
0.0 0.0 1.3906888e-10 1.4389653e-10 3.6834988e-13 1.4010644e-10 0.0 0.0
2.2473415e-11 3.919878e-11 5.9203033e-12 0.0 4.3929983e-25 4.7800286e-10 0.0 0.0
0.0 4.299726e-23 1.6480216e-10 2.9578906e-10 9.257235e-11 0.0 1.3040494e-36 4.5503032e-10
0.0 1.923669e-11 3.8138506e-11 0.0 0.0 8.4896264e-11 1.5853621e-10 1.2908673e-10
0.0 1.21403165e-11 3.3285999e-19 6.996359e-10 4.0845485e-10 2.7902296e-12 4.2606915e-10 6.7393535e-11
7.2830054e-11 1.0081932e-27 2.325044e-11 9.855282e-34 8.7500084e-11 4.6478613e-11 1.0218893e-21 2.32998e-40
1.1311324e-10 0.0 9.857773e-10 0.0 1.7213063e-11 7.584087e-11 9.14751e-11 0.0
1.3218147e-09 2.4949798e-10 0.0 3.2983238e-10 1.025588e-10 0.0 4.678814e-10 0.0
0.0 4.0517016e-33 0.0 1.13752185e-11 0.0 6e-45 2.7029945e-10 2.5063076e-21
0.0 3.4798526e-14 0.0 3.1081157e-10 1.0541732e-11 1.5655485e-10 0.0 3.8e-44
0.0 3.5137466e-11 4.0299422e-10 0.0 2.5878486e-12 0.0 0.0 4.1626707e-24
2.4019687e-11 3.1264418e-11 6.925292e-10 0.0 9.487812e-37 0.0 4.801792e-12 1.4358029e-10
6.2e-44 2.2247246e-10 8.280101e-12 3.183532e-10 2.6938182e-13 3.409248e-11 1.7531466e-11 0.0
1.2869314e-10 5.443901e-13 5.8270155e-10 1.5193785e-10 4.8088583e-10 3.498635e-24 0.0 3.2385464e-15
4.193948e-33 0.0 4.238974e-11 1.4903556e-10 7.461481e-39 0.0 0.0 0.0
3.475864e-36 7.858516e-10 8.8404317e-10 0.0 1.5995237e-10 2.7004894e-12 0.0 3.1016793e-23
00000000: 0000 0000 0000 0000 69e8 182f 4637 1e2f
00000010: d05c cf2a 750c 1a2f 0000 0000 0000 0000
00000020: a2ad c52d e765 2c2e 5a4d d02c 0000 0000
00000030: ebf4 0717 7664 0330 0000 0000 0000 0000
00000040: 0000 0000 08ec 4f1a af33 352f 9c9c a22f
00000050: 9a91 cb2e 0000 0000 5ddf dd03 d327 fa2f
00000060: 0000 0000 2d35 a92d 24bc 272e 0000 0000
00000070: 0000 0000 59b0 ba2e fa4f 2e2f afee 0d2f
00000080: 0000 0000 2093 552d 617c c420 8050 4030
00000090: e98c e02f 4f58 442c e73b ea2f 3033 942e
000000a0: ad27 a02e 2dc1 9f12 5683 cc2d bcbf a308
000000b0: 2b6a c02e 446a 4c2e 6d6c 9a1c 8189 0200
000000c0: 18bd f82e 0000 0000 f57b 8730 0000 0000
000000d0: 5f68 972d 9dc6 a62e e727 c92e 0000 0000
000000e0: 38ab b530 b829 892f 0000 0000 c853 b52f
000000f0: 7987 e12e 0000 0000 3a9c 0030 0000 0000
00000100: 0000 0000 154d a809 0000 0000 6e1d 482d
00000110: 0000 0000 0400 0000 4499 942f 0a5f 3d1d
00000120: 0000 0000 f8b7 1c29 0000 0000 d7de aa2f
00000130: be73 392d 4622 2c2f 0000 0000 1b00 0000
00000140: 0000 0000 4589 1a2e 658c dd2f 0000 0000
00000150: 891a 362c 0000 0000 0000 0000 1809 a118
00000160: 8747 d32d 9b80 092e 695c 3e30 0000 0000
00000170: 406d a103 0000 0000 b3f2 a82c 42de 1d2f
00000180: 2c00 0000 6e9c 742f 43aa 112d 3b04 af2f
00000190: 03a6 972a b8f0 152e 5a35 9a2d 0000 0000
000001a0: e67f 0d2f 713b 192b fa2b 2030 b40e 272f
000001b0: 552f 0430 ce58 8718 0000 0000 a35c 6927
000001c0: b435 ae09 0000 0000 9b6e 3a2e c8dd 232f
000001d0: 933f 5100 0000 0000 0000 0000 0000 0000
000001e0: cfd8 9304 6403 5830 0201 7330 0000 0000
000001f0: 97de 2f2f b107 3e2c 0000 0000 eefc 151a
