UnityProject/results/testModel8/testModel7/testModel7-293522.onnx (onnx, 79465 bytes, 12 tensors)

discrete_action_output_shape f4 [1, 2]
2.0 2.0
00000000: 0000 0040 0000 0040

network_body._body_endoder.seq_layers.0.weight f4 [128, 12]
0.114418514 -0.30987433 0.32942313 0.24986453 0.54766977 -0.15597177 -0.037309192 0.077582
0.52204144 -0.10249996 0.36232942 0.005787934 0.024287969 0.19581512 -0.33617917 0.5472059
0.37032592 -0.2773463 -0.078515574 -0.22051872 0.03299253 -0.019764578 0.22797687 0.019860605
-0.10828568 -0.34271085 -0.13904265 0.0987107 -0.1177613 -0.4659936 -0.31361365 -0.8373595
-0.18643348 0.008125882 0.060573496 0.58310413 0.20369674 0.019414525 0.39744335 0.093273394
0.2899596 -0.29500142 0.31805173 0.12458234 0.45075944 -0.07990254 0.00449188 0.31581858
0.52924305 0.07510025 0.04888708 -0.060125224 0.4471933 -0.14455399 -0.07330392 -0.05919499
-0.4078894 0.2557547 -0.41645008 0.2770091 0.21811482 0.6095425 -0.076430835 -0.13233621
0.4835757 -0.23091792 0.32664612 0.13017488 0.20356198 0.11485106 0.019463347 -0.21275596
-0.06781635 -0.03214455 -0.01637582 0.47471258 -0.15624656 -0.019543558 0.26686975 0.06530079
0.009172542 -0.40993175 -0.16133928 0.09404002 -0.30714372 0.78862447 -0.36484116 -0.105268665
0.012343006 0.3724208 0.019612959 0.6769273 0.5713704 0.2235982 -0.0043748156 0.3237981
-0.3122126 -0.2710495 -0.53703976 -0.14950398 -0.07704747 0.17262396 -0.18602633 -0.15286927
0.300379 0.3490881 0.0070076664 -0.203447 0.19009349 -0.2450121 0.15583177 0.16858856
0.13934305 0.3524921 -0.003208566 0.15983781 0.28160524 -0.10576256 0.05744544 0.7460379
-0.21387592 0.34066027 0.34714425 -0.048331384 0.28427333 0.40856493 0.46396565 -0.59471434
0.047770523 0.38950515 -0.081172034 -0.4181399 -0.21339427 0.067636155 0.60393614 0.33736956
-0.05351297 0.53027236 -0.2802395 0.33307213 0.14488736 -0.23884715 -0.16291112 -0.17694946
0.4844752 0.33382913 0.11628245 -0.27549386 0.10667213 -0.0073407744 -0.10603423 -0.3657416
0.18972932 0.047273956 -0.23776196 -0.058191143 0.40223148 -0.120405175 0.12787594 0.2628212
0.35332572 -0.273376 0.07402957 0.30486712 -0.29608977 0.6054077 0.5913065 0.22050136
0.14724681 0.14552552 0.029521663 -0.0940453 -0.1987817 -0.12766881 0.08451767 0.11362985
0.43342808 0.6009665 -0.08694623 0.28006715 -0.2585607 -0.31449118 0.46752083 0.3176489
-0.2575744 -0.2860403 0.22799586 -0.42486024 0.026582845 0.21299706 -0.39802256 0.2546209
-0.02545688 -0.39850783 0.29466647 0.116019264 -0.07048506 -0.47331542 0.32342786 0.959274
-0.13369529 0.024528183 -0.28019044 0.42892876 -0.18895355 0.11246598 -0.085658304 0.019018712
0.14124301 -0.30556318 0.06364161 -0.25085807 0.0038425648 -0.23338196 0.39441568 0.89169955
-0.16406746 0.25675407 0.370507 -0.020318931 -0.11554642 0.026783716 0.013014538 -0.10810326
-0.026780458 0.48449308 -0.31895596 -0.21671313 0.08044742 0.46181598 -0.23429084 -0.0777181
-0.15579148 0.22309873 -0.16461685 0.16110736 0.5553177 -0.14828914 0.027976742 -0.08264858
0.21105595 0.50728923 0.042366304 0.040945128 -0.23474233 -0.37315 0.23905481 -0.27473733
0.47399586 -0.31969127 0.1857957 -0.028068848 -0.59767157 0.27698973 -0.4531133 -0.056389574
00000000: 4154 ea3d d9a7 9ebe 26aa a83e 7ddc 7f3e
00000010: 1634 0c3f 10b7 1fbe 86d1 18bd 50e3 9e3d
00000020: 82a4 053f 80eb d1bd 3e83 b93e b6a8 bd3b
00000030: 90f7 c63c c283 483e ad1f acbe b015 0c3f
00000040: 5c9b bd3e 5600 8ebe c6cc a0bd a9cf 61be
00000050: 2d23 073d 53e9 a1bc c572 693e b5b2 a23c
00000060: e2c4 ddbd cc77 afbe 3261 0ebe d628 ca3d
00000070: d62c f1bd b796 eebe f891 a0be 315d 56bf
00000080: 6be8 3ebe 6b22 053c ea1b 783d 5046 153f
00000090: e195 503e 360b 9f3c b27d cb3e 1f06 bf3d
000000a0: 9675 943e 6d0a 97be add7 a23e 0725 ff3d
000000b0: f1c9 e63e f1a3 a3bd 9f30 933b f9b2 a13e
000000c0: 797c 073f 29ce 993d d23d 483d de45 76bd
000000d0: 85f6 e43e f605 14be 5e20 96bd 7276 72bd
000000e0: e1d6 d0be 48f2 823e f238 d5be 23d4 8d3e
000000f0: 7e59 5f3e fa0a 1c3f c587 9cbd 2583 07be
00000100: 3c97 f73e bf75 6cbe 293e a73e 904c 053e
00000110: 8d72 503e 0837 eb3d 9971 9f3c b3dc 59be
00000120: 4ce3 8abd 01aa 03bd 9526 86bc 870d f33e
00000130: 19ff 1fbe d019 a0bc 27a3 883e 6cbc 853d
00000140: 6e48 163c 93e2 d1be 2036 25be 0e98 c03d
00000150: f141 9dbe 4be3 493f 76cc babe 1997 d7bd
00000160: 523a 4a3c f0ad be3e 5bab a03c 1c4b 2d3f
00000170: 5545 123f edf6 643e 9d5a 8fbb ddc8 a53e
00000180: 54da 9fbe 00c7 8abe 707b 09bf 9217 19be
00000190: 10cb 9dbd 56c4 303e b07d 3ebe c389 1cbe
000001a0: 47cb 993e adbb b23e 91a0 e53b 6954 50be
000001b0: dea7 423e 74e4 7abe 5d92 1f3e 7ba2 2c3e
000001c0: f2af 0e3e d879 b43e ce46 52bb 86ac 233e
000001d0: 902e 903e 0b9a d8bd e94b 6b3d 57fc 3e3f
000001e0: 4a02 5bbe 066b ae3e e4bc b13e 21f7 45bd
000001f0: 468c 913e 6c2f d13e e88c ed3e 333f 18bf
00000200: 06ab 433d 386d c73e 863d a6bd 6f16 d6be
00000210: 0784 5abe d384 8a3d 8f9b 1a3f b4bb ac3e
00000220: 6b30 5bbd eebf 073f 8d7b 8fbe 6e88 aa3e
00000230: 5a5d 143e 5994 74be 2cd2 26be 3d32 35be
00000240: 220d f83e a7eb aa3e 7e25 ee3d 880d 8dbe
00000250: eb76 da3d e18a f0bb 7928 d9bd 7c42 bbbe
00000260: 6748 423e 56a2 413d df77 73be d659 6ebd
00000270: 49f1 cd3e fd96 f6bd e9f1 023e 8090 863e
00000280: 1ce7 b43e f0f7 8bbe d19c 973d 8b17 9c3e
00000290: 1499 97be 00fc 1a3f dd5f 173f 1ccb 613e
000002a0: dec7 163e a404 153e 6ad7 f13c d29a c0bd
000002b0: 6e8d 4bbe 9dbb 02be 9a17 ad3d c4b6 e83d
000002c0: 49ea dd3e f1d8 193f dd10 b2bd f664 8f3e
000002d0: 1162 84be fd04 a1be e45e ef3e e0a2 a23e
000002e0: cbe0 83be e073 92be bf77 693e 4887 d9be
000002f0: 44c4 d93c e71b 5a3e 9dc9 cbbe ac5d 823e
00000300: f28a d0bc 3809 ccbe 86de 963e 829b ed3d
00000310: 795a 90bd 6656 f2be 5698 a53e fb92 753f
00000320: 6be7 08be 54ef c83c 1f75 8fbe 8d9c db3e
00000330: 0a7d 41be 9054 e63d 9f6d afbd 21cd 9b3c
00000340: 02a2 103e c772 9cbe 8856 823d 7870 80be
00000350: 8ad3 7b3b aefb 6ebe daf0 c93e 6c46 643f
00000360: 4d01 28be 4575 833e 18b3 bd3e e373 a6bc
00000370: 9aa3 ecbd 8669 db3c ee3a 553c 3e65 ddbd
00000380: b162 dbbc 7a0f f83e 324e a3be 0cea 5dbe
00000390: 9ec1 a43d 2573 ec3e f0e9 6fbe ab2a 9fbd
000003a0: cd87 1fbe fe73 643e 5291 28be 54f9 243e
000003b0: 4d29 0e3f 1cd9 17be 7b2f e53c a943 a9bd
000003c0: 0d1f 583e b5dd 013f 4a88 2d3d 14b6 273d
000003d0: 4b60 70be 840d bfbe c9ca 743e 5faa 8cbe
000003e0: 96af f23e 93ae a3be 3a41 3e3e a4f0 e5bc
000003f0: 0101 19bf 99d1 8d3e 77fe e7be c1f8 66bd

network_body._body_endoder.seq_layers.0.bias f4 [128]
0.00010189258 -0.0068027163 -0.0048892647 -0.0031079296 0.004034635 -0.0023544792 0.00027254 -0.0074950038
0.005605521 -0.0050493805 -0.007478664 -0.002218686 0.0072125006 0.0009040684 0.003981571 0.00014666324
0.001991589 -0.009755217 -0.0087206075 0.010676067 0.0050915144 -0.0041608405 -0.001934827 -0.0049966886
0.0028484964 0.0021492965 -0.0023334087 -0.01106095 -0.0032584327 -0.015597714 -0.0047298195 -0.0013990635
0.005692662 -0.0012093331 -0.008225656 -0.02563662 0.004772693 -0.005839542 0.0020188862 -0.0013739645
-0.0037979342 0.0024028106 0.0050631156 -0.004701209 0.0033512632 -0.0014984206 -0.0047204294 -0.00825839
0.013707423 -0.005457523 -0.00047587388 0.0024803253 -0.008588184 0.0018382788 -0.0014935307 0.0032559028
0.0006696465 0.0042373934 0.00020347202 0.0044658594 -0.009269918 0.0021221053 -0.0032469311 0.0034668
0.00081734476 0.024036812 -0.003688569 -0.0024663757 0.0021798667 -0.009696642 0.004098465 -0.003897138
0.0050226413 0.004184984 -0.0044440646 0.009143006 0.0030420474 -0.0026849734 -0.0021970803 0.007038145
0.0028920851 -0.0057719275 -0.0031728111 0.0050195786 0.0031287943 -0.017300634 -0.004781138 0.0047055585
0.0072342753 -0.002051383 -0.0022293646 -0.0036329674 -0.0033677812 0.0041411747 -0.004010371 -0.0010973705
-0.002820934 0.004782332 -0.009501966 0.0017502499 0.01211648 -0.0015422591 -0.00010085007 -0.0053326916
-0.006343857 -0.005074884 -0.004506512 -0.009333394 -0.001878623 -0.006491168 -0.0035037382 0.0021563787
-0.0034941323 -0.0047949813 0.00028947927 -0.00069345185 -0.0045095594 -0.0045265816 0.0027091058 -0.0070905103
0.0020803383 0.000221594 -0.0016313131 -0.00488616 4.036815e-05 0.0037634126 -0.0048303395 -0.0033332193
00000000: 2aaf d538 52e9 debb 2036 a0bb 68ae 4bbb
00000010: f934 843b 9b4d 1abb b3e3 8e39 a698 f5bb
00000020: 85ae b73b 4675 a5bb 950f f5bb 6067 11bb
00000030: d756 ec3b 01ff 6c3a d777 823b 9dc9 1939
00000040: 5285 023b 58d4 1fbc e1e0 0ebc acea 2e3c
00000050: b8d6 a63b a957 88bb 059a fdba 43bb a3bb
00000060: d7ad 3a3b 36db 0c3b 1aec 18bb fd38 35bc
00000070: 6e8b 55bb 8e8d 7fbc 9afc 9abb c860 b7ba
00000080: 8389 ba3b 7c82 9eba e7c4 06bc e403 d2bc
00000090: 4064 9c3b a159 bfbb 4a4f 043b 9916 b4ba
000000a0: c3e6 78bb 7978 1d3b 7ee8 a53b 990c 9abb
000000b0: dea0 5b3b a766 c4ba d5ad 9abb 334e 07bc
000000c0: 1995 603c 05d5 b2bb b67e f9b9 f48c 223b
000000d0: 74b5 0cbc 67f2 f03a 93c2 c3ba fc60 553b
000000e0: 378b 2f3a d5d9 8a3b 1b5b 5539 5856 923b
000000f0: dbe0 17bc 0513 0b3b 77ca 54bb 4133 633b
00000100: 1443 563a d9e8 c43c ebbb 71bb eba2 21bb
00000110: 18dc 0e3b aade 1ebc 6b4c 863b 2067 7fbb
00000120: f894 a43b 3122 893b 849f 91bb 8ccc 153c
00000130: 165d 473b 61f6 2fbb e4fc 0fbb 3da0 e63b
00000140: 2389 3d3b 7022 bdbb f0ee 4fbb 477b a43b
00000150: 750c 4d3b 0fba 8dbc 18ab 9cbb 1631 9a3b
00000160: 800d ed3b 7f70 06bb 881a 12bb 1417 6ebb
00000170: feb5 5cbb b1b2 873b 6e69 83bb a5d5 8fba
00000180: 6bdf 38bb 1cb5 9c3b 22ae 1bbc a468 e53a
00000190: 3384 463c a125 caba 787f d3b8 dcbd aebb
000001a0: 21e0 cfbb 364b a6bb 5dab 93bb 17eb 18bc
000001b0: 213c f6ba ddb3 d4bb f99e 65bb 0852 0d3b
000001c0: d0fd 64bb 381f 9dbb 40c5 9739 c4c8 35ba
000001d0: edc4 93bb b853 94bb 418b 313b 8357 e8bb
000001e0: 4956 083b b05b 6839 c9d1 d5ba 151c a0bb
000001f0: f950 2938 96a3 763b d347 9ebb 2472 5abb

network_body._body_endoder.seq_layers.2.weight f4 [128, 128]
-0.014805745 0.127838 -0.0003771801 0.1267421 0.0884692 0.043556836 -0.12603734 -0.07497836
0.00354216 -0.07900346 0.18192352 -0.27523938 0.09065182 -0.012678189 -0.032170884 -0.022600763
0.049028814 -0.037049484 -0.024887633 0.07806744 -0.10183661 -0.15955466 -0.18176468 0.11334242
-0.046590332 -0.005746357 0.07270723 0.058339868 0.11096407 -0.05046539 0.10117833 0.10848082
0.05511515 -0.15791348 -0.07209565 0.018134115 0.034663804 0.15942636 0.1420604 -0.08158773
-0.13799408 -0.01812373 -0.055729162 -0.15326609 -0.028362503 0.060231168 0.12756364 0.011089885
-0.025603274 -0.0834502 0.055243425 0.05109846 0.07881164 0.079616606 -0.14385827 0.07124256
0.09284748 0.051386137 -0.045581125 -0.05394601 0.019194672 0.017754653 0.03369676 0.07544972
0.050793245 0.094794445 -0.060979452 -0.077976234 0.027074417 0.12377228 -0.026794972 -0.022280615
0.032384623 0.021106597 0.04563434 0.10608431 0.085053355 0.047379922 -0.068202585 -0.033401452
0.007813564 -0.043019734 -0.057476487 -0.08283591 -0.016753493 -0.07150502 -0.033444215 0.026716705
-0.12317914 0.0544698 0.18818985 -0.011622429 -0.08248515 -0.11251038 0.075306095 -0.049172446
0.15997596 -0.008580974 0.018396897 -0.05595873 -0.12419108 -0.16302855 -0.08385303 -0.09931917
-0.005698025 -0.06278466 0.1328492 0.20455353 0.013900241 -0.046846163 -0.05150158 -0.051130306
0.055514533 -0.15596381 0.09147184 0.042147584 0.099631004 0.024629153 -0.09859303 0.002575881
0.025923532 -0.11395618 -0.046245858 0.045755554 0.026655728 0.025881486 -0.08430519 0.060181387
0.14169367 0.0032868618 0.0656759 -0.014545266 -0.06546233 -0.032749835 -0.1356476 -0.06266381
-0.06901296 -0.15038094 0.004684822 -0.0034086646 0.056582734 0.11735944 -0.04208441 -0.011819669
0.0004868073 -0.1500093 -0.0956046 -0.01858071 -0.09897462 0.0695732 0.04622894 -0.017320493
0.18754591 -0.00031195354 -0.010153909 -0.059702385 -0.13716064 -0.0027355365 0.009455602 -0.17945603
0.11388198 0.10998797 -0.060735423 -0.03180211 -0.062948845 -0.1335283 -0.03332242 -0.13463356
0.08928882 -0.04778591 0.038406305 0.09328449 -0.2066416 0.02315831 0.035994947 -0.16943417
0.1439376 0.07415712 -0.022890663 0.045239717 0.19598548 -0.06809252 0.010727698 -0.043821294
0.041925047 -0.004925539 -0.030212495 -0.021644764 -0.014773954 -0.1744023 0.06677309 -0.061765134
0.09768288 -0.20368046 -0.0059245043 -0.07727744 0.14834194 -0.015387085 -0.056664348 0.04262098
-0.14008497 0.079330705 0.11512811 -0.02973449 0.031846214 0.018718276 0.087174475 0.02972416
0.14884926 -0.046777435 -0.058130298 -0.12909266 0.11415222 0.025088206 -0.038391117 -0.03399296
-0.13013637 0.018389188 0.016045265 -0.11752228 -0.1687681 0.007241346 -0.1351037 -0.032934524
-0.07459445 -0.25446337 0.004301357 -0.04202091 -0.09079633 0.037559405 0.035847425 -0.00052192557
0.014670836 -0.042827267 0.018229185 0.22100492 -0.09615449 -0.013893822 0.017773304 -0.04140344
0.06867012 -0.08198654 0.094019465 -0.0017708984 -0.0017148716 0.038125258 0.16932249 0.00791282
-0.14710331 0.13936728 0.0038437108 0.026128829 -0.07838445 -0.17131849 -0.048212446 0.048171833
00000000: cc93 72bc f7e7 023e 42c0 c5b9 aec8 013e
00000010: 572f b53d a768 323d ef0f 01be 418e 99bd
00000020: 9523 683b 91cc a1bd 294a 3a3e 2dec 8cbe
00000030: a9a7 b93d 2eb8 4fbc 9ec5 03bd 3c25 b9bc
00000040: 70d2 483d 33c1 17bd 26e1 cbbc d2e1 9f3d
00000050: b68f d0bd 4c62 23be 8520 3abe 1220 e83d
00000060: 81d5 3ebd f04b bcbb 87e7 943d c9f5 6e3d
00000070: 2141 e33d ccb4 4ebd 9636 cf3d 312b de3d
00000080: 6cc0 613d 12b4 21be e2a6 93bd ff8d 943c
00000090: a2fb 0d3d aa40 233e 4878 113e 7817 a7bd
000000a0: 524e 0dbe 3778 94bc 4344 64bd c9f1 1cbe
000000b0: 7b58 e8bc f5b4 763d 0ba0 023e 59b2 353c
000000c0: f5bd d1bc f0e7 aabd ee46 623d 9e4c 513d
000000d0: ff67 a13d 080e a33d 954f 13be 9fe7 913d
000000e0: d226 be3d 457a 523d 46b3 3abd 7ef6 5cbd
000000f0: 253e 9d3c 3572 913c 9d05 0a3d 6285 9a3d
00000100: 940c 503d 9723 c23d 97c5 79bd 01b2 9fbd
00000110: 2bcb dd3c 527c fd3d 2181 dbbc d685 b6bc
00000120: bda5 043d bee7 ac3c 13eb 3a3d bb42 d93d
00000130: 7430 ae3d 7311 423d ccad 8bbd f6cf 08bd
00000140: 7604 003c 7635 30bd 776c 6bbd e0a5 a9bd
00000150: 9f3e 89bc 3971 92bd cdfc 08bd fedc da3c
00000160: 5845 fcbd ba1b 5f3d d7b4 403e 006c 3ebc
00000170: f9ed a8bd d86b e6bd 153a 9a3d 0c69 49bd
00000180: bdd0 233e 3797 0cbc 17b5 963c fb34 65bd
00000190: e557 febd f5f0 26be 23bb abbd d967 cbbd
000001a0: 80b6 babb 3e95 80bd 9f09 083e 7b76 513e
000001b0: d6bd 633c c3e1 3fbd 52f3 52bd 036e 51bd
000001c0: 3563 633d fab4 1fbe 9755 bb3d f2a2 2c3d
000001d0: 570b cc3d 14c3 c93c 24eb c9bd 1dd0 283b
000001e0: 965d d43c dc61 e9bd 4c6c 3dbd 2d6a 3b3d
000001f0: 1d5d da3c 6905 d43c 33a8 acbd c280 763d
00000200: 2518 113e 6468 573b 1681 863d 444f 6ebc
00000210: 1d11 86bd b124 06bd 34e7 0abe e255 80bd
00000220: ab56 8dbd 76fd 19be 2383 993b e763 5fbb
00000230: 4cc3 673d 255a f03d b460 2cbd 49a7 41bc
00000240: 2b3a ff39 0a9c 19be 58cc c3bd 9336 98bc
00000250: 35b3 cabd 657c 8e3d 8f5a 3d3d b5e3 8dbc
00000260: 090c 403e b28d a3b9 955c 26bc 7d8a 74bd
00000270: d773 0cbe b046 33bb abeb 1a3c 52c3 37be
00000280: f53a e93d 5f41 e13d b5c5 78bd ee42 02bd
00000290: 53eb 80bd a5bb 08be 177d 08bd 61dd 09be
000002a0: 0fdd b63d 29bb 43bd ee4f 1d3d f00b bf3d
000002b0: db99 53be 7fb6 bd3c 706f 133d 2780 2dbe
000002c0: 6164 133e b0df 973d 3385 bbbc 484d 393d
000002d0: 6bb0 483e 1774 8bbd 3ac3 2f3c f57d 33bd
000002e0: 99b9 2b3d 6a66 a1bb 3280 f7bc 5c50 b1bc
000002f0: 740e 72bc 8496 32be 54c0 883d 70fd 7cbd
00000300: f60d c83d 9c91 50be 5822 c2bb a243 9ebd
00000310: f3e6 173e 1d1a 7cbc e018 68bd 5693 2e3d
00000320: 6f72 0fbe 2378 a23d 49c8 eb3d bf95 f3bc
00000330: 2d71 023d 1257 993c 8888 b23d 1580 f33c
00000340: f16b 183e b299 3fbd 091a 6ebd de30 04be
00000350: a4c8 e93d c885 cd3c 0140 1dbd 343c 0bbd
00000360: 7842 05be eca4 963c 5c71 833c 85af f0bd
00000370: 8bd1 2cbe d048 ed3b a058 0abe 5ae6 06bd
00000380: fac4 98bd 0649 82be 66f2 8c3b 1e1e 2cbd
00000390: 6df3 b9bd e4d7 193d c0d4 123d d5d1 08ba
000003a0: f25d 703c a56b 2fbd 5f55 953c 1d4f 623e
000003b0: a5ec c4bd eaa2 63bc 5299 913c a796 29bd
000003c0: eba2 8c3d 8fe8 a7bd 478d c03d 7d1d e8ba
000003d0: 8bc5 e0ba 3b29 1c3d e062 2d3e c6a4 013c
000003e0: 40a2 16be 4cb6 0e3e c4e6 7b3b 200c d63c
000003f0: 0788 a0bd 1d6e 2fbe 6a7a 45bd d44f 453d

network_body._body_endoder.seq_layers.2.bias f4 [128]
-0.0046395427 -0.004004711 0.0016392297 0.001873484 -0.0050069266 -0.0029873622 -0.0032765083 0.0032575708
-0.0023922636 -0.002276656 -0.005080425 -0.00024027444 0.0041373973 -0.0019534088 -0.0047075073 0.002078504
-0.008561178 0.010314431 -0.0028505668 0.00091198867 -0.0011410238 0.00097381906 0.001668802 0.0008202958
0.000895458 0.0015374904 0.0034260668 0.0007203076 0.00027526892 0.0014080566 0.00037245438 0.0019279453
0.002119964 -1.0078598e-05 -0.0024284578 -0.0004516573 -0.003911979 0.0041273613 -0.004229524 -0.0046921587
0.0029207494 0.0027004075 0.0019032524 0.0033799482 -0.0026737598 -0.0029252793 0.0040583797 -0.002547668
-0.0050724884 0.0008062023 0.0011024533 -0.00036455158 -0.0054945247 0.0034074374 -1.1680043e-05 -0.005186615
-0.0057764812 -0.0025154394 -0.0038897803 0.0013263524 0.0015602511 -0.004062167 -0.004578881 0.0039380887
-0.0023945312 0.00028165025 0.00013319186 0.0010957771 0.0035445993 0.0090377135 -0.0042918446 0.007452301
-0.005672589 -0.006852768 -0.0014925423 -0.0057481723 -0.0025535084 0.0010263796 -0.004208645 -0.0019485725
-0.0050386577 -0.001684448 0.002629142 0.0018958454 -0.0014704042 -0.0015205875 0.0037769661 0.002590176
-0.0041008648 0.0041678185 -0.0022398618 -0.0027310285 0.0013162021 -0.005480765 -0.003424478 -0.0030693333
0.0057943645 -0.007886487 0.0009576391 0.0068145087 -0.002910832 -0.0017664287 -0.0034193362 -0.0011732947
0.0033202765 -0.0050283833 0.0006536169 -0.0027968173 -0.0033334172 0.0014754112 -0.002608749 -0.0034712823
-0.0030233935 0.0012918704 -0.004983012 -0.0017535136 0.002129006 -0.0023862722 0.001236746 -0.0014053996
-0.0034611127 -0.0091451965 -0.00030036023 0.007917039 -0.00420539 0.0013003174 0.0035184303 -0.003387357
00000000: 4e07 98bb f339 83bb 6cdb d63a b18f f53a
00000010: 2511 a4bb 9fc7 43bb b0ba 56bb f87c 553b
00000020: 86c7 1cbb f333 15bb b279 a6bb 2ef2 7bb9
00000030: 0193 873b c304 00bb 6f41 9abb 8337 083b
00000040: 2f44 0cbc dcfd 283c 93d0 3abb 8612 6f3a
00000050: 688e 95ba e447 7f3a b4bb da3a 1f09 573a
00000060: 2bbd 6a3a 9e85 c93a dd87 603b 06d3 3c3a
00000070: f851 9039 8a8e b83a fb45 c339 1cb3 fc3a
00000080: 18ef 0a3b 4017 29b7 c326 1fbb 6bcc ecb9
00000090: 0f30 80bb d13e 873b d297 8abb aec0 99bb
000000a0: 0b6a 3f3b 52f9 303b 8e76 f93a 1f82 5d3b
000000b0: 3f3a 2fbb 0bb6 3fbb 28fc 843b c7f6 26bb
000000c0: 1e37 a6bb 5257 533a 3280 903a 4921 bfb9
000000d0: 6a0b b4bb 504f 5f3b 67f5 43b7 7bf4 a9bb
000000e0: a348 bdbb 12da 24bb afeb 7ebb 00d9 ad3a
000000f0: 5781 cc3a ed1b 85bb 700a 96bb 150b 813b
00000100: 91ed 1cbb 75aa 9339 6ba9 0b39 2ea0 8f3a
00000110: 824c 683b eb12 143c 9aa2 8cbb 6f32 f43b
00000120: 20e1 b9bb 2f8d e0bb 69a1 c3ba 2a5b bcbb
00000130: c358 27bb 9687 863a ace8 89bb 3e67 ffba
00000140: 531b a5bb b2c8 dcba af4d 2c3b 047e f83a
00000150: 94ba c0ba 734e c7ba fa86 773b f1bf 293b
00000160: 8c60 86bb 3292 883b a5ca 12bb 0efb 32bb
00000170: 6a84 ac3a fd97 b3bb 356d 60bb de26 49bb
00000180: a7de bd3b 5336 01bc 120a 7b3a 3e4c df3b
00000190: a8c3 3ebb 8387 e7ba f116 60bb 3dc9 99ba
000001a0: ff98 593b 23c5 a4bb 7d57 2b3a cf4a 37bb
000001b0: 7675 5abb 9662 c13a 8cf7 2abb 747e 63bb
000001c0: 2024 46bb fa53 a93a 8948 a3bb 27d6 e5ba
000001d0: cb86 0b3b 0163 1cbb 4f1a a23a 6335 b8ba
000001e0: d6d3 62bb bcd5 15bc ab79 9db9 78b6 013c
000001f0: 5ecd 89bb 696f aa3a 7795 663b 6cfe 5dbb

action_model._continuous_distribution.log_sigma f4 [1, 2]
-0.008426617 -0.05711731
00000000: cb0f 0abc d7f3 69bd

action_model._continuous_distribution.mu.weight f4 [2, 128]
0.03350655 -0.013503435 0.025905376 0.010394563 -0.009293487 -0.008230824 0.0019402199 -0.0029966044
-0.027363908 0.02030184 -9.743371e-05 0.0009806848 0.031015841 0.015064485 -0.023369612 0.025629256
-0.010944058 0.008236983 -0.0067376383 0.015763804 -0.026936688 0.034070477 0.029686086 0.011866586
0.008710478 0.013158851 0.003086107 0.0077212835 -0.000441354 0.0019114234 -0.026515786 -0.010668947
-0.0035507884 -0.0026003416 -0.020738734 0.016769676 -0.03497204 -0.010020653 0.009655672 -0.012408075
-0.010957422 0.016930334 0.008702748 -0.017136853 -0.018647807 -0.019721728 0.004313225 -0.008024235
0.010212161 -0.013745342 0.032516565 0.0028596055 -0.006959493 0.00982036 -0.012260881 -0.0021645173
-0.0005038024 -0.010424785 -0.013834108 0.014571618 0.023195697 0.0046817963 0.0010052875 0.01018837
-0.02017696 -0.004407216 0.0040514767 0.0224785 0.009515975 -0.04031529 -0.0010931224 0.0068389564
0.026579218 0.0018591582 -0.009715416 -0.010644253 -0.023868186 0.001026284 -0.01999721 0.023042949
0.019276913 0.0070417533 0.010381272 0.014252168 -0.009731099 -0.011550726 -4.7642316e-05 -0.0027700642
-0.008241376 0.0014702665 -0.005342353 0.017534778 0.015213924 -0.00024136741 -0.011416598 -0.06704197
0.0071126693 0.0026685412 0.009932 -0.012459363 -0.032077372 0.003805209 -0.011583745 0.017364865
0.004491793 -0.022949899 0.015428355 -0.009121441 -0.005533719 0.031170059 0.025521316 -0.011026257
0.0026087582 0.0015996936 -0.0012024945 -0.025220864 0.009197126 -0.029740663 0.016978964 -0.0153548485
0.004268917 -0.00073380175 0.0114451265 -0.002428683 -0.0070833545 0.01105027 -0.004446344 -0.02644733
0.013543074 -0.02811622 0.0052635553 0.0033589085 -0.04390308 -0.0038304524 -0.007343667 0.024514625
0.015729455 0.0015024763 0.0005904967 -0.018940993 0.017228542 0.028328484 -0.010888893 0.016313955
0.02885803 -0.012644574 0.01867919 -0.0034298114 -0.006569575 -0.0043261265 0.020376125 -0.011787393
0.008156681 -0.0043780147 0.0023480626 -0.020185431 0.019427232 0.03286074 0.009595493 -0.010975332
0.02536715 -0.0014744853 0.01614949 0.011933355 0.006467063 -0.022093045 0.0132921 -0.017694855
0.034096137 -0.0057112765 -0.0063382518 -0.015213803 0.012684324 -0.012993422 -0.01584335 0.025591208
-0.0021287207 0.015573876 -0.015584216 -0.01392282 0.014611683 0.00083507266 0.0045748176 -0.0038459047
0.010878029 0.006784138 0.01187536 -0.016717942 -0.013503251 -0.0086932145 -0.0043252967 -0.021217274
-0.014598385 0.010162928 -0.010600416 -0.01397833 0.016701795 0.011385045 -0.021975422 0.011357839
-0.011187591 -0.017308641 0.0008950421 0.018671189 -0.04894618 0.030657921 -0.020447968 0.015844576
0.01937358 -0.019337274 0.03405477 0.02800303 -0.0039463877 0.004109503 0.023349687 -0.0017018084
-0.013985211 0.0075763077 0.023421416 -0.029893206 -0.02466868 0.0037555955 -0.010813952 -0.006550687
0.012404756 -0.0017188865 -0.008174248 -0.02419988 -0.0242241 -0.0039323284 0.010861497 -0.020848963
0.030312069 -0.029403135 -0.00095721596 0.020127892 -0.012361993 -0.0062943497 -4.336737e-05 -0.0014464925
-0.037942823 -0.0068457737 -0.02634114 0.0053428956 -0.0030024091 0.011591337 0.004269885 0.013383313
0.01738519 -0.00017470561 -0.0009846822 0.023023441 0.00025650338 0.001482168 0.03553531 -0.0031100735
00000000: 2a3e 093d 833d 5dbc 8337 d43c f54d 2a3c
00000010: b643 18bc 94da 06bc fa4e fe3a ae62 44bb
00000020: 462a e0bc 0b50 a63c 5355 ccb8 528a 803a
00000030: ef14 fe3c 08d1 763c a171 bfbc 72f4 d13c
00000040: b54e 33bc 69f4 063c 68c7 dcbb 1823 813c
00000050: 54aa dcbc 7c8d 0b3d 3c30 f33c 126c 423c
00000060: 65b6 0e3c 3998 573c 4940 4a3b d202 fd3b
00000070: 8865 e7b9 ba88 fa3a a237 d9bc cfcc 2ebc
00000080: 58b4 68bb 7e6a 2abb 47e4 a9bc 8f60 893c
00000090: d83e 0fbd aa2d 24bc d332 1e3c 3d4b 4bbc
000000a0: c286 33bc 7cb1 8a3c f995 0e3c 9662 8cbc
000000b0: 49c3 98bc 768f a1bc f455 8d3b 1578 03bc
000000c0: e850 273c 2534 61bc 1730 053d 3868 3b3b
000000d0: 750c e4bb 93e5 203c dde1 48bc 93da 0dbb
000000e0: 9b11 04ba b8cc 2abc 74a8 62bc ccbd 6e3c
000000f0: e704 be3c c169 993b dac3 833a 1fed 263c
00000100: 274a a5bc 686a 90bb 40c2 843b d524 b83c
00000110: e4e8 1b3c a521 25bd 1a47 8fba 5319 e03b
00000120: a9bc d93c ffae f33a 682d 1fbc 3c65 2ebc
00000130: 3787 c3bc 6084 863a 30d1 a3bc 91c4 bc3c
00000140: 9eea 9d3c 82be e63b 3616 2a3c ed81 693c
00000150: 306f 1fbc 423f 3dbc 8cd3 47b8 f789 35bb
00000160: d606 07bc f5b5 c03a e80e afbb 18a5 8f3c
00000170: d343 793c 9217 7db9 af0c 3bbc 4d4d 89bd
00000180: 6511 e93b b1e2 2e3b d4b9 223c 5b22 4cbc
00000190: 9063 03bd d060 793b bfc9 3dbc c340 8e3c
000001a0: e42f 933b 6d01 bcbc 36c7 7c3c 1972 15bc
000001b0: 3354 b5bb 5a58 ff3c 1412 d13c 79a7 34bc
000001c0: b3f7 2a3b cfac d13a 059d 9dba fc9b cebc
000001d0: 8baf 163c b1a2 f3bc 7817 8b3c e792 7bbc
000001e0: 45e2 8b3b 9a5c 40ba 5784 3b3c 8a2a 1fbb
000001f0: 7c1b e8bb 310c 353c a3b2 91bb 12a8 d8bc
00000200: c5e3 5d3c fd53 e6bc e779 ac3b 2221 5c3b
00000210: b7d3 33bd 5408 7bbb 25a3 f0bb e5d2 c83c
00000220: 0fdb 803c bdee c43a 90cb 1a3a 242a 9bbc
00000230: df22 8d3c 2311 e83c 5467 32bc d8a4 853c
00000240: ad67 ec3c 302b 4fbc 1a05 993c b0c6 60bb
00000250: 9745 d7bb 2ec2 8dbb d5eb a63c e91f 41bc
00000260: 9aa3 053c 7375 8fbb f4e1 193b eb5b a5bc
00000270: dc25 9f3c fc98 063d 6a36 1d3c e1d1 33bc
00000280: c5ce cf3c 8443 c1ba ef4b 843c 1e84 433c
00000290: a8e9 d33b 79fc b4bc 1cc7 593c cdf4 90bc
000002a0: 64a8 0b3d a925 bbbb 1cb1 cfbb 5143 79bc
000002b0: e9d1 4f3c 5de2 54bc eac9 81bc a7a4 d13c
000002c0: 0282 0bbb 9229 7f3c f154 7fbc 8a1c 64bc
000002d0: d765 6f3c c7e8 5a3a 5ae8 953b 930b 7cbb
000002e0: c339 323c 794d de3b df90 423c 11f4 88bc
000002f0: bd3c 5dbc fc6d 0ebc 38bb 8dbb d9cf adbc
00000300: 112e 6fbc 6982 263c 5ead 2dbc 5e05 65bc
00000310: 34d2 883c 5788 3a3c cd05 b4bc 3b16 3a3c
00000320: 284c 37bc daca 8dbc 42a1 6a3a 52f4 983c
00000330: ca7b 48bd 5226 fb3c 7f82 a7bc 7ccc 813c
00000340: 58b5 9e3c 3469 9ebc 047d 0b3d 9c66 e53c
00000350: b350 81bb 02a9 863b d847 bf3c 370f dfba
00000360: 3a22 65bc ad42 f83b 45de bf3c 99e2 f4bc
00000370: f915 cabc 7020 763b 012d 31bc 25a7 d6bb
00000380: 513d 4b3c 434c e1ba 48ed 05bc d43e c6bc
00000390: 9f71 c6bc c3da 80bb 6cf4 313c 72cb aabc
000003a0: 0451 f83c d8de f0bc aded 7aba 40e3 a43c
000003b0: f589 4abc d540 cebb 5ce5 35b8 3c98 bdba
000003c0: ef69 1bbd 8352 e0bb 60c9 d7bc 7513 af3b
000003d0: 11c4 44bb 97e9 3d3c 64ea 8b3b af45 5b3c
000003e0: 636b 8e3c 2e31 37b9 7410 81ba a89b bc3c
000003f0: 4d7b 8639 4e45 c23a 798d 113d 60d2 4bbb

action_model._continuous_distribution.mu.bias f4 [2]
0.0014270343 0.002029596
00000000: 530b bb3a f802 053b

action_model._discrete_distribution.branches.0.weight f4 [2, 128]
0.01651641 0.013201068 0.001566243 0.000464409 -0.0016178229 0.012581517 0.0070512085 0.024392057
-0.0020728149 0.002485174 0.007925918 0.0003879939 0.0049177012 -0.00087914546 0.00016868848 0.012397409
0.014344238 -0.024421418 -0.0017597438 0.017931899 0.024380315 0.0050056945 -0.007256734 -0.013405848
0.002040981 0.003044449 0.014752432 7.06038e-06 0.003928158 0.008584453 -0.0002682143 -0.0068079997
-0.0011335458 0.0036905636 0.0030543252 -0.0053953235 -0.0035907917 0.0029542975 -0.0073008356 -0.009920722
-0.0043889163 0.012648979 -0.0027282261 -0.0007651673 0.0020702402 -0.0044016186 -0.011623471 -0.018947624
-0.007269662 0.009996367 0.0014016333 0.0174425 -0.0049658413 0.0013328667 0.010037769 0.0041267504
0.0028562192 0.0069071143 -0.023761991 0.0024325224 -0.00014807175 0.0030393193 0.013512668 0.009920125
0.011091701 -0.0023371163 0.013077931 0.009072796 0.0010145794 -0.014916405 -0.0034515588 -0.024438277
0.016904065 0.00876609 -0.007244347 0.016094042 -0.007551645 0.0012274293 0.0074207177 0.014164939
0.004024285 -0.005503718 0.01073497 0.0098246215 -0.0040083486 0.009256126 -0.021840956 0.0121171195
-0.007964724 0.020799227 -0.021844449 0.018494194 0.00039896125 0.006474257 -0.017198341 0.007218597
-0.022576332 -0.0038141555 0.0073303767 0.014879312 -0.0061274087 -0.010660709 0.008995433 0.019103978
0.014959885 -0.016982032 0.00018918504 -0.018925631 -0.00051385496 -0.0027766323 0.00012069118 -0.0209341
-0.005995123 0.012294054 -0.0076520825 -0.0049482943 -0.0129029285 0.0101582855 -0.00811791 -0.009123335
0.0025297368 -0.0074972524 0.011623537 -0.007818922 -0.013072976 -0.0026332922 -0.015258115 -0.0075006196
0.00070247456 -0.009128281 -0.01568051 -0.0009421627 -0.0020089995 0.01379055 0.017570423 -0.004429478
-0.0034304694 -0.0025468194 0.00067174464 0.010937162 -0.011908781 -0.0049065202 0.009491051 -0.023537906
-0.027765213 -0.002176799 0.013247655 0.008565997 0.0039297426 0.0067061046 0.0047920058 0.0039821523
-0.0024717161 -0.006184347 -0.022642286 0.0036084976 -0.017809734 0.018469807 -0.011583369 0.0033644075
0.023645554 -0.0010383148 0.011999788 -0.008838964 0.0017317849 0.0032998554 -0.014454408 0.0050308243
0.0007182058 -0.0038033095 -0.011523187 0.0019816011 -0.010125419 0.0012403396 0.0030193212 -0.0004905974
0.0062509766 0.01378641 0.017847942 -0.007936842 -0.012576685 -0.013605411 -0.011896216 0.0086114155
0.0023653228 0.0005431489 0.031545397 -0.025448145 -0.014257574 -0.008973261 0.0010378511 -0.010618832
-0.0022226654 0.009981979 -0.0004723189 -0.017389523 -0.01529107 0.007276993 -0.0025335904 0.016445024
-0.013329724 0.001142054 0.008548614 -0.00512408 -0.0031007736 -0.0010216427 -0.022583317 0.0011359492
0.0022127416 -0.0046799155 -0.0019289241 0.0062768576 0.00110039 0.0062647667 0.007833839 -0.005308356
0.0006353782 -0.014384175 0.011903997 -0.0131891575 -0.008935105 -0.0015315148 0.007539134 -0.0207314
0.025568768 -0.019200271 -0.004082553 0.0013625273 -0.002076576 0.02031194 -0.0075113387 0.0036387579
0.011935005 -0.007990978 0.0008995412 0.0041505345 0.013751482 0.0020972402 0.004701013 0.013318158
0.015513503 -0.02324852 0.019847047 0.018563325 0.004156405 -0.015316129 -0.006891538 -0.008048746
-0.0046095676 0.0023080725 -0.019026652 -0.012077291 0.0040817084 -0.011617429 -0.014288319 0.0052222493
00000000: 6c4d 873c 4b49 583c 654a cd3a ec7b f339
00000010: 210d d4ba b522 4e3c d30d e73b dad1 c73c
00000020: 10d8 07bb 4dde 223b b6db 013c a96b cb39
00000030: ab24 a13b 7476 66ba f8e1 3039 811e 4b3c
00000040: 1804 6b3c 6d0f c8bc 34a7 e6ba ebe5 923c
00000050: 3ab9 c73c cf06 a43b e6c9 edbb 34a4 5bbc
00000060: fbc1 053b 6185 473b 2fb4 713c 34e8 ec36
00000070: c7b7 803b cea5 0c3c 1d9f 8cb9 a415 dfbb
00000080: 7c93 94ba 62dd 713b 132b 483b 41cb b0bb
00000090: 7d53 6bbb e39c 413b d93b efbb 868a 22bc
000000a0: e6d0 8fbb aa3d 4f3c 0acc 32bb 8295 48ba
000000b0: deac 073b 743b 90bb 5f70 3ebc 0c38 9bbc
000000c0: 5836 eebb cdc7 233c 02b7 b73a 93e3 8e3c
000000d0: 7fb8 a2bb 96b3 ae3a 7475 243c b139 873b
000000e0: 682f 3b3b 1355 e23b 82a8 c2bc f46a 1f3b
000000f0: b543 1bb9 512f 473b 3d64 5d3c 0588 223c
00000100: f7b9 353c 4e2a 19bb d144 563c 11a6 143c
00000110: a3fb 843a f063 74bc 8c33 62bb c832 c8bc
00000120: 657a 8a3c a59f 0f3c fd61 edbb a7d7 833c
00000130: ca73 f7bb b1e1 a03a 7e29 f33b 0f14 683c
00000140: 26de 833b 8858 b4bb bae1 2f3c 73f7 203c
00000150: 7758 83bb 02a7 173c ceeb b2bc e286 463c
00000160: 797e 02bc 2463 aa3c 21f3 b2bc 2381 973c
00000170: ac2b d139 0126 d43b 89e3 8cbc fb89 ec3b
00000180: 00f2 b8bc e9f6 79bb a833 f03b 5cc8 733c
00000190: 6ec8 c8bb 41aa 2ebc 9561 133c f27f 9c3c
000001a0: 4e1a 753c e71d 8bbc f95f 4639 ed09 9bbc
000001b0: 39b4 06ba 29f8 35bb 951b fd38 fd7d abbc
000001c0: bd72 c4bb 006d 493c 52be fabb 4d25 a2bb
000001d0: ce66 53bc f06e 263c fb00 05bc 0a7a 15bc
000001e0: f1c9 253b 83ab f5bb a670 3e3c f01a 00bc
000001f0: 0930 56bc 5093 2cbb 2cfd 79bc c2c7 f5bb
00000200: 4526 383a c98e 15bc 6a74 80bc 78fb 76ba
00000210: 6ba9 03bb c2f1 613c d9ef 8f3c 2825 91bb
00000220: bad1 60bb 8ae8 26bb 0518 303a c831 333c
00000230: 0c1d 43bc e0c6 a0bb 5a80 1b3c 91d2 c0bc
00000240: df73 e3bc a1a8 0ebb b10c 593c 6558 0c3c
00000250: 12c5 803b e2be db3b 4206 9d3b b77c 823b
00000260: 84fc 21bb 10a6 cabb 517c b9bc 8b7c 6c3b
00000270: b8e5 91bc fe4d 973c 2cc8 3dbc 647d 5c3b
00000280: 52b4 c13c 1018 88ba c29a 443c 4dd1 10bc
00000290: 0ffd e23a 6342 583b 2ed2 6cbc 9dd9 a43b
000002a0: fa45 3c3a f240 79bb c0cb 3cbc c0dd 013b
000002b0: 16e5 25bc e492 a23a cedf 453b 6f9b 00ba
000002c0: fed4 cc3b 65e0 613c d935 923c 8709 02bc
000002d0: 710e 4ebc 3be9 5ebc 59e8 42bc e516 0d3c
000002e0: 8803 1b3b 1b62 0e3a bf35 013d a178 d0bc
000002f0: 9a98 69bc 9604 13bc 8108 883a 9cfa 2dbc
00000300: 23aa 11bb 748b 233c 92a1 f7b9 7974 8ebc
00000310: 6587 7abc d773 ee3b 980a 26bb b7b7 863c
00000320: ea64 5abc f9b0 953a 7c0f 0c3c e6e7 a7bb
00000330: 5936 4bbb a4e8 85ba a600 b9bc 21e4 943a
00000340: a503 113b fa59 99bb f4d3 fcba 19ae cd3b
00000350: f63a 903a ac48 cd3b 8159 003c b8f1 adbb
00000360: 828f 263a 9aab 6bbc fb08 433c 5617 58bc
00000370: 8c64 12bc 1cbd c8ba d70a f73b e6d4 a9bc
00000380: 9875 d13c e349 9dbc f0c6 85bb d496 b23a
00000390: 2a17 08bb 3a65 a63c ad21 f6bb 3a78 6e3b
000003a0: 0a8b 433c 97ec 02bc 30cf 6b3a 3501 883b
000003b0: e54d 613c da71 093b f50a 9a3b 6734 5a3c
000003c0: 592c 7e3c ae73 bebc 4696 a23c 1d12 983c
000003d0: 7432 883b 80f0 7abc 69d2 e1bb e3de 03bc
000003e0: db0b 97bb 0843 173b c8dd 9bbc d4df 45bc
000003f0: dabf 853b 0757 3ebc 8e19 6abc 671f ab3b

action_model._discrete_distribution.branches.0.bias f4 [2]
0.005113565 -0.0051135668
00000000: b18f a73b b58f a7bb

action_model._discrete_distribution.branches.1.weight f4 [2, 128]
-0.007247266 -0.0096817175 0.015177459 -0.0012847834 -0.0071681775 0.01384897 -0.0020905638 0.022574848
-8.28576e-05 0.004345849 0.012550793 -0.013306468 0.006107717 0.013420467 -0.0034417058 -0.004746434
0.013038218 -0.013563891 0.00014076314 0.0017385713 -0.015330273 0.00872963 -0.010271403 -0.001650721
0.0059134793 -0.004701997 0.007625207 0.017805597 0.0003211619 0.0069575375 -0.015114889 -0.0027633468
0.0035294574 -0.008023628 -0.0037926855 -0.0065798713 0.009478683 -0.0035804124 0.013439045 -1.6015374e-05
0.002631503 -0.00567352 -0.014205724 0.0083102565 0.009969965 -0.0004525562 -0.016510839 -0.014384176
-0.004023847 -0.0010334728 -0.002793783 -0.00830162 0.0063898065 0.001659776 0.010021517 0.0095463535
4.7328893e-05 0.008691217 0.010090296 0.004038689 -0.009724358 0.02089532 -0.0049111857 -0.010832954
0.00015352914 0.0035792917 -0.00028476288 -0.0009197719 -0.0043683858 -0.0230249 -0.0064158784 0.0019869122
0.010455865 -7.0073024e-06 0.017735345 0.0033981372 -0.0054754214 0.005342712 0.0069733174 0.016537696
0.007167258 -0.0024573763 0.00061741995 -0.0048025823 -0.01479244 -0.00034580054 -0.001483216 0.0038351
0.012287084 -0.016721014 0.0010524546 0.008267975 0.014262987 0.006769171 -0.018233912 -0.009196235
-0.024773654 -0.009459524 0.015146494 -0.0038895723 0.015142396 -0.024972202 0.0030851725 0.0024470564
0.027618688 0.001205935 -0.0049092066 0.0010992527 0.0048329863 0.012814659 0.0012228157 0.00056326523
-0.0042778137 -0.00016363084 -0.02392862 0.017890217 0.00569228 0.005390647 -0.009402779 0.0006280151
0.0074187093 -0.004946024 0.001115395 0.0075401217 -0.016585583 -0.017706817 0.0007301863 -0.0028450808
-0.018095685 0.014279642 -0.004378688 0.00906167 0.0065999334 -0.00030789914 -0.005937881 -0.0046631354
-0.013924455 -0.009627118 -0.007682521 -0.003785409 -0.009354098 -0.0067604487 0.0036403683 0.008292745
-0.0019368874 0.009947628 -0.008931217 -0.008909313 0.000992714 -0.0016197463 0.003980562 0.005930553
0.0036897082 0.012668804 0.0010483302 -0.010388559 -0.0059335195 -0.00805091 -0.0042681643 -0.008790672
0.0054231435 0.002932484 0.0026713766 -4.482768e-05 -0.023157347 0.0032072936 -0.00453342 -0.004349372
-0.0042869546 0.009461206 -0.012044145 0.011915274 -0.008457285 0.0174291 0.00014756373 0.013039286
-0.0022130567 -0.013803146 -0.02001772 -0.01752763 0.011055435 -0.0023832668 -0.011289352 -0.00033995643
0.0037390455 -0.008778087 0.006518386 -0.012965945 0.00662634 0.006019768 -0.015689611 0.017877813
-0.010864889 -0.0024991923 0.012847131 -0.0022139426 0.005116808 0.022632178 -0.0017837462 0.0034158463
0.0036614663 -0.00269407 -0.0023524116 0.011482541 0.0022670596 -0.0016361948 0.0018481775 -0.013691678
0.0009242312 0.00026273364 0.0068483003 -0.0010945721 0.012595132 0.02067822 -0.0072001857 -0.015132442
0.0044391965 0.015848735 0.003240521 0.009940796 -0.0060275057 -0.0048190756 0.0073084137 0.008590381
0.010205472 0.006441324 0.0031683326 0.012191809 0.0029116978 -0.0034904042 -0.018688852 0.00112055
-0.010635308 -0.009848235 0.0008369505 -0.013831955 -0.0017589045 0.0041355975 0.00038594045 -0.011085271
-0.010653077 -0.031062935 0.004976963 0.004950104 -0.0013140466 0.014427286 -0.013024676 0.009473526
-0.018866317 0.0046465555 0.008045487 -0.014888945 -0.0050613335 0.00086363807 0.00066280836 0.017925056
00000000: 797a edbb 11a0 1ebc e1aa 783c 2d66 a8ba
00000010: 08e3 eabb cae6 623c d701 09bb e3ee b83c
00000020: d6c3 adb8 a067 8e3b d7a1 4d3c 5f03 5abc
00000030: 3e23 c83b 85e1 5b3c 3e8e 61bb f987 9bbb
00000040: 409e 553c 153b 5ebc d199 1339 c6e0 e33a
00000050: d32b 7bbc b906 0f3c 6349 28bc 015d d8ba
00000060: dcc5 c13b 3613 9abb dfdc f93b 0bdd 913c
00000070: 9f61 a839 0efc e33b 70a4 77bc 4419 35bb
00000080: 784e 673b 8975 03bc b48e 78bb f69b d7bb
00000090: 7a4c 1b3c 5aa5 6abb 712f 5c3c c158 86b7
000000a0: 4b75 2c3b efe8 b9bb 20bf 68bc be27 083c
000000b0: 1059 233c 1145 edb9 bd41 87bc 9bab 6bbc
000000c0: 7ada 83bb 9875 87ba e717 37bb 8503 08bc
000000d0: 9561 d13b d78c d93a 4a31 243c 4f68 1c3c
000000e0: 0383 4638 9b65 0e3c c551 253c fb56 843b
000000f0: ea52 1fbc aa2c ab3c 03ee a0bb b47c 31bc
00000100: aafc 2039 8d92 6a3b 3a4c 95b9 d91c 71ba
00000110: ad24 8fbb b79e bcbc 4a3c d2bb db36 023b
00000120: 144f 2b3c 4520 ebb6 b749 913c 48b3 5e3b
00000130: 2a6b b3bb eb11 af3b 6d80 e43b 107a 873c
00000140: 51db ea3b ef0b 21bb 5ada 213a fb5e 9dbb
00000150: fe5b 72bc 904c b5b9 7868 c2ba 4d56 7b3b
00000160: c44f 493c 82fa 88bc 84f2 893a 6776 073c
00000170: 4eaf 693c eccf dd3b 495f 95bc ceab 16bc
00000180: 1ef2 cabc 1ffc 1abc 0029 783c 32e8 7ebb
00000190: d017 783c 8192 ccbc 9b30 4a3b cb5e 203b
000001a0: 9640 e23c 7710 9e3a 69dd a0bb cd14 903a
000001b0: 075e 9e3b 93f4 513c e346 a03a 17a8 133a
000001c0: e72c 8cbb 5294 2bb9 f405 c4bc 818e 923c
000001d0: 4e86 ba3b 06a4 b03b 1d0e 1abc 61a1 243a
000001e0: a518 f33b 4212 a2bb 7232 923a 2013 f73b
000001f0: 7dde 87bc e30d 91bc f969 3f3a 8974 3abb
00000200: 673d 94bc 29f5 693c 197b 8fbb 6677 143c
00000210: 4144 d83b 866d a1b9 8e92 c2bb 37cd 98bb
00000220: 6623 64bc 0fbb 1dbc a8bd fbbb a014 78bb
00000230: ee41 19bc c186 ddbb 3f93 6e3b 4bde 073c
00000240: 28df fdba 60fb 223c 3d54 12bc 5ef8 11bc
00000250: f41d 823a ab4d d4ba 606f 823b 1655 c23b
00000260: 08cf 713b d190 4f3c 2068 893a c634 2abc
00000270: f86d c2bb f7e7 03bc f5db 8bbb c006 10bc
00000280: a0b4 b13b eb2e 403b 4312 2f3b 5b05 3cb8
00000290: 7ab4 bdbc 7531 523b 158d 94bb 2d85 8ebb
000002a0: 9579 8cbb 2d03 1b3c ce54 45bc 4838 433c
000002b0: 6d90 0abc 79c7 8e3c 56bb 1a39 bba2 553c
000002c0: ee08 11bb 9726 62bc 34fc a3bc 1b96 8fbc
000002d0: db21 353c 9530 1cbb f9f6 38bc 2e3c b2b9
000002e0: c60a 753b f7d1 0fbc 2f98 d53b 1d6f 54bc
000002f0: c521 d93b 7941 c53b 8087 80bc 7e74 923c
00000300: a602 32bc 7dc9 23bb c67c 523c cb17 11bb
00000310: e6aa a73b 1e67 b93c 97cc e9ba 64dc 5f3b
00000320: 36f5 6f3b ff8e 30bb eb2a 1abb 4521 3c3c
00000330: f392 143b 9675 d6ba 8c3e f23a 0f53 60bc
00000340: 1b48 723a 83bf 8939 b567 e03b bf77 8fba
00000350: d05b 4e3c 5f65 a93c 89ef ebbb 10ee 77bc
00000360: ae76 913b 35d5 813c ec5e 543b b8de 223c
00000370: 6282 c5bb 56e9 9dbb 6b7b ef3b abbe 0c3c
00000380: da34 273c be11 d33b cda3 4f3b 27c0 473c
00000390: 2fd2 3e3b 44bf 64bb 5d19 99bc 6bdf 923a
000003a0: b73f 2ebc 7e5a 21bc cc66 5b3a 6d9f 62bc
000003b0: 0b8b e6ba e883 873b 0d58 ca39 ff9e 35bc
000003c0: 3e8a 2ebc b277 febc cb15 a33b 7b34 a23b
000003d0: 163c acba 6c60 6c3c 7365 55bc d936 1b3c
000003e0: 898d 9abc 2242 983b 38d1 033c c3f0 73bc
000003f0: 8bd9 a5bb c565 623a 51c0 2d3a 91d7 923c

action_model._discrete_distribution.branches.1.bias f4 [2]
0.004683042 -0.0046830415
00000000: 3474 993b 3374 99bb
