UnityProject/results/testModel10/AICar/AICar-82118.onnx (onnx, 133264 bytes, 12 tensors)

discrete_action_output_shape f4 [1, 2]
0	0x40000000	2.0
1	0x40000000	2.0

network_body._body_endoder.seq_layers.0.weight f4 [128, 117]
0	0xbe129b99	-0.14317168
1	0x3c933a0d	0.017972017
2	0xbe1c4785	-0.15261658
3	0xbc6f8793	-0.014619726
4	0xbdd9fb77	-0.10643666
5	0x3bde813d	0.0067903087
6	0x3c9375d9	0.01800053
7	0x3de5e303	0.1122494
8	0x3d7c0d71	0.061536256
9	0xba1bed11	-0.00059481064
10	0x3b320712	0.0027164859
11	0x3db9f766	0.09080391
12	0x3da794f3	0.08182707
13	0x3d0e7721	0.03478158
14	0x3dcad549	0.09903962
15	0xbd8181fd	-0.063236214
16	0xbb8d7076	-0.004316385
17	0xbdc0bbb1	-0.09410799
18	0xbdb4f8d7	-0.08836525
19	0x3d1c76c0	0.038199186
20	0x3c60a9d8	0.013712369
21	0x3cd1a9a3	0.025593584
22	0xbb46b8b2	-0.003032249
23	0x3d5db64c	0.05412893
24	0xbcbc0a17	-0.02295403
25	0xbd636afc	-0.05552195
26	0x3daa85bb	0.08326288
27	0xbcbd54d8	-0.023111746
28	0x3b951a5b	0.004550261
29	0xbd38675c	-0.045020446
30	0x3da68eb1	0.08132685
31	0xbce59a3b	-0.028027644
32	0x3c94aadd	0.01814788
33	0xbe580939	-0.21097268
34	0x3c3ec56f	0.0116437515
35	0xbcfc8ab8	-0.030827865
36	0xbdcd3dbd	-0.10021541
37	0x3d44a52f	0.048009094
38	0xbccb8280	-0.0248425
39	0x3e1a224f	0.1505215
40	0xbdb6667c	-0.08906266
41	0xbd817e94	-0.06322971
42	0xbe324984	-0.17410856
43	0xbe3bc709	-0.18337645
44	0x3cd68d38	0.026190385
45	0xbe28b5f9	-0.16475667
46	0xbd554c18	-0.05207452
47	0xbe101bb5	-0.1407307
48	0x3bffe352	0.007809081
49	0x3d5e2ef9	0.054244015
50	0xbd4384dc	-0.047734126
51	0x3ac8ed17	0.0015329447
52	0x3d8fdbdf	0.07024359
53	0xbd5914ad	-0.052998234
54	0xbc0cb7c6	-0.008588737
55	0x3dbb864b	0.09156474
56	0xbe5c00a7	-0.21484624
57	0xbdf2f7b8	-0.11863655
58	0x3d99875a	0.074965194
59	0xbd93d505	-0.072183646
60	0x3b583558	0.003299078
61	0x3c45de18	0.012076877
62	0xbcdcbbc2	-0.026944999
63	0xbdae329f	-0.08505749
64	0xbcc88fa8	-0.024482563
65	0xbd3f9463	-0.046772372
66	0xbd5299be	-0.05141615
67	0x3c25c980	0.010118842
68	0xbd92c258	-0.071659744
69	0xbd1b03ed	-0.03784554
70	0xbe1a5618	-0.15071905
71	0xbd82ea82	-0.06392385
72	0xbbdf33db	-0.0068116016
73	0x3db10c10	0.08644879
74	0xbd1bd1a5	-0.03804173
75	0xbc6a041f	-0.014283209
76	0xbe2d8262	-0.16944268
77	0x3e1f9666	0.15584716
78	0x392de97f	0.0001658555
79	0xbe1f3724	-0.15548378
80	0xbd9c186e	-0.07621847
81	0xbd6add26	-0.05733981
82	0xbc53b8d7	-0.012922487
83	0xbc4aa481	-0.012368322
84	0x3b895898	0.0041914694
85	0xbe16f3ce	-0.14741442
86	0x3dd99ab8	0.106252134
87	0x3e27af74	0.16375524
88	0x3df308b0	0.118668914
89	0xbcaddc80	-0.021223307
90	0x3cc24ca3	0.023718184
91	0xbdfd6083	-0.12371924
92	0xbbba739e	-0.005690052
93	0xbc553b1c	-0.013014581
94	0x3dffa7ca	0.12483175
95	0x3cffd064	0.031227298
96	0x3d3101d8	0.04321465
97	0x3d7b71e4	0.06138791
98	0x3d4e116d	0.050309587
99	0x3e1c3042	0.15252784
100	0xbe4beb46	-0.19913968
101	0x3d51a2fa	0.051180817
102	0xbb8df8c7	-0.004332635
103	0x3de2e076	0.11077969
104	0x3d82ea3c	0.06392333
105	0xbdda4342	-0.1065736
106	0xbd458e1b	-0.048231225
107	0xbdd12fb2	-0.10214175
108	0x3cafd3d5	0.021463314
109	0x3d74170c	0.05959229
110	0x3c6d4b12	0.01448323
111	0x3e03e07a	0.128786
112	0xbc8ea5e0	-0.01741308
113	0x3d737b69	0.059443865
114	0x3e241963	0.1602531
115	0x3db6849c	0.08912012
116	0xbd2ddf3c	-0.04244922
117	0x3ddca0ad	0.10772834
118	0xbe1ede1f	-0.1551442
119	0xbdbab44d	-0.09116421
120	0x3e2c2912	0.16812542
121	0xbdd93a9b	-0.10606881
122	0x3dc45288	0.09586054
123	0xbd941523	-0.07230594
124	0xbc02f237	-0.007992319
125	0xbdaacdbd	-0.08340023
126	0x3e1daec9	0.15398706
127	0xbd6b6f53	-0.057479214
128	0x3dcf7cd0	0.10131228
129	0xbd5f4231	-0.054506484
130	0xbdbcf2bc	-0.092259854
131	0x3d23081d	0.03980266
132	0xbdb59f06	-0.08868222
133	0x3e37cd5f	0.17949437
134	0x3d89d26b	0.06729587
135	0xbd02cedf	-0.03193557
136	0x3d8fff94	0.070311695
137	0x3e2739f7	0.16330706
138	0xbd9480b6	-0.07251112
139	0x3da34973	0.07972994
140	0x3ca0ffcb	0.019653222
141	0xbc642f3a	-0.013927275
142	0x3cac85a3	0.021059817
143	0x3c5f220e	0.013618959
144	0xbcdac448	-0.026704922
145	0xbd116951	-0.03550083
146	0xbbd15b59	-0.0063890633
147	0x3a60fcf8	0.0008582617
148	0xbddc162a	-0.10746415
149	0x3d648f7c	0.0558009
150	0xbcc996ff	-0.024608133
151	0xbdc55b30	-0.09636533
152	0x3dbcc240	0.09216738
153	0xbd5c1ff3	-0.053741407
154	0x3d86ee8c	0.06588468
155	0xbcfca5be	-0.03084075
156	0xbdbe9cd0	-0.09307253
157	0x3d2c844a	0.04211835
158	0xbe16075c	-0.14651245
159	0x3e315092	0.17315891
160	0xbdb5b80e	-0.08872996
161	0xbbdf68a3	-0.0068178936
162	0x3dbcb169	0.09213526
163	0x3e48e15b	0.19617216
164	0x3acc4cef	0.0015586893
165	0xbc33ba61	-0.010969729
166	0xbd6ab61d	-0.057302583
167	0x3a53e8f5	0.00080837245
168	0x3e1207ba	0.1426076
169	0xbd9d559b	-0.076823436
170	0x3cdc85b6	0.026919227
171	0xbdfb0269	-0.12256319
172	0x3d901c73	0.07036676
173	0x3da91678	0.08256239
174	0x3db5fdc6	0.08886294
175	0x3d8e19ee	0.069385394
176	0xbda464fd	-0.080270745
177	0x3e46b78c	0.19405955
178	0xbca4d9c5	-0.020123372
179	0x3b1bef2e	0.0023793685
180	0xbd9d4623	-0.07679393
181	0x3d818977	0.063250475
182	0xbc70e35d	-0.014702645
183	0x3dc4fecd	0.09618912
184	0xbc52fad8	-0.012877189
185	0x3d919795	0.0710899
186	0x3b239d9a	0.0024965764
187	0x3d30a8b9	0.043129656
188	0xbd815a62	-0.06316067
189	0x3d559a46	0.05214908
190	0x3cf2a35f	0.029618917
191	0xbdf2dbb3	-0.118583106
192	0xbc864dd2	-0.01639453
193	0x3e370b8e	0.17875502
194	0x3db04db6	0.08608572
195	0xbd2a9161	-0.04164255
196	0x3d48fc17	0.049068537
197	0xbdb29f75	-0.0872182
198	0xbc66be4b	-0.014083455
199	0x3d4102b4	0.04712172
200	0xbe07ba49	-0.13254656
201	0x3cf61862	0.030040924
202	0x3e08c9f2	0.13358286
203	0xbd1ceb9c	-0.038310632
204	0x3d509646	0.050924562
205	0xbd1e3041	-0.038620237
206	0xbcba6cb3	-0.02275691
207	0x3cc01c1c	0.023450904
208	0x3d6652b7	0.056231227
209	0x3de394ac	0.11112341
210	0xbdf98776	-0.1218404
211	0x3d8a5161	0.06753803
212	0xbdb0c5d9	-0.086314864
213	0x3d24d050	0.040237725
214	0xbe341d41	-0.17589284
215	0xbe76f421	-0.24116565
216	0x3ce88325	0.028382847
217	0xbb83ab2a	-0.004018207
218	0x3b3c9e77	0.0028780976
219	0xbd8057ae	-0.062667236
220	0x3da48c6b	0.08034595
221	0x3d812ed9	0.063077636
222	0x3d676307	0.056490924
223	0x3d869707	0.06571775
224	0x3e7e655f	0.24843358
225	0xbbc077fe	-0.005873679
226	0x3e07bc42	0.13255408
227	0xbdd1e9f1	-0.10249699
228	0x3a8a3bc7	0.001054638
229	0x3c94560c	0.018107437
230	0x3dc99c00	0.09844208
231	0x3d1f15e7	0.038839247
232	0x3ded8969	0.115984745
233	0xbbf666e4	-0.0075195897
234	0x3e0393c4	0.12849337
235	0xbcfdb291	-0.030968936
236	0xbdbfda72	-0.09367837
237	0xbcf17521	-0.029474797
238	0x3dbef5bc	0.09324214
239	0xbe0ea7e3	-0.13931231
240	0xbcc6f293	-0.02428559
241	0xbe64a0e3	-0.22326998
242	0xbe4a26d1	-0.1974137
243	0x3e50343c	0.20332426
244	0x3e3abdbe	0.18236443
245	0xbd093148	-0.033494264
246	0x3c880baa	0.016607124
247	0xb9fed316	-0.00048603927
248	0xbd3459f9	-0.044031117
249	0xbd3aa012	-0.04556281
250	0x3dd0f09f	0.10202145
251	0xbd98343a	-0.074318364
252	0xbe2eea51	-0.17081572
253	0xbd9a042c	-0.07520327
254	0x3e188854	0.14895755
255	0x3e041d44	0.12901789

network_body._body_endoder.seq_layers.0.bias f4 [128]
0	0xbb6ed545	-0.0036443037
1	0x3b2c5111	0.0026293437
2	0x3bddd8df	0.006770238
3	0x3b203139	0.0024443401
4	0xbbecf92e	-0.007231853
5	0x3bc77745	0.006087216
6	0x39689946	0.00022182343
7	0xbb5bcfad	-0.0033540532
8	0x3b7c8fc0	0.003853783
9	0xbbeaf234	-0.007169986
10	0xbbd5cb28	-0.0065244623
11	0xbc12dbd5	-0.008963545
12	0xbc3c8cca	-0.011508176
13	0x3c14b5fa	0.00907659
14	0x3b06e9f5	0.0020586227
15	0x3b569299	0.0032741188
16	0xba758ac9	-0.0009366689
17	0x3b91f7e8	0.0044546016
18	0x3b658b8b	0.00350258
19	0x3bbe2c25	0.0058036023
20	0x3b556677	0.0032562295
21	0x3a2dea7d	0.0006634368
22	0xbbb93c33	-0.0056529283
23	0xbbd6132e	-0.006533048
24	0x3c8dd077	0.017311318
25	0xbb9b6cbc	-0.0047431868
26	0xbbce41ce	-0.0062944656
27	0xbbd4e644	-0.0064971764
28	0x3a832bdd	0.0010007579
29	0x3b83984e	0.004015959
30	0x3bc5ad8c	0.0060326513
31	0xbb5a3e35	-0.0033301238
32	0x3bfd2685	0.007725539
33	0xba3058a8	-0.0006727078
34	0xbb8ae162	-0.0042382935
35	0xbbe491f3	-0.0069754063
36	0xbb13c83e	-0.0022549774
37	0x3b2dc95a	0.002651772
38	0x3c29347d	0.010327456
39	0x3a4f7584	0.00079139345
40	0xbc2e97cf	-0.010656311
41	0x3ba380ef	0.0049897353
42	0xbaac64b4	-0.001315257
43	0xbc0051df	-0.00783202
44	0x3bca9df1	0.006183379
45	0xbbd76f4c	-0.006574547
46	0xbbbe4cd0	-0.0058074966
47	0xbbc5e39a	-0.006039095
48	0x3c0ba7b7	0.008523873
49	0x3c3a8ec4	0.011386577
50	0x3ba701f8	0.0050966702
51	0x3bab5911	0.0052291234
52	0xbb92df2a	-0.0044821696
53	0xbb822653	-0.0039718538
54	0xbbec6ba0	-0.0072149783
55	0xbbb36483	-0.0054746284
56	0xbbc3093d	-0.005952029
57	0x39bebaa5	0.00036378685
58	0xbb614a42	-0.0034376536
59	0xbbe958b7	-0.0071211713
60	0x3aaf969b	0.0013396324
61	0x3c8b8fbe	0.017036315
62	0xbc023a88	-0.007948525
63	0x3b842244	0.004032405
64	0x3ab1e08a	0.0013570946
65	0x3af65d98	0.0018796204
66	0xbc2397f4	-0.009984959
67	0xbb946fb0	-0.0045299158
68	0xbb78001d	-0.0037841864
69	0xba8b28df	-0.0010617039
70	0xb989e0e9	-0.00026298247
71	0x3c05db77	0.00817
72	0x3b08a879	0.002085237
73	0x3c911af7	0.017713053
74	0xbad67d1a	-0.0016364187
75	0xbbe51584	-0.0069910903
76	0x3ca43298	0.020043656
77	0xbb21fb87	-0.0024716572
78	0xbade782d	-0.0016973071
79	0x39b76fb7	0.00034987714
80	0xbb220515	-0.0024722267
81	0xbbcea791	-0.0063065966
82	0xbb92205e	-0.004459425
83	0x3b83ea54	0.004025737
84	0x3b3b65ad	0.002859454
85	0xbbae5c3b	-0.0053210533
86	0x3c839e2c	0.016066633
87	0x3b8182d4	0.0039523635
88	0xba6d1118	-0.00090433797
89	0x3c774659	0.015092456
90	0xbaf300c3	-0.0018539656
91	0xbb442fde	-0.0029935758
92	0xb9833dbd	-0.00025032266
93	0xbbc61529	-0.006045003
94	0x3c7e8910	0.015535608
95	0xbabe93c1	-0.0014539884
96	0x37b3da34	2.1440072e-05
97	0x3b83c529	0.004021306
98	0xbba1bd5f	-0.004935905
99	0xba927241	-0.0011172966
100	0xbbac6676	-0.0052612377
101	0x3ba87132	0.005140447
102	0xbb81a855	-0.0039568343
103	0x3bb55199	0.005533409
104	0xbb773f08	-0.0037726779
105	0xbb8425a4	-0.0040328074
106	0xba75ed00	-0.0009381324
107	0x3c04639c	0.008080389
108	0x3b4af630	0.0030969493
109	0xbb9faa74	-0.0048726145
110	0x3c8df3d3	0.017328179
111	0x3730f684	1.0547814e-05
112	0x3bc0b63e	0.0058811
113	0xbc24d05d	-0.010059443
114	0xbb84136f	-0.004030637
115	0x3bd4fb14	0.0064996574
116	0x3ab023c9	0.0013438399
117	0xbbf73e1c	-0.007545246
118	0xbbe14cdb	-0.006875617
119	0x3b0ec0df	0.002178244
120	0x3b74f07d	0.0037374787
121	0x3bddfda2	0.00677462
122	0x3bad5dcd	0.005290723
123	0xbb19023a	-0.0023347274
124	0xbbb23f72	-0.005439692
125	0x3b92b902	0.004477621
126	0xbbc01d71	-0.0058628847
127	0xbc03f1fd	-0.0080533

network_body._body_endoder.seq_layers.2.weight f4 [128, 128]
0	0x3d09fad2	0.033686467
1	0xbe396a8d	-0.18107052
2	0xbe08b599	-0.13350524
3	0x3c336bc5	0.010950987
4	0x3d258fdd	0.0404204
5	0x3c76b988	0.015058883
6	0x3cc348ee	0.023838487
7	0xbd0f81ce	-0.0350359
8	0xbdf88d08	-0.121362746
9	0xbda10687	-0.07862573
10	0xbd8a1031	-0.067413695
11	0xbd30a110	-0.04312235
12	0x3c31ad2a	0.010844508
13	0xbd8dbb82	-0.0692053
14	0xbdb6c8ce	-0.08925019
15	0xbdb0525c	-0.08609459
16	0xbd9f2f59	-0.07772703
17	0x3e4a815f	0.19775914
18	0x3c833115	0.016014615
19	0xbe16c2af	-0.14722703
20	0x3dbffb8d	0.093741514
21	0xbb066be9	-0.0020511097
22	0x3c227600	0.009915829
23	0x3c4b37f5	0.012403478
24	0x3cd256dc	0.025676183
25	0xbe4ea821	-0.20181324
26	0x3d82ad01	0.06380654
27	0x3e3376cd	0.17525788
28	0xbd3c35c1	-0.0459497
29	0xbc010aae	-0.007876081
30	0x3dc110f4	0.09427062
31	0x3ddfa85b	0.10920783
32	0xbe08d187	-0.13361178
33	0xbc0ecb03	-0.008715394
34	0xbde44399	-0.11145706
35	0x3d89423e	0.06702088
36	0xbd963223	-0.073337816
37	0xbdf1e52f	-0.118112914
38	0xbdead64e	-0.114666566
39	0xbd43530a	-0.047686614
40	0x3d47f1f9	0.048814747
41	0x3d76b61f	0.060232278
42	0x3daf2ceb	0.08553489
43	0x3d7dcf59	0.06196532
44	0xbd1a6b99	-0.03770027
45	0xbcee39dd	-0.029080326
46	0x3d88b3fb	0.066749536
47	0x3cb80be8	0.022466615
48	0x3da948f6	0.08265869
49	0xbe3665d5	-0.17812283
50	0x3c8b1ee8	0.01698251
51	0xbcd13b1d	-0.025540883
52	0xbe0dd801	-0.1385193
53	0xbdbb557d	-0.09147165
54	0x3e53462d	0.20632239
55	0xbd911347	-0.07083755
56	0xbdd5ac81	-0.10433293
57	0xbe0d184f	-0.13778804
58	0xbd48052a	-0.04883305
59	0x3d6e723a	0.058214404
60	0x3de00ac9	0.10939557
61	0x3dbfca77	0.09364789
62	0x3d9cb620	0.07651925
63	0x3dd6371a	0.104597285
64	0x3d3b0f54	0.045668915
65	0x3c8708f4	0.016483761
66	0x3d6cedfa	0.05784414
67	0xbc665206	-0.014057642
68	0x3e14739d	0.14497228
69	0x3d331a35	0.043726165
70	0xbcc627a0	-0.024188817
71	0x3d88afd0	0.066741586
72	0x3ccfcc07	0.025365843
73	0xbc0fd5d7	-0.008779011
74	0xbce297ab	-0.027660212
75	0xbd9654c7	-0.07340389
76	0xbdb46197	-0.08807676
77	0xbd7fc28e	-0.0624414
78	0xbdd9f411	-0.10642255
79	0xbcd2d8b8	-0.025738105
80	0x3db746cb	0.089490496
81	0x3d92d358	0.07169217
82	0xbe122c97	-0.14274822
83	0xbe05e112	-0.13074139
84	0xbd9d8a55	-0.076924
85	0x3d7037b2	0.058646865
86	0xbdbc3057	-0.091889076
87	0x3d72ad1f	0.059247132
88	0x3e4e912f	0.2017257
89	0xbe2855a4	-0.1643892
90	0xbbb913c2	-0.0056481073
91	0x3c90d9ba	0.017681945
92	0xbda12c55	-0.07869784
93	0x3cb3acf8	0.021933064
94	0x3d858182	0.06518842
95	0x3c07bffc	0.008285519
96	0xbb1218bd	-0.0022292577
97	0xbdc8f767	-0.09812813
98	0xbdc424be	-0.095773205
99	0x3c4e84bb	0.012604888
100	0xbc023379	-0.007946842
101	0x3de1a23c	0.11017272
102	0xbdd29096	-0.10281484
103	0x3df8391e	0.12120269
104	0xbd892dc2	-0.06698181
105	0x3d27fa81	0.041010384
106	0x3e24213f	0.16028307
107	0xbd6048d5	-0.054756958
108	0xbdcd8e9a	-0.10036965
109	0x3c3030af	0.010753795
110	0xbe72d8b5	-0.2371548
111	0xbd79f530	-0.061024845
112	0x3c7e86c8	0.015535064
113	0xbd950f81	-0.07278348
114	0xbe3b6381	-0.18299676
115	0x3d8d41c5	0.0689731
116	0xbe7c61b3	-0.24646644
117	0x3c8586d9	0.016299652
118	0xbda5eb99	-0.08101577
119	0xbdabfc75	-0.08397762
120	0x3e4668a4	0.19375855
121	0x3e2f61ad	0.17127104
122	0x3d0e171f	0.03469002
123	0x3d74e639	0.05978987
124	0xbe3fe909	-0.1874124
125	0xbd6bc366	-0.057559393
126	0xbb01d4e5	-0.0019810733
127	0x3d4c8f58	0.04994139
128	0xbde0bacf	-0.10973131
129	0x3da8da91	0.08244813
130	0xbd42be71	-0.0475449
131	0xbe082d79	-0.13298596
132	0x3dacdbf8	0.08440393
133	0xbd3d1d5b	-0.046170574
134	0xbe169f11	-0.14709117
135	0x3d103ec2	0.0352161
136	0x3d8f86d4	0.07008138
137	0xbdd7bab8	-0.10533661
138	0x3c71648b	0.014733444
139	0x3e27db57	0.16392265
140	0x3d8df75a	0.06931944
141	0xba0a20c6	-0.0005269166
142	0xbb54179f	-0.0032362712
143	0x3c68d374	0.014210571
144	0x3d499f4d	0.049224187
145	0xbe0ec701	-0.13943101
146	0xbe0c474a	-0.1369907
147	0xbd58ab52	-0.05289776
148	0x3e2a1e57	0.16613136
149	0xbe4f43e7	-0.20240746
150	0x3e380b35	0.17973025
151	0x3bb5667a	0.005535898
152	0x3dd64f2c	0.104643196
153	0x3e37435f	0.17896794
154	0x3e501a72	0.20322588
155	0x3d20c679	0.03925178
156	0x3df55896	0.11979787
157	0xbda064ae	-0.07831703
158	0xbd33aa41	-0.04386354
159	0x3e19b444	0.15010172
160	0x39680428	0.00022126792
161	0xbca44513	-0.020052468
162	0xbd8dc73e	-0.06922768
163	0xbb41a3a5	-0.0029547003
164	0xbde6fab6	-0.11278288
165	0x3d8599f7	0.06523507
166	0xbd3863b5	-0.045016963
167	0xbe12419c	-0.1428284
168	0xbc335954	-0.01094659
169	0xbe166e2d	-0.14690466
170	0x3c552768	0.013009883
171	0xbda4a4a8	-0.08039218
172	0x3d19e71a	0.03757391
173	0x3dd3f446	0.10349326
174	0xbca8a822	-0.020587984
175	0x3d89ee11	0.06734861
176	0x3d03448c	0.032047793
177	0x3d0609fd	0.03272437
178	0xbdab9bfc	-0.08379361
179	0x3e38962e	0.18026039
180	0xbcf9c330	-0.03048858
181	0xbc938d0f	-0.018011598
182	0x3e198888	0.14993489
183	0x3e14a154	0.14514667
184	0x3e81c40f	0.25344893
185	0x3c4ec4c8	0.0126201585
186	0x3bccaebd	0.0062464164
187	0x3c455c3b	0.012045915
188	0x3bcf2c3d	0.0063224123
189	0xbe52f3ce	-0.20600817
190	0xbd26d313	-0.04072864
191	0xbd338ca9	-0.043835316
192	0xbc01d283	-0.007923725
193	0x3b0e84f3	0.0021746724
194	0xbc1cb6be	-0.0095650535
195	0xbc16f783	-0.009214285
196	0xbcf95c3e	-0.030439492
197	0xbd439295	-0.047747213
198	0xbd92fe70	-0.07177436
199	0xbce44592	-0.027865205
200	0xbd962515	-0.073312916
201	0xbcf655c1	-0.030070188
202	0xbe3de573	-0.18544559
203	0x3d24f5c3	0.04027344
204	0xba0de62f	-0.0005413023
205	0xbd6cfd0f	-0.057858523
206	0x3cc7d5c0	0.024393916
207	0x3dc19cfc	0.094537705
208	0x3d8ae231	0.06781424
209	0x3e3b175e	0.18270633
210	0xbce6d3a2	-0.028177086
211	0xbc216248	-0.009850092
212	0x3d891793	0.066939496
213	0xbdc75258	-0.09732503
214	0x3d4828b0	0.048866928
215	0x3d99189a	0.074753955
216	0xbd7f0929	-0.062264595
217	0xbda0fb85	-0.078604735
218	0xbe2730ba	-0.16327181
219	0x3d101da4	0.035184518
220	0x3d8dd219	0.069248386
221	0x3e1e89e6	0.15482292
222	0x3cfba39c	0.030717663
223	0xbd71339c	-0.05888711
224	0x3e2a9ebe	0.16662118
225	0x3c6b945b	0.014378632
226	0xbcebee97	-0.028800292
227	0xbe0bf441	-0.13667394
228	0xbdacc846	-0.084366366
229	0x3b545c67	0.003240371
230	0xbe2362c3	-0.15955643
231	0x3df835a9	0.1211961
232	0xbe1d1d2c	-0.1534316
233	0xbda0adcf	-0.07845651
234	0x3ca932aa	0.020654041
235	0xbd8bcee1	-0.068265684
236	0xbd54dc5d	-0.051967967
237	0x3cb76cba	0.022390712
238	0x3dd8aad9	0.105794616
239	0xbd91f9fe	-0.0712776
240	0x3dde7ccb	0.10863646
241	0xbcf5282a	-0.029926378
242	0x3c22d733	0.009939003
243	0xbe05c38e	-0.1306288
244	0xbcc6d9c6	-0.024273764
245	0x3d07cabb	0.033152323
246	0x3d4254d1	0.04744417
247	0xbe0f0886	-0.13968095
248	0xbd417f12	-0.047240324
249	0xbe76bc26	-0.2409521
250	0x3ca83eff	0.020537851
251	0x3db3fcfe	0.08788489
252	0x3d4c979d	0.049949277
253	0xbd9b2cde	-0.07576917
254	0xbd499a58	-0.04921946
255	0x3df68d49	0.12038667

network_body._body_endoder.seq_layers.2.bias f4 [128]
0	0x3bcdf794	0.006285617
1	0xbbcba936	-0.00621524
2	0xbb85bca6	-0.0040813265
3	0x3b9c89d5	0.004777173
4	0x3bb6a74f	0.005574144
5	0x3c3211f6	0.01086854
6	0xbbb97fed	-0.005661002
7	0xbc0b4917	-0.008501313
8	0xbbdf90a2	-0.0068226615
9	0xbc67f7cb	-0.0141582
10	0x3ad78c4b	0.0016445009
11	0x3b68cd01	0.0035522582
12	0xbc0b445d	-0.008500186
13	0xbab7af6b	-0.0014014071
14	0x39d8e635	0.00041370248
15	0x3b867e68	0.0041044243
16	0x3bdf07e4	0.0068063606
17	0xbb06952e	-0.0020535695
18	0xbbcdb645	-0.0062778317
19	0x3b208655	0.002449413
20	0x3bbe5036	0.0058079017
21	0xbb730497	-0.0037081593
22	0xba0dbcb0	-0.000540684
23	0xbbc5cd1b	-0.0060364134
24	0xbb812075	-0.0039406368
25	0x3b07bc83	0.0020711727
26	0xbbb0e820	-0.005398765
27	0xbb1521d2	-0.0022755754
28	0xbbb896a6	-0.005633193
29	0xb91b888e	-0.00014832822
30	0xbb8627ea	-0.0040941136
31	0xbba389b4	-0.0049907807
32	0xba34c1ae	-0.00068953156
33	0x3ba31ff7	0.0049781757
34	0x3b7d6748	0.0038666297
35	0xbb424904	-0.0029645571
36	0xbb8acc55	-0.004235784
37	0x3c144b64	0.009051178
38	0xbb3a1eb5	-0.002839965
39	0x3bfd9d2a	0.0077396827
40	0x3bcd2eef	0.0062616984
41	0xbc255670	-0.010091409
42	0xbbc20c38	-0.0059218667
43	0x3b1fa99f	0.0024362577
44	0xbb8acead	-0.0042360635
45	0x3b540ff3	0.003235814
46	0x3ba1bbd8	0.004935723
47	0x3b55a392	0.0032598716
48	0xbbb08e9d	-0.0053880946
49	0xbbb2c157	-0.005455177
50	0x3bcbd414	0.00622035
51	0xbbb9ac44	-0.0056662876
52	0x3bf6205b	0.0075111813
53	0xbb99502f	-0.004678748
54	0xbb8e54f6	-0.004343624
55	0xbc2fa404	-0.010720257
56	0x3b82ed8b	0.0039956025
57	0x3a3ccbaa	0.0007201979
58	0xbb7172f5	-0.0036842201
59	0x3b73cfd1	0.0037202726
60	0x3c4a8e2c	0.012362998
61	0xbb9b83e7	-0.0047459486
62	0xbb388e96	-0.002816116
63	0x3c5676cd	0.013089848
64	0x3c1dc2cf	0.0096289655
65	0x3c0d0b9a	0.008608723
66	0x3a9dea91	0.0012048056
67	0x3b90de85	0.0044210576
68	0xbb4b9a53	-0.0031067326
69	0xbafdc49e	-0.0019360965
70	0xbb687d11	-0.0035474936
71	0x3b96ce56	0.004602234
72	0xbba9956c	-0.005175283
73	0x3903651c	0.000125308
74	0xbb9c0b20	-0.0047620684
75	0x38f2278a	0.00011546824
76	0x38a9b5b4	8.092393e-05
77	0x3a43e9d1	0.0007473501
78	0x3b11a87e	0.0022225673
79	0xbbddd8bc	-0.0067702215
80	0x3c1086f5	0.008821239
81	0xbbd4c1f4	-0.0064928476
82	0xbbc8ccca	-0.0061279284
83	0xbb1ad7c0	-0.0023627132
84	0xba8e4590	-0.0010854471
85	0xba2df1a1	-0.0006635432
86	0x3bcf6685	0.00632936
87	0x3aa4fb0c	0.0012587025
88	0x3c274959	0.010210359
89	0x3bcf6dd2	0.0063302303
90	0x3ba3762f	0.004988454
91	0x3b86fb56	0.004119317
92	0x3b9ff504	0.004881503
93	0x3a9c606e	0.0011930594
94	0xba35a44c	-0.0006929084
95	0xbba41408	-0.0050072707
96	0xbbbd2d00	-0.0057731867
97	0x3b507d46	0.003181295
98	0x3ba9f283	0.0051863804
99	0x3a4cd696	0.0007813958
100	0x399ca40d	0.00029876866
101	0xbbab6678	-0.005230721
102	0xba9efb59	-0.0012129351
103	0xbbaad7ea	-0.0052137272
104	0x3b91fc9a	0.0044551613
105	0xbbda6f99	-0.0066661355
106	0x3b819744	0.0039548
107	0x3becf054	0.007230798
108	0x3be4e46d	0.0069852383
109	0x3bc0a01c	0.0058784615
110	0x3b8978d0	0.00419531
111	0x3c2db0c4	0.010601226
112	0x3b161e88	0.0022906382
113	0xbb7feb19	-0.0039050041
114	0xbbaeb890	-0.00533206
115	0x3ba64708	0.0050743856
116	0x3aeb3238	0.0017944044
117	0x3c41c2cc	0.011826228
118	0x393106e4	0.00016882602
119	0x3b89df65	0.004207539
120	0xbb8805a6	-0.004151064
121	0xbb8d5cd0	-0.0043140426
122	0x3b903005	0.0044002556
123	0x3bb98277	0.0056613046
124	0x3926ab5d	0.00015894831
125	0xbbbd8a81	-0.005784333
126	0xbb85b4ff	-0.0040804143
127	0x3c06006e	0.008178813

action_model._continuous_distribution.log_sigma f4 [1, 2]
0	0xbccb041c	-0.024782233
1	0x3b6df755	0.0036310751

action_model._continuous_distribution.mu.weight f4 [2, 128]
0	0xbc7bacaf	-0.015360995
1	0x3c0d6388	0.008629687
2	0xbd24c866	-0.040230177
3	0xbc8eb983	-0.017422443
4	0x3c983e82	0.018584494
5	0xbcae43ec	-0.021272622
6	0xbb9a1d18	-0.0047031753
7	0x3baf1dc4	0.0053441245
8	0xbcea5984	-0.028607138
9	0x3cbb2a38	0.02284728
10	0x3a499047	0.00076890405
11	0xbc0e8eec	-0.008701067
12	0xbc007dab	-0.007842462
13	0x3c84c22b	0.016205868
14	0xbcd5c779	-0.026096093
15	0x3bd44707	0.0064781937
16	0x3ceb0275	0.028687695
17	0x3bae0b09	0.005311374
18	0xbba0b021	-0.0049038087
19	0x3cd3fba3	0.025876826
20	0x3caf2065	0.021377752
21	0xbc6abc3a	-0.014327103
22	0x3bafb80b	0.005362516
23	0xbb94b7db	-0.004538519
24	0x3d04d696	0.032431208
25	0xbc7737f6	-0.015089026
26	0xbc440ac0	-0.011965454
27	0xb9e90230	-0.00044442853
28	0xbbda95ba	-0.006670681
29	0x3abca3fa	0.001439213
30	0xbc8aec25	-0.016958306
31	0xbcbf3c04	-0.023344047
32	0x3c2a1f3c	0.010383423
33	0x3c89c597	0.016817851
34	0xbc82bb4d	-0.015958453
35	0x3bff3c0c	0.0077891406
36	0xbb819472	-0.0039544636
37	0xbcb6a443	-0.022295123
38	0x3b8a2650	0.004215993
39	0x3caee9b7	0.021351678
40	0x3a993043	0.0011687357
41	0x3b97e542	0.004635484
42	0x3d5a624f	0.05331641
43	0xbd16f9cb	-0.036859315
44	0x3ccebbb8	0.025235996
45	0xbd0b6e0e	-0.034040503
46	0xbc80241a	-0.015642215
47	0xbb9e186f	-0.00482469
48	0x3c36f865	0.01116762
49	0x3b3cac53	0.0028789237
50	0x3ceed6e1	0.029155197
51	0x3bfc9ab1	0.0077088703
52	0x3ccf2a45	0.02528871
53	0x3c087c3a	0.008330399
54	0xbc8bef92	-0.01708201
55	0xbc55286f	-0.013010128
56	0x3ca7ae27	0.020468784
57	0x3cf10dc0	0.029425502
58	0x3ba7f0fd	0.0051251636
59	0xbc6027d9	-0.013681375
60	0x3b5617ba	0.003266795
61	0x3ae602ce	0.0017548443
62	0xbb64acef	-0.0034893116
63	0xbce7aa5e	-0.02827948
64	0x3ca30dd8	0.019904062
65	0xbcc519dd	-0.024060184
66	0x3bc3edd0	0.005979277
67	0xbc9108cf	-0.017704396
68	0xbc6379ea	-0.013884047
69	0xbd44ae15	-0.04801758
70	0xbd165c8e	-0.03670936
71	0xbbb4a8b8	-0.005513277
72	0x3a676c45	0.0008828084
73	0x3d0cf00b	0.03440861
74	0x3d3bb146	0.045823358
75	0x3d13d5ec	0.036092684
76	0xbc30ce0a	-0.010791311
77	0x3cbf59c4	0.023358233
78	0x3c40aca9	0.011759915
79	0x3c528f87	0.012851602
80	0x3be2bffe	0.00691986
81	0x3c917af2	0.01775882
82	0x3c0dc731	0.008653448
83	0x39b299e3	0.0003406546
84	0x3d2d4b3d	0.04230808
85	0x3ce4734d	0.027887011
86	0xbba54399	-0.0050434587
87	0xbcd6a543	-0.02620185
88	0xbcff4b69	-0.031163888
89	0xbb539b57	-0.0032288635
90	0x3c6bc9a5	0.0143913375
91	0x3b546b6a	0.0032412657
92	0x3b1b045c	0.0023653721
93	0xbc2bf26a	-0.010494808
94	0xbc9d44e2	-0.019197885
95	0x3cfa6c4c	0.030569218
96	0x3cc2d84a	0.023784775
97	0x3c3bae5a	0.011455143
98	0x3cab8d11	0.02094129
99	0x3bb7e801	0.005612374
100	0x3cb0f0df	0.021599231
101	0xbc296b5e	-0.01034054
102	0xbc2ce259	-0.010552012
103	0xbc5f5005	-0.013629918
104	0x3cda854d	0.02667489
105	0xbcc2d667	-0.023783876
106	0x3c9cd45f	0.019144235
107	0xbb6a3022	-0.0035734256
108	0x37e277a0	2.6997004e-05
109	0x3c49fc31	0.0123281935
110	0x3c40653c	0.011742886
111	0x3cfda907	0.030964388
112	0x3d0f1561	0.034932498
113	0xbb915d64	-0.004436182
114	0x3c24681b	0.010034586
115	0xbc934457	-0.017976923
116	0xbae645cf	-0.0017568412
117	0x3bc41845	0.0059843385
118	0x3c6c067c	0.014405843
119	0xbc4b54ca	-0.012410352
120	0xbccce83f	-0.025013087
121	0x3cb977da	0.022640157
122	0xbc8db08b	-0.017296096
123	0xbb18e4df	-0.0023329777
124	0x3cb41015	0.021980325
125	0xbbab72fd	-0.0052322135
126	0x3c035e00	0.008018017
127	0x3bcacafc	0.0061887484
128	0xbd30792c	-0.04308431
129	0xbce5a04a	-0.028030533
130	0xbcc7b9c9	-0.024380581
131	0x3c90bafc	0.017667286
132	0x3cb5b413	0.022180593
133	0x3bf941f1	0.007606738
134	0xbc970175	-0.018433312
135	0xbb2157f9	-0.0024619086
136	0xbbe79ffc	-0.007068632
137	0x3bc57039	0.006025341
138	0xbc91f3d3	-0.01781646
139	0x3b116f5a	0.0022191615
140	0xbc8d39a3	-0.017239397
141	0xbb0ec12d	-0.0021782622
142	0xbc64aabc	-0.013956722
143	0xbcb5ef47	-0.022208823
144	0x3c9d31bf	0.01918876
145	0xbb196440	-0.00234057
146	0xbb11fe3c	-0.002227678
147	0x3bca8e38	0.0061815046
148	0x3a989d10	0.0011643488
149	0xbc0a6cf5	-0.008448829
150	0x3bf0cfb1	0.0073489775
151	0xbc625e01	-0.013816358
152	0xbbf950c7	-0.0076085064
153	0x3ba234a0	0.004950121
154	0xbcc87b63	-0.024472898
155	0xbb83abee	-0.0040182984
156	0xbce76fc4	-0.028251536
157	0xbcd8fa0b	-0.026486417
158	0xbc27f2dd	-0.010250774
159	0xbd30025a	-0.042970993
160	0x3bd8e092	0.0066185677
161	0x3c8b0508	0.016970173
162	0x3ccf6b2e	0.025319662
163	0x39ae1892	0.00033206173
164	0xbc62cfd5	-0.013843496
165	0xbc5150b5	-0.01277559
166	0xbc8c59b4	-0.017132618
167	0x3b0bac8c	0.0021312563
168	0xbce0d1c6	-0.027443778
169	0x3cdbbff5	0.02682493
170	0x3aea779e	0.0017888432
171	0x3c67ed6b	0.014155726
172	0xbc4a22d2	-0.012337403
173	0x3c4d78dc	0.012541022
174	0x3ca89a3f	0.020581363
175	0xbd324f8d	-0.043532897
176	0xbd5ccb36	-0.053904735
177	0xbccce13e	-0.025009748
178	0x3cbfa5e6	0.023394536
179	0xbc9e7f8f	-0.019347934
180	0xbc8cc18a	-0.01718213
181	0xbbad453b	-0.005287794
182	0xbc4dcb95	-0.012560745
183	0x3b1beb0a	0.0023791217
184	0x3c892bd7	0.016744537
185	0xbb4aa9d8	-0.0030923989
186	0xbb8ac76b	-0.0042351983
187	0x3c2a456d	0.010392529
188	0xbd21a1b5	-0.039460856
189	0x3c5de15a	0.0135424975
190	0xba889fda	-0.0010423616
191	0xbd412c90	-0.04716164
192	0x3c52af14	0.012859125
193	0x3c9f8267	0.01947136
194	0x3b8fe445	0.0043912255
195	0x3c73aed4	0.014873225
196	0xbc51b475	-0.012799372
197	0x3bbfe3bb	0.005856005
198	0xbaf82288	-0.001893119
199	0xbcb161a1	-0.021652998
200	0xbbafe06a	-0.0053673284
201	0x3bfda199	0.007740211
202	0xbccdeb5c	-0.025136642
203	0xbbce062f	-0.0062873582
204	0xbaacb011	-0.001317503
205	0xbc27aea5	-0.01023451
206	0x3bf9ae90	0.0076196864
207	0xb9edbb8d	-0.000453439
208	0xbd0770c7	-0.033066537
209	0x3a93af34	0.0011267425
210	0x3c2b66b4	0.010461498
211	0xbcb77685	-0.022395382
212	0xbca96e22	-0.020682398
213	0xbc9a9072	-0.018867705
214	0xbcd8ecaf	-0.026480047
215	0x3be73104	0.0070554037
216	0xbc9431cc	-0.018090151
217	0x3c8dfce8	0.01733251
218	0x3d12d6a1	0.035849217
219	0x3cb5991d	0.022167737
220	0x3c9465f8	0.018115029
221	0x3c364da3	0.0111269085
222	0xba881a23	-0.0010383766
223	0xbc427615	-0.011868973
224	0xbb4edb04	-0.003156365
225	0x3bb0b28a	0.0053923773
226	0xbb2c95be	-0.002633437
227	0xbc883300	-0.016625881
228	0xbc2892a1	-0.010288865
229	0xbcc2b915	-0.023769895
230	0x39f697e7	0.00047033952
231	0xbcbaf68d	-0.022822643
232	0x3ce987d0	0.028507143
233	0x3ca07d2f	0.019590942
234	0x3cbddac0	0.023175597
235	0x3c41bf4c	0.011825394
236	0xbc3fe0fa	-0.011711353
237	0x3d2db05a	0.04240451
238	0xbd001458	-0.0312694
239	0x3d0ddc66	0.034634016
240	0x3c46f3cb	0.012143086
241	0xbb194d72	-0.0023392108
242	0xb98d1cea	-0.00026915158
243	0x3cefe4bf	0.02928388
244	0x3c792405	0.015206342
245	0xbc57dc52	-0.013175087
246	0xbcc9ba5f	-0.024625001
247	0x3c5ef793	0.013608831
248	0xbbced6fe	-0.00631225
249	0x3d0724fa	0.032994248
250	0x3c98df4f	0.01866117
251	0x3c9530e9	0.018211799
252	0x3bfb141d	0.00766231
253	0xbc0d5322	-0.008625777
254	0xbc6e4851	-0.014543609
255	0x3c4c8618	0.012483142

action_model._continuous_distribution.mu.bias f4 [2]
0	0xba3969d7	-0.00070729613
1	0x3ba22e3a	0.0049493583

action_model._discrete_distribution.branches.0.weight f4 [2, 128]
0	0xbb395c4e	-0.0028283778
1	0xbb242e24	-0.0025051916
2	0xbc16b688	-0.009198792
3	0xbc377b6f	-0.011198862
4	0x3b25cc84	0.0025298903
5	0x3c63ab75	0.013895859
6	0x3a304aa1	0.0006724988
7	0xbb957c46	-0.0045619337
8	0xbc4a7067	-0.0123559
9	0xbba06716	-0.0048951013
10	0xbac15d3d	-0.0014752519
11	0xbbb1fb99	-0.005431604
12	0xbb8b3500	-0.0042482615
13	0xbb91c9dd	-0.004449113
14	0xbc6b58ed	-0.014364463
15	0xbc88aac9	-0.016683
16	0x3c394632	0.01130824
17	0x3c813e2c	0.015776716
18	0xbb2a3ccf	-0.0025976186
19	0xbb462bac	-0.0030238433
20	0xbbede95b	-0.007260484
21	0x3ba2c261	0.0049670194
22	0xbc163d2b	-0.009169857
23	0xbafb9e42	-0.0019196945
24	0xbc2e5980	-0.010641456
25	0xbc10bdaf	-0.008834287
26	0x3bf3f7da	0.0074453177
27	0xb8686399	-5.5405868e-05
28	0xbb3a37e1	-0.0028414654
29	0x3c305eb3	0.010764766
30	0xb96e722e	-0.00022739984
31	0x3ba205ce	0.0049445396
32	0xba52f815	-0.00080478314
33	0x3cae8143	0.021301871
34	0xbb07931a	-0.0020687045
35	0xbc085451	-0.008320884
36	0x3a6ff351	0.00091533834
37	0xbbea82cf	-0.007156707
38	0xbcad55b9	-0.02115904
39	0x3bf53d16	0.0074840887
40	0x3c07902c	0.008274119
41	0xbc12becb	-0.008956621
42	0x3be7b9fa	0.0070717307
43	0xbb884613	-0.004158744
44	0x3c627b2f	0.013823315
45	0xbc514f40	-0.012775242
46	0x3bb7e6c1	0.005612225
47	0x3c91de7c	0.017806284
48	0x3a932e5f	0.001122903
49	0xbc611d93	-0.013739961
50	0xbb946d7b	-0.0045296527
51	0xbc32106b	-0.010868172
52	0xbb9769af	-0.0046207528
53	0xbbdea458	-0.0067944936
54	0x3bcbf2cb	0.0062240115
55	0xbbf43f7c	-0.007453857
56	0x3a7b368d	0.0009583019
57	0x3a88f394	0.0010448569
58	0x3c692bb0	0.014231607
59	0x3bd7a1eb	0.0065805814
60	0xbc09b88f	-0.008405819
61	0xbbc1e5bf	-0.0059172804
62	0xbc71dbd4	-0.014761884
63	0xbb9d4e0d	-0.004800564
64	0x3c49727f	0.012295364
65	0x3c64134e	0.013920618
66	0x3b946f6f	0.0045298855
67	0x3be7f1a3	0.007078366
68	0x3bb721a0	0.005588725
69	0xbc1256d2	-0.008931832
70	0xbc19b635	-0.00938182
71	0xbba5635f	-0.0050472463
72	0xbc2abea1	-0.010421426
73	0xbbff42c3	-0.007789941
74	0xbc122022	-0.008918794
75	0x3c3c65ef	0.011498912
76	0xbccbf18a	-0.024895448
77	0xbc887872	-0.016658995
78	0x3be826a4	0.0070846844
79	0xbc470ff4	-0.0121498
80	0xbc9e4024	-0.019317694
81	0x3ad507de	0.0016252955
82	0xbc3f769b	-0.011685993
83	0xbbe2cedb	-0.0069216317
84	0x3c31be01	0.010848523
85	0xbaa4b9ac	-0.0012567542
86	0x3c0d57cf	0.008626892
87	0x3c1e18db	0.009649481
88	0x3ba592fc	0.0050529223
89	0x3c08a0d7	0.008339128
90	0x3c7cfc1a	0.015440965
91	0x3bede856	0.0072603626
92	0xbc2e2f9d	-0.010631469
93	0xbae3250a	-0.0017329764
94	0x3bb4f449	0.005522285
95	0x3bd6494d	0.0065395
96	0xbd06208a	-0.032745875
97	0x3bc8d4ee	0.006128899
98	0xbb461b12	-0.0030228538
99	0xbc2c5dec	-0.01052044
100	0x3c1721c3	0.009224358
101	0xbc6efecc	-0.0145871155
102	0x3b985995	0.004649351
103	0xbb0016bc	-0.00195448
104	0xbc0f534d	-0.008747888
105	0xbbd4f6b6	-0.006499137
106	0xbbfe903c	-0.007768659
107	0x3c01a0f1	0.007911907
108	0x3b762cbc	0.0037563285
109	0xbb4c7059	-0.0031194894
110	0xba99f352	-0.0011745489
111	0x3c3b19b3	0.011419701
112	0xbc13777c	-0.009000655
113	0xbc07855b	-0.0082715405
114	0xbbc781c3	-0.006088467
115	0xbc0ec035	-0.008712818
116	0xbbdd7c11	-0.0067591746
117	0xbb8dda1c	-0.004328979
118	0xbc60c987	-0.013719923
119	0xbb3f8c26	-0.0029227822
120	0x3ab6c795	0.0013944978
121	0xbc946796	-0.0181158
122	0xbc23b84f	-0.009992673
123	0x3a7fd8e1	0.00097597955
124	0xbc5b68b8	-0.013391666
125	0xbc44c529	-0.012009897
126	0xbba58c84	-0.005052151
127	0x3b46e1dc	0.0030347025
128	0x3c0eeea0	0.008723885
129	0x3c793a7d	0.015211699
130	0xbb372bed	-0.0027949766
131	0x3739cb98	1.1074262e-05
132	0x3af78c8a	0.0018886488
133	0xbc183443	-0.009289804
134	0xbafea5dd	-0.0019428093
135	0x3b769f85	0.0037631702
136	0x3c1c1a71	0.0095277885
137	0xbbeda432	-0.0072522396
138	0x3c8b21f6	0.016983967
139	0x3c3942f1	0.011307464
140	0x3bf23d9f	0.0073925997
141	0x3c8b495b	0.017002752
142	0x3ae29792	0.0017287603
143	0xbb384349	-0.0028116277
144	0xbb92363b	-0.004462031
145	0xbb36ebb8	-0.0027911495
146	0xbbc80a54	-0.006104747
147	0xbc99ff96	-0.01879863
148	0x3c4bed8c	0.012446772
149	0xbb941e5d	-0.004520221
150	0x3bb14cc0	0.0054107606
151	0x39d2a7a8	0.00040179235
152	0x3acf5a03	0.0015819672
153	0x3b9c5195	0.0047704675
154	0x3b778623	0.003776916
155	0xbc8694eb	-0.016428431
156	0x3c579e76	0.013160339
157	0xbc0b069d	-0.008485463
158	0xba4130d9	-0.00073696446
159	0xbb3471b0	-0.0027533583
160	0xba203348	-0.0006111157
161	0xbc160bf8	-0.009158127
162	0x3b31b379	0.002711503
163	0x3c45b750	0.012067631
164	0xbc295c83	-0.010336998
165	0x3c698438	0.014252715
166	0x3c11f384	0.008908156
167	0x3c28d2a4	0.010304127
168	0xbabfa9b2	-0.0014622717
169	0xbbdcc773	-0.0067376434
170	0xbb91f388	-0.00445408
171	0x3bf6ec8c	0.007535523
172	0xbb675c8b	-0.0035302963
173	0x3c164e94	0.009174008
174	0xbc071458	-0.008244596
175	0x3cc2301c	0.023704581
176	0xba9a197b	-0.0011756861
177	0xbbedb947	-0.007254753
178	0xbbeba672	-0.0071914727
179	0x3ca63f16	0.020293754
180	0x3ca31e35	0.019911865
181	0x3bd13943	0.006385
182	0xbb21f409	-0.0024712107
183	0x3b3d121a	0.00288499
184	0xbbf8161f	-0.0075709964
185	0xba483945	-0.00076379284
186	0xbb162d6f	-0.0022915264
187	0x3b83b44d	0.0040192963
188	0x3c200c9f	0.009768634
189	0x3bce9cda	0.0063053193
190	0x3bd76801	0.0065736775
191	0x3cc2284c	0.023700856
192	0xbcf6ac6c	-0.030111514
193	0xbc6962af	-0.014244719
194	0x3baecd5e	0.0053345403
195	0xbc255fcd	-0.0100936415
196	0xbbbc4910	-0.0057460144
197	0x3ba44a37	0.00501373
198	0x3bb5e6d2	0.0055511976
199	0xba2ae2a9	-0.00065187603
200	0x3bc91601	0.0061366563
201	0xbbf6f51d	-0.007536544
202	0xbbababb9	-0.005238977
203	0xbc52e17c	-0.0128711425
204	0x3c5d1b0a	0.013495216
205	0xb7821fad	-1.5511958e-05
206	0x3b9e8f8f	0.004838891
207	0x3b120f8b	0.0022287096
208	0x3ccdb458	0.025110409
209	0x3bd222da	0.006412846
210	0x3b90661e	0.0044067046
211	0x3c428181	0.011871696
212	0x3bdcfe1b	0.006744159
213	0x3b504afb	0.0031782973
214	0x3c8336bc	0.01601731
215	0xbc3c0031	-0.011474655
216	0xbc586e2e	-0.013209863
217	0xbb8972f1	-0.0041946103
218	0x3a84bb84	0.0010126685
219	0x3b83a9f1	0.0040180613
220	0xbc02e3a0	-0.00798884
221	0x3ae32d68	0.0017332258
222	0x3bc5937a	0.0060295435
223	0x3c32c5cb	0.010911415
224	0x3ca1e654	0.01976315
225	0xbc3e0a12	-0.011599081
226	0xbbb17be8	-0.005416382
227	0xbc3f0b4f	-0.011660411
228	0x3c51ff49	0.012817212
229	0x3c995aad	0.018719995
230	0x3c08b3a4	0.008343611
231	0x3c0eaaad	0.008707684
232	0xbb85b3d1	-0.0040802737
233	0x3c7880f0	0.01516746
234	0x3c5fcbfc	0.0136594735
235	0xbcd07ba3	-0.02544958
236	0x3bf17f81	0.007369936
237	0xbc03ea5c	-0.008051481
238	0xba853aba	-0.0010164597
239	0x3b0598a8	0.002038518
240	0xbacf6a1e	-0.0015824472
241	0xbb827448	-0.003981147
242	0x3ab4576b	0.0013758963
243	0x3c37874f	0.011201694
244	0x3c9d8325	0.019227574
245	0x3c8b0ce0	0.016973913
246	0x3c95e2e0	0.018296659
247	0xbbe69a61	-0.0070374464
248	0x3be26510	0.0069090202
249	0x3bc5b6d2	0.006033757
250	0x3aa641fe	0.0012684462
251	0xbc0a594e	-0.008444143
252	0x3c7ed013	0.015552538
253	0x3bd2e72c	0.0064362492
254	0x39ad6124	0.00033069507
255	0xbba668a2	-0.005078391

action_model._discrete_distribution.branches.0.bias f4 [2]
0	0x3b9773fd	0.004621981
1	0xbb9773fc	-0.0046219807

action_model._discrete_distribution.branches.1.weight f4 [2, 128]
0	0x3a5231b5	0.0008018271
1	0x3b8ec103	0.004356505
2	0x3c560b15	0.013064166
3	0x3bb678dd	0.0055686072
4	0x3c1e8552	0.009675341
5	0x3c12912e	0.008945746
6	0x3af9b57f	0.0019051282
7	0xbc95000e	-0.018188503
8	0xbc07db2b	-0.008292
9	0x3b09ac80	0.002100736
10	0x3bb7d3b5	0.0056099542
11	0xbc7d2c15	-0.0154524045
12	0xbc85c2f0	-0.016328305
13	0x3b51941e	0.0031979154
14	0xbc58a760	-0.013223499
15	0x3b11ff7d	0.0022277527
16	0x3c5ee23c	0.013603743
17	0xbbde420a	-0.006782775
18	0xba740c84	-0.00093097263
19	0x3b059216	0.0020381263
20	0x3c011084	0.007877473
21	0x3c354a77	0.011065117
22	0x3c1d72da	0.009609902
23	0xbabe9d63	-0.0014542755
24	0xbc8d87fe	-0.01727676
25	0xbc53f6b8	-0.01293724
26	0xbc4dd82b	-0.0125637455
27	0x3b84e362	0.0040554265
28	0xbb5e929f	-0.0033961905
29	0x3cad4f78	0.021156058
30	0x3a899854	0.0010497668
31	0x3b58e1d8	0.0033093598
32	0xbc38f00d	-0.011287701
33	0x3bc5e327	0.0060390416
34	0xbbe4abed	-0.006978503
35	0xbc67f757	-0.0141580915
36	0x3bb1ae34	0.005422378
37	0xbab52c3c	-0.0013822387
38	0x3caeb341	0.02132571
39	0x3c81803f	0.015808223
40	0x3c18caba	0.0093256775
41	0x3c04e850	0.008112028
42	0xbb20d2d5	-0.0024539728
43	0xbc07d267	-0.00828991
44	0xba91cfaf	-0.0011124517
45	0xb98733e5	-0.0002578787
46	0x38c0c4ef	9.191955e-05
47	0x3c165a57	0.009176812
48	0x3b05ffdd	0.0020446696
49	0x3b03fd3d	0.0020139955
50	0xb9d4803c	-0.00040531333
51	0xbb19b0d5	-0.0023451347
52	0x3acc40ee	0.0015583315
53	0x3cbc49fe	0.022984501
54	0x3a21bddf	0.00061699556
55	0x38a059c0	7.646112e-05
56	0x3b72a86c	0.0037026657
57	0x3c64b190	0.01395835
58	0xba9b1509	-0.001183183
59	0xbc37a94f	-0.0112098
60	0x3b964eac	0.004587015
61	0xbb9d4d83	-0.0048005
62	0xbb5adb70	-0.0033394955
63	0xbbd7ffda	-0.006591779
64	0x3cab776a	0.020930964
65	0xbcc96b18	-0.0245872
66	0xbaf24fc3	-0.0018486906
67	0x3b0383f3	0.0020067662
68	0x3a3e62c9	0.0007262645
69	0xbc4c8ea1	-0.012485177
70	0xbc16cb62	-0.009203764
71	0x3bed526c	0.0072424915
72	0x3c13fd10	0.009032503
73	0xbc2ad109	-0.010425814
74	0x39eb5981	0.00044889378
75	0xbca861b4	-0.020554401
76	0xbbb53178	-0.005529579
77	0xbba5146e	-0.005037836
78	0x3c0a8c1b	0.008456255
79	0x3b962a97	0.004582714
80	0x3bfa3783	0.007636012
81	0xb91258cd	-0.00013956726
82	0x3c112dab	0.008860986
83	0xbc505c4f	-0.012717321
84	0x3c8ab533	0.016932106
85	0xbc20f05b	-0.00982293
86	0x3c983ff9	0.018585192
87	0xbbb6ca8f	-0.005578346
88	0x3c17cf7f	0.0092657795
89	0x3b4699c1	0.0030304047
90	0x3bc16bc9	0.0059027416
91	0x397ef290	0.00024313689
92	0xbb9e2e1c	-0.004827274
93	0x3b480a77	0.0030523816
94	0x3bb84105	0.0056229853
95	0xbc78c6c4	-0.015184108
96	0xbc2e7656	-0.010648331
97	0x3b5a0560	0.0033267364
98	0x3cd228b2	0.02565417
99	0x3cfc6021	0.030807557
100	0xbb8ebb57	-0.0043558287
101	0x3c6e1d5f	0.01453337
102	0x3b174ad3	0.002308537
103	0xbc1231eb	-0.008923034
104	0x3cc8560e	0.024455097
105	0x3b084319	0.0020791946
106	0x3bdc5fe7	0.0067252996
107	0xbb1f1b84	-0.0024277875
108	0x3b078a2f	0.002068173
109	0xbc6a37a3	-0.014295491
110	0x3c4f80fe	0.0126650315
111	0xbceb6dfe	-0.028738972
112	0xbc33f28f	-0.010983123
113	0x3a3c14b1	0.0007174714
114	0x3aa77dde	0.00127786
115	0xbc0b9a96	-0.008520743
116	0x3bed70b9	0.0072461036
117	0xbb5946b1	-0.0033153708
118	0x3c553a2c	0.013014358
119	0x3ad8bb50	0.0016535316
120	0x399a7ad8	0.00029464695
121	0x3b1838c0	0.0023227185
122	0xbb7366b1	-0.0037140066
123	0x3b4f5104	0.0031633982
124	0x3a136c64	0.00056237564
125	0xb9b8b9e1	-0.00035233705
126	0x3c6f11bd	0.0145916315
127	0x3c894e88	0.01676108
128	0xbbd260da	-0.006420237
129	0x3c7e8b1f	0.015536099
130	0xbb909d68	-0.0044132955
131	0x3bf8180d	0.0075712265
132	0x3ba01b99	0.0048861024
133	0xbc57ae28	-0.013164081
134	0x3bfddeee	0.0077475226
135	0xbbf1a671	-0.0073745777
136	0x3be86a39	0.007092741
137	0xbaeeb683	-0.0018212352
138	0xbba1c128	-0.004936356
139	0x389611c2	7.155865e-05
140	0xbb7e0b2e	-0.0038763988
141	0xbc42c674	-0.011888135
142	0xbba2e3f9	-0.004971024
143	0xbcabe2d0	-0.020982176
144	0x3c786cff	0.015162705
145	0x3abdb2df	0.0014472863
146	0xba5491eb	-0.00081089017
147	0x3aa62c2c	0.0012677959
148	0xbbdcb393	-0.006735274
149	0x3cc5ef45	0.024161944
150	0x3a7a61f1	0.00095513376
151	0x3ba03b00	0.004889846
152	0x3bc3970c	0.005968934
153	0xbae50074	-0.0017471449
154	0xbc0077de	-0.007841079
155	0xbc30bfc7	-0.010787911
156	0xbada458a	-0.0016652804
157	0xbc16e632	-0.009210156
158	0xbb690c3f	-0.0035560278
159	0xbb46d932	-0.003034186
160	0xbc1c71a1	-0.009548576
161	0xbb9bbdf3	-0.0047528683
162	0xbb23f427	-0.0025017352
163	0xbc16e9d9	-0.009211027
164	0xbc2bf5de	-0.010495631
165	0x3bfb323b	0.0076659
166	0xbc8c6933	-0.017140007
167	0xbb9fa0e9	-0.004871477
168	0xbc385bf0	-0.011252388
169	0xbbd9adfb	-0.0066430545
170	0xbbf4daa4	-0.007472353
171	0x3c8af00e	0.01696017
172	0x3790c81c	1.725932e-05
173	0xbb7bd334	-0.0038425447
174	0x3b386008	0.002813341
175	0xbb9502fb	-0.0045474744
176	0x3af4a6c4	0.0018665423
177	0x3c165bde	0.009177176
178	0xbbb2a8d6	-0.0054522557
179	0xbcefe914	-0.029285945
180	0x3b2424a3	0.0025046251
181	0xbbf1b2d5	-0.007376055
182	0x3816069a	3.5768935e-05
183	0xbc0cf2ad	-0.00860278
184	0xba0b77d5	-0.00053202856
185	0xbc06767e	-0.008206962
186	0x3c5a73de	0.013333289
187	0x3b2030f5	0.0024443243
188	0x3af52888	0.0018704096
189	0x3b6a7743	0.0035776652
190	0x39fd32eb	0.00048293857
191	0x3c742b33	0.014902878
192	0xbad75706	-0.0016429133
193	0x3c9faf88	0.01949288
194	0x3b28b162	0.0025740494
195	0xbc60bd38	-0.013716988
196	0x3c0421ab	0.008064668
197	0x3c487fa5	0.012237464
198	0x3c8f23dc	0.017473154
199	0xbc08a346	-0.008339709
200	0xbbc9fa1b	-0.006163848
201	0xbb41d927	-0.0029578896
202	0xbb14aa14	-0.0022684382
203	0x3c8488bc	0.016178481
204	0xbbba2947	-0.00568119
205	0xbab3c0d7	-0.0013714087
206	0x3b2aa1cf	0.0026036387
207	0x3bd2553d	0.0064188526
208	0xbac4b475	-0.0015007394
209	0x3b1ca00f	0.0023899113
210	0x3c48b11a	0.012249256
211	0xbc1c3f4c	-0.0095365755
212	0x3b353459	0.002764961
213	0xbb9b77e8	-0.0047445185
214	0x3b52a11b	0.0032139483
215	0x3cc684a9	0.02423318
216	0xbc8e8286	-0.017396223
217	0x3ca23e23	0.01980502
218	0x3b285315	0.0025684286
219	0xbb84c185	-0.0040513896
220	0xbba2a680	-0.004963696
221	0xbb0086f7	-0.0019611695
222	0xbba99460	-0.0051751584
223	0x3b90f656	0.004423897
224	0x3bed035c	0.0072330665
225	0xbb428ff8	-0.0029687863
226	0xbc673a6d	-0.014113051
227	0xbbc10b07	-0.005891207
228	0xbbaf246f	-0.0053449194
229	0x3bf8d0f8	0.0075932704
230	0xbc04d949	-0.008108445
231	0x3bbdbcd5	0.005790333
232	0xbc9a92d5	-0.018868843
233	0xbc39ad32	-0.011332797
234	0x3c77d830	0.015127227
235	0x3c003969	0.007826188
236	0x3bdf30f5	0.006811256
237	0x3c3bef15	0.011470576
238	0xbc1b067c	-0.009461995
239	0x3c071a67	0.008246041
240	0xbc9adc28	-0.018903807
241	0xbb12e31f	-0.0022413207
242	0xbc829b6a	-0.015943248
243	0x3bdbb2c3	0.0067046597
244	0x3b5206d4	0.0032047527
245	0xbc4da776	-0.012552133
246	0x3b98f7e0	0.004668221
247	0x3c138d6e	0.009005887
248	0xb9fe725b	-0.00048531857
249	0xbbd97012	-0.0066356743
250	0xbaa64395	-0.0012684936
251	0xbb44331d	-0.0029937692
252	0x3bedeb72	0.0072607333
253	0x3cbc8b83	0.023015743
254	0xba67e47d	-0.0008845998
255	0x3b1b029c	0.0023652678

action_model._discrete_distribution.branches.1.bias f4 [2]
0	0xb9b69620	-0.00034825597
1	0x39b6964b	0.00034825722
