UnityProject/results/testModel10/AICar/AICar-5519776.pt (torch, 790195 bytes, 49 tensors)

discrete_act_size_vector f4 [1, 2]
0	0x40000000	2.0
1	0x40000000	2.0

network_body._body_endoder.seq_layers.0.weight f4 [128, 117]
0	0x3ec7edde	0.39048666
1	0xbc041eac	-0.008063953
2	0x3dba4557	0.09095257
3	0xbd90bc1c	-0.07067129
4	0xbc651376	-0.013981691
5	0x3e10830b	0.14112489
6	0xbef0589d	-0.46942607
7	0x3d02fb39	0.031977866
8	0x3cfa4dea	0.03055473
9	0x3ca7df1f	0.020492135
10	0x3ea22b55	0.31673685
11	0xbd9a8f05	-0.0754681
12	0xbd1645c2	-0.03668762
13	0xbda87de4	-0.08227137
14	0xbd04c629	-0.032415543
15	0x3ea8740a	0.3290103
16	0xbe271d3a	-0.16319743
17	0xbd762b3b	-0.06009982
18	0xbdedb9c9	-0.11607701
19	0xbe2405e4	-0.16017872
20	0x3bbdfdcb	0.0057980767
21	0x3c449817	0.011999152
22	0x3b63ca98	0.0034758206
23	0xbe289cec	-0.16466111
24	0x3df5bbd2	0.119987145
25	0x3da995b7	0.08280509
26	0xbe310773	-0.17287998
27	0xbdba56b6	-0.0909857
28	0xbdb85c17	-0.0900194
29	0xbc7bd3c3	-0.015370312
30	0xbe52da40	-0.20591068
31	0xbd2ef21b	-0.04271136
32	0x3d538f2b	0.051650207
33	0x3e7714a0	0.24128962
34	0x3deaf6b2	0.11472835
35	0x3e135cfc	0.1439094
36	0xbe187af1	-0.14890648
37	0xbda88aac	-0.082295746
38	0x3e0bd355	0.13654836
39	0xbca61756	-0.0202748
40	0xbd99ee3f	-0.07516145
41	0x3e1542e8	0.14576304
42	0x3db087e9	0.08619673
43	0xbde996e7	-0.114057355
44	0x3da1daa4	0.079030305
45	0x3dfacec3	0.12246468
46	0xbec377f7	-0.38177463
47	0xbdd8aceb	-0.105798565
48	0xbc825603	-0.015910154
49	0xbd0b4c63	-0.034008395
50	0xbd49aa3d	-0.049234618
51	0x3e175316	0.14777789
52	0x3de4ee21	0.11178232
53	0xbd482c6e	-0.048870496
54	0xbbe08db1	-0.0068528284
55	0x3e1d9217	0.1538776
56	0xbdeca7aa	-0.11555417
57	0xbe280c94	-0.16411048
58	0x3c14d06d	0.009082896
59	0xbd84d9ea	-0.06486876
60	0xbe0666f1	-0.13125207
61	0x3e301cdb	0.17198507
62	0xbdcdd13d	-0.10049675
63	0xbd98c432	-0.07459296
64	0x3b8104ae	0.0039373254
65	0x3cb6e618	0.022326514
66	0xbe1072e3	-0.14106326
67	0x3db420fc	0.08795354
68	0x3c5ddae5	0.013540958
69	0xbd60f7de	-0.054923885
70	0xbd3d780e	-0.04625707
71	0xbca20f50	-0.019782692
72	0xbd6171fb	-0.05504034
73	0xbd80c0e3	-0.0628679
74	0x3dc7aca3	0.09749725
75	0xbd90dd8b	-0.07073506
76	0x3d391f73	0.045196008
77	0xbd66de51	-0.05636436
78	0x3e000cce	0.12504885
79	0xbdd7e4ba	-0.10541673
80	0x3b793c3e	0.0038030292
81	0x3e3655ee	0.17806217
82	0x3dcaf48a	0.099099234
83	0xbd5b6289	-0.053560767
84	0x3e3c4390	0.18385148
85	0xbd8809db	-0.06642505
86	0x3c7f09c7	0.015566296
87	0x3d42343c	0.047413096
88	0xba0b06d1	-0.0005303445
89	0xbc419e1d	-0.011817482
90	0xbd85d465	-0.06534652
91	0x3e28995c	0.16464752
92	0xbc11e8fe	-0.008905647
93	0x3e1b98c0	0.15194988
94	0x3e894a53	0.26814517
95	0x3c2c675d	0.010522691
96	0x3df88cff	0.12136268
97	0x3ce8eb79	0.028432595
98	0xbdb43d61	-0.088007696
99	0xbdbe0361	-0.09277988
100	0xbce96128	-0.02848871
101	0xbb2eacc1	-0.0026653262
102	0xbd767705	-0.0601721
103	0xbd7ee7a1	-0.062232617
104	0x3d74fda4	0.059812203
105	0x3c1b8beb	0.009493808
106	0xbde54e36	-0.11196558
107	0xbe5ebf66	-0.217527
108	0xbdc4c47b	-0.09607788
109	0xbdbff026	-0.093719766
110	0xbb309c5b	-0.0026948664
111	0xbd78b7c0	-0.060722113
112	0xbe0c4b0d	-0.13700505
113	0x3ccbba35	0.024869064
114	0xbdb57107	-0.08859449
115	0xbc525ac6	-0.012839025
116	0xbd255947	-0.040368345
117	0xbe113480	-0.14180183
118	0x3c142c45	0.009043758
119	0x3da71509	0.08158309
120	0xbb9ea57b	-0.004841504
121	0x3e04d76d	0.12972803
122	0xbe6b5669	-0.22982182
123	0xbc8ad2ce	-0.016946223
124	0x3d8bb98b	0.06822499
125	0xbc3e93cd	-0.011631918
126	0x3e871828	0.26385617
127	0x3ddeda3a	0.10881467
128	0x3d17179e	0.036887757
129	0xbdc00407	-0.09375768
130	0x3ddee13e	0.10882805
131	0x3e152fd9	0.14569034
132	0x3c05363f	0.008130609
133	0xbd867c76	-0.06566708
134	0xbd3e990c	-0.046532676
135	0x3de530db	0.11190959
136	0x3d8ffa99	0.070302196
137	0xbcb9aef0	-0.022666425
138	0xbcb8de58	-0.02256696
139	0x3cf2e595	0.029650489
140	0xbd8d465c	-0.068981856
141	0xbe5549f1	-0.20828988
142	0xbd1bc8b3	-0.0380332
143	0x3e5f1a11	0.21787287
144	0x3ce91df8	0.028456673
145	0xbbd6ce10	-0.0065553263
146	0x3e1cfdba	0.15331164
147	0x3cb3affb	0.0219345
148	0x3c2fc363	0.010727736
149	0x3e1222be	0.14271066
150	0x3dce3505	0.100687064
151	0x3e2c2727	0.1681181
152	0xbe0bb127	-0.13641797
153	0x3dbf36a9	0.093365975
154	0x3e383d6b	0.17992179
155	0x3e1a74b3	0.1508358
156	0x3df19a09	0.11796958
157	0xbd8656fd	-0.065595604
158	0x3bc0c73d	0.005883126
159	0x3e73f875	0.23825248
160	0x3e38bb82	0.18040279
161	0x3e23a806	0.15982065
162	0xbe3c1df1	-0.18370797
163	0x3e765df0	0.24059272
164	0x3e045578	0.12923229
165	0xbd5477bb	-0.051871996
166	0x3e24d30e	0.16096136
167	0x3cfa31c5	0.03054131
168	0xbe49ae62	-0.19695428
169	0xbd8895c9	-0.06669194
170	0x3e095bd0	0.1341393
171	0x3bae8f0a	0.00532711
172	0xbd6b9dba	-0.057523467
173	0x3d6586e0	0.05603683
174	0xbd3d7932	-0.04625816
175	0xbc9ad1fa	-0.018898953
176	0x3d3174b4	0.043324187
177	0xbd5e06f1	-0.05420584
178	0xbd27a687	-0.040930297
179	0xbd0747f9	-0.033027623
180	0xbd229827	-0.039695885
181	0xbcb93756	-0.022609394
182	0x3e0ee88b	0.13955896
183	0x3d2fc47c	0.04291199
184	0x3c6f43e2	0.014603587
185	0xbe630159	-0.22168483
186	0x3cd64ce4	0.026159711
187	0xbce87462	-0.028375808
188	0xbe384f45	-0.17998989
189	0xbd678307	-0.05652144
190	0x3d93926d	0.07205663
191	0x3da70973	0.08156099
192	0xbdbac829	-0.09120209
193	0x3b959a7e	0.004565536
194	0x3d327e74	0.043577626
195	0xbe05f2fd	-0.13080974
196	0x3d555882	0.05208636
197	0x3df6c453	0.120491646
198	0x3d0bb12e	0.03410452
199	0xbd672ef5	-0.056441266
200	0x3d912b00	0.0708828
201	0xbdc41b16	-0.09575479
202	0x3cfe83fa	0.03106879
203	0x3cb6d361	0.02231759
204	0xbcf48ec1	-0.029853227
205	0xbe28b6da	-0.16476002
206	0x3d650264	0.055910483
207	0xbd3dcdc6	-0.04633882
208	0x3d856ce1	0.06514908
209	0x3d53d472	0.051716276
210	0x3deb0362	0.114752546
211	0xbdb2bf29	-0.08727867
212	0xbe17413e	-0.14770982
213	0xbdb6cfdd	-0.089263655
214	0x3dc51ba8	0.09624416
215	0xbd010e3b	-0.03150771
216	0xbd71d5bc	-0.059041724
217	0x3c4fdf49	0.012687513
218	0xbd04e49a	-0.032444574
219	0x3dd85e34	0.10564843
220	0xbe23723d	-0.15961547
221	0xbd050127	-0.032471802
222	0xbe673ddb	-0.2258219
223	0x3cb3be0a	0.021941204
224	0xbcd636fd	-0.026149267
225	0xbaeda116	-0.0018129672
226	0x3b7124c5	0.0036795598
227	0xbc022e5f	-0.007945626
228	0x3deaa57a	0.114573434
229	0x3c6cb4a2	0.014447363
230	0xbd589c8c	-0.05288367
231	0xbd743fd5	-0.059631187
232	0xba97e839	-0.0011589593
233	0xbce639a0	-0.02810365
234	0x3dd8e7b0	0.10591066
235	0xbcb00301	-0.021485807
236	0x3d4f50ee	0.05061429
237	0x3da3ad4d	0.07992039
238	0x3e07a275	0.13245566
239	0x3eaade6e	0.33372825
240	0x3c8d5017	0.017250104
241	0x3cb1e970	0.021717757
242	0xbc3103ce	-0.01080413
243	0x3dbddbfb	0.092704736
244	0xbe899efa	-0.26879102
245	0x3e13facc	0.1445114
246	0xbdc06e76	-0.09396069
247	0x3d1ba751	0.038001362
248	0x3d8e5b6b	0.0695103
249	0x3ea86bf0	0.3289485
250	0xbe40026c	-0.18750924
251	0x3ea36dcc	0.31919706
252	0x3da12bf1	0.07869709
253	0xbd29b6de	-0.04143416
254	0xbd77ab3f	-0.060466047
255	0x3e69bd90	0.22826219

network_body._body_endoder.seq_layers.0.bias f4 [128]
0	0x3d00e2b1	0.03146619
1	0x3cd2ab31	0.025716396
2	0xbcc6cfb9	-0.024268972
3	0x3c90d357	0.0176789
4	0x3d2ee886	0.04270222
5	0x3ad22ec0	0.0016035661
6	0x3c341c1c	0.01099303
7	0x3b94ee96	0.004545043
8	0xbb4bb0d8	-0.003108075
9	0x3c648e53	0.013949948
10	0xbbd400dc	-0.006469829
11	0x3c90bac3	0.01766718
12	0x3bf38424	0.007431524
13	0x3b36ae92	0.0027875048
14	0x3b0f2d77	0.0021847168
15	0x3b5fc43a	0.003414406
16	0xbc843bda	-0.01614182
17	0x3c368608	0.011140354
18	0x3a818fe1	0.0009884798
19	0x3c2b0df0	0.010440335
20	0x3b8e60fe	0.0043450585
21	0xbb56e4da	-0.0032790215
22	0xbbb1c3ca	-0.005424951
23	0xbc4f2a77	-0.012644402
24	0x3d0b7be7	0.03405371
25	0x3b3f0b04	0.0029150853
26	0xbc82052c	-0.015871607
27	0xbc4c4fdb	-0.012470211
28	0x3c6acf53	0.0143316565
29	0xbbd020a5	-0.006351548
30	0x3c94df82	0.018172983
31	0x3d097549	0.033559117
32	0x3ca6bcff	0.020353792
33	0x3c011cfe	0.007880447
34	0x3bb8e8f2	0.0056430036
35	0x3ba6b672	0.005087667
36	0xbc8d812f	-0.017273514
37	0xbbcf262f	-0.0063216905
38	0x3c41229b	0.011788036
39	0x3c67408e	0.014114512
40	0x3cfe573d	0.031047458
41	0xbc7af61d	-0.015317467
42	0x3c9c09c1	0.01904762
43	0x3b18a835	0.0023293619
44	0x3a58319a	0.00082471373
45	0x3bfd71f8	0.0077345334
46	0x3c548d63	0.012973162
47	0x3b0b254e	0.0021231952
48	0xb9a75e28	-0.00031922874
49	0x3c03835a	0.008026922
50	0xbc38e953	-0.011286098
51	0x3c75b31c	0.014996316
52	0xbc68f8e0	-0.014219493
53	0xbcbf6044	-0.023361333
54	0xbc86db89	-0.016462104
55	0x3cc740c1	0.02432287
56	0xbb9c3402	-0.004766942
57	0xbbeffd9d	-0.007323934
58	0xbb884140	-0.004158169
59	0x3b131ae0	0.0022446439
60	0x3bd4493d	0.0064784572
61	0x3d419315	0.04725941
62	0x3cb87258	0.02251546
63	0x3cf2ff57	0.029662771
64	0x3cc46d65	0.023977945
65	0xbd16cc21	-0.036815766
66	0xbc7b1f97	-0.015327356
67	0xbab1945d	-0.0013548244
68	0xbbbee881	-0.0058260565
69	0x3c466287	0.012108452
70	0xbce70879	-0.028202282
71	0x3c10c477	0.008835903
72	0x3be609da	0.0070202174
73	0x3b59cc74	0.0033233436
74	0xbb9dd8f2	-0.0048171217
75	0x3d13186b	0.03591196
76	0x3c89f9b9	0.01684271
77	0x3c1f5b9a	0.009726429
78	0x3c26ede8	0.010188557
79	0xbb8bfe0d	-0.0042722286
80	0xbd012ccf	-0.031536873
81	0x3c8303b4	0.015992977
82	0x3d03be37	0.032163825
83	0x3b0a99f4	0.0021148892
84	0x3ca83ad2	0.02053586
85	0x3a67f1bc	0.0008847972
86	0x3d200347	0.039065626
87	0xbcef74f3	-0.02923057
88	0xbd0301b2	-0.03198404
89	0x3c8bcfd6	0.017066877
90	0x3c5555ae	0.013020916
91	0x3c3571a0	0.011074454
92	0x3d5c4185	0.05377342
93	0x3ad2f06d	0.0016093381
94	0x3ca96983	0.020680195
95	0x3cd31c98	0.02577047
96	0xbcb5e48f	-0.022203712
97	0xbbc9dd5e	-0.006160422
98	0xbbf0dea3	-0.007350759
99	0x3d436300	0.047701836
100	0x3cc235be	0.023707267
101	0x3c108e8f	0.008823051
102	0xbcd26e37	-0.02568732
103	0x3c8d7790	0.017268926
104	0xbc2b9f82	-0.010475041
105	0xbc956cc1	-0.018240334
106	0x3d1f17eb	0.03884117
107	0xbbf7bcf9	-0.007560369
108	0xbc60f2ad	-0.013729733
109	0x3b936296	0.0044978363
110	0x3cc4286c	0.023945056
111	0x3cb7f5b3	0.022456026
112	0xbb46e53d	-0.003034904
113	0x3cbf4ff6	0.023353558
114	0xbb3018c1	-0.0026870223
115	0x3c049b47	0.008093662
116	0xbab968a8	-0.001414557
117	0x3ccbd542	0.024881963
118	0x3d0ac2ec	0.0338773
119	0xbab55dee	-0.0013837197
120	0xbbabae95	-0.0052393177
121	0xbc1fa11f	-0.009743004
122	0x3c75d83a	0.015005166
123	0x3c7063fb	0.014672275
124	0x3c0e3857	0.008680425
125	0x3ca30330	0.01989898
126	0xbc343da9	-0.011001029
127	0x3c936d27	0.017996384

network_body._body_endoder.seq_layers.2.weight f4 [128, 128]
0	0xbe00918b	-0.1255552
1	0x3d41e49c	0.04733716
2	0xbdfbb520	-0.12290406
3	0xbdb940d0	-0.09045565
4	0xbe194de5	-0.1497112
5	0x3cdbed9e	0.026846703
6	0x3e69d548	0.22835267
7	0x3dbc821f	0.09204506
8	0xbe76b3c5	-0.24092014
9	0x3e082014	0.13293487
10	0x3c66f24d	0.014095855
11	0x3e216aea	0.1576344
12	0xbd8e8bf3	-0.06960287
13	0x3d79762c	0.060903713
14	0xbe41b479	-0.18916501
15	0xbe5b31a7	-0.2140566
16	0xbe039a05	-0.12851723
17	0x3e10eb4d	0.1415226
18	0xbde90309	-0.11377532
19	0x3d422634	0.047399715
20	0x3da1f654	0.079083115
21	0x3c61c77c	0.013780471
22	0xbd83f5a1	-0.06443334
23	0x3db731cc	0.08945045
24	0xbd023bc3	-0.031795274
25	0x3de791b8	0.113070905
26	0x3d20b499	0.03923473
27	0xbd536ebf	-0.051619288
28	0x3e1ddba5	0.15415819
29	0x3d8d98d3	0.069139145
30	0x3bdd8619	0.0067603705
31	0xbdccf1d8	-0.100070655
32	0x3e09dbb3	0.13462715
33	0x3b8f11d8	0.004366141
34	0xbe4d8df5	-0.20073684
35	0x3dbd7caf	0.09252297
36	0xbcdfa2a1	-0.027299227
37	0xbd4ddd3c	-0.050259814
38	0xbda76a4e	-0.08174573
39	0x3dc6f9d4	0.0971562
40	0xbdf90153	-0.12158456
41	0xbbda0e74	-0.006654555
42	0x3dcb4bc1	0.09926558
43	0x3d6053e2	0.054767497
44	0x3d36adcc	0.04459934
45	0x3e67b5b3	0.22627907
46	0xbc8de982	-0.01732326
47	0x3d451096	0.04811152
48	0xbcb389f1	-0.021916362
49	0xbd982ee3	-0.07430818
50	0x3d59240b	0.05301289
51	0xbe2969e5	-0.16544302
52	0xbd792f2e	-0.06083601
53	0x3c3322cf	0.010933592
54	0x3e861871	0.26190522
55	0xbdc47836	-0.09593241
56	0x3b40438b	0.0029337134
57	0xbe60b44b	-0.21943776
58	0xbdddd799	-0.108321376
59	0xbcb34292	-0.02188233
60	0x3d40cf25	0.04707255
61	0x3b8243de	0.0039753756
62	0x3bc4dfa6	0.0060081063
63	0xbd9ac543	-0.07557156
64	0xbc74f421	-0.014950783
65	0xbded7bda	-0.115958884
66	0xbe2ba724	-0.16762978
67	0x3d43ffb9	0.047851298
68	0x3d18d5af	0.03731316
69	0xbd6b107b	-0.057388764
70	0xbd67788a	-0.05651144
71	0xbd56be43	-0.05242754
72	0x3de1a3e4	0.11017588
73	0xbe0ab9f9	-0.13547505
74	0xbe057314	-0.1303218
75	0x3e3547fb	0.1770324
76	0xbd170478	-0.036869496
77	0xbe24b468	-0.16084445
78	0xbdd12e04	-0.10213855
79	0xbd7e7522	-0.062123425
80	0x3dbcb06b	0.092133366
81	0xbd42f3b8	-0.04759571
82	0x3dc1bc3e	0.094597325
83	0x3dee31d8	0.11630601
84	0x3d3c044e	0.045902543
85	0x3d3a1759	0.045432422
86	0x3dc508b5	0.09620801
87	0xbccca751	-0.024982126
88	0xbd71637c	-0.058932766
89	0xbd82ba7f	-0.063832276
90	0xbd59b572	-0.053151555
91	0xbd1ff6bb	-0.03905366
92	0x3e5cea62	0.21573785
93	0xbc2229aa	-0.009897629
94	0xbd946ec6	-0.07247691
95	0xbd316835	-0.04331227
96	0xbdd08ad2	-0.10182728
97	0xbd23bd34	-0.03997536
98	0xbbb07790	-0.0053853467
99	0xbe034519	-0.12819327
100	0x3d70c2c9	0.05877951
101	0xbe4ab9a7	-0.19797383
102	0x3d19d33f	0.037554976
103	0xbd538744	-0.05164267
104	0xbde84d09	-0.11342818
105	0xbd09fda7	-0.033689167
106	0xbddaa887	-0.10676675
107	0xbe282ecf	-0.16424106
108	0xbda3c6bf	-0.07996892
109	0xbe00a6ea	-0.12563673
110	0x3e36fcbf	0.17869852
111	0xbc24962f	-0.010045572
112	0x3d56554d	0.052327443
113	0x3d7b699f	0.061380025
114	0xbcd388da	-0.025822092
115	0xbe1573fc	-0.14595026
116	0xbd3a2034	-0.045440868
117	0x3e04a057	0.1295179
118	0xbe214278	-0.15748012
119	0x3e2aaeea	0.16668287
120	0xbcc0d97c	-0.023541205
121	0x3c922493	0.017839706
122	0xbdc3f1f4	-0.09567633
123	0xbe27619f	-0.16345833
124	0xbd8aaa71	-0.0677079
125	0x3e1c5ac6	0.15269002
126	0xbd1de160	-0.038545012
127	0x3df77523	0.12082889
128	0x3e04de31	0.12975384
129	0x3d260e5b	0.040541034
130	0x3c25cc27	0.0101194745
131	0xbd062071	-0.032745782
132	0xbca1b0ad	-0.019737566
133	0xbd0ad7b8	-0.03389713
134	0x3e39b641	0.1813593
135	0x3ca7277e	0.020404574
136	0xbcf3b89f	-0.02975112
137	0x3df2fb35	0.1186432
138	0xbe0032aa	-0.12519327
139	0xbde0b7ce	-0.10972558
140	0xbd80b225	-0.062839784
141	0xbe1c6bbe	-0.15275475
142	0xbca1a8a4	-0.019733734
143	0xbd9798de	-0.07402204
144	0xbd1afbfc	-0.037837967
145	0xbc47c340	-0.012192547
146	0x3dfc51b3	0.123202704
147	0x3dc3b3a3	0.09555747
148	0x3d2a397a	0.04155872
149	0x3d1ede0e	0.038785987
150	0xbd8ad0ce	-0.067781076
151	0xbd9616e0	-0.07328582
152	0x3d8875a8	0.06663066
153	0x3dd44e8b	0.103665434
154	0x3bbb399b	0.005713654
155	0xbdbeb27e	-0.093113884
156	0x3de08cf5	0.109643854
157	0x3d399d49	0.045316014
158	0xbdf5fb9c	-0.12010881
159	0x3b27b068	0.0025587324
160	0xbe46fd19	-0.19432487
161	0x3db0d0c6	0.086335704
162	0xbdb4aa7d	-0.088215806
163	0xbd8254fa	-0.06363864
164	0x3e066878	0.13125789
165	0xbdb3b88a	-0.087754324
166	0xbdeedcf2	-0.11663236
167	0xbd60175f	-0.05470979
168	0xbe671a39	-0.22568597
169	0x3e2c1f58	0.16808832
170	0xbcfd9f22	-0.03095967
171	0xbbe321b2	-0.006931507
172	0xbdd29e1a	-0.10284062
173	0xbd8b9ce3	-0.06817033
174	0xbd8a9a22	-0.0676768
175	0x3d97516d	0.073885776
176	0x3bffe1eb	0.007808914
177	0xbcc9fbe9	-0.024656253
178	0x3d8222ac	0.063542694
179	0x3d369870	0.04457897
180	0x3d39a07e	0.045319073
181	0x3d3d4af9	0.046214078
182	0x3e0e5714	0.13900405
183	0xbe17240a	-0.14759842
184	0x3c1a36e1	0.009412498
185	0x3d300f4d	0.042983342
186	0xbe15c9d8	-0.14627779
187	0xbe7ed641	-0.24886419
188	0xbce3d9a8	-0.027813748
189	0xbd8fcc30	-0.070213675
190	0x3d657255	0.05601724
191	0xbe4a2c07	-0.19743358
192	0x3bb3022b	0.005462905
193	0xbe080951	-0.13284804
194	0x3c17fc59	0.009276473
195	0x3d82d085	0.06387428
196	0xbca5f42d	-0.020258034
197	0xbdde6241	-0.10858584
198	0xbe3b63c2	-0.18299773
199	0x3d2c728d	0.04210143
200	0x3df7b541	0.12095118
201	0x3e2826b3	0.16421013
202	0xbd0d03f1	-0.034427587
203	0x3d677d70	0.05651611
204	0x3c16d639	0.009206348
205	0xbd125214	-0.035722807
206	0x3d804432	0.06263007
207	0xbd639614	-0.055563048
208	0x3d1b4d5a	0.037915565
209	0xbd9691a7	-0.07352
210	0xbdae2f96	-0.0850517
211	0x3cd3f192	0.025872026
212	0x3d24c94e	0.04023104
213	0x3d83adaa	0.06429608
214	0x3c5bb835	0.013410618
215	0x3d3b50b2	0.045731254
216	0xbe06e167	-0.13171922
217	0x3d823368	0.06357461
218	0xbe0df993	-0.13864736
219	0xbdd1de32	-0.102474585
220	0x3e080f90	0.13287187
221	0x3dae95c8	0.08524662
222	0x3c280286	0.010254508
223	0xbd943ed5	-0.07238547
224	0xbb45bbe7	-0.0030171813
225	0x3dc2540f	0.09488689
226	0xbd78e895	-0.060768683
227	0xbe1a564a	-0.15071979
228	0x3ddf2f2f	0.108976714
229	0x3d3fe58c	0.046849772
230	0x3d208032	0.039184757
231	0x3df2bd32	0.118524924
232	0x3dda2648	0.10651833
233	0xbcf572fa	-0.029962052
234	0xbd55abc3	-0.052165758
235	0x3e738648	0.23781693
236	0xbd068287	-0.032839324
237	0xbe50d5c2	-0.20394042
238	0xbc6caeef	-0.014446004
239	0xbd7d6b62	-0.061869986
240	0x3cda803d	0.026672477
241	0xbd2a8fe6	-0.04164114
242	0x3dc38392	0.095465794
243	0xbd63ff0c	-0.055663154
244	0xbd1d9eea	-0.03848163
245	0x3d6df136	0.058091365
246	0xbd7ce813	-0.06174476
247	0xbd92b85b	-0.07164069
248	0xbe254851	-0.16140868
249	0x3e041043	0.12896828
250	0xbd68408a	-0.056702174
251	0x3d3a6771	0.045508806
252	0xbca49925	-0.020092556
253	0xbdbb4909	-0.0914479
254	0xbbf685fc	-0.0075232964
255	0xbe01a4b3	-0.12660484

network_body._body_endoder.seq_layers.2.bias f4 [128]
0	0x3cba0433	0.02270708
1	0x3d241caa	0.0400664
2	0xbc073dfd	-0.008254525
3	0x3c92fc8c	0.01794269
4	0x3c12a876	0.008951297
5	0xbc6694e5	-0.014073585
6	0x3c848b97	0.016179843
7	0x3c2a9d95	0.010413547
8	0x3c841f08	0.016128078
9	0xbbc4bfd4	-0.006004313
10	0xbac410e2	-0.0014958645
11	0xbc6db13f	-0.014507591
12	0xbc0df76d	-0.008664948
13	0x3cb91b6c	0.022596084
14	0xbc5790bc	-0.013157066
15	0xbc171ba3	-0.009222898
16	0xba369305	-0.00069646566
17	0x3d0566aa	0.03256861
18	0xbb8f740c	-0.0043778475
19	0x3b17b80d	0.0023150474
20	0x3c1adccc	0.009452056
21	0xbbaf5e2e	-0.0053518033
22	0x3a218212	0.00061610446
23	0xbc4a2def	-0.012340053
24	0xbc603e80	-0.013686776
25	0xbc07d274	-0.008289922
26	0xbbd96a41	-0.006634981
27	0xbc05af95	-0.008159538
28	0x3c96971c	0.018382601
29	0x3c3fd7a9	0.011709132
30	0xbc72b099	-0.014812612
31	0xbb0c5f25	-0.0021419015
32	0x3c31e7d5	0.010858496
33	0xbcad8bc7	-0.021184815
34	0x3c10a10e	0.008827461
35	0xbbe6497b	-0.0070278025
36	0xbcaa05e9	-0.020754771
37	0xbc2682ad	-0.0101629915
38	0xbb3d93bc	-0.0028927168
39	0xbbd52c02	-0.0065054903
40	0xbc4b7371	-0.01241766
41	0x3cd0fa3f	0.025509952
42	0xbc699c9f	-0.014258533
43	0x3c524e7e	0.012836097
44	0x3bffa4b2	0.0078016156
45	0x3c9cbc00	0.019132614
46	0xbc8ff818	-0.017574355
47	0xbba33d09	-0.004981641
48	0xbbea0423	-0.0071416064
49	0xbc0ef71e	-0.0087259095
50	0x3c0bcd39	0.008532816
51	0x3b7a1323	0.003815838
52	0xbc01df75	-0.007926811
53	0xbc38710b	-0.01125742
54	0xbc240c83	-0.010012749
55	0xbbddeed3	-0.006772855
56	0x3c3bd3dd	0.011464086
57	0x3c27921c	0.010227706
58	0xba22533a	-0.00061922113
59	0x3b777c5f	0.003776334
60	0xbb8291ec	-0.0039846804
61	0x3c7dd5eb	0.015492897
62	0x3ac8e231	0.0015326199
63	0x3c8b3324	0.01699216
64	0x39d0b687	0.00039808845
65	0x3c5d7ea7	0.013518966
66	0x3cb784d0	0.022402197
67	0x39c77d07	0.0003804939
68	0x3c09bcba	0.008406812
69	0x3caed35a	0.021341015
70	0xbca8ab7d	-0.020589584
71	0x3c37f9b4	0.011228967
72	0xbc52c176	-0.0128635075
73	0xbb87629f	-0.0041316296
74	0xbc765921	-0.015035898
75	0x3c576172	0.013145791
76	0xbb69e845	-0.0035691422
77	0x3b9b049e	0.004730775
78	0x3c84d948	0.016216889
79	0x3c59c24b	0.013290952
80	0x3c69591a	0.014242435
81	0xbbb3f8e5	-0.005492317
82	0xbbcf615f	-0.006328746
83	0x3cf74837	0.030185802
84	0x3cdb1257	0.026742144
85	0x3c150bc9	0.009097048
86	0x3c3bff8d	0.011474502
87	0xb810f0d2	-3.4556557e-05
88	0xbba2c258	-0.0049670152
89	0xbc8e5ec7	-0.017379178
90	0x3c349d96	0.0110239
91	0x3c62d371	0.013844357
92	0xb9fd3a3c	-0.00048299308
93	0x3c09afec	0.008403759
94	0x3c3df4b8	0.01159399
95	0xba868240	-0.0010262206
96	0xbbe76a71	-0.0070622494
97	0x3c733c0a	0.014845857
98	0xbc4bf29f	-0.012447982
99	0x3c7582dc	0.014984813
100	0x3cf76e2d	0.030203903
101	0x3bdecac0	0.006799072
102	0xbb900ec1	-0.00439629
103	0x3c21a0c4	0.00986499
104	0xbc98f993	-0.018673694
105	0x3c1b72d8	0.00948783
106	0xbc582402	-0.013192179
107	0x3bab3afb	0.005225537
108	0xbc30dd81	-0.010794998
109	0xbc492d43	-0.012278858
110	0x3d1c2596	0.038121782
111	0xbbcccfad	-0.006250343
112	0x3be35026	0.0069370447
113	0xbc31bf67	-0.0108488565
114	0xbc5fdaf0	-0.013663039
115	0x3be8a536	0.007099773
116	0xbb87d805	-0.0041456246
117	0xb9cd4084	-0.00039148715
118	0xbb95361b	-0.004553569
119	0x3c003cc2	0.007826986
120	0x3b4aa1e7	0.0030919255
121	0x3a92183e	0.0011146141
122	0x3b8433c1	0.00403449
123	0x3b9c69ee	0.00477337
124	0xbc717a5e	-0.014738647
125	0x3becea82	0.007230104
126	0x3b18882f	0.002327453
127	0x3cb56001	0.022140505

action_model._continuous_distribution.log_sigma f4 [1, 2]
0	0xbe3cfcf7	-0.18455873
1	0xbec2132e	-0.37905258

action_model._continuous_distribution.mu.weight f4 [2, 128]
0	0xbc091741	-0.008367361
1	0xbcf13ef4	-0.029448964
2	0xbca00ae1	-0.019536437
3	0xbb9e525d	-0.004831596
4	0x3c2b1cfe	0.010443924
5	0x3cce695e	0.025196727
6	0xbc1d96d8	-0.0096184835
7	0x3c77d307	0.015125996
8	0xbdbdc03d	-0.09265182
9	0xbd53762c	-0.05162637
10	0xbcfa8053	-0.030578768
11	0x3c9fea4e	0.019520905
12	0xbcf2ae66	-0.029624175
13	0x3c0f4388	0.008744128
14	0x3c2ad1d2	0.010426002
15	0xba7813dc	-0.00094634085
16	0xbda8338e	-0.08212958
17	0x3cfa9529	0.030588703
18	0x3bf8c8b6	0.007592286
19	0xbd5f33e6	-0.054492854
20	0x3c93dddb	0.018050125
21	0x3cb944ba	0.02261578
22	0x3bd9945d	0.0066400007
23	0xbca01b7c	-0.019544356
24	0xbc3e5387	-0.011616594
25	0xbd4cc982	-0.04999686
26	0xbce05de9	-0.02738853
27	0x3d5e719e	0.054307573
28	0x3d696794	0.056983545
29	0xbc9c89a5	-0.019108603
30	0x3c1a1ce9	0.009406307
31	0xbc3e1c88	-0.011603482
32	0x3b226a2c	0.0024782522
33	0x3c4d307a	0.012523765
34	0xbd4f82f0	-0.05066198
35	0x3cba1571	0.022715302
36	0x3c333fd4	0.010940511
37	0x3c8173bb	0.015802255
38	0xbd215f89	-0.03939775
39	0x3c1924c0	0.009347141
40	0xbc8a3e7f	-0.016875504
41	0x3d2004ae	0.039066963
42	0x3d0590b1	0.03260869
43	0xbd36d26b	-0.044634264
44	0x3c2832f4	0.010266054
45	0x3de579be	0.11204861
46	0x3c7a2b6f	0.015269144
47	0x3d0dfadf	0.034663077
48	0x3d46640c	0.048435256
49	0xbcc9f42c	-0.024652563
50	0x3cb3fca1	0.021971049
51	0xbcc63659	-0.024195837
52	0xbd637229	-0.055528793
53	0xbdb5697e	-0.08858012
54	0x3d36488c	0.04450278
55	0x3b8c5e05	0.004283669
56	0x3c56d957	0.013113341
57	0x3b282751	0.00256582
58	0xbd241e9a	-0.040068246
59	0x3ca17f45	0.019714007
60	0xbcae55a7	-0.021281077
61	0x3c71e560	0.01476416
62	0xbd1f6089	-0.038910422
63	0x3dd7f4a0	0.105447054
64	0xbbdf4a40	-0.006814271
65	0x3cbf4115	0.023346463
66	0x3d7bca21	0.061472062
67	0xbc0b41f6	-0.008499613
68	0xbc324554	-0.010880787
69	0x3deff1e7	0.11716061
70	0x3b78a78f	0.003794167
71	0xbc691a44	-0.014227454
72	0x3cd5edda	0.026114393
73	0x3a8cfd78	0.0010756692
74	0xbc3263c6	-0.010888046
75	0xbd13e39a	-0.03610573
76	0xbd0541ca	-0.032533444
77	0x3a1e849f	0.0006046984
78	0x3d0b2a33	0.03397579
79	0x3c0704d5	0.008240898
80	0xbbee7c0f	-0.0072779725
81	0x3d11ff13	0.03564365
82	0xbb4132cf	-0.0029479747
83	0x3d1fb863	0.038994204
84	0xbdc5e6bb	-0.09663149
85	0x3d198160	0.037476897
86	0xbd35083a	-0.0441973
87	0xbd1a1037	-0.03761312
88	0x3ce092f9	0.027413832
89	0xbb9724a9	-0.0046125245
90	0x3c8f9ae2	0.017529909
91	0x3822b552	3.8792678e-05
92	0x3d15439c	0.03644143
93	0xbc8434fd	-0.016138548
94	0xbc188e67	-0.009311295
95	0x3c817d34	0.015806772
96	0xbcb4f625	-0.022090027
97	0xbc8584aa	-0.01629861
98	0x3c33cd94	0.010974307
99	0x3d53b3e8	0.051685244
100	0x3d8dd777	0.06925862
101	0xbc949c65	-0.018140981
102	0xbc764aaf	-0.015032454
103	0xbb8fa336	-0.00438347
104	0x3bd40c12	0.0064711655
105	0x3b8ed6a9	0.0043590856
106	0x3c7be21d	0.015373734
107	0xbbd0bdbf	-0.0063702757
108	0xbd534469	-0.051578913
109	0xbcca9325	-0.024728367
110	0x3da8f4ba	0.08249803
111	0x3c8783be	0.016542312
112	0xbd057b82	-0.03258849
113	0xbd08a603	-0.033361446
114	0x3c2916f2	0.010320412
115	0x3c8b8a89	0.017033832
116	0x3d4b2b04	0.04960157
117	0xbacea26b	-0.0015764957
118	0x3c0e3093	0.008678573
119	0xbb303dcf	-0.002689231
120	0x3c054f6c	0.008136611
121	0x3cbda971	0.023152085
122	0xbda02ce5	-0.07821063
123	0x3d8b55a6	0.068034455
124	0x3bb5e28d	0.0055506886
125	0x3cc2ada2	0.023764435
126	0xbcd64b01	-0.026158812
127	0x3b950adc	0.0045484137
128	0x3cd2be9f	0.02572566
129	0xbd08c264	-0.03338851
130	0x3da87596	0.08225553
131	0x3cc138ef	0.023586718
132	0xbc1587b9	-0.009126597
133	0xbcce9e53	-0.02522198
134	0x3cd3743f	0.025812266
135	0x3d19fe7d	0.037596215
136	0x39c10fdf	0.00036823653
137	0x3cbcce13	0.023047483
138	0xb86c3fc1	-5.632616e-05
139	0x3d96f4bd	0.07370899
140	0xbcb68a0d	-0.022282625
141	0x3c2ff730	0.010740086
142	0x3c026758	0.007959209
143	0xbc76095b	-0.015016879
144	0xbbb15854	-0.005412141
145	0x3cd34450	0.02578941
146	0xbd56881a	-0.05237589
147	0xbc05b68c	-0.008161198
148	0xbd6e7a6c	-0.05822222
149	0xbce79ebc	-0.028273933
150	0xbd875ddd	-0.066097
151	0xbd3e35e9	-0.04643813
152	0xbbf80f47	-0.0075701806
153	0xbd081d5d	-0.033231128
154	0xbd891208	-0.06692892
155	0xbdd3c3e0	-0.103400946
156	0xbb916795	-0.004437397
157	0x3cfe4750	0.031039864
158	0xbb933be2	-0.0044932226
159	0x3b7e6bd0	0.0038821585
160	0x3d0c9a15	0.03432663
161	0xbd1c0187	-0.038087394
162	0x3ce7b169	0.028282838
163	0xbd5430a2	-0.051804192
164	0xbc1c6a4e	-0.009546829
165	0xbd49beba	-0.049254157
166	0xbd2de1ae	-0.042451553
167	0xbc1b4fcb	-0.009479473
168	0xbcfa1dec	-0.030531846
169	0x3d9ea8b5	0.07747022
170	0xbc47883a	-0.012178475
171	0xbbf152fb	-0.0073646284
172	0x39b1ee2d	0.00033937526
173	0xbdd03455	-0.101662315
174	0xbc2963db	-0.010338749
175	0xbc9dcc5e	-0.019262489
176	0xbc8e7ea4	-0.017394371
177	0xbbfac82d	-0.0076532573
178	0x3c6c5ef9	0.01442694
179	0x3cd70abb	0.026250234
180	0xbd6c72e7	-0.057726767
181	0x3b0ae6d9	0.0021194725
182	0xbce1a4ea	-0.027544457
183	0x3c58ddb8	0.013236456
184	0x3cef0872	0.029178832
185	0x3c748b09	0.014925727
186	0xbc042f4c	-0.008067917
187	0xbcc36008	-0.023849502
188	0xbc76ecab	-0.0150710745
189	0xbdceaaab	-0.10091146
190	0x3cea3e2e	0.028594103
191	0xbc360e74	-0.011111844
192	0x3c8d408a	0.017242689
193	0x3ca55c06	0.020185482
194	0xbe027507	-0.12739955
195	0x3b877b38	0.004134562
196	0x3ce394a9	0.027780848
197	0xbd36fc11	-0.044673983
198	0xbd03d407	-0.032184627
199	0x3c6a42a4	0.014298115
200	0xbc907272	-0.017632697
201	0xbcffbb45	-0.031217227
202	0x3b8e2388	0.0043377317
203	0x3c85225f	0.016251741
204	0x3d1d8b80	0.038463116
205	0xbd5ef5cf	-0.05443364
206	0x3cd4c57d	0.025973076
207	0x3d4a9ddc	0.049466953
208	0xbd7b4a35	-0.061350066
209	0xbd9bf315	-0.076147236
210	0xbdacfdd4	-0.084468514
211	0x3cfeb5bd	0.031092519
212	0xbca4851e	-0.020083006
213	0x3af7933c	0.0018888484
214	0xbd1c23e3	-0.03812016
215	0x3d014e3f	0.031568762
216	0xbbe3a58a	-0.006947224
217	0xbcad97d7	-0.021190567
218	0x3d3e3a35	0.04644223
219	0x3d36c53c	0.04462169
220	0xbd6dea9f	-0.05808508
221	0x3c23b0a0	0.009990841
222	0x3ca6e394	0.02037219
223	0xbd1ee3c4	-0.038791433
224	0xbbc25843	-0.005930932
225	0x3d346b66	0.044047736
226	0xbd05f413	-0.03270347
227	0x3cf1f699	0.029536532
228	0x3cb8d1ef	0.022561042
229	0xbd0834c1	-0.033253435
230	0xbd555b1c	-0.05208884
231	0x3cac1e5c	0.02101057
232	0xbc887bf9	-0.016660677
233	0x3cef17de	0.029186185
234	0xbcc03342	-0.023461942
235	0x3d1fe866	0.03903999
236	0xbd135f40	-0.03597951
237	0xbc426d8b	-0.011866937
238	0x3c93bebe	0.018035289
239	0xbd43cdd4	-0.047803715
240	0x3da81954	0.08207956
241	0xbd035cfd	-0.032071102
242	0xbd459188	-0.048234493
243	0xbda93a1a	-0.08263035
244	0xbd320667	-0.043463137
245	0xbd8902bf	-0.06689977
246	0xbd28f3c8	-0.041248113
247	0x3cca5065	0.024696538
248	0x3d444858	0.047920555
249	0x3c78b4e2	0.015179845
250	0x3ceac9e2	0.028660718
251	0xbd71adbe	-0.059003584
252	0xbc10363b	-0.008801992
253	0x3bf45730	0.0074566826
254	0x3c4cc0d6	0.012497148
255	0x3d2ad499	0.041706655

action_model._continuous_distribution.mu.bias f4 [2]
0	0xbb48177a	-0.0030531571
1	0x3c85224c	0.016251706

action_model._discrete_distribution.branches.0.weight f4 [2, 128]
0	0xbdca3cf9	-0.09874911
1	0xbd9dcdb5	-0.07705251
2	0x3c602225	0.013680016
3	0x3c8b747d	0.01702332
4	0x3d634f3b	0.055495482
5	0x3cb10065	0.021606633
6	0x3a96951c	0.001148853
7	0x3d262756	0.040564857
8	0xbd4e6a51	-0.05039436
9	0x3af4f59b	0.0018688919
10	0xbc4eb981	-0.01261747
11	0x3d3da6db	0.046301704
12	0xbcbba0c2	-0.022903804
13	0x3d127bd6	0.03576263
14	0x3bef66de	0.007305964
15	0xbc8c641b	-0.017137578
16	0xbd85f142	-0.06540157
17	0x3cd601a5	0.026123831
18	0x3c55353c	0.01301318
19	0xbb580821	-0.003296383
20	0xbd3c2745	-0.045935888
21	0xbca1eddf	-0.019766746
22	0xbccf6d45	-0.025320658
23	0xbdd4e6e1	-0.10395599
24	0x3c73d8da	0.014883244
25	0xbd31b90f	-0.043389376
26	0x3b4419ed	0.002992268
27	0xbc78d746	-0.015188044
28	0x3d0ac911	0.033883158
29	0xbc48f103	-0.012264493
30	0x3c16e2a5	0.00920931
31	0xbb8d9409	-0.0043206257
32	0xbaf8b12f	-0.0018973703
33	0x3cb284fc	0.021791928
34	0x3cfbd421	0.0307408
35	0xbc34c7e2	-0.011033984
36	0x3cbdc845	0.023166785
37	0xbc87feb2	-0.01660094
38	0x3d81ad91	0.06331933
39	0x3cc8645c	0.024461918
40	0x3c0a4f59	0.0084417695
41	0x3cbf210e	0.023331191
42	0x3c367506	0.011136299
43	0x3d1294f5	0.035786588
44	0xbd3ce8ba	-0.046120383
45	0xbb4b7190	-0.003104303
46	0x3d1fa361	0.03897417
47	0xb9da9c53	-0.0004169667
48	0xbbab7944	-0.005232962
49	0xbb15ee7f	-0.002287775
50	0x3c8729c6	0.016499411
51	0xbbee09c0	-0.007264346
52	0xbd2c7c33	-0.042110633
53	0xbd92f120	-0.07174897
54	0x3c795bce	0.015219642
55	0x3c48243e	0.012215672
56	0x3b795529	0.0038045144
57	0x3c597bed	0.013274175
58	0x3d07917a	0.03309772
59	0xbc93d759	-0.018047022
60	0x3cb455be	0.022013541
61	0xbd177c37	-0.036983695
62	0x3c3ed5bf	0.011647641
63	0x3d3e1b55	0.046412785
64	0x3b54da28	0.0032478664
65	0x3cc4bda3	0.024016207
66	0xbd2be1c4	-0.041963354
67	0x3c8be02f	0.017074673
68	0x3c8e923b	0.017403712
69	0x3d0c9321	0.03432
70	0xbc3e478f	-0.011613741
71	0xbde3bb31	-0.11119688
72	0x3c03223e	0.008003769
73	0xbd5a3a1d	-0.053278077
74	0xbc76925b	-0.015049542
75	0xbd9834d1	-0.07431949
76	0x3c0462ef	0.008080228
77	0xbd7469e2	-0.05967129
78	0xbaa9f0d3	-0.0012965448
79	0x3bcc776b	0.0062398217
80	0xba89e671	-0.0010520947
81	0xbcf27243	-0.0295955
82	0x3ce4821d	0.027894074
83	0x3d52ab7f	0.051433083
84	0xbcde2024	-0.027114935
85	0xbdc6d5a3	-0.09708717
86	0xbd218f0d	-0.039443064
87	0x3d7cf533	0.061757278
88	0xba3dedf5	-0.0007245236
89	0xbc0abb6d	-0.008467537
90	0x3d3bf768	0.04589024
91	0x3b83d6c9	0.004023407
92	0xbc80528d	-0.015664363
93	0x3ca0f286	0.019646894
94	0xbcc47b39	-0.023984538
95	0xbcbd8a1e	-0.023137148
96	0x3c70c0ba	0.014694387
97	0xba7cce76	-0.0009643802
98	0xbc019bdf	-0.007910698
99	0x3d96db04	0.07365993
100	0x3db0c416	0.086311504
101	0xbdf079c5	-0.11741976
102	0x3baf83b3	0.005356276
103	0x3b1ed63e	0.0024236585
104	0xbc85b0c9	-0.01631965
105	0xbcd165b4	-0.025561191
106	0xbd266f05	-0.04063322
107	0xbbf8ee24	-0.007596748
108	0xbd2ef62f	-0.042715248
109	0xbc4824b5	-0.012215783
110	0x3dc3f6a4	0.09568527
111	0xbc844705	-0.016147146
112	0x3d6ad38c	0.057330653
113	0xbc6f2cb9	-0.014598065
114	0xbc84fe5b	-0.016234567
115	0x3a3b2487	0.0007138927
116	0xbb273edd	-0.0025519647
117	0x3c07eaf8	0.008295767
118	0xbb83352d	-0.004004142
119	0x3c2200f6	0.009887924
120	0xbd0cb846	-0.034355424
121	0x3a9a1d18	0.0011757938
122	0xbc9e1d69	-0.019301133
123	0xbd9ce71f	-0.0766127
124	0xbcea83dd	-0.02862733
125	0x3c0750ca	0.008259008
126	0xbca12b56	-0.019673984
127	0xbdc709f5	-0.09718696
128	0x3dc4e621	0.09614206
129	0x3da4da1a	0.08049412
130	0xb9b8b195	-0.00035227524
131	0xbcb224be	-0.021746036
132	0xbd8ecdbf	-0.06972837
133	0x3c47d49c	0.012196686
134	0x3c375441	0.011189521
135	0xbd0383f3	-0.03210826
136	0x3d583031	0.052780334
137	0xbc03c759	-0.008043134
138	0x3c0cbcc6	0.008589929
139	0xbd53b704	-0.05168821
140	0x3cb7e6be	0.022448894
141	0xbd4a2726	-0.04935374
142	0x3aa4bf00	0.001256913
143	0x3ca893c9	0.020578282
144	0x3d6dd1ae	0.058061294
145	0xbd218bdf	-0.039440032
146	0xbc7f0d7c	-0.01556718
147	0x3cab4163	0.020905202
148	0x3d2309d0	0.03980428
149	0x3d4b13a9	0.049579296
150	0x3d0fae6a	0.035078444
151	0x3dee6b3b	0.11641546
152	0xbc1fb993	-0.009748834
153	0x3d33a117	0.0438548
154	0xbc8ac3d2	-0.016939078
155	0x3c347dc0	0.011016309
156	0xbd360a30	-0.04444331
157	0xbb81665a	-0.003948969
158	0xbc333dc1	-0.010940016
159	0xbbba5228	-0.0056860633
160	0xbca7d8fb	-0.020489207
161	0xbcc4b62c	-0.024012648
162	0xbc2d3139	-0.010570818
163	0x3abe53e6	0.0014520853
164	0x3ca7749d	0.020441348
165	0xbb512480	-0.0031912625
166	0xbd5bc45e	-0.053654067
167	0xbd026118	-0.031830877
168	0xbca36e6e	-0.019950118
169	0xbce9df0a	-0.028548736
170	0xbc006dc3	-0.007838669
171	0xbcc6d2d0	-0.024270445
172	0x3d8a0d81	0.06740857
173	0xbbeee02b	-0.0072899065
174	0xbd0ac09c	-0.033875093
175	0xbc1ae0b2	-0.009452986
176	0x3d0ca413	0.03433616
177	0xbbb15d2f	-0.0054127197
178	0xbccfda5b	-0.025372675
179	0x3cd1598d	0.025555396
180	0x3d405c67	0.04696312
181	0x3d6897cf	0.0567854
182	0xbb96a8ab	-0.0045977435
183	0xbc3ebe49	-0.011642047
184	0xbc83b900	-0.016079426
185	0x3a2a1e9f	0.0006489548
186	0xbd1e7c9c	-0.038693056
187	0x3bad779c	0.0052937996
188	0xbc1411ed	-0.009037477
189	0x3d093c7b	0.033504944
190	0xbc836c31	-0.0160428
191	0xbd961960	-0.07329059
192	0xbc83edad	-0.016104544
193	0xbce35c2b	-0.02775391
194	0x3d176e35	0.036970336
195	0xbc60a795	-0.01371183
196	0xbca02401	-0.019548418
197	0xbd034928	-0.03205219
198	0xbc084695	-0.008317609
199	0x3dd9ed4d	0.10640965
200	0xbb0823fc	-0.0020773401
201	0x3d1cddb8	0.038297385
202	0x3c1f74d8	0.009732448
203	0x3db0dc16	0.08635728
204	0x3bdc78f8	0.006728288
205	0x3d8e706e	0.06955038
206	0xbbd046ba	-0.0063560875
207	0x3a01ebea	0.00049561134
208	0x3cd60acd	0.026128197
209	0x3c0f239c	0.008736517
210	0xbd14a0eb	-0.036286276
211	0xbd262c76	-0.040569745
212	0x3cca47ba	0.024692405
213	0x3dc8d9cc	0.098071665
214	0x3cd4d0d5	0.025978485
215	0xbd6622b7	-0.05618545
216	0xbc846ac5	-0.016164193
217	0x3c0fa684	0.008767728
218	0xbd3c1d5a	-0.04592643
219	0x3bb6946c	0.0055718925
220	0x3cda99b7	0.026684625
221	0xbc7ceba1	-0.015437038
222	0xbba80d3b	-0.0051285303
223	0x3d179a83	0.03701259
224	0xbc4e4d44	-0.012591664
225	0x3caa8dcc	0.020819567
226	0x3c6fa4af	0.014626666
227	0xbda2689f	-0.07930111
228	0xbdc901b5	-0.09814779
229	0x3df3f684	0.119122535
230	0x3bcdd55e	0.006281539
231	0xbbe06969	-0.0068485034
232	0x3c58567a	0.013204211
233	0x3c0d251f	0.008614807
234	0x3d2a1971	0.04152817
235	0x3be46b23	0.0069707795
236	0x3d21ae17	0.039472666
237	0xbb88502e	-0.004159949
238	0xbdc5f562	-0.09665944
239	0x3c9c29e4	0.019062944
240	0xbd2d92d4	-0.042376354
241	0x3c8a3751	0.01687208
242	0x3c3131c5	0.010815089
243	0x3c61a9b5	0.013773371
244	0x3ba1495c	0.004922075
245	0xbbf471a2	-0.007459835
246	0x3ba56ef0	0.005048625
247	0xbcdaf058	-0.026725933
248	0x3caa6016	0.02079777
249	0xbb91ac12	-0.004445561
250	0xbbb32f04	-0.005468251
251	0x3d84470c	0.064588636
252	0x3d01a8d5	0.03165515
253	0x3b5cdd76	0.0033701337
254	0x3b3253de	0.0027210633
255	0x3db0c4e1	0.08631302

action_model._discrete_distribution.branches.0.bias f4 [2]
0	0x3c5cb8b2	0.013471769
1	0xbc5cb8b6	-0.013471773

action_model._discrete_distribution.branches.1.weight f4 [2, 128]
0	0x3ab8e555	0.0014106432
1	0x3d001659	0.031271312
2	0xbc5741f4	-0.013138283
3	0x3a2d6fe8	0.00066161016
4	0xbcdb9ecd	-0.02680912
5	0x3bafad36	0.0053612245
6	0xbc46e1f4	-0.012138832
7	0x3bcefa85	0.0063164853
8	0x3c853fcf	0.016265778
9	0xbcd267a3	-0.025684183
10	0x3b9180f9	0.0044404236
11	0xbacac1eb	-0.0015469169
12	0xbc9329fd	-0.017964358
13	0x3b81be8d	0.003959483
14	0xbc74aea9	-0.01493422
15	0x3a96bafd	0.0011499819
16	0x3b9a281f	0.00470449
17	0x3c8f5a7d	0.017499203
18	0xbbb88515	-0.005631099
19	0xbb13b7e8	-0.0022540037
20	0x3c4bbadb	0.0124346865
21	0x3ba91c2d	0.0051608295
22	0xbca459ce	-0.020062353
23	0x3c5f2d5a	0.0136216525
24	0x3c6467b8	0.013940744
25	0x3bf2abde	0.007405742
26	0xbcff13b2	-0.031137321
27	0xb9481b5b	-0.00019083677
28	0xbd2bce57	-0.041944828
29	0x3c0a0710	0.008424535
30	0x3c12c137	0.008957199
31	0x3bc860ac	0.00611504
32	0xba9f94fa	-0.0012175136
33	0xbb40a3b3	-0.0029394447
34	0xbc3125be	-0.010812221
35	0xbc100278	-0.008789651
36	0xb9c2a082	-0.0003712215
37	0xbbbaeec6	-0.0057047335
38	0xbb3c90ef	-0.002877291
39	0x3a477457	0.00076085835
40	0x3c52a790	0.012857333
41	0x3b1e781a	0.0024180473
42	0xbcb85968	-0.02250357
43	0xbac56ee2	-0.0015062953
44	0xbb9abde8	-0.0047223456
45	0x3d291dbf	0.041288134
46	0xbc8794a9	-0.016550379
47	0xbbe74bfd	-0.007058619
48	0x3c18c318	0.009323858
49	0xbbbfe01c	-0.0058555733
50	0x3b1bdb5d	0.0023781874
51	0x3a3f0614	0.00072869775
52	0x3bbe2352	0.0058025504
53	0x3cfaff5b	0.030639341
54	0x3ba7fdd8	0.005126696
55	0x3b5f000f	0.0034027135
56	0xbc753cab	-0.014968078
57	0x3b546629	0.0032409525
58	0x3b001934	0.0019546272
59	0x3ca729a6	0.020405602
60	0xbc53f00f	-0.012935652
61	0x3ca90f99	0.02063732
62	0xbc2dbbb3	-0.010603833
63	0x3a924c9e	0.001116175
64	0xbc98d1ed	-0.018654788
65	0x3b3d3010	0.0028867759
66	0xbc4ad714	-0.01238038
67	0x3a7bfc73	0.0009612508
68	0x3aad18b2	0.0013206212
69	0x3cd48a2a	0.025944788
70	0xbb39a5c0	-0.0028327554
71	0x3cbf20c1	0.023331048
72	0xbbcbb730	-0.006216906
73	0xbc6b90dd	-0.0143778
74	0x3ca523d1	0.02015868
75	0xbca5bc96	-0.020231526
76	0xbc945167	-0.018105222
77	0xbc465997	-0.012106321
78	0x3bcdfec4	0.006286474
79	0xbcb133f4	-0.021631218
80	0x3a306998	0.0006729602
81	0xbb82dac4	-0.003993364
82	0xba97bc63	-0.0011576529
83	0x3bad61f0	0.005291216
84	0xba0f2094	-0.00054598716
85	0xbb40c699	-0.0029415248
86	0xbce9c4c9	-0.028536217
87	0xbd0e89c5	-0.034799356
88	0xbb6158b6	-0.0034385151
89	0x3bc2ca00	0.0059444904
90	0x3a15a414	0.00057083485
91	0xba0e1aa8	-0.0005420842
92	0x3c69b994	0.014265437
93	0xba87ff43	-0.0010375757
94	0x3c48b919	0.012251162
95	0xba870acb	-0.0010302899
96	0xb8b2e679	-8.53063e-05
97	0xbc03df7a	-0.008048886
98	0x3b745184	0.0037280032
99	0xbc22363d	-0.009900627
100	0x3c4c5dbf	0.012473523
101	0x3a977281	0.001155451
102	0xbc3aec53	-0.011408883
103	0xbbd836cf	-0.0065983306
104	0x3b948b69	0.0045332205
105	0xbb269b26	-0.0025422066
106	0xbb9e9127	-0.004839081
107	0x3d291920	0.041283727
108	0x3bdf97ce	0.0068235165
109	0x3c6593c7	0.014012284
110	0x3bc48cd5	0.005998234
111	0xbc4a782d	-0.012357754
112	0x3c1ec6ad	0.009690923
113	0xbc827fda	-0.015930105
114	0xbd1bd65c	-0.038046226
115	0x3c922e1c	0.017844252
116	0xbb11ff66	-0.0022277473
117	0x3b630636	0.0034641153
118	0x3b9c124a	0.0047629224
119	0x3c47eeed	0.01220296
120	0xbcb86b43	-0.022512084
121	0x3c3fd0af	0.011707469
122	0x3c8b7346	0.01702274
123	0x3c11738b	0.008877645
124	0x3d0b1433	0.03395481
125	0x3c0a911f	0.008457451
126	0x3b8e7de9	0.0043485058
127	0x3cc70965	0.024296472
128	0xbc911d2d	-0.017714107
129	0xbd1c15a8	-0.03810659
130	0x3baa9562	0.005205796
131	0x3b5be2f7	0.003355203
132	0x3cb155bf	0.021647332
133	0x3b2015c8	0.0024427045
134	0x3b594a11	0.003315572
135	0xbbfadbea	-0.0076556103
136	0xba7a6da2	-0.000955308
137	0x3c8b233f	0.01698458
138	0x3bb2159b	0.0054347045
139	0x3c580db6	0.013186863
140	0x3beff44f	0.007322825
141	0x3ba485f0	0.0050208494
142	0x3ba34073	0.004982048
143	0xbb58bf8f	-0.0033073162
144	0x3b954d1c	0.0045563113
145	0xbc8dd098	-0.01731138
146	0xbba1fe38	-0.0049436353
147	0x3a0c58bf	0.00053538004
148	0x3bb11d44	0.0054051
149	0xbc2d4728	-0.010576047
150	0x3cbfcc3d	0.023412818
151	0xbb7b4aec	-0.0038344217
152	0x3b0849fb	0.002079605
153	0x3b8fab08	0.004384402
154	0x3cd47d9a	0.025938798
155	0x3b30a606	0.0026954426
156	0x3c8b4792	0.0170019
157	0x3b971359	0.0046104607
158	0xbbb4e6dc	-0.0055206846
159	0x39a065d9	0.0003059346
160	0xbb8c8e0e	-0.004289395
161	0xbc133f88	-0.008987315
162	0xba15d801	-0.0005716086
163	0x3bf4b532	0.007467889
164	0x3c2faf5c	0.010722961
165	0x3b29118f	0.002579782
166	0x3b6ee89f	0.003645457
167	0xbacfb66e	-0.0015847215
168	0xbcb32275	-0.021867016
169	0x3b88e6dd	0.0041779117
170	0x3bb4c185	0.0055162334
171	0x3ca6857b	0.02032732
172	0xbc48fd62	-0.012267442
173	0xbd16857c	-0.036748394
174	0x3bb0f250	0.0053999797
175	0xbcf84317	-0.030305428
176	0xbafa814a	-0.0019112017
177	0x3bcaf673	0.00619393
178	0x3bde06ae	0.0067756986
179	0xbb274f4c	-0.0025529442
180	0xbcb0117d	-0.021492714
181	0xbbe69a21	-0.0070374166
182	0xbc171939	-0.009222322
183	0xbbe996ca	-0.007128571
184	0x3bd54545	0.0065085017
185	0xbc407a07	-0.011747844
186	0x3bdeede5	0.0068032616
187	0xbcaaf307	-0.020867838
188	0x3ba1b246	0.004934582
189	0xbb4d162a	-0.0031293728
190	0xbbb4b870	-0.0055151507
191	0xbbc1ba68	-0.005912114
192	0x3c0cf9c7	0.008604473
193	0x3b5296b2	0.0032133278
194	0x3c6630b9	0.014049702
195	0xbcb3c631	-0.021945091
196	0xbb8ab5cc	-0.0042330977
197	0xbc907380	-0.0176332
198	0xba5c53ca	-0.00084048195
199	0xbc732c8b	-0.014842163
200	0xbc8102fb	-0.015748492
201	0x3c1bd101	0.00951028
202	0xbbb86cb6	-0.0056281937
203	0xbb9616e9	-0.004580368
204	0x3d05fafa	0.032710053
205	0x3ca23245	0.019799361
206	0xbb5f4d4b	-0.003407317
207	0x3bcb3029	0.0062008095
208	0xba8c6073	-0.0010709896
209	0xba7100b4	-0.0009193525
210	0x3c3325c4	0.010934297
211	0x3c8e3355	0.017358461
212	0x3bd97610	0.0066363886
213	0xbc30ce75	-0.010791411
214	0x3c548c84	0.012972955
215	0x3cc45840	0.023967862
216	0x3c3f4ef7	0.0116765415
217	0xbb329fd2	-0.0027255905
218	0xb9fc1b88	-0.00048085698
219	0x3b4b8989	0.003105732
220	0xbc3eecfd	-0.011653182
221	0xbb517fc9	-0.0031967035
222	0x3ccf00fd	0.025269026
223	0x3b7be26f	0.0038434525
224	0xbc4fa4f6	-0.012673607
225	0x3cc7a12b	0.024368843
226	0xbccc7c34	-0.024961568
227	0x3c38a82c	0.011270564
228	0xbb421900	-0.0029616952
229	0xbc6dca61	-0.014513583
230	0xbc1bb7cc	-0.00950427
231	0xbbc33d11	-0.0059582074
232	0xbc6c0bbe	-0.014407096
233	0x3ca44a71	0.020055028
234	0xb9d19f94	-0.0003998248
235	0xbd51a724	-0.05118479
236	0xbc2803b7	-0.010254792
237	0xb9d39c4f	-0.00040361515
238	0xbc03ae55	-0.008037169
239	0xbc058915	-0.008150359
240	0xbc52e8e5	-0.012872909
241	0xbbb27413	-0.005445966
242	0x3d142eb7	0.036177363
243	0xbc7a4562	-0.015275331
244	0x3bbfca1d	0.005852951
245	0xbcaf99f1	-0.02143571
246	0xbb83b494	-0.0040193293
247	0x3c2e200e	0.01062776
248	0x3cc2708f	0.023735313
249	0xbc3bb252	-0.011456089
250	0x3b9cec7b	0.004788933
251	0xbd284462	-0.04108084
252	0xbcd8e378	-0.026475653
253	0xbb139f5d	-0.0022525408
254	0xbc8d71ab	-0.017266115
255	0xbca8ed3b	-0.020620933

action_model._discrete_distribution.branches.1.bias f4 [2]
0	0xbc752ab3	-0.014963794
1	0x3c752ab0	0.014963791

exp_avg f4 [128, 117]
0	0xb90fa2a6	-0.00013698134
1	0x398100ee	0.0002460549
2	0x34bc4d82	3.5074123e-07
3	0xb4caea15	-3.779575e-07
4	0x38053232	3.175642e-05
5	0xb9955848	-0.0002848527
6	0x3971994f	0.00023040663
7	0x34a8bd31	3.1430093e-07
8	0x36a07242	4.781673e-06
9	0x385e0336	5.2931915e-05
10	0xb9dee7e5	-0.00042515915
11	0x39fb1cae	0.0004789582
12	0x35a17cbc	1.2031737e-06
13	0x36adccb9	5.1796346e-06
14	0x379b866b	1.8540033e-05
15	0xb984c1df	-0.00025321447
16	0x395d71be	0.00021118575
17	0xb4c7cc18	-3.7215136e-07
18	0x363b46cf	2.7906387e-06
19	0x384d272b	4.8912287e-05
20	0x371d93ab	9.392311e-06
21	0x386d6ea1	5.6608234e-05
22	0x35f11daf	1.7964538e-06
23	0x36dbf7e3	6.5555664e-06
24	0xb7f4b329	-2.9170495e-05
25	0xb96e7166	-0.00022739693
26	0x393e1b4b	0.0001812998
27	0xb4f7d2a1	-4.6160588e-07
28	0xb67ac227	-3.7365915e-06
29	0x384f80fc	4.9472772e-05
30	0x392f0fad	0.0001669514
31	0xb83435b5	-4.2965363e-05
32	0x35fd3a6a	1.886697e-06
33	0x36660853	3.4277516e-06
34	0xb6c59a39	-5.8890114e-06
35	0xb8bfe08d	-9.1494156e-05
36	0x38e71dce	0.0001102049
37	0x343c7cd2	1.7554274e-07
38	0x368e242a	4.23614e-06
39	0x38835810	6.26297e-05
40	0x39642b1d	0.00021759835
41	0xb8bfe98a	-9.15109e-05
42	0x35a5a97c	1.2342784e-06
43	0x36ba03d9	5.54368e-06
44	0x35f9e192	1.8617595e-06
45	0x39723b07	0.00023100908
46	0x37c5903d	2.3551396e-05
47	0x33abe1fd	8.003915e-08
48	0xb32a3073	-3.9625274e-08
49	0x3876d5c7	5.8850066e-05
50	0x38ac73f4	8.223197e-05
51	0xb8af4d9e	-8.3591076e-05
52	0x3596faf2	1.1248906e-06
53	0x36ec1321	7.035575e-06
54	0x366b9df8	3.5109679e-06
55	0x394793dd	0.00019033202
56	0x3899c5bf	7.3324416e-05
57	0x33abe300	8.004099e-08
58	0xb507411c	-5.0386166e-07
59	0x3865c24f	5.477882e-05
60	0x399d7f3e	0.00030040176
61	0x379a38e7	1.8384728e-05
62	0xb5dc6a36	-1.6422189e-06
63	0x36e8529f	6.923757e-06
64	0xb6eccba6	-7.057056e-06
65	0x399cc667	0.0002990246
66	0x38750ec8	5.8426318e-05
67	0xb2c7969d	-2.323514e-08
68	0xb4e14487	-4.1959376e-07
69	0x38630fd3	5.4135755e-05
70	0x39a68dbe	0.00031767593
71	0x36e1c842	6.7288356e-06
72	0x35ae3349	1.2978936e-06
73	0x36c54c1f	5.879919e-06
74	0xb6897404	-4.096424e-06
75	0x3913bb1a	0.00014088713
76	0x39602e22	0.0002137949
77	0xb2a90e23	-1.9680618e-08
78	0xb5c7daed	-1.4890371e-06
79	0x38336c51	4.2777803e-05
80	0x399ffbac	0.00030514353
81	0x384362d8	4.658368e-05
82	0x35c60f23	1.4756555e-06
83	0x3603323c	1.9549761e-06
84	0xb73f08f8	-1.1386575e-05
85	0x394ad6d4	0.00019344251
86	0x391e0afe	0.00015072149
87	0xb21627f3	-8.7402325e-09
88	0xb50c2b31	-5.2216916e-07
89	0x383ba3a7	4.4736687e-05
90	0x394eed56	0.00019734105
91	0x392ef44b	0.0001668494
92	0x35e68e13	1.7177684e-06
93	0xb6f72df6	-7.366524e-06
94	0xb7832f43	-1.5638425e-05
95	0x397bcc27	0.00024013278
96	0x38c031c9	9.164547e-05
97	0x339db1b4	7.343206e-08
98	0x36a7c762	5.000199e-06
99	0x3841990b	4.6157318e-05
100	0x396bff91	0.00022506552
101	0x39564600	0.00020434707
102	0x35fb3390	1.8715964e-06
103	0xb8bb76b4	-8.938965e-05
104	0xb893b4ec	-7.0432056e-05
105	0xbba61303	-0.0050681843
106	0xbb6bf62d	-0.0036004886
107	0x39df0b77	0.00042542416
108	0xbd1c3ebe	-0.038145773
109	0xbb8c5c43	-0.0042834594
110	0x3d306c82	0.04307223
111	0x3c9e6960	0.019337356
112	0x3a424432	0.00074106746
113	0xbd50eb17	-0.05100545
114	0xbba3ebae	-0.0050024604
115	0x3d3149ef	0.0432834
116	0x3bdbd8e3	0.0067092045
117	0xb742f548	-1.162041e-05
118	0xb8897abc	-6.55553e-05
119	0xb702a6d2	-7.787445e-06
120	0x366c0905	3.517199e-06
121	0xb6f26dc8	-7.2249422e-06
122	0xb763f019	-1.35861565e-05
123	0xb7c0e473	-2.2994564e-05
124	0xb7359cd4	-1.0824955e-05
125	0xb75d03bf	-1.3173499e-05
126	0xb7c71d38	-2.3736255e-05
127	0xb80c7458	-3.3486955e-05
128	0xb849bff4	-4.8100905e-05
129	0xb6f0f7c5	-7.1814015e-06
130	0x3471640d	2.2481272e-07
131	0xb7514328	-1.2473007e-05
132	0xb64f5587	-3.0895187e-06
133	0xb7ab9d47	-2.0458026e-05
134	0xb739773d	-1.1054622e-05
135	0xb7ddec07	-2.6455162e-05
136	0xb800fe23	-3.075426e-05
137	0xb8cf37c2	-9.880915e-05
138	0x37b12728	2.1118278e-05
139	0xb7333d19	-1.0683457e-05
140	0xb79f7241	-1.900748e-05
141	0xb7785487	-1.48016325e-05
142	0x37b96db2	2.21048e-05
143	0xb8859ed1	-6.371516e-05
144	0xb73279c0	-1.0637974e-05
145	0xb73ffccd	-1.1443347e-05
146	0xb7b05cf8	-2.1024127e-05
147	0xb908023a	-0.000129708
148	0x3802988b	3.1136482e-05
149	0xb7306561	-1.0514022e-05
150	0x36457a43	2.9426453e-06
151	0x3526ecf8	6.2184654e-07
152	0xb7ad291e	-2.0642354e-05
153	0xb781bb4a	-1.5465212e-05
154	0xb4531fc4	-1.9662463e-07
155	0xb803dc5a	-3.1438052e-05
156	0xb8360842	-4.3399872e-05
157	0xb8a7ff87	-8.010776e-05
158	0xb6fab694	-7.4718355e-06
159	0xb7299043	-1.01067735e-05
160	0xb76c85a9	-1.4097816e-05
161	0xb6d949b9	-6.4756864e-06
162	0xb89d1355	-7.489944e-05
163	0x36d197cf	6.246358e-06
164	0xb39632c5	-6.994154e-08
165	0xb77f9753	-1.5234417e-05
166	0xb7fbf0df	-3.0033696e-05
167	0x36f17138	7.19554e-06
168	0xb7bb0294	-2.2293338e-05
169	0xb61e27b6	-2.356695e-06
170	0xb7848b9b	-1.5800635e-05
171	0xb6e63605	-6.860823e-06
172	0xb7ace7e1	-2.0611975e-05
173	0xb7199f0b	-9.156541e-06
174	0xb39632aa	-6.994135e-08
175	0xb713f7d8	-8.819588e-06
176	0xb7bbb0ec	-2.2374523e-05
177	0xb80257b8	-3.107611e-05
178	0xb71b9fb3	-9.275903e-06
179	0xb6ec9745	-7.050958e-06
180	0xb673fd93	-3.6357421e-06
181	0x359c40a6	1.1641721e-06
182	0xb7e75995	-2.757906e-05
183	0xb691decf	-4.347275e-06
184	0xb4a5e144	-3.0897547e-07
185	0xb7252d08	-9.845251e-06
186	0xb7c71acc	-2.3735127e-05
187	0xb863beec	-5.4298827e-05
188	0x37236070	9.738011e-06
189	0xb645495d	-2.939799e-06
190	0xb55f3f1e	-8.316582e-07
191	0x35739d5f	9.075356e-07
192	0xb7ed3efd	-2.8281933e-05
193	0xb7d2733c	-2.5087611e-05
194	0xb47008b7	-2.2354912e-07
195	0x36308460	2.6303096e-06
196	0xb73de228	-1.1317934e-05
197	0xb82a80a2	-4.0650957e-05
198	0xb78138af	-1.5404394e-05
199	0xb6227f71	-2.4214062e-06
200	0x37230e72	9.71892e-06
201	0x372b7ed8	1.0221927e-05
202	0x36ac9eba	5.1444777e-06
203	0xb872dbcb	-5.7901994e-05
204	0xb4617c43	-2.0999964e-07
205	0x371a5a7d	9.200184e-06
206	0xb6cd657f	-6.121292e-06
207	0xb31d36ea	-3.6604355e-08
208	0xb85707fe	-5.1267438e-05
209	0xb6fceb32	-7.5375656e-06
210	0x37828267	1.5557931e-05
211	0x3786b4a1	1.6058157e-05
212	0x38c93a6b	9.595308e-05
213	0xb90244e6	-0.00012423433
214	0xb42f542c	-1.6328767e-07
215	0xb6ddba27	-6.6079842e-06
216	0xb7ac26f0	-2.052213e-05
217	0xb7969558	-1.7950937e-05
218	0xb7f10086	-2.8729683e-05
219	0xb715e822	-8.93514e-06
220	0x37a521bb	1.968524e-05
221	0x37b0d5e1	2.108043e-05
222	0xbaca3798	-0.0015427945
223	0xba2f394d	-0.00066842587
224	0xb9f47697	-0.00046627663
225	0x3bb45999	0.005503845
226	0x3a8ab583	0.0010582659
227	0xbca0a79c	-0.019611172
228	0x3a4cbc38	0.0007810029
229	0xba6ca28c	-0.0009026907
230	0x3b5d0726	0.0033726185
231	0x3a7e08d3	0.0009690646
232	0xbc9afc0b	-0.018919012
233	0xba902aec	-0.001099912
234	0xb887bbcf	-6.472284e-05
235	0xb7e3eb27	-2.717001e-05
236	0xb5d9b32a	-1.6219904e-06
237	0x370bc175	8.330088e-06
238	0xb6b69218	-5.44103e-06
239	0xb8bdc868	-9.049551e-05
240	0xb7c2ad59	-2.3207323e-05
241	0x3745d927	1.1792675e-05
242	0x3785c899	1.5948246e-05
243	0x35fd4c42	1.8872163e-06
244	0xb897ffb8	-7.2478724e-05
245	0xb8425be7	-4.6338795e-05
246	0xb708ee22	-8.161676e-06
247	0x37b0661b	2.1028382e-05
248	0x360bba1e	2.0820949e-06
249	0xb8a15e20	-7.6946104e-05
250	0xb8847684	-6.316326e-05
251	0x3795b5eb	1.7846896e-05
252	0x37dffbcd	2.6700925e-05
253	0x371d7c1e	9.3868275e-06
254	0xb8ae8a76	-8.322757e-05
255	0xb85b69c1	-5.231216e-05
