UnityProject/results/testModel10/AICar/AICar-5999953.pt (torch, 790195 bytes, 49 tensors)

discrete_act_size_vector f4 [1, 2]
00000000: 0000 0040 0000 0040
2.0 2.0

network_body._body_endoder.seq_layers.0.weight f4 [128, 117]
00000000: d52f db3e 1d3c f2bc 55a9 bd3d f40c a4bd
00000010: 9190 d0bc 2938 2a3e 3c0d fabe 4ef2 e83c
00000020: c68e b63c 11e7 0a3c 0221 ab3e d397 a3bd
00000030: ce6f 26bd ba83 bbbd 4261 08bd 36b8 b03e
00000040: 1ab5 3bbe ea08 84bd fd81 f6bd f645 30be
00000050: 2c7e 0bbc da62 cc3c 81f1 6b3b 8c0b 32be
00000060: 05ae 003e b141 b63d 3300 39be 906f cabd
00000070: 49c9 c2bd 1580 d9bc d821 68be 6b99 b1bc
00000080: efb9 533d c19b 6a3e 7dbb ff3d 24aa 153e
00000090: 94a9 16be 5693 c4bd 1270 0e3e fc47 dfbc
000000a0: 4053 a7bd b567 243e 58ab b03d b17a febd
000000b0: a76c b63d 1d4e f93d 7e23 bbbe bf04 fabd
000000c0: c89e 0fbc e239 1ebd 876e 46bd 40a5 213e
000000d0: 37bc e43d 9d48 64bd 7b4f 813a 556e 1e3e
000000e0: 946d dcbd 48a6 39be 044a 073c 979e 91bd
000000f0: eb92 06be 89f1 393e d8b1 cdbd 2f9f a1bd
00000100: d9e1 253c 74a5 d23c 82b5 12be 45ec 943d
00000110: a2ac 243c cbd7 79bd f948 38bd 3e62 76bc
00000120: ee82 61bd 8a80 86bd ec25 d73d ad05 84bd
00000130: 814c 0e3d b967 9dbd 8197 fe3d fa7a e0bd
00000140: 8a9c c63b c5df 3c3e 64bc c83d c847 6abd
00000150: a9e1 433e 25f9 65bd b980 ac3b 9c43 fb3c
00000160: 15d8 a4bb 2b35 84bc db6e 7cbd f7e5 253e
00000170: acad 16bc c400 203e 9609 8f3e 81d4 dc3c
00000180: bc8a db3d 68a6 3a3c ee47 c2bd 344e c7bd
00000190: 29b1 ccbc 69b2 05bc 2a35 65bd 824b 7cbd
000001a0: 30c9 8b3d 76f0 e739 16c7 dabd d2d6 65be
000001b0: 17e3 bdbd 1c34 c7bd 1acd 0dbb 1612 87bd
000001c0: 980f 05be 8c36 fa3c 7539 bcbd 2119 51bc
000001d0: 016b 15bd dc3e 21be bbb0 0e3c 22b1 b43d
000001e0: 6ef3 5a3b 8afc 033e b25c 81be d244 81bc
000001f0: 1668 923d e6ef af39 c277 893e 50e1 e03d
00000200: fe4a f83c 2829 adbd 1a86 eb3d 65f7 153e
00000210: dc9c 48ba db49 90bd ad65 33bd 7b03 fc3d
00000220: a159 973d d141 b1bc f142 03bd 971c 103d
00000230: 7506 73bd 97da 54be 5281 2cbd 1de3 553e
00000240: a2ad 003d 2abf 22b9 6deb 1f3e a4d0 a63c
00000250: a14b beb8 dc6b 163e 2b41 e73d 9ad6 2d3e
00000260: 5bd2 10be f45c ba3d 2503 3b3e b768 223e
00000270: fa8a f93d 0285 86bd 5fd3 b3bb 85f3 773e
00000280: 88ba 423e 0548 253e 8f54 41be 4fee 793e
00000290: 6450 073e 9271 2abd 8b5c 2a3e bd6a e53c
000002a0: b83c 51be cdf4 82bd ad93 153e 4e28 0b3c
000002b0: 43d8 7cbd 8897 763d a911 32bd d211 26bc
000002c0: d129 413d ace5 6bbd c89c 3bbd bd37 e3bc
000002d0: 5954 ebbc c805 a1bc 6ad1 0b3e 8b1c 293d
000002e0: f898 893c 53e1 5abe a1bf e73c f05c 05bd
000002f0: 2d37 38be 8d7e 4cbd 1079 a13d 4099 a73d
00000300: 973a bfbd 742e 63bb 9720 3b3d 48c0 febd
00000310: 6b05 5b3d 7e5b e73d 4854 493d b78b 6cbd
00000320: 2e2b a63d ac99 c0bd c568 ef3c 8032 2f3c
00000330: 5141 ebbc e427 23be d3ae 673d db20 63bd
00000340: 5ae6 9d3d 0235 6b3d 7618 063e 8c76 a8bd
00000350: 3a87 1bbe de14 c1bd b097 c13d fd7c debc
00000360: 5660 76bd 5c41 a03b 5e1a bbbc c0ff dc3d
00000370: 0d6b 19be 8dee eebc 0fe8 6ebe 0230 ca3c
00000380: c25c c5bc 28c9 b8b9 cf61 e33b 3acd 4bbc
00000390: 3a8d e83d d0f3 133c 94b6 53bd 1029 66bd
000003a0: 46ce acbb 0cca f6bc 1bf2 f93d 1588 9cbc
000003b0: 387a 333d 2b7e 883d d358 023e f4a7 bb3e
000003c0: c967 1f3c 0dc0 793c 1695 acbc fc54 a83d
000003d0: 834a 94be c568 283e ea1a cdbd 533b 063d
000003e0: ea52 933d 4f61 b53e 55e0 4abe 3811 a13e
000003f0: 3e01 8a3d 66ac 58bd f710 a7bd a3b6 833e
0.4280993 -0.02956968 0.09260813 -0.08010283 -0.02545956 0.16622986 -0.48838222 0.028435852
0.022284877 0.008477942 0.3342362 -0.079879425 -0.04063397 -0.09155984 -0.033295877 0.34515542
-0.18330804 -0.06447013 -0.12036512 -0.17214188 -0.008513968 0.02494948 0.0036002102 -0.17387217
0.12566383 0.088992484 -0.18066482 -0.0988456 -0.09511048 -0.026550332 -0.2266916 -0.0216796
0.051690992 0.22910978 0.124869324 0.14615685 -0.14713126 -0.095984146 0.13909939 -0.027256005
-0.081701756 0.16055186 0.08626431 -0.12425745 0.089074425 0.12173102 -0.36550516 -0.122079365
-0.008765884 -0.03862942 -0.04844525 0.15785694 0.11168712 -0.055733312 0.0009865606 0.15471776
-0.10763088 -0.18129838 0.008257393 -0.07110327 -0.13141982 0.18158545 -0.10043687 -0.0789169
0.010124647 0.02571366 -0.14327052 0.07271627 0.0100509245 -0.06099681 -0.044991467 -0.015038071
-0.055056505 -0.06567486 0.1050528 -0.06446395 0.03474093 -0.07685799 0.12431241 -0.10960956
0.0060611414 0.18444736 0.09801558 -0.057197362 0.19129051 -0.056145806 0.0052643684 0.030671887
-0.005030642 -0.016138634 -0.061629158 0.16201006 -0.00919668 0.15625292 0.27937 0.026956799
0.10719821 0.011392213 -0.09486376 -0.09731713 -0.02498682 -0.008160212 -0.055958904 -0.061595447
0.06825483 0.0004423891 -0.10682504 -0.22445229 -0.092718296 -0.09726736 -0.0021637143 -0.065952465
-0.1299423 0.030543588 -0.091906466 -0.012762339 -0.036479 -0.15746635 0.008709128 0.08822848
0.0033409256 0.12889305 -0.25266033 -0.015779886 0.07148759 0.0003355734 0.2684918 0.10980475
0.030309197 -0.084551156 0.11500187 0.14645155 -0.00076527684 -0.07045337 -0.043798137 0.12305351
0.07390142 -0.021637829 -0.032046262 0.035183515 -0.05933233 -0.2078651 -0.042115517 0.20887418
0.03141559 -0.00015520738 0.15617152 0.02036316 -9.073993e-05 0.14689583 0.11291727 0.16976395
-0.14142744 0.09099761 0.18262918 0.15860258 0.12184711 -0.06568338 -0.005487844 0.24213989
0.19016469 0.16140755 -0.18879913 0.24407314 0.1321426 -0.041612215 0.16636865 0.028004998
-0.20433319 -0.06394348 0.14607115 0.008493496 -0.06172968 0.060203105 -0.043473873 -0.010136085
0.04715902 -0.05759208 -0.045803815 -0.027736539 -0.028726744 -0.019656077 0.13654104 0.041286986
0.016796574 -0.21375017 0.028289618 -0.032559335 -0.17989798 -0.049925376 0.07884419 0.08183527
-0.09337347 -0.003466514 0.045685377 -0.124390185 0.053471964 0.112967476 0.049152642 -0.05775043
0.081137046 -0.094043106 0.029224763 0.0106931925 -0.028717669 -0.15933186 0.05656321 -0.055451255
0.07709952 0.0574236 0.13095269 -0.08225736 -0.15188304 -0.09427808 0.0945276 -0.027159208
-0.060150467 0.004890604 -0.022839721 0.10790968 -0.14982243 -0.029166484 -0.23330711 0.024681095
-0.024092082 -0.00035245088 0.00693915 -0.012439067 0.11355062 0.009030297 -0.051687792 -0.056191504
-0.005273613 -0.03012564 0.12204381 -0.019107858 0.04381773 0.0666469 0.12729196 0.36651576
0.009729334 0.015243542 -0.021067183 0.082193345 -0.28963098 0.16446216 -0.10014899 0.03277142
0.07193549 0.35425803 -0.19812138 0.3145845 0.06738518 -0.052898787 -0.08157533 0.25725278

network_body._body_endoder.seq_layers.0.bias f4 [128]
00000000: 22c5 0c3d 9b43 bd3c dbaf cbbc c9d3 8e3c
00000010: fe83 363d c899 973b b67a 163c 35a2 023b
00000020: 9147 a8bb b4de 643c 303d 11bc 0293 8e3c
00000030: 6252 d23b c5ea 3839 9998 593a c6ec 963b
00000040: f36f 8cbc 8586 f73b ea69 6d3a 1623 1c3c
00000050: 0085 ab3b 3378 97bb 77e7 fdbb 5cfb 58bc
00000060: 2e2e 053d 71f2 4f3b 6426 83bc 8a58 41bc
00000070: c470 8d3c 7a81 f0bb 4998 933c bc47 083d
00000080: 8f65 9b3c 7bbe c33b 74d5 083c 5b9d b33b
00000090: 8b5a 89bc 7c94 4abb 979c 453c 6451 5b3c
000000a0: 533d 0a3d 9fcf 7bbc d352 843c 3a5c 013c
000000b0: c619 7e3b 148e e53b cef8 803c 2c8f c739
000000c0: 9109 8939 b0de f53b 7835 64bc fec9 693c
000000d0: 2ff1 6fbc b9f5 b8bc 7f03 8fbc fed0 c63c
000000e0: 2444 96bb 4586 05bc 9b11 59bb c976 ce3a
000000f0: 3a73 41ba 3a88 503d f31d ad3c de5c f33c
00000100: 3a6e c73c 8b02 19bd 7412 71bc b6e8 fc39
00000110: 432c cebb 8184 533c adfe d7bc 61be 1e3c
00000120: b53d 823b 80ed 0d3b 3b06 c8bb d76d 153d
00000130: 119c 963c 9648 a33b f2bc 0a3c 1883 64bb
00000140: afa7 02bd 237b 883c b572 0a3d c749 ef3a
00000150: a249 9e3c 0535 163a f420 243d 345a 01bd
00000160: e6aa 09bd f9b7 593c c64f 5a3c d15d 163c
00000170: 1baa 523d b482 c939 a59e ce3c 4328 c13c
00000180: b0c0 bcbc 13df e0bb fb75 eebb ac68 4c3d
00000190: 822e e23c 04b6 cc3b 8c75 d7bc f2e4 943c
000001a0: d2d6 1ebc 9952 90bc ff52 223d 8f77 e8bb
000001b0: 38e3 64bc 48bf c23a 5f4c e73c 2ff6 cd3c
000001c0: f264 a8bb 2750 c63c 1cce 4cbb 91bc 013c
000001d0: c26f 25ba 7e6d d43c 6742 003d 7f10 32ba
000001e0: 0bc4 c3bb 4097 19bc 6f7d 5b3c 4a86 383c
000001f0: 8069 173c 0c50 a63c ae5d 42bc 586c 8b3c
0.034367688 0.023103526 -0.024864128 0.017434971 0.04455947 0.0046264865 0.00918453 0.0019933109
-0.0051354845 0.013969112 -0.008864686 0.017404083 0.006418512 0.00017635066 0.0008300632 0.0046058623
-0.017143225 0.007553878 0.0009056615 0.0095298495 0.0052343607 -0.004622483 -0.00774854 -0.0132435225
0.032514744 0.00317302 -0.016009517 -0.0118008945 0.017265685 -0.0073396536 0.018016951 0.033271536
0.018969325 0.005973635 0.008351672 0.0054814047 -0.016766807 -0.0030911257 0.01206126 0.013386104
0.03374989 -0.015369325 0.016152775 0.007895524 0.0038772686 0.0070054624 0.01574364 0.0003806291
0.00026137804 0.007503353 -0.013928764 0.01426935 -0.014644905 -0.022578107 -0.017457722 0.024269577
-0.0045857597 -0.008149688 -0.0033122066 0.0015751953 -0.0007379536 0.050911166 0.021132445 0.029707368
0.024344552 -0.03735594 -0.014713872 0.0004823857 -0.0062918975 0.012910009 -0.026366556 0.009688945
0.003974641 0.0021656454 -0.0061042584 0.036481705 0.018384965 0.004983018 0.0084679 -0.0034868177
-0.031898197 0.016660279 0.0338008 0.001825624 0.01932222 0.00057299464 0.04007049 -0.031580165
-0.033610247 0.013288491 0.0133246835 0.009177641 0.051431756 0.0003843509 0.025222132 0.023578769
-0.0230411 -0.00686253 -0.007277248 0.04990451 0.027610067 0.006247284 -0.026301168 0.018175576
-0.009694772 -0.01761751 0.039629932 -0.0070943306 -0.013970189 0.0014858032 0.028234659 0.025141804
-0.0051389867 0.024208141 -0.003125078 0.007918493 -0.00063109037 0.025931116 0.031313326 -0.0006792619
-0.005974298 -0.00937444 0.013396605 0.011262486 0.009241462 0.020301841 -0.011863155 0.017019436

network_body._body_endoder.seq_layers.2.weight f4 [128, 128]
00000000: 4296 03be 2e7a 423d 2057 02be d1de babd
00000010: 2e43 1cbe 5a69 ba3c 264a 683e 31f3 ba3d
00000020: 4276 7dbe 756e 043e 6af5 3d3c d7e1 213e
00000030: bf38 93bd 2029 7b3d ddf1 46be 2ee5 5dbe
00000040: 9da1 04be 02cc 103e 1ffa ecbd 99eb 3c3d
00000050: 2151 af3d 208e 413c bae6 85bd 9e6b b33d
00000060: f55a 00bd f220 e43d 9f23 263d 88c9 51bd
00000070: 119d 1b3e 5592 963d af09 7f3b b820 cfbd
00000080: 94db 0e3e c2ca 9b3b 2835 50be b5d7 b53d
00000090: 4173 06bd ea13 62bd a8c5 b2bd 8c4a c13d
000000a0: 1902 fdbd 86d2 fdbb 5691 cb3d 6423 5a3d
000000b0: e03e 3a3d 5d4f 653e 8071 85bc 6d57 463d
000000c0: 185f e4bc 5661 89bd 61a3 533d 186a 2bbe
000000d0: 719a 81bd e70b e73b 99c6 853e a78a c7bd
000000e0: c0a6 27ba 15d2 61be 5bec e2bd 1cee 86bc
000000f0: d19e 343d 76a7 2b3b bbad 833b b8cd a4bd
00000100: 4f7e 20bc e25d e3bd 4497 2cbe e6d8 3b3d
00000110: c739 173d f35b 66bd e987 85bd 16b0 64bd
00000120: 229d e13d c292 0bbe e8b5 07be b096 313e
00000130: 78f3 29bd 8ed5 24be 5906 d3bd 7b8a 86bd
00000140: 3528 ba3d 2fc8 4dbd ec2c bd3d f4a5 ec3d
00000150: ef4d 363d 739b 303d 3f6e c63d 120d 99bc
00000160: a5ec 81bd 8fe3 86bd 05e8 46bd 5b4a 1fbd
00000170: 9b46 5b3e b37d 1dbc f8b0 8fbd 0ebc 2cbd
00000180: 4354 d3bd 9245 2bbd 6aeb ccbb df4d 01be
00000190: 78f7 653d b3e0 4bbe 32ef 093d 6a1d 4fbd
000001a0: 3d97 e8bd a938 0ebd e1ac e1bd 9e41 28be
000001b0: 29fd aabd 70b7 06be 5025 343e 917a 65bc
000001c0: 3ae0 493d d614 843d 9ad1 e5bc e5b6 16be
000001d0: 9ba8 44bd 9632 043e fcff 1dbe 9a94 2b3e
000001e0: ff99 b6bc e9e2 823c f215 c3bd dc2a 2ebe
000001f0: bfe5 8abd 10df 1a3e c345 25bd bfb2 f53d
00000200: a7ac 1b3e 74a5 273d d1a8 0d3c 547d 1bbd
00000210: f6a0 acbc bf01 1dbd 7836 393e 51c4 9a3c
00000220: 6b8e ffbc c4c4 f23d 08b5 ffbd 85fd e2bd
00000230: 02cb 80bd c96f 23be ca66 b8bc 37ea 8abd
00000240: 0ea0 22bd 5872 42bb c60e f83d d09b bb3d
00000250: 2570 1e3d a3f2 173d 7cc8 90bd c20a 96bd
00000260: 68ad 813d eb61 d23d e843 ad3b 5560 b9bd
00000270: a957 f43d 5de7 243d a010 fdbd 3822 bd3b
00000280: 4321 4dbe 1f2d a23d 0d9d b8bd 2ea5 83bd
00000290: e66d 053e 4c3a babd f6e0 fcbd c75c 6cbd
000002a0: 6963 6ebe 8e85 2a3e ed64 06bd 085e 3ebb
000002b0: 5d25 cbbd 69a0 91bd 9a0a 79bd a29a a03d
000002c0: 5953 d73b b9db e6bc 1855 813d 373b 343d
000002d0: 9991 2a3d e641 353d 257c 0c3e 6358 16be
000002e0: bb60 003c 6fcb 163d 3532 16be ccdb 80be
000002f0: 3afa f4bc 5db2 96bd f5f5 643d 01f6 4dbe
00000300: 5f25 da3b a0a0 08be 4e1c f73b 04f5 803d
00000310: c274 aebc d202 d1bd 9c51 3bbe 0884 273d
00000320: 92c2 f73d 28b0 273e e8ea 10bd 79af 663d
00000330: fb9c 0f3c dce9 01bd b25d 733d 1692 67bd
00000340: 7822 193d 3486 99bd da8d afbd aac3 ca3c
00000350: f031 1f3d 1a67 833d ed40 663c 1485 2c3d
00000360: 464b 05be 5f48 803d 4f62 0dbe 3577 d2bd
00000370: aa6e 033e 2d4d ba3d f82d 523c 35a8 8abd
00000380: 3652 7fbb e386 c03d 9633 82bd ae40 14be
00000390: f2e8 e43d 7810 313d 0121 1b3d c26b fc3d
000003a0: 592b d83d 72b4 fbbc 136e 57bd 0641 733e
000003b0: 437b 04bd 67ab 4dbe 0004 a3bc f1b2 85bd
000003c0: bbfd c03c f8f8 34bd aad9 c03d 9f16 69bd
000003d0: c0cf 0fbd 9e9d 6a3d 3fbb 6ebd e3b8 95bd
000003e0: 0875 26be 0eb5 003e d4c6 70bd e0cf 3a3d
000003f0: 89a6 b0bc 219d babd 4413 08bc 43bc 02be
-0.12850288 0.0474798 -0.12728548 -0.0912453 -0.15260002 0.022755314 0.22684535 0.09128416
-0.24752143 0.12932761 0.011594156 0.15808807 -0.07188558 0.061318517 -0.19428201 -0.21669456
-0.12952276 0.14140323 -0.11571144 0.04612312 0.08560396 0.01181367 -0.06538148 0.08760761
-0.031336743 0.11139096 0.040561315 -0.051217586 0.15196635 0.07352129 0.0038915684 -0.101136625
0.1395095 0.004754395 -0.20332778 0.088790335 -0.03282476 -0.055194773 -0.08729106 0.09438047
-0.12353916 -0.0077460436 0.0993983 0.053256407 0.04547012 0.22393556 -0.016289473 0.04842322
-0.027877375 -0.067080185 0.051669482 -0.1673969 -0.063282855 0.0070509794 0.2612808 -0.09743243
-0.0006395392 -0.22052796 -0.110802375 -0.016470961 0.04409677 0.0026192344 0.004018513 -0.0804705
-0.009795739 -0.11101891 -0.16854578 0.045861147 0.036920335 -0.056240033 -0.065200634 -0.05583199
0.11016299 -0.13630202 -0.13252985 0.17342639 -0.041491956 -0.1609709 -0.10303945 -0.06569382
0.090897 -0.050239738 0.09237084 0.115550905 0.044507917 0.043116998 0.096889965 -0.01868299
-0.063439645 -0.06586372 -0.048561115 -0.03888927 0.21413653 -0.009612489 -0.07016176 -0.04217153
-0.10318806 -0.041814394 -0.0062536495 -0.12627362 0.056144208 -0.19909935 0.03367538 -0.05056516
-0.113569714 -0.034722004 -0.11019302 -0.16431281 -0.08349068 -0.13155913 0.17592359 -0.014006273
0.049286105 0.06449287 -0.028054047 -0.14718206 -0.048012357 0.12909922 -0.15429682 0.16755906
-0.022290228 0.01597734 -0.0952567 -0.17008537 -0.06782102 0.15124154 -0.040349733 0.11996984
0.1520258 0.040929273 0.008646206 -0.03796132 -0.021072846 -0.038331743 0.18087184 0.01889244
-0.03119584 0.11853936 -0.12485701 -0.11083511 -0.06288721 -0.15960611 -0.022509951 -0.06782954
-0.03970342 -0.0029670205 0.12112193 0.09160578 0.038681168 0.03709663 -0.07069489 -0.07326271
0.06331903 0.102725826 0.005287636 -0.09051577 0.11930782 0.040259708 -0.123566866 0.0057719015
-0.2003222 0.079187624 -0.0901433 -0.0642799 0.13030204 -0.090931505 -0.123475954 -0.057705667
-0.2328011 0.1665251 -0.032811094 -0.0029047746 -0.09919236 -0.07110674 -0.060801126 0.07841994
0.006571215 -0.028180944 0.063150585 0.044001784 0.04164276 0.0442523 0.13719232 -0.14682154
0.007835562 0.036815103 -0.1466759 -0.25167692 -0.029904474 -0.07358239 0.055898625 -0.20113374
0.006657287 -0.13342524 0.007541216 0.06296733 -0.021295909 -0.10205616 -0.1829285 0.0408974
0.12097658 0.16375792 -0.035380274 0.056319688 0.008765454 -0.031717166 0.059415527 -0.056535803
0.037386388 -0.074963 -0.08571978 0.024751503 0.038865983 0.064161494 0.014053565 0.0421191
-0.13016996 0.06263804 -0.13807033 -0.10276643 0.12835184 0.09096751 0.012828343 -0.06770364
-0.0038958914 0.094007276 -0.063574955 -0.14477798 0.11177243 0.043228596 0.03787327 0.12325241
0.10555143 -0.030725691 -0.05259521 0.23755273 -0.032344114 -0.20084916 -0.019899368 -0.06528271
0.023558488 -0.044182748 0.09416516 -0.05690634 -0.035110235 0.05727922 -0.05828404 -0.07310655
-0.16255581 0.12569067 -0.058783367 0.0456084 -0.021563785 -0.09112001 -0.0083053745 -0.12767129

network_body._body_endoder.seq_layers.2.bias f4 [128]
00000000: 7d88 ab3c e34f 263d c0f8 0abc 240b 8f3c
00000010: abe8 b73b 55c8 5ebc e2ef 813c ae05 1d3c
00000020: d88e 823c 6e55 d2bb 60a3 99ba c3dc a9bb
00000030: b71f fcbb be9d af3c 68bb 7abc d6b0 1ebc
00000040: 8f72 8aba 13d8 103d dfa2 c4bb fcc1 283b
00000050: ab90 6a3c 6035 fbba 8926 e73a b820 54bc
00000060: 92ab 66bc 1a91 c2bb d18d f6bb 8262 f6bb
00000070: 1f1f 9e3c 447e 463c 24b3 7ebc 6f59 11bb
00000080: 21d0 2f3c e7bb b7bc 1b60 083c 1a1c f2bb
00000090: 94a3 b6bc 4cca 20bc df13 7bbb 41f8 ffbb
000000a0: d296 19bc d371 be3c 98c9 6ebc d286 663c
000000b0: e1fc 9a3b 5698 9c3c 1e30 b4bc 6af1 b9bb
000000c0: 6baf 17bc 24d6 15bc aa93 fa3b 3b82 b43b
000000d0: 398a e0bb c68a 32bc a034 0fbc c94f e7bb
000000e0: 2669 293c 6ed6 263c e6be 88b9 203a de39
000000f0: 6af1 adbb d37c 943c 5481 cd3a 4582 a33c
00000100: e2c1 90b9 892a 3d3c 78f3 b13c 1d30 ef39
00000110: 4010 213c 238d cd3c 94d0 aabc c619 0f3c
00000120: 6099 4cbc b191 d6bb 9ef1 54bc d6d7 cf3b
00000130: 1be6 5bbb 7f44 9a3b df84 813c a3c0 3f3c
00000140: 43ec 823c 9421 93bb 6e6a f6bb e759 f13c
00000150: 6e33 db3c 9d5b ca3b 4bdf 353c 4c28 db3a
00000160: 9bef d0bb 5d27 8dbc 8b8f 573c 99b5 613c
00000170: 605d c2ba be2c 063c 1fe0 3a3c f878 23bb
00000180: 3d3c 9cbb 95a8 6f3c 6728 44bc d876 853c
00000190: 1a73 043d f4ac 113b 520c 49bb b241 1c3c
000001a0: 1239 9abc 36e5 163c 7474 3dbc fbe0 ec3a
000001b0: 0e1c 3abc 9fd2 23bc c27b 2d3d e763 57bb
000001c0: 88b7 d63b f226 16bc ea8d 85bc a416 fa3b
000001d0: 1fc4 91bb dfe8 0a3b 2fa2 83bb 0bb7 e93b
000001e0: d5be 403b 1aed 923a 8721 983b bda9 833b
000001f0: 1500 4cbc f087 d83b 251f 463b cba3 a93c
0.020939106 0.04060353 -0.008482158 0.017461367 0.005612453 -0.013597568 0.015861455 0.009583874
0.015937254 -0.0064188754 -0.0011721663 -0.0051837876 -0.0076942104 0.021437522 -0.01530347 -0.009685716
-0.0010562706 0.035362314 -0.006000861 0.002575039 0.014316718 -0.0019165687 0.0017635386 -0.012947254
-0.0140789915 -0.0059377076 -0.00752423 -0.0075190673 0.01930195 0.012115065 -0.01554564 -0.002217855
0.010730774 -0.022428466 0.008323695 -0.007388604 -0.022294797 -0.009813856 -0.0038311405 -0.0078115766
-0.009374337 0.023247635 -0.014574431 0.01407023 0.0047298525 0.019115608 -0.0219956 -0.0056745308
-0.0092581315 -0.009145293 0.0076469975 0.0055086887 -0.006852415 -0.010897344 -0.008740574 -0.0070590717
0.010340011 0.01018296 -0.00026082172 0.00042386446 -0.00530832 0.018125927 0.0015678802 0.019959578
-0.00027610274 0.011545786 0.02172254 0.0004562148 0.009830534 0.025091713 -0.02085141 0.008734172
-0.012487739 -0.0065481295 -0.012997059 0.0063428683 -0.0033553902 0.0047078724 0.015810428 0.011703643
0.015981799 -0.004490087 -0.0075200116 0.029461814 0.026757922 0.006175472 0.0111006005 0.0016720383
-0.0063762194 -0.017230684 0.013156782 0.013776206 -0.0014828853 0.008189378 0.011405974 -0.002494393
-0.004767923 0.014627595 -0.011972523 0.01629202 0.032336332 0.0022228332 -0.003067751 0.009537147
-0.018826041 0.009209922 -0.011563409 0.001807242 -0.011359228 -0.009998946 0.042354353 -0.0032865943
0.0065526403 -0.009164559 -0.016303021 0.0076320935 -0.0044484283 0.002119593 -0.0040171365 0.007132416
0.002941062 0.0011209578 0.0046426686 0.004018037 -0.012451191 0.006608002 0.0030230966 0.020707985

action_model._continuous_distribution.log_sigma f4 [1, 2]
00000000: 3a2b 42be 9c1d d1be
-0.18961802 -0.40842903

action_model._continuous_distribution.mu.weight f4 [2, 128]
00000000: cd25 04bc fd48 f2bc c11d ccbc b7e4 95bb
00000010: 1a20 e53b 75ac d83c f258 1fbc 419f 893c
00000020: 25f0 c5bd a30a 5ebd 2501 fabc e5d1 ef3c
00000030: 7fb4 f4bc 9ef2 293c cb92 2a3c 1310 ecba
00000040: 65db b1bd 4693 013d 69a5 1f3c a5a4 5ebd
00000050: 3f63 ae3c 7b22 183d 38bf d03b 9172 f8bc
00000060: 8187 36bc 346f 92bd bb39 efbc 044d 3d3d
00000070: 8c7a 6a3d 0088 98bc ddb1 233c 437f 32bc
00000080: eaaf 8b3b a9bf 6b3c 4b38 49bd ff2c c23c
00000090: 3985 3b3c 6a9b e13c 4937 0dbd 735c 353c
000000a0: 425b 39bc 6e9e 1e3d 2e34 183d 395b 31bd
000000b0: 66ed 123c b5b5 ec3d 73c7 853c 527a 0f3d
000000c0: 98c4 4b3d 92d8 c7bc 0781 b73c 49fe f7bc
000000d0: cf00 63bd 336a cabd 97f2 3c3d 695c 813b
000000e0: c131 5a3c 9e43 343b 4007 febc f1ca a03c
000000f0: 12eb bebc e842 4b3c 586d 11bd 2622 e33d
00000100: 5518 07bc 686e bb3c ed51 873d cbbd 2fbc
00000110: f3b8 31bc 491f f63d 462d 663b 764f 84bc
00000120: 94e5 cb3c 8a21 843a cc87 5cbc 358b 1abd
00000130: 0f4d 18bd 9531 493b e6d0 0c3d 96da fe3b
00000140: ba76 21bc 395f 133d de06 e2bb 0c30 213d
00000150: e6dd cdbd 7e80 143d 1358 4fbd 5634 31bd
00000160: a036 e33c e214 91bb ff54 9f3c b82c 1739
00000170: 39c3 fd3c 28d2 7fbc 8e88 16bc ca89 973c
00000180: f5ee c6bc d8e6 88bc 8e22 143c b7ce 583d
00000190: 2c8a 8d3d 9b3a b1bc 1181 93bc 5f2a 80bb
000001a0: 74d5 d33b 0800 8b3b 89af 393c cfa1 2cbc
000001b0: 0aa6 67bd deff e9bc 927d a93d d8d7 973c
000001c0: e000 03bd a127 0ebd b71e 4f3c c0e4 9e3c
000001d0: 0556 503d 4f5b b73a 320c ae3b 00ba 18bb
000001e0: 7666 f23b 42b3 c53c 902e a0bd 8bbd 883d
000001f0: e687 923b 7f3b c63c 1faf ffbc a28e 5b3b
00000200: 5b9c ff3c d8f3 0cbd 3780 ab3d 21b0 c33c
00000210: fbe8 25bc 8ba5 cabc 0e0b d23c dbcd 183d
00000220: ad9c ef3a a6a7 ba3c f0b4 9439 55e7 af3d
00000230: a6ac b3bc 9e7a 303c 8c7b 0d3c 0c3b 81bc
00000240: a17a cabb 9fac e63c f35b 54bd d722 09bc
00000250: a523 85bd ae3e 0cbd 47bd 85bd 8963 40bd
00000260: fe58 e9bb a46e 0ebd 29a8 8bbd dc46 dbbd
00000270: 1330 8bba 35b7 ff3c 1f9d 77bb 325b 843b
00000280: ae1e 0f3d be92 20bd 0a42 0b3d 5d75 51bd
00000290: 8acb 17bc 260f 6abd 1d0b 2cbd 69c2 05bc
000002a0: 87d6 dfbc 9560 9f3d befb 2ebc 1aa2 e1bb
000002b0: e491 783b 6dc0 cebd 965e 9abc b9b0 9bbc
000002c0: 48c3 8bbc 0784 f8bb 1119 703c b91c ba3c
000002d0: db0f 6bbd f96c 033b fd1f dcbc cd11 5c3c
000002e0: f615 ed3c 11d5 723c 2d26 96bb 33f1 a1bc
000002f0: 4400 68bc 417e d9bd c991 e33c 48c3 7fbc
00000300: 0253 8d3c 80ff 9b3c 416a 04be 8aec 423b
00000310: 5516 e83c 21e5 4cbd 9970 03bd 55d0 b03c
00000320: f38a 87bc 8d7d fdbc 7a03 cb3b 98c3 9a3c
00000330: 0671 233d 99ae 5ebd 7b88 d43c 2029 523d
00000340: efbe 88bd e392 9bbd 9899 a4bd 3815 fe3c
00000350: 67fb 6cbc 2238 df3b f63a 1dbd 60b4 ed3c
00000360: f39a ddbb a7d6 abbc 00e3 3d3d b402 393d
00000370: 735c 7ebd 58b6 253c 2775 a83c 3520 36bd
00000380: 1608 1cbc b18a 353d e303 0bbd 8e33 ee3c
00000390: 02f1 b03c 0b8c f0bc b187 49bd d78a ae3c
000003a0: fe45 8dbc fc55 ed3c bf8d 92bc 62a2 1b3d
000003b0: 3bb3 11bd b962 55bc 2be8 893c e89f 79bd
000003c0: d39a a93d 14d0 08bd 0c32 41bd 65c5 a8bd
000003d0: 423d 2cbd 1db7 9fbd 41fd 21bd f698 c83c
000003e0: ceee 443d cd2d 773c dc41 ee3c a9df 74bd
000003f0: 9bae fdbb 2ce0 fc3b 665e 2b3c 795e 4d3d
-0.008065653 -0.02957582 -0.024916532 -0.004574384 0.006992352 0.026449421 -0.009725796 0.016799571
-0.096649446 -0.054209363 -0.030518124 0.02927489 -0.029871223 0.010372786 0.010410975 -0.0018010162
-0.08684424 0.03163459 0.009744027 -0.054356236 0.021287559 0.03714226 0.0063704513 -0.030328067
-0.011140705 -0.071501166 -0.029202333 0.046216026 0.057245776 -0.018619537 0.009991136 -0.010894599
0.004262914 0.014388957 -0.04912595 0.023703096 0.011445337 0.027539928 -0.034476552 0.011069405
-0.011313261 0.03872531 0.037159137 -0.043299887 0.008967733 0.11558095 0.016330456 0.035028763
0.049748033 -0.024395261 0.022400392 -0.03027262 -0.055420693 -0.09883537 0.04612979 0.0039477837
0.013317526 0.0027506123 -0.031009316 0.01962802 -0.02330545 0.012406088 -0.03550467 0.11090498
-0.008245547 0.022879794 0.06607423 -0.0107264025 -0.010847318 0.12017686 0.00351222 -0.016151171
0.024889745 0.0010080796 -0.013460111 -0.037730414 -0.037182864 0.003069972 0.03437891 0.0077775223
-0.009854967 0.035979483 -0.0068977913 0.03935246 -0.100520894 0.036255352 -0.050621103 -0.043262802
0.027736008 -0.0044275383 0.019449709 0.00014417141 0.030976878 -0.01561407 -0.009187831 0.01849832
-0.024283865 -0.016711637 0.009041442 0.052931514 0.0691112 -0.02163439 -0.01800588 -0.003911301
0.0064646546 0.004241947 0.011333355 -0.010536625 -0.05655483 -0.02856439 0.08275904 0.01853554
-0.031983256 -0.03470576 0.0126416 0.019396186 0.050863285 0.0013989004 0.0053115124 -0.0023304224
0.007397468 0.024133328 -0.07821381 0.066767775 0.0044717668 0.024198292 -0.031211434 0.0033501764
0.031202486 -0.034412235 0.083740644 0.023887696 -0.010126348 -0.02473714 0.025640037 0.037305694
0.0018280946 0.02278502 0.0002836357 0.08589045 -0.021932911 0.010771422 0.008635413 -0.015775226
-0.0061791693 0.028158484 -0.051845502 -0.008370123 -0.06500939 -0.034239464 -0.065302424 -0.046969924
-0.0071212044 -0.034773484 -0.068191834 -0.10706875 -0.0010619186 0.03121529 -0.003778286 0.0040391916
0.034941368 -0.039202444 0.033998527 -0.051137317 -0.009264836 -0.057143353 -0.042002786 -0.008164027
-0.027323974 0.077820934 -0.010680137 -0.006885779 0.0037928754 -0.10095296 -0.01884393 -0.019005166
-0.01706089 -0.0075840983 0.014654414 0.022718774 -0.057388168 0.0020053966 -0.026870722 0.013431978
0.028941136 0.014821307 -0.0045821876 -0.019768333 -0.01416022 -0.10619784 0.027779477 -0.0156105235
0.017251495 0.01904273 -0.12931158 0.002974304 0.028330961 -0.0500232 -0.032089803 0.021583715
-0.016545748 -0.030943656 0.006195483 0.018892094 0.03990271 -0.054365728 0.025943985 0.05130875
-0.06677043 -0.07596376 -0.08037108 0.031015977 -0.014464236 0.0068121115 -0.038386308 0.029016674
-0.006762856 -0.020976378 0.046359062 0.045168594 -0.062099885 0.010114275 0.020563675 -0.04446431
-0.009523412 0.04432172 -0.033939254 0.029077318 0.021599296 -0.029363653 -0.04920167 0.021306438
-0.017245289 0.028971665 -0.017889855 0.037996657 -0.035571318 -0.013024026 0.01683434 -0.060943514
0.082814835 -0.033401564 -0.04716687 -0.08240775 -0.042050608 -0.07798598 -0.039548162 0.024487
0.048079304 0.015086603 0.029084139 -0.05978361 -0.007741762 0.007717153 0.010459518 0.050138924

action_model._continuous_distribution.mu.bias f4 [2]
00000000: a680 6cbb 4199 863c
-0.0036087423 0.016430499

action_model._discrete_distribution.branches.0.weight f4 [2, 128]
00000000: 662c c7bd 16d0 9dbd 9813 ba3c 62d3 973c
00000010: 9e95 5a3d ca7f b83c bb68 903a 33bd 473d
00000020: b159 56bd 2a9d 623a 8e4b 32bc 1226 3a3d
00000030: 4976 c5bc 0ace 153d 3c0d 0b3c 792e 95bc
00000040: 86d1 81bd da77 0f3d 5e9f f63b a638 50bb
00000050: 56ad 39bd cf14 34bd ad2e d1bc b962 e6bd
00000060: 119a 7f3c 4b15 35bd f797 703b fd38 efbc
00000070: 7078 103d 5b67 45bc 5e83 323c e7be a8bb
00000080: 9cbe 8c3a b7de 853c c35c 163d 4176 19bc
00000090: 1634 bc3c 1d81 17bd 96b9 973d c609 e23c
000000a0: 9d8d e43c 28fd e13c a471 933b 6129 203d
000000b0: 039f 42bd 0217 dfbb 06ea 073d 541c e33a
000000c0: e151 51bb 649a 50bb 7be7 8a3c 29ab 2fbc
000000d0: c85e 36bd 8a98 89bd 3517 613c 9bb9 483c
000000e0: 66b4 4a3b 3a30 683c 36a6 373d aa1f adbc
000000f0: 6f87 2f3c 9bf0 35bd bfee c83c c385 463d
00000100: d797 18bb 87ad c73c 9a90 40bd b2ed 993c
00000110: f59f 783c cc96 0d3d c86e 4bbc c7a8 e9bd
00000120: fe91 333c 0164 67bd 45ce 76bc 936b 8ebd
00000130: 76cc 1a3c 0c12 7cbd f842 20bb f83b cd3b
00000140: 202b a8bb 0eb7 eebc 44ce e23c 70aa 513d
00000150: dd55 f3bc 9924 c5bd 97ed 35bd cd58 783d
00000160: 3378 fbba bd79 07bc b829 693d 927f b03b
00000170: 2fb4 66bc b0ba a33c 79e8 ccbc 392e cabc
00000180: edb0 373c e0ff 1fba b02d 6abc b86a a23d
00000190: 5e16 bd3d 75aa f4bd 0960 3f3b 3992 223b
000001a0: f575 8ebc 60c8 d2bc 7312 51bd 73fe 0cbc
000001b0: 05a0 28bd 285e 4dbc 1ee0 cf3d 2bb2 d3bc
000001c0: e02a 843d b5cc 2fbc e4ee f7bc 8bf9 a8ba
000001d0: c3e7 173a e25f 0c3c 13e6 b6bb 25e7 2c3c
000001e0: d9b9 12bd e29e 233b c8e3 8bbc 9ff9 a1bd
000001f0: 2f68 ecbc 287a 2c3c 115d d7bc a750 bebd
00000200: 8ed5 c13d 7bdc a43d 8bca 19bc a183 bebc
00000210: ea70 8abd d8d5 383c c919 383c d119 25bd
00000220: 911f 603d bca4 e6bb 839d e03b 3d36 50bd
00000230: 44bc c13c 5a79 4dbd ed08 9f38 275e b13c
00000240: 3092 653d d102 46bd ee27 25bc 7947 aa3c
00000250: e28f 203d b918 973d 498f 103d 11e7 ff3d
00000260: c87a 2bbc 54fd 363d 9453 90bc 4c0c cd3c
00000270: 8db9 3bbd 9c79 88bb 73de 4ebc 4427 9fbb
00000280: 0330 c0bc e70f 98bc 197e 87bc 20c8 61b9
00000290: ce08 a93c f1de 8c3c 40ee 83bd ce33 0fbd
000002a0: 236a 21bd 875d 06bd 908c 9dba 85fb e1bc
000002b0: a1e8 8c3d 3404 6bbb 770e e6bc 1919 3ebc
000002c0: 084a 043d 4f07 94bb 1398 d3bc a4ac ed3c
000002d0: fe3e 4a3d b2e6 553d 143f 4cbb a153 3fbc
000002e0: c4c9 7bbc 4a4b 82b9 5791 4ebd 694c 093c
000002f0: 3148 143b deb0 273d 07f0 ecbc 8b4e 9abd
00000300: c27e 2cbc 0e4c e6bc 0a1d 2c3d 71c2 7cbc
00000310: b2e1 8dbc ee4c 04bd ae3e f6bb e2da df3d
00000320: 67f1 a4bb 9f07 2a3d b7b0 1f3c d912 a73d
00000330: e5a5 af3b 8444 923d 79a1 aabb 458e f739
00000340: 1b77 f73c 49ad 073c 06c7 13bd 6a2b 25bd
00000350: 717d df3c c128 c73d d68d fd3c 4f86 61bd
00000360: 6745 75bc d364 0c3c ac4f 69bd 9eeb 893b
00000370: 3fa1 cd3c fc3d 81bc 1858 86bb 8cec 1d3d
00000380: 733d 15bc 5da7 a73c 441b ac3c 51f8 adbd
00000390: fc53 d5bd 3627 f83d 8ad4 0e3c 5c47 e2bb
000003a0: cbe0 693c 5dea 0f3c ddbc 543d ecbc 023c
000003b0: ef57 1b3d 40ba 7bbb dcde d1bd 0895 eb3c
000003c0: fa14 4bbd 880e 553c 6189 cb3c 8f3d 813c
000003d0: cdb3 ea3a 8b5b fdbb dc1f d93b 7463 e0bc
000003e0: 4163 b63c 34f4 bcbb 7b15 fcbb 9159 893d
000003f0: 099b 023d d66f 903a 6df8 183c 930b a83d
-0.09725265 -0.07705705 0.022714421 0.018533412 0.053365342 0.022521872 0.001101754 0.04876442
-0.05233163 0.0008644635 -0.010882271 0.045446463 -0.024104254 0.036573447 0.008487042 -0.018210636
-0.063387915 0.03502641 0.0075263223 -0.0031772046 -0.04533132 -0.043965157 -0.025534952 -0.112492986
0.015600697 -0.04420976 0.0036711672 -0.029201979 0.03527111 -0.012048568 0.010895578 -0.0051497105
0.0010737958 0.01634155 0.03670956 -0.009366573 0.022974055 -0.036988366 0.074084446 0.027592551
0.027899558 0.027586535 0.004499631 0.039101962 -0.047514927 -0.0068081627 0.033182167 0.0017327168
-0.0031939673 -0.0031830305 0.016956082 -0.01072196 -0.044523984 -0.06718548 0.013738443 0.012251283
0.003093028 0.014171654 0.044836245 -0.021133263 0.010713442 -0.044418912 0.024527906 0.04846741
-0.0023283863 0.024374736 -0.047012903 0.0187901 0.0151748555 0.03456764 -0.012416549 -0.11409145
0.0109601 -0.056491856 -0.015063827 -0.06954112 0.009448161 -0.06154065 -0.002445398 0.0062632523
-0.005132094 -0.029140022 0.027686246 0.051187932 -0.029704029 -0.09626121 -0.044416036 0.060631562
-0.0019185602 -0.008268771 0.05692455 0.0053863013 -0.014081045 0.01998648 -0.025013195 -0.024680244
0.011211616 -0.0006103497 -0.014293119 0.07930511 0.09232782 -0.119465746 0.0029201529 0.0024806394
-0.01739023 -0.025730312 -0.051042985 -0.008605587 -0.04116823 -0.012534656 0.10150169 -0.025841793
0.0645349 -0.010729958 -0.03026528 -0.0012891752 0.0005794728 0.008567782 -0.005581626 0.010553156
-0.03582177 0.0024966528 -0.017076388 -0.079089396 -0.028858272 0.010527171 -0.026289495 -0.09292727
0.094645604 0.08049866 -0.009386669 -0.023256125 -0.06759818 0.011281453 0.011236616 -0.040307824
0.054717604 -0.007038681 0.0068547144 -0.050832976 0.023649342 -0.050164558 7.5833734e-05 0.02165134
0.05604762 -0.04834253 -0.010080321 0.020786034 0.039199717 0.07377762 0.035292897 0.12495244
-0.010466285 0.044675186 -0.017617978 0.025030278 -0.045831252 -0.0041648876 -0.012626278 -0.0048569757
-0.023460394 -0.01856227 -0.01653962 -0.00021532224 0.020634081 0.01719615 -0.06441927 -0.034961514
-0.03940786 -0.03280404 -0.001202004 -0.027585754 0.06880308 -0.003586066 -0.02808307 -0.011602663
0.032297164 -0.004517473 -0.02582935 0.029012986 0.04937648 0.05222196 -0.0031165527 -0.0116776535
-0.015367929 -0.00024851627 -0.050431576 0.008380034 0.0022626037 0.040940158 -0.028923048 -0.07534512
-0.010528268 -0.028112438 0.04201988 -0.015427218 -0.017319534 -0.03229993 -0.007514796 0.109304205
-0.00503366 0.041511174 0.009746722 0.08157892 0.0053603523 0.071419746 -0.0052072373 0.0004721751
0.030208161 0.0082810605 -0.036078475 -0.040324606 0.027281495 0.0972457 0.030951422 -0.055059727
-0.01497016 0.00856896 -0.056960747 0.004208996 0.025101302 -0.015776627 -0.004099857 0.038555667
-0.009108889 0.020465547 0.021009095 -0.08494628 -0.104164094 0.12116854 0.008717665 -0.0069054794
0.014274786 0.008783904 0.051937927 0.007979613 0.037925657 -0.0038410574 -0.10247585 0.028757587
-0.04958055 0.013003953 0.02484578 0.015776424 0.0017906368 -0.00773186 0.0066261124 -0.027391173
0.022264125 -0.005766416 -0.0076929904 0.067065366 0.031886134 0.0011019658 0.009336573 0.082053326

action_model._discrete_distribution.branches.0.bias f4 [2]
00000000: b617 4c3c b617 4cbc
0.012456825 -0.012456825

action_model._discrete_distribution.branches.1.weight f4 [2, 128]
00000000: 1807 9e3b 9473 e33c a247 5ebc ee01 103b
00000010: cb7a e4bc e218 693b ee6f 4dbc 54ea 373b
00000020: be24 5c3c d1e2 aebc 7671 a03b 9cd3 81bb
00000030: 6f5e 90bc e17c 773b 090e 50bc c23c 46ba
00000040: 0364 883b 21d9 d43b ec13 96bb 6bc6 7cbb
00000050: 534a 493c fc51 f639 b979 9abc 99de 653c
00000060: 2a79 583c ecad 673c 58d5 01bd 76b0 063c
00000070: e440 07bd ec92 ff3b bab8 0c3c 7161 b83b
00000080: 81e1 4eb9 1369 223b 632d 41bc 74f1 39bc
00000090: ef5a 45ba cefb 06bc 7be5 58ba 66d2 193b
000000a0: f90b 7c3c 808e 53bb 0bc6 97bc e5b6 8e39
000000b0: af80 4fbb e70b 5c3d 921e 98bc 0099 13bc
000000c0: 7fd7 eb3b 5e57 c1bb 7876 293b 9da1 6a3b
000000d0: 1232 a93b ae68 cd3c f0bd d93b 3a43 673b
000000e0: 7e0d 71bc 73fd 373b d096 b3b9 4dea a13c
000000f0: e7a1 babc f1ed 913c 94c0 18bc 3570 50bc
00000100: 4347 85bc 79b2 f43a 29dc c83b 60ec d8ba
00000110: acd7 9f3a a5ac 523c 0008 56bb 16a2 ad3c
00000120: cf91 bebb 1ce2 62bc 4e20 603c c9cd 69bc
00000130: 8ba4 aabc 6822 76bc 1a20 053c 907f 68bc
00000140: 5b34 f73a b17b 9abb cc6c 14ba 308f 623b
00000150: ea99 843c 7aec b2bb 28e5 cdbc 7b64 0dbd
00000160: a5e6 50bb 22ef 963b c418 c4bb e659 acb9
00000170: 93a8 b53c efc9 22ba f578 4d3c 20e0 39bc
00000180: 84e6 493b 4546 09bc c03d 603a 40cd 99bb
00000190: fab2 fe3b f01b 6c3b c212 33bc adca dfbb
000001a0: e3f9 793b 97ca 7cbb 46d1 0dbb 4dc8 0f3d
000001b0: f2fc e93b 34f0 4a3c 995f b7ba f462 2bbc
000001c0: b104 9d3b 5184 98bc 4b4f efbc 5b6b 7d3c
000001d0: 8f3e 73bb f78d 123b c617 3e3b ba9a 413c
000001e0: 43c4 a1bc 16d6 413c e963 873c 8b5e 3d3b
000001f0: b7b9 0f3d b101 d73b d4aa db3b 75fd e43c
00000200: 9c10 adbc 06b9 0dbd d1a0 b83b 367a ee3a
00000210: c131 ba3c af2b 8b3b e581 733b 99d6 87bb
00000220: 2d9f f53a db3c 4f3c 1e25 a33b 659f 7f3c
00000230: 4ec6 e43b 1386 aa3b 4bfe 333b bba5 b7ba
00000240: 3011 a73b 8db1 cebb 6b6f c4bb bc24 0c3b
00000250: 71fe b53b 49d7 c0bb 26ec b53c ff07 8bbb
00000260: 2d04 383b d409 1abb 7514 d93c cd4e bbbb
00000270: 2959 043c 768e ab3b e8d5 a8bb 032c 503a
00000280: 37fc adbb c602 6cbc a043 d539 8e49 243c
00000290: 03f0 353c 9091 a73b 0222 d13a 8ed0 4fbb
000002a0: b2d4 c7bc 16f5 203c 8dce c93a b1f3 973c
000002b0: 3b7c 62bc a373 49bd e719 f33b 8849 e8bc
000002c0: 4dca 6139 b46d cc3b 2839 d73b b217 b1bb
000002d0: 31d5 aabc 81fc c0ba 4bf9 2fbc 4cb8 edbb
000002e0: f3e6 cc3b c85f 39bc f919 153c aeb3 a5bc
000002f0: b32c 723c 0c4b a0b9 bcae debb 87dc 013c
00000300: 95c8 cb3b bfb6 8a3b d428 92bb 9d57 9ebc
00000310: 7b65 87bb a7fe 94bb 8495 d5b9 2f2f 50bc
00000320: 4c4c 84bc 4022 133c 7a10 5f3a ffb6 2cbc
00000330: 9824 113d bb16 ba3c fee7 abbb cc82 a2ba
00000340: 06b0 15bb 09e3 4fb9 f574 293c e939 9d3c
00000350: d46a 25bc d889 07bc 2dcd 1c3c cf0d c23c
00000360: 7732 3b3c ffd3 b5ba 860b c73b 2f8e 3d3b
00000370: 4542 a0bc d6cc 6cbb 1da1 cc3c 67f7 673c
00000380: 33c2 81bc 9c54 ca3c f5f3 b4bc 25b1 c63b
00000390: 8bef e33a 8bf1 8abc 5b91 23bc 39a9 bbbb
000003a0: 7a44 60bc 6410 af3c 0885 49bb 5156 38bd
000003b0: 4236 2dbc c735 a03a debf 27ba 479e 24bc
000003c0: 94a4 02bc ddc4 34bb f8ff df3c 6f54 53bc
000003d0: bb69 f03b f98a a5bc 595c 0dbb 4374 343c
000003e0: 90c9 ab3c b3b7 3dbc a029 ad3b 68bd 0fbd
000003f0: 8f2e e2bc b5f0 bab9 e7bc a0bc 4ce1 c6bc
0.004822623 0.027765073 -0.013566883 0.0021973806 -0.027890584 0.003556781 -0.012538893 0.0028063254
0.013436494 -0.021348389 0.004896338 -0.0039619934 -0.017623154 0.0037763643 -0.012698659 -0.0007562154
0.004162313 0.0064956103 -0.0045800116 -0.0038570415 0.012285787 0.0004698186 -0.01885687 0.014030122
0.0132124815 0.014140587 -0.0316976 0.0082207825 -0.03302087 0.007799497 0.008588964 0.0056268503
-0.00019729698 0.0024781867 -0.011790606 -0.011349071 -0.0007528504 -0.008238746 -0.00082739413 0.0023471355
0.015383714 -0.0032280982 -0.018527051 0.00027220618 -0.0031662395 0.05372229 -0.018569265 -0.009008646
0.00719732 -0.0059003076 0.0025857966 0.0035801895 0.0051634395 0.02507433 0.006644957 0.0035287873
-0.014712689 0.0028074651 -0.00034253905 0.019765044 -0.02278228 0.017813655 -0.009323258 -0.012722065
-0.016269332 0.0018668912 0.0061297608 -0.0016549937 0.0012195013 0.0128585445 -0.0032658577 0.021195453
-0.0058157216 -0.013847854 0.013679577 -0.014270254 -0.020830413 -0.0150228515 0.008125329 -0.0141905695
0.0018860208 -0.004714452 -0.0005661964 0.003457021 0.016186673 -0.005460319 -0.025133684 -0.034519654
-0.0031875756 0.0046061436 -0.0059843976 -0.00032873376 0.022175109 -0.00062099 0.012541045 -0.0113449395
0.0030807564 -0.00837857 0.00085541233 -0.004693657 0.0077728005 0.0036027394 -0.010929765 -0.0068295808
0.003814333 -0.0038572901 -0.002163963 0.03510313 0.007140749 0.01238637 -0.0013990282 -0.010460604
0.004791819 -0.01861778 -0.029212615 0.01546749 -0.0037116145 0.002236245 0.002900587 0.011816675
-0.019746905 0.011830827 0.016527133 0.0028895463 0.03508922 0.006561481 0.006703714 0.027952889
-0.021126084 -0.03460028 0.005634405 0.0018194381 0.022728803 0.004247151 0.003715628 -0.004145455
0.0018739455 0.012648786 0.00497879 0.015601967 0.0069816476 0.005203971 0.0027464803 -0.0014011184
0.0050984845 -0.006307787 -0.0059947274 0.00213842 0.0055540134 -0.005885039 0.02220733 -0.0042428966
0.002807866 -0.0023504393 0.026499012 -0.005716181 0.008077898 0.0052354885 -0.0051524527 0.00079411286
-0.0053096074 -0.014404958 0.0004067691 0.010027302 0.0111045865 0.005113788 0.001595557 -0.0031710002
-0.024393413 0.009824058 0.001539664 0.018548818 -0.013823564 -0.049182545 0.0074188593 -0.028355375
0.00021533035 0.0062386636 0.006568093 -0.005404436 -0.02085361 -0.001472369 -0.010740588 -0.007254636
0.006253117 -0.01131434 0.009100431 -0.02022728 0.014781165 -0.00030573492 -0.0067957323 0.007926113
0.0062189796 0.004233211 -0.0044604335 -0.019328887 -0.0041319705 -0.0045469585 -0.00040737924 -0.012706562
-0.016149662 0.008980334 0.000850923 -0.010541677 0.03543529 0.022715917 -0.0052461615 -0.00123986
-0.0022840514 -0.00019825636 0.010342826 0.019192653 -0.010096271 -0.008272611 0.009570402 0.023688225
0.011425606 -0.0013872384 0.0060743717 0.002892386 -0.01956285 -0.0036132834 0.024979169 0.014158106
-0.015839672 0.024698548 -0.022088984 0.0060635977 0.0017390115 -0.01696088 -0.009983386 -0.00572696
-0.013688201 0.02137012 -0.0030749459 -0.045004193 -0.010572018 0.0012223058 -0.0006399135 -0.010047502
-0.007973809 -0.002758316 0.027343735 -0.0128985485 0.007336823 -0.020207869 -0.0021569936 0.011014047
0.020970136 -0.011579442 0.005284503 -0.03509274 -0.027610091 -0.00035656025 -0.019621326 -0.024277352

action_model._discrete_distribution.branches.1.bias f4 [2]
00000000: 23ba 4abc 1eba 4a3c
-0.01237348 0.012373475

exp_avg f4 [128, 117]
00000000: c45b 99b8 02d2 a639 4406 a218 dbb6 d0b7
00000010: f52c 0d38 9187 ffb8 2193 a139 279d b318
00000020: 2de7 b2b7 55f2 0738 e9c3 9a39 7e49 65b8
00000030: 6b02 c918 65eb 9fb7 1e1f 7b36 1b38 8ab7
00000040: d948 2939 925b 5118 c5d4 82b7 8405 1e38
00000050: 04ef 8f39 0485 1eb8 b0bd 0517 8ae8 90b7
00000060: 9817 0ab8 a650 3039 8114 6f37 539d 8518
00000070: c995 ffb6 a333 8937 b865 0539 55db 1439
00000080: 4b02 e297 75aa 99b7 f482 c0b7 2a89 3339
00000090: 9729 5ab7 3060 271e bc90 dbb6 56f1 0837
000000a0: aeea b039 3369 b7b8 c5bf a91a cf1d 8bb7
000000b0: adae edb7 d91c 5d39 f440 c3b8 4d50 f22c
000000c0: 1f17 02b7 6ca5 79b6 7c6d fab7 4cc1 7eb8
000000d0: e42f a61a 2d1d 68b7 1b61 fbb7 98f3 9b38
000000e0: 0524 0db9 c642 fd2c de38 b7b6 bcfb 97b6
000000f0: f2cf c5b7 25ad 4d38 93f8 1620 61b9 94b7
00000100: da3d c2b7 ab6a 1db8 606c 08b8 a671 ef2d
00000110: ae6b a5b6 64fd 8ab7 c9a7 e4b8 e818 9638
00000120: c0c6 a220 acdb 0137 ca3a 10b7 54d8 05b9
00000130: dbd1 2f38 46ef 2032 5a66 a435 23cf 2db7
00000140: c661 b5b8 8a3e 2038 39cb d12f 46d7 8a36
00000150: 4afd 2eb7 df90 0ab9 870c 1738 63d8 57b4
00000160: c9cb 1f36 559f 36b7 f7e2 b9b8 c00c 6538
00000170: 59a4 85b3 b109 0936 b545 60b7 90c9 48b9
00000180: c88a a038 fdb3 0334 2b24 a835 85de d1b7
00000190: c8b1 9fb8 aeb1 fe37 8885 b0b3 83b7 5037
000001a0: fc82 9f35 c624 b63c 08c5 ae3b 3beb 92bb
000001b0: 21e7 bc3b 7b2e 16ba 8843 3f3d a2ff 033b
000001c0: 1c9e de3a 202d 8c3c 6404 503a 490a 333d
000001d0: 5cf5 1dbc 830f ff37 8861 0bb9 d87b 0a9a
000001e0: 0d53 45b5 dc0d a9b7 05a4 6cb6 5c4d 95b8
000001f0: 8c41 6c98 1291 96b7 ba74 21b8 684b f9b6
00000200: 3f2d bdb8 3d05 339a 5078 d2b6 fe5f f6b7
00000210: 291b 99b8 89ef 0c37 a671 6f99 a231 c7b7
00000220: 35a5 20b8 d581 58b8 5295 8bb8 485f 8499
00000230: 14d5 e236 36c6 a6b7 3e3c bdb8 76fc 0138
00000240: 998c 5999 7d72 12b8 bb7d 21b8 2329 f2b8
00000250: c30b 8936 ab48 9c97 442c 1cb7 d235 01b8
00000260: fba1 dab8 d164 0538 b532 ad9d 6485 b3b7
00000270: 7da2 02b8 16b1 cdb8 d4f4 1bb7 8a65 2e1a
00000280: c17c 5db7 fb59 f8b7 4106 60b8 213a 9eb7
00000290: ba47 072a d427 aab7 26b9 e8b7 3ce4 a8b8
000002a0: 88d8 a5b7 2b72 311a e6a4 eeb6 8a06 b0b7
000002b0: 31b9 beb8 a331 0db7 5eda 742a e864 4ab7
000002c0: 76b4 abb7 253e e3b8 786a 1eb5 a18b 24a1
000002d0: df0b 6bb7 4c60 d4b7 d591 e9b8 a1c9 0c37
000002e0: 13ad 36ac 71d6 3db7 bc51 c4b7 4a80 d2b8
000002f0: 434c 53b7 6d57 22a2 0e90 a1b5 1fad 3db7
00000300: 5460 c3b8 f9ba fc36 3466 f331 4191 24b7
00000310: b9c6 b7b7 f1f8 b5b8 cfb5 1bb8 fc5a acb2
00000320: f33f a737 00b5 0f37 d715 07b9 62b0 eb37
00000330: 30ef ad34 2947 5636 4bf5 44b7 a71f c5b8
00000340: ad92 2cb6 542b b335 0649 08b6 f6e8 21b7
00000350: bf7d 06b9 2a0a 8937 82b7 ef35 470f 1136
00000360: 38d5 8bb7 08fb c2b8 6d31 ccb7 11a7 34b4
00000370: c566 d637 a59c 5d37 68f0 e23a 8053 7b39
00000380: 4a9f d9bb f40d 9e3c 3b49 c33a c31e a7bc
00000390: 5570 b8bb fd11 3fba 7343 a13c f895 c33a
000003a0: ad8d bcbc 8b18 1dbb 91ac 8bb8 6a43 0c39
000003b0: 90ba 941a 614f a8b6 ef2b 1837 b09b 96b8
000003c0: 6d4d de38 8907 491a 144c a236 355b af37
000003d0: 2713 6738 7495 4337 451b af1a 64ff 8536
000003e0: 040d 9336 4e05 3bb8 828f af38 78cc 8c1a
000003f0: 638e 3437 bf63 c237 30ae b138 45f9 6eb7
-7.312701e-05 0.00031818455 4.1882345e-24 -2.4880681e-05 3.365889e-05 -0.00012184599 0.00030817933 4.64291e-24
-2.1326903e-05 3.2412197e-05 0.00029519133 -5.46663e-05 5.1959724e-24 -1.9063891e-05 3.7420027e-06 -1.6477008e-05
0.00016144234 2.7058848e-24 -1.5596286e-05 3.7675272e-05 0.00027453166 -3.7794016e-05 4.3214037e-25 -1.7274422e-05
-3.2923737e-05 0.00016814712 1.4250284e-05 3.453855e-24 -7.6170295e-06 1.6355718e-05 0.00012721762 0.00014196087
-1.4605487e-24 -1.8318397e-05 -2.2949163e-05 0.00017121868 -1.3003496e-05 8.8607975e-21 -6.543558e-06 8.162422e-06
0.00033744186 -8.745715e-05 7.020658e-23 -1.6583972e-05 -2.8333941e-05 0.00021086949 -9.310423e-05 6.886969e-12
-7.753987e-06 -3.720018e-06 -2.9853305e-05 -6.073834e-05 6.873336e-23 -1.3835071e-05 -2.996675e-05 7.436349e-05
-0.00013460226 7.198106e-12 -5.460445e-06 -4.5294564e-06 -2.3581062e-05 4.9037062e-05 1.278774e-19 -1.7729299e-05
-2.3155404e-05 -3.753106e-05 -3.252586e-05 2.7221624e-11 -4.9299188e-06 -1.6568876e-05 -0.000109031396 7.1571965e-05
2.757539e-19 7.7401455e-06 -8.596757e-06 -0.00012764457 4.1918694e-05 9.36763e-09 1.224874e-06 -1.0359831e-05
-8.648964e-05 3.8205217e-05 3.8161277e-10 4.1377816e-06 -1.0430182e-05 -0.00013214674 3.6012872e-05 -2.0102156e-07
2.3811465e-06 -1.0885143e-05 -8.863763e-05 5.460973e-05 -6.22319e-08 2.0420232e-06 -1.336767e-05 -0.00019148574
7.6552446e-05 1.2265805e-07 1.2527502e-06 -2.501836e-05 -7.614825e-05 3.0361898e-05 -8.219928e-08 1.2440493e-05
1.1884545e-06 0.022234332 0.0053335465 -0.004483608 0.0057648574 -0.0005728972 0.046695262 0.0020141383
0.0016984376 0.017111361 0.00079352246 0.04371098 -0.009641018 3.0405592e-05 -0.00013292406 -2.863777e-23
-7.3509074e-07 -2.0152824e-05 -3.5262212e-06 -7.119283e-05 -3.0535378e-24 -1.7948947e-05 -3.84941e-05 -7.4295567e-06
-9.02065e-05 -3.7020564e-23 -6.272494e-06 -2.9370185e-05 -7.3006675e-05 8.400421e-06 -1.23789615e-23 -2.374576e-05
-3.8300834e-05 -5.161933e-05 -6.6558496e-05 -1.3686964e-23 6.7601304e-06 -1.9881041e-05 -9.023443e-05 3.099112e-05
-1.12470305e-23 -3.4915738e-05 -3.8502487e-05 -0.000115471215 4.0842874e-06 -1.0099608e-24 -9.308631e-06 -3.080612e-05
-0.00010425221 3.1803564e-05 -4.584515e-21 -2.1400578e-05 -3.1145744e-05 -9.8081466e-05 -9.295723e-06 3.606438e-23
-1.3201673e-05 -2.9605804e-05 -5.3411586e-05 -1.8862136e-05 1.2015294e-13 -2.0284126e-05 -2.7742772e-05 -8.053376e-05
-1.9770363e-05 3.6694966e-23 -7.1121494e-06 -2.098388e-05 -9.0944006e-05 -8.415812e-06 2.1747315e-13 -1.2063632e-05
-2.0468822e-05 -0.00010835779 -5.901452e-07 -5.575016e-19 -1.40098555e-05 -2.5317211e-05 -0.00011137469 8.391596e-06
-2.595983e-12 -1.1315206e-05 -2.3403081e-05 -0.00010037476 -1.2594336e-05 -2.2001377e-18 -1.203736e-06 -1.1305586e-05
-9.316267e-05 7.5319517e-06 7.08385e-09 -9.808981e-06 -2.1907837e-05 -8.6771215e-05 -3.7124202e-05 -2.006481e-08
1.993773e-05 8.565607e-06 -0.00012882739 2.8096318e-05 3.2397793e-07 3.1929906e-06 -1.1739622e-05 -9.399588e-05
-2.5715374e-06 1.3349149e-06 -2.0308084e-06 -9.650588e-06 -0.0001282608 1.6336406e-05 1.7860295e-06 2.1615576e-06
-1.6669379e-05 -9.297399e-05 -2.434171e-05 -1.6824585e-07 2.5558644e-05 1.3209098e-05 0.0017314078 0.00023968332
-0.006641303 0.019293763 0.0014899144 -0.02040041 -0.0056286254 -0.0007288752 0.019685483 0.0014922014
-0.023016775 -0.0023970928 -6.6601795e-05 0.00013376554 6.1512773e-23 -5.016031e-06 9.070135e-06 -7.1815564e-05
0.000106002066 4.1571913e-23 4.836833e-06 2.0904097e-05 5.509253e-05 1.1657703e-05 7.242236e-23 3.9934403e-06
4.3824566e-06 -4.4589215e-05 8.371381e-05 5.823298e-23 1.0761988e-05 2.317305e-05 8.472463e-05 -1.4243943e-05
