UnityProject/results/testModel10/AICar/AICar-122971.pt (torch, 790195 bytes, 49 tensors)

discrete_act_size_vector f4 [1, 2]
00000000: 0000 0040 0000 0040
2.0 2.0

network_body._body_endoder.seq_layers.0.weight f4 [128, 117]
00000000: df2b 13be 44d4 943c 01bd 22be d015 4bbc
00000010: 0af0 d8bd c445 143c 80f7 8c3c 8e3a df3d
00000020: 625d 833d 642f f339 3752 abba a83f bd3d
00000030: 8d4f b63d 2e86 0f3d 1e8f c93d e405 7abd
00000040: 9d06 acbb 9636 c8bd 5d5e b0bd a4a7 203d
00000050: c68e 433c 4c52 dd3c cb93 253c 765f 5e3d
00000060: d945 bdbc 1c40 62bd e51f a93d 7f20 cdbc
00000070: e75e c73b 9a47 36bd c6b2 a63d e207 d2bc
00000080: bb48 be3c e247 58be 77a0 3a3c 1477 fcbc
00000090: 1352 cebd 18b1 403d 34e9 bbbc 50be 1a3e
000000a0: 91d1 b6bd 314a 6fbd 2b79 2fbe 01ee 3cbe
000000b0: 38cd d13c c24c 29be c257 46bd 92cb 10be
000000c0: fec4 203c 2969 623d e5d4 45bd cba5 023c
000000d0: b29b 8d3d f91c 5fbd a992 13bc 1fa5 ba3d
000000e0: 0dad 58be 949c f0bd 84ea 973d 601d 94bd
000000f0: db37 353b a078 843c 4f38 c9bc 36d9 abbd
00000100: 7c0c c1bc f722 40bd d6d1 46bd 55a0 183c
00000110: fb6c 98bd e7b5 1bbd 9565 1abe 62e3 76bd
00000120: 3cb2 dcbb 6acc ad3d fbee 1bbd 4e5b 6dbc
00000130: 6192 2abe c8e8 1f3e f0b9 01bb 1b1a 1fbe
00000140: bc0e 9bbd 6cf1 61bd 31c8 63bc f483 83bc
00000150: dd47 8b3b 0fa1 16be d087 dc3d 7b0d 273e
00000160: 7e49 e03d fd5a bdbc d48a c73c d1e5 f7bd
00000170: c937 debb 3e0f 93bc ee15 003e b5dd fc3c
00000180: 6458 2c3d 774f 7b3d 7f4f 553d 161f 1d3e
00000190: 16d4 4bbe 2e6f 553d 9846 8cbb d499 df3d
000001a0: 6df1 853d b97b e7bd 7dbd 3bbd a1b7 cebd
000001b0: 900d af3c 4e00 763d 1ed3 823c a15b 043e
000001c0: 89f6 a2bc ec91 733d 031f 243e 54b5 b43d
000001d0: edb9 34bd 7322 d63d e930 23be 004e bcbd
000001e0: ad3a 2b3e b06e dfbd 7f1b bd3d fc13 9dbd
000001f0: 9d78 c4bb e730 acbd e3eb 193e 782c 70bd
00000200: e1fd c43d 1d00 6ebd fa23 bbbd a434 1e3d
00000210: 4507 bbbd 4851 333e ccc4 863d 9fe5 02bd
00000220: df1a 8a3d 5e1b 233e 9bab 9bbd bd2c a03d
00000230: 1080 a93c 0e1e 7dbc ab14 b93c 3bed ef3b
00000240: cf7f 02bd b9c0 1abd 090d 2cbc 97b2 6fbb
00000250: 12d5 e2bd cc36 5c3d 0835 c6bc a20f c8bd
00000260: 2b6e be3d a70e 77bd 804c 7d3d 77ac 05bd
00000270: f38a c7bd bb74 1b3d 53e9 19be d59f 293e
00000280: e8b9 aebd 1003 9fbb 99e2 b93d 3f89 423e
00000290: 363b 8eba ec7c 36bc cbcc 7dbd 1891 cfba
000002a0: 467b 0d3e 29c5 a6bd 1ec7 cf3c ebb6 fcbd
000002b0: bb31 893d df46 a73d b266 b43d f65b 8d3d
000002c0: cf28 afbd ef90 433e 45c9 c3bc b089 d4b9
000002d0: ae1e a5bd 555c 773d 0725 96bc fd38 c33d
000002e0: 2f05 40bc a992 943d c2f6 19bb 6b0c 213d
000002f0: 2ecd 86bd be98 483d 1ba9 fc3c 50f5 f3bd
00000300: c4f1 a9bc f3f2 333e 451b b63d b285 02bd
00000310: a1b6 453d 3012 bdbd 7629 77bc 846f 413d
00000320: 29a8 04be aab6 ed3c bcad 033e de78 2ebd
00000330: 5267 5c3d d0a9 0fbd 55d4 cbbc 583a 943c
00000340: f819 6f3d 4b92 e03d 1fd2 fabd a47b 853d
00000350: 83fc b9bd 66c5 0d3d 8151 31be 45d7 7bbe
00000360: fd9e be3c e6e9 ecbb 92aa f43a 9579 87bd
00000370: 6e45 9b3d f082 723d 7f37 8e3d c7ed 923d
00000380: fcfe 7b3e 8a5d 14bc c5da 033e d7a1 debd
00000390: 077d 80bb de81 6e3c fd09 c13d 2ef2 0d3d
000003a0: 17eb e43d 811e 26bc b17b 053e 4185 f9bc
000003b0: 9560 a0bd b141 10bd 2ac9 b93d c755 0dbe
000003c0: c791 c4bc aa5f 52be 450e 4fbe 6299 4e3e
000003d0: 625c 3f3e 7d6c 08bd 98c5 d33c d571 f1bb
000003e0: 5e1b 44bd 23fc 39bd 0e49 d33d bf0b 78bd
000003f0: 73ed 34be a11b 9cbd 00e6 1f3e 8a84 013e
-0.14372204 0.018167622 -0.15892412 -0.012395337 -0.10592659 0.009049837 0.017207861 0.1089984
0.06414296 0.0004638388 -0.0013070767 0.09240657 0.08901892 0.035040073 0.098417506 -0.061040774
-0.005249812 -0.097760364 -0.08611748 0.039222375 0.011935895 0.027016781 0.010106037 0.054290257
-0.023104595 -0.05523692 0.082580365 -0.02503991 0.0060843113 -0.04450188 0.08139567 -0.025638524
0.02322804 -0.21121171 0.011390797 -0.0308185 -0.10074248 0.04704389 -0.022938348 0.15111661
-0.0892669 -0.058420364 -0.17136066 -0.18450166 0.025610551 -0.16533187 -0.048423536 -0.14140156
0.009812592 0.05527607 -0.048298735 0.007974098 0.06914462 -0.05447099 -0.0090071345 0.091135256
-0.21159764 -0.11748615 0.07417777 -0.07232165 0.00276517 0.0161708 -0.024562983 -0.08391039
-0.023565523 -0.046908345 -0.04853996 0.00931557 -0.074426614 -0.038015272 -0.15077813 -0.060275443
-0.0067351144 0.084862545 -0.038069706 -0.014487101 -0.16657402 0.15616143 -0.0019794665 -0.15537302
-0.0757117 -0.05516188 -0.01390271 -0.016054131 0.00425051 -0.14709876 0.10768092 0.16313736
0.109515175 -0.023114676 0.02435819 -0.12104381 -0.0067815525 -0.017951604 0.12508366 0.030867437
0.042076483 0.06135508 0.052077767 0.1534389 -0.19905123 0.052107982 -0.0042808764 0.10918012
0.06540189 -0.11302895 -0.045835007 -0.10093618 0.021368772 0.060058884 0.01596981 0.12925579
-0.019892948 0.059465334 0.16027455 0.08823648 -0.044122625 0.104557894 -0.15936626 -0.09194565
0.16721602 -0.10909784 0.0923376 -0.07669827 -0.0059958235 -0.08407765 0.1503139 -0.05863616
0.09618736 -0.058105577 -0.09137721 0.03862442 -0.09132246 0.17511475 0.06580505 -0.031957265
0.067434065 0.15928409 -0.076010905 0.07821033 0.020690948 -0.01544906 0.022592863 0.0073219812
-0.03186017 -0.03778145 -0.010501155 -0.0036574954 -0.11075796 0.053763196 -0.02419521 -0.09768607
0.092983566 -0.060316708 0.061840534 -0.03263518 -0.09743299 0.03795312 -0.15030412 0.16564877
-0.085315526 -0.00485266 0.09076423 0.18997668 -0.0010851386 -0.011138182 -0.061962884 -0.0015836088
0.13816556 -0.08143074 0.025363501 -0.12339576 0.066989385 0.081678145 0.0880865 0.06902306
-0.085527055 0.19098257 -0.023899684 -0.00040538376 -0.08062492 0.06039079 -0.018328203 0.09532354
-0.011719986 0.07254536 -0.0023493026 0.039318483 -0.06582104 0.04897379 0.030842355 -0.11912024
-0.020745166 0.17573147 0.0889192 -0.031865783 0.04826987 -0.092319846 -0.015085569 0.04722549
-0.12954773 0.029017765 0.12859243 -0.042595737 0.05380947 -0.035074055 -0.024881521 0.018094227
0.058374375 0.10965403 -0.12247109 0.06517723 -0.09081366 0.034612082 -0.17316248 -0.24593838
0.02326917 -0.0072300313 0.0018666557 -0.06614987 0.07581602 0.059206903 0.06944179 0.07174259
0.24608988 -0.009055505 0.12876423 -0.10870712 -0.0039211544 0.01455733 0.09425733 0.03465479
0.11177652 -0.010139109 0.13035466 -0.030459048 -0.078309216 -0.0352189 0.09071572 -0.13802253
-0.023995293 -0.20544305 -0.20220287 0.20175698 0.18687585 -0.033306587 0.025851056 -0.007368306
-0.047877662 -0.045406472 0.103166685 -0.060558077 -0.17668705 -0.07622457 0.15615082 0.12648216

network_body._body_endoder.seq_layers.0.bias f4 [128]
00000000: 0e6d 6dbb 25d5 cbba 36d4 ef3b 204d 363b
00000010: 11a2 06bc 82ca c53b d0a6 853a 8c09 10bb
00000020: 87f9 a93b 40e6 1dbc 6fac 2fb9 e284 46bc
00000030: b201 5ebc e6ac 213c 78e4 0f3b 31ed 873b
00000040: 330d d8ba e2e8 a23b 8bb5 8a3b 2887 f93b
00000050: fd80 513b 4c11 9e3a f4a4 ecbb ea28 ecbb
00000060: 8f5a 843c cbcc dbbb e273 f2bb 4256 c4bb
00000070: 88ce 693b 1b09 cf3b b147 e93b d829 47bb
00000080: d9b8 123c c292 4ab9 8e74 d1bb 64b8 02bc
00000090: 31a9 dbba d7a8 6c3b d5f2 4d3c 8c54 803a
000000a0: 7e09 3ebc 7fb1 c03b 4c37 23bb d84c 11bc
000000b0: a0c3 f43b 8eea 96bb 8fef d3bb 7101 b4bb
000000c0: 9563 213c 1471 733c 9438 e33b 58b9 ee3b
000000d0: 14d4 afbb d8be d6bb 16b5 19bc 13de eebb
000000e0: d309 ecbb 2340 d43a 8bc0 b7ba 5f34 b6bb
000000f0: f7ca 603b 6edf ac3c 975a 23bc dad4 9f3b
00000100: bb5b 37bb 92bf b43b 76c9 52bc 6ee8 d5bb
00000110: 9821 89bb 6d74 4339 c2a3 f83a 63bf 333c
00000120: 36eb 793b 75fe 783c 1b1c 86bb e66e 00bc
00000130: b2a0 bb3c e290 70bb 8970 b5ba aa95 3939
00000140: 6fe1 23bb dab0 f2bb 8093 67bb a57e 813b
00000150: f5db 823b cb03 c8bb 1d6d 9a3c bc40 803b
00000160: 97d3 48bb f1aa 983c 952e 24ba 596e d8ba
00000170: 4ba6 eaba 190c 06bc d6b5 8b3c 4c5e 5bbb
00000180: cd7e bbba 68dc 893b 1ca1 95bb a13e 03bb
00000190: 5b65 d7bb e2cf c53b a447 92bb 4989 d03b
000001a0: 3f43 9dbb 93fc b2bb 60d6 e7ba c5fa 2f3c
000001b0: 7ccb f63b 9f53 cdbb deaa 7d3c 717d 493a
000001c0: b7d6 a63b e065 35bc 86a8 a1bb f25e 1e3c
000001d0: 0a89 ae3a faf4 44bc 814a 0cbc 9a79 173b
000001e0: ad9c 623b 372b 1c3c 0ff9 333c 1182 14bb
000001f0: d5e7 c0bb 4034 6c3b faea e2bb 703a 0ebc
-0.0036228332 -0.0015551193 0.0073189987 0.0027816966 -0.008217351 0.0060361037 0.0010196809 -0.0021978347
0.0051872167 -0.009637415 -0.00016753537 -0.012116643 -0.013550209 0.009867882 0.0021956246 0.0041481485
-0.0016483426 0.0049716095 0.0042330674 0.007614989 0.0031967752 0.0012059598 -0.0072218124 -0.007207026
0.016156463 -0.006707763 -0.007399068 -0.005991728 0.003567608 0.006318224 0.007119142 -0.003038993
0.008955204 -0.00019318893 -0.006392068 -0.007978532 -0.0016758797 0.0036111379 0.012570103 0.0009790822
-0.011598943 0.005880534 -0.0024904786 -0.008868419 0.0074696094 -0.004605598 -0.0064677666 -0.005493336
0.009850402 0.014858503 0.006934235 0.0072852783 -0.005365858 -0.006553512 -0.009381553 -0.007289657
-0.0072033196 0.0016193431 -0.0014019174 -0.0055604423 0.0034300664 0.021102633 -0.009970329 0.004877669
-0.002797826 0.005516001 -0.012865415 -0.006527952 -0.004184913 0.00018640021 0.0018969702 0.010970923
0.0038134581 0.015197386 -0.004092706 -0.00783894 0.022903774 -0.003670745 -0.0013842742 0.00017698729
-0.0025006195 -0.0074063363 -0.003533572 0.003951865 0.003993506 -0.006103968 0.018850857 0.003913967
-0.0030643695 0.018636199 -0.0006263045 -0.0016512378 -0.0017902342 -0.008181595 0.01705448 -0.0033472953
-0.0014304757 0.0042071827 -0.004566325 -0.0020026343 -0.006573362 0.0060367445 -0.0044641066 0.006364022
-0.004799276 -0.005462238 -0.001768779 0.01074094 0.0075315814 -0.006266072 0.015482632 0.0007686234
0.005091514 -0.011071652 -0.0049334196 0.009666191 0.0013315987 -0.012021298 -0.008562685 0.0023113252
0.003457825 0.009531788 0.010984673 -0.0022660533 -0.0058870115 0.0036041886 -0.006924984 -0.008680925

network_body._body_endoder.seq_layers.2.weight f4 [128, 128]
00000000: 421b 153d a2ac 32be 91e5 0cbe b948 713c
00000010: 3129 2d3d 9d6b 913c 9dd0 f23c a40f 05bd
00000020: d027 efbd cdae 9abd d67a 8ebd 7f1a 35bd
00000030: e5f0 0b3c 94db 83bd 7f25 acbd f1f6 acbd
00000040: 8f25 acbd 81f1 4e3e 6286 863c 8a73 12be
00000050: 062d cc3d cd63 d03a 4042 033c c1c6 263c
00000060: 8a7c ac3c 7bc4 4abe 6d8a 8b3d 1530 373e
00000070: a439 2bbd 452e e8ba 3472 ce3d 0a7f ec3d
00000080: fd05 07be 3e40 3bbc 15de efbd 054d a03d
00000090: ebd3 88bd 1b70 e9bd ef87 e6bd b0d7 3dbd
000000a0: 6257 4a3d 7a55 833d 18e4 b43d f847 7f3d
000000b0: 306e 0cbd 9e07 d0bc fc12 873d 6d93 c23c
000000c0: 7be2 bd3d e0ba 36be 319b 8a3c e1a6 b7bc
000000d0: 8b08 0dbe 40ed abbd 476d 5a3e 5c14 8bbd
000000e0: 24c2 cebd 489c 0abe 913e 35bd 5f54 813d
000000f0: ee4a ee3d 75a9 bd3d 1d7c 963d 4778 d73d
00000100: ca8b 563d 4ae5 d13c ca4a 793d 9b83 63bc
00000110: c21c 203e 4c64 493d bdd4 ccbc 7750 8e3d
00000120: 1d3c d73c a7e9 32bc d5e5 06bd c73a 92bd
00000130: 6d96 aebd a4ba 83bd bbb0 d3bd 22fb c3bc
00000140: b3b2 b63d 3d59 973d 272f 11be 8871 06be
00000150: 6c19 97bd 356a 833d 1597 aebd db86 833d
00000160: a3de 513e f0af 29be 645c 02bc 44e8 9c3c
00000170: 0175 99bd ae0d 973c 828b 9c3d 6cbf 8e3c
00000180: 7d9f 19ba 460b cdbd 936d b7bd 9d92 6d3c
00000190: 24c7 7bbb 15ce e73d bc66 d1bd be94 043e
000001a0: c7a5 81bd 497b 363d 226b 273e 90c3 41bd
000001b0: ac11 c9bd 30fc a23c bbea 7ebe ff83 4cbd
000001c0: ce59 bb3c 3a32 8abd 4e5d 3bbe 61d9 913d
000001d0: 4835 80be b484 a03b 9f01 a2bd 5307 b8bd
000001e0: 85bb 4c3e 4a0a 3b3e b838 1a3d d3c0 8e3d
000001f0: 019a 3bbe b19a 59bd 8c0e 92b9 8411 5b3d
00000200: 0fdf e2bd 01ea a73d 127a 47bd ae03 09be
00000210: 19e6 ab3d aa2f 2cbd 62f9 15be 0bf1 0d3d
00000220: cf76 8d3d da3d d8bd 2547 663c c538 2a3e
00000230: ae11 943d 07ef f1b9 bfa2 c13a c118 593c
00000240: ca81 543d fb3c 0fbe b08c 0dbe c014 5dbd
00000250: f66a 2a3e b0ee 4fbe dc41 383e 3077 d93b
00000260: 5ccc d13d fafa 373e c2ef 4f3e 22e7 193d
00000270: 801a fa3d bf7b a8bd a86d 38bd 9eb1 183e
00000280: 0279 e4b9 80ed 32bc ff4f 8fbd aac4 6abb
00000290: 1fa1 e9bd 156c 823d d6ce 2dbd 5160 13be
000002a0: 87ba 23bc dbaf 16be 7c20 513c 9543 a0bd
000002b0: 92a3 f73c 8db8 dc3d 131d 9cbc e28f 8a3d
000002c0: f58c f03c 59f5 263d 3e5b adbd f568 383e
000002d0: ca22 f7bc 7a90 9abc c014 193e c80b 143e
000002e0: fa82 813e 3a6b 5f3c b0c2 c13b 46ca 603c
000002f0: c628 1c3c 08b8 55be 2399 26bd 7482 37bd
00000300: 8548 e0bb 9a3b 833b ae57 23bc 2291 14bc
00000310: c4e3 0bbd 286a 35bd 1951 94bd 2f1d 02bd
00000320: acd9 98bd 1275 eabc 04d6 3bbe 247e 343d
00000330: a114 493b b5ea 6ebd 4a2e c33c b876 c03d
00000340: 796e 863d e189 3a3e e6d6 d5bc 7be8 4abc
00000350: 676e 873d d471 c8bd 8bbb 773d 39a3 973d
00000360: d324 81bd 3dbe 97bd 3a7e 25be 0a6a 0a3d
00000370: e430 933d 84a1 1e3e 6818 fb3c 1ad3 78bd
00000380: 560d 2c3e afa3 433c f9a3 f4bc 532a 0abe
00000390: b237 adbd c79a 1c3b bb0d 25be 13b1 f43d
000003a0: 52ef 1abe 2298 a1bd 2b3c a73c 1e4d 91bd
000003b0: 4986 59bd 7747 b83c 87e3 e33d 2d76 83bd
000003c0: 33db e43d a5c1 e3bc 6e1a 143c 4d31 0cbe
000003d0: 5f84 d2bc 0c31 093d 764f 403d 95e7 0ebe
000003e0: 995e 3dbd fed1 77be e007 c23c d9b9 bb3d
000003f0: 52d8 493d b048 99bd 2dfb 4cbd 9895 f43d
0.03640295 -0.17448667 -0.13759448 0.014726811 0.04227561 0.01775151 0.02964049 -0.03248562
-0.116775155 -0.07552872 -0.06957023 -0.04421472 0.00854132 -0.064383656 -0.08405589 -0.08445538
-0.08405601 0.20209314 0.0164215 -0.14301887 0.09969525 0.0015898884 0.008011401 0.010179223
0.021055479 -0.19801514 0.06813512 0.17889436 -0.041803017 -0.0017713985 0.10080376 0.11547668
-0.13185878 -0.011428891 -0.11712281 0.0782719 -0.06681045 -0.113983355 -0.11256396 -0.046348274
0.04939974 0.06412788 0.08832568 0.062324494 -0.03428477 -0.025394257 0.06595418 0.023751939
0.09271713 -0.17844725 0.016919704 -0.022418441 -0.1377279 -0.08394861 0.21330748 -0.067909926
-0.10095623 -0.13536179 -0.04424912 0.06314921 0.116353855 0.09260837 0.073478915 0.10520988
0.052379407 0.025622029 0.06086234 -0.013886358 0.1563597 0.049167916 -0.025003785 0.06948941
0.026273781 -0.010919965 -0.03293403 -0.07140117 -0.08524785 -0.06432083 -0.10336443 -0.02392346
0.08920803 0.07390068 -0.14178143 -0.13129246 -0.07377896 0.06416742 -0.0852491 0.06422206
0.20495085 -0.16571021 -0.007956598 0.019153722 -0.0749302 0.01843914 0.076437965 0.017425261
-0.00058602524 -0.10011916 -0.089564465 0.014500287 -0.0038418258 0.11318604 -0.10224673 0.12947366
-0.06330448 0.044551168 0.16349462 -0.047305644 -0.09817824 0.019895643 -0.2489423 -0.04993057
0.02286997 -0.06747861 -0.18297312 0.0712154 -0.2504065 0.004898632 -0.079104654 -0.08985772
0.19993408 0.18265644 0.037651747 0.06970372 -0.18320467 -0.05312604 -0.00027858128 0.0534835
-0.11077701 0.081989296 -0.0487004 -0.1338031 0.08393497 -0.042037643 -0.14645913 0.034653705
0.069074266 -0.10558672 0.014055048 0.16623218 0.07229935 -0.0004614519 0.0014773234 0.013250531
0.05188159 -0.13988106 -0.138232 -0.053974867 0.16642365 -0.20305896 0.17993873 0.0066365227
0.102440566 0.17966834 0.20306304 0.03757394 0.12212086 -0.08226728 -0.04502645 0.14911506
-0.00043577707 -0.010920882 -0.0699768 -0.0035822787 -0.114076845 0.06368271 -0.042433582 -0.1439221
-0.009993202 -0.14715521 0.012764093 -0.0782539 0.030229364 0.10777388 -0.019056832 0.06765725
0.029364089 0.040761326 -0.08464669 0.18008788 -0.030167956 -0.01886772 0.14949322 0.14457619
0.2529524 0.013636405 0.005913101 0.013720101 0.0095312055 -0.20870984 -0.040673386 -0.044802144
-0.0068445825 0.004004908 -0.009969635 -0.0090678055 -0.03415276 -0.04429069 -0.07242031 -0.031766113
-0.074633926 -0.028620277 -0.18343359 0.04406561 0.0030682462 -0.058329303 0.023825783 0.09397644
0.0656404 0.18216659 -0.026103448 -0.012384529 0.066128545 -0.09787336 0.06048159 0.07404179
-0.06305852 -0.07409332 -0.16161433 0.033792533 0.071870595 0.15491301 0.030651286 -0.060748197
0.16801962 0.011940881 -0.029863345 -0.13492708 -0.08457889 0.0023895965 -0.16118519 0.11947837
-0.15130356 -0.07890345 0.020414433 -0.07094787 -0.05310658 0.022495015 0.11127382 -0.064190246
0.111746214 -0.027802298 0.009039504 -0.13690682 -0.025697885 0.03349404 0.04695078 -0.13955529
-0.046232793 -0.242012 0.023685396 0.09166307 0.049278565 -0.07484567 -0.050044227 0.11942595

network_body._body_endoder.seq_layers.2.bias f4 [128]
00000000: c34c e33b 7965 fabb ce2e afbb 4e0d a63b
00000010: cfe3 e13b ef78 493c fcb2 e9bb 3180 1fbc
00000020: cb41 b8bb 81d3 78bc 4bf3 103b 25aa 5e3b
00000030: 146d 13bc b2b8 fbba 5a62 b23a 2ed5 cc3b
00000040: ff5a 213c 8bc3 2bbb 645d 04bc 761d 4f3b
00000050: 0161 053c 0046 88bb 347c a7ba 9c50 f7bb
00000060: e47a 86bb 7047 fb3a a058 dcbb e66c 3fbb
00000070: ece4 e1bb 9757 e2ba c765 93bb c742 cbbb
00000080: 40ea 37ba ab98 d43b 04a1 8a3b 13d9 92bb
00000090: 6903 a7bb 2970 823b c455 9bbb 32a6 933b
000000a0: fe5e 0f3c 0608 31bc 7a73 d1bb 2e72 2b3b
000000b0: 0f4f 9bbb c6b7 793b aefc bd3b 9e05 ca3a
000000c0: a5f5 d4bb 7237 b4bb fcc1 bd3b 7131 f5bb
000000d0: 3c8f 073c 8f34 bfbb 6b65 c3bb f632 43bc
000000e0: 6ef8 a33b 4566 4639 7ad8 88bb 93a3 4b3b
000000f0: 4042 793c 49f7 acbb 8bf7 b9ba ee8a 8e3c
00000100: db82 503c f815 113c d6cb c33a fa9c a83b
00000110: 3d75 0bbb ff4f 62ba 2f89 17bb d8fd 5e3b
00000120: afcc cbbb fd1f d839 ef1c b1bb 0323 ab3a
00000130: 3588 ea3a 87c0 bc3a 9f49 4e3b 45bd dcbb
00000140: 6982 4f3c cd58 f4bb 8bd4 e9bb c8b7 7dba
00000150: 2070 ecba aeae bcba 4fdc 8b3b 7242 c93a
00000160: 7ced 063c 3f24 ea3b e27a cf3b b9a9 713b
00000170: bec4 c33b 73e0 973a 4fd8 823a 2241 acbb
00000180: 0479 cebb 55b5 863b 431d 8e3b b9f8 a2b9
00000190: b2a6 793a 603d b2bb 907c e7ba b8a6 c6bb
000001a0: 023f ac3b 5072 03bc d4d7 a83b 8e6a 043c
000001b0: aada 123c 2ab1 e53b 8e47 f63a cd2f 343c
000001c0: 468a 3d3b ab02 a1bb 0338 c5bb b53f 953b
000001d0: e736 cf3a c1b9 763c 32b6 dcb9 119f 9b3b
000001e0: c47b adbb 26c3 f9bb 9b22 a23b 6821 d53b
000001f0: 1cc4 533a b7c6 bebb 4973 a0bb 2caa 1e3c
0.006936641 -0.007641491 -0.0053461557 0.005067504 0.006893612 0.012296899 -0.0071319323 -0.009735153
-0.0056230775 -0.015187145 0.002211767 0.0033975926 -0.008998174 -0.0019204824 0.0013609633 0.006250999
0.009848355 -0.0026209082 -0.008078907 0.0031603253 0.008140803 -0.0041587353 -0.0012778104 -0.007547451
-0.004104005 0.001917107 -0.006724432 -0.0029209196 -0.0068937447 -0.0017268535 -0.004498217 -0.006203029
-0.0007015802 0.006487926 0.0042306203 -0.0044814437 -0.005096842 0.0039806557 -0.0047404487 0.004505896
0.008750675 -0.010805136 -0.0063919397 0.0026160586 -0.004739649 0.0038103922 0.005797944 0.0015413051
-0.0064990097 -0.0054997737 0.005790947 -0.0074827005 0.008273896 -0.005835123 -0.0059630177 -0.0119140055
0.0050039804 0.0001892085 -0.0041761966 0.003107284 0.015213549 -0.005278502 -0.0014188153 0.017400231
0.012726511 0.008855335 0.0014938067 0.005145666 -0.0021279596 -0.0008633136 -0.002312254 0.0034025814
-0.0062194685 0.00041222564 -0.0054050605 0.0013056699 0.0017893376 0.0014400639 0.0031476987 -0.00673643
0.01266537 -0.007456875 -0.007135933 -0.00096785696 -0.0018038787 -0.001439532 0.004268206 0.0015354885
0.008235332 0.007145434 0.0063317874 0.0036874844 0.005974381 0.0011587277 0.0009982678 -0.005256788
-0.0063010473 0.004110972 0.0043369844 -0.0003108436 0.0009523436 -0.0054394454 -0.0017661024 -0.006062355
0.0052565346 -0.00802286 0.005152682 0.008082045 0.008963266 0.007009645 0.0018789636 0.010997725
0.0028921529 -0.004913648 -0.00601864 0.0045547136 0.0015809209 0.015058936 -0.00042097416 0.004749187
-0.005294295 -0.0076221405 0.004947973 0.0065042265 0.0008078234 -0.0058220285 -0.0048965556 0.009684127

action_model._continuous_distribution.log_sigma f4 [1, 2]
00000000: 720b bcbc 8c47 1d3c
-0.022954676 0.009599578

action_model._continuous_distribution.mu.weight f4 [2, 128]
00000000: caea a0bc cd71 093c 5da5 25bd 45f3 8dbc
00000010: 7562 9a3c 116b b4bc 9818 a9bb f9c6 a73b
00000020: ee54 ecbc 6e64 b53c ad2e 733a 7dc5 1cbc
00000030: 39cf 03bc 4d78 7f3c 8194 d3bc cb06 993b
00000040: a5f9 d63c a1e0 b23b fbf1 8abb 8baa d53c
00000050: 93b7 c93c fbce 6abc bd41 803b cc80 8cbb
00000060: 21dc f63c b865 73bc 6cc0 43bc 6610 4db9
00000070: faca c5bb 52e3 93b8 3084 8fbc 25b6 bcbc
00000080: 10b1 1e3c 942d 933c 116e 6cbc c6b8 e13b
00000090: 6c42 9fbb 5f79 b1bc d84d 833b a2c3 a53c
000000a0: 4db5 8239 e9a0 973b 1624 5a3d 0ac4 14bd
000000b0: c9ca d33c 9699 13bd 8b4f 76bc 34e8 66bb
000000c0: 912e 393c 18a7 4c3b 0106 e83c 197f ef3b
000000d0: 5b76 d53c 3c60 323c 25c5 83bc c794 57bc
000000e0: bf16 a93c 22a4 f13c d531 ad3b 5eff 69bc
000000f0: 849a 863b 3ce0 a03a 9b54 95bb 3a2c cabc
00000100: 84db aa3c adeb c3bc 50fe ca3b ec14 93bc
00000110: 172a 70bc 4dc0 44bd 1fd2 1abd 3313 c5bb
00000120: 8bc7 9e3a f112 0c3d fcbe 3b3d 692f 1a3d
00000130: 7615 29bc 9449 c53c 8740 3a3c 5271 5f3c
00000140: f407 0b3c ad6a 953c 63d8 003c b0a9 bcba
00000150: 2468 3a3d 2d10 e43c 5028 89bb e4ec c8bc
00000160: c1a9 fabc 95a6 abbb d188 753c 71f7 783b
00000170: 7faa 5d3b 7475 0dbc b016 98bc d51a f43c
00000180: fad0 c53c 59a6 433c 6ee8 a73c 34f6 983b
00000190: ed64 b33c b3ce 31bc 0cdb 4bbc f991 58bc
000001a0: a0e1 fe3c a3f4 bbbc a1a2 943c da1b 86bb
000001b0: 49f0 0bb8 5730 503c d844 473c 0308 013d
000001c0: 9918 113d 561d 9dbb 5049 1b3c 4884 90bc
000001d0: aab3 e1ba fbd4 c23b 23eb 6b3c 84e0 42bc
000001e0: 7933 cebc 201f b13c 4c38 90bc adde 43ba
000001f0: f4c1 b63c 511f b8bb 2320 fb3b e203 023c
00000200: 02f9 42bd 6486 edbc bf8b c6bc 5dc4 903c
00000210: ea3d c23c 4794 4e3c 7c34 99bc 4a89 14bb
00000220: 9089 18bc de0f 9f3b 9ea8 abbc d904 b93a
00000230: 14be 82bc a3bc feba 8188 7dbc eecf c0bc
00000240: 249e b63c d165 e8ba 0c60 daba 17aa bc3b
00000250: 86dd 023c 9941 08bc b486 413b 85d9 68bc
00000260: 5c27 1ebc 97ca a33b 5301 ccbc d6a2 8bbb
00000270: e8dc e4bc fd3a ebbc f8b0 25bc 1849 2fbd
00000280: ffb0 a93b 29a6 9f3c cdab cf3c 9c72 943a
00000290: 435c 5fbc df1c 4fbc 2877 a3bc 616b c33a
000002a0: 8da5 f0bc 9a47 d53c b3c7 943a 5415 6b3c
000002b0: 4519 3cbc 6930 6f3c f9c1 ae3c e5f2 33bd
000002c0: eb41 5dbd 0fa8 d5bc 09cc b23c d438 9fbc
000002d0: fdc4 a3bc a2ca 66bb df54 48bc d96e 963a
000002e0: e9f0 8e3c 60a0 8cbb 92e6 78bb db9a 4a3c
000002f0: c97d 2fbd 1470 523c 3b91 51bb 3269 5bbd
00000300: bc6c 8e3c 91a6 b83c 95ab a53b 6251 773c
00000310: ec5b 71bc 910a 813b bf1a 92bb 95ef bebc
00000320: 3892 d2bb bb30 0d3c 5712 cebc 7eab 0dbc
00000330: b487 01bb f043 2abc 17a1 053c cfaf 39ba
00000340: e516 10bd 4ce6 8cb9 92ca 173c 35f5 c9bc
00000350: e705 a9bc a03e a8bc 8d5b f5bc c1a3 e13b
00000360: aa42 a5bc 9a78 ac3c fd27 183d 2034 bc3c
00000370: fa48 a33c fe1b 383c 0b8d 4bbb 0590 5fbc
00000380: 434d a0bb b4f4 c83b fb98 0dbb 94e7 84bc
00000390: 35f5 48bc c255 bebc 13fc aabb b135 b5bc
000003a0: aed2 ef3c db14 993c ea18 cd3c ac8d 403c
000003b0: af22 4ebc 98ca 2e3d 158a 01bd ed9f 143d
000003c0: 4405 453c cbb4 eaba da55 ccb9 ed07 f53c
000003d0: 3e97 733c 87c0 76bc 0a7f e2bc 5fd0 5e3c
000003e0: 1d10 d2bb 54dd f43c f15d 9b3c 7865 9f3c
000003f0: dc2d 0f3c fa0a 3abc 60bd 16bc fff7 513c
-0.019643206 0.008388949 -0.040440906 -0.017327914 0.018845776 -0.02202371 -0.0051604025 0.005120155
-0.028849091 0.022142615 0.00092766696 -0.009568569 -0.008045011 0.015592647 -0.025827648 0.0046699992
0.026242087 0.0054589068 -0.004240272 0.026082298 0.024623668 -0.014331575 0.0039140866 -0.0042878147
0.030134263 -0.014855795 -0.011947732 -0.00019556432 -0.0060361596 -7.051848e-05 -0.017519087 -0.023036072
0.00968577 0.01796607 -0.014430539 0.006888482 -0.004860213 -0.02166432 0.0040070824 0.020234887
0.00024930612 0.0046273363 0.05325707 -0.03631977 0.025853531 -0.036035143 -0.015033613 -0.0035233619
0.011302606 0.0031227525 0.028323175 0.0073088524 0.026057413 0.010887202 -0.016085217 -0.01315803
0.020640729 0.02949721 0.0052854815 -0.014282076 0.004107775 0.0012273858 -0.004557205 -0.024679292
0.020856626 -0.02391609 0.006194867 -0.017954312 -0.0146584725 -0.048034955 -0.037798043 -0.0060142516
0.0012113912 0.03419775 0.045836434 0.03764287 -0.010320058 0.024082936 0.011367924 0.0136378575
0.008485783 0.018239344 0.007864091 -0.0014393833 0.045509472 0.027839744 -0.004185714 -0.02452702
-0.030598523 -0.005238364 0.014986233 0.0037989283 0.0033823547 -0.00863396 -0.018565506 0.02979795
0.0241475 0.011941516 0.020496573 0.0046680216 0.021898711 -0.010852504 -0.012442362 -0.013218396
0.031113446 -0.0229438 0.018143954 -0.0040926756 -3.3363965e-05 0.012706838 0.01216241 0.03150178
0.03542385 -0.004794757 0.009477928 -0.017641202 -0.0017219682 0.0059457994 0.014399323 -0.011894349
-0.025171028 0.021621287 -0.01760497 -0.0007471841 0.022309281 -0.0056189676 0.007663743 0.007935496
-0.047600754 -0.028994747 -0.024236558 0.017671758 0.023711164 0.012608594 -0.018701784 -0.0022664838
-0.009310141 0.0048541864 -0.020954426 0.0014115825 -0.015959777 -0.001943488 -0.01547444 -0.023536649
0.022292204 -0.0017730539 -0.0016660704 0.005757581 0.007987386 -0.008316421 0.0029529752 -0.014212017
-0.009652939 0.004998516 -0.024902975 -0.004261355 -0.027937368 -0.028714651 -0.010112993 -0.042794317
0.0051785703 0.019488411 0.025350476 0.001132566 -0.013632837 -0.012641161 -0.019954279 0.0014909321
-0.029375816 0.026035119 0.0011351019 0.014348347 -0.011480634 0.014598944 0.021332728 -0.043932814
-0.054017942 -0.026081113 0.021825807 -0.019436277 -0.019991392 -0.0035215993 -0.012227266 0.0011477127
0.01744886 -0.004291579 -0.0037979227 0.012366022 -0.042844567 0.012844104 -0.0031977433 -0.05356712
0.017385833 0.022540363 0.0050558546 0.015095087 -0.014731389 0.003938027 -0.004458755 -0.023307601
-0.006426122 0.008617575 -0.02515523 -0.008646844 -0.0019764723 -0.010392174 0.008156083 -0.00070833875
-0.035178084 -0.00026874465 0.009264605 -0.024653057 -0.020632697 -0.020537674 -0.029950881 0.006885976
-0.02017339 0.021053601 0.03714751 0.022974074 0.019932259 0.011237143 -0.003105941 -0.013645177
-0.004892023 0.0061326865 -0.0021606076 -0.016223706 -0.012265493 -0.023234252 -0.005218038 -0.022120329
0.029275265 0.018686702 0.025036294 0.011752527 -0.012581511 0.042673677 -0.031625826 0.03628533
0.012025181 -0.0017906664 -0.00038973877 0.029911006 0.014867602 -0.0150605505 -0.027648468 0.013599484
-0.0064106123 0.029890694 0.018965693 0.019457564 0.008738961 -0.011355156 -0.009200424 0.0128154745

action_model._continuous_distribution.mu.bias f4 [2]
00000000: cb70 d6b9 ee29 c53b
-0.00040901298 0.0060169613

action_model._discrete_distribution.branches.0.weight f4 [2, 128]
00000000: 27ef c53b 9658 4ebb e82a 10bc c5f6 37bc
00000010: 087a 723b bc2a 6f3c 6aee 4f39 9399 a4bb
00000020: 8127 78bc 17ce bebb eddc efba 2b2f f4bb
00000030: a9b3 80bb 653f d0bb 993d 7ebc eeb6 93bc
00000040: fa59 683c bf9b 833c a9f9 74bb 5d1d 85bb
00000050: 8fa3 33bc 6a34 af3b 66c2 20bc 585f 45bb
00000060: 7451 61bc 173c 0ebc 2d3d f43b 97ab 84b9
00000070: b49e 89bb 54ad 163c 8ba1 0cba f3cb b33b
00000080: 7558 ceba f186 bb3c 62c3 93ba aab7 10bc
00000090: cd1f 503a 2676 e0bb a752 bdbc 1346 f63b
000000a0: 07a5 bd3b 9ca7 efbb c75d 4c3b 4460 65bb
000000b0: 3a75 663c 6b31 17bc cc2e ce3b e40f 4e3c
000000c0: 4a7c 433a 39f1 72bc d951 bbbb a439 35bc
000000d0: 47c0 c8bb 808a b5bb 1414 ba3b 3683 e0bb
000000e0: 722b 9f3a df89 20ba 0554 603c 5379 133c
000000f0: 5ab9 0ebc 18db cfbb db12 96bc 62cb 8bbb
00000100: 6bcb 823c b411 963c 9eda a03b 2c09 143c
00000110: b62d df3b c1f5 1abc e3bf 37bc dd6c d3bb
00000120: 4f0d 33bc 5d4e f3bb 3920 1abc 3b86 473c
00000130: 7d85 d2bc 6a3d 89bc 4b4a e13b d3c7 6dbc
00000140: acf8 adbc 9096 2039 b346 61bc b6b3 dbbb
00000150: bdd5 763c 44af a6bb 8d1f 513b 086c 2b3c
00000160: cec7 203b 799e 1f3c 3135 933c 9eb3 e43b
00000170: e639 45bc 2f38 dcb9 0d31 273b 0bbc 9e3b
00000180: a07a 0bbd 9538 c93b cbba 9abb 6ecd 21bc
00000190: d735 ec3b 0acd 81bc e89f 0f3c a449 5bbb
000001a0: 7318 f0bb 5147 d8bb a3e5 f5bb dfc2 3e3c
000001b0: a4ba 6b3a 081b 3cbb 809d f1bb 24b5 163c
000001c0: 0ca2 0fbc e9e8 08bc d965 d8bb 3266 26bc
000001d0: 65b7 edbb b3c7 e7bb 5bdd 39bc 2783 53bb
000001e0: 70ef da39 d882 83bc d8c0 25bc 4a38 b93a
000001f0: 5765 77bc fdb2 5fbc 0257 dbbb fb69 043c
00000200: 5f01 18b9 8ce2 813c 6c5a 51bb abc4 2938
00000210: 2463 3c3a 8db3 23bc 587e c0ba 106d 8a3b
00000220: 8ad1 493c 373d cfbb f409 8e3c b75c 5a3c
00000230: 41bc e73b bde6 9a3c 6dde 3c3b 2bc4 bfba
00000240: c55d f0bb 5dd8 49bb eaab a2bb b37d 91bc
00000250: 394e 843c 6590 a0bb 3557 c63b 4aca c33a
00000260: 69c6 993b 654e 973b 89fb 763b 6ff6 84bc
00000270: dfdf 6d3c 7faa e2bb b757 e0b9 e8fd 57bb
00000280: 3116 2639 4f17 30bc 2104 e83a ac1a 4e3c
00000290: 4d5f 27bc e47d 643c 65ed 313c 274e 283c
000002a0: 9643 863a ba4e 09bc 8f43 03ba a056 e13b
000002b0: cd44 77bb 7961 b83b 5b38 12bc a306 ed3c
000002c0: 7952 51ba fa11 cabb 11c2 c4bb b5d3 a73c
000002d0: d673 af3c 6a1f a83b 276d fcba 8899 153b
000002e0: 153d 00bc ab37 6a3a 769d e5ba 3d8e d13a
000002f0: 680d 253c 3292 dc3b e7fd 253c a7c7 bd3c
00000300: 4f5f 0abd 65b9 98bc 2e62 a23b 2870 45bc
00000310: 2755 e4bb 0f88 b53b 20fa f13b 5869 453a
00000320: 63b3 d93b c074 01bc 84ab 9bbb c801 5ebc
00000330: f442 6a3c d272 a438 ee6b a53b 7b77 963b
00000340: e06c dd3c 0e30 013c 5006 d43b ecf3 3e3c
00000350: 449d 253b 55a6 e53b afbe af3c 6053 49bc
00000360: a4d6 2dbc 366e b7bb bab6 c6ba abde 8c3b
00000370: a9b2 d7bb 9259 dc39 9d77 133c 6d8c 4e3c
00000380: 899a ac3c e43b 3ebc 4c9d 73bb cb9b 49bc
00000390: 2006 733c 55a8 a33c 1181 8a3b 6177 253c
000003a0: 0042 b4bb 3829 7a3c a976 5b3c 9d0c efbc
000003b0: 468f 273c b4ff 07bc 00d2 a93b 6495 8b3b
000003c0: a015 eeba 415a 7fbb b6e7 f73a 482d 4f3c
000003d0: fb91 a13c 4688 a13c cb6c 823c db9e dcbb
000003e0: 0034 013c d123 823b 2d86 b63a c582 11bc
000003f0: 5966 8d3c 6e61 043c 2441 013b d6e5 25bc
0.006040472 -0.0031485907 -0.008799292 -0.011228268 0.0036999006 0.014597591 0.00019829875 -0.0050231903
-0.015146137 -0.0058229077 -0.0018300094 -0.007451912 -0.003927667 -0.0063552135 -0.015517616 -0.018031564
0.014181608 0.016065476 -0.0037380254 -0.0040623383 -0.010964288 0.0053468244 -0.009811973 -0.0030116644
-0.01375233 -0.008681319 0.007453582 -0.00025304846 -0.004199827 0.009196598 -0.0005364648 0.005486959
-0.0015742915 0.022891494 -0.0011273439 -0.008832851 0.0007939309 -0.006850022 -0.0231107 0.0075156777
0.005787495 -0.0073136818 0.0031183825 -0.0035000006 0.014066035 -0.009228091 0.0062921997 0.012577031
0.000745718 -0.01482802 -0.005716544 -0.011061106 -0.006126437 -0.005540192 0.005678663 -0.006851579
0.0012143685 -0.000612406 0.013691907 0.009001094 -0.008711183 -0.0063432567 -0.018319538 -0.0042661885
0.015966138 0.018318988 0.0049088737 0.00903539 0.006810869 -0.009458006 -0.011215183 -0.0064521865
-0.010928466 -0.007425113 -0.009407097 0.012177999 -0.025698418 -0.016752917 0.0068753115 -0.014512974
-0.02123674 0.00015314878 -0.013749766 -0.006704773 0.015065608 -0.0050868113 0.0031909675 0.010462768
0.0024533155 0.009742373 0.0179697 0.00697942 -0.01203773 -0.0004200353 0.0025511414 0.004844194
-0.03405249 0.0061407783 -0.0047219745 -0.009875638 0.0072085666 -0.01584484 0.008766152 -0.0033460641
-0.0073271333 -0.0066002985 -0.0075041815 0.011643141 0.000899235 -0.0028702635 -0.007373512 0.009198461
-0.008766662 -0.008356311 -0.006603938 -0.010156201 -0.0072545283 -0.0070733665 -0.011344279 -0.0032274218
0.00041758595 -0.016053602 -0.010116778 0.0014131155 -0.015099845 -0.013653514 -0.0066937217 0.008081908
-0.0001449636 0.015855096 -0.0031944765 4.04759e-05 0.0007186404 -0.009991539 -0.0014686091 0.004224427
0.012318024 -0.006324436 0.01733873 0.013327769 0.007072002 0.018908853 0.00288191 -0.0014630606
-0.007335397 -0.0030799129 -0.0049643414 -0.017760133 0.01615058 -0.0049000257 0.0060528764 0.0014937606
0.004692842 0.0046174997 0.0037686548 -0.01623079 0.014518707 -0.0069172974 -0.00042789962 -0.0032957736
0.0001583926 -0.010747745 0.0017701426 0.012579601 -0.010215593 0.01394603 0.010859822 0.010272539
0.0010243531 -0.008380586 -0.00050073204 0.0068767816 -0.0037730217 0.005626854 -0.008924569 0.028933829
-0.00079850067 -0.0061666938 -0.00600458 0.020486692 0.02141754 0.005130698 -0.0019258604 0.0022827107
-0.007827063 0.0008934687 -0.001751824 0.0015987825 0.010073997 0.006731295 0.010131336 0.02316649
-0.0337823 -0.01864309 0.0049555516 -0.012050666 -0.0069681588 0.005539901 0.0073845536 0.0007530651
0.006643699 -0.0079013705 -0.004750671 -0.013550229 0.014298189 7.841516e-05 0.0050482666 0.00459188
0.027029455 0.007884992 0.006470479 0.011654835 0.002527074 0.0070083537 0.02145323 -0.012287945
-0.010610256 -0.005597855 -0.0015160658 0.004299005 -0.0065825772 0.00042028405 0.009000686 0.012606722
0.021069782 -0.011610959 -0.0037172614 -0.01230521 0.014833003 0.019977728 0.0042268117 0.010099263
-0.005501032 0.015268616 0.01339499 -0.02918082 0.01022703 -0.0083007105 0.0051825047 0.004259752
-0.0018164404 -0.0038963708 0.001891366 0.012645073 0.01972293 0.0197183 0.015921017 -0.0067328042
0.007885933 0.003971555 0.0013925486 -0.008881276 0.017260717 0.00807987 0.0019722665 -0.010125598

action_model._discrete_distribution.branches.0.bias f4 [2]
00000000: f6a3 bb3b f4a3 bbbb
0.005726333 -0.005726332

action_model._discrete_distribution.branches.1.weight f4 [2, 128]
00000000: 1fcb 34bb da82 923b 451b 6a3c f990 ca3b
00000010: 81d9 ff3b 36f4 543c b542 543b 3455 94bc
00000020: aa1c fabb 7b6a 023b ca10 493b 0962 6ebc
00000030: d7a0 89bc 3c84 0a3b 9848 51bc 3981 003b
00000040: 0759 593c 5c4f e7bb b582 1439 e4ee 213b
00000050: dde5 ce3b 8062 343c 255d 503c 26b0 c5ba
00000060: dd78 87bc 5891 50bc 3f08 55bc b632 813b
00000070: c3ac 44bb a0fa aa3c 3d28 fd3a 6a83 2b3b
00000080: 09e9 32bc a13a 0f3b c7bf a3bb dfdc 52bc
00000090: cfcb d53b b60e e73a e743 b63c aad6 9e3c
000000a0: 6797 0c3c 202d 113c d682 49bb ce04 11bc
000000b0: a525 e9ba 57e2 dfb8 1244 4ab9 480d 023c
000000c0: 0db9 1d3b 8c3e ee3a e978 e038 4869 47bb
000000d0: aa84 1339 1794 b43c 37e7 103a 96ef 4db8
000000e0: b4af 6c3b e12b 3e3c d7c3 ddba 0d9c 06bc
000000f0: 1f58 1d3b ee12 92bb ba05 43bb abe0 c7bb
00000100: e0b8 993c 67a7 abbc b61a 2cbb c1f8 363b
00000110: 2d60 083b 6321 33bc c8b2 13bc 76ba cf3b
00000120: 5186 083c be1f 10bc e4cd 833a 6863 bcbc
00000130: 97fc a6bb 3c1d 9dbb 8a90 0d3c f297 793b
00000140: d605 cc3b b48a 8839 094a 213c 772f 51bc
00000150: 2c40 4f3c dafe 1ebc 3eaa 923c 7e28 e4bb
00000160: fbaa 1f3c d870 3f3c 0129 d63b 5179 ae3a
00000170: 789e 58bb e98b 083a 5f75 a43b 1f1e 68bc
00000180: 76f7 23bc f54d 6e3b ee18 b93c ded6 f73c
00000190: fb64 79bb e35a 7a3c 0caf 823b 8114 e0bb
000001a0: d197 b43c fe9e e63a f5cc cb3b 4ace 83ba
000001b0: 28e4 5e3b 9e97 81bc 1c5d 563c 7b36 cabc
000001c0: fe50 45bc ddc2 25ba 1420 083b 61ed 32bb
000001d0: 5f7e 213c 3fc6 61bb 8e3a 403c e475 163b
000001e0: ca26 053b 0080 b53a 5914 92ba ba46 a339
000001f0: b12d cd3a c502 38ba 5e50 963c 8ec8 3d3c
00000200: 266a 3bbb 32aa 7c3c c6bd b8bb f1ff e33b
00000210: bb4c dd3b 9708 8dbc f82a d23b de51 f4bb
00000220: 90d0 d23b 7032 e0ba aceb 1cbb 64de 59ba
00000230: 001c 5fbb 8002 31bc 85a1 b1bb 07b3 a9bc
00000240: 34f6 7d3c 22e8 e13a 8edf f6ba 01e5 5a3a
00000250: 6c78 a9bb 4463 c63c ac10 0dbb adff a13b
00000260: 945a ab3b ae15 00bb 948f f2bb 74e7 2ebc
00000270: a808 07bb 7d3c 12bc 1f6a 91bb c67a 19bb
00000280: a478 22bc 07c1 6bba 39e6 92bb 4f04 2cbc
00000290: ae04 3ebc 7f23 943b d9f9 93bc 587d 0abc
000002a0: 9e28 2cbc a037 f2bb a082 e0bb 4389 8f3c
000002b0: 2e32 333a 50dd 82bb 6a0a 4b3b afd1 58bb
000002c0: 6534 c53a 5e93 193c ba72 c3bb 0532 eabc
000002d0: 6686 803b 34db d2bb 88b8 d138 07e4 0abc
000002e0: 052a e7b9 a0e1 bfbb b8c9 623c 4210 10ba
000002f0: beec 843b 1f02 543b e215 fa38 981b 6c3c
00000300: 2a23 093a d8eb 813c 38a4 5b3b 719a 6dbc
00000310: 9fdf db3b 6612 2f3c 9297 8d3c 8aae f3bb
00000320: a20c b3bb 244f 96bb d725 39bb 708a 983c
00000330: 2a5e c8bb 7e9d d3ba 1890 1e3b dab3 eb3b
00000340: a8dc beb8 3069 023b bc94 383c 246c 1bbc
00000350: afee e63b e65a 9fbb dc4e 7f3b 23dc d13c
00000360: 4570 92bc deb1 363c 45b1 fd3a 4668 a8bb
00000370: 5e85 d4bb 1382 153a bac8 95bb 184a 5f3b
00000380: 9e05 d83b 92d8 56bb e61a 35bc fbe5 aebb
00000390: 452d c1bb fd55 e03b 185e 20bc 05db 723b
000003a0: 98d4 86bc 4d70 34bc d810 803c aad8 d13b
000003b0: f683 b33b afe6 543c 99e2 21bc ba56 893b
000003c0: f12c 92bc edb4 69ba 9427 89bc 0ba2 6f3a
000003d0: 06bb 1b3a 8e87 4bbc 15f7 c23b 5f07 093c
000003e0: bca5 11bb b0b3 babb 527e 7dbb 25af 14b9
000003f0: 910d cd3b b268 bf3c 881a 98bb 4f2a f73b
-0.002758689 0.004471165 0.014288728 0.006181833 0.007807911 0.012997678 0.0032388393 -0.018107034
-0.0076328116 0.0019899893 0.0030680173 -0.014549741 -0.016800327 0.0021135947 -0.012773655 0.0019608273
0.013265855 -0.007059021 0.00014163072 0.002470904 0.006314023 0.011009812 0.01271752 -0.0015082404
-0.016537124 -0.012729965 -0.013002454 0.003942813 -0.00300102 0.02087146 0.001931436 0.0026170858
-0.010919818 0.0021855014 -0.004997227 -0.012870043 0.00652454 0.0017628286 0.022249175 0.01938947
0.008581019 0.008860856 -0.003074815 -0.008851243 -0.0017787708 -0.00010675628 -0.0001928958 0.007937737
0.0024066598 0.0018176599 0.000107036736 -0.0030427743 0.00014068434 0.022043271 0.0005527618 -4.909894e-05
0.003611547 0.011607141 -0.0016919327 -0.008215916 0.0024008823 -0.004457823 -0.0029758052 -0.0060997806
0.018764913 -0.020953847 -0.0026261038 0.0027919265 0.0020809278 -0.010933253 -0.009014793 0.0063393665
0.008332805 -0.00879663 0.0010055867 -0.02299662 -0.005096029 -0.004794745 0.008640418 0.0038084951
0.0062262816 0.00026043283 0.0098443115 -0.012767664 0.012649577 -0.009704316 0.017903443 -0.006962835
0.009745355 0.011684619 0.0065356498 0.0013311302 -0.003305344 0.00052088365 0.0050188745 -0.014167338
-0.01000773 0.0036362384 0.022594895 0.030253824 -0.0038054574 0.015280458 0.0039881524 -0.0068383818
0.022045048 0.0017594991 0.006219501 -0.0010055986 0.0034010503 -0.015819367 0.013083722 -0.024684181
-0.012043236 -0.00063232874 0.0020771073 -0.0027302133 0.009856789 -0.003445044 0.0117327105 0.0022958452
0.002031731 0.0013847351 -0.001114498 0.00031142478 0.0015653876 -0.00070194557 0.018348869 0.0115834605
-0.0028597205 0.015421437 -0.005637857 0.006958001 0.0067535318 -0.01721601 0.0064138137 -0.0074560484
0.006433554 -0.0017104875 -0.0023944182 -0.0008311032 -0.003404379 -0.010803819 -0.005420866 -0.02071525
0.015500594 0.0017235319 -0.0018834935 0.0008350164 -0.005171826 0.024217255 -0.002152483 0.004943809
0.0052293036 -0.0019544172 -0.0074023698 -0.0106753 -0.0020604525 -0.008925554 -0.0044376994 -0.0023419126
-0.009916458 -0.0008993302 -0.004483011 -0.010499074 -0.011597795 0.004520833 -0.018063473 -0.008452736
-0.010507731 -0.007391885 -0.006851509 0.017521506 0.00068357855 -0.0039936677 0.003098155 -0.0033083966
0.0015045522 0.009373514 -0.005964604 -0.028588304 0.0039222715 -0.0064348225 0.00010000268 -0.0084772175
-0.0004409106 -0.005855754 0.013842039 -0.00054955867 0.004056542 0.0032349897 0.00011925005 0.014410876
0.0005231375 0.01585953 0.003351463 -0.014502154 0.0067100073 0.010685539 0.017284188 -0.007436578
-0.0054641524 -0.004587071 -0.0028251314 0.0186207 -0.006114741 -0.0016144959 0.0024194773 0.007193071
-9.1010064e-05 0.0019899122 0.01126593 -0.009486232 0.0070474963 -0.004863131 0.0038956916 0.025617665
-0.0178758 0.011150805 0.0019355199 -0.0051393835 -0.006485625 0.00057032815 -0.0045710476 0.0034071263
0.0065924665 -0.0032782895 -0.011053776 -0.0053374744 -0.005895289 0.006846188 -0.009788059 0.0037056815
-0.016458794 -0.011013103 0.015633032 0.006404002 0.0054783775 0.012994452 -0.009880685 0.004191247
-0.017843695 -0.00089152047 -0.016742505 0.0009141273 0.00059406494 -0.0124224555 0.0059498646 0.008363574
-0.002222403 -0.00569769 -0.003868003 -0.00014179626 0.0062577208 0.023365352 -0.0046418346 0.0075428854

action_model._discrete_distribution.branches.1.bias f4 [2]
00000000: 4f3d a1b9 8c3d a139
-0.0003075399 0.0003075417

exp_avg f4 [128, 117]
00000000: 2a15 4535 8b6f 95b7 283d 8936 47ea 03b6
00000010: 48a4 1835 5437 ddb5 3b36 53b7 2d33 6c36
00000020: 40cf 60b6 4294 4eb6 7c25 2836 7fc9 95b7
00000030: 7632 eb34 50ab 9c34 ad24 4d36 e0fb 09b7
00000040: c0dc 00b7 3044 5236 e54c edb5 342e 38b6
00000050: 6617 25b7 f471 a9b6 88d3 84b5 a8d4 5e36
00000060: 1ab0 6736 644e 21b6 cb22 25b7 deb5 d135
00000070: 53ae 7db6 8e8a 9bb6 0962 15b7 fc46 26b7
00000080: ae4f 6fb5 eb4d 3b36 cefc 2b36 b81a e835
00000090: 9086 a4b6 9745 ac35 eccc 00b7 12f2 15b7
000000a0: a2a7 a9b6 eda2 64b7 029b 1db5 c98b 5336
000000b0: a5a0 3636 6c68 b5b6 3fe5 b5b5 7f67 a235
000000c0: 5e17 cdb6 af93 00b7 1c21 bcb6 5a0e 5eb7
000000d0: 957e 7f36 b616 4436 54ff ad35 4ed4 23b7
000000e0: f3cb ff36 1606 ce35 f99f dfb6 bedc 07b7
000000f0: 53ce 7635 c528 67b7 3726 30b6 d2b5 5434
00000100: c2a1 86b5 3056 81b7 1711 bc36 e763 bd36
00000110: 5c77 74b6 d6ce bfb6 7140 cb36 75ab 45b7
00000120: 80d9 c2b6 c8fd 2fb6 a621 47b6 3947 60b7
00000130: 62e3 56b5 9ca1 7c36 65af a0b5 577d 62b6
00000140: 07a1 e3b6 47fb bfb6 4604 6f34 a288 3635
00000150: 10e4 92b4 ea6e 23b7 0b47 2bb5 7e47 29b5
00000160: 378a 3136 7549 2e35 85e3 0eb6 8b38 6ab6
00000170: cf9b 8cb6 41da fcb3 cec4 95b5 c599 a635
00000180: 4215 1db6 2c53 29b7 5ed0 58b3 c61e ceb5
00000190: 0ead b7b6 da7a 71b4 e479 aab6 16f7 ee35
000001a0: 00cf f5b3 b800 0738 81b2 80b8 c5bf b6b8
000001b0: 96e4 30b9 0866 29b7 a891 55b9 812b 1fb9
000001c0: a101 1a36 bce8 33b9 3d85 46b7 46db 3ab9
000001d0: f285 a1b7 a469 8a37 214f 07b7 301a 6c35
000001e0: bc3b 47b6 5bc6 89b6 327c 5b37 70d4 c336
000001f0: 1e13 89b6 34f1 eeb6 49cd bdb6 83bd 0737
00000200: 2bbf a135 b639 b735 b4e4 c7b6 0506 d2b6
00000210: c542 8937 3032 38b5 a834 a6b6 b7d2 01b7
00000220: 7a13 a6b6 f596 c037 2942 74b7 ccca ef34
00000230: fcc2 a7b6 3762 f1b6 0039 95b7 37e4 cd37
00000240: 2016 96b5 05c7 c7b6 ec30 59b6 3e56 0736
00000250: 8228 8db4 c1f3 dc34 9f9a 8fb6 51bc ddb6
00000260: 00cb f036 70c2 31b7 9411 1db6 0ce1 86b4
00000270: 9e8f 5d36 74bc f1b6 18aa 7c37 1e80 7535
00000280: f85d efb6 103c 10b7 8687 4f36 deb0 4235
00000290: 6488 36b6 b367 ca35 0d96 9f36 d397 7db6
000002a0: eabc b935 fca0 42b5 8aeb d0b5 bf5f 8cb6
000002b0: 01ec c6b6 58fc 8834 5111 2ab6 d6f9 c9b4
000002c0: 8ca9 0d36 9386 24b6 5139 87b6 7001 f736
000002d0: 3756 4936 413d d9b1 141e b2b6 eb75 fd35
000002e0: 18e1 2cb7 dad0 ccb4 4e35 1436 3f73 d0b6
000002f0: d369 1cb7 51ee 3d37 3874 cab4 c834 7ab6
00000300: e54c 64b7 d33c a137 b2ae 3fb7 e5f5 ebb6
00000310: 265b 8cb6 c857 14b7 8971 90b6 300a 5937
00000320: 5ac6 ebb6 eaed 07b7 2957 63b6 2a08 9c37
00000330: 933a 0db7 8ca6 74b7 64cb 47b7 05e6 edb7
00000340: d4f4 dfb5 4101 f637 09a5 15b7 8abd 33b7
00000350: 3836 83b7 5146 1c37 a9bf 92b5 c9c1 c3b6
00000360: 9304 b0b6 4091 90b7 bee1 f2b6 eac7 af37
00000370: 13b9 e0b6 cd65 18b7 f852 bcb9 a121 bb38
00000380: bd49 bd39 e510 c6b9 8f63 fab7 6a6d c338
00000390: 1ff5 6539 c85c deb5 843c 25b9 6554 36b7
000003a0: 9173 9db9 e30d c5b9 5efe 24b7 ec5f e437
000003b0: 6d71 47b6 40ff 12b5 7156 0536 28d5 7337
000003c0: f4f4 ee36 c52d b7b6 fcf3 eab5 b0b1 d2b5
000003d0: 5f28 2bb7 daf5 b137 12b2 aeb5 915f 3236
000003e0: 439e c536 92c4 f437 47a9 3fb7 f436 bcb6
000003f0: d44c feb5 d7e3 5ab6 3c8c 6db7 47e7 d837
7.3419017e-07 -1.7814125e-05 4.0900377e-06 -1.9656889e-06 5.6863473e-07 -1.6481886e-06 -1.2589207e-05 3.5196529e-06
-3.3499236e-06 -3.078269e-06 2.505577e-06 -1.7856013e-05 4.3808876e-07 2.918191e-07 3.0568729e-06 -8.224481e-06
-7.680792e-06 3.1332129e-06 -1.7680255e-06 -2.744503e-06 -9.840214e-06 -5.0498584e-06 -9.89633e-07 3.320436e-06
3.4524187e-06 -2.40365e-06 -9.842867e-06 1.5624644e-06 -3.7801408e-06 -4.63549e-06 -8.903918e-06 -9.910898e-06
-8.915039e-07 2.7910526e-06 2.5628137e-06 1.7293123e-06 -4.903246e-06 1.2835252e-06 -7.677107e-06 -8.9374535e-06
-5.0561075e-06 -1.3627793e-05 -5.8712624e-07 3.1522816e-06 2.721362e-06 -5.4063767e-06 -1.355227e-06 1.2100062e-06
-6.1121964e-06 -7.66378e-06 -5.606691e-06 -1.3235573e-05 3.8071641e-06 2.9219495e-06 1.2963815e-06 -9.764988e-06
7.623335e-06 1.5349967e-06 -6.664541e-06 -8.098023e-06 9.194238e-07 -1.3778165e-05 -2.6248288e-06 1.9810184e-07
-1.0030856e-06 -1.5418133e-05 5.604826e-06 5.644269e-06 -3.642831e-06 -5.7163224e-06 6.0573734e-06 -1.17820355e-05
-5.806971e-06 -2.6224752e-06 -2.9672897e-06 -1.3368023e-05 -8.00521e-07 3.7644995e-06 -1.1971975e-06 -3.3749582e-06
-6.7838732e-06 -5.721496e-06 2.2260164e-07 6.799911e-07 -2.7360556e-07 -9.741381e-06 -6.3805845e-07 -6.306144e-07
2.6455507e-06 6.4926945e-07 -2.1292083e-06 -3.490163e-06 -4.1904636e-06 -1.17743646e-07 -1.1158643e-06 1.2412717e-06
-2.3407197e-06 -1.009255e-05 -5.0480928e-08 -1.5357152e-06 -5.473971e-06 -2.2489567e-07 -5.0805847e-06 1.7804293e-06
-1.14463546e-07 3.2187178e-05 -6.1367646e-05 -8.714156e-05 -0.00016869823 -1.0096941e-05 -0.00020367524 -0.00015179628
2.2948736e-06 -0.0001715747 -1.1832742e-05 -0.00017820028 -1.9255069e-05 1.6500075e-05 -8.065051e-06 8.795496e-07
-2.968808e-06 -4.10601e-06 1.3082334e-05 5.836184e-06 -4.0851437e-06 -7.1210325e-06 -5.6565373e-06 8.090751e-06
1.2051072e-06 1.3651359e-06 -5.9572867e-06 -6.2591885e-06 1.6362765e-05 -6.8618374e-07 -4.9533155e-06 -7.73806e-06
-4.949453e-06 2.2958478e-05 -1.4558937e-05 4.4664773e-07 -4.999687e-06 -7.1937934e-06 -1.7788727e-05 2.4544175e-05
-1.118231e-06 -5.953831e-06 -3.2363996e-06 2.0166767e-06 -2.629277e-07 4.1155548e-07 -4.2797324e-06 -6.608236e-06
7.1761897e-06 -1.0595293e-05 -2.3405055e-06 -2.5123188e-07 3.3015162e-06 -7.2042985e-06 1.50599735e-05 9.145605e-07
-7.1336945e-06 -8.597053e-06 3.0924289e-06 7.252801e-07 -2.7199503e-06 1.5080353e-06 4.7560375e-06 -3.7788311e-06
1.3838555e-06 -7.2504895e-07 -1.5565759e-06 -4.1834714e-06 -5.9283343e-06 2.5515578e-07 -2.5342054e-06 -3.7620947e-07
2.1109327e-06 -2.4516237e-06 -4.029986e-06 7.361341e-06 3.0001518e-06 -6.322495e-09 -5.308315e-06 1.8884288e-06
-1.0304408e-05 -3.814992e-07 2.2084746e-06 -6.2122995e-06 -9.322964e-06 1.1320765e-05 -3.7709992e-07 -3.7283626e-06
-1.3607762e-05 1.922102e-05 -1.1425162e-05 -7.0321717e-06 -4.182936e-06 -8.841926e-06 -4.3047517e-06 1.293658e-05
-7.026637e-06 -8.102021e-06 -3.387637e-06 1.860045e-05 -8.417893e-06 -1.45823105e-05 -1.190868e-05 -2.8359713e-05
-1.6686049e-06 2.932607e-05 -8.919517e-06 -1.0713362e-05 -1.5641665e-05 9.314696e-06 -1.0933628e-06 -5.8340124e-06
-5.2457412e-06 -1.7233775e-05 -7.238442e-06 2.0954718e-05 -6.6972657e-06 -9.083608e-06 -0.0003591997 8.923119e-05
0.00036103828 -0.0003777809 -2.9848683e-05 9.3187045e-05 0.00021930457 -1.6567292e-06 -0.0001575817 -1.0867695e-05
-0.00030031477 -0.00037585114 -9.834386e-06 2.7224385e-05 -2.9719333e-06 -5.4760676e-07 1.986886e-06 1.4533558e-05
7.121469e-06 -5.4591533e-06 -1.7505367e-06 -1.5697933e-06 -1.0201794e-05 2.1214528e-05 -1.3015836e-06 2.6579694e-06
5.8894816e-06 2.9178602e-05 -1.14239e-05 -5.609234e-06 -1.8946835e-06 -3.2617152e-06 -1.4158952e-05 2.5856903e-05
