UnityProject/results/testModel9/testModel7.onnx (onnx, 133264 bytes, 12 tensors)

discrete_action_output_shape f4 [1, 2]
000000 00 00 00 40 00 00 00 40
       2.0 2.0

network_body._body_endoder.seq_layers.0.weight f4 [128, 117]
000000 9f 31 48 bd 84 a4 9f 3c c6 10 0e 3d 80 db 8f 3d
       -0.048875447 0.019487627 0.034683965 0.07024288
000010 f5 ec 02 3d eb b3 d9 bd 0a 0b b1 3d 67 72 bf bd
       0.03196426 -0.1063002 0.08644684 -0.093479924
000020 96 88 13 be fa 2d 7a bd f5 5f 9b bd 3c 50 b0 3d
       -0.14407572 -0.061079003 -0.07586662 0.086090535
000030 61 47 6a be 0e 06 ae 3d 2b fa 70 bd b2 96 83 be
       -0.22878791 0.084972486 -0.05883233 -0.2570091
000040 47 bf f8 bd a4 a4 7c 3d 9b 58 99 3d 9c 40 a6 3c
       -0.12145858 0.06168045 0.07487603 0.02029448
000050 c3 ec 51 3c 6e e9 3b be bb 1d ee bc a8 b9 82 be
       0.012812796 -0.18350765 -0.029066911 -0.2553227
000060 72 42 8e bc a2 1c 68 bd 0e ca 12 bd 7c d1 fe 3d
       -0.017365668 -0.05666793 -0.035837226 0.124423
000070 75 37 7a bd 58 de 67 3c 46 63 a3 3c cd a1 e9 bd
       -0.061088044 0.014152132 0.019944798 -0.11407814
000080 e7 d3 93 3d 54 ff 07 bb 0e 02 11 bd ec c7 45 3d
       0.072181515 -0.0020751553 -0.03540235 0.048286363
000090 ba bb 82 bc 72 54 43 3d 95 6d b7 3d a5 fc ef bd
       -0.015958656 0.047687955 0.08956448 -0.1171811
0000a0 11 81 1c 3e 39 37 0b bd ee fd 97 bd 28 4a 23 be
       0.1528361 -0.03398821 -0.0742148 -0.15946257
0000b0 52 46 b7 3b 67 66 16 bc e5 6c 63 bd 10 08 db bc
       0.0055930996 -0.009179688 -0.05552377 -0.026737243
0000c0 13 53 f4 3c 78 19 b3 3d d9 f6 11 be d6 42 a8 bd
       0.02982477 0.08745092 -0.14254321 -0.08215873
0000d0 06 e5 67 bd 2c 42 00 3e d6 78 af bb 65 d1 f2 3d
       -0.0566149 0.12525243 -0.005354981 0.11856345
0000e0 5b c1 03 be dc fc 3b bc cd 1f f2 bb cc 4a 04 be
       -0.12866728 -0.011473861 -0.007389045 -0.12919158
0000f0 62 76 b6 bc e5 79 40 bd c8 e6 e9 3c 4b e7 a1 bd
       -0.022273246 -0.046991248 0.028552428 -0.07905444
000100 e9 f7 42 3e 91 ff 0f be 00 cb 76 bd 3a 04 b0 3d
       0.19039883 -0.14062335 -0.06025219 0.08594556
000110 09 58 24 bd fb 4a e1 3d 89 80 f4 bc 68 5f 11 be
       -0.04012302 0.110006295 -0.029846447 -0.14196551
000120 0b c8 69 bd a7 11 b6 3c 73 09 d4 3c d7 1a 3d 3d
       -0.05707554 0.022225214 0.025883412 0.046168175
000130 94 86 a9 bd 56 1c af 3b 4f 01 bb 3d dd 6e 90 bd
       -0.08277622 0.005343954 0.09131109 -0.070523955
000140 c0 7b 88 3e af ac a4 bd e9 e2 81 3d 34 58 7e be
       0.26656914 -0.08040749 0.06342108 -0.24838334
000150 50 65 8a bd 84 ad ee 3d 14 8e a3 bd f8 4a d0 3d
       -0.06757605 0.11654189 -0.079860836 0.10170549
000160 06 25 ea ba e5 9e 1f be 24 4a 10 3d 88 85 02 be
       -0.0017863817 -0.15587957 0.035226956 -0.1274625
000170 5b c4 89 3d d3 d9 8e 3d ba 91 2e bd bd ba ed 3d
       0.06726905 0.069751404 -0.042619444 0.11607883
000180 f4 d4 c1 bc 8f 1f 76 3d 3a e2 78 3c d4 63 49 bd
       -0.023661114 0.06008869 0.015190655 -0.04916747
000190 63 33 f6 bd 1b 6b 1b be 8e 87 14 3c 5e 35 90 3d
       -0.1202152 -0.15177576 0.009065522 0.07041429
0001a0 a6 fc c7 bc 87 78 90 3c 53 8c 7b bd d5 82 43 ba
       -0.024412464 0.017635597 -0.06141312 -0.0007458155
0001b0 11 4f ce bd 7a 9e 90 bd 38 ff 31 3e 6b 7f 05 bd
       -0.100736745 -0.07061477 0.17382514 -0.03259222
0001c0 1f 4c 95 3c 10 94 16 3e 10 9a d5 bd 6d 7a a3 3c
       0.018224774 0.14704919 -0.10429776 0.019955838
0001d0 d6 b3 2e bb 6f fe 36 be a7 f7 72 3d 30 d4 10 be
       -0.0026657484 -0.17870496 0.05931821 -0.14143443
0001e0 d0 e7 e0 bd de 19 19 be c2 15 8f bd 1b 6a 03 3c
       -0.10981715 -0.14951274 -0.06986572 0.008020903
0001f0 a7 f5 80 3d 18 1f 3b bd 3f b1 d7 bd 37 34 ba bd
       0.062968545 -0.04568395 -0.10531854 -0.090919904
000200 b1 70 8d 3d 2c 5e 14 3b 1e fe 04 3d db 92 fa 3d
       0.0690626 0.0022639139 0.032468908 0.12235042
000210 53 d2 6a bc 9b e4 e2 bd 48 a9 12 be 59 aa a8 3d
       -0.014332372 -0.11078759 -0.14322388 0.08235616
000220 f3 07 e0 3c de 02 b8 3d b0 a3 bd bc 42 d7 cd bd
       0.02734754 0.08984922 -0.023149341 -0.10050823
000230 b2 4a a2 39 d2 6c 28 bd b0 87 06 3d e2 8b 4d 3d
       0.000309547 -0.041119404 0.032844245 0.05018223
000240 95 db 1b be 57 09 32 3d 44 88 8e 3d 2e 40 20 be
       -0.15220483 0.04346594 0.06959584 -0.15649483
000250 f6 1b 39 bc 0c 3a d4 bc 44 50 4b bb 54 24 d9 bc
       -0.01129817 -0.025906585 -0.0031023184 -0.02650658
000260 7f 86 8f bd 87 0c af bd ed dc cf bd 20 41 77 bd
       -0.07008075 -0.08547311 -0.1014956 -0.060364842
000270 c4 4b 04 3e 3f 3c 08 3d de 81 8f 3c 39 2f 1c bd
       0.12919527 0.03326058 0.01751798 -0.038130973
000280 65 30 44 be a3 b9 85 bd 37 2c 09 3e 3b fa ac 3c
       -0.19159086 -0.06529548 0.13395773 0.021115413
000290 54 e3 21 be cd 94 5d bd f7 87 1a 3d 9e d2 23 bd
       -0.15809375 -0.054096986 0.037727322 -0.039995782
0002a0 f0 e5 04 be 03 0a d0 bc 44 91 3d 3e 30 15 c4 3c
       -0.12978339 -0.025395399 0.18512446 0.023935884
0002b0 f6 fd d6 3c 7c 3d 06 3e 35 05 42 be 19 23 ef bc
       0.026244145 0.13109392 -0.18947299 -0.02919154
0002c0 83 62 a4 3d e6 19 0e 3e 8d ab ca bc 34 7c 64 3e
       0.08026602 0.13877067 -0.024740005 0.22313005
0002d0 41 7d 7f 3e b5 98 b5 bc 87 dc 1d be 59 02 0c 3e
       0.24950124 -0.022167543 -0.15416156 0.1367277
0002e0 d8 3f d8 3c 53 f7 af 3b 8a 5e a6 3d 40 09 df bb
       0.02639763 0.0053700595 0.08123501 -0.0068065226
0002f0 36 c6 ce 3b e9 0f 38 3d 3f 63 01 bc 2f 5e 61 3d
       0.0063102497 0.044937048 -0.007897197 0.05502146
000300 e2 83 dd 3d 8f 7a 91 3d d1 83 30 bb 40 da c9 3d
       0.1081617 0.07103454 -0.0026934037 0.09856081
000310 30 af 66 3d bb 6e d4 3d 2c ed ce bb 93 1b ed bd
       0.056319416 0.10372683 -0.006314894 -0.11577525
000320 3b f9 1d 3e 81 f7 e7 bc a1 89 82 bd b9 41 04 3e
       0.15427105 -0.028316261 -0.06373907 0.12915696
000330 e9 63 5c 3d 92 4f 48 bd 9a 79 8f bd 6b 84 88 3c
       0.05380622 -0.04890401 -0.070056155 0.016664704
000340 a7 dc c3 3d 5b 2f 00 bd bb a1 87 3d 6e 54 3e 3b
       0.095635705 -0.03129516 0.066226445 0.0029042023
000350 24 fc c0 3b 1b 94 65 bd 37 9d 6e 3d 5e 9d 60 3d
       0.0058894325 -0.056049448 0.0582554 0.054837577
000360 f8 d3 65 bd 52 40 8e bd 32 0a cf 3d aa df e3 bc
       -0.056110352 -0.06945862 0.101093665 -0.027816612
000370 69 fd af bd d6 83 d6 bd 38 62 3a bd 37 60 ee 3d
       -0.08593256 -0.104743645 -0.045503825 0.11639445
000380 c6 61 3a 3c 58 09 23 3e 3d 86 d1 bd a9 4f f3 bc
       0.01137585 0.15921533 -0.10230682 -0.02970107
000390 fc 38 19 be ed 0b 75 3d 05 8f 14 3d e4 97 2e 3d
       -0.14963144 0.059825826 0.036269207 0.042625323
0003a0 64 3b 0d 3e 1c 4a 1c be b8 3c 7e bc 0c 15 0f 3d
       0.13792187 -0.15262645 -0.015517406 0.03493218
0003b0 a1 7a 8e 3d 2d 80 7b bd 8c 63 51 be b7 c6 8f 3d
       0.06956983 -0.061401535 -0.2044813 0.07020324
0003c0 de df b6 bd fe 18 0c be b9 61 a7 3c d8 44 06 3d
       -0.08929418 -0.13681409 0.02043234 0.0327805
0003d0 91 51 ac be ff a3 4b 3d bb 03 bd 3c 91 cd 72 3e
       -0.3365598 0.049716946 0.023073068 0.2371123
0003e0 bd 7c 6e 3d 61 b0 4c 3c d0 ae ce 3c c1 4a bc 3d
       0.05822443 0.012493224 0.025229841 0.09193946
0003f0 19 4c 08 bd 38 35 ad 3d 65 a2 3a be 66 56 80 bd
       -0.033275697 0.08457416 -0.18226011 -0.06266479

network_body._body_endoder.seq_layers.0.bias f4 [128]
000000 19 5b b2 39 95 6c 17 ba cc 85 34 bb c4 d1 88 3c
       0.0003401868 -0.0005776373 -0.002754557 0.016701587
000010 b1 49 3b 3c 4b bb 04 bc 29 d2 8a 3b ae 4d cd 3b
       0.011431144 -0.008101295 0.004236479 0.0062653637
000020 af 57 8d 3b 1d 58 0a bc 25 35 af bb 9e a0 12 bb
       0.004313431 -0.008443859 -0.0053469115 -0.0022373567
000030 f6 28 07 3c f1 c6 95 bb 72 8d 3e 3c ed 6d 98 3b
       0.008249512 -0.004570835 0.011630403 0.004651776
000040 a5 8f c1 bb a6 3e b3 b9 13 3e 1e 3c 29 1a 29 bc
       -0.0059070163 -0.00034188217 0.009658354 -0.0103211785
000050 25 42 04 bb 02 d0 37 3b 59 88 97 3b 5d c1 7e 3c
       -0.0020181027 0.0028047566 0.004624408 0.015549031
000060 ab cc e0 3b 17 a7 71 3b 8b 8d 21 3b ae 29 57 3a
       0.006860336 0.0036873275 0.0024651017 0.000820781
000070 88 dc 37 bc 75 d8 3e bc ee 79 33 bc ba 1f b9 3a
       -0.011222012 -0.011648287 -0.010954363 0.0014123835
000080 5d ff 23 bb e2 9a fe 39 54 a0 ad bb bb 73 a4 3b
       -0.0025024035 0.00048562052 -0.0052986536 0.005018679
000090 38 12 65 bc 2f 95 9c 3a 97 7d a8 ba 7b 53 82 bb
       -0.0139813945 0.0011946316 -0.0012854812 -0.003977237
0000a0 c6 3a 93 3b 1d c4 bb ba ad 03 4f 3c db 54 86 3b
       0.0044930903 -0.0014325414 0.012635154 0.004099471
0000b0 b5 20 06 bb bb d6 eb ba d9 bd a7 3b 1b f8 74 bc
       -0.0020466272 -0.0017993072 0.005119067 -0.014951731
0000c0 6f 9c d8 bb 53 44 20 bc 13 f2 18 3b 44 44 9b ba
       -0.006610445 -0.009781915 0.0023337647 -0.0011845906
0000d0 7a 92 9d 3a a3 28 cd 3b 46 cf 45 3b f0 c6 a7 3b
       0.0012021803 0.006260948 0.003018336 0.0051201507
0000e0 68 1c 0c 3c 87 bc 43 bc 9b b1 32 3c 07 15 97 bc
       0.008551694 -0.011946804 0.010906602 -0.018442644
0000f0 66 3d c0 3b 99 cd 74 3c 05 93 c9 3a 58 02 3b 3c
       0.0058666943 0.014941596 0.0015378898 0.011414133
000100 a9 b5 54 3c 96 d4 71 bc 85 62 6d bc ba 1b b7 bb
       0.012982764 -0.014760157 -0.014488821 -0.005588022
000110 85 65 00 3c be 29 4a 3b 0b a7 b3 3b 24 ba 40 3c
       0.007836704 0.0030847634 0.0054825596 0.011763129
000120 68 56 97 3c 5b 83 83 bc 1d 07 6c bc 22 b4 b1 3b
       0.018473819 -0.016053846 -0.014405993 0.005423085
000130 e0 a9 37 bc d4 93 1b 3c b6 70 1f bc d2 1c af bb
       -0.011209935 0.009495694 -0.009731462 -0.005344012
000140 b0 20 3e 3c ce 27 28 bc 0e 65 1e bb 68 eb 82 3c
       0.011604473 -0.010263396 -0.002416912 0.015981391
000150 0e 97 3f bc 23 14 e5 ba 82 56 37 bb b4 0c 24 bc
       -0.011693729 -0.0017477315 -0.0027975147 -0.010012794
000160 43 14 12 bc 32 95 9c bc 6b 30 45 3a 2b 47 32 ba
       -0.008915964 -0.01911411 0.00075221685 -0.0006800766
000170 39 88 97 3a 49 4f a7 b7 5e c2 25 ba 12 1d 14 3a
       0.0011560983 -1.9944871e-05 -0.00063232135 0.0005650084
000180 61 df c0 bc 2c 5e 3f 38 01 e7 2a bc 55 dc 9d bc
       -0.023544015 4.5625653e-05 -0.010431052 -0.019270102
000190 bb 40 8b bc 2e d9 53 3c 10 fe 97 3c 59 19 f1 3b
       -0.01699864 0.012930198 0.018553764 0.007357758
0001a0 f0 30 c5 b9 9a 85 99 3b 55 34 49 bc d3 28 85 3b
       -0.0003761123 0.004685116 -0.012280543 0.0040637045
0001b0 60 12 18 bb 00 46 66 3b 3b 77 7e bc 5d 34 41 3c
       -0.0023204312 0.0035136938 -0.015531356 0.01179227
0001c0 89 0f 7f bc 38 00 4d bc 7a cf 71 bb ee 54 92 3a
       -0.015567669 -0.012512259 -0.0036897347 0.0011164227
0001d0 b2 52 87 3a 2c 13 77 bc 3c aa 9a 3a 27 f9 91 b9
       0.0010324328 -0.0150802545 0.0011800001 -0.00027842188
0001e0 62 d9 0e bc 12 3e f8 b9 ef 12 96 3b 1c a7 2a bc
       -0.00871882 -0.00047348492 0.004579894 -0.010415819
0001f0 8a c2 6c 3b 9f d2 83 bc 30 da 1a 3c df 33 8c bb
       0.0036126697 -0.016091643 0.009451434 -0.0042786445

network_body._body_endoder.seq_layers.2.weight f4 [128, 128]
000000 e1 7e 3c 3e 82 21 1b 3d ae d1 da 3d f0 d5 db bb
       0.18407775 0.037873752 0.106845245 -0.006708853
000010 cb 1c 75 3c a2 f0 54 bd e3 cb 6e bd cb fa a1 bd
       0.014960478 -0.051987298 -0.05829991 -0.07909163
000020 02 bd 25 bd e6 4e 28 3d 88 b7 92 bb 49 34 19 bd
       -0.040463455 0.04109087 -0.004477445 -0.03740338
000030 f4 96 5e bc cd 77 b0 3d 37 96 10 be 22 04 c1 3d
       -0.013585795 0.086166 -0.14119802 0.094246164
000040 13 3c dc bc e9 19 1f bc b1 32 87 bd 0e 9f 0d ba
       -0.026884114 -0.009710767 -0.066014655 -0.0005402424
000050 04 c1 a6 bd 81 86 d9 3d 34 a4 38 3d ed bb 17 bd
       -0.081422836 0.10621358 0.04507847 -0.037044454
000060 69 78 14 3e a8 bf cf 3c 7a 69 3b 3c fe 90 06 be
       0.14499058 0.025359944 0.011438722 -0.13141248
000070 7b f5 e5 ba 04 63 0d bd c3 d4 80 bc 39 1a 2e 3d
       -0.0017544472 -0.034518257 -0.015726453 0.042505477
000080 5a 2d 3d 3e 3b 8d 2c be 4b 00 41 be 03 c3 47 be
       0.18474331 -0.1685075 -0.18847768 -0.19507985
000090 11 fd b6 ba 11 1a ce 3d 80 6b fd bd 48 27 b3 bd
       -0.0013960918 0.100635655 -0.123740196 -0.08747727
0000a0 d5 d8 dc 3d 39 b1 0f bb 33 8d a2 3c 24 d9 7f 3d
       0.10783545 -0.0021925701 0.01984272 0.06246294
0000b0 5e fb ff bc 91 0e 0c 3d f6 d8 0d 3e 26 de 0b 3e
       -0.03124779 0.03419358 0.13852295 0.13658962
0000c0 16 7f b9 bd f3 f0 b9 3b 22 32 13 3e 16 73 0a 3e
       -0.09057443 0.0056744753 0.14374593 0.13520464
0000d0 6b 74 bc bc 49 b5 03 3e b9 47 b3 3d 4d e1 ef 3d
       -0.023004731 0.12862124 0.087539144 0.117128946
0000e0 fe a7 ce bc 98 c7 52 3d 60 a4 b1 3d b9 3e 15 bb
       -0.02522659 0.05145988 0.0867393 -0.0022772981
0000f0 00 4c 0c 3d 2b af 28 3d 70 35 28 bd e3 3f 94 bc
       0.034252167 0.04118268 -0.041066587 -0.01809687
000100 96 fb 50 bd cb 42 c2 3d 10 46 a8 bd 30 eb 85 bd
       -0.05102118 0.09485396 -0.08216488 -0.06538999
000110 38 d9 a9 bd 08 31 07 3e 9e f8 4c 3d 16 e6 a7 bd
       -0.08293384 0.13202298 0.050041787 -0.08198182
000120 53 28 57 bd 5d f3 80 bd 43 b9 1a be e6 6b 14 bd
       -0.05252869 -0.06296418 -0.15109734 -0.036235712
000130 70 14 38 3e 12 f6 17 3d 48 3e db 3c 1f 4d ae bd
       0.17976546 0.037099905 0.026763096 -0.085108034
000140 9b 53 c6 3d 94 b8 bf 3d ab 93 54 3d ed 23 3e 3e
       0.09683915 0.09361377 0.05189864 0.18568392
000150 e4 66 7f 3a aa a4 c7 bc 40 c2 e8 3d 09 e1 cc bd
       0.000974281 -0.02437051 0.11365175 -0.100038595
000160 2e b0 74 bd 77 dd 25 bd 77 b6 7a ba a6 75 84 3d
       -0.05973833 -0.04049441 -0.00095639325 0.06467752
000170 81 ed 98 bd 6b 36 1b 3d 02 ed 6b be f7 75 a0 3d
       -0.07467175 0.037893694 -0.2303963 0.07835
000180 be 92 e4 bd bd 11 d5 3d 2d ba 85 3d 10 4d b4 bd
       -0.11160801 0.10403774 0.06529651 -0.08803761
000190 71 dd 8f 3d 84 a3 20 3d b5 37 b2 bd be 8a 1e be
       0.070246585 0.03921844 -0.087020315 -0.15482613
0001a0 31 e5 cb 3d ff b3 de 3c c1 85 c8 3d 07 22 8e bd
       0.09955824 0.027185438 0.097911365 -0.06940084
0001b0 73 9e a7 bc 0d 2b bd 3d cf 9a 95 bd 21 e8 96 3d
       -0.020461297 0.09236727 -0.07304918 0.07368494
0001c0 9b 45 6f 3c ca fe 39 bd 18 6e 77 bd 0d cf 85 bd
       0.014603998 -0.045409 -0.060407728 -0.065336324
0001d0 f1 3b de 3d 7b 14 9f 3c ed fc 93 3d ab 47 e9 bd
       0.10851277 0.019418946 0.07225976 -0.11390623
0001e0 2d 57 01 3e 1b ad c2 3d 76 0c 9e 3d f4 f7 6b bd
       0.12630911 0.095056735 0.077172205 -0.057609513
0001f0 c6 63 e2 3b bb a0 21 3e 9c 1e e1 bb c2 7a 85 3c
       0.0069088666 0.1578397 -0.006870104 0.016293887
000200 8f 26 d7 bb 52 10 06 3e 4b 15 8b bd d1 70 94 bd
       -0.006565876 0.13092163 -0.06791171 -0.072480805
000210 46 0d a2 3d bd 6d 41 be b0 9f 25 be 1b 1a 5d bd
       0.07912688 -0.18889518 -0.16174197 -0.053979974
000220 e8 dd f1 bb da b1 f3 3d 26 cc 49 3d 22 23 2c bd
       -0.0073811896 0.11899157 0.049266957 -0.042025693
000230 50 ba 97 3d ac 87 fa bc 7c 7d 73 3b 1a 2c 79 bd
       0.07408583 -0.030582272 0.0037153652 -0.060833074
000240 c7 4c 94 3c d4 53 c4 bc ad b4 5d 3c 92 c8 6a 3e
       0.018103017 -0.023965754 0.013531846 0.22928074
000250 f0 ea 44 3d 91 b7 a0 3d e0 9f 20 3e fd ba ac bd
       0.048075616 0.078475125 0.15685987 -0.08434103
000260 f8 70 77 bd 0e 6d 42 bb ca fb bf bd c0 22 8b 3d
       -0.06041047 -0.0029667052 -0.09374197 0.067937374
000270 ab 31 d1 3d 7d 7c f1 3c c0 83 8e bd 91 21 3a 3e
       0.102145515 0.029478306 -0.06958723 0.18176867
000280 b6 4a 42 bc 54 56 96 bd 78 5d 19 3e 5a f2 8d 3d
       -0.011858633 -0.073406845 0.14977062 0.069309905
000290 b6 d0 40 3d 66 8a 0a bd 72 ae 46 bb d4 18 1a 3e
       0.047074042 -0.033823393 -0.003031638 0.15048534
0002a0 e2 b8 ea bd 4f a6 5f 3d 99 6a eb bc 13 71 02 bd
       -0.11461045 0.054601964 -0.028737353 -0.031846117
0002b0 3f f6 2d bb cd 0d 9c bd 06 e8 a5 bb 48 39 c5 3c
       -0.002654448 -0.0761982 -0.0050630597 0.024075165
0002c0 25 77 b0 3d 4c a6 9d 3d e7 a2 5b bd 3c a9 eb bb
       0.08616475 0.07697734 -0.053622153 -0.007191805
0002d0 93 ab c1 bc 90 8c 4e bd f7 85 37 3b 82 a9 33 be
       -0.023641383 -0.05042702 0.0028003433 -0.17545131
0002e0 0d 34 b9 bd 18 f5 84 3a 68 3a 00 be 91 f2 d2 3d
       -0.09043131 0.0010143844 -0.1252228 0.10300172
0002f0 c2 8e a8 bd e0 02 09 3d 9a d5 99 3d 4a 39 00 3e
       -0.08230354 0.033450007 0.075114444 0.12521854
000300 8b 7a bf bd 51 b2 49 3e ca 99 a1 3c e7 10 e3 3c
       -0.09349545 0.19696929 0.019726653 0.02771802
000310 26 3d db 3c ba 5b 81 bd 69 bf 19 3e 5a 9d 44 be
       0.026762556 -0.063163236 0.15014423 -0.1920065
000320 0e d2 ce 3d 53 e4 06 3d bd 54 7e 3c 8a c0 06 3d
       0.100986585 0.03293259 0.015523133 0.032898463
000330 f4 33 8a bd 3b 0d 0c bd 5a 7b 4f 3a b2 66 c6 3d
       -0.067481905 -0.034192305 0.0007914804 0.09687556
000340 a2 0d e8 3d 63 be 8c 3d 2e c4 09 3d f3 a9 3a be
       0.11330725 0.06872251 0.033634357 -0.18228893
000350 50 61 35 be f4 fd 63 bd 8d d4 0d bd 30 20 0f bd
       -0.17712903 -0.05566211 -0.034626532 -0.034942806
000360 34 e4 c1 bd 33 69 b6 3c d9 bd 88 3a a3 54 bf bd
       -0.094673544 0.02226696 0.0010432556 -0.09342315
000370 5e c1 45 bd f2 72 eb 3c 5b 33 db 3c 15 eb ae bd
       -0.048280112 0.028741334 0.026757887 -0.08540932
000380 86 24 0f bd 98 43 1d bc ab eb e4 bd 47 e2 d2 3d
       -0.03494694 -0.009598635 -0.111777626 0.10297065
000390 d2 1c 07 bd d2 12 9a bc 92 da 71 3a 22 3b ba 3c
       -0.03298647 -0.018807802 0.000922599 0.022733275
0003a0 4b 11 9b bb 79 62 2e bd e9 94 85 3d 68 77 0b 3e
       -0.004732286 -0.04257438 0.06522543 0.13619769
0003b0 4e 85 27 bd a9 19 98 3e 98 8e 93 bd 4c 1c e1 bd
       -0.040898614 0.29707077 -0.07204932 -0.10991725
0003c0 65 dd 93 3d 91 27 e8 3b c2 8e 8f 3d 3a 2b 18 3e
       0.07219962 0.007084795 0.07009651 0.1486024
0003d0 23 37 1b be 02 f2 10 be b3 af 48 bd dd 62 02 3e
       -0.15157752 -0.14154819 -0.048995685 0.12733026
0003e0 a2 11 cf bc 95 87 37 bd 2e a4 b1 bd 29 81 f8 3d
       -0.025276963 -0.044807035 -0.08673893 0.1213401
0003f0 50 96 ab bb ca 79 91 3d f0 96 54 bc e9 68 92 3d
       -0.0052364245 0.071033075 -0.012975439 0.07148916

network_body._body_endoder.seq_layers.2.bias f4 [128]
000000 92 76 8d 3b 0c 14 53 bc a4 f3 34 bc a6 df d5 3a
       0.004317113 -0.0128831975 -0.011044417 0.0016317263
000010 f3 20 92 3c aa 8c f7 3a e6 4b ef ba 21 de 27 3c
       0.017837977 0.0018886526 -0.0018256872 0.010245831
000020 b3 78 3f 3b 11 4f 98 3c 5a f1 1e bc 93 28 a2 3c
       0.002921623 0.01859239 -0.009701097 0.019794738
000030 0c fc 8f bc 91 52 8c bb 4d e4 2f bc 20 77 49 3b
       -0.01757624 -0.0042823036 -0.0107355835 0.003074117
000040 7c b5 b8 3c ba 79 90 bc 0b ce 73 bc 40 5c 2d bb
       0.022547476 -0.017636169 -0.014880667 -0.002645269
000050 ff 51 59 3b 7c 7e f3 3b 66 73 e0 3b 5b e6 fa ba
       0.0033160446 0.0074308496 0.006849694 -0.0019142138
000060 62 21 a4 ba 52 9f 1c 3c 88 a3 69 3b ca 65 be bb
       -0.0012522156 0.009559469 0.003565045 -0.005810474
000070 8c d7 ec 3b e9 5b dc 3a c9 6c 5c bc 21 d6 07 3c
       0.0072278436 0.0016812059 -0.013453671 0.008290798
000080 48 8a 81 3b e1 80 24 bc 89 87 94 bb 1d 9d 07 bc
       0.003953252 -0.010040493 -0.0045327586 -0.008277205
000090 a8 5d 30 bb 83 bd a5 3b 47 44 08 bc 36 ab 21 3c
       -0.0026911292 0.005057992 -0.00831706 0.00986748
0000a0 8c e5 ab bb 82 0e f8 3b c0 fa fb ba 1a 6f 0b bc
       -0.00524587 0.007570089 -0.001922451 -0.008510375
0000b0 a2 c6 84 bb 19 84 06 3a bc 00 90 bb d4 20 11 3c
       -0.004051999 0.00051313784 -0.004394619 0.0088579245
0000c0 01 d4 13 3c fe 1e 04 3c f5 e7 dc bb 92 ef 65 bb
       0.009022714 0.00806403 -0.0067415186 -0.0035085422
0000d0 82 a4 26 bc af 76 47 3b 14 33 42 3b 29 f4 c2 3b
       -0.010171058 0.0030435731 0.0029632496 0.0059495163
0000e0 a9 da 02 3c eb 8b 02 bc 51 11 d2 ba 62 35 74 3a
       0.007986703 -0.007967929 -0.0016026889 0.0009315816
0000f0 da cd 8e bc f6 d8 16 bb 22 2e 44 bb f3 1c 8c bb
       -0.017432142 -0.0023017502 -0.0029934724 -0.004275912
000100 68 2d ce bb ee a2 32 bc dd 36 96 ba 94 57 ab b8
       -0.006292034 -0.010903103 -0.0011460442 -8.170228e-05
000110 1d 75 9a bb 77 9b 94 3c df 73 ea bb 87 13 0f 3c
       -0.004713668 0.018140538 -0.007154926 0.008732683
000120 c6 b7 54 3c 41 2c ab bb 2d e8 b6 bb e7 3d 90 3b
       0.012983268 -0.0052237813 -0.0055818767 0.0044019106
000130 67 59 8c 3b b6 ea e3 bb 74 63 a2 bb b6 66 82 bb
       0.0042831185 -0.00695547 -0.0049557034 -0.0039795293
000140 d7 25 7b bc 40 d0 a6 3a 35 54 53 bb 97 17 27 bc
       -0.015328846 0.0012726858 -0.0032246236 -0.010198495
000150 a2 4f 21 3c df f8 25 3c 1c 6e 1d bb e9 c2 16 3c
       0.009845646 0.010130136 -0.002402193 0.009201744
000160 09 44 51 3c 55 1d 83 3b 04 f2 0f ba cc f7 24 3c
       0.0127725685 0.0040012994 -0.000549108 0.010068845
000170 c6 13 b1 bb 3f 90 99 3c 17 6f 1e bc 6a 7e 93 bc
       -0.0054039685 0.01874554 -0.009670041 -0.018004615
000180 c0 5e f6 bb 29 03 4d 3c d6 58 71 3b 28 45 3a 3c
       -0.0075186193 0.0125129605 0.0036826632 0.011369027
000190 cb 26 77 bb 74 f7 15 bc 79 0d 19 3c be 87 30 3b
       -0.0037712331 -0.009153236 0.009341591 0.0026936377
0001a0 b8 b1 4e bc 74 33 e7 bb b0 a4 5a bb f7 8b 8f 3b
       -0.012615614 -0.0070556942 -0.0033362322 0.004380699
0001b0 1a f9 2a 3c 38 7a 9b bb 08 78 d7 bb 4d 91 b6 3b
       0.010435367 -0.004744794 -0.006575588 0.0055715204
0001c0 6f 3e 02 bb 72 15 54 bc 37 28 c3 3b 3d 1f 1d bc
       -0.001987364 -0.012944566 0.0059557217 -0.009589967
0001d0 bc f8 1d b9 92 35 81 bb 28 6f e0 3b e6 95 ac bb
       -0.00015065348 -0.0039431537 0.0068491884 -0.0052668927
0001e0 ff e9 8d bb 53 34 de 39 29 10 5b bb f5 db 3a 3b
       -0.004330873 0.00042382124 -0.003342638 0.0028512452
0001f0 9a 04 b5 3c 81 ce e5 bb 33 8f 84 3c c3 df cd 3a
       0.02209692 -0.0070131426 0.016181564 0.0015706945

action_model._continuous_distribution.log_sigma f4 [1, 2]
000000 ed f7 a3 bd 16 bd 6e be
       -0.080062725 -0.23314318

action_model._continuous_distribution.mu.weight f4 [2, 128]
000000 99 a6 07 3c 08 f4 10 3c f5 52 c8 b9 40 51 c5 bc
       0.008279466 0.008847244 -0.0003820878 -0.024086595
000010 8a 31 9e 3c 85 87 c9 b9 84 80 e8 3c 75 82 27 3d
       0.019310731 -0.00038438677 0.028381594 0.040895898
000020 fe 0e 0b bd af 77 b2 3b 1d c0 92 3c 3c 52 a7 3c
       -0.033949845 0.0054463963 0.017913872 0.020424955
000030 67 6d c2 bb 00 18 b9 3b b1 af 43 bd 72 ef 6e 3d
       -0.005933452 0.005648613 -0.047774974 0.05833382
000040 dc 56 9d 3c 66 dd 3e bc 10 db 34 bb 2e 9e db 3c
       0.019206457 -0.011649465 -0.0027596392 0.026808824
000050 2e 69 0d 3d b6 f7 6a 3a 4d cd 9c bc bc 0e e3 bb
       0.034524135 0.00089633034 -0.019140864 -0.0069292467
000060 65 be 25 bb 4a 05 b9 bc d3 9b f5 3c 55 8d 0b bc
       -0.0025290486 -0.02258553 0.02998153 -0.008517583
000070 e0 1d 17 bd ee ab a0 bd 91 1b 11 3d f5 e7 b2 3c
       -0.036893725 -0.07845293 0.03542668 0.021839121
000080 5c 55 0f bc 43 6d a5 3c df 12 0c 3c ac 8b c4 3a
       -0.008748379 0.020193702 0.008549421 0.0014995239
000090 c5 f0 d1 bc 51 d5 fc bc 56 de 12 bb e6 68 39 3d
       -0.025627503 -0.030863436 -0.0022410355 0.045266055
0000a0 72 c1 2d bc c0 93 02 bd 62 20 01 3c 83 f2 c2 3c
       -0.010605203 -0.031879187 0.007881256 0.02379728
0000b0 8a 37 86 3b 10 84 d3 3b 0d 02 88 bc 23 6c b8 3c
       0.0040959762 0.006454952 -0.01660254 0.022512501
0000c0 31 00 04 3c b2 be d1 3c bb e1 c8 bc f6 b6 d1 bc
       0.008056686 0.025603626 -0.0245217 -0.025599938
0000d0 8e d0 05 bc 70 97 56 3c 2e 6c cb 3c f2 71 a9 bc
       -0.008167399 0.013097629 0.024831858 -0.020684216
0000e0 0b b7 98 3c 80 0b e4 bb 96 f4 bd 3b 01 32 52 3a
       0.01864197 -0.0069593787 0.005796979 0.00080183154
0000f0 72 b5 08 bc 75 8b 2d bd 32 8c af 3b cd 3f 9b bc
       -0.008344041 -0.042369325 0.0053572888 -0.018951321
000100 c2 05 e9 bd f4 5b 5c 3c 88 23 b1 3c f8 f4 b2 bc
       -0.11378051 0.013449658 0.021623388 -0.021845326
000110 87 a3 87 bd 61 99 7b bc f8 70 25 bd 0a 33 bf bc
       -0.06622987 -0.015356393 -0.04039094 -0.023339767
000120 91 b6 e1 3c 99 3b 72 3a f3 d9 88 bc e1 3c 9a bd
       0.027552875 0.0009240448 -0.016705489 -0.07531143
000130 a6 65 c7 3c 66 92 a4 ba d5 b4 a5 bc 02 5b 40 3c
       0.024340462 -0.0012555837 -0.020227829 0.011740448
000140 b2 23 4e bc 44 4b 1e bb 78 ca f3 ba d1 8c dd 3c
       -0.012581753 -0.0024153749 -0.0018599769 0.027044686
000150 96 d4 47 3c 33 7d 0c bd 09 84 45 bd b1 2e b9 bb
       0.0121966805 -0.034299087 -0.04822162 -0.005651318
000160 92 38 df 3b 7a 24 59 bc 27 f4 81 bc 2a e6 40 3c
       0.0068121636 -0.013253326 -0.015863491 0.011773625
000170 98 a3 e8 3c 29 89 23 3d 06 5b f4 ba ea 31 14 bc
       0.02839832 0.039925728 -0.001864285 -0.009045104
000180 84 15 a4 ba f3 cd b2 3b 2e f3 bd 3b 90 bc 56 bc
       -0.0012518619 0.00545668 0.0057968115 -0.01310648
000190 1d 6e b7 bc ef 60 06 bd 50 a8 e9 bc 05 fc 90 3c
       -0.022391373 -0.032807287 -0.02852264 0.017698297
0001a0 59 da 92 3b 36 aa a6 3c 0a d3 95 bc 76 dd a8 3c
       0.0044815955 0.020344835 -0.018289108 0.020613413
0001b0 1e 36 5c 3d 47 e2 66 3c cf c0 fc bb cc 89 ef 3c
       0.053762548 0.014092035 -0.0077134143 0.029240511
0001c0 e2 3f e1 bc 62 bb b7 3b ec 06 35 bc 8b 25 64 3b
       -0.027496282 0.0056070546 -0.011049014 0.0034812416
0001d0 b7 de 52 3c fb f6 e3 3c 54 db 58 3d 5a 12 d7 bb
       0.012870482 0.02782773 0.052943543 -0.006563467
0001e0 8e 2e d4 bc 30 a7 95 3b 67 08 82 3c 24 b0 0f bd
       -0.025901105 0.0045670494 0.015873147 -0.03508009
0001f0 8a bb 9f 3b ef d8 76 3c ee eb 1c 3d ab 3e 9d bc
       0.0048746513 0.015066369 0.038310938 -0.019194921
000200 cc cd a7 3b dd fe a2 bb 2a 1b 84 bb 12 a4 23 bd
       0.0051209684 -0.0049742297 -0.0040315585 -0.03995139
000210 65 ea a8 3c ef 5b 3b 3c 5b 28 18 3d be 09 11 3c
       0.02061958 0.011435493 0.03714786 0.00885242
000220 6f 52 6c 3c 52 48 e2 3c 02 d9 8d bc 9a 9b dc 3c
       0.014423951 0.027622376 -0.017315391 0.026929665
000230 e4 4f 79 bc 32 fe f9 bc 00 06 be bc 9a 38 46 bc
       -0.015216801 -0.030516718 -0.02319622 -0.012098456
000240 aa e3 2b 3d f1 e9 cd bb 99 d9 62 bc 51 78 a7 bc
       0.041965164 -0.0062839915 -0.013845825 -0.020443114
000250 75 71 ab 3b d4 ed 9f 3c 78 53 ce bc 3b c9 25 bc
       0.005232031 0.019522585 -0.025186285 -0.010118778
000260 f3 2b 1f 3c f4 c6 7e bd c6 9b 1f 3d 5c a1 12 bb
       0.009715068 -0.062201455 0.038966917 -0.002237401
000270 f6 72 97 3c cb 34 06 3a 41 9a cf 3c e2 f3 32 bc
       0.018487435 0.0005119561 0.025342109 -0.010922404
000280 87 30 45 bd 82 71 35 bb 97 d9 f7 bc 5e db e3 bb
       -0.048141982 -0.0027686064 -0.030255122 -0.006953641
000290 86 e0 9f bc 7c 16 80 3c ba 71 0e bc 2e a4 33 3c
       -0.01951624 0.015635721 -0.008694107 0.010964436
0002a0 8c 7d 67 bc 37 e2 55 3c 27 fd bb 3c 6c fc d0 bc
       -0.014129054 0.013054422 0.02294786 -0.02551099
0002b0 78 97 a9 ba 8e a4 69 3c b0 e3 44 bc e4 e3 a1 3c
       -0.0012938818 0.014260424 -0.012017176 0.019761987
0002c0 da 9e 92 3c 1a 64 bf 3b 04 13 4e bc e6 eb 3b 3c
       0.017898012 0.0058407905 -0.012577776 0.011469817
0002d0 37 2e 0f bc b8 27 cb 3b 3e 7d 3a bd 04 54 92 3c
       -0.008739046 0.006199803 -0.045529597 0.017862327
0002e0 1b 17 17 3c 85 d5 2d bc ff d7 15 3b 85 44 f0 3c
       0.009221817 -0.010609989 0.002286434 0.029329548
0002f0 b7 f8 d9 bc 42 a6 fa 3b e1 22 00 3c 61 8c 03 3a
       -0.026607854 0.007649214 0.007820816 0.00050181715
000300 05 7f 03 bd d1 38 80 bc ab 9c 44 bb 0f 9a 27 bc
       -0.032103557 -0.015652092 -0.0030000608 -0.0102296015
000310 a3 65 2a bc d2 f9 d2 3c a7 2e 83 bc a1 08 b4 ba
       -0.010400209 0.02575389 -0.016013457 -0.0013735482
000320 74 60 0d 3c 31 af a5 bc 62 7e e3 bb 8c 58 1e bd
       0.008628953 -0.02022514 -0.0069425562 -0.038658664
000330 57 db 45 3c 61 62 1d 3b 6a 9f bd ba e5 f2 70 bc
       0.0120762205 0.0024014937 -0.0014467065 -0.014706348
000340 9f 8c 4a bc 75 ef 11 3c fd f2 1a 3c 33 2a 79 3a
       -0.012362628 0.008907189 0.009457347 0.00095048844
000350 0a 5c e8 3c 54 63 3a bd e6 ff 57 3c 8f b0 56 3c
       0.0283642 -0.045504883 0.01318357 0.013103618
000360 84 e8 cf 3c 83 f6 cf bc 8b 3e 1c 3c 71 32 99 3c
       0.025379427 -0.0253861 0.009536396 0.01870081
000370 fd ed 89 bc b9 27 14 3c a9 89 49 3c 2e 6b f8 bb
       -0.016837114 0.009042674 0.012300887 -0.007581136
000380 9f 80 d8 3c 55 83 c5 3c 5d 44 61 3b 0f ae 75 3c
       0.026428519 0.024110476 0.0034373023 0.014995112
000390 c6 06 62 bc a0 76 27 bd e9 96 fe 3c 63 1b 7e bc
       -0.01379556 -0.040884614 0.031077819 -0.015509459
0003a0 7a d4 bc bc 86 bd a5 bc 2d bd 8f bc 21 0e ce 3b
       -0.023050535 -0.020231973 -0.01754626 0.0062883054
0003b0 95 6e a6 3b 34 c6 17 3c e9 96 00 bd 95 04 de bc
       0.0050791004 0.009263564 -0.03139392 -0.027101794
0003c0 04 3b b7 3a 66 eb 04 3b be c2 3c 3c c8 93 8b 3c
       0.001397938 0.002028191 0.0115210395 0.017038241
0003d0 f0 b7 1f 3d 7a 8d 0a 39 17 27 2f bd b2 fd 9b 3a
       0.038993776 0.0001321341 -0.04276189 0.0011901169
0003e0 33 78 fd ba 89 5b 1f 3c 00 a5 5b 3b f4 ec d2 3b
       -0.001933819 0.0097264135 0.0033515096 0.0064369384
0003f0 43 e3 ec 3b 86 90 04 bb 07 c0 de 3c 0b 0b cf bb
       0.00722924 -0.0020227744 0.027191175 -0.006318455

action_model._continuous_distribution.mu.bias f4 [2]
000000 4f e9 07 3b 2c 1e 65 3c
       0.0020738428 0.013984244

action_model._discrete_distribution.branches.0.weight f4 [2, 128]
000000 df b5 eb bb b5 49 87 bb 2c f7 64 bb d4 c0 9d 3b
       -0.0071933116 -0.0041286596 -0.0034937365 0.0048142467
000010 0b 8e 1b 3a 54 d5 56 bc e0 68 52 3d 0e 1a 20 3d
       0.0005933947 -0.013112385 0.051369548 0.039087348
000020 5e c7 a2 bc f8 e4 97 3c 88 48 66 bc f2 b7 3d bc
       -0.019870456 0.018541798 -0.014055379 -0.0115795005
000030 d8 38 40 3c ab 87 0b 3a c4 f9 3a bd 4f 09 d4 bb
       0.011732303 0.00053226453 -0.04564835 -0.0064708362
000040 97 6e 6d 3d a6 36 04 3d 00 bd 85 3b b6 14 dd bb
       0.057966795 0.03227868 0.0040813684 -0.0067468537
000050 54 b6 1a bc 57 ae 98 bc 05 87 67 3c e2 52 cf bc
       -0.0094428845 -0.01863782 0.014131312 -0.025308076
000060 b2 04 30 3c 5d d1 8c bc 1e 8b 65 3c 41 95 67 bc
       0.010743307 -0.017189676 0.014010219 -0.014134706
000070 3a 5f 25 bc 7f a0 33 3c 4a f4 25 bc 31 21 1b bb
       -0.010093505 0.010963558 -0.010129044 -0.0023670907
000080 3b 0c 08 3c aa b4 1a 3c e5 74 1a 3b 33 12 c5 3b
       0.008303697 0.009442488 0.002356821 0.0060141324
000090 46 97 4f 3c 30 ce dc bb c5 b4 30 bb 04 94 86 bb
       0.012670344 -0.0067384467 -0.0026963216 -0.0041070003
0000a0 64 fd 8f bc 55 5e e1 3c 9d 9a ae 3b e7 d7 0b bc
       -0.01757688 0.027510801 0.00532849 -0.008535362
0000b0 63 04 3d bb 00 9d a6 3c 51 94 c9 bc 33 e0 a2 3b
       -0.0028841726 0.020338535 -0.024606856 0.0049705743
0000c0 49 2a 80 bb 4e cf ac 3c 5d 64 c6 bb 4a 58 1b bc
       -0.003911291 0.021094944 -0.0060544447 -0.009481499
0000d0 23 48 82 3b 09 78 d6 bc 6b e4 ea 3b ff 81 3b bd
       0.0039758845 -0.026180284 0.007168343 -0.04577827
0000e0 17 be c9 bb ff 29 03 bc 0f 44 78 ba f1 97 f9 3a
       -0.0061566937 -0.008005618 -0.0009470591 0.0019042474
0000f0 15 bd ac bb cf 08 d8 3b bf 45 ef 3b db 03 7c 3c
       -0.005271564 0.006592847 0.0073020156 0.015381779
000100 00 a3 25 bd 79 6b a5 3b 33 c5 a0 bc 99 55 b0 bc
       -0.040438652 0.005048212 -0.019625282 -0.021525191
000110 f2 97 46 bc dd 5c 50 3c 1f 23 32 39 f2 a0 78 bd
       -0.0121211875 0.012717453 0.00016988486 -0.060700364
000120 89 67 e9 bb 8e f5 1d bd 86 c4 3b 3b 7c d4 6f bc
       -0.007122938 -0.038564257 0.0028651073 -0.014638063
000130 9a 35 b4 3c cd e9 8b 3a 4a 0f 73 bc 75 d1 a9 bc
       0.021998215 0.0010674536 -0.014835188 -0.02072976
000140 bd ff 98 3b c1 c0 68 bb c6 0b 84 3a 99 95 e1 ba
       0.0046691583 -0.003551528 0.001007431 -0.0017210721
000150 d5 ba 05 bc f9 da 0a bd 9d 9c 5e 3b 09 a7 0e 3c
       -0.00816222 -0.033900235 0.003396786 0.0087068165
000160 ec 4f 4b bc 21 88 fd bc 56 a0 de 3a 06 73 f6 3a
       -0.012409192 -0.0309487 0.001698504 0.001880259
000170 bf cb a9 bb be 79 84 3d 28 37 59 3c 4b 1a 77 bc
       -0.005181759 0.06468533 0.013257779 -0.015081952
000180 89 f1 0e 39 09 43 20 3c a0 f3 08 bd 52 8a a8 3a
       0.00013632154 0.009781607 -0.033435464 0.0012858605
000190 53 c2 01 bd 4c 2f 55 bc e8 d6 de bb 55 51 df 3c
       -0.031679463 -0.013011765 -0.006800521 0.027260462
0001a0 c2 00 89 3b e1 de 47 3b 1e ed 64 bc ae 81 37 3c
       0.0041809985 0.0030497836 -0.013972549 0.011200352
0001b0 b3 d7 9b 3d d2 71 8d b9 10 84 8c bb 3b 49 a5 3c
       0.07609501 -0.00026978418 -0.004288204 0.02017652
0001c0 f3 37 08 bc 4a 6f ac bb 73 c5 a7 3c fe e2 b0 bc
       -0.008314121 -0.00526229 0.020479893 -0.021592613
0001d0 72 6f c3 3c 91 60 9f bc 68 a5 f8 ba bb 39 9e 3c
       0.023856852 -0.019455226 -0.0018970193 0.019314637
0001e0 ac 70 f3 bc 6e 9e 4c 3c 17 fa c3 3c c9 04 93 bc
       -0.029716812 0.012488944 0.023922963 -0.017946618
0001f0 26 6f 10 3d 12 3a 07 3b 52 b8 05 bd 30 f7 97 bc
       0.03526225 0.0020633978 -0.032646485 -0.018550485
000200 2e 16 12 bc a7 0c 0f 3c ce 87 bb 3b be 97 24 bb
       -0.008916421 0.008731044 0.0057229763 -0.002511486
000210 a2 ad f6 ba 8e 81 a9 3b fb 83 60 bd 9c 82 27 bd
       -0.0018820057 0.005172915 -0.054813366 -0.040896043
000220 5c 75 83 3c 5a dd 9f ba 08 34 38 3b f4 15 49 3c
       0.016047172 -0.0012196705 0.0028107185 0.0122733
000230 46 43 1d 3b 13 fe 43 bc 95 d7 54 3d 40 a1 de 3c
       0.0023996397 -0.0119624315 0.051963408 0.0271765
000240 31 8a 7e bd e1 21 13 bd d4 97 8e 3c ed 24 b1 bc
       -0.06214351 -0.03592098 0.017406382 -0.021624053
000250 8f ac 2d 3b e7 68 82 3c 4d ac de bc 0d 43 1c 3c
       0.0026500558 0.015919162 -0.027181769 0.0095374705
000260 5e ef 9d 3a 8a d1 16 3c 5f 8b a2 bc ad a7 90 3c
       0.0012049486 0.009205231 -0.019841848 0.017658079
000270 0f 26 05 3c 55 e6 ed bb 42 13 85 3c 06 7d 16 3c
       0.00812675 -0.0072601237 0.016244534 0.009185081
000280 c0 45 8c bc f5 b9 55 3c 0c a2 c0 3b 46 04 d2 bb
       -0.017123103 0.013044824 0.0058786925 -0.006409201
000290 ab 34 1f bc ff 0d 4f 3c 99 80 4f 3c 56 25 96 bc
       -0.009717147 0.012637614 0.012664937 -0.01832835
0002a0 e4 89 ae bb 8c 67 1b bd 82 4a 25 bc 44 4a de bb
       -0.0053264964 -0.037940547 -0.010088565 -0.0067837555
0002b0 a4 40 21 3c 90 26 45 bc 22 e5 ef 3c de 29 99 bb
       0.009842072 -0.01203312 0.029284064 -0.0046741804
0002c0 e7 42 13 3c 3f 08 92 3c f0 00 84 b9 0a 26 30 3c
       0.008988119 0.017826198 -0.000251777 0.010751257
0002d0 e7 aa b2 3a 52 fd 24 3c 83 53 d1 bb fb 1a 32 3d
       0.0013631255 0.010070162 -0.006388129 0.04348276
0002e0 f7 80 fa bb aa cd 5c 3b cd bc 88 bc e0 ee 04 bc
       -0.0076447683 0.0033691921 -0.01669159 -0.008113593
0002f0 64 2b 69 ba 84 1b ab bb 6d b6 1c bc ef 57 1b bc
       -0.00088947103 -0.005221786 -0.009564978 -0.009481414
000300 dc 33 28 3d 3e cd 83 3b 9e 64 8e 3b c7 d3 1e bc
       0.041065082 0.0040222695 0.0043454906 -0.009694046
000310 69 c9 3c 3c 51 9a 95 bc eb 32 dd ba bb b1 99 3d
       0.011522629 -0.01826206 -0.0016876137 0.075046025
000320 ef 8b d0 3b d6 85 a0 3c ff 62 2a bc 3f 3c aa 3c
       0.0063643376 0.019595068 -0.010399579 0.02078068
000330 3c 79 ca bc bb 5b ba ba 37 23 28 3b 39 9c 2a 3b
       -0.024716012 -0.0014218012 0.0025655755 0.0026033057
000340 8a d6 1b 3b 84 6b 97 bc af fc a3 bc b8 f3 ac 3b
       0.0023778998 -0.018483885 -0.02001795 0.005278077
000350 91 30 75 bc 5c 9f e6 3c af 0a b6 3c 7b 5f 89 bc
       -0.014965192 0.02815216 0.022221891 -0.016769161
000360 bd f7 27 3c 77 8a 29 3d 13 c6 34 bc 77 70 25 bb
       0.0102519365 0.041391816 -0.011033553 -0.0025244036
000370 76 18 12 3a e2 50 8d bd 6e 72 9e bc 92 45 a6 3c
       0.0005573103 -0.06900193 -0.019341674 0.020296846
000380 a2 70 b1 bc 05 bf fe bb 4b 81 2b 3d 9f 6f 38 bb
       -0.021660153 -0.007774236 0.04187135 -0.0028142703
000390 90 68 83 3c 5a 22 8b 3c 88 d3 2d bc 05 05 14 bd
       0.01604107 0.016984154 -0.010609515 -0.0361376
0003a0 f6 f2 51 bc 29 25 57 3c 74 06 b9 bb d5 e9 49 bc
       -0.012814274 0.013131418 -0.005646521 -0.012323816
0003b0 33 32 95 bd 40 20 9a bc 36 43 71 bc f7 0a 80 bc
       -0.07284965 -0.018814206 -0.014725497 -0.015630228
0003c0 84 f7 c0 3c a6 ea 51 3c 1c 95 0a bd a7 c8 62 3c
       0.023555525 0.012812292 -0.033833608 0.013841785
0003d0 c7 bc 0d bd 17 41 9f bb ae e0 8f 3c a6 40 e2 bb
       -0.03460386 -0.0048600542 0.01756319 -0.0069046794
0003e0 38 a2 00 3d 19 23 01 3c 33 72 f6 bb 38 aa 98 3a
       0.031404704 0.007881903 -0.007520938 0.0011647409
0003f0 3b 6e 23 bd 92 e7 ce bb 5a 33 ee 3c 64 df 63 3c
       -0.039900046 -0.0063142264 0.02907722 0.013908241

action_model._discrete_distribution.branches.0.bias f4 [2]
000000 65 88 20 3b 67 88 20 bb
       0.002449536 -0.0024495365

action_model._discrete_distribution.branches.1.weight f4 [2, 128]
000000 dc af 1d bc 8a 41 92 3b 94 01 da ba 60 3f 1a 3c
       -0.009624448 0.0044633793 -0.001663255 0.009414524
000010 5a fc 92 3c 65 a8 04 bc 8c 08 97 3b 47 4e 20 3c
       0.017942596 -0.008096789 0.004609173 0.009784288
000020 3d 90 9c 3c 78 82 ac bc 85 89 88 bc ea e7 ee bc
       0.019111747 -0.021058306 -0.016667137 -0.02916332
000030 9b 7e be bb e1 d7 48 3c 5e 6e 59 bc de 7d e9 3b
       -0.0058134324 0.012258501 -0.0132709425 0.0071256002
000040 b3 66 c1 39 b0 ce 46 3c a9 d2 97 3b ab 03 7d bc
       0.00036888345 0.012134239 0.004633267 -0.015442769
000050 03 c5 bd bb 33 28 59 bc 26 22 c9 bc f2 04 2c 3d
       -0.005791308 -0.013254213 -0.024552416 0.041996904
000060 6e de 24 3b b3 2a fa 3b 11 c0 55 3b 5a 40 4c 3b
       0.0025156992 0.0076344847 0.0032615701 0.0031166286
000070 b0 cb 33 bc 0c e3 b0 b9 4c fe 47 3c ba 51 ce bb
       -0.010973856 -0.000337385 0.012206625 -0.0062963637
000080 56 bb f9 bb 07 34 c8 bb 93 f0 60 3b d6 29 8b 3b
       -0.007621209 -0.006109718 0.003432308 0.0042469306
000090 d7 16 ef 3a a1 2d 39 bc f1 1d 46 3c b6 e5 0d 3c
       0.001824106 -0.011302383 0.0120920995 0.008660724
0000a0 09 0a 37 bc 5b 12 62 3c 37 d9 02 bc 65 06 e1 bb
       -0.011171826 0.013798322 -0.007986358 -0.0068672174
0000b0 2b 79 18 3b 9a f3 0b 3c 0b 96 f0 bb d1 8e 8b 3c
       0.002326558 0.008541966 -0.0073421053 0.017035874
0000c0 25 ab 6f bc e0 31 22 bc d1 6e 26 3c d5 a7 8b bc
       -0.014628206 -0.009899586 0.010158257 -0.017047802
0000d0 9d 98 0f 3b 64 51 87 bc 9e aa 6c 3c e7 85 10 3c
       0.0021911033 -0.016518302 0.014444975 0.008820987
0000e0 47 a2 0a 3c 39 fb b7 3b 6e 9c 93 bb 22 83 08 bb
       0.0084615415 0.005614665 -0.004504732 -0.0020830114
0000f0 43 8a 8e 3a 3e d6 49 bc ef 35 49 ba c8 da 40 bb
       0.0010874945 -0.012319146 -0.0007675578 -0.0029427279
000100 d4 f1 74 bc 3e 46 d5 bc 8e fd 88 39 52 f9 8d 3b
       -0.014950234 -0.02603447 0.00026128854 0.0043327
000110 4b e3 1c 3c 7d 2a cf 3b 46 cc 8e bc c9 1a b3 bb
       0.009575675 0.0063222037 -0.01743139 -0.0054658395
000120 0b d4 90 bb 70 3e 02 3c d0 86 79 bc dc 72 c1 bc
       -0.0044198087 0.007949457 -0.015229896 -0.02361434
000130 13 64 a4 38 21 07 a0 3c 0c cc 1e 3b c1 aa 4b 3c
       7.83877e-05 0.01953465 0.0024230508 0.012430848
000140 3b 59 15 3b a5 0b ca 3b 54 0e 0e bb e6 79 6a b9
       0.0022788781 0.006165939 -0.002167602 -0.0002236139
000150 91 86 89 bc 9d 13 c1 3c e1 d0 95 3b f5 ce 13 ba
       -0.0167878 0.023568923 0.0045720194 -0.0005638444
000160 18 11 a1 bb 13 b6 08 3c 4d 47 a0 3c 79 03 57 3c
       -0.004915368 0.008344191 0.019565249 0.013123387
000170 b1 41 04 3c 3b 5e 5e ba 8c 43 3d bb 52 02 ef bb
       0.008072303 -0.00084826694 -0.0028879372 -0.007293978
000180 25 2f 26 3c a0 f9 28 bb 70 83 ce 3c e0 ff 56 bc
       0.010143076 -0.0025783554 0.025209159 -0.013122529
000190 bc f2 c5 bb 27 99 03 ba b9 e0 85 bb 6e 96 4d 3c
       -0.006040899 -0.0005020075 -0.004085627 0.012548072
0001a0 44 13 43 3b c1 5e 05 bc 60 4d dc bb 26 85 b9 bb
       0.0029766122 -0.008140267 -0.006723091 -0.0056616245
0001b0 39 e9 a6 3b b8 64 3c bb 30 2d 27 bc a1 91 a9 bc
       0.0050937203 -0.0028746556 -0.010203645 -0.020699324
0001c0 8e b8 7c b8 65 c2 3f 3a 17 1a 8a 3b 65 9d 98 3b
       -6.0253362e-05 0.0007315039 0.004214536 0.0046574348
0001d0 e7 df e5 bb de 2a 94 bb d4 6c 65 bc 79 78 59 3b
       -0.0070152166 -0.0045217117 -0.014002997 0.003318338
0001e0 e5 b9 04 3c bf 69 ae 38 44 a8 4d 3c 04 95 33 3c
       0.008100961 8.316663e-05 0.012552325 0.010960821
0001f0 f6 ad c7 3c 5a ec 7d 3b d5 58 13 3d 4d 6d 8e 3c
       0.024374943 0.0038745613 0.03597339 0.017386103
000200 0e 84 d0 ba 07 ce bc 3b a6 5d fc 3a 87 08 da bb
       -0.0015908496 0.005761865 0.0019253984 -0.0066538486
000210 53 9f 23 3c f2 a5 27 bc ec 7f c3 bc b0 9c 89 3c
       0.009986716 -0.010232436 -0.023864709 0.016798347
000220 eb 67 a0 3b d9 ee eb 3c c3 65 9a bb da 32 26 bb
       0.0048952005 0.028800415 -0.004711838 -0.00253599
000230 1d fe 93 ba de 8b a8 ba 7d b2 67 3c 5f 49 a8 bc
       -0.0011290942 -0.0012859066 0.014141676 -0.020542799
000240 fd 4d 9c bb df aa 8f bc 9f 16 27 bb 72 b1 2a 3b
       -0.004770039 -0.017537532 -0.002549566 0.0026045707
000250 20 8b 83 3c dc d3 60 3c bb e6 01 3c df 5e 9e bc
       0.01605755 0.013722386 0.007928546 -0.019332347
000260 da dc 4f bc 64 d5 37 3a 71 25 b8 bb 34 47 09 bc
       -0.012686932 0.00070126937 -0.0056196977 -0.008378793
000270 dc 7b c0 3c ab 9d 89 3a 60 29 8f bb 8d 96 90 bb
       0.02349656 0.0010499259 -0.004368946 -0.0044124783
000280 ea e8 94 3c 4c 63 f7 3b 01 6a bd ba 1f 1d 9d bb
       0.018177468 0.007549679 -0.0014451147 -0.0047947313
000290 1e 94 df bc 24 74 cd ba 0a cc f1 3a 68 e4 0a 3c
       -0.027292307 -0.0015674871 0.0018447649 0.008477308
0002a0 aa a6 80 3c b1 93 ed ba 93 09 69 bc 28 0e 11 bc
       0.015704472 -0.001812568 -0.014223474 -0.008853473
0002b0 3e bb b9 bb 13 e6 81 3a bd 48 e5 3a ab 82 e7 bb
       -0.005668073 0.0009910486 0.0017492991 -0.0070651374
0002c0 a8 5c 25 3a 49 54 80 3c 5f d3 11 3b 00 c3 cb 3b
       0.00063080573 0.01566519 0.002225123 0.006218314
0002d0 22 ae af 37 f7 9d 24 3c 6d cf b8 bb 4b 7b 82 bc
       2.0942713e-05 0.010047427 -0.0056399615 -0.015927931
0002e0 19 8f f3 bb ff af 02 3b 3f bd 05 3b de d3 3e 3c
       -0.00743283 0.0019941328 0.002040699 0.011647193
0002f0 db 3f 0e bc ef ee b7 39 b3 d3 b5 ba e1 93 85 bb
       -0.0086822165 0.000350825 -0.0013872295 -0.0040764664
000300 32 51 8e bb 32 44 15 3d a8 8d 09 3c 49 81 55 3b
       -0.0043431753 0.03644199 0.00839559 0.003257828
000310 fd 24 2f 3c 8c 3c a7 ba d1 69 9b 3b 1c 9d 3d bb
       0.010689971 -0.0012759133 0.004742839 -0.0028932756
000320 0c 2c 9c bb 38 d9 29 bc ad 6a 5e 3c ef 41 ec 3c
       -0.004765993 -0.01036673 0.013575238 0.028840033
000330 a7 72 61 3a bc e3 77 bc 95 d3 80 bc f8 37 80 bc
       0.00086001534 -0.01512998 -0.01572589 -0.015651688
000340 ab 5f ae bb 53 b2 0f bc f8 1f 6d bb 57 00 7a 3c
       -0.005321463 -0.008770543 -0.0036182385 0.01525887
000350 68 f1 c6 3b 0f ea 53 3b 1d 27 b1 bb 2f 27 4d 3c
       0.0060712583 0.0032335555 -0.005406274 0.012521549
000360 ff 28 d6 b9 41 cd ce ba cf 1b 20 bb 92 9f 03 3c
       -0.00040847805 -0.0015777723 -0.0024430638 0.00803365
000370 b2 e8 08 bc 96 63 e4 3b 7b ff ef bb 89 5a 97 bc
       -0.00835626 0.0069698794 -0.007324157 -0.018475788
000380 03 6e 37 bc 8b 06 63 bc 2d 13 86 bc 49 cb d8 bb
       -0.011195662 -0.01385654 -0.016366566 -0.0066160304
000390 7f 7b ea 3b 7b f0 01 bc 7c d1 22 3b a8 37 cd bc
       0.007155835 -0.00793087 0.00248441 -0.025050953
0003a0 40 05 f3 3a 0c 3b 2a bc 6a 8e 80 3c fe 6c 63 3c
       0.0018540993 -0.010390054 0.015692908 0.013880966
0003b0 89 e8 ce bc fc ed 8c 3a ea a7 85 3c c4 ee 96 3c
       -0.025257366 0.0010752077 0.01631542 0.0184244
0003c0 94 19 8b bc 16 3f 62 3b ab df 01 3c bc 00 1f bc
       -0.01697997 0.0034522465 0.007926862 -0.009704765
0003d0 cb 75 b0 ba ee 5c 21 3c 2f cc 02 3d 93 0d f2 ba
       -0.0013462839 0.009848816 0.031933006 -0.001846718
0003e0 80 f0 ba bb df dc 12 3b a5 f2 2c bb 07 82 46 3b
       -0.0057049394 0.0022409481 -0.0026389745 0.0030289905
0003f0 5f 7b 8e bc ec f1 63 3c 2e 59 d3 bc 04 6b 8e bc
       -0.017392812 0.013912659 -0.02579936 -0.017385013

action_model._discrete_distribution.branches.1.bias f4 [2]
000000 8b 3b 00 bb 80 3b 00 3b
       -0.001956674 0.0019566715
