results/testsac2/AI Car.onnx (onnx, 9738 bytes, 9 tensors)

discrete_action_output_shape f4 [1, 2]
2.0 3.0
00000000: 0000 0040 0000 4040

network_body._body_endoder.seq_layers.0.weight f4 [20, 59]
0.17794365 -0.0053018527 0.10344932 -0.082622506 -0.22506498 -0.011548078 0.0645246 -0.10432719
-0.020786086 -0.039339937 -0.27895457 -0.06381609 0.120086536 0.2239318 0.17150569 -0.004609958
-0.030231265 -0.07226667 -0.13448189 0.006190663 -0.021673268 0.014750388 0.037055466 0.26297757
0.13729288 0.05806822 0.076795265 0.099087685 -0.025763625 -0.032340378 0.3609382 -0.0661774
0.116084054 0.19002995 0.062164776 -0.21959138 0.098617665 -0.20499453 0.0026468767 0.111010276
0.13601904 -0.15621616 0.0103679225 -0.061787892 -0.05872466 0.06526883 -0.14103718 -0.19454305
0.04956357 0.14675923 0.08761425 0.023748012 0.14617966 -0.08049788 -0.041163083 -0.010971858
0.25190306 0.060883485 -0.07584713 0.20780768 0.15051572 -0.005278451 0.09720954 0.14229423
0.1801709 -0.046447728 0.035128746 -0.0029148129 0.23773144 0.2435257 -0.08156605 0.11359558
0.001052368 -0.05121965 -0.004819751 -0.06774904 -0.111421406 -0.0074332603 0.1389722 0.14727218
0.2015722 0.03001572 -0.09598605 0.004583896 0.02052652 0.28083616 -0.15880938 -0.0111102145
-0.052703585 -0.22240408 0.107757226 -0.061573192 0.17416005 0.05118049 0.15278567 -0.07256631
0.020434061 0.17314339 0.13824414 0.033865947 -0.24149954 0.23521125 0.11427007 0.28382117
0.026548875 0.08191089 0.13535981 -0.040864617 -0.16993238 0.22330648 0.17207782 0.11561044
-0.21477547 -0.024170352 -0.07909015 -0.0977811 -0.0034116833 0.0443329 -0.055965926 0.09412264
-0.15211692 -0.20938496 -0.1447445 -0.07227045 0.2223923 -0.011310477 -0.17839772 0.096588135
-0.05199545 -0.08523294 0.09129532 0.06750831 0.18187214 -0.277025 0.20063367 -0.031794064
-0.030142598 -0.0588336 0.201998 -0.0490208 0.3059316 -0.19010201 0.1358366 0.01388918
0.034651563 -0.114921026 -0.2355635 -0.058190618 -0.106447026 -0.15790436 -0.077839546 0.15455167
-0.07239095 -0.083602324 -0.012665659 -0.10760844 -0.17509441 -0.0057565714 0.0014638829 0.18882658
-0.10088023 0.255299 0.19284855 -0.08820732 -0.17863992 0.0034609453 0.019361531 -0.06577614
0.0880744 -0.11041098 -0.074503295 -0.27468267 0.12466657 -0.1164476 0.06279946 0.03012913
0.11267268 -0.15674986 0.013124688 0.033244208 0.025723571 0.0071536726 -0.09835681 -0.057409078
-0.06850358 -0.08956985 0.060985677 0.08551682 0.10165723 0.13466412 0.021759233 0.123295
-0.048235983 -0.078069255 -0.02605346 0.13671805 0.2623128 -0.13097872 0.084741205 0.042723976
0.41045606 0.06464391 -0.23289856 -0.105121695 0.17667402 -0.15207209 0.027551398 0.13085155
0.11686789 0.15686512 -0.12358724 -0.03390852 -0.0068560364 0.09572332 -0.2636485 -0.13115537
-0.011631685 0.06625736 -0.17347038 0.13181609 0.1005793 -0.058649145 -0.31525314 -0.019239493
-0.20737296 -0.21894202 0.0044459864 0.14294046 -0.14137289 -0.023118071 -0.04975426 0.19129193
0.0008491444 -0.10676443 0.19044486 -0.031943377 0.23635098 0.03216045 0.12630467 -0.16343208
0.042631004 0.12667584 -0.087754324 -0.010054422 -0.07476764 -0.019510955 -0.028293142 -0.15377283
0.04546143 -0.16948766 0.10202534 0.060244724 -0.14734033 0.08312059 0.09778245 -0.016446253
00000000: dc36 363e 2abb adbb 3ddd d33d fd35 a9bd
00000010: 6f77 66be 2634 3dbc 7925 843d 7ea9 d5bd
00000020: 9547 aabc ea22 21bd 22d3 8ebe 03b2 82bd
00000030: eeef f53d 614e 653e 309f 2f3e 210f 97bb
00000040: 8fa7 f7bc 8c00 94bd 9fb5 09be 0cdb ca3b
00000050: 238c b1bc 9dab 713c 79c7 173d ffa4 863e
00000060: 8196 0c3e f1d8 6d3d d646 9d3d 7cee ca3d
00000070: 3d0e d3bc 5877 04bd e4cc b83e 0488 87bd
00000080: 7abd ed3d 3697 423e 7ea0 7e3d 90dc 60be
00000090: 0ff8 c93d 16ea 51be 3977 2d3b 5b59 e33d
000000a0: 9348 0b3e 21f7 1fbe 38de 293c 4d15 7dbd
000000b0: 4589 70bd aaab 853d 0d6c 10be 4b36 47be
000000c0: 2c03 4b3d 0d48 163e 1a6f b33d 318b c23c
000000d0: 1fb0 153e 13dc a4bd 9f9a 28bd 4fc3 33bc
000000e0: 70f9 803e f660 793d bd55 9bbd 89cb 543e
000000f0: cb20 1a3e dbf6 acbb cc15 c73d 94b5 113e
00000100: b87e 383e f93f 3ebd 29e3 0f3d 7206 3fbb
00000110: df6f 733e cd5e 793e 1a0c a7bd cda4 e83d
00000120: 9cef 893a b2cb 51bd 00ef 9dbb 02c0 8abd
00000130: e830 e4bd b592 f3bb ba4e 0e3e 85ce 163e
00000140: f168 4e3e 87e3 f53c 5694 c4bd 8234 963b
00000150: 3c27 a83c c2c9 8f3e ed9e 22be 9e07 36bc
00000160: b7df 57bd e5bd 63be d2af dc3d 2c34 7cbd
00000170: 0357 323e a2a2 513d d973 1c3e a59d 94bd
00000180: 5565 a73c 804c 313e df8f 0d3e 05b7 0a3d
00000190: a84b 77be 38db 703e 6d06 ea3d 0251 913e
000001a0: 077d d93c e6c0 a73d c39b 0a3e a861 27bd
000001b0: c102 2ebe 74aa 643e 2b35 303e 2bc5 ec3d
000001c0: 1aee 5bbe e700 c6bc 04fa a1bd 7541 c8bd
000001d0: 8c96 5fbb 6a96 353d 873c 65bd 5fc3 c03d
000001e0: 8ac4 1bbe 0369 56be e737 14be 8802 94bd
000001f0: cfba 633e 944f 39bc e4ad 36be 00d0 c53d
00000200: 2ef9 54bd 9c8e aebd 0af9 ba3d cc41 8a3d
00000210: b13c 3a3e 39d6 8dbe ea72 4d3e 7e3a 02bd
00000220: 9ced f6bc 80fb 70bd 90d8 4e3e 09ca 48bd
00000230: 11a3 9c3e 1aaa 42be c018 0b3e 718f 633c
00000240: ccee 0d3d b75b ebbd 8f37 71be 4959 6ebd
00000250: e600 dabd aeb1 21be 576a 9fbd cb42 1e3e
00000260: b541 94bd b237 abbd a083 4fbc d061 dcbd
00000270: f34b 33be 9fa1 bcbb c2df bf3a c15b 413e
00000280: 4b9a cebd 8db6 823e 177a 453e 0aa6 b4bd
00000290: 62ed 36be 07d1 623b 139c 9e3c a4b5 86bd
000002a0: 5a60 b43d 271f e2bd 2f95 98bd 35a3 8cbe
000002b0: 3051 ff3d 147c eebd 019d 803d 5ed1 f63c
000002c0: efc0 e63d 0983 20be ee08 573c 142b 083d
000002d0: 3dba d23c 5b69 ea3b 4c6f c9bd c825 6bbd
000002e0: 9b4b 8cbd 6670 b7bd 1ecc 793d 7123 af3d
000002f0: aa31 d03d 64e5 093e 6b40 b23c 1782 fc3d
00000300: 1893 45bd c6e2 9fbd 116e d5bc d1ff 0b3e
00000310: dd4d 863e 491f 06be cc8c ad3d 56ff 2e3d
00000320: 4c27 d23e 0764 843d f67c 6ebe 0b4a d7bd
00000330: 09ea 343e c9b8 1bbe 78b3 e13c f3fd 053e
00000340: 6f58 ef3d 40a1 203e 4f1b fdbd a9e3 0abd
00000350: 9aa8 e0bb 970a c43d f0fc 86be 984d 06be
00000360: d392 3ebc f0b1 873d 38a2 31be ccfa 063e
00000370: 85fc cd3d 163a 70bd dc68 a1be 249c 9dbc
00000380: 9459 54be 5632 60be a3af 913b fc5e 123e
00000390: 0ec4 10be 1c62 bdbc 1fcb 4bbd 08e2 433e
000003a0: 1e99 5e3a 4fa7 dabd fa03 433e 0fd7 02bd
000003b0: fe05 723e adba 033d 0356 013e bd5a 27be
000003c0: d99d 2e3d 50b7 013e 8ab8 b3bd 4dbb 24bc
000003d0: c71f 99bd 70d5 9fbc 05c7 e7bc a076 1dbe
000003e0: c435 3a3d 2c8e 2dbe a9f2 d03d 2cc3 763d
000003f0: 62e0 16be 213b aa3d 2a42 c83d 4bba 86bc

network_body._body_endoder.seq_layers.0.bias f4 [20]
0.0 0.02474124 -0.0032910206 8.606131e-26 0.030447949 0.0082888175 0.0041734735 0.0
1.451692e-16 -0.008437265 0.0 0.0 0.0 8.0463435e-30 0.0 3.010825e-32
-0.013693406 0.0033117626 0.060424604 0.008217256
00000000: 0000 0000 24ae ca3c 2aae 57bb d613 d515
00000010: fa6d f93c d2cd 073c a2c1 883b 0000 0000
00000020: 635e 2725 743c 0abc 0000 0000 0000 0000
00000030: 0000 0000 0133 230f 0000 0000 bb54 1c0b
00000040: 4f5a 60bc 280a 593b ca7f 773d aba1 063c

network_body._body_endoder.seq_layers.2.weight f4 [20, 20]
-0.3025353 0.17672439 -0.2095193 -0.14832531 -0.08599585 -0.1974345 0.42915216 0.00556243
0.007956767 -0.01985811 -0.27586955 -0.016928911 -0.17922327 0.19319911 0.09678328 -0.054717477
0.0031372455 -0.2982042 -0.0539704 0.4461375 0.1525552 -0.014474019 0.06759234 0.33696705
0.13637897 -0.38186762 0.044937346 0.2787767 -0.23166496 0.15378776 0.16948904 -0.07483864
-0.08575634 0.26167712 0.19490193 0.28421873 0.27297062 0.26664895 -0.2159182 -0.033099793
0.12137004 0.17205517 0.1661851 -0.10854139 0.24572589 -0.061543666 0.096037716 -0.007880121
0.06413563 -0.038552023 0.14982226 0.07955299 -0.16350374 -0.11280862 0.19062854 -0.11565371
-0.28863138 0.42833766 -0.010852388 0.048012212 0.43976656 0.3307249 -0.17626837 -0.24338028
0.51321685 0.06411971 0.07912187 0.21398649 0.10906922 -0.11511163 0.6787383 -0.085159995
0.09977015 0.25759232 0.45615134 0.00022861389 0.0633275 0.07500094 -0.119375035 -0.30813172
-0.05251806 -0.64085263 0.03466616 0.30311555 -0.045085035 0.10457267 0.11550421 0.029038064
0.1148579 -0.06968735 -0.22855708 -0.2787382 -0.14870238 0.34785706 -0.2011598 -0.056100886
-0.7344201 -0.021478152 0.048412364 0.08686764 0.12041775 0.1359899 -0.016990209 -0.017009344
-0.10102791 -0.058563937 -0.0038060707 -0.011574512 -0.21873075 -0.27498907 0.14976674 -0.07059477
-0.12145683 -0.062229283 -0.60869235 -0.16881368 -0.035611827 -0.1549876 0.34113613 0.06747862
0.3513864 -0.05138078 -0.2873801 0.39941195 0.43073156 0.25193384 0.010216092 -0.22392409
-0.056323305 0.33962217 -0.08384333 -0.10027568 0.027159348 -0.11622401 0.06961596 0.06487452
0.26828536 -0.05231166 0.039506536 0.11073669 0.22887768 0.13723148 0.20803408 -0.062657915
0.24793634 0.056845486 -0.3055666 0.02701996 -0.3851348 -0.2755326 0.061942376 -0.24016282
0.29211485 0.19131361 0.120228 0.11298729 -0.0060837325 0.16531937 0.32450882 0.32933012
0.1593631 -0.040581495 -0.004168106 0.14410217 0.26735142 0.42129466 0.19732668 -0.06401518
-0.16031294 -0.05445102 0.20533657 0.27031553 0.18950969 0.10539648 0.12362587 0.05910356
0.052858673 -0.019722685 0.23080069 0.17794178 0.72252333 -0.16455136 0.020569563 0.030899184
0.0011693634 -0.17578767 -0.18677811 -0.003811425 0.33699876 -0.23742433 0.11932051 -0.004664412
0.07330209 -0.08693292 0.06775445 0.108243644 0.23420887 0.45555407 -0.20020759 -0.362515
0.08277252 0.24975769 -0.22200434 0.22095996 0.19068967 0.03579845 0.41522807 0.10394311
-0.14748967 0.12780128 -0.35555628 -0.17643245 0.53304785 -0.19727674 -0.15455632 0.24173035
-0.3104654 -0.11125925 0.14955166 -0.025537983 -0.014523574 0.09327214 -0.16710864 -0.4751648
-0.25337356 -0.13490136 0.019251559 -0.17275654 -0.20555794 0.1644246 0.10153159 0.32819718
-0.06570232 -0.043828927 -0.14388914 0.24746028 -0.34419587 0.0032442822 0.088298574 0.15740377
0.18219243 0.16284771 -0.10854179 0.040195838 0.07606668 0.35771745 -0.16587567 0.071966186
-0.3410853 -0.25169572 0.035473295 0.2675697 0.0065256953 0.2167255 -0.15664631 0.44906068
00000000: e8e5 9abe 3df7 343e 3a8c 56be 97e2 17be
00000010: 981e b0bd 452c 4abe d5b9 db3e 0b45 b63b
00000020: 1a5d 023c 7aad a2bc c63e 8dbe 80ae 8abc
00000030: 4e86 37be fdd5 453e 5036 c63d 6f1f 60bd
00000040: 3f9a 4d3b 39ae 98be 1110 5dbd 226c e43e
00000050: 6e37 1c3e 7024 6dbc da6d 8a3d f286 ac3e
00000060: eea6 0b3e 2784 c3be 3910 383d d2bb 8e3e
00000070: 9439 6dbe 8a7a 1d3e 898e 2d3e 0045 99bd
00000080: 05a1 afbd 8bfa 853e 5f94 473e 1e85 913e
00000090: cec2 8b3e 3686 883e a919 5dbe a693 07bd
000000a0: db90 f83d 3b2f 303e 6d2c 2a3e f34a debd
000000b0: 919f 7b3e 3615 7cbd 6caf c43d 9f1b 01bc
000000c0: 8b59 833d bae8 1dbd 026b 193e aeec a23d
000000d0: 866d 27be 3508 e7bd 2134 433e dadb ecbd
000000e0: 7ec7 93be 134f db3e 37ce 31bc 74a8 443d
000000f0: 1529 e13e c654 a93e b27f 34be ae38 79be
00000100: 2e62 033f 3251 833d a60a a23d 461f 5b3e
00000110: af5f df3d a5bf ebbd cbc1 2d3f 5d68 aebd
00000120: 4b54 cc3d 24e3 833e ab8c e93e 13b8 6f39
00000130: d9b1 813d 189a 993d e67a f4bd 71c3 9dbe
00000140: 2d1d 57bd eb0e 24bf 1afe 0d3d f631 9b3e
00000150: 16ab 38bd 322a d63d 798d ec3d 3ce1 ed3c
00000160: 9e3a eb3d 3eb8 8ebd de0a 6abe c6b6 8ebe
00000170: 7045 18be 521a b23e d6fc 4dbe 0bca 65bd
00000180: f502 3cbf f3f2 afbc 0b4c 463d a9e7 b13d
00000190: 959d f63d f040 0b3e 0d2f 8bbc 2e57 8bbc
000001a0: b9e7 cebd bde0 6fbd 456f 79bb 06a3 3dbc
000001b0: f4fa 5fbe 5ecb 8cbe 745c 193e fe93 90bd
000001c0: 5cbe f8bd 22e4 7ebd 43d3 1bbf 7edd 2cbe
000001d0: b5dd 11bd 12b5 1ebe 65a9 ae3e 3b32 8a3d
000001e0: ebe8 b33e a774 52bd 7c23 93be b97f cc3e
000001f0: d988 dc3e 79fd 803e 6561 273c 5b4c 65be
00000200: 44b3 66bd f5e2 ad3e 0db6 abbd 565d cdbd
00000210: 487d de3c db06 eebd d092 8e3d efdc 843d
00000220: b35c 893e c044 56bd 9bd1 213d ebc9 e23d
00000230: e95e 6a3e 6986 0c3e e306 553e cb52 80bd
00000240: 06e3 7d3e d0d6 683d 3a73 9cbe f758 dd3c
00000250: 6330 c5be 9c12 8dbe 4ab7 7d3d 3eed 75be
00000260: 1490 953e b7e7 433e 193a f63d e165 e73d
00000270: 0c5a c7bb 7b49 293e 0526 a63e f59d a83e
00000280: 1530 233e c838 26bd 9b94 88bb 858f 133e
00000290: 49e2 883e efb3 d73e 0110 4a3e 641a 83bd
000002a0: 1329 24be 0808 5fbd c043 523e cc66 8a3e
000002b0: d40e 423e 1cda d73d 8f2f fd3d 9316 723d
000002c0: 5682 583d 7891 a1bc 0457 6c3e 5f36 363e
000002d0: 4af7 383f 2780 28be 8081 a83c 4920 fd3c
000002e0: 5345 993a af01 34be c342 3fbe 1ac9 79bb
000002f0: 1a8b ac3e 5d1f 73be 505e f43d ecd7 98bb
00000300: 681f 963d e309 b2bd d8c2 8a3d d8ae dd3d
00000310: 73d4 6f3e 623e e93e 3803 4dbe 919b b9be
00000320: a484 a93d 7bc0 7f3e 1b55 63be 5443 623e
00000330: 2744 433e 65a1 123d c698 d43e 20e0 d43d
00000340: 8807 17be 57de 023e 790b b6be b5aa 34be
00000350: d375 083f ea02 4abe 0344 1ebe 2988 773e
00000360: 52f5 9ebe e4db e3bd 1224 193e 0835 d1bc
00000370: 49f4 6dbc 7705 bf3d 871e 2bbe cd48 f3be
00000380: 2eba 81be 9523 0abe 72b5 9d3c 17e7 30be
00000390: c87d 52be ec5e 283e cbef cf3d 7609 a83e
000003a0: f08e 86bd f685 33bd ad57 13be 3a66 7d3e
000003b0: 713a b0be 069e 543b e2d5 b43d 742e 213e
000003c0: a790 3a3e 8dc1 263e 284b debd 64a4 243d
000003d0: d9c8 9b3d be26 b73e 50db 29be 0263 933d
000003e0: bca2 aebe 43de 80be 724c 113d e5fe 883e
000003f0: 80d5 d53b 4aed 5d3e e467 20be 48eb e53e

network_body._body_endoder.seq_layers.2.bias f4 [20]
-0.013232238 -0.0032659627 0.019182105 -0.0070315967 0.0 0.008494535 -0.012621986 0.021068523
0.007158912 -0.0016758544 0.008703108 0.0072234594 0.0051661963 5.585185e-26 2.1321259e-05 7.9874275e-16
0.020042976 0.009172354 -0.013482162 1.868227e-07
00000000: 07cc 58bc c309 56bb ca23 9d3c 4f69 e6bb
00000010: 0000 0000 aa2c 0b3c 72cc 4ebc e597 ac3c
00000020: 4e95 ea3b 58a8 dbba 7b97 0e3c c5b2 ec3b
00000030: 3249 a93b 5148 8a15 0edb b237 d038 6626
00000040: 2b31 a43c a447 163c 49e4 5cbc 6f99 4834

action_model._discrete_distribution.branches.0.weight f4 [2, 20]
-0.031663153 0.026012847 0.06332673 0.007620929 0.0245088 0.028979499 -0.028073538 0.07077028
0.023317443 -0.001805655 0.03531472 -0.0679336 -0.0012046207 -0.013433136 0.035546374 -0.007025624
0.042533893 0.032037735 0.0095313145 0.0064587854 0.009432038 0.03842522 -0.034396034 -0.0027097191
0.0067432816 -0.045656 -0.016589163 -0.052705936 -0.019674549 -0.022287931 -0.020986378 0.06808076
-0.06427555 0.0069132224 -0.027165633 0.04843935 -0.0052666264 -0.029382674 0.0060773524 0.04141826
00000000: 39b1 01bd e518 d53c 72b1 813d fcb8 f93b
00000010: aec6 c83c 6a66 ed3c 7afa e5bc 02f0 903d
00000020: 3904 bf3c baab ecba 2ba6 103d c520 8bbd
00000030: 5de4 9dba a816 5cbc 1399 113d 3537 e6bb
00000040: 0538 2e3d 003a 033d 3b29 1c3c 38a4 d33b
00000050: d688 1a3c c363 1d3d dbe2 0cbd 8b95 31bb
00000060: bff6 dc3b c901 3bbd ffe5 87bc 2ee2 57bd
00000070: 852c a1bc 2e95 b6bc a0eb abbc ed6d 8b3d
00000080: e6a2 83bd 5088 e23b 768a debc 5768 463d
00000090: aa93 acbb efb3 f0bc 8724 c73b 32a6 293d

action_model._discrete_distribution.branches.0.bias f4 [2]
0.012996757 -0.012996716
00000000: 5af0 543c 2ef0 54bc

action_model._discrete_distribution.branches.1.weight f4 [3, 20]
-0.022678422 -0.013250314 0.018014569 -0.04854418 -0.007265623 0.0006875669 -0.021731375 -0.01922948
0.0018968821 0.0018788185 -0.021792766 0.2343114 -0.009363525 -0.0008836483 0.018527329 0.033968754
-0.0076617897 -0.03661669 0.015571054 -0.00569906 0.008447994 -0.011912761 -0.03075103 0.018063249
-0.0035402328 0.024661647 -0.03057938 0.059318464 0.054729603 -0.0053481413 0.021027643 -0.15754464
0.00090126944 -0.018720321 -0.021601474 0.0250175 0.0001002934 0.0243851 -0.006488481 0.004924374
0.014836155 -0.02618813 -0.06128636 0.05135398 0.029732877 -0.04691164 -0.035825253 0.027858961
-0.06959002 0.032418974 -0.026269123 0.12262482 -0.00794307 0.02777282 0.055110082 0.009128912
-0.021438383 -0.018882655 -0.017486198 0.015202302
00000000: 19c8 b9bc d817 59bc 4a93 933c 43d6 46bd
00000010: 7714 eebb d53d 343a ff05 b2bc 2487 9dbc
00000020: cda0 f83a b042 f63a be86 b2bc 54ef 6f3e
00000030: 7869 19bc a2a4 67ba a0c6 973c d222 0b3d
00000040: c00f fbbb 62fb 15bd bc1d 7f3c 2ebf babb
00000050: 7469 0a3c be2d 43bc 96e9 fbbc 61f9 933c
00000060: 4003 68bb 3907 ca3c 9c81 fabc ebf7 723d
00000070: 262c 603d 763f afbb 2a42 ac3c 6253 21be
00000080: 2b43 6c3a 5c5b 99bc 93f5 b0bc 80f1 cc3c
00000090: 9c54 d238 43c3 c73c 539d d4bb a55c a13b
000000a0: 5813 733c 7d88 d6bc 6807 7bbd 8d58 523d
000000b0: 5d92 f33c 6b26 40bd 80bd 12bd 7a38 e43c
000000c0: 3685 8ebd c2c9 043d 5832 d7bc b922 fb3d
000000d0: a623 02bc d383 e33c 1cbb 613d 6f91 153c
000000e0: 8c9f afbc ccaf 9abc 373f 8fbc 1313 793c

action_model._discrete_distribution.branches.1.bias f4 [3]
-0.008509218 0.0068936525 -0.006764516
00000000: 3f6a 0bbc 26e4 e13b dfa8 ddbb
