results/testModel37/AI Car/AI Car-5172.pt (torch, 209020 bytes, 14 tensors)

discrete_act_size_vector f4 [1, 2]
00000000: 0000 0040 0000 4040
2.0 3.0

network_body._body_endoder.seq_layers.0.weight f4 [128, 62]
00000000: fcac 583d a160 08bd 453d a8bb b24c 3bbd
00000010: 7576 5abe 04ae c53e 7de1 7a3d 30f8 103c
00000020: fed4 553c 767f 173d 7882 873d 43da a1bd
00000030: 4b9b 873e 15f0 1fba 2767 b2bd 4564 12bd
00000040: 0bde 283e 0813 1cbc c2f4 b7bb d0de c5be
00000050: 25a1 203e b087 debd 4052 71bd 8695 253d
00000060: dd5d 3abc 244d 183e a28a fe3d d093 aa3c
00000070: 3ba1 bcbd 9b64 af3d 564f 8d3d f1c7 0ebe
00000080: f332 7a3e c659 b13d 7a4a 103e 92fb 983d
00000090: d771 ddbd 08c2 423e 757e 4e3c a7cc 1f3e
000000a0: 86f8 483e 3787 803d 0cd8 823d 6bbb e0bd
000000b0: 4007 aabd 2146 bbbd a9da 2ebd 5140 703d
000000c0: 13b8 75be 207a 563e cf72 5c3e 838f 753d
000000d0: 4813 c3bd c141 413e f68a ddbd 4833 013d
000000e0: 33c2 bdbd d84f 6d3c b9f9 febd 5e1f 26bc
000000f0: 479d 4ebc b25a 8c3c 71f0 32be a9b7 173e
00000100: 248c 3f3e fb82 163c 769d f53d f54c 923d
00000110: 2a26 babd 50e6 c9bd 17ce 78bd 7031 b33d
00000120: 48a1 d73e 0f74 913d 8334 973d 9b30 0e3e
00000130: 5f8b f836 844e adbd 0067 193d 383e 7fbd
00000140: 166f 3a3e 4af3 843e a563 4cbe fdc2 113e
00000150: 4e35 d13d 9742 cf3c af21 1bbd 95f4 26bd
00000160: ab40 8d3c 48c8 f9bc f254 edbd 07c4 6dbd
00000170: a830 ffbd 858a 363d a8c2 f2bd d200 31be
00000180: 00c1 2c3d 3605 043e 09b2 2a3d 3af2 16be
00000190: 83fc 0ebd b6b5 c93b 2796 703e c1cc e43d
000001a0: 8214 3fbc 1b8f 563e bbd3 25bd 8256 893e
000001b0: 9413 723e 08e8 eabd cc9c 9c3d 6344 113d
000001c0: 9674 0f3e ccaa efbd 977a e73d 4ba4 16be
000001d0: 7160 7d3e 11a6 ed3d 474c 4dbe 7fb4 233e
000001e0: 3a5e 80be 40a7 6b3e 191b 25be c30a f43a
000001f0: 69b8 6e3e abf9 7c3e fb79 c13c 4b0c 753d
00000200: beaf 15bd 059b bebb 8431 863e fc49 1a3e
00000210: 8576 d13d 68fe 9ebd 0f21 893e 637e 913d
00000220: 3f81 d13d 8792 70bd 77bd c5bc ec0c 04bc
00000230: a99f 6dbd 74c7 353e 8966 623d d062 bd3d
00000240: 40e7 d2bd b716 94bb 956c f93d 312e 1dbd
00000250: 1756 023e 446f 3ebd cf44 0b3b ad4a 243d
00000260: 0865 203d b33f 1b3c d87c 623d 2cf2 0e3e
00000270: d7bb 58bd a589 3a3c 73cb 0a3e 45db b03c
00000280: b9e9 c1bc 1642 1f3e 872f 173e f362 c23d
00000290: 3fd8 45bd 9cba f6bd c26d 70be 64a9 bdbd
000002a0: 4064 a03d 0f45 d23d 3636 0e3e 5eb9 6a3d
000002b0: bab0 363d 8b1f 473e c465 bbbd 6fdf 93bd
000002c0: e7cc bebd a47e ce3d 48bf 4d3d 9183 b6bc
000002d0: 3bcc e63d 3908 ca3d cf81 b93d a909 6c3d
000002e0: 62c9 983d c440 a5bd d9e1 90bd 9a5d 883e
000002f0: f7b4 e63d 9570 253d e7fe 41bd 3e01 9a3d
00000300: 69c0 67be e9be c8bc 06f8 b8bd 63fa d0bd
00000310: e8ce 883d 9749 f53d 6eba 79bd e9ff 2cbc
00000320: 13b3 fc3d 21f9 a73d 92c2 cfbd 141a 2fbd
00000330: 7ca6 913d 263e a33c 06d9 1c3c 97a8 1c3e
00000340: 09fa 21bd cd3a 0c3b 3f0d c4bc be99 07be
00000350: 0e50 723e a462 263e 149c 8fbd 41ab 7dbc
00000360: fcb3 ea3d 4a2c c7bd 8a98 473d cc16 cd3d
00000370: 6bd2 ac3c 2f52 32be 5ace c83c c00d 813e
00000380: 5b3e 4e3d 8c62 74bd ac8b d8bd 9a1e 14be
00000390: f9e5 d3b9 239c bdbd 3f35 19bd 66a8 46bd
000003a0: f494 abbe d463 6c3e d012 b9be ba40 813e
000003b0: 1d1e 923e 6ae1 873e 0000 5fbe 1522 313d
000003c0: 80f6 86be eb85 94be 1ad6 d63d fb7f e8bd
000003d0: 6b3f 8abd e09e 4a3e d695 893e feb5 a53d
000003e0: 76b8 80ba c487 c83d 0d10 84bc 6200 263e
000003f0: 027d a5bd 28ce 04bd 5138 bcbd 6b3c 8bbd
0.052899346 -0.033295278 -0.005134257 -0.04572744 -0.2133425 0.38609326 0.0612502 0.008848235
0.01305127 0.03698679 0.06616682 -0.07902958 0.26485667 -0.00061011437 -0.08711081 -0.035740156
0.16490953 -0.009526022 -0.005613894 -0.38646555 0.15686472 -0.10865724 -0.05891633 0.0404258
-0.011374918 0.14873177 0.12428786 0.020822436 -0.0921044 0.08564111 0.06899898 -0.13943459
0.24433498 0.08659701 0.1409091 0.07469858 -0.10812729 0.1901933 0.012603392 0.15605412
0.19626054 0.0627579 0.06388864 -0.10973247 -0.08302164 -0.091442354 -0.042689 0.058655087
-0.23996 0.20945024 0.21528171 0.059951317 -0.09525162 0.1887274 -0.1081752 0.031543046
-0.09265556 0.014484368 -0.124499746 -0.010139314 -0.01261074 0.01713309 -0.17474534 0.14816155
0.18705803 0.009186502 0.11992924 0.07143585 -0.090893105 -0.09858382 -0.060743418 0.08749664
0.42115235 0.071022145 0.07383063 0.13885729 7.407201e-06 -0.08462241 0.037451744 -0.062315196
0.18206438 0.25966865 -0.19959886 0.14234538 0.10215245 0.025300307 -0.03787392 -0.040760595
0.01724275 -0.03049101 -0.11588468 -0.058048274 -0.12460452 0.044565696 -0.11853534 -0.17285469
0.042176247 0.12892613 0.041673694 -0.1474084 -0.034908783 0.006155695 0.23494779 0.11171866
-0.011662604 0.20953028 -0.040485125 0.26823813 0.23640281 -0.11470038 0.07647094 0.03546561
0.14009318 -0.11702499 0.11302679 -0.1471111 0.2474382 0.1160394 -0.20048629 0.15986823
-0.2507189 0.2301302 -0.16123618 0.001861893 0.23312534 0.24704616 0.023617735 0.059826177
-0.036544554 -0.0058168196 0.26209652 0.15067285 0.10227684 -0.07763368 0.26783034 0.071041845
0.1022973 -0.05873349 -0.024138195 -0.008059721 -0.058013592 0.17751867 0.055273566 0.092473626
-0.10298014 -0.0045193094 0.121789135 -0.03837413 0.12728153 -0.04649283 0.002125073 0.04011028
0.03915885 0.009475636 0.05529484 0.13959569 -0.052913513 0.011385356 0.13554172 0.02158893
-0.023671018 0.15552554 0.14764224 0.09491529 -0.04830193 -0.12047312 -0.2347937 -0.09260824
0.07831621 0.10267078 0.13887867 0.057305686 0.044602133 0.19445626 -0.0915027 -0.07220351
-0.09316426 0.100827485 0.05023125 -0.022279533 0.112694226 0.098648496 0.09057962 0.0576264
0.07460286 -0.08068994 -0.07074327 0.26633912 0.11264985 0.04039057 -0.047362234 0.07519768
-0.22631992 -0.024505096 -0.09031682 -0.102040075 0.06680089 0.11976927 -0.06096881 -0.010559061
0.12338843 0.082018144 -0.10144533 -0.04274948 0.071118325 0.019927096 0.009573227 0.15298687
-0.039545093 0.0021397353 -0.023932097 -0.13242242 0.23663351 0.16248566 -0.070121914 -0.015482725
0.114601105 -0.09725244 0.048729457 0.10014114 0.021096429 -0.17414163 0.024512459 0.25205803
0.050352436 -0.059664294 -0.10573515 -0.14464799 -0.000404164 -0.09258296 -0.037404295 -0.04850044
-0.3351208 0.23084956 -0.36147165 0.25244695 0.285386 0.26539165 -0.21777344 0.043245394
-0.2635994 -0.2900842 0.104900554 -0.11352535 -0.06750377 0.19787169 0.26872128 0.08091353
-0.0009820599 0.0979152 -0.016120935 0.16211084 -0.08080484 -0.03242317 -0.09190429 -0.06798633

network_body._body_endoder.seq_layers.0.bias f4 [128]
00000000: 0000 0000 0000 0000 0000 0000 0000 0000
00000010: 0000 0000 0000 0000 0000 0000 0000 0000
00000020: 0000 0000 0000 0000 0000 0000 0000 0000
00000030: 0000 0000 0000 0000 0000 0000 0000 0000
00000040: 0000 0000 0000 0000 0000 0000 0000 0000
00000050: 0000 0000 0000 0000 0000 0000 0000 0000
00000060: 0000 0000 0000 0000 0000 0000 0000 0000
00000070: 0000 0000 0000 0000 0000 0000 0000 0000
00000080: 0000 0000 0000 0000 0000 0000 0000 0000
00000090: 0000 0000 0000 0000 0000 0000 0000 0000
000000a0: 0000 0000 0000 0000 0000 0000 0000 0000
000000b0: 0000 0000 0000 0000 0000 0000 0000 0000
000000c0: 0000 0000 0000 0000 0000 0000 0000 0000
000000d0: 0000 0000 0000 0000 0000 0000 0000 0000
000000e0: 0000 0000 0000 0000 0000 0000 0000 0000
000000f0: 0000 0000 0000 0000 0000 0000 0000 0000
00000100: 0000 0000 0000 0000 0000 0000 0000 0000
00000110: 0000 0000 0000 0000 0000 0000 0000 0000
00000120: 0000 0000 0000 0000 0000 0000 0000 0000
00000130: 0000 0000 0000 0000 0000 0000 0000 0000
00000140: 0000 0000 0000 0000 0000 0000 0000 0000
00000150: 0000 0000 0000 0000 0000 0000 0000 0000
00000160: 0000 0000 0000 0000 0000 0000 0000 0000
00000170: 0000 0000 0000 0000 0000 0000 0000 0000
00000180: 0000 0000 0000 0000 0000 0000 0000 0000
00000190: 0000 0000 0000 0000 0000 0000 0000 0000
000001a0: 0000 0000 0000 0000 0000 0000 0000 0000
000001b0: 0000 0000 0000 0000 0000 0000 0000 0000
000001c0: 0000 0000 0000 0000 0000 0000 0000 0000
000001d0: 0000 0000 0000 0000 0000 0000 0000 0000
000001e0: 0000 0000 0000 0000 0000 0000 0000 0000
000001f0: 0000 0000 0000 0000 0000 0000 0000 0000
0.0 0.0 0.0 0.0 0.0 0.0 0.0 0.0
0.0 0.0 0.0 0.0 0.0 0.0 0.0 0.0
0.0 0.0 0.0 0.0 0.0 0.0 0.0 0.0
0.0 0.0 0.0 0.0 0.0 0.0 0.0 0.0
0.0 0.0 0.0 0.0 0.0 0.0 0.0 0.0
0.0 0.0 0.0 0.0 0.0 0.0 0.0 0.0
0.0 0.0 0.0 0.0 0.0 0.0 0.0 0.0
0.0 0.0 0.0 0.0 0.0 0.0 0.0 0.0
0.0 0.0 0.0 0.0 0.0 0.0 0.0 0.0
0.0 0.0 0.0 0.0 0.0 0.0 0.0 0.0
0.0 0.0 0.0 0.0 0.0 0.0 0.0 0.0
0.0 0.0 0.0 0.0 0.0 0.0 0.0 0.0
0.0 0.0 0.0 0.0 0.0 0.0 0.0 0.0
0.0 0.0 0.0 0.0 0.0 0.0 0.0 0.0
0.0 0.0 0.0 0.0 0.0 0.0 0.0 0.0
0.0 0.0 0.0 0.0 0.0 0.0 0.0 0.0

network_body._body_endoder.seq_layers.2.weight f4 [128, 128]
00000000: 9e2b 90bd 7e7e 28be c551 62bd ea55 a03d
00000010: 4d04 463d 1ffb 45be 4252 06be c1ac 3a3d
00000020: c4d2 2a3e 8262 99bc 13b5 bcbd abdf 8fbc
00000030: 41af 77bc 90a0 c9bc ccb6 863d fb06 20be
00000040: 017e 3a3e 1dc1 633d 56a7 29bd fa1a cfbc
00000050: 7893 a9bd 95c9 a4bd 1f88 ef3c 6550 c5bd
00000060: f9e6 953d 0c9d 783d f669 38be edb9 62bd
00000070: fd33 0cbd ba53 2a3e 11b5 8a3d 7851 613d
00000080: 3bd1 0b3e db6c b2bd 799a 70bd ce91 333c
00000090: 2c77 563e 6e1c 00be b4a9 abbd 7103 61bd
000000a0: a939 c23b 0e3e f3bd bfc1 72be 863d 2bbc
000000b0: 18cd 9c3c ae16 993c 8947 cdbb 8d0e 253d
000000c0: 1321 53bd 2eb5 d03d 8d59 093e 2870 343d
000000d0: 1f08 c63c ead2 f93b 5b22 a0bb a26f ed3c
000000e0: 36b7 ddbd 618e ea3c 2770 f13b a984 a9bd
000000f0: cf8f 32be 5f56 d9bc 2913 e9bc 78e9 c3bd
00000100: 3115 603e 58e2 7a3d c275 53bd 92c0 b5ba
00000110: 7412 1c3d 9417 f33b 238d 67bc c89a 263e
00000120: 5dec 793d 40e5 b1bd 0233 883d 626c 453c
00000130: 2094 293d c7bc ccbc ee52 90bd 2b57 16bd
00000140: 1a75 db3c 8e42 223c 8713 ccbd f1cf 973d
00000150: e826 c43d 62c6 8abc faa8 df3c 1847 fb3d
00000160: 719f 0e3e cb7f 243e 39e2 0bbd ede9 bfbd
00000170: d6c0 dc3c 1425 16be d5ca a2bd cfab 2d3e
00000180: 09e0 f13c b637 86bc 1339 c5bc 8547 d73d
00000190: a2da 033c 1e0c 233e 0ed9 3c3c 5220 94bd
000001a0: 3fe8 0c3e 9eb9 37bd 8f09 0b3e 1d6b 45be
000001b0: 885a 943d c345 113d eee9 893c 3a40 aebd
000001c0: 8486 ed3c 3fe8 083e 3f44 babd f612 623c
000001d0: 5dca 97bc 7bb8 91bc f451 a4bd d197 43bd
000001e0: 0e63 483c a6c7 e8bc 2cf2 6bbd 408b 28be
000001f0: 0505 eabd 05ce 863d 288f 133d f2d3 c93c
00000200: 0a95 47bd df26 c6bd 74ac 203b 2ef6 bfbd
00000210: 9aa7 b83d 331a 143d c695 5fbc 0d48 993c
00000220: f521 463d 87aa 153e b0f5 fa3d 8904 ee3b
00000230: 156d bbbc b25f ffbd 1886 7dbd a1c8 8a3c
00000240: 0eba d6bd f11e 45be 08f5 bf3c 74b2 123e
00000250: 0ad7 b5bd e81a 99bd f059 803d 6753 a63c
00000260: 6d23 cb3d dbf0 003d 8f05 2abe f728 aebd
00000270: 6a65 30bb 90c5 ed3c 3319 a33d a51f b7ba
00000280: 8a74 35bc eb13 9c3d c9d9 8b3d 9a78 603d
00000290: 85c2 cabd a0bc b9bd 41bf 0abe 1480 023e
000002a0: 1a66 0abe 27d9 dd3d f80d d9bd 5359 98bc
000002b0: cfec 72bd 056c 84be 9c20 603d 4a5a f7bd
000002c0: 475d 9d3d 90ae 82bc 0d9d 4d3d e194 12bd
000002d0: bf29 f4bc c0df d13c 0701 a83d 97a9 0a3e
000002e0: 1d58 0fbd d0cb 013e ae02 f93c 732e b63c
000002f0: e190 073e 7f1a d8bc 146a 83bd d862 6bbd
00000300: edf1 a2bd ab31 a73b 9808 113d 2db8 e93b
00000310: 0e41 c1bc 753f f33c 59fd 89bd 91d9 ca3d
00000320: 9538 18bd 98c9 253d 6f7b c63d 2666 babb
00000330: bd5e 8cbd f391 f0bc d54c 0dbc f3a0 5ebc
00000340: 2dcc ccba b62a 28be 2cae 773e 74f9 8e3d
00000350: 1f8d 1cbe 65ad 9ebd b8f0 0dbd 742c 96bb
00000360: f6dc 3bbd 54a6 06be 4e54 583d 0597 9a3d
00000370: 6098 6fbd 504e 61bc 8d3c 30bd cfdf 2abb
00000380: 6de6 8a3d ac71 353d 75d2 e03c aeb2 06be
00000390: 0c91 f63b 4f56 78bd dcfe bb3d d68d 223d
000003a0: ba4a 00be 8665 ab3c 168f 873d 381d 683d
000003b0: 68f6 99bc a98b 8dbe b8d1 b8bd e001 cfbd
000003c0: 505f be3d 33b3 21be c353 663d 09c7 fcbc
000003d0: 7d58 893d 44ac 623d c061 36be ef6d 02bc
000003e0: 9506 573e 85e0 6cbd 9467 c93d 6750 42bb
000003f0: e3fb 3bbb a4ab a13d f2a6 043d 46bd 02be
-0.07039569 -0.16454503 -0.055253763 0.07828887 0.048343945 -0.19334076 -0.13117316 0.045574907
0.16681963 -0.01872373 -0.09214225 -0.017562708 -0.015117467 -0.024612695 0.065778345 -0.15627663
0.18212129 0.05560409 -0.04141935 -0.025281418 -0.082800806 -0.08046261 0.029239712 -0.09634475
0.07319445 0.060696647 -0.18009171 -0.055353094 -0.034229267 0.16633502 0.06772817 0.055009335
0.13654034 -0.08712169 -0.058741067 0.0109600555 0.20943898 -0.12510845 -0.08381978 -0.054934923
0.005927284 -0.1187707 -0.23706721 -0.01045168 0.019140765 0.018687572 -0.006264631 0.04029708
-0.051545214 0.10190807 0.13413067 0.044052273 0.024173794 0.00762402 -0.004886908 0.028983895
-0.1082596 0.028632345 0.007368106 -0.08277256 -0.17437671 -0.026530443 -0.02845152 -0.09566015
0.21883084 0.061251014 -0.051625974 -0.0013866595 0.038103536 0.007418582 -0.014132771 0.16269982
0.06101643 -0.08686304 0.06650354 0.012049766 0.04140103 -0.02499236 -0.070470676 -0.036704224
0.026789237 0.009903563 -0.09964662 0.074127086 0.09577733 -0.0169403 0.027302254 0.122694194
0.1392801 0.16064374 -0.03415129 -0.0937079 0.02694742 -0.14662582 -0.079488434 0.16960071
0.029525774 -0.016383987 -0.024075067 0.10511688 0.008047732 0.15922591 0.011526359 -0.07232727
0.1376047 -0.044854753 0.13577865 -0.19279142 0.0724383 0.03546692 0.01683518 -0.08508344
0.028994806 0.13369845 -0.09095048 0.013798466 -0.018529112 -0.017788162 -0.08023444 -0.047752205
0.012230648 -0.028415512 -0.057604 -0.1645937 -0.11426739 0.06582264 0.036025196 0.024637196
-0.04872612 -0.09675383 0.0024516853 -0.09373127 0.090163425 0.036157798 -0.013646549 0.018711114
0.048372228 0.14615832 0.122538924 0.007263724 -0.022879163 -0.12469424 -0.06189546 0.01694137
-0.10484706 -0.19250084 0.02343227 0.14325887 -0.08878906 -0.07475835 0.06267154 0.020303441
0.09918866 0.031479698 -0.16603683 -0.08503907 -0.0026915916 0.02902487 0.07963791 -0.0013971223
-0.011075148 0.076209866 0.068286486 0.054802515 -0.09900383 -0.090691805 -0.1354952 0.1274417
-0.13515511 0.10832434 -0.105983675 -0.01859728 -0.05930787 -0.25863662 0.0547186 -0.12077768
0.07683807 -0.015952379 0.050198603 -0.035786513 -0.029805062 0.025619388 0.08203321 0.13541256
-0.03499614 0.12675405 0.030396786 0.022238946 0.1323886 -0.026379822 -0.06416717 -0.05746731
-0.079563 0.0051023564 0.035408586 0.007132551 -0.02359059 0.029693345 -0.06737775 0.09904779
-0.037163336 0.040475458 0.09691512 -0.0056884466 -0.068540074 -0.029366469 -0.008624275 -0.013588178
-0.0015624814 -0.16422543 0.24187535 0.06981173 -0.15288208 -0.07747916 -0.034653395 -0.004582936
-0.04586502 -0.13149387 0.052814774 0.07548336 -0.058494925 -0.013751581 -0.043026496 -0.0026073342
0.067822315 0.04429786 0.027444104 -0.13154098 0.007524615 -0.060629185 0.0917947 0.039686047
-0.12528506 0.020922434 0.06619088 0.05666849 -0.018794253 -0.27645615 -0.09024376 -0.101077795
0.09295523 -0.15791015 0.056232225 -0.030856626 0.06706331 0.055340067 -0.17810726 -0.0079607805
0.20998605 -0.057831306 0.09834209 -0.0029649974 -0.0028684072 0.07894066 0.032385774 -0.12767515

network_body._body_endoder.seq_layers.2.bias f4 [128]
00000000: 0000 0000 0000 0000 0000 0000 0000 0000
00000010: 0000 0000 0000 0000 0000 0000 0000 0000
00000020: 0000 0000 0000 0000 0000 0000 0000 0000
00000030: 0000 0000 0000 0000 0000 0000 0000 0000
00000040: 0000 0000 0000 0000 0000 0000 0000 0000
00000050: 0000 0000 0000 0000 0000 0000 0000 0000
00000060: 0000 0000 0000 0000 0000 0000 0000 0000
00000070: 0000 0000 0000 0000 0000 0000 0000 0000
00000080: 0000 0000 0000 0000 0000 0000 0000 0000
00000090: 0000 0000 0000 0000 0000 0000 0000 0000
000000a0: 0000 0000 0000 0000 0000 0000 0000 0000
000000b0: 0000 0000 0000 0000 0000 0000 0000 0000
000000c0: 0000 0000 0000 0000 0000 0000 0000 0000
000000d0: 0000 0000 0000 0000 0000 0000 0000 0000
000000e0: 0000 0000 0000 0000 0000 0000 0000 0000
000000f0: 0000 0000 0000 0000 0000 0000 0000 0000
00000100: 0000 0000 0000 0000 0000 0000 0000 0000
00000110: 0000 0000 0000 0000 0000 0000 0000 0000
00000120: 0000 0000 0000 0000 0000 0000 0000 0000
00000130: 0000 0000 0000 0000 0000 0000 0000 0000
00000140: 0000 0000 0000 0000 0000 0000 0000 0000
00000150: 0000 0000 0000 0000 0000 0000 0000 0000
00000160: 0000 0000 0000 0000 0000 0000 0000 0000
00000170: 0000 0000 0000 0000 0000 0000 0000 0000
00000180: 0000 0000 0000 0000 0000 0000 0000 0000
00000190: 0000 0000 0000 0000 0000 0000 0000 0000
000001a0: 0000 0000 0000 0000 0000 0000 0000 0000
000001b0: 0000 0000 0000 0000 0000 0000 0000 0000
000001c0: 0000 0000 0000 0000 0000 0000 0000 0000
000001d0: 0000 0000 0000 0000 0000 0000 0000 0000
000001e0: 0000 0000 0000 0000 0000 0000 0000 0000
000001f0: 0000 0000 0000 0000 0000 0000 0000 0000
0.0 0.0 0.0 0.0 0.0 0.0 0.0 0.0
0.0 0.0 0.0 0.0 0.0 0.0 0.0 0.0
0.0 0.0 0.0 0.0 0.0 0.0 0.0 0.0
0.0 0.0 0.0 0.0 0.0 0.0 0.0 0.0
0.0 0.0 0.0 0.0 0.0 0.0 0.0 0.0
0.0 0.0 0.0 0.0 0.0 0.0 0.0 0.0
0.0 0.0 0.0 0.0 0.0 0.0 0.0 0.0
0.0 0.0 0.0 0.0 0.0 0.0 0.0 0.0
0.0 0.0 0.0 0.0 0.0 0.0 0.0 0.0
0.0 0.0 0.0 0.0 0.0 0.0 0.0 0.0
0.0 0.0 0.0 0.0 0.0 0.0 0.0 0.0
0.0 0.0 0.0 0.0 0.0 0.0 0.0 0.0
0.0 0.0 0.0 0.0 0.0 0.0 0.0 0.0
0.0 0.0 0.0 0.0 0.0 0.0 0.0 0.0
0.0 0.0 0.0 0.0 0.0 0.0 0.0 0.0
0.0 0.0 0.0 0.0 0.0 0.0 0.0 0.0

action_model._discrete_distribution.branches.0.weight f4 [2, 128]
00000000: 7f0c 20bc 83e8 d6bb 3b55 eebb fde4 763c
00000010: 925b 3abc 8729 c13a 1ff6 123b 7b72 833c
00000020: 5aea e4b9 8991 803c 15b2 1dbc db8e 4e3c
00000030: 5c8e 123c 4f33 c6bb b639 42bc 2380 c3bc
00000040: caaf 4e3c b41e bd3b 3f6f 3dbc f086 aebb
00000050: ab8e 663b c07b fabb 9b5b b7ba 9855 d93b
00000060: 9a0c e73b 0c76 babb f169 18bc a563 dd3b
00000070: 7527 f1ba 238c 86bb a5fe 39bc a1d9 063c
00000080: bd7b 65bc 69c3 863c 086e b7bb 13e6 75ba
00000090: 6b47 1e3c b3a5 97bb 2be3 143c bb04 463c
000000a0: da3a 323c 876f bcba 4053 9d3a fd53 883a
000000b0: 0adf 16bc 0963 a33c bf23 57bb 3931 4c3a
000000c0: 7584 4bba 13f4 15bc 18d0 9dbc dfa7 9b3c
000000d0: 20de 433b 9656 15bc 0862 5dbc 1342 34bc
000000e0: 8082 76bc 208a bdbb 65e3 50bc 6f0d 4cbc
000000f0: f3bc 97bc 2362 44bb 7704 4b3c 5900 8ebb
00000100: 7b54 06bb db9f 09bc 8723 803c 388c a13a
00000110: b530 bbba 9b1a 0e3b db35 473c 22da 54bb
00000120: 7a60 d2bc ba53 8839 2244 fcba f763 00bc
00000130: d7d8 18bc 57ef 5bbb ae65 153c cc2d 8abb
00000140: 13df 9ebb 3479 033c c8b1 733c ce9f 193c
00000150: 5b04 2dbb d971 0e3c d742 37ba 373a d7b8
00000160: f871 be3b 3fac 733a 5bcd d83b 0f53 8dbb
00000170: c7ee d93b e7fc 523c 9626 053c c27e bdbb
00000180: afc7 24bc 0504 4f3b 5197 aa3b 2548 dbbb
00000190: c302 3a3c 19ce 123c f932 1aba e708 cbbb
000001a0: 0350 db3b 1a6b 493a 63c3 11bc 5333 05bc
000001b0: 31f8 2a3c 0bc9 21ba 8254 ac3c fa52 b33b
000001c0: 83a3 a03b 20a8 1dbc 2b71 dcbb 9f9c 95bb
000001d0: 4db8 aebb e7ce cf3b f565 f0b9 0582 7aba
000001e0: 0778 ad38 3e7a 89ba 40e5 bc3b d162 993b
000001f0: 9517 d2bb a23e aa3b 7a3b 973b 0350 bd3b
00000200: ff69 603b af63 43bb 9a9a f73b 9253 17bc
00000210: 0cd2 20bb e060 10bc 8a3a 6f3c 0332 28bc
00000220: ffde cfbb 0668 c8bb b073 aebb d73a 443c
00000230: e35e 3fbc 3a61 fa3b 029b 20bc 738e 213b
00000240: 1c5e 963c b7b4 183c 3597 c53b 0240 7bbc
00000250: 2b71 483c 97e1 a1bb 5172 8a3c d08d 37bc
00000260: 5560 0fbb abe9 473b 4afd 69bc 6d4a 4fbc
00000270: efd0 c3ba 7bc6 2d3b e2f7 d73b 1954 41bc
00000280: 9af8 c63a df51 02bc 74e5 0dbb 03ca 893a
00000290: 8bed 8f3b d58e 6c3c e74c 283b 5d30 b7bb
000002a0: 6f73 8eba 77f3 69bb 9e4b 99bb 3a15 fe3b
000002b0: 29ee c13b bb39 3ebb 352e f4bb 85da 653b
000002c0: 71c0 21bc 0013 a3bb ed34 fa3b 4d23 12ba
000002d0: 3e1f 40ba 77d3 f63b 65be 673b d844 de38
000002e0: 7657 243c bfe5 3a3c e330 e9ba dbb1 f23b
000002f0: 3ba1 b13b 12d6 ee38 1bc3 8b3a fe1e 04bc
00000300: b2a2 7ab8 c492 b2ba 55e7 393c 81d9 b7ba
00000310: fff0 353c 8845 343c 05e5 4d3c 5806 5bbb
00000320: f4b8 bd3b a793 d13b 4466 b3bb 8771 adbb
00000330: f338 df3b ef1e 28bc 4123 01bc 2097 013c
00000340: a323 be3a 971b 28bb c314 433c 8eba 4a3a
00000350: 8a98 1ebb 1e08 9dbb 587c 543c 2731 01bc
00000360: b7f8 213c c72f a33b 2f63 8f3b 554c 51bc
00000370: a25e 0cbc 7620 373b c82c 90bb 1729 c13b
00000380: 87a9 e6ba 6074 db3b 0c9b 1f3c c56a 713b
00000390: 40c5 98bb 3c4a a8bb f03b a2bb 77e3 0438
000003a0: 9253 bcbb f2be 403c 8a1b 4dbc fb57 61bc
000003b0: d273 fdbb d84d 963b 7b46 c23c bffd d4b9
000003c0: 8843 d6bb f87a 583c b264 c139 05b8 cabb
000003d0: cad6 3cbc 9685 80bc 0bce 71bb 0e12 2a3b
000003e0: 7f51 673b 4039 443c 5b85 afbc 1b03 013c
000003f0: 0668 8bbc 3758 853b df1c 6abb 1a0b 753a
-0.009768604 -0.0065584793 -0.007273344 0.0150692435 -0.011374371 0.0014737108 0.0022424532 0.0160458
-0.00043662154 0.015694397 -0.009624978 0.012607302 0.008945074 -0.006048597 -0.01185458 -0.023864811
0.012615154 0.0057714824 -0.011562168 -0.0053261444 0.0035180252 -0.0076441467 -0.0013989093 0.006632518
0.007051063 -0.005690342 -0.009302602 0.0067562633 -0.00183986 -0.004106061 -0.011352216 0.008230598
-0.014006552 0.0164506 -0.0055978335 -0.0009380292 0.009660582 -0.004627907 0.009087364 0.012086089
0.010878289 -0.00143765 0.001200296 0.0010401007 -0.00920845 0.019944685 -0.0032827703 0.0007789317
-0.0007763573 -0.00915243 -0.019264266 0.019000946 0.0029887035 -0.009114882 -0.013512142 -0.011002081
-0.015045762 -0.005784288 -0.012749528 -0.012454375 -0.018522715 -0.002996572 0.012391201 -0.0043335375
-0.0020497132 -0.008399929 0.01564194 0.0012325114 -0.0014281484 0.0021683339 0.012158836 -0.003247865
-0.02568077 0.00026002323 -0.0019246379 -0.0078363335 -0.009329042 -0.0033559406 0.009118481 -0.004216885
-0.00484837 0.008024503 0.014873929 0.009376479 -0.00264003 0.008694136 -0.0006990856 -0.00010262842
0.005811926 0.0009295381 0.006616277 -0.00431288 0.006650779 0.012877679 0.008126875 -0.005782933
-0.010057374 0.003158809 0.0052060266 -0.00669195 0.0113531975 0.00896027 -0.00058822293 -0.0061961296
0.0066928877 0.0007683501 -0.0088966815 -0.008129912 0.01043515 -0.00061716203 0.02103639 0.005472538
0.0049023046 -0.009622604 -0.006727358 -0.00456579 -0.005332029 0.0063418034 -0.0004585233 -0.00095561176
8.27164e-05 -0.0010488702 0.0057646334 0.0046809693 -0.0064115026 0.0051954547 0.0046152445 0.0057773604
0.0034242866 -0.0029814055 0.0075562717 -0.009236233 -0.002453926 -0.008812159 0.014601359 -0.01026583
-0.006343722 -0.006115916 -0.0053238496 0.011976919 -0.011680338 0.007640985 -0.009802582 0.0024651557
0.018355422 0.0093204295 0.006029988 -0.015335085 0.012234013 -0.0049402225 0.016900213 -0.011203244
-0.0021877487 0.0030504267 -0.01428158 -0.012652022 -0.0014939586 0.0026516009 0.006590829 -0.011799836
0.001518029 -0.00795409 -0.0021651657 0.0010512475 0.004392331 0.014438351 0.0025680603 -0.005590482
-0.0010868142 -0.0035698095 -0.0046782037 0.0077539952 0.0059182835 -0.002902611 -0.0074517974 0.0035072875
-0.009872542 -0.00497663 0.007635704 -0.0005574718 -0.0007328874 0.007532533 0.0035361287 0.00010598608
0.010030618 0.011407315 -0.0017791059 0.007406456 0.0054208315 0.00011388598 0.0010663004 -0.00806403
-5.9756167e-05 -0.0013624062 0.011346658 -0.0014026613 0.011104821 0.011002906 0.01256681 -0.003342053
0.0057898704 0.0063957754 -0.0054748375 -0.0052930745 0.006812209 -0.010261281 -0.00788194 0.007909566
0.001450647 -0.002565121 0.011906805 0.00077334873 -0.0024199807 -0.0047922274 0.012969099 -0.007885254
0.009885958 0.0049800607 0.0043758373 -0.012774547 -0.008567484 0.0027942932 -0.0043998696 0.005894791
-0.001759813 0.0066972226 0.009741556 0.0036837321 -0.004662186 -0.0051358026 -0.0049509928 3.1683096e-05
-0.005747267 0.011764275 -0.012518773 -0.013753886 -0.007734754 0.0045869164 0.023715248 -0.00040624847
-0.006538812 0.013212912 0.00036886852 -0.0061864876 -0.011525819 -0.015688699 -0.0036896493 0.0025950703
0.0035296378 0.01197654 -0.021425894 0.007874276 -0.017017376 0.004069354 -0.0035722775 0.00093476626

action_model._discrete_distribution.branches.0.bias f4 [2]
00000000: 0000 0000 0000 0000
0.0 0.0

action_model._discrete_distribution.branches.1.weight f4 [3, 128]
00000000: 75f5 94bb 03d5 d33b 73b0 dc3b af5c eb3b
00000010: 1b10 15bc 45bd f83b a314 2abb 7382 903c
00000020: 038c 563b cd82 d9bc 5feb 0ebc e861 bcbb
00000030: 820b dfb8 4b1b ceb9 1124 22bc cb46 a5bb
00000040: 6b60 f2bb b6c4 183c 176e 183c 8aef 59bb
00000050: 7db8 7cbb 9a4a e73b 48ca dcbb e030 76b9
00000060: 7bdf b8b9 a262 3fbc fafd cc3b 4d45 0dbc
00000070: 18a5 50bc 3a9d a53b 4f6a 39ba b62b 233c
00000080: a260 7b39 a0c5 4f3c 9ce1 16bc 0886 babb
00000090: 635f d4bb 78f9 08bc d789 913b 9bcb f3bb
000000a0: beea 453c cf53 6abc 7907 46bc 6f6e f0bb
000000b0: e21e 583b 5a11 723c c087 71bc a3fb 9d3b
000000c0: c100 2d3b 63b2 47bb 5718 103c 9067 8b3b
000000d0: ff30 ee3b 29cc 943a d0d3 e83b cc66 9eba
000000e0: 5457 34bc 9a2d e13a 67cf 143c 6ff0 483b
000000f0: 7fe8 a8bc 95c4 a3bc 43e1 cc3c b73a bb3a
00000100: 05c9 e63a 3b09 f9ba dbed 5eb9 021b fe3a
00000110: ba7b 17bc 4264 2839 c7a8 20bb 48ba 5cbb
00000120: defc 85bc 4b99 373b 1ac1 53bb 4690 09bc
00000130: 5a03 cfbb a6eb 3f3a c514 65ba 3ed8 3abc
00000140: a777 acbc 0ba4 17bc 0fa6 d5bb 9ab1 dbba
00000150: dbe0 14bc e15d b43b 0ff8 1dbc c8e3 603b
00000160: 8226 743b b7e3 bd3a 3143 913a 3abb f33b
00000170: e567 223c eb68 8dbb ff8e f9bb 8bb4 c2bb
00000180: 03d3 033c c3cd 623b a343 26bb aaea 613b
00000190: b7d5 41bb 384e 113c cf6c b53b 70e4 dc3a
000001a0: 2d08 35bc a77d a1ba a3ff ebbb 7e86 17bc
000001b0: a3ef ee39 5abc a53b fd93 47ba df63 9cbb
000001c0: b33e 903c c77f 27bb 38c6 0f3c 1f25 0f3b
000001d0: a575 e13b 38df 8f3c 622e e33b 0040 2cbb
000001e0: 5b4b d3bb 8f09 2abb 21e1 97ba 136b 32bc
000001f0: d7f2 31bc a2fb fa39 674c 5a3b 29c5 9eba
00000200: a4c1 2b3c 5c47 3b3c 1cd3 383c 5b47 52bb
00000210: f8f1 13bc 18be b73b 1a09 ec39 6abc b1bb
00000220: c38e 503c 7ad2 7b3c e2e3 46bc db08 003c
00000230: bd51 9abc dd0e e43b c874 e33b cf7a c138
00000240: 93fb 583c afb2 7239 0878 ee3a 80fd 4bbc
00000250: 191c 9bbb db36 96bb 3b10 2c3c 2ab7 683b
00000260: 0dda bb3a f2fb 6fbb 6228 a73b 7427 86bb
00000270: 635e 413b fac7 923c b318 03bc 0fa8 613c
00000280: fb78 95bb 9307 4dbc 4330 16bc 51d3 053a
00000290: badb f5ba 4b4f 99bb 3430 9a3b a221 72bb
000002a0: 3753 8b3b 401a 9f3b f152 43bb 0a36 bcb9
000002b0: 1b45 63bb 30d9 9fba 4508 193c 0a7f 88bc
000002c0: 6fd3 283b 23fe 8cbb c708 74bc dfab 4c3c
000002d0: 32eb b33b 508c 98bb 5039 cfbb 4e1d 083c
000002e0: d200 07bc 91f3 89ba a7ce 3a3b 01ce ad3c
000002f0: 631e 68bc b981 ccba 72dd 9fbc 0893 96bb
00000300: 4745 61bb aba4 883b 8002 47bc 7af4 0cbc
00000310: 97d8 a73b b65c 44bc 1f9d 16bc ae0a adbb
00000320: 97ee 10bb 1381 c23b 9fe2 d2bb 6792 e9bb
00000330: cf3a 96bb a025 9c3c 98a6 8dbb af72 e2bb
00000340: 57e5 60bc 97e8 87bb a967 09bb 9482 9b3b
00000350: 6236 eeba 27ce fcbb d7ea dcbb 7001 563b
00000360: 6be5 59bc 185b 6b3c cd5a 74bb 783b e0bb
00000370: be40 43bb d6d6 263c 47ad 32bb c481 c53a
00000380: 4351 003c 43db 87b9 3b4f 093c cf33 af3b
00000390: 4072 f33b 45ac fdbb 5b72 02bc ffc3 083b
000003a0: 8178 2c3b 7f4c 14bc 7691 babc 2a93 9dbb
000003b0: 0a29 9a39 2b5d bf3a 143c c0bb 649d 213c
000003c0: 5329 c83b a35e d73b 8086 f5bb e02a 993c
000003d0: 1dd6 6b3b bf8d 3f3b 0077 e33a db00 8cbb
000003e0: a10c 8c3b d721 c33b 877c 3cbc 3122 43bb
000003f0: 4be8 e0bb b546 133c ea98 50bc 75e1 cfbb
-0.0045458623 0.006464602 0.0067349016 0.0071826796 -0.009098078 0.007590922 -0.0025952242 0.017640328
0.0032737262 -0.026551628 -0.008723109 -0.005748976 -0.00010635612 -0.00039311717 -0.009896294 -0.0050438396
-0.007396748 0.009324243 0.009303591 -0.0033254349 -0.0038562112 0.0070584537 -0.006737981 -0.00023478596
-0.0003526172 -0.011681231 0.0062558623 -0.00862248 -0.012734674 0.0050541433 -0.0007073031 0.009959152
0.00023973224 0.012681395 -0.009209063 -0.0056922473 -0.0064810975 -0.008360259 0.0044414806 -0.007440043
0.012079893 -0.014302208 -0.012086743 -0.0073373835 0.0032977392 0.014774645 -0.014741838 0.004821257
0.0026398154 -0.0030471317 0.008794866 0.004254289 0.0072690244 0.0011352348 0.007105328 -0.0012085079
-0.011007149 0.0017179728 0.009082652 0.0030660888 -0.020618675 -0.019991199 0.025009757 0.0014284466
0.0017607516 -0.0018999943 -0.00021260178 0.0019386711 -0.009245807 0.00016059077 -0.0024514662 -0.0033680368
-0.016355928 0.0028014954 -0.0032311142 -0.008396214 -0.006317538 0.0007321186 -0.00087387516 -0.011404095
-0.021053148 -0.0092554195 -0.00652004 -0.0016761303 -0.009086813 0.0055043553 -0.009641661 0.0034315456
0.0037254398 0.001448742 0.0011082647 0.0074380906 0.009912466 -0.0043154857 -0.0076159234 -0.0059419326
0.008045915 0.0034607507 -0.0025369904 0.0034472146 -0.0029576847 0.008868746 0.0055366526 0.0016852748
-0.011049313 -0.0012320773 -0.007202105 -0.009248374 0.0004557344 0.0050578536 -0.00076132995 -0.0047726477
0.017608022 -0.002555834 0.008775286 0.0021842194 0.0068804794 0.017562494 0.0069330195 -0.0026283264
-0.006448192 -0.0025945639 -0.0011587479 -0.010889786 -0.01086112 0.00047871197 0.00333097 -0.0012113202
0.010483179 0.011430588 0.011280801 -0.0032085988 -0.009029858 0.0056073777 0.0004502021 -0.005424072
0.01272935 0.015370006 -0.012139292 0.007814611 -0.018837804 0.0069597797 0.0069414116 9.225832e-05
0.013243574 0.00023145483 0.0018193731 -0.012450576 -0.004733574 -0.004584176 0.0105019165 0.0035509565
0.0014331952 -0.0036618677 0.0051012496 -0.0040940586 0.0029505722 0.017917622 -0.008001494 0.013772978
-0.004561541 -0.012514013 -0.00916678 0.0005105036 -0.00187575 -0.004678642 0.0047054533 -0.0036946316
0.0042518633 0.004855424 -0.0029804076 -0.00035898417 -0.0034678641 -0.0012195464 0.0093403505 -0.01666214
0.002576079 -0.0043027564 -0.014894671 0.012492149 0.005490684 -0.0046553984 -0.006323971 0.008307768
-0.008239942 -0.0010524859 0.0028504522 0.021216394 -0.014167401 -0.0015602625 -0.019514773 -0.004595164
-0.0034373568 0.0041700206 -0.012146592 -0.00860321 0.005122255 -0.011984995 -0.009192734 -0.005280814
-0.0022114867 0.005935797 -0.0064357067 -0.007128048 -0.0045846472 0.01906091 -0.004322838 -0.006910644
-0.013726554 -0.0041476 -0.0020966327 0.0047457907 -0.0018174166 -0.007715005 -0.0067418623 0.0032654665
-0.013299326 0.01436498 -0.0037285567 -0.0068430267 -0.0029793228 0.010183057 -0.0027263926 0.001506858
0.007831874 -0.0002591257 0.008380706 0.0053467522 0.007429391 -0.0077414834 -0.007961835 0.0020868776
0.0026316943 -0.009051441 -0.02277444 -0.004808803 0.00029403745 0.001459991 -0.005866537 0.009864185
0.006108442 0.006572561 -0.0074928403 0.018697202 0.0035985776 0.0029228774 0.001735419 -0.004272563
0.0042739664 0.0059549618 -0.011504299 -0.0029775018 -0.006863629 0.008989026 -0.01273177 -0.0063440152

action_model._discrete_distribution.branches.1.bias f4 [3]
00000000: 0000 0000 0000 0000 0000 0000
0.0 0.0 0.0

network_body._body_endoder.seq_layers.0.weight f4 [128, 62]
00000000: 5f43 593d fc1d 84bc e2bb 603d adb1 a1bc
00000010: 5071 c23c 3f80 96bd 62a2 af3d 4b5e 393e
00000020: 1eae 6f3e 8287 3bbc 73e4 7a3e f0e8 48bd
00000030: 6c60 003e dcf8 82bc 59ad 993b be27 20be
00000040: 53ad ea3d b52b 5e3d 1e06 3d3e e254 86bd
00000050: cd58 463e 5715 163d d643 2e3d 232a 75bd
00000060: 9007 e1bd 05c2 8d3d 5e0a 3b3d b5b8 9abe
00000070: a65a 99bc 5e6d 1c3d c5f3 1abe 2c1b 0f3d
00000080: e175 383d 218e 313d 178f 253e 94ad 8c3c
00000090: b7f9 18be ba05 8dbd f3d2 e2bd f2ec 9dbe
000000a0: b595 e53c 5091 cd3d 0389 0d3d 75fa 2a3e
000000b0: 98f6 d5bd 4bd1 893e 49b8 7c3d ecc0 b73d
000000c0: facb c1be 13ca 97bd 283e e4bd f37e debd
000000d0: c78e 153e 7898 bb3d 8381 0bbe 9e4d 47be
000000e0: 26be f7bd 4bf9 38be 99dd dabd 23dc 63bd
000000f0: eee6 0dbd 5055 213e 1428 e3bc b3bd 9b3c
00000100: ba44 9dbd 8672 1c3e 6086 183d 2842 05be
00000110: 513e ae3d 6735 eb3d 0108 793e c22c 9d3c
00000120: c4ea dcbb 2a2c 33be e0a8 c73c efce 123d
00000130: 558f 7d3c 236a 783d b65d abbd 2ee4 f7bc
00000140: 0214 d63b 8fca 3dbe f659 973d 699b 0cbe
00000150: 927c d03d 1d06 f5bc ac36 9f3b b621 85be
00000160: ccf8 18be 1982 edbd 3692 e13d 9928 883e
00000170: 4079 a5bd f1d8 213e 2f6b 093e fadf 093e
00000180: 1b34 c93c 33fc 10be 0593 9bbe b5a4 473c
00000190: 250b 0e3e 53aa c23b ed7c 99be fa25 9bbd
000001a0: c048 873e 6833 0fbc e443 1d3e cd8e 323e
000001b0: 8074 223e 33b4 b63d 5453 eabd a6c5 4dbe
000001c0: 37b2 973d ee71 5b3e 0c20 31be 9aff 093d
000001d0: 9d80 983e 8240 6abd 7ad7 ebbd c826 e6be
000001e0: 97bb f2bd 2ab0 8c3e e9d6 583e 0070 123d
000001f0: 4d6d 053e ea53 38be 3cea a3bc 7d63 263e
00000200: bb8d 8a3d 0425 39be e56c 07bd df94 0dbe
00000210: 1018 42bc cf9a 23bd cfbc a5bd d8f3 15be
00000220: 3344 84bd 5aed b43d 2416 a1be 8af6 7abc
00000230: 6c22 393e db73 e23d 1609 67bd 8eca a93d
00000240: ea78 123c 1fde 2a3d d246 6b3d e487 57bd
00000250: 60de 723e 1d49 eebd 478c 4ebe c6a1 2bbe
00000260: 07c9 8e3d 01c1 d6bd 2d0d d43d c4b5 51be
00000270: 709d 6b3d 1a29 29be 07f7 df3c ce48 d33d
00000280: 23a8 c23d 0e92 0a3e c4b8 51bc 86ad 033d
00000290: 33a8 82bd b1cb 883d c67e 863d e7f3 393e
000002a0: f5ba 9f3d eada 793e c316 b03d 0143 24be
000002b0: 17ac 6cbd c0c7 76bc b0f1 4fbe 9359 843c
000002c0: 843c 3f3e 3c8b 193e 13fe ad3d a5eb acbd
000002d0: b2be 253e 5461 083e cf6e 00be 85ba 10be
000002e0: 3908 d8bc ed30 9dbd 753e 873d 278e 9abd
000002f0: 1785 e93d 301a a43b 42d2 e93d 5385 433e
00000300: f4bf 53bd d85a 323e a62d 11bd aaa0 8a3d
00000310: 0b9f 56bc 9c3f fd3d a95b 9c3c 6d43 1c3e
00000320: e10c ffbd 9d1c 84bc f9d1 3cbe e4ce 893d
00000330: e727 d83d 6531 bf3d b286 583d 0951 18be
00000340: 8817 b8bc d9a3 553c ffa7 693d 5d3e bc3d
00000350: 0f85 5c3e 5a26 abbd f5d0 fbbd b869 85bd
00000360: 75bf bb3b 3135 423e 99c6 1a3e 9d0b 93bd
00000370: f514 a23c df6f c33d b6b1 6ebd 550d edbc
00000380: 7253 17be e312 6ebd 1aff 6ebc 6ef8 92bd
00000390: 54f9 d93d 5ec4 ca3d bf16 e0bd 9f9e 22be
000003a0: 916b 373e f551 fa3d d03d a0be 8bb4 10be
000003b0: 3d43 1fbc be23 9a3d 3660 5e3d 7b4e 70bd
000003c0: f347 553e 48bb 2a3d 6b3d 75bd f64c 013e
000003d0: a33a 5a3e 955a 663d d6c0 ddbd e7fd 55be
000003e0: 4543 04be 6614 5e3d 4a22 fcbc 97e2 a0bd
000003f0: 7194 30bd 31a1 893e c69d 183e 375a efbd
0.053042766 -0.016127579 0.05486668 -0.019738043 0.023735672 -0.0734868 0.08575894 0.18102376
0.23406264 -0.011445882 0.24501209 -0.04905027 0.12536782 -0.015987806 0.004689854 -0.1564016
0.1145884 0.0542409 0.18459365 -0.06559159 0.19369812 0.036641445 0.042545162 -0.059854638
-0.109877706 0.06921772 0.045664184 -0.30219045 -0.018719982 0.03819024 -0.15132053 0.034938022
0.045034293 0.043348435 0.16167866 0.017172612 -0.14939009 -0.06885858 -0.110753916 -0.30844837
0.028025487 0.10037482 0.034554493 0.16697104 -0.10447425 0.2691749 0.061699186 0.08972344
-0.37850934 -0.074115895 -0.11144668 -0.108640574 0.14605246 0.091599405 -0.13623624 -0.19463202
-0.12096815 -0.18063848 -0.10686798 -0.05562986 -0.03464406 0.157552 -0.027729072 0.019011354
-0.07679124 0.15278062 0.037237525 -0.13013518 0.0850798 0.11484795 0.2431946 0.019186381
-0.0067418534 -0.17497316 0.024372518 0.03584188 0.015476068 0.060648095 -0.08367483 -0.030260172
0.006533147 -0.18534301 0.073902056 -0.1373116 0.1018001 -0.029910142 0.0048588123 -0.26002282
-0.14938658 -0.1159708 0.11014216 0.26593474 -0.08079767 0.15805413 0.13419794 0.13464347
0.024560979 -0.14158706 -0.30385605 0.012185265 0.13871439 0.0059407144 -0.29978123 -0.07575603
0.2642269 -0.008740284 0.1535793 0.17437287 0.15864754 0.08921089 -0.11441675 -0.20094928
0.07407039 0.2143018 -0.17297381 0.033691026 0.29785624 -0.057190426 -0.11515708 -0.44951463
-0.11852186 0.27478153 0.21175732 0.035751343 0.13029976 -0.1800076 -0.020009153 0.1624889
0.06765314 -0.18080527 -0.033062834 -0.13826321 -0.011846557 -0.03994256 -0.08092653 -0.146438
-0.064583205 0.08834334 -0.31462204 -0.015317569 0.18079537 0.11057254 -0.05640515 0.08290587
0.008939961 0.041715737 0.057440586 -0.05261983 0.23717642 -0.11635039 -0.20170699 -0.1676093
0.06971937 -0.10486031 0.103540756 -0.20479494 0.05752319 -0.16519585 0.027339472 0.10316621
0.09504726 0.13532278 -0.012800399 0.032147907 -0.06379738 0.06679476 0.06567149 0.18159448
0.07799331 0.24399915 0.085980915 -0.16041185 -0.057781305 -0.015062273 -0.2030704 0.016155994
0.18675429 0.1499452 0.084957264 -0.08443383 0.16186026 0.13318378 -0.1254227 -0.14133652
-0.026371108 -0.076753475 0.066037096 -0.07546645 0.11402338 0.0050080046 0.114170566 0.19093828
-0.051696733 0.17417467 -0.035443924 0.067689255 -0.013099442 0.12365648 0.019086676 0.15260096
-0.12453628 -0.016126925 -0.18439473 0.067289144 0.10554486 0.09335593 0.05286283 -0.14874662
-0.022472158 0.013039553 0.05704498 0.09191582 0.21535133 -0.08356924 -0.12295715 -0.06514305
0.0057296106 0.18965603 0.15114821 -0.071799494 0.019785384 0.09542822 -0.058274947 -0.028937021
-0.14777926 -0.05812348 -0.014587188 -0.071762905 0.10643259 0.09900735 -0.109418385 -0.15880822
0.17912127 0.12222663 -0.3129716 -0.14131372 -0.009720621 0.075263485 0.054290973 -0.058668595
0.20828228 0.04168251 -0.059873026 0.12627015 0.2131143 0.05623873 -0.10827796 -0.20897637
-0.12916286 0.054218672 -0.030778069 -0.078557186 -0.043110315 0.26880792 0.14903936 -0.11687129

network_body._body_endoder.seq_layers.0.bias f4 [128]
00000000: 0000 0000 0000 0000 0000 0000 0000 0000
00000010: 0000 0000 0000 0000 0000 0000 0000 0000
00000020: 0000 0000 0000 0000 0000 0000 0000 0000
00000030: 0000 0000 0000 0000 0000 0000 0000 0000
00000040: 0000 0000 0000 0000 0000 0000 0000 0000
00000050: 0000 0000 0000 0000 0000 0000 0000 0000
00000060: 0000 0000 0000 0000 0000 0000 0000 0000
00000070: 0000 0000 0000 0000 0000 0000 0000 0000
00000080: 0000 0000 0000 0000 0000 0000 0000 0000
00000090: 0000 0000 0000 0000 0000 0000 0000 0000
000000a0: 0000 0000 0000 0000 0000 0000 0000 0000
000000b0: 0000 0000 0000 0000 0000 0000 0000 0000
000000c0: 0000 0000 0000 0000 0000 0000 0000 0000
000000d0: 0000 0000 0000 0000 0000 0000 0000 0000
000000e0: 0000 0000 0000 0000 0000 0000 0000 0000
000000f0: 0000 0000 0000 0000 0000 0000 0000 0000
00000100: 0000 0000 0000 0000 0000 0000 0000 0000
00000110: 0000 0000 0000 0000 0000 0000 0000 0000
00000120: 0000 0000 0000 0000 0000 0000 0000 0000
00000130: 0000 0000 0000 0000 0000 0000 0000 0000
00000140: 0000 0000 0000 0000 0000 0000 0000 0000
00000150: 0000 0000 0000 0000 0000 0000 0000 0000
00000160: 0000 0000 0000 0000 0000 0000 0000 0000
00000170: 0000 0000 0000 0000 0000 0000 0000 0000
00000180: 0000 0000 0000 0000 0000 0000 0000 0000
00000190: 0000 0000 0000 0000 0000 0000 0000 0000
000001a0: 0000 0000 0000 0000 0000 0000 0000 0000
000001b0: 0000 0000 0000 0000 0000 0000 0000 0000
000001c0: 0000 0000 0000 0000 0000 0000 0000 0000
000001d0: 0000 0000 0000 0000 0000 0000 0000 0000
000001e0: 0000 0000 0000 0000 0000 0000 0000 0000
000001f0: 0000 0000 0000 0000 0000 0000 0000 0000
0.0 0.0 0.0 0.0 0.0 0.0 0.0 0.0
0.0 0.0 0.0 0.0 0.0 0.0 0.0 0.0
0.0 0.0 0.0 0.0 0.0 0.0 0.0 0.0
0.0 0.0 0.0 0.0 0.0 0.0 0.0 0.0
0.0 0.0 0.0 0.0 0.0 0.0 0.0 0.0
0.0 0.0 0.0 0.0 0.0 0.0 0.0 0.0
0.0 0.0 0.0 0.0 0.0 0.0 0.0 0.0
0.0 0.0 0.0 0.0 0.0 0.0 0.0 0.0
0.0 0.0 0.0 0.0 0.0 0.0 0.0 0.0
0.0 0.0 0.0 0.0 0.0 0.0 0.0 0.0
0.0 0.0 0.0 0.0 0.0 0.0 0.0 0.0
0.0 0.0 0.0 0.0 0.0 0.0 0.0 0.0
0.0 0.0 0.0 0.0 0.0 0.0 0.0 0.0
0.0 0.0 0.0 0.0 0.0 0.0 0.0 0.0
0.0 0.0 0.0 0.0 0.0 0.0 0.0 0.0
0.0 0.0 0.0 0.0 0.0 0.0 0.0 0.0

network_body._body_endoder.seq_layers.2.weight f4 [128, 128]
00000000: 7bda 72bd cd9e 033e f29d 10bc 007f 303c
00000010: de3c 89bd 6206 083e ef30 4f3d aa60 b63c
00000020: 0938 6cbe cba6 86bc 80ef e4bc 07fb d83d
00000030: 192e 28be 105a db3d 59ed 3ebd 2f2c f7bc
00000040: 00f5 5b3c 64c0 153e 3086 6b3e 6cee 25bc
00000050: 6cd9 a73d bbf7 da3d e5e4 643d 7ded dcbd
00000060: 87b0 c43d 05df 953d ad1d 08bc fa8c bd3d
00000070: ecc3 02bd f7e6 e6bd dd67 74bd 8518 bdbd
00000080: c2b8 043d 7b9f d23d 62bc 303d a8c2 c83d
00000090: f296 0a3d bcfb b03d f1e7 08bd 1644 c43c
000000a0: 97df d3bc b264 cabc df16 8a3c 7fc5 2b3c
000000b0: a15b e9bc d60d dc3c edd6 69be bb74 b33d
000000c0: 7af2 f83d 3b97 2e3c 4fcf 10be fb5c 833d
000000d0: 7ec1 ba3d 5ad6 9abd 30e2 ab3c cf38 2f3e
000000e0: 2229 f5bd 5112 d53d 57b7 2bbe 39f1 84bd
000000f0: 3928 b03d 5641 b2bc 1473 313d 3122 08bd
00000100: ce42 37be a907 edbc b9a5 db3d d87d 5d3d
00000110: 2413 c33d 5271 d3bd 7615 72bd cda1 07be
00000120: abd7 823c 17ec a83d 27d9 873c 622c 873d
00000130: 9d39 5d3e ddc7 98bc 778f 1b3e 0567 153c
00000140: e3df aebd 7369 193e e86b 743d eef3 383d
00000150: f42a 41bd 6c02 23bd b3d5 c83d 93f6 973d
00000160: f5c7 26bd cbfd d23c 225d eb3c 441b 213d
00000170: e2e2 9abd ee8c c93d 0d53 85bd ec97 0e3d
00000180: e7c5 37bd 8f32 003e 50d4 b3bd f47a 923d
00000190: 912c a9bd f0c8 ac3d 8f72 ce3d baeb babd
000001a0: 5f16 c73b 372c c0bd bcc9 42bd c298 d4bc
000001b0: 8a93 e4bc 21b7 c7bd 9ce7 e03d c4bf bb3c
000001c0: 9948 283e 3ffe ae3c 02e9 34bd d69a adbc
000001d0: 255d 12be ef3c ab3d f1c4 e33b 39b0 83be
000001e0: b434 85bd 2839 00bd 083a b9bc 64fc f0bd
000001f0: e0d9 8abc 3044 223e 7c51 31bd 5d62 bfbd
00000200: 1392 993d cbee f53d d1e3 823d 8389 a1bd
00000210: ac0f 4dbe 09ba 12be 3436 303e 4fd0 30be
00000220: 7e04 d03d 7252 83bd f7e6 0c3e 8eef 35be
00000230: 6cbc a83d ada7 f03c 6544 cc3c 240b 0fbe
00000240: f213 003c 37eb 933d 2b7a 043c e3ad ddbd
00000250: 586b 8abd 24dd c13d 1bf1 743d e56e 29be
00000260: 57e4 ed3c c2df bc3b 100b a0bd 7d14 6bbd
00000270: 0de9 96bc 15ba 55be bfbb 083d 9693 f93d
00000280: faeb f83b 6660 093c 8c2a 133e 90c3 d93d
00000290: 5d38 de3b c3ea 9bbd 27df b9bc 8a5a d8bd
000002a0: eb65 5e3d f435 ddbd a6eb f5bd b813 c63c
000002b0: 20ff 44bd 2bba 64be b471 29bc 96eb a03b
000002c0: d2c8 673d 1db4 a2bc 2fce b93d 8d41 003e
000002d0: 46a0 6c3d 2e5c a3bb 2516 2e3e cf45 973d
000002e0: c3cd b93c 6617 113e b959 af3d 1a82 8fbd
000002f0: 9b6a f0bd a296 3bbd 9c13 1a3d 4ae4 d83d
00000300: 5b67 a13d ffe2 03bd 8e05 b13d 9226 753d
00000310: 0167 2dbd a488 c0bd f7d8 cebd 023d 1c3e
00000320: a4e2 10be 972f ad3c fd9d 163e 4aca 96bd
00000330: ecb9 e63d cb46 09be 1db0 3abd 966d e6bc
00000340: e9fb 91bd 18d7 603d 8f9a 973d b91d 1bbe
00000350: fa91 193d 6016 86bd 85c7 1fbe b58b 723d
00000360: a415 8cbc 6f63 69bd 0a1b 163c 2415 253e
00000370: 42d7 ad3c cf02 9abc 2835 ebbb d1c9 003d
00000380: c253 b13d 73db 40bc eac6 02bd 61d5 1bbe
00000390: b9b2 07be feb8 d5bd d0b9 d9bd 38b1 de3d
000003a0: 3e7c b33d 0a2e 893d 86a1 2e3d 2397 dfbc
000003b0: 13ac 71bd fe31 0b3e f683 c63d 79a0 97bc
000003c0: fa1f e63c d720 7bbc d9b3 3abe 2fd8 07bb
000003d0: d0fe 333e 3262 6bbd 5b00 e23b 4ac8 de3d
000003e0: e80f c5bc f321 4fbe 135e 2dbe e28c e7bd
000003f0: f099 c53c 07b5 27bd c865 2dbe 6de8 063d
-0.05929039 0.12853546 -0.00882672 0.010772467 -0.067010626 0.13283685 0.050583776 0.02226289
-0.2306825 -0.016436955 -0.027946234 0.10594755 -0.16423835 0.107105374 -0.04661307 -0.030172436
0.013425112 0.14624172 0.23000407 -0.010127645 0.08195767 0.10691782 0.055882353 -0.10787485
0.096039824 0.07317928 -0.0083078565 0.09255405 -0.031925127 -0.11274522 -0.059669364 -0.09233192
0.03240276 0.10284325 0.043148406 0.09802753 0.03383536 0.086417645 -0.03342432 0.023958247
-0.025863452 -0.024706218 0.016856609 0.010484098 -0.028486075 0.026862066 -0.22835894 0.08762499
0.12155624 0.010656173 -0.14141582 0.06414219 0.09118937 -0.075604156 0.020981878 0.17111515
-0.11970736 0.10403884 -0.16769157 -0.06491322 0.08601422 -0.02175967 0.043322638 -0.033235732
-0.17896578 -0.028934317 0.107249685 0.054075092 0.09525135 -0.103243485 -0.059102498 -0.13245316
0.01597198 0.082481556 0.016583038 0.06600262 0.21604009 -0.01864999 0.15191446 0.0091188
-0.08538797 0.14981632 0.05967322 0.045154504 -0.047160104 -0.03979723 0.09806385 0.07420077
-0.040718038 0.025755784 0.028730933 0.039332643 -0.07562806 0.09841333 -0.06509981 0.034812853
-0.04486647 0.12519287 -0.0878073 0.07152358 -0.082604535 0.08436763 0.10080444 -0.091269925
0.006075665 -0.09383433 -0.04755567 -0.025951747 -0.027902383 -0.09751726 0.10981676 0.02291859
0.16433944 0.021361468 -0.044167526 -0.021191996 -0.14293344 0.083612315 0.0069509675 -0.25720385
-0.06504193 -0.03130451 -0.02261068 -0.1176689 -0.016949594 0.15846324 -0.0432906 -0.09344933
0.074985646 0.12008437 0.06391109 -0.078875564 -0.2002551 -0.1432878 0.17208177 -0.17266963
0.10157107 -0.064122096 0.13759981 -0.17767164 0.082390636 0.029376829 0.024934957 -0.13969094
0.007817255 0.07222598 0.008085768 -0.10824182 -0.067587554 0.09466007 0.05980025 -0.16546209
0.029039545 0.0057639787 -0.0781461 -0.057392586 -0.018421674 -0.20871766 0.033382174 0.12186353
0.00759649 0.0083848 0.14371699 0.10633004 0.0067816214 -0.076131366 -0.022689415 -0.10564144
0.054296415 -0.10801306 -0.12007837 0.024179325 -0.04809487 -0.22336642 -0.01034205 0.0049108965
0.056588 -0.019861275 0.090725295 0.12525006 0.057770036 -0.004985354 0.17000635 0.07386362
0.022681123 0.14169082 0.08562035 -0.07007237 -0.117390834 -0.04579795 0.037616357 0.10590418
0.078810416 -0.032198902 0.086436376 0.059851237 -0.04233456 -0.09401062 -0.100999765 0.15257648
-0.14148957 0.021140857 0.14708705 -0.07362802 0.112659305 -0.13405912 -0.04557811 -0.028128427
-0.07128126 0.05489263 0.074025266 -0.15148057 0.03749273 -0.065472364 -0.15603454 0.059215266
-0.017100163 -0.056979593 0.00916172 0.16121346 0.021220807 -0.018800167 -0.0071779676 0.031442467
0.08658554 -0.011771071 -0.03192798 -0.15218116 -0.13251771 -0.10435675 -0.10631144 0.108736455
0.08763932 0.066982344 0.04263451 -0.027293747 -0.059001993 0.1359329 0.09693138 -0.018509137
0.02809142 -0.015327654 -0.18232669 -0.002072822 0.17577672 -0.057466693 0.006897015 0.10878046
-0.024055436 -0.20227794 -0.16930418 -0.11306168 0.024121255 -0.040944126 -0.16933358 0.032936502

network_body._body_endoder.seq_layers.2.bias f4 [128]
00000000: 0000 0000 0000 0000 0000 0000 0000 0000
00000010: 0000 0000 0000 0000 0000 0000 0000 0000
00000020: 0000 0000 0000 0000 0000 0000 0000 0000
00000030: 0000 0000 0000 0000 0000 0000 0000 0000
00000040: 0000 0000 0000 0000 0000 0000 0000 0000
00000050: 0000 0000 0000 0000 0000 0000 0000 0000
00000060: 0000 0000 0000 0000 0000 0000 0000 0000
00000070: 0000 0000 0000 0000 0000 0000 0000 0000
00000080: 0000 0000 0000 0000 0000 0000 0000 0000
00000090: 0000 0000 0000 0000 0000 0000 0000 0000
000000a0: 0000 0000 0000 0000 0000 0000 0000 0000
000000b0: 0000 0000 0000 0000 0000 0000 0000 0000
000000c0: 0000 0000 0000 0000 0000 0000 0000 0000
000000d0: 0000 0000 0000 0000 0000 0000 0000 0000
000000e0: 0000 0000 0000 0000 0000 0000 0000 0000
000000f0: 0000 0000 0000 0000 0000 0000 0000 0000
00000100: 0000 0000 0000 0000 0000 0000 0000 0000
00000110: 0000 0000 0000 0000 0000 0000 0000 0000
00000120: 0000 0000 0000 0000 0000 0000 0000 0000
00000130: 0000 0000 0000 0000 0000 0000 0000 0000
00000140: 0000 0000 0000 0000 0000 0000 0000 0000
00000150: 0000 0000 0000 0000 0000 0000 0000 0000
00000160: 0000 0000 0000 0000 0000 0000 0000 0000
00000170: 0000 0000 0000 0000 0000 0000 0000 0000
00000180: 0000 0000 0000 0000 0000 0000 0000 0000
00000190: 0000 0000 0000 0000 0000 0000 0000 0000
000001a0: 0000 0000 0000 0000 0000 0000 0000 0000
000001b0: 0000 0000 0000 0000 0000 0000 0000 0000
000001c0: 0000 0000 0000 0000 0000 0000 0000 0000
000001d0: 0000 0000 0000 0000 0000 0000 0000 0000
000001e0: 0000 0000 0000 0000 0000 0000 0000 0000
000001f0: 0000 0000 0000 0000 0000 0000 0000 0000
0.0 0.0 0.0 0.0 0.0 0.0 0.0 0.0
0.0 0.0 0.0 0.0 0.0 0.0 0.0 0.0
0.0 0.0 0.0 0.0 0.0 0.0 0.0 0.0
0.0 0.0 0.0 0.0 0.0 0.0 0.0 0.0
0.0 0.0 0.0 0.0 0.0 0.0 0.0 0.0
0.0 0.0 0.0 0.0 0.0 0.0 0.0 0.0
0.0 0.0 0.0 0.0 0.0 0.0 0.0 0.0
0.0 0.0 0.0 0.0 0.0 0.0 0.0 0.0
0.0 0.0 0.0 0.0 0.0 0.0 0.0 0.0
0.0 0.0 0.0 0.0 0.0 0.0 0.0 0.0
0.0 0.0 0.0 0.0 0.0 0.0 0.0 0.0
0.0 0.0 0.0 0.0 0.0 0.0 0.0 0.0
0.0 0.0 0.0 0.0 0.0 0.0 0.0 0.0
0.0 0.0 0.0 0.0 0.0 0.0 0.0 0.0
0.0 0.0 0.0 0.0 0.0 0.0 0.0 0.0
0.0 0.0 0.0 0.0 0.0 0.0 0.0 0.0

value_heads.value_heads.extrinsic.weight f4 [1, 128]
00000000: 2ecf 263c 0362 c43b 8a32 b8bd 9850 bfbc
00000010: de5c 063e 06de 4e3e 13e3 29be a296 0ebd
00000020: b77d 4ebd 01dc 533e 3f16 0b3d 2030 d2bb
00000030: d93a fe3c 2756 9e3d 771e 4bbe 246d 1a3d
00000040: 4567 41bd 7652 b0bd 1522 c1bb bafc 11be
00000050: 7a5b 5cbe 9de5 2b3d 60c6 2f3d 8c5e 203e
00000060: 8423 283e 5cf0 07bd 5058 f93d d811 adbd
00000070: 6e5e 2ebd f8a3 36be f72b ec3d 5398 d33d
00000080: 4ad2 5a3e 528d 573d 7b1e ca3b bfbf 6fbd
00000090: 2b32 8dbc 1a1b 30be 7e5e 9c3c de97 0dbd
000000a0: c127 19bd a0c2 7b3d 30e9 bcbd 619c 083d
000000b0: 6c6e 323d 4e44 bdbd 9dac dd3d 3f53 583c
000000c0: c8c8 283d 09e4 57be f4a4 433e 5d3b 8c3c
000000d0: ce89 efbc 5682 54bd e6c0 dbbc e86c 40be
000000e0: ef4a 99bc 1de0 093e 597f 4dbe 702e 60bc
000000f0: 889e 8ebd 281c 0ebe 463d 433d 74d4 08bc
00000100: 248f a6bd 78b1 1dbe 4dc2 68bd e695 333e
00000110: 8ced 993b 0134 583d 2dac 083d e47a 09be
00000120: c336 4b3e e0e7 d13c 11ea 34be 9596 23be
00000130: a67f 073a 0e52 4bbe 5d25 b8bc f8e6 0e3e
00000140: 075d 1fbe d453 28be d730 033d 54fa 90bd
00000150: dae7 e63d 829a 7cbd 08ca 03bd 56b7 f3bd
00000160: b33d d43b be48 a4bd 777a ffbd e93c 71bd
00000170: a59f 853d 7e4a b13c 82bd 573e 29f3 983b
00000180: 15a8 53bc 7c98 233e 2bba e9bc b70f 0bbe
00000190: bbe7 92bc c83b a43d e264 5b3e 858c ad3d
000001a0: 01e6 1dbe 357a 67bc 8909 ff3d 90bc f83d
000001b0: 9fac 41bd 5891 1d3e dfd6 0f3d b4b2 2cbe
000001c0: 352f 27be 37de b03d 9c72 fc3c 2d9d 103d
000001d0: 790c 4f3e ab37 533b 04cf 423d f63a 52be
000001e0: cf11 82bd 7151 543e 5d9c b43d 6339 223e
000001f0: 0c0c 023e e845 9c3d fdeb 043e 2b80 933d
0.010181231 0.005993129 -0.089940146 -0.02335386 0.13121364 0.20201883 -0.16590528 -0.034811623
-0.05041286 0.20689394 0.033956762 -0.0064144284 0.03103392 0.07731276 -0.1983584 0.03770174
-0.047217626 -0.08609478 -0.0058939555 -0.14256564 -0.2151927 0.041967023 0.042913795 0.15661067
0.16419798 -0.03318821 0.121750474 -0.08450669 -0.042570524 -0.17835987 0.11531823 0.10331788
0.21369281 0.052625008 0.0061681843 -0.058532473 -0.017235836 -0.17197838 0.019088026 -0.03456866
-0.037391428 0.061464906 -0.092241645 0.03335226 0.043562338 -0.09241544 0.10823939 0.013203441
0.041207105 -0.21083082 0.19105893 0.01711815 -0.029240515 -0.05188211 -0.02682538 -0.18791544
-0.018712489 0.13464399 -0.2006811 -0.013682947 -0.06963831 -0.13877928 0.047665857 -0.008351434
-0.08132771 -0.1539973 -0.056825925 0.1753765 0.0046975072 0.05278397 0.033367325 -0.13425785
0.19845109 0.025623262 -0.17667414 -0.15975411 0.00051688624 -0.1985552 -0.022478754 0.13955295
-0.15562831 -0.16438228 0.032029 -0.07078996 0.11274691 -0.061670788 -0.032175094 -0.11900203
0.0064770817 -0.08021687 -0.1247453 -0.05889598 0.065245904 0.021641966 0.21068385 0.004667659
-0.012918492 0.15976137 -0.028531155 -0.13580213 -0.017932763 0.08019215 0.21425202 0.084740676
-0.15419771 -0.0141282575 0.124529906 0.121453404 -0.047283765 0.15387475 0.035117026 -0.16865045
-0.16326602 0.08636134 0.030816369 0.035306145 0.20219602 0.0032229226 0.047560707 -0.20530304
-0.06351053 0.20734192 0.088188864 0.15842204 0.12699908 0.07630521 0.12980647 0.072021805
