results/sac5/AI Car/AI Car-0.onnx (onnx, 243728 bytes, 12 tensors)

network_body.observation_encoder.processors.0.normalizer.running_mean f4 [260]
0.0 0.0 0.0 0.0 0.0 0.0 0.0 0.0
0.0 0.0 0.0 0.0 0.0 0.0 0.0 0.0
0.0 0.0 0.0 0.0 0.0 0.0 0.0 0.0
0.0 0.0 0.0 0.0 0.0 0.0 0.0 0.0
0.0 0.0 0.0 0.0 0.0 0.0 0.0 0.0
0.0 0.0 0.0 0.0 0.0 0.0 0.0 0.0
0.0 0.0 0.0 0.0 0.0 0.0 0.0 0.0
0.0 0.0 0.0 0.0 0.0 0.0 0.0 0.0
0.0 0.0 0.0 0.0 0.0 0.0 0.0 0.0
0.0 0.0 0.0 0.0 0.0 0.0 0.0 0.0
0.0 0.0 0.0 0.0 0.0 0.0 0.0 0.0
0.0 0.0 0.0 0.0 0.0 0.0 0.0 0.0
0.0 0.0 0.0 0.0 0.0 0.0 0.0 0.0
0.0 0.0 0.0 0.0 0.0 0.0 0.0 0.0
0.0 0.0 0.0 0.0 0.0 0.0 0.0 0.0
0.0 0.0 0.0 0.0 0.0 0.0 0.0 0.0
0.0 0.0 0.0 0.0 0.0 0.0 0.0 0.0
0.0 0.0 0.0 0.0 0.0 0.0 0.0 0.0
0.0 0.0 0.0 0.0 0.0 0.0 0.0 0.0
0.0 0.0 0.0 0.0 0.0 0.0 0.0 0.0
0.0 0.0 0.0 0.0 0.0 0.0 0.0 0.0
0.0 0.0 0.0 0.0 0.0 0.0 0.0 0.0
0.0 0.0 0.0 0.0 0.0 0.0 0.0 0.0
0.0 0.0 0.0 0.0 0.0 0.0 0.0 0.0
0.0 0.0 0.0 0.0 0.0 0.0 0.0 0.0
0.0 0.0 0.0 0.0 0.0 0.0 0.0 0.0
0.0 0.0 0.0 0.0 0.0 0.0 0.0 0.0
0.0 0.0 0.0 0.0 0.0 0.0 0.0 0.0
0.0 0.0 0.0 0.0 0.0 0.0 0.0 0.0
0.0 0.0 0.0 0.0 0.0 0.0 0.0 0.0
0.0 0.0 0.0 0.0 0.0 0.0 0.0 0.0
0.0 0.0 0.0 0.0 0.0 0.0 0.0 0.0
00000000: 0000 0000 0000 0000 0000 0000 0000 0000
00000010: 0000 0000 0000 0000 0000 0000 0000 0000
00000020: 0000 0000 0000 0000 0000 0000 0000 0000
00000030: 0000 0000 0000 0000 0000 0000 0000 0000
00000040: 0000 0000 0000 0000 0000 0000 0000 0000
00000050: 0000 0000 0000 0000 0000 0000 0000 0000
00000060: 0000 0000 0000 0000 0000 0000 0000 0000
00000070: 0000 0000 0000 0000 0000 0000 0000 0000
00000080: 0000 0000 0000 0000 0000 0000 0000 0000
00000090: 0000 0000 0000 0000 0000 0000 0000 0000
000000a0: 0000 0000 0000 0000 0000 0000 0000 0000
000000b0: 0000 0000 0000 0000 0000 0000 0000 0000
000000c0: 0000 0000 0000 0000 0000 0000 0000 0000
000000d0: 0000 0000 0000 0000 0000 0000 0000 0000
000000e0: 0000 0000 0000 0000 0000 0000 0000 0000
000000f0: 0000 0000 0000 0000 0000 0000 0000 0000
00000100: 0000 0000 0000 0000 0000 0000 0000 0000
00000110: 0000 0000 0000 0000 0000 0000 0000 0000
00000120: 0000 0000 0000 0000 0000 0000 0000 0000
00000130: 0000 0000 0000 0000 0000 0000 0000 0000
00000140: 0000 0000 0000 0000 0000 0000 0000 0000
00000150: 0000 0000 0000 0000 0000 0000 0000 0000
00000160: 0000 0000 0000 0000 0000 0000 0000 0000
00000170: 0000 0000 0000 0000 0000 0000 0000 0000
00000180: 0000 0000 0000 0000 0000 0000 0000 0000
00000190: 0000 0000 0000 0000 0000 0000 0000 0000
000001a0: 0000 0000 0000 0000 0000 0000 0000 0000
000001b0: 0000 0000 0000 0000 0000 0000 0000 0000
000001c0: 0000 0000 0000 0000 0000 0000 0000 0000
000001d0: 0000 0000 0000 0000 0000 0000 0000 0000
000001e0: 0000 0000 0000 0000 0000 0000 0000 0000
000001f0: 0000 0000 0000 0000 0000 0000 0000 0000
00000200: 0000 0000 0000 0000 0000 0000 0000 0000
00000210: 0000 0000 0000 0000 0000 0000 0000 0000
00000220: 0000 0000 0000 0000 0000 0000 0000 0000
00000230: 0000 0000 0000 0000 0000 0000 0000 0000
00000240: 0000 0000 0000 0000 0000 0000 0000 0000
00000250: 0000 0000 0000 0000 0000 0000 0000 0000
00000260: 0000 0000 0000 0000 0000 0000 0000 0000
00000270: 0000 0000 0000 0000 0000 0000 0000 0000
00000280: 0000 0000 0000 0000 0000 0000 0000 0000
00000290: 0000 0000 0000 0000 0000 0000 0000 0000
000002a0: 0000 0000 0000 0000 0000 0000 0000 0000
000002b0: 0000 0000 0000 0000 0000 0000 0000 0000
000002c0: 0000 0000 0000 0000 0000 0000 0000 0000
000002d0: 0000 0000 0000 0000 0000 0000 0000 0000
000002e0: 0000 0000 0000 0000 0000 0000 0000 0000
000002f0: 0000 0000 0000 0000 0000 0000 0000 0000
00000300: 0000 0000 0000 0000 0000 0000 0000 0000
00000310: 0000 0000 0000 0000 0000 0000 0000 0000
00000320: 0000 0000 0000 0000 0000 0000 0000 0000
00000330: 0000 0000 0000 0000 0000 0000 0000 0000
00000340: 0000 0000 0000 0000 0000 0000 0000 0000
00000350: 0000 0000 0000 0000 0000 0000 0000 0000
00000360: 0000 0000 0000 0000 0000 0000 0000 0000
00000370: 0000 0000 0000 0000 0000 0000 0000 0000
00000380: 0000 0000 0000 0000 0000 0000 0000 0000
00000390: 0000 0000 0000 0000 0000 0000 0000 0000
000003a0: 0000 0000 0000 0000 0000 0000 0000 0000
000003b0: 0000 0000 0000 0000 0000 0000 0000 0000
000003c0: 0000 0000 0000 0000 0000 0000 0000 0000
000003d0: 0000 0000 0000 0000 0000 0000 0000 0000
000003e0: 0000 0000 0000 0000 0000 0000 0000 0000
000003f0: 0000 0000 0000 0000 0000 0000 0000 0000

network_body.observation_encoder.processors.1.normalizer.running_mean f4 [72]
0.0 0.0 0.0 0.0 0.0 0.0 0.0 0.0
0.0 0.0 0.0 0.0 0.0 0.0 0.0 0.0
0.0 0.0 0.0 0.0 0.0 0.0 0.0 0.0
0.0 0.0 0.0 0.0 0.0 0.0 0.0 0.0
0.0 0.0 0.0 0.0 0.0 0.0 0.0 0.0
0.0 0.0 0.0 0.0 0.0 0.0 0.0 0.0
0.0 0.0 0.0 0.0 0.0 0.0 0.0 0.0
0.0 0.0 0.0 0.0 0.0 0.0 0.0 0.0
0.0 0.0 0.0 0.0 0.0 0.0 0.0 0.0
00000000: 0000 0000 0000 0000 0000 0000 0000 0000
00000010: 0000 0000 0000 0000 0000 0000 0000 0000
00000020: 0000 0000 0000 0000 0000 0000 0000 0000
00000030: 0000 0000 0000 0000 0000 0000 0000 0000
00000040: 0000 0000 0000 0000 0000 0000 0000 0000
00000050: 0000 0000 0000 0000 0000 0000 0000 0000
00000060: 0000 0000 0000 0000 0000 0000 0000 0000
00000070: 0000 0000 0000 0000 0000 0000 0000 0000
00000080: 0000 0000 0000 0000 0000 0000 0000 0000
00000090: 0000 0000 0000 0000 0000 0000 0000 0000
000000a0: 0000 0000 0000 0000 0000 0000 0000 0000
000000b0: 0000 0000 0000 0000 0000 0000 0000 0000
000000c0: 0000 0000 0000 0000 0000 0000 0000 0000
000000d0: 0000 0000 0000 0000 0000 0000 0000 0000
000000e0: 0000 0000 0000 0000 0000 0000 0000 0000
000000f0: 0000 0000 0000 0000 0000 0000 0000 0000
00000100: 0000 0000 0000 0000 0000 0000 0000 0000
00000110: 0000 0000 0000 0000 0000 0000 0000 0000

network_body._body_endoder.seq_layers.0.weight f4 [128, 332]
-0.025066491 0.01927098 0.096306294 0.03491099 -0.026601883 0.0054523326 0.0048767147 0.009938066
-0.087550625 0.051850937 0.06226075 0.1047353 0.07866685 0.04067507 -0.019890113 -0.13984284
0.07672213 -0.06587651 -0.04507319 0.023285847 -0.08609953 -0.04443474 0.004015172 -0.011469
0.018213367 -0.067693226 0.077040456 -0.09942574 0.00531237 0.023542438 -0.10478672 -0.07631686
0.011668017 -0.006003787 0.0849881 -0.06921572 -0.05447667 0.019686498 -0.0005540291 0.03915202
0.018924676 -0.01862011 0.11834484 -0.07583082 0.04678334 -0.034801234 0.042919204 0.01052556
0.010162128 0.043532 -0.080238685 -0.013678405 0.057375032 -0.08794914 0.028061928 0.051935147
0.020126402 0.015371166 0.04834887 0.07282861 -0.04306155 -0.048548453 0.02702392 0.04058216
-0.02325466 0.026725648 -0.01514962 -0.0022520649 -0.016188914 -0.048692603 0.078951426 0.0046506636
0.04010755 -0.042805787 -0.0679643 -0.03073369 0.05317941 0.049053885 -0.06608022 -0.049803603
0.054620888 -0.009204776 0.06676418 0.07305679 0.07142789 0.059057064 -0.05798318 -0.052727636
-0.0170871 -0.0028064374 -0.07153234 0.047894206 -0.0104370685 -0.036525384 0.046411477 0.056632522
0.025188733 -0.012964382 0.051689416 -0.04199993 -0.080101065 0.048076786 0.030833662 -0.019772034
-0.07179876 0.11977034 -0.06936078 -0.0313095 0.040914312 -0.03563057 0.010946169 -0.074084304
-0.06909503 -0.07514278 -0.10933847 -0.033597123 -0.12349813 -0.01599864 0.009438485 0.110912345
-0.049869232 -0.060644127 0.031109704 0.045600016 0.02032195 -0.025933342 4.632338e-05 -0.0018875113
-0.060267735 0.009835719 0.0524865 0.026889415 -0.007937283 -0.023163041 -0.010822399 0.08873528
-0.049627144 0.010855375 -0.023098936 0.06228717 0.043849785 0.021263655 -0.070875145 0.055544112
-0.052503694 -0.0011816636 0.0140995225 -0.04324245 -0.017882492 0.061448686 0.011346948 -0.03210406
-0.03508091 0.025781697 -0.1163482 -0.05406956 0.03467984 -0.010472731 -0.053217947 0.06788225
0.009948584 -0.01613025 -0.0057829553 0.010792393 0.0713455 0.036291048 -0.0029139533 -0.07066683
0.0026378317 -0.016172972 0.06557422 0.032049645 -0.012783431 0.027936637 0.04346745 -0.08084042
-0.040144864 0.07306961 0.034998402 -0.0042758808 0.039192207 0.08421762 0.04838931 0.007786656
0.13220526 0.008498962 0.016839668 -0.024538832 -0.020113943 -0.041968826 0.072192475 -0.026738761
-0.12707199 0.049384203 -0.06312161 0.03562308 -0.0048146304 0.060087163 0.011193062 0.054665893
0.0038096674 0.032144558 -0.09101492 0.002421346 -0.022919593 -0.084902845 0.012035406 -0.037511427
0.037804835 0.042587962 -0.09675619 0.0100732995 0.047723778 -0.045244306 -0.0074737375 -0.008843565
0.08271354 0.042019274 -0.10505172 -0.022915227 -0.061298363 0.006105464 0.030520804 -0.074518956
0.03166247 -0.07765103 0.004926547 -0.05622102 -0.036650147 0.039483 0.09058223 0.012242472
-0.010527541 0.015489131 -0.10256822 -0.04830565 -0.05974108 0.003782025 0.018012812 0.033648793
-0.010188702 -0.012720408 -0.07440762 -0.035769552 0.021221772 0.039349843 0.0868954 0.103979036
0.048855703 -0.02335886 -0.05602116 -0.074075356 -0.07319397 0.017416475 0.06956036 0.053006765
00000000: 3e58 cdbc 2dde 9d3c 3c3c c53d d4fe 0e3d
00000010: 31ec d9bc 7ba9 b23b d9cc 9f3b 45d3 223c
00000020: be4d b3bd a661 543d 2105 7f3d 767f d63d
00000030: 161c a13d e79a 263d 97f0 a2bc f632 0fbe
00000040: 7e20 9d3d 44ea 86bd aa9e 38bd f6c1 be3c
00000050: f354 b0bd 3401 36bd b491 833b 79e8 3bbc
00000060: 3334 953c bfa2 8abd 63c7 9d3d b99f cbbd
00000070: 6413 ae3b 12dc c03c 6b9a d6bd 044c 9cbd
00000080: 362b 3f3c 6abb c4bb 3e0e ae3d f9c0 8dbd
00000090: ee22 5fbd 9445 a13c 433c 11ba de5d 203d
000000a0: ec07 9b3c 3389 98bc c85e f23d 304d 9bbd
000000b0: e39f 3f3d bd8b 0ebd 0ccc 2f3d 6673 2c3c
000000c0: 0e7f 263c 9c4e 323d 2e54 a4bd 641b 60bc
000000d0: 1502 6b3d ae1e b4bd 21e2 e53c f3b9 543d
000000e0: 20e0 a43c 58d7 7b3c 7709 463d 2b27 953d
000000f0: 4f61 30bd beda 46bd 4561 dd3c 7b39 263d
00000100: 8f80 bebc bfef da3c 1d36 78bc 6197 13bb
00000110: 9d9e 84bc e571 47bd 49b1 a13d 9864 983b
00000120: d047 243d 1f55 2fbd de30 8bbd 38c5 fbbc
00000130: a7d2 593d baec 483d 1155 87bd ddfe 4bbd
00000140: 27ba 5f3d a1cf 16bc a9bb 883d cc9e 953d
00000150: c948 923d d2e5 713d c57f 6dbd eff8 57bd
00000160: 3ffa 8bbc 35ec 37bb 8c7f 92bd b72c 443d
00000170: 3d00 2bbc a49b 15bd f619 3e3d 81f7 673d
00000180: 9a58 ce3c 8f68 54bc 48b8 533d 1e08 2cbd
00000190: 070c a4bd 2aec 443d e096 fc3c f6f8 a1bc
000001a0: 3a0b 93bd 274a f53d 060d 8ebd 643e 00bd
000001b0: c495 273d 5cf1 11bd 8f57 333c 83b9 97bd
000001c0: b281 8dbd 75e4 99bd d9ec dfbd 239d 09bd
000001d0: 96ec fcbd 940f 83bc e0a3 1a3c 0326 e33d
000001e0: ae43 4cbd fa65 78bd c7d9 fe3c 15c7 3a3d
000001f0: 387a a63c 2972 d4bc 5a4b 4238 5f66 f7ba
00000200: 4ddb 76bd ff25 213c 16fc 563d 3147 dc3c
00000210: 610b 02bc 6bc0 bdbc 6e50 31bc d8ba b53d
00000220: d545 4bbd beda 313c fb39 bdbc d520 7f3d
00000230: d59b 333d 1e31 ae3c fd26 91bd 3982 633d
00000240: 1d0e 57bd 0de2 9aba af01 673c ff1e 31bd
00000250: 4e7e 92bc 9eb1 7b3d 8de8 393c 8c7f 03bd
00000260: 00b1 0fbd 2334 d33c f747 eebd 0b78 5dbd
00000270: 730c 0e3d d195 2bbc 10fb 59bd d905 8b3d
00000280: 63ff 223c 9623 84bc f27e bdbb 94d2 303c
00000290: 971d 923d eca5 143d 06f8 3ebb c5b9 90bd
000002a0: 79df 2c3b 2e7d 84bc c74b 863d 7d46 033d
000002b0: 9971 51bc 60db e43c ed0a 323d aa8f a5bd
000002c0: f16e 24bd 85a5 953d 7c5a 0f3d b01c 8cbb
000002d0: 0288 203d 4a7a ac3d de33 463d 3427 ff3b
000002e0: d160 073e 3b3f 0b3c 58f3 893c a905 c9bc
000002f0: ffc5 a4bc 81e7 2bbd a6d9 933d 3f0b dbbc
00000300: 291f 02be 1747 4a3d e745 81bd 82e9 113d
00000310: 0cc4 9dbb f51d 763d 1b63 373c 58e9 5f3d
00000320: 9dab 793b 03aa 033d 0866 babd 72af 1e3b
00000330: dfc1 bbbc 8be1 adbd 2730 453c 95a5 19bd
00000340: 3ed9 1a3d b770 2e3d 1c28 c6bd 7b0a 253c
00000350: 027a 433d 1852 39bd 41e6 f4bb 9ae4 10bc
00000360: b765 a93d 671c 2c3d 5b25 d7bd b7b8 bbbc
00000370: fe13 7bbd 5810 c83b c406 fa3c 659d 98bd
00000380: 82b0 013d 8107 9fbd df6e a13b 0348 66bd
00000390: 771e 16bd edb8 213d 2d83 b93d a694 483c
000003a0: b57b 2cbc 20c6 7d3c 490f d2bd 25dc 45bd
000003b0: 10b3 74bd dadb 773b 9b8f 933c 51d3 093d
000003c0: 83ee 26bc 4269 50bc 0663 98bd 1883 12bd
000003d0: 48d9 ad3c 4d2d 213d 37f6 b13d f6f2 d43d
000003e0: eb1c 483d 145b bfbc 7276 65bd d2b4 97bd
000003f0: b8e6 95bd ffac 8e3c a975 8e3d 9f1d 593d

network_body._body_endoder.seq_layers.0.bias f4 [128]
0.0 0.0 0.0 0.0 0.0 0.0 0.0 0.0
0.0 0.0 0.0 0.0 0.0 0.0 0.0 0.0
0.0 0.0 0.0 0.0 0.0 0.0 0.0 0.0
0.0 0.0 0.0 0.0 0.0 0.0 0.0 0.0
0.0 0.0 0.0 0.0 0.0 0.0 0.0 0.0
0.0 0.0 0.0 0.0 0.0 0.0 0.0 0.0
0.0 0.0 0.0 0.0 0.0 0.0 0.0 0.0
0.0 0.0 0.0 0.0 0.0 0.0 0.0 0.0
0.0 0.0 0.0 0.0 0.0 0.0 0.0 0.0
0.0 0.0 0.0 0.0 0.0 0.0 0.0 0.0
0.0 0.0 0.0 0.0 0.0 0.0 0.0 0.0
0.0 0.0 0.0 0.0 0.0 0.0 0.0 0.0
0.0 0.0 0.0 0.0 0.0 0.0 0.0 0.0
0.0 0.0 0.0 0.0 0.0 0.0 0.0 0.0
0.0 0.0 0.0 0.0 0.0 0.0 0.0 0.0
0.0 0.0 0.0 0.0 0.0 0.0 0.0 0.0
00000000: 0000 0000 0000 0000 0000 0000 0000 0000
00000010: 0000 0000 0000 0000 0000 0000 0000 0000
00000020: 0000 0000 0000 0000 0000 0000 0000 0000
00000030: 0000 0000 0000 0000 0000 0000 0000 0000
00000040: 0000 0000 0000 0000 0000 0000 0000 0000
00000050: 0000 0000 0000 0000 0000 0000 0000 0000
00000060: 0000 0000 0000 0000 0000 0000 0000 0000
00000070: 0000 0000 0000 0000 0000 0000 0000 0000
00000080: 0000 0000 0000 0000 0000 0000 0000 0000
00000090: 0000 0000 0000 0000 0000 0000 0000 0000
000000a0: 0000 0000 0000 0000 0000 0000 0000 0000
000000b0: 0000 0000 0000 0000 0000 0000 0000 0000
000000c0: 0000 0000 0000 0000 0000 0000 0000 0000
000000d0: 0000 0000 0000 0000 0000 0000 0000 0000
000000e0: 0000 0000 0000 0000 0000 0000 0000 0000
000000f0: 0000 0000 0000 0000 0000 0000 0000 0000
00000100: 0000 0000 0000 0000 0000 0000 0000 0000
00000110: 0000 0000 0000 0000 0000 0000 0000 0000
00000120: 0000 0000 0000 0000 0000 0000 0000 0000
00000130: 0000 0000 0000 0000 0000 0000 0000 0000
00000140: 0000 0000 0000 0000 0000 0000 0000 0000
00000150: 0000 0000 0000 0000 0000 0000 0000 0000
00000160: 0000 0000 0000 0000 0000 0000 0000 0000
00000170: 0000 0000 0000 0000 0000 0000 0000 0000
00000180: 0000 0000 0000 0000 0000 0000 0000 0000
00000190: 0000 0000 0000 0000 0000 0000 0000 0000
000001a0: 0000 0000 0000 0000 0000 0000 0000 0000
000001b0: 0000 0000 0000 0000 0000 0000 0000 0000
000001c0: 0000 0000 0000 0000 0000 0000 0000 0000
000001d0: 0000 0000 0000 0000 0000 0000 0000 0000
000001e0: 0000 0000 0000 0000 0000 0000 0000 0000
000001f0: 0000 0000 0000 0000 0000 0000 0000 0000

network_body._body_endoder.seq_layers.2.weight f4 [128, 128]
-0.05304666 0.004362727 -0.002077823 0.06785314 0.070360094 -0.06723127 -0.07286168 -0.09003121
0.0391426 0.031914294 0.028548747 0.009166611 0.08569947 0.010393726 0.11838748 0.0270588
0.0123133585 0.073852934 -0.16515003 0.06926933 0.14321393 0.047658026 -0.031785123 0.058616802
-0.121251605 -0.09588472 -0.06351618 -0.0027615775 0.048921075 -0.07816633 -0.2686994 -0.15869702
-0.04590877 0.082596734 -0.05550628 -0.14293653 -0.037696827 -0.03247356 -0.037822135 -0.040563837
-0.03641641 -0.05992015 -0.061328832 -0.08952405 -0.093584575 0.011725134 -0.053144854 0.01192527
-0.07220526 0.06564935 0.020064075 -0.103423536 -0.106632866 0.16856578 -0.09541434 0.17848267
-0.01351871 0.052022893 0.06145293 0.06998471 -0.08320796 0.054096784 -0.022163562 -0.02405769
-0.038801454 0.16915317 0.01849701 0.037893314 0.012823226 -0.044225033 -0.0009749886 -0.010440026
-0.043955278 -0.02238105 -0.13986114 -0.036132503 0.012659169 0.040415198 0.09530864 0.039937016
-0.0937886 -0.09151365 0.04308499 -0.04797981 0.013648599 0.09599498 0.0075295297 0.22982225
0.04535938 -0.00975323 -0.089979544 -0.21922746 -0.036926482 -0.03962813 -0.019727416 -0.06310785
0.12129605 -0.115901016 0.046318542 -0.123687424 -0.027624764 -0.090646856 0.016077407 -0.00554055
-0.032371216 0.070901304 0.10409178 0.13939367 -0.06866621 0.16532199 0.0030857448 -0.08620785
0.0038201169 0.028617175 -0.05277527 0.058427125 0.0587382 0.1329015 -0.10600923 0.020298935
-0.09910738 0.13903391 0.14218059 -0.12829599 0.0069552613 0.065187 -0.015195473 -0.15092254
0.0017830958 0.028662946 0.023649445 0.044089932 0.042551108 0.05512723 -0.0491292 -0.08589728
0.03328278 0.1588052 -0.07200737 0.057451054 0.05281366 0.06324645 0.08185548 -0.06154785
-0.04769782 0.021585727 -0.068246566 0.076059274 -0.0668906 -0.049400304 -0.06290649 -0.026641326
0.051954184 -0.1365354 -0.009814288 0.12138239 0.10506974 -0.1527593 -0.073330395 0.002997996
-0.06715001 0.019967617 -0.017121982 -0.02876383 -0.042445887 -0.019834468 0.12558113 0.10815355
0.04492423 0.032442536 0.10120932 -0.05861504 0.07065394 -0.053461805 -0.0486834 0.050370086
0.019286046 0.046221957 0.072174 0.12665434 -0.069288395 0.054408874 -0.09558667 0.13383497
-0.08135712 0.017491434 0.06022615 0.13735794 -0.007218483 -0.06552129 -0.11077688 -0.08352522
-0.004750296 0.11605374 -0.05991874 0.010278813 0.08556494 0.027163643 0.021244597 0.055525117
-0.07969373 0.021700483 0.029066868 -0.11465745 0.016675377 -0.08598064 -0.0772452 -0.022990193
0.028244084 -0.02265088 -0.03718472 -0.014501826 0.08968801 -0.020472562 0.14637159 0.12899731
0.06627845 -0.134057 0.19800979 -0.089943245 0.015954029 0.02171583 0.21991715 -0.09264072
0.013992962 -0.00894199 -0.049053814 -0.024054892 0.12452412 0.10494949 -0.092102885 0.23360378
-0.0026449973 0.10234466 -0.0038248608 0.008336324 0.06395126 0.06408516 0.06847036 0.07330191
-0.018047921 -0.09190314 -0.26268595 -0.030826133 -0.057667382 0.098325826 -0.15025264 -0.006637815
-0.010925698 0.008626496 0.09659471 0.073204115 0.010925834 0.14418697 -0.010025328 -0.004369882
00000000: 7447 59bd 35f5 8e3b 162c 08bb 96f6 8a3d
00000010: f418 903d 8cb0 89bd 8138 95bd 4862 b8bd
00000020: fe53 203d 90b8 023d 10df e93c 8e2f 163c
00000030: 3483 af3d 724a 2a3c 2375 f23d 6baa dd3c
00000040: f8bd 493c 3540 973d 171d 29be 14dd 8d3d
00000050: aca6 123e 1035 433d 1e31 02bd 2c18 703d
00000060: c352 f8bd 355f c4bd c514 82bd 95fb 34bb
00000070: 7761 483d ab15 a0bd f892 89be 7981 22be
00000080: d60a 3cbd 7a28 a93d 8e5a 63bd f45d 12be
00000090: fd67 1abd ff02 05bd 62eb 1abd 4426 26bd
000000a0: 6029 15bd d56e 75bd f133 7bbd 6358 b7bd
000000b0: 45a9 bfbd c71a 403c 6bae 59bd 3562 433c
000000c0: 5ae0 93bd 2b73 863d 6a5d a43c b8cf d3bd
000000d0: 5562 dabd 829c 2c3e 9868 c3bd 29c4 363e
000000e0: 947d 5dbc f515 553d 11b6 7b3d 2554 8f3d
000000f0: ef68 aabd 9794 5d3d 5c90 b5bc a214 c5bc
00000100: 46ee 1ebd 7d36 2d3e 0b87 973c 0536 1b3d
00000110: 8218 523c 4f25 35bd 6196 7fba a50c 2bbc
00000120: 730a 34bd 7758 b7bc c237 0fbe adff 13bd
00000130: 6768 4f3c 688a 253d 2d31 c33d ff94 233d
00000140: 3d14 c0bd 826b bbbd e379 303d 7a86 44bd
00000150: 609e 5f3c 0499 c43d 46ba f63b 8656 6b3e
00000160: c2ca 393d 03cc 1fbc 3247 b8bd 2a7d 60be
00000170: 3940 17bd 1b51 22bd 649b a1bc b03e 81bd
00000180: 106a f83d 835d edbd 83b8 3d3d d54f fdbd
00000190: 544d e2bc 0fa5 b9bd c4b4 833c 818d b5bb
000001a0: ae97 04bd b434 913d 122e d53d 37bd 0e3e
000001b0: dfa0 8cbd 2b4a 293e 353a 4a3b be8d b0bd
000001c0: ed5a 7a3b 916e ea3c e22a 58bd 4851 6f3d
000001d0: 7897 703d 5517 083e 5e1b d9bd f449 a63c
000001e0: cff8 cabd e85e 0e3e ca97 113e 0660 03be
000001f0: f6e8 e33b c380 853d 6ff6 78bc 708b 1abe
00000200: c4b6 e93a 8ece ea3c 7bbc c13c a597 343d
00000210: 124a 2e3d 17cd 613d b33b 49bd eaea afbd
00000220: 8653 083d d59d 223e 9a78 93bd cc51 6b3d
00000230: 2353 583d 5b87 813d d9a3 a73d 9919 7cbd
00000240: ca5e 43bd 8dd4 b03c dbc4 8bbd f7c4 9b3d
00000250: f0fd 88bd f957 4abd 1ed5 80bd e93e dabc
00000260: e9cd 543d f0cf 0bbe 1bcc 20bc 5597 f83d
00000270: ce2e d73d ef6c 1cbe 3f2e 96bd 077a 443b
00000280: f285 89bd 2193 a33c 6643 8cbc 20a2 ebbc
00000290: bddb 2dbd e57b a2bc 5798 003e 9c7f dd3d
000002a0: 7802 383d 77e2 043d d546 cf3d 5316 70bd
000002b0: 03b3 903d c4fa 5abd 3f68 47bd dd50 4e3d
000002c0: c5fd 9d3c 3c53 3d3d f6cf 933d adb1 013e
000002d0: 13e7 8dbd d7db 5e3d f2c2 c3bd 090c 093e
000002e0: 909e a6bd 324a 8f3c b2af 763d 8fa7 0c3e
000002f0: 0689 ecbb 0730 86bd fdde e2bd 450f abbd
00000300: 5fa8 9bbb 95ad ed3d 5a6d 75bd 7768 283c
00000310: ac3c af3d 4a86 de3c 2609 ae3c 4e6e 633d
00000320: 7736 a3bd 36c5 b13c a41d ee3c 86d1 eabd
00000330: cd9a 883c 9e16 b0bd bb32 9ebd ee55 bcbc
00000340: 2360 e73c 578e b9bc 014f 18bd 1199 6dbc
00000350: 59ae b73d 13b6 a7bc 6fe2 153e df17 043e
00000360: ffbc 873d 3d46 09be 14c3 4a3e 2a34 b8bd
00000370: 06b2 823c 65e5 b13c f631 613e 6bba bdbd
00000380: bd42 653c 6d81 12bc a7ec 48bd c40e c5bc
00000390: 8006 ff3d c2ef d63d 70a0 bcbd d435 6f3e
000003a0: b157 2dbb 149a d13d 84aa 7abb 1495 083c
000003b0: e1f8 823d 153f 833d 303a 8c3d 501f 963d
000003c0: 3cd9 93bc b737 bcbd c67e 86be 1687 fcbc
000003d0: a234 6cbd 0d5f c93d d4db 19be 0782 d9bb
000003e0: b301 33bc 2656 0d3c 73d3 c53d 0aec 953d
000003f0: 4502 333c c0a5 133e 4641 24bc 3a31 8fbb

network_body._body_endoder.seq_layers.2.bias f4 [128]
0.0 0.0 0.0 0.0 0.0 0.0 0.0 0.0
0.0 0.0 0.0 0.0 0.0 0.0 0.0 0.0
0.0 0.0 0.0 0.0 0.0 0.0 0.0 0.0
0.0 0.0 0.0 0.0 0.0 0.0 0.0 0.0
0.0 0.0 0.0 0.0 0.0 0.0 0.0 0.0
0.0 0.0 0.0 0.0 0.0 0.0 0.0 0.0
0.0 0.0 0.0 0.0 0.0 0.0 0.0 0.0
0.0 0.0 0.0 0.0 0.0 0.0 0.0 0.0
0.0 0.0 0.0 0.0 0.0 0.0 0.0 0.0
0.0 0.0 0.0 0.0 0.0 0.0 0.0 0.0
0.0 0.0 0.0 0.0 0.0 0.0 0.0 0.0
0.0 0.0 0.0 0.0 0.0 0.0 0.0 0.0
0.0 0.0 0.0 0.0 0.0 0.0 0.0 0.0
0.0 0.0 0.0 0.0 0.0 0.0 0.0 0.0
0.0 0.0 0.0 0.0 0.0 0.0 0.0 0.0
0.0 0.0 0.0 0.0 0.0 0.0 0.0 0.0
00000000: 0000 0000 0000 0000 0000 0000 0000 0000
00000010: 0000 0000 0000 0000 0000 0000 0000 0000
00000020: 0000 0000 0000 0000 0000 0000 0000 0000
00000030: 0000 0000 0000 0000 0000 0000 0000 0000
00000040: 0000 0000 0000 0000 0000 0000 0000 0000
00000050: 0000 0000 0000 0000 0000 0000 0000 0000
00000060: 0000 0000 0000 0000 0000 0000 0000 0000
00000070: 0000 0000 0000 0000 0000 0000 0000 0000
00000080: 0000 0000 0000 0000 0000 0000 0000 0000
00000090: 0000 0000 0000 0000 0000 0000 0000 0000
000000a0: 0000 0000 0000 0000 0000 0000 0000 0000
000000b0: 0000 0000 0000 0000 0000 0000 0000 0000
000000c0: 0000 0000 0000 0000 0000 0000 0000 0000
000000d0: 0000 0000 0000 0000 0000 0000 0000 0000
000000e0: 0000 0000 0000 0000 0000 0000 0000 0000
000000f0: 0000 0000 0000 0000 0000 0000 0000 0000
00000100: 0000 0000 0000 0000 0000 0000 0000 0000
00000110: 0000 0000 0000 0000 0000 0000 0000 0000
00000120: 0000 0000 0000 0000 0000 0000 0000 0000
00000130: 0000 0000 0000 0000 0000 0000 0000 0000
00000140: 0000 0000 0000 0000 0000 0000 0000 0000
00000150: 0000 0000 0000 0000 0000 0000 0000 0000
00000160: 0000 0000 0000 0000 0000 0000 0000 0000
00000170: 0000 0000 0000 0000 0000 0000 0000 0000
00000180: 0000 0000 0000 0000 0000 0000 0000 0000
00000190: 0000 0000 0000 0000 0000 0000 0000 0000
000001a0: 0000 0000 0000 0000 0000 0000 0000 0000
000001b0: 0000 0000 0000 0000 0000 0000 0000 0000
000001c0: 0000 0000 0000 0000 0000 0000 0000 0000
000001d0: 0000 0000 0000 0000 0000 0000 0000 0000
000001e0: 0000 0000 0000 0000 0000 0000 0000 0000
000001f0: 0000 0000 0000 0000 0000 0000 0000 0000

action_model._continuous_distribution.mu.weight f4 [2, 128]
-0.007434433 -0.0063645565 -0.0014113426 0.025176445 0.027977956 -0.010428751 -0.003106008 0.00016922614
0.010317679 -0.018796291 0.008214725 0.010628856 0.010646003 0.008335488 -0.020111378 0.007139962
-0.019703994 -0.007177619 -0.0077778595 -0.035356063 -0.0047539207 0.017211251 -0.0021333217 -0.006309026
0.027128115 -0.022162823 0.002225232 -0.006701144 -0.04506578 -0.0038310208 0.00226581 0.005484577
0.009658259 0.008901566 0.026775992 -0.0012422544 0.017759543 -0.026042063 -0.00037857104 -0.021802334
-0.018814787 0.049993373 -0.019276021 -0.0026599253 -0.005089007 -0.008329873 0.023586435 0.0058024544
0.023269137 -0.017324543 0.017046629 -0.01908015 0.007963076 -0.005545096 0.014635305 -0.009767414
-0.009502698 0.0110029895 0.026061207 0.013665142 -0.010224945 0.019161878 4.330067e-06 0.0114014745
0.0024575905 0.017867211 -0.0045340047 -0.020111352 0.0022902011 -0.0028692416 0.016265811 -0.015284898
-0.02289093 -0.011525972 0.0044994853 0.023689667 0.0005531722 0.012790242 -0.013037163 -0.008072058
-0.004629943 -0.0058605634 -0.0053158565 -0.025047911 -0.011759414 -0.005524989 0.03451106 -0.031237943
0.005110458 -0.0029253426 0.00051905017 -0.022613557 0.0009369069 8.299689e-05 -0.006550234 0.0043862397
0.014090258 -0.005810109 -0.012012423 0.010844218 -0.019593827 0.008721645 0.021350985 -0.009799923
0.0047680996 0.022249313 -0.011590085 0.035099905 0.0010089114 -0.0056682187 -0.0016210567 -0.017298548
-0.007822401 -0.023074787 0.009740348 0.01865862 -0.010015131 0.0062944368 -0.028539134 -0.0018619773
-0.0052214023 0.0007576404 -0.009286271 0.0071622184 -0.0064734886 0.009373694 0.010586412 0.0036674202
-0.0023564543 0.014633 0.009955019 -0.014862175 -0.0029176313 0.002016281 0.0020547474 0.0072769085
-0.013102004 0.002734315 -0.010591471 -0.016238837 0.002286353 -0.015090621 -0.00953743 0.0012042102
-0.016553769 -0.026715746 -0.0028861077 0.013367213 0.021297581 -0.0025661779 0.012981531 0.027242644
0.023632526 -0.01146887 0.008277231 -0.0020074071 0.0014873666 0.001358294 0.027253484 0.0027062779
0.018483587 0.009703207 0.028557578 -0.004201414 0.010654953 0.02593936 0.014453853 0.005760746
0.026780898 -0.0063666687 0.015962062 -0.0043394887 0.0472559 -0.00630372 -0.019607881 -0.020807596
-0.011011149 -0.005890528 0.014149773 0.012466057 0.0016618265 -0.007753923 0.00096091314 -0.016756754
5.2350068e-05 -0.04407335 0.01573011 0.02651908 -0.008079328 -0.002194992 0.0322663 0.015906623
-0.00787394 -0.013153891 -0.00028105426 0.013386177 0.027825741 -0.012435689 -0.033448014 0.015749991
0.0010065389 -0.034874015 0.006388485 0.0117218215 0.016045548 0.0045600007 -0.011460805 -0.020810178
-0.006685485 0.0086176125 -0.018155733 0.00014576546 -0.0061335107 0.0050738915 0.016679289 -0.0026152914
0.01561994 0.015432894 0.025810853 -0.04308834 -0.002874011 -0.032246016 -0.00021184972 -0.008146234
0.030906761 -0.006454624 0.010415843 -0.013031878 -0.002910559 0.013049619 -0.029034195 0.00078599126
0.024259089 0.0041802935 -0.01252721 -0.0041824994 0.016271746 0.005901708 0.030850634 0.0025766194
-0.0009619264 0.021710971 0.009476138 -0.010465691 0.027391976 0.010473103 0.011668177 -0.005890043
-0.009663059 0.022862993 -0.0031948609 0.0145712765 -0.004637088 8.9840636e-05 -0.021480007 -0.028374542
00000000: 8b9c f3bb c58d d0bb cdfc b8ba d53e ce3c
00000010: 0732 e53c 5add 2abc 2b8e 4bbb 4c72 3139
00000020: 7b0b 293c aefa 99bc 0e97 063c a724 2e3c
00000030: 936c 2e3c 9291 083c 9ec0 a4bc 58f6 e93b
00000040: 456a a1bc 3b32 ebbb 6add febb 85d1 10bd
00000050: c7c6 9bbb 9cfe 8c3c 33cf 0bbb f2bb cebb
00000060: c83b de3c cf8e b5bc 33d5 113b 4595 dbbb
00000070: e596 38bd dd11 7bbb fc7d 143b f7b7 b33b
00000080: ad3d 1e3c e0d7 113c 5359 db3c 24d3 a2ba
00000090: 767c 913c 2a56 d5bc f27a c6b9 cf9a b2bc
000000a0: 7821 9abc dac5 4c3d bfe8 9dbc 2452 2ebb
000000b0: afc1 a6bb 057a 08bc 5738 c13c 8422 be3b
000000c0: eb9e be3c 33ec 8dbc 5fa5 8b3c fa4d 9cbc
000000d0: 9077 023c a3b3 b5bb ebc8 6f3c 8107 20bc
000000e0: 34b1 1bbc e245 343c 507e d53c c2e3 5f3c
000000f0: 8786 27bc 5ff9 9c3c fe4a 9136 40cd 3a3c
00000100: 870f 213b 425e 923c fd91 94bb 90c0 a4bc
00000110: 3317 163b e309 3cbb e13f 853c 826d 7abc
00000120: c285 bbbc 6ed7 3cbc 6b70 933b d510 c23c
00000130: c202 113a 2a8e 513c d399 55bc aa40 04bc
00000140: c7b6 97bb f809 c0bb a330 aebb 4731 cdbc
00000150: 8faa 40bc f80a b5bb 785b 0d3d b7e6 ffbc
00000160: a175 a73b 1bb7 3fbb de10 083a 1140 b9bc
00000170: c29a 753a 9e0e ae38 58a3 d6bb 72ba 8f3b
00000180: d3da 663c ba62 bebb c1cf 44bc f2ab 313c
00000190: 3c83 a0bc 3be5 0e3c 43e8 ae3c db8f 20bc
000001a0: b83d 9c3b 3144 b63c 57e4 3dbc ebc4 0f3d
000001b0: 733d 843a 77bc b9bb a379 d4ba afb5 8dbc
000001c0: 8729 00bc 5607 bdbc fb95 1f3c f6d9 983c
000001d0: 8116 24bc 9041 ce3b e7ca e9bc 970d f4ba
000001e0: 4c18 abbb 639c 463a 7225 18bc 0bb1 ea3b
000001f0: 8f1f d4bb 1f94 193c a172 2d3c 1a59 703b
00000200: be6e 1abb 40bf 6f3c 601a 233c 7b80 73bc
00000210: bb35 3fbb 9523 043b f1a8 063b 2273 ee3b
00000220: caa9 56bc 3232 333b d987 2dbc 4f07 85bc
00000230: a3d6 153b a73e 77bc e142 1cbc 97d6 9d3a
00000240: c59b 87bc fbda dabc da24 3dbb 2802 5b3c
00000250: 4478 ae3c 522d 28bb 7db0 543c f72b df3c
00000260: 0099 c13c ede7 3bbc 399d 073c b48e 03bb
00000270: bef3 c23a c908 b23a b342 df3c cf5b 313b
00000280: e46a 973c 33fa 1e3c 95f1 e93c 04ac 89bb
00000290: 1d92 2e3c c87e d43c dacf 6c3c a4c4 bc3b
000002a0: 9d63 db3c 7d9f d0bb dfc2 823c 4532 8ebb
000002b0: 678f 413d 708f cebb b5a0 a0bc b174 aabc
000002c0: 1b68 34bc 5505 c1bb 73d4 673c 6f3e 4c3c
000002d0: a5d1 d93a 9f14 febb cae5 7b3a 7645 89bc
000002e0: 7592 5b38 4286 34bd 6fdc 803c 8b3e d93c
000002f0: 285f 04bc dbd9 0fbb ab29 043d 9b4e 823c
00000300: b301 01bc 6b83 57bc 775a 93b9 b251 5b3c
00000310: cff2 e33c 0fbf 4bbc c900 09bd 2006 813c
00000320: d7ed 833a 0ed8 0ebd 7f56 d13b e20c 403c
00000330: f471 833c 0f6c 953b 1ac6 3bbc 1b7a aabc
00000340: ea11 dbbb e330 0d3c 55bb 94bc 9ed8 1839
00000350: 9efb c8bb e342 a63b 01a3 883c 4f65 2bbb
00000360: c7ea 7f3c 40da 7c3c 4871 d33c 667d 30bd
00000370: e759 3cbb 6614 04bd fa23 5eb9 c877 05bc
00000380: 2d30 fd3c 4f81 d3bb 36a7 2a3c a883 55bc
00000390: 14bf 3ebb 12ce 553c 1fd9 edbc fb0a 4e3a
000003a0: ffba c63c d8fa 883b ed3e 4dbc 590d 89bb
000003b0: 534c 853c 1d63 c13b 78ba fc3c 80dc 283b
000003c0: ca29 7cba 35db b13c ce41 1b3c 4a78 2bbc
000003d0: 2365 e03c 6197 2b3c e22b 3f3c 4301 c1bb
000003e0: cf51 1ebc 2c4b bb3c df60 51bb 5dbc 6e3c
000003f0: b7f2 97bb d368 bc38 d7f6 afbc ba71 e8bc

action_model._continuous_distribution.mu.bias f4 [2]
0.0 0.0
00000000: 0000 0000 0000 0000

action_model._continuous_distribution.log_sigma.weight f4 [2, 128]
0.0021336086 -0.012828474 -0.0318598 0.03160335 0.0029026284 -0.005778763 -0.011804904 0.016909452
0.0107243685 0.009911262 -0.005316568 -0.025523877 0.016823193 -0.020483289 -0.0018492112 -0.010587161
-0.010359541 -0.0039263694 0.0029365164 -0.012337402 -0.013707943 0.003065287 0.001740455 0.012487105
-0.0027518875 0.006781605 -0.004898544 -0.021199478 0.0036960447 -0.033117257 0.0014716437 0.022396533
0.01626054 -0.05464813 -0.01216913 -0.0018081801 0.015737403 -0.009331835 -0.028962627 -0.0068789595
0.0046794536 0.0048007043 -0.011097321 0.0024926937 0.010369665 -0.01631035 0.0429684 0.014959334
0.0026625958 0.005159591 -6.101996e-05 -0.013721326 0.009830522 9.708222e-05 -0.004800421 0.005086323
-0.009954737 -0.028321479 0.005536008 0.0011714984 -0.011459912 0.007406509 -0.0024566322 -0.009278088
-0.013243416 0.01571828 0.012541072 -0.033163883 0.03446429 0.0011992763 0.029838016 -0.032131717
-0.016419118 0.009130646 -0.022635592 0.013965942 0.00093129865 -0.0020574608 0.001904051 -0.020817656
-0.013823867 0.02765643 0.005043264 0.021450864 0.026576802 0.015445696 0.002703546 -0.007659599
0.01710707 0.011633246 0.03732206 -0.0027002608 -0.0029541734 -0.011491665 0.024366315 0.007084556
-0.014237127 -0.032340724 0.024053508 0.011304279 -0.00074491685 0.015829816 -0.004943622 0.008740793
0.03235905 0.008794083 0.008435166 -0.003914597 0.026555492 -0.0019524451 0.03563576 0.0066909194
0.010030185 0.0014348245 0.02196005 0.015600741 0.0064686607 -0.028767541 -0.0025480718 0.010495572
-0.0022153147 0.002632801 0.01681338 0.029128412 0.0126962885 -0.006942173 0.0105069 0.016104082
-0.004632535 0.015014169 0.001387732 0.018806059 0.006827605 0.002824332 0.008305892 -0.021685548
-0.057054907 0.012157709 -0.017935798 -0.00782338 0.01826064 0.004039046 -0.021117141 -0.006909862
-0.02675424 -0.037472725 -0.017596183 -0.011988512 -0.01462601 -0.0021898614 -0.008144174 -0.00064281485
0.011478646 0.0065522264 0.0045335176 -0.0059987027 0.03791737 0.0061754202 0.033115666 0.00045687784
0.010576437 0.025602056 0.015836023 -0.019961169 0.011658984 0.01458548 -0.016973715 0.03323834
-0.01655934 -0.009525712 0.016133612 0.010318704 -0.016301902 0.019699315 -0.022820566 -0.04067556
-0.03526414 0.0140418485 0.016212668 -0.001888299 -0.020958116 -0.028578047 -0.004773387 -0.0018806128
-0.0075747776 0.0029625758 -0.017983098 0.013661191 -0.009270169 -0.01980244 -0.033977702 -0.014230782
0.0033862297 0.0018285569 -0.009515378 0.023843266 0.020933568 -0.020497132 -0.01292942 -0.009624176
-0.008092846 0.006454438 0.015029621 -0.010679357 0.015486732 -0.0032695585 -0.020682946 0.012046327
0.025021775 0.007890758 -0.012445475 -0.005146065 0.0014167717 0.015963944 0.010021991 0.002328672
-0.020348866 -0.042430434 -0.03311911 -0.0055979225 -0.029937992 0.010072981 0.036174998 -0.012741101
-0.007920263 0.007388819 0.0020709916 0.0015873734 -0.008340391 -0.01576466 0.00049044605 0.00062712963
0.0029983 0.013526574 0.038023416 -0.02376044 0.023973793 -0.0007401985 0.038144927 0.002038417
0.0049227416 -0.019911857 0.0043203994 0.0092526935 -0.0038471632 0.004160519 0.0054334453 0.007774897
-0.022940207 0.0074439608 -0.0048581115 0.005399676 -0.018565316 -0.029291779 0.012409623 0.032323297
00000000: 03d4 0b3b 852e 52bc 6c7f 02bd 8472 013d
00000010: 063a 3e3b c75b bdbb 5b69 41bc b185 8a3c
00000020: 43b5 2f3c d962 223c 9b36 aebb 7317 d1bc
00000030: cbd0 893c 92cc a7bc 3b61 f2ba c675 2dbc
00000040: 10bb 29bc c6a8 80bb 9272 403b d122 4abc
00000050: 4897 60bc fbe2 483b fb1f e43a b796 4c3c
00000060: 0359 34bb 3a38 de3b f783 a0bb 87aa adbc
00000070: 5739 723b f6a5 07bd 2be4 c03a ef78 b73c
00000080: d334 853c b8d6 5fbd 0861 47bc 7500 edba
00000090: baeb 803c 8ee4 18bc 0843 edbc e568 e1bb
000000a0: 1a56 993b 3a4f 9d3b 8ad1 35bc 765c 233b
000000b0: 87e5 293c 489d 85bc a2ff 2f3d ff17 753c
000000c0: f27e 2e3b c911 a93b afef 7fb8 6acf 60bc
000000d0: 3310 213c 9f98 cb38 da4c 9dbb 2bab a63b
000000e0: 3119 23bc 7202 e8bc 6767 b53b f78c 993a
000000f0: 5bc2 3bbc 4db2 f23b 73ff 20bb 1f03 18bc
00000100: eafa 58bc 9fc3 803c 1279 4d3c dad6 07bd
00000110: 6d2a 0d3d 0931 9d3a db6e f43c 8c9c 03bd
00000120: 6381 86bc b498 153c 476e b9bc 68d1 643c
00000130: 6522 743a 77d6 06bb 5a91 f93a ca89 aabc
00000140: 807d 62bc bd8f e23c f741 a53b b9b9 af3c
00000150: 98b7 d93c f20f 7d3c fa2d 313b 60fd fabb
00000160: 2024 8c3c 5f99 3e3c 04df 183d dcf6 30bb
00000170: ce9a 41bb 8947 3cbc de9b c73c 9025 e83b
00000180: d742 69bc b577 04bd dd0b c53c 9535 393c
00000190: 8646 43ba 88ad 813c 1bfe a1bb 8b35 0f3c
000001a0: ec8a 043d 0f15 103c a733 0a3c 0546 80bb
000001b0: e78a d93c 30e9 ffba cdf6 113d 803f db3b
000001c0: a555 243c b910 bc3a 90e5 b33c 409a 7f3c
000001d0: 0ff7 d33b e8a9 ebbc 8dfd 26bb 9ff5 2b3c
000001e0: d02e 11bb 128b 2c3b 37bc 893c b59e ee3c
000001f0: 1804 503c 2b7b e3bb 2225 2c3c b5ec 833c
00000200: 85cc 97bb fdfd 753c 8fe4 b53a 2a0f 9a3c
00000210: 1aba df3b 6e18 393b 7015 083c e4a5 b1bc
00000220: 68b2 69bd 2131 473c 18ee 92bc a22d 00bc
00000230: 5697 953c f959 843b dbfd acbc 206c e2bb
00000240: b52b dbbc 007d 19bd df25 90bc 776b 44bc
00000250: efa1 6fbc c783 0fbb 246f 05bc 9382 28ba
00000260: ee10 3c3c 0fb4 d63b e78d 943b c490 c4bb
00000270: 3f4f 1b3d 2e5b ca3b 4ba4 073d 1b89 ef39
00000280: cb48 2d3c 67bb d13c 8cba 813c 9b85 a3bc
00000290: 5305 3f3c f0f7 6e3c 760c 8bbc ed24 083d
000002a0: 74a7 87bc bb11 1cbc a32a 843c c80f 293c
000002b0: 918b 85bc 7560 a13c 32f2 babc 6a9b 26bd
000002c0: 2271 10bd c80f 663c 6ed0 843c cd80 f7ba
000002d0: 5bb0 abbc 821c eabc 136a 9cbb e57e f6ba
000002e0: d735 f8bb c627 423b 4a51 93bc 30d3 5f3c
000002f0: e8e1 17bc ba38 a2bc 342c 0bbd 3a28 69bc
00000300: 82eb 5d3b 30ac ef3a 63e6 1bbc f452 c33c
00000310: e07c ab3c 9ae9 a7bc ebd5 53bc b8ae 1dbc
00000320: db97 04bc c07f d33b cd3e 763c 78f8 2ebc
00000330: 10bc 7d3c 1746 56bb 486f a9bc f55d 453c
00000340: 77fa cc3c 3d48 013c 1be8 4bbc 52a0 a8bb
00000350: f8b2 b93a d1c6 823c 4733 243c a29c 183b
00000360: aab2 a6bc 89cb 2dbd e7a7 07bd c76e b7bb
00000370: 8540 f5bc 2509 253c 3c2c 143d 0dc0 50bc
00000380: fec3 01bc e81d f23b 79b9 073b 6a0f d03a
00000390: 23a6 08bc e324 81bc 4791 003a f565 243a
000003a0: 207f 443b 909e 5d3c 71be 1b3d 41a5 c2bc
000003b0: b064 c43c e109 42ba db3d 1c3d f696 053b
000003c0: f34e a13b 311e a3bc 2392 8d3b 9c98 173c
000003d0: b020 7cbb f754 883b 0b0b b23b 90c4 fe3b
000003e0: 1aed bbbc 78ec f33b cb30 9fbb c4ef b03b
000003f0: 4a16 98bc 50f5 efbc bb51 4b3c 6f65 043d

action_model._continuous_distribution.log_sigma.bias f4 [2]
0.0 0.0
00000000: 0000 0000 0000 0000

53 f4 [260]
1.0 1.0 1.0 1.0 1.0 1.0 1.0 1.0
1.0 1.0 1.0 1.0 1.0 1.0 1.0 1.0
1.0 1.0 1.0 1.0 1.0 1.0 1.0 1.0
1.0 1.0 1.0 1.0 1.0 1.0 1.0 1.0
1.0 1.0 1.0 1.0 1.0 1.0 1.0 1.0
1.0 1.0 1.0 1.0 1.0 1.0 1.0 1.0
1.0 1.0 1.0 1.0 1.0 1.0 1.0 1.0
1.0 1.0 1.0 1.0 1.0 1.0 1.0 1.0
1.0 1.0 1.0 1.0 1.0 1.0 1.0 1.0
1.0 1.0 1.0 1.0 1.0 1.0 1.0 1.0
1.0 1.0 1.0 1.0 1.0 1.0 1.0 1.0
1.0 1.0 1.0 1.0 1.0 1.0 1.0 1.0
1.0 1.0 1.0 1.0 1.0 1.0 1.0 1.0
1.0 1.0 1.0 1.0 1.0 1.0 1.0 1.0
1.0 1.0 1.0 1.0 1.0 1.0 1.0 1.0
1.0 1.0 1.0 1.0 1.0 1.0 1.0 1.0
1.0 1.0 1.0 1.0 1.0 1.0 1.0 1.0
1.0 1.0 1.0 1.0 1.0 1.0 1.0 1.0
1.0 1.0 1.0 1.0 1.0 1.0 1.0 1.0
1.0 1.0 1.0 1.0 1.0 1.0 1.0 1.0
1.0 1.0 1.0 1.0 1.0 1.0 1.0 1.0
1.0 1.0 1.0 1.0 1.0 1.0 1.0 1.0
1.0 1.0 1.0 1.0 1.0 1.0 1.0 1.0
1.0 1.0 1.0 1.0 1.0 1.0 1.0 1.0
1.0 1.0 1.0 1.0 1.0 1.0 1.0 1.0
1.0 1.0 1.0 1.0 1.0 1.0 1.0 1.0
1.0 1.0 1.0 1.0 1.0 1.0 1.0 1.0
1.0 1.0 1.0 1.0 1.0 1.0 1.0 1.0
1.0 1.0 1.0 1.0 1.0 1.0 1.0 1.0
1.0 1.0 1.0 1.0 1.0 1.0 1.0 1.0
1.0 1.0 1.0 1.0 1.0 1.0 1.0 1.0
1.0 1.0 1.0 1.0 1.0 1.0 1.0 1.0
00000000: 0000 803f 0000 803f 0000 803f 0000 803f
00000010: 0000 803f 0000 803f 0000 803f 0000 803f
00000020: 0000 803f 0000 803f 0000 803f 0000 803f
00000030: 0000 803f 0000 803f 0000 803f 0000 803f
00000040: 0000 803f 0000 803f 0000 803f 0000 803f
00000050: 0000 803f 0000 803f 0000 803f 0000 803f
00000060: 0000 803f 0000 803f 0000 803f 0000 803f
00000070: 0000 803f 0000 803f 0000 803f 0000 803f
00000080: 0000 803f 0000 803f 0000 803f 0000 803f
00000090: 0000 803f 0000 803f 0000 803f 0000 803f
000000a0: 0000 803f 0000 803f 0000 803f 0000 803f
000000b0: 0000 803f 0000 803f 0000 803f 0000 803f
000000c0: 0000 803f 0000 803f 0000 803f 0000 803f
000000d0: 0000 803f 0000 803f 0000 803f 0000 803f
000000e0: 0000 803f 0000 803f 0000 803f 0000 803f
000000f0: 0000 803f 0000 803f 0000 803f 0000 803f
00000100: 0000 803f 0000 803f 0000 803f 0000 803f
00000110: 0000 803f 0000 803f 0000 803f 0000 803f
00000120: 0000 803f 0000 803f 0000 803f 0000 803f
00000130: 0000 803f 0000 803f 0000 803f 0000 803f
00000140: 0000 803f 0000 803f 0000 803f 0000 803f
00000150: 0000 803f 0000 803f 0000 803f 0000 803f
00000160: 0000 803f 0000 803f 0000 803f 0000 803f
00000170: 0000 803f 0000 803f 0000 803f 0000 803f
00000180: 0000 803f 0000 803f 0000 803f 0000 803f
00000190: 0000 803f 0000 803f 0000 803f 0000 803f
000001a0: 0000 803f 0000 803f 0000 803f 0000 803f
000001b0: 0000 803f 0000 803f 0000 803f 0000 803f
000001c0: 0000 803f 0000 803f 0000 803f 0000 803f
000001d0: 0000 803f 0000 803f 0000 803f 0000 803f
000001e0: 0000 803f 0000 803f 0000 803f 0000 803f
000001f0: 0000 803f 0000 803f 0000 803f 0000 803f
00000200: 0000 803f 0000 803f 0000 803f 0000 803f
00000210: 0000 803f 0000 803f 0000 803f 0000 803f
00000220: 0000 803f 0000 803f 0000 803f 0000 803f
00000230: 0000 803f 0000 803f 0000 803f 0000 803f
00000240: 0000 803f 0000 803f 0000 803f 0000 803f
00000250: 0000 803f 0000 803f 0000 803f 0000 803f
00000260: 0000 803f 0000 803f 0000 803f 0000 803f
00000270: 0000 803f 0000 803f 0000 803f 0000 803f
00000280: 0000 803f 0000 803f 0000 803f 0000 803f
00000290: 0000 803f 0000 803f 0000 803f 0000 803f
000002a0: 0000 803f 0000 803f 0000 803f 0000 803f
000002b0: 0000 803f 0000 803f 0000 803f 0000 803f
000002c0: 0000 803f 0000 803f 0000 803f 0000 803f
000002d0: 0000 803f 0000 803f 0000 803f 0000 803f
000002e0: 0000 803f 0000 803f 0000 803f 0000 803f
000002f0: 0000 803f 0000 803f 0000 803f 0000 803f
00000300: 0000 803f 0000 803f 0000 803f 0000 803f
00000310: 0000 803f 0000 803f 0000 803f 0000 803f
00000320: 0000 803f 0000 803f 0000 803f 0000 803f
00000330: 0000 803f 0000 803f 0000 803f 0000 803f
00000340: 0000 803f 0000 803f 0000 803f 0000 803f
00000350: 0000 803f 0000 803f 0000 803f 0000 803f
00000360: 0000 803f 0000 803f 0000 803f 0000 803f
00000370: 0000 803f 0000 803f 0000 803f 0000 803f
00000380: 0000 803f 0000 803f 0000 803f 0000 803f
00000390: 0000 803f 0000 803f 0000 803f 0000 803f
000003a0: 0000 803f 0000 803f 0000 803f 0000 803f
000003b0: 0000 803f 0000 803f 0000 803f 0000 803f
000003c0: 0000 803f 0000 803f 0000 803f 0000 803f
000003d0: 0000 803f 0000 803f 0000 803f 0000 803f
000003e0: 0000 803f 0000 803f 0000 803f 0000 803f
000003f0: 0000 803f 0000 803f 0000 803f 0000 803f

56 f4 [72]
1.0 1.0 1.0 1.0 1.0 1.0 1.0 1.0
1.0 1.0 1.0 1.0 1.0 1.0 1.0 1.0
1.0 1.0 1.0 1.0 1.0 1.0 1.0 1.0
1.0 1.0 1.0 1.0 1.0 1.0 1.0 1.0
1.0 1.0 1.0 1.0 1.0 1.0 1.0 1.0
1.0 1.0 1.0 1.0 1.0 1.0 1.0 1.0
1.0 1.0 1.0 1.0 1.0 1.0 1.0 1.0
1.0 1.0 1.0 1.0 1.0 1.0 1.0 1.0
1.0 1.0 1.0 1.0 1.0 1.0 1.0 1.0
00000000: 0000 803f 0000 803f 0000 803f 0000 803f
00000010: 0000 803f 0000 803f 0000 803f 0000 803f
00000020: 0000 803f 0000 803f 0000 803f 0000 803f
00000030: 0000 803f 0000 803f 0000 803f 0000 803f
00000040: 0000 803f 0000 803f 0000 803f 0000 803f
00000050: 0000 803f 0000 803f 0000 803f 0000 803f
00000060: 0000 803f 0000 803f 0000 803f 0000 803f
00000070: 0000 803f 0000 803f 0000 803f 0000 803f
00000080: 0000 803f 0000 803f 0000 803f 0000 803f
00000090: 0000 803f 0000 803f 0000 803f 0000 803f
000000a0: 0000 803f 0000 803f 0000 803f 0000 803f
000000b0: 0000 803f 0000 803f 0000 803f 0000 803f
000000c0: 0000 803f 0000 803f 0000 803f 0000 803f
000000d0: 0000 803f 0000 803f 0000 803f 0000 803f
000000e0: 0000 803f 0000 803f 0000 803f 0000 803f
000000f0: 0000 803f 0000 803f 0000 803f 0000 803f
00000100: 0000 803f 0000 803f 0000 803f 0000 803f
00000110: 0000 803f 0000 803f 0000 803f 0000 803f
