UnityProject/results/testModel5/My Behavior/checkpoint.pt (torch, 843511 bytes, 42 tensors)

network_body._body_endoder.seq_layers.0.weight f4 [128, 136]
000000 23 63 22 3c 18 a2 f9 3b 5f bc 82 bd 74 64 a4 bc
       0.009911331 0.0076182 -0.06383585 -0.020067431
000010 eb 19 e1 bd 86 17 c6 3d 83 b9 a6 3c 66 ad a4 3d
       -0.109912716 0.096724555 0.02035213 0.080408856
000020 b4 3f 64 bd 63 b3 8d bd 21 66 ee bb 99 7b 78 3d
       -0.055724815 -0.06918981 -0.0072753583 0.060664747
000030 57 b9 00 be c4 08 11 3e 85 46 ed 3d 6c 3e 23 bd
       -0.12570702 0.141635 0.11585716 -0.039854452
000040 5b bc e1 3d dc 28 19 bd e8 cb 0d bc 7b 34 58 bd
       0.11022254 -0.037392482 -0.008654572 -0.052784424
000050 81 d7 e9 bc 05 da 87 3d 08 9d a4 3d f4 a6 16 be
       -0.028545143 0.06633381 0.08037764 -0.14712125
000060 15 a4 d1 bd 10 6c 9e 3d 14 37 b2 3d f0 e5 b8 bc
       -0.10236374 0.07735455 0.087019116 -0.02257058
000070 82 08 e8 ba c3 7b 14 3a d2 8c 1e 3d 4b 18 fd 3d
       -0.0017702731 0.0005664194 0.038708515 0.12358149
000080 e8 0b 67 be 47 ad 71 bd b0 a7 0b 3e 4d e9 35 3d
       -0.22563136 -0.05900314 0.13638186 0.044411946
000090 e1 79 c8 bc ed b3 60 bd 74 cd 7c 3d 43 e0 ce 3d
       -0.024472179 -0.05485909 0.061719373 0.10101368
0000a0 cf d4 27 3e db f6 53 3c 28 ef d8 3b 43 97 44 3c
       0.16389774 0.012937273 0.0066203065 0.011998954
0000b0 97 57 c2 3d 7c ad 5f 3d 57 b6 36 3d 8e 92 48 3d
       0.09489363 0.054608807 0.044607487 0.04896789
0000c0 2e 30 fa 3c 14 be 12 bd 72 b2 f0 bd a0 d9 0c bc
       0.030540552 -0.035825804 -0.11752786 -0.008596808
0000d0 67 d7 b9 bc 7c 61 98 bc d8 40 0f 3e 06 f5 94 3d
       -0.02268572 -0.018601172 0.1398958 0.07273297
0000e0 7c 6a e0 bd a8 4c 26 3e 5a cb 09 3e 02 b8 84 3d
       -0.1095781 0.1624018 0.13456479 0.06480409
0000f0 09 3f 7c bc 20 88 30 bd 6b 4b eb 3d 25 2d b5 3d
       -0.015395888 -0.04309857 0.11488994 0.08846501
000100 f9 cc ba 3d b6 3c 3e 3d 75 d8 66 bd 42 f2 16 3d
       0.09121127 0.046444617 -0.056358773 0.03685213
000110 f5 1a 24 be 29 b5 d4 bc 55 46 3a 3d 6a 81 43 bd
       -0.16025908 -0.02596529 0.04547723 -0.04773084
000120 13 68 36 3e ea ed 81 bd 57 b0 4f bd 8f b6 a5 3c
       0.17813139 -0.06344207 -0.05070528 0.020228652
000130 bb 1d ad bd 31 21 7d 3d b1 0f ab bc d9 c7 cd 3c
       -0.08452936 0.061799232 -0.020881506 0.025119709
000140 bf ed e9 3a aa 39 f7 bc ea a9 02 3e b6 af 4c 3d
       0.0017847343 -0.030178864 0.1276013 0.04997226
000150 92 65 82 3d 37 13 80 bd dc 5f d6 bd 47 6f c1 3d
       0.06367029 -0.06253665 -0.104675025 0.094450526
000160 ee df cc 3d f8 68 8d 3c a9 e2 d2 bd e5 92 fe bd
       0.10003649 0.017261967 -0.10297138 -0.12430362
000170 af 58 a7 3d 20 43 42 3e 18 0d a9 3d da 4d 0b 3d
       0.08171212 0.18970919 0.082544506 0.034009792
000180 94 93 58 bc 6f 08 30 bd e4 c6 63 3c ba 1c 0f bd
       -0.013218779 -0.042976793 0.0139024 -0.034939505
000190 51 18 b1 3d c6 f6 14 ba 8c 38 a9 bc 44 5f 15 3e
       0.08647216 -0.0005682524 -0.020656846 0.14587122
0001a0 9f 43 63 3d 7a 17 ac 3c 64 a1 fe 3c 4f 2e 41 3e
       0.05548441 0.021007288 0.031082816 0.18865322
0001b0 b0 a4 a2 3d fc e5 b0 3c d5 55 d1 3d 43 79 e2 bd
       0.07941568 0.02159404 0.10221449 -0.11058285
0001c0 96 90 c3 3d 56 b8 fb bd a6 34 df 3c 99 ff 6d bc
       0.09549062 -0.12291019 0.027246784 -0.014526271
0001d0 0e f7 2a 3e c5 99 69 be d8 fb 24 3d 17 10 ff 3c
       0.16695806 -0.22812565 0.04027924 0.031135602
0001e0 e8 a7 7d bc 93 0d 9e bd 26 81 56 3d ca 5e c7 3d
       -0.0154819265 -0.07717433 0.05236926 0.097348765
0001f0 5e ef 71 3e a1 71 42 bb 44 a6 de 3a 91 e1 a0 bd
       0.23626468 -0.002966978 0.0016986807 -0.078555234
000200 93 ed 8a 3c d5 cf b1 bd 55 64 22 bc 77 6d cb 3d
       0.016958987 -0.08682219 -0.009911616 0.09932988
000210 bc 85 be 3d 49 3e f6 bd cc a9 3a 3e 39 35 1c bd
       0.093028516 -0.12023599 0.18228835 -0.038136695
000220 06 e5 ba bd f7 1d a6 bd 11 72 e3 bd 49 77 d8 bc
       -0.09125714 -0.08111184 -0.11105741 -0.026424067
000230 a7 ba 44 bd 5d e2 77 3d a6 c5 8e 3a 40 4a 30 bd
       -0.048029568 0.06051861 0.0010892644 -0.04303956
000240 01 1c 71 bc 41 eb a7 bd 51 ec 4d bc 37 18 d7 3d
       -0.014716149 -0.08199168 -0.012568549 0.105026655
000250 fa d3 99 bd 9e a0 00 3e bf 5f 51 3e 58 bf 0e 3e
       -0.075111344 0.1256127 0.2044668 0.1394018
000260 93 b6 03 3d 9f cd c5 bd f5 d1 0f bd b3 85 68 bd
       0.03215654 -0.0965836 -0.03511234 -0.05676813
000270 22 9c 1c be f4 42 4b 3e 83 bd 92 bd 71 87 aa bd
       -0.15293935 0.1984976 -0.07165053 -0.08326615
000280 e4 e2 91 3d c5 db 4c bd 27 4e 15 3e fd b7 4e bd
       0.07123354 -0.050014276 0.14580594 -0.050468434
000290 78 6b c2 bc 8c 13 a4 3d 85 58 45 bd c0 7f b3 3c
       -0.023732886 0.08011541 -0.048180122 0.021911502
0002a0 ad 66 72 bd 1c ce 8c 3d 64 72 26 3d e9 98 6e 3d
       -0.05917995 0.0687525 0.040636435 0.058251295
0002b0 d0 d9 0e bd f3 9f e0 bd 3f 93 85 3d 77 bf 19 3d
       -0.03487569 -0.10968008 0.065222256 0.03753611
0002c0 16 5c 0d bd 8b a2 98 3b 12 6b 31 3d ba 2c 26 3d
       -0.034511648 0.0046580485 0.043315 0.04057
0002d0 d2 9e 7f bc a4 04 e6 3c dc b3 1d be d9 c9 00 be
       -0.015601831 0.028078385 -0.15400642 -0.12576999
0002e0 38 2f 38 3d ff 72 35 be 07 58 ef 3d bc 48 3f be
       0.044966906 -0.17719649 0.11686712 -0.1868009
0002f0 16 4a 91 3d e2 d0 90 3d 2f 47 8a bd 04 1d 08 bd
       0.07094209 0.07071091 -0.067518584 -0.033230796
000300 82 75 c4 3c 64 a1 0d 3e 69 03 5e bc 60 30 39 bd
       0.023981813 0.13831097 -0.013550618 -0.04521215
000310 3e 4a 46 3d 3c fa f7 bd ba 5a 92 3e c8 0c 65 3d
       0.048410647 -0.12108275 0.28584844 0.055920392
000320 f9 70 42 be 80 6a 60 3d 80 21 b8 bc 7d 61 61 bd
       -0.18988408 0.054789066 -0.022476912 -0.055024613
000330 6e 19 cf 3d d4 37 62 bd 3d cd 45 be 96 60 73 bd
       0.10112272 -0.055229023 -0.19316573 -0.059418283
000340 5f 16 88 bc f1 9b 6c bd 87 22 c9 bd 67 6f 20 be
       -0.01661223 -0.057765905 -0.09821039 -0.15667497
000350 82 b9 34 3d e0 c9 62 bd 88 d2 5d bc 0e 53 34 bc
       0.044122227 -0.055368304 -0.013538964 -0.01100613
000360 5f 42 8e 3d 59 89 20 be c1 80 69 bd 56 ab f1 3d
       0.06946253 -0.15677394 -0.057007555 0.11800258
000370 7e 33 10 3d 4e 18 14 3e 84 ee 8f bd ac 71 96 3b
       0.035205357 0.14462397 -0.07027915 0.0045911875
000380 75 31 28 bd f2 f0 81 3c 07 00 f8 bd 0e 78 88 3d
       -0.04106279 0.015861962 -0.1210938 0.066635236
000390 db e7 6f 3e cf 28 32 3d 98 d4 f6 3c a0 9b be 3b
       0.2342829 0.04349595 0.03013067 0.005816892
0003a0 f5 74 14 3d 5f a5 92 bd ad af 1b be d1 6d 11 3e
       0.03624435 -0.07160448 -0.15203734 0.14202048
0003b0 0d 16 5d bd 39 a8 09 3d 7d 56 dc 3c 15 2f 99 3d
       -0.053976107 0.033607695 0.02689671 0.07479683
0003c0 78 a6 f5 3d 73 d1 dc 3d 65 88 89 bd a8 14 ca 3d
       0.11994642 0.10782137 -0.06715468 0.09867221
0003d0 90 03 ad 3d 62 38 3e 3d b5 68 b6 bd 90 90 0b 3e
       0.08447945 0.04644049 -0.0890669 0.13629365
0003e0 2e c5 2c bd 07 e4 1e 3c d8 ed 9f bc b4 cf 3e 3d
       -0.042180233 0.009697921 -0.019522592 0.0465848
0003f0 0b 88 c5 3c 31 c9 b1 bd 23 59 c0 3d b2 8a 1e 3e
       0.024112722 -0.08680952 0.093920015 0.15482596

network_body._body_endoder.seq_layers.0.bias f4 [128]
000000 3c 28 5a 3c 3c ac 3d bc 0b 4d 1f 3d 35 6f 27 3c
       0.013315257 -0.011576708 0.038891833 0.010219385
000010 5d 12 fd bb a5 0a a4 bb 2f a2 04 3d 91 e3 aa bb
       -0.0077231363 -0.0050061517 0.032381233 -0.0052151163
000020 f3 6c 83 3c 9b 4a 47 3d 1d 21 d3 3c 15 a6 eb 39
       0.016043162 0.048655134 0.025772626 0.00044946434
000030 07 5a da bb 5f 29 18 bb d2 fa 66 3c 78 84 c9 3b
       -0.006663564 -0.0023218018 0.014097886 0.0061498247
000040 6e cb 32 3d 43 7b b8 3c fc be 80 3b e6 50 d4 bc
       0.043651037 0.022519713 0.003929017 -0.025917482
000050 13 23 27 bc 8b aa b9 3b f2 6f 02 bb 91 fb 19 3c
       -0.010201233 0.0056660823 -0.001990315 0.009398357
000060 2c 6b 03 bd d4 88 17 bd 69 58 5e bc c6 84 51 bb
       -0.03208463 -0.036995724 -0.013570883 -0.0031970008
000070 c5 9a 58 3c 2a 30 55 bb d6 d4 f0 ba a9 25 3c bb
       0.013220494 -0.0032529929 -0.0018373977 -0.002870897
000080 63 da 80 bb eb 73 03 bc 3d e0 8d 3c 3a b4 c4 3c
       -0.0039322837 -0.0080232425 0.01731884 0.02401172
000090 6f 43 10 bc d6 b7 8d 3c 36 6d 1f bc c8 7e ed 3c
       -0.00880514 0.017299574 -0.009730628 0.028991118
0000a0 7b 15 8c bc a7 6a af 3c b2 a8 46 3d d3 5c 23 ba
       -0.017100086 0.02141316 0.048500724 -0.00062317884
0000b0 b7 8d bf 3c 6b 52 ea 3c 90 5f 33 38 74 7b 3b 3d
       0.023383005 0.028603753 4.2765925e-05 0.04577203
0000c0 15 11 3f bd 94 7b bb 3c 96 a6 97 3c 50 d7 50 3b
       -0.04664715 0.022886075 0.018512052 0.0031866618
0000d0 cf 87 02 3c ba 0a c7 bb 06 01 7d bb c2 92 15 3c
       0.00796695 -0.0060742768 -0.0038605346 0.009129228
0000e0 d5 00 c6 3a 2f a5 47 bc d7 ab c0 3c 92 58 65 bc
       0.0015106449 -0.012185379 0.02351944 -0.013998168
0000f0 87 28 97 bc 17 ad dc 3c 99 3f 7e 3c f2 7c a5 bc
       -0.018451942 0.026938004 0.015518093 -0.02020118
000100 95 a9 86 bc 68 7b 06 3d a9 a2 8a bc e0 23 8e bc
       -0.016438285 0.032832533 -0.016923266 -0.01735109
000110 b9 d3 02 3c ff ab 14 3d 41 34 ab bc e4 9c 0b bd
       0.007985049 0.03629684 -0.02089894 -0.03408517
000120 00 7f 9f 3b 41 28 f8 3b c1 84 1a bd 33 aa 32 bc
       0.0048674345 0.007573158 -0.03772426 -0.0109048365
000130 17 e1 ac 3c 1e 91 15 ba 57 1b d0 3c d0 c5 91 bc
       0.021103425 -0.0005705523 0.025403662 -0.01779452
000140 cd dc b8 bc 96 2f 9b bc 0c 68 c2 bc 6b c6 5e 3d
       -0.022566224 -0.01894359 -0.023731254 0.054388445
000150 5b 45 34 3d 86 96 a8 3c 53 e1 43 3c c6 46 2f 3b
       0.044011455 0.020579588 0.011955577 0.0026745065
000160 e7 32 a0 3c 45 62 c0 bc 1b cc 3c 3c fe 7a 7e bc
       0.019555522 -0.023484359 0.011523272 -0.015532253
000170 c9 44 91 bc ea 43 19 bc e5 f5 70 bc 48 f2 c1 bb
       -0.017732995 -0.009354571 -0.014707063 -0.0059187748
000180 ad b3 b0 3c 50 b0 08 3d 9c 05 25 bd 61 1f 9d 3c
       0.021570051 0.03337127 -0.040288553 0.019180002
000190 62 a3 d8 bc 50 2c 30 bc a8 e6 1a bd 3a b2 f4 3c
       -0.026445094 -0.010752752 -0.037817627 0.029870141
0001a0 e8 5c 84 3c 72 e1 be bb 3e 85 8c bc 1e 6e ed bb
       0.016157582 -0.005825215 -0.017153379 -0.007245793
0001b0 8b b5 ac bc e5 fe a5 3b e8 06 e3 ba 64 8a 35 3c
       -0.02108266 0.005065786 -0.0017320784 0.011080358
0001c0 11 3b e7 3c 94 ae f9 bc 60 9a a1 bb f6 aa 90 bc
       0.028226407 -0.030478753 -0.004931733 -0.017659646
0001d0 e7 5b ff 3b c1 fe 36 3c 55 df fb bb 72 cc 9b 3c
       0.007792938 0.0111691365 -0.0076865354 0.019018386
0001e0 ba f9 d7 bc 5e 9a 1c bb fa 68 57 3b 85 0e 5f 3c
       -0.026364196 -0.002389572 0.0032868967 0.013614302
0001f0 6e 3a d0 bb 99 b8 8e 3c da 5a 4f 3c 30 03 ab bc
       -0.0063546216 0.017422007 0.012655938 -0.020875543

network_body._body_endoder.seq_layers.2.weight f4 [128, 128]
000000 84 28 ed bd 08 fb 68 bc c4 08 1e be 2e 78 5b be
       -0.11579993 -0.014220007 -0.15433031 -0.21432564
000010 c9 f3 4d 3d 79 50 af bc 90 51 4b 3d 60 6c 1b be
       0.05028132 -0.021400677 0.04963833 -0.1517806
000020 80 3a 24 be 35 93 08 bd 60 f2 dd bd 1d a8 20 bd
       -0.16037941 -0.033343513 -0.10837245 -0.039222825
000030 70 e7 83 bd 30 57 62 bd 3a 4a 80 bd 7b 0e 84 3e
       -0.064406276 -0.05525893 -0.062641576 0.25792298
000040 14 88 9e 3e 26 ad 72 be f7 9e 9b bd 87 4c 83 3d
       0.30963194 -0.23698863 -0.075986795 0.06411081
000050 b6 88 ac 3d a0 52 62 bd 73 ff 90 be d4 54 87 3c
       0.08424513 -0.05525458 -0.28319892 0.016519941
000060 3f 84 8a 3d 55 ef 67 be c1 ae db 3d 66 00 fc bd
       0.06763505 -0.22649892 0.10726691 -0.123047635
000070 3e bb 07 be ab ea 1a 3e a0 6f 9b bb ed e6 84 3d
       -0.13255021 0.15128581 -0.0047435313 0.06489358
000080 45 01 a2 3b e5 fd 3f bc a6 72 33 3d 49 ef 70 3b
       0.004943999 -0.011718248 0.04381051 0.0036763719
000090 35 c3 6b 3d 65 23 b2 3d 29 7e 98 3d f7 fc 3f be
       0.05755921 0.08698157 0.07445938 -0.18748842
0000a0 a2 28 8f bd 04 fa 29 bd 6b af e0 be ed c7 ab 3c
       -0.06990172 -0.0414982 -0.43883833 0.020969355
0000b0 c2 62 7d 3d 77 13 44 3e f4 9a 42 3d 78 8e e2 bc
       0.06186176 0.1914805 0.047511056 -0.027655825
0000c0 71 7b 33 bc 14 13 83 be ed 37 e9 bd 7b 2b af bd
       -0.010954724 -0.25600493 -0.1138762 -0.08553215
0000d0 8e 69 84 be c5 00 94 3b 2d de ff bd f3 b9 f4 bc
       -0.25861782 0.0045166933 -0.124935485 -0.029873824
0000e0 b8 c9 09 bc f8 c6 6d 3c 3a cd 82 bd 6a 89 0d be
       -0.00840991 0.01451277 -0.063868 -0.1382195
0000f0 a2 51 c4 bd 07 cc 14 be 35 de 65 3e 7e 02 a0 bd
       -0.09585883 -0.14530955 0.22448047 -0.07812975
000100 e9 e7 b6 3d e4 05 89 3d 86 ec 38 3e 56 d4 cf bd
       0.08930952 0.06690577 0.18058977 -0.10147922
000110 5f 29 10 be 75 a7 9f bd 11 16 fd 3c a5 30 21 3d
       -0.14078282 -0.07795612 0.030894311 0.03935303
000120 53 a1 5a bd f3 2d c2 3c 57 70 b9 3c 55 0c b7 bd
       -0.053376507 0.02370355 0.022636576 -0.08937899
000130 2f 49 37 3d c1 a3 3f bd 81 7e a0 bd 0c 31 a0 bd
       0.044747528 -0.046787027 -0.07836629 -0.07821855
000140 b2 e0 76 be 79 14 75 bd 74 47 cd 3d bf 3c 02 3e
       -0.24109152 -0.059833977 0.10023394 0.12718485
000150 d1 79 22 be 19 9c 36 3d 50 1f 5f bd 33 22 c0 3d
       -0.15866782 0.04458246 -0.05447322 0.09381523
000160 50 e9 ad 3d 57 9f 2e be 76 98 d4 bd d5 65 1b bd
       0.084917665 -0.17052971 -0.10380642 -0.03793891
000170 fd f7 d7 bc 96 d2 81 3e df 32 0a be 77 54 63 be
       -0.026363367 0.25355977 -0.13495968 -0.2220019
000180 ee 9d 09 bd 03 3a 7b bd da 8a ac bd 66 aa f9 bd
       -0.03359788 -0.06133462 -0.08424921 -0.12190704
000190 53 03 7c bd c7 c5 08 3e fd c8 96 bd f3 f5 ec 3d
       -0.061526608 0.13356696 -0.07362554 0.115703486
0001a0 4f 00 21 3e 9f 10 b2 3e 5f b0 94 bd 78 47 8f 3d
       0.15722774 0.34778306 -0.072602026 0.069960535
0001b0 ae 14 5a bd 27 e8 57 be 6b 09 85 bd f5 21 21 bc
       -0.053242378 -0.21084653 -0.06495937 -0.009834756
0001c0 26 03 ec bc a3 6f b9 3d 52 df ab 3d 5b 7e 91 3d
       -0.028810095 0.09054496 0.08392204 0.071041785
0001d0 cf 96 f7 bd 09 b9 2f be cd 34 45 bc 82 5a 08 be
       -0.12089311 -0.17160429 -0.0120365145 -0.13315776
0001e0 97 9d d5 bd 26 29 a0 bd dc ed 44 3e ac c1 f4 3d
       -0.104304485 -0.078203484 0.19231361 0.119510025
0001f0 16 ef a1 bd e2 82 06 3d 6d 72 a5 3d 0d f9 69 3d
       -0.0790693 0.032839663 0.080784656 0.05712228
000200 29 95 1d 3e 53 36 9e bc 6b 4e ea bd e6 de 81 3d
       0.15388931 -0.019313013 -0.11440738 0.06341343
000210 07 39 82 bd 45 2a d3 bd d9 ed ad 3d 8b 87 28 3c
       -0.06358533 -0.10310797 0.084926315 0.010286222
000220 cd 39 15 3c 70 3e 06 bd ff 4f 13 be 2c e1 ec bd
       0.009108019 -0.03277439 -0.14385985 -0.115663856
000230 7e af 9b 3c d0 65 ae bd 59 9c ef 3b 65 6d 1c bc
       0.01900458 -0.08515513 0.0073123393 -0.009547566
000240 5f 0b 86 3b 5a 40 be bb ed 70 0c 3c 13 00 cb 3d
       0.004090711 -0.005806011 0.0085718455 0.099121235
000250 0a 48 60 3d 76 d5 8f 3e cb e0 38 3c ab 63 43 3b
       0.0547562 0.28092545 0.011284064 0.0029814045
000260 fa 63 42 bd f9 5c 07 3d 02 10 2a bd 08 12 14 bd
       -0.047458626 0.03304765 -0.041519172 -0.03615001
000270 73 95 00 3c 33 ab 04 be 13 31 e2 bc f4 b3 c0 bd
       0.0078481315 -0.12955932 -0.027611291 -0.09409323
000280 66 70 4e 3c 48 3b 69 3d 39 71 26 3c fd f2 d8 bd
       0.01260004 0.0569413 0.01015883 -0.10593221
000290 0d e1 9a bd 5e 9d 9d 3d 79 da 96 bd 9e d4 20 be
       -0.07562456 0.07696031 -0.07365889 -0.15706107
0002a0 13 2d 86 bd 51 b3 d6 3d 8e 80 30 be 34 5f c9 bd
       -0.06551566 0.10483421 -0.1723654 -0.09832612
0002b0 f0 93 65 3c d2 92 1f 3e 20 aa 6d bd a2 7e 49 bd
       0.014012322 0.15583351 -0.058023572 -0.049193032
0002c0 a2 53 9f bd 68 f3 0b 3e c0 6a c9 bc c3 8d 81 3d
       -0.077796236 0.13667071 -0.024587035 0.06325867
0002d0 bb 43 99 bb eb 7c 80 3c 0c de d6 bc 51 7f 84 bc
       -0.0046772636 0.015684566 -0.026228927 -0.01617399
0002e0 05 27 0a bd f4 19 8a 3d 91 ab 51 be bc ee 24 be
       -0.03372862 0.067432314 -0.20475604 -0.16106695
0002f0 2b 77 75 3d 61 58 a4 3d 3d fb c5 bb 42 ac 6c bc
       0.0599281 0.080246694 -0.006041913 -0.014445366
000300 79 65 09 3e 34 14 4a be 3b 3c 07 3d b7 19 af bd
       0.13417615 -0.1973427 0.033016425 -0.085498266
000310 90 91 a0 3d 0a 3a 42 3d 6b 04 5f bd c7 d2 3a 3e
       0.07840264 0.04741863 -0.054447573 0.18244468
000320 a5 ef de bd 18 80 b8 bd fe 52 fd bb 4c 5f 21 3d
       -0.10885552 -0.09008807 -0.0077308407 0.039397523
000330 ab 36 32 3e 5d bd e6 3c b3 3b 03 be 1b b6 86 3d
       0.17403667 0.028166467 -0.12815742 0.065777026
000340 00 56 50 bb 67 c6 97 bd d7 b6 76 be 9c 89 6b 3d
       -0.0031789541 -0.07410889 -0.24093185 0.05750428
000350 68 15 17 3d 8f 2f 7c 3b b1 41 a3 bd 1c e1 8a 3d
       0.03688565 0.0038480496 -0.07971514 0.067812175
000360 12 e5 d9 bd d5 62 29 be 1e ea 1a bd c4 d9 92 bc
       -0.10639395 -0.16541608 -0.037820928 -0.017926104
000370 b7 58 a6 3d 21 50 c5 bd 8a 66 27 bd ff 79 a0 bd
       0.0812239 -0.09634424 -0.040869273 -0.07835769
000380 c1 27 03 3e e4 b1 69 3d dc 60 0e 3d 0d cc e7 bd
       0.12808134 0.057054415 0.03476034 -0.113182165
000390 02 d5 89 3a 35 1f 4e 3b ac 44 6f 3d c3 46 ab bc
       0.0010515752 0.0031451706 0.0584151 -0.020907765
0003a0 0e 12 3b be 1c 72 1f bd ed 6c 7d bd 65 1c ea 3c
       -0.18268606 -0.038927183 -0.061871458 0.028577993
0003b0 41 f8 4d 3a 12 04 8d bc b8 d4 c0 bd f0 d7 9d bd
       0.0007857122 -0.017213855 -0.09415573 -0.077072024
0003c0 9e 68 e9 bc 03 86 ff 3d 04 a3 e0 bd 7b 17 7a 3c
       -0.028492268 0.124767326 -0.10968593 0.015264387
0003d0 39 06 6a bc 08 67 c9 bd e6 14 e3 bd 20 9d c0 3d
       -0.01428371 -0.09834105 -0.110879704 0.09404969
0003e0 65 8d b6 3d 8b 0c 2a be e7 c7 8e bc e6 7c 83 bd
       0.089136876 -0.16606347 -0.017429305 -0.06420307
0003f0 f2 7a 6b 3d d9 1c 13 3c 1a b5 a3 bd 26 15 f2 3b
       0.057490297 0.008979046 -0.07993527 0.007387775

network_body._body_endoder.seq_layers.2.bias f4 [128]
000000 b7 58 bf 3c d0 3b 26 bd 04 50 8b bb 6a f6 73 3c
       0.023357732 -0.040584385 -0.004251482 0.014890293
000010 9d 15 9e bb dc a2 dc bc 1e fb 81 3c a0 d8 d8 3a
       -0.004824354 -0.026933126 0.015866812 0.0016544051
000020 f3 a8 0e 3d 70 02 c1 3b 34 10 c9 bb 79 63 cc bc
       0.03482909 0.005890183 -0.0061359648 -0.024949776
000030 4d b5 9b 3c af b6 bf 3c 21 0b dd bc 6a 24 8b 3b
       0.01900735 0.02340254 -0.026982846 0.0042462843
000040 f5 5e 1f 3c 89 24 fd bb ff 8c 12 3d e7 f9 34 3c
       0.009727229 -0.0077253026 0.035778996 0.0110459095
000050 cd 44 e2 3c 96 7b 78 bc 5d 2b b3 bb 3b fe e8 ba
       0.027620697 -0.015166184 -0.005467816 -0.0017775962
000060 ed fa 1c 3d 1c 97 ee 3c 42 b7 80 3c e9 9f 89 3c
       0.03832524 0.029124789 0.015712384 0.016799884
000070 9d 45 ed bc 71 bf 2e bc 01 bb b9 3b 11 8a 00 3d
       -0.028963858 -0.01066576 0.0056680446 0.03138167
000080 55 68 40 3c c6 28 db 3c 1a 51 4b 3c 77 0c ac bc
       0.011743625 0.02675284 0.012409473 -0.021002037
000090 65 2a d5 3b 01 3f ec 3c e6 cd 27 bb 2e fd 63 3b
       0.006505298 0.028838636 -0.0025604903 0.0034788358
0000a0 c0 3b 47 bc 9c 78 8d bc b5 49 e4 bb 06 41 f9 3b
       -0.012160242 -0.017269425 -0.0069667944 0.0076066284
0000b0 53 79 63 3d 8b 8c 1d bb 98 15 5a bc 48 ea c9 3c
       0.055535626 -0.002404007 -0.013310812 0.024647847
0000c0 75 03 29 bc 65 f2 6d bb cb c4 25 bc 73 cc 8c bc
       -0.010315766 -0.0036307808 -0.01011772 -0.017187333
0000d0 6e a1 d6 3b 1e c1 c5 3b 34 cc d9 3b 2b a9 25 3b
       0.0065500056 0.0060349843 0.0066466574 0.0025277834
0000e0 07 5b 52 3d b9 b7 a4 3b d8 a4 83 3c 97 b4 3b 3c
       0.05135634 0.0050267843 0.016069815 0.01145663
0000f0 7f 39 40 bc 71 dd 6b bc 66 75 85 3c 1c ef 3d 3c
       -0.011732458 -0.014396057 0.016291331 0.011592653
000100 d8 13 27 bc 45 cf 00 3d 20 95 f6 bb 7f a4 6a bb
       -0.010197602 0.031447668 -0.0075251013 -0.0035803614
000110 64 a7 94 3b f1 9a 0f 3c 3a c9 81 bb 2b 0c 31 ba
       0.004536556 0.008764968 -0.0039607557 -0.00067538273
000120 ce d7 e3 3a fa 2e 2c bc 7c 79 1e 3c 9b e7 95 3c
       0.001738304 -0.010509247 0.009672519 0.018298915
000130 10 7c d9 3b a1 f3 fd 3b b2 60 84 bb 1a 2f 96 bc
       0.006637104 0.00774999 -0.0040398473 -0.018333007
000140 da a2 0a bb 97 22 d9 3a eb 2b df ba 42 87 8e bc
       -0.0021154196 0.0016566095 -0.0017026638 -0.01739848
000150 fa d1 af 3c 38 a7 1d 3a f1 a2 a8 3c 22 40 bd bc
       0.02146243 0.0006013992 0.020585509 -0.02310187
000160 c2 60 b6 bc 10 ac d7 3c 29 2b c6 bc 7d 7d 8a 3b
       -0.022262935 0.026327163 -0.024190502 0.004226385
000170 34 c8 60 3c 1a dd 82 3c 18 c3 2c bc d2 57 5e 3c
       0.013719607 0.01597457 -0.010544561 0.013570743
000180 5e 1e aa bb 07 a5 0f 3b 1c a7 58 3c f3 41 e9 3b
       -0.0051916083 0.0021918432 0.013223436 0.0071184575
000190 a0 5b dc 3c 9b 0a a9 bc 21 aa ca bb 8d d0 35 3c
       0.026899159 -0.02063494 -0.0061848317 0.011097086
0001a0 01 5e 01 3d ec c9 1d 3c c1 f3 de bc e2 34 0f bc
       0.03158379 0.009630661 -0.02721584 -0.008740636
0001b0 4e 34 e3 3c 5d 41 72 bc 44 e9 3c 3c 30 13 b0 3c
       0.027734902 -0.014786092 0.011530224 0.021493524
0001c0 2c 4f f8 3c c2 24 a4 b9 74 38 93 bb 03 4d 66 bc
       0.03031119 -0.00031307904 -0.0044928137 -0.014056447
0001d0 4e da d8 3b 47 ba a1 3b 37 6b 91 bc 0a cc 40 bc
       0.006617821 0.004935536 -0.01775132 -0.011767397
0001e0 e5 34 dd bc a3 1f 95 3b 05 43 5c 3a 67 06 2b 3d
       -0.027002761 0.0045508905 0.00084023207 0.041754153
0001f0 0e 6a ab 3a 3f d3 a3 3c 2b d3 ae 3c 0a ef b5 bc
       0.0013077871 0.01999819 0.021340927 -0.02220871

action_model._continuous_distribution.log_sigma f4 [1, 2]
000000 f2 7a e4 be 35 b8 ca be
       -0.4462505 -0.39593664

action_model._continuous_distribution.mu.weight f4 [2, 128]
000000 3e ae c6 bd 25 9a dd 3c d0 5a 29 3d dc 0e 63 bb
       -0.09701203 0.02705104 0.04134637 -0.0034646308
000010 ce 63 3d bc 21 ee d0 3c c7 89 0c 3c 38 a2 b8 3c
       -0.01155944 0.025504174 0.008577771 0.02253829
000020 35 e7 b0 3c ab 9e 12 bd 1d 56 75 3d 46 32 dc 3b
       0.021594623 -0.03579585 0.059896577 0.0067198602
000030 0c a7 3d bd 51 09 71 bd e9 51 12 3b f4 89 aa 3c
       -0.046301886 -0.058846775 0.0022326654 0.020817734
000040 bc c3 76 ba f9 44 05 3c 8d 6a 23 bd d4 98 84 ba
       -0.0009413322 0.00813412 -0.039896537 -0.0010116347
000050 1d 13 cb bb 64 77 e6 3c 8b 09 bc bd d5 44 af 3c
       -0.006197347 0.028133102 -0.09181508 0.021395126
000060 7d 04 c0 bd 28 34 54 bc 6e d8 01 3c c0 f4 0e bd
       -0.09375856 -0.012951888 0.007925136 -0.03490138
000070 3d 70 2f 3d db 1c a4 3b c4 a1 f8 3d f3 3a 68 bd
       0.04283165 0.0050083227 0.12140229 -0.056696843
000080 09 58 a0 bb 61 5e ba 3c 97 e8 8c 3b 8c 8f b3 3c
       -0.004893307 0.022750081 0.004300188 0.021919034
000090 f2 8f 61 3d 9b e9 8b bc d0 12 82 3c 8b 54 d4 bb
       0.055068918 -0.017079165 0.015878111 -0.006479805
0000a0 ad 11 aa bc bb c4 40 bb 5c bd 49 3b e7 dc 0a bd
       -0.020760382 -0.0029414135 0.0030783033 -0.033902075
0000b0 3e 92 3c 3b 7e 28 03 bd bc eb 5d bd 1f c1 e0 bc
       0.002877369 -0.03202104 -0.054179892 -0.027435837
0000c0 42 3d 1f 3d 5e 73 83 bc 51 82 ab bc cc f1 23 3c
       0.03887678 -0.016046222 -0.020936163 0.010006379
0000d0 1a 53 05 bd bc 46 20 bd d3 a0 ea bc 5b 8a 72 3c
       -0.032549955 -0.039129958 -0.02864114 0.014803494
0000e0 5c bc d0 3c d7 64 79 bc e4 4e 6a bd 7e c3 2d bd
       0.025480442 -0.015221796 -0.057204142 -0.042422764
0000f0 b8 4b 0a bd 41 d2 d8 3c 8a fd 80 3d c9 06 39 bd
       -0.033763617 0.026467444 0.06298359 -0.045172486
000100 84 6a c9 3c 40 17 91 bd 7d 4f 7e bd 1a b6 94 bc
       0.024586923 -0.07084513 -0.062087525 -0.018153239
000110 b7 25 a2 bb 4b 35 d0 3c 4d 77 69 bc 20 eb 75 bc
       -0.0049483436 0.025416037 -0.014249635 -0.015009671
000120 26 a2 8f bc e7 c7 cb bc d8 e0 ea 3c 0b cd 53 3d
       -0.017533373 -0.024875594 0.028671667 0.051709216
000130 e3 ad 1d 3c 8b 20 55 bd c5 50 8c bc 4d ed c9 bc
       0.009623977 -0.05203299 -0.017128358 -0.024649287
000140 3c 28 c9 bc 02 6c 05 bd 0d e3 6c bd f5 95 30 3d
       -0.024555318 -0.032573707 -0.05783372 0.04311176
000150 41 5c 5e bb bb 8a b1 bd f2 70 48 3d dc 2a 1b 3d
       -0.00339295 -0.08669039 0.048935838 0.03788267
000160 d5 0e cb 3c 0a 71 ad 3b e5 ae 44 3b c4 cd 1d 3d
       0.024787346 0.0052930163 0.0030011472 0.03852631
000170 aa 3d e1 bb 6f a6 84 3d 97 98 fb 3c ff a5 ad bc
       -0.006873806 0.06477057 0.030712409 -0.021197317
000180 97 33 5a 3c fd 54 8c bd 12 f7 a2 3b df 25 a0 bd
       0.013317964 -0.06852148 0.0049733007 -0.07819723
000190 6f e9 1b bd 86 f1 23 3d 8a 1c 40 bc bd a5 5f bd
       -0.038064416 0.040025257 -0.011725554 -0.05460142
0001a0 01 44 77 3c 01 6a 3c ba 43 81 8e 3a b8 d9 f4 bc
       0.015091897 -0.00071874267 0.0010872263 -0.029888973
0001b0 5c ab 8f bd e1 62 a5 bb ae 95 30 ba 39 9f 3e 3d
       -0.07015106 -0.0050471877 -0.0006736171 0.046538565
0001c0 d7 f2 79 3d 5c 4f ed 3a 60 3f 95 3d 38 45 44 3d
       0.061022606 0.0018105316 0.072874784 0.047917575
0001d0 9c 38 6e 3d e3 d6 16 bd 51 95 63 3a f1 21 78 3a
       0.058159456 -0.036826026 0.00086816127 0.0009465507
0001e0 ab 2a e5 3c c2 3d e1 bb 2a 48 32 bc 01 fb f8 bc
       0.027974447 -0.006873817 -0.010881463 -0.030393125
0001f0 85 54 72 3d 93 36 a1 bc 0a 4e 44 bd 3f d4 d9 3c
       0.059162635 -0.019679343 -0.047925986 0.026590465
000200 9a b4 0d 3d d1 27 ba bc 1d f9 0c bc 4f 27 5e 3d
       0.034596063 -0.022724064 -0.008604315 0.054236706
000210 36 4c 18 bc c9 74 2d bb b7 50 0a 3d bf c5 06 3d
       -0.009295514 -0.0026467314 0.033768382 0.03290343
000220 04 58 85 3d 27 cc ab 3c 70 6f 38 bc d0 1d 80 3c
       0.06510928 0.02097137 -0.0112570375 0.015639216
000230 87 d4 0d 3d 93 ce 3c 3d e9 65 83 3c 1a 9b 4c bc
       0.03462651 0.046095442 0.016039805 -0.012488151
000240 28 09 cd 3c e0 7b e5 3b 29 8d 5b bd fa 51 ce 3b
       0.02502878 0.0070032924 -0.053601418 0.0062963935
000250 44 a7 36 3d 19 c8 26 bc 28 ca 0d bd 53 ec d5 bc
       0.04459311 -0.010179543 -0.03461662 -0.026113665
000260 f5 37 b4 3c 4c ef 91 b7 a2 a6 c1 3d e7 8e 89 3d
       0.021999339 -1.7396778e-05 0.09455611 0.067167096
000270 e1 c5 43 bc 0b 9a 9d 3c ee 31 cd 3b e3 70 d6 3c
       -0.0119490335 0.019238492 0.0062620556 0.026176875
000280 aa f2 5d 3d 83 9d 8e 3d 84 0c 82 3c 3b 20 b0 bc
       0.0541865 0.06963637 0.015875109 -0.021499744
000290 57 d7 84 3d 76 4a 8f bd 8d f9 64 bd a8 7f 12 3d
       0.06486385 -0.06996624 -0.055902053 0.035766274
0002a0 19 94 ac bd 1b 0a 0d 3c a1 a0 79 b9 97 91 ae ba
       -0.08426685 0.008608366 -0.0002380633 -0.0013318536
0002b0 09 7e 9c 3d c7 12 f0 3a e3 25 53 bc 50 73 f2 3c
       0.07641227 0.0018316143 -0.012887451 0.029596
0002c0 91 b2 44 3c 76 94 0f bd 59 ea 88 bd c5 52 06 bb
       0.012005464 -0.035053693 -0.06685323 -0.0020496112
0002d0 0b f5 e4 3c 37 19 13 bc f6 73 a2 bd 61 3d 02 3d
       0.027948877 -0.00897818 -0.07932274 0.031796817
0002e0 f1 e7 78 bd 38 94 8c 3c 11 87 3a bc 41 0f 92 bc
       -0.06076807 0.01716052 -0.011384741 -0.01782954
0002f0 36 2c 9a bd 63 29 28 3c ea 39 d8 3c c3 fd b8 bb
       -0.07527964 0.010263774 0.026394803 -0.005645485
000300 b2 fd 30 3c e2 2f 4f 3d bf dd 1b bc cf 1e 14 3d
       0.010802673 0.050582774 -0.009513318 0.036162194
000310 d2 a8 f6 3b c0 34 5b 3d 6d 00 ef bc 36 3b 1e 3d
       0.007527449 0.053517103 -0.029175008 0.038630687
000320 2c eb 1f 3d 31 fd 45 3c 3a 45 f9 bc 9e be 23 3c
       0.039042637 0.012084291 -0.030428518 0.009994177
000330 d4 f5 b4 3c 53 74 a1 3d 01 51 39 3a 55 04 f2 bb
       0.022089876 0.07883515 0.00070692605 -0.0073857703
000340 e8 ea 9b 3c 5d 35 a3 3c 4c 79 09 bc f3 91 8f bd
       0.01903291 0.019922907 -0.008390736 -0.070102595
000350 ef 37 11 3d 9e f7 c3 bc 56 25 61 3d 72 44 92 bb
       0.035453733 -0.023921784 0.054967247 -0.0044637257
000360 16 55 85 bc 3e f5 3c 3d ca 3c b1 bc 94 45 da 3c
       -0.016275924 0.04613232 -0.021635432 0.026644506
000370 1d 6e 17 3d f6 c2 61 bd da 96 e5 3a 6a 33 c4 3c
       0.036970247 -0.05511757 0.0017516271 0.023950297
000380 74 f6 b2 3c ed 7e 45 bd f3 1c be bd 4a 14 9e 3c
       0.021846034 -0.04821675 -0.092828654 0.019296784
000390 83 bc f2 3c 64 89 c2 bc bd a3 6b bc 65 d7 7e 3c
       0.029630905 -0.023747154 -0.0143823 0.015554284
0003a0 f4 3b 53 3d 65 46 af bd 0a 69 f9 3b 3b 49 39 bd
       0.051570848 -0.085583486 0.0076113986 -0.045235854
0003b0 ff bc 3e bc 15 97 ac bc 13 d6 47 3d 73 99 4b 3d
       -0.01164174 -0.021068135 0.04878814 0.049706887
0003c0 c0 4a ec bc fe 3b bb bc 7d 6d 23 3c db e8 77 bd
       -0.028844237 -0.022855755 0.0099748345 -0.060524803
0003d0 c8 0f 4b 3c 9b 19 99 bd 54 eb ca bc 66 a8 24 3c
       0.012393899 -0.07475587 -0.024770416 0.010049915
0003e0 55 7e f1 3a 79 c8 56 3d 82 0b 7b bd 30 ee 16 be
       0.0018424491 0.05243728 -0.06129027 -0.14739299
0003f0 75 2f 25 3d 64 76 8c 3c 0a ed de bc 71 0f 8a 3c
       0.04032846 0.017146297 -0.027212638 0.016853066

action_model._continuous_distribution.mu.bias f4 [2]
000000 e2 bc 0a bb c2 21 90 3c
       -0.0021169712 0.017594222

action_model._discrete_distribution.branches.0.weight f4 [2, 128]
000000 12 55 69 3d 4d 7a 09 3d e9 c9 20 bd 6f b8 97 3c
       0.056965895 0.0335639 -0.039255057 0.018520562
000010 d3 91 67 bc 20 59 8a bd 42 e1 d4 3c 50 02 69 bd
       -0.014133888 -0.067552805 0.025986318 -0.05688697
000020 1e e2 06 bc 5a 2f 12 bc 64 33 05 bd ab d7 88 3d
       -0.0082326215 -0.008922422 -0.032519713 0.066817604
000030 6d 4c a5 3c 58 19 1d 3d 99 c4 46 3d 2e c0 8c bd
       0.020178044 0.038354248 0.048527334 -0.06872593
000040 a2 74 ea 3b 59 0b b2 3c e8 3e 11 bd 36 91 77 bd
       0.007155017 0.021733927 -0.035460383 -0.06044122
000050 92 f4 29 bb 64 a2 ee bc 88 90 f9 bb 11 18 bb 3c
       -0.0025933129 -0.029130168 -0.0076161064 0.022838624
000060 9f af d7 3c fd b1 c6 3c 06 37 b7 3c 6c bd 0a 3d
       0.02632886 0.024254793 0.022365104 0.033872053
000070 d5 da 42 bd 5c f6 b7 3c b2 32 9d bd e2 ce 5d 3d
       -0.047571976 0.02245634 -0.07675685 0.054152377
000080 ad cd 10 3d df 2c e2 3c 3c 6d 26 3d cb cb c6 bc
       0.035352398 0.027609287 0.040631518 -0.024267098
000090 cd 76 f9 bb 12 86 11 bd 46 2f 0b bd bf 43 84 bc
       -0.007613039 -0.03552825 -0.03398063 -0.016145585
0000a0 5b 33 93 bd e9 48 5d bd 8c db e5 bc 37 4b 09 3b
       -0.0718753 -0.05402461 -0.02805879 0.0020949373
0000b0 3b d9 cf 3b 85 43 4e 3d 69 af 8b 3c 08 19 9a 3d
       0.0063430346 0.05035736 0.017051416 0.075243056
0000c0 12 42 ab bc df 41 1b 3c 7e 5a 1c bd f4 3a 5b bd
       -0.020905528 0.009476154 -0.038172238 -0.05352302
0000d0 ee b8 0f 3d 62 bb b3 3b 46 a4 5f 3d e0 e2 c5 3c
       0.035088472 0.0054849843 0.054600023 0.024156034
0000e0 bb 76 12 3b 6a c4 26 bd f8 15 57 3a 1c 90 54 3d
       0.00223486 -0.04071466 0.0008204873 0.051895246
0000f0 5d 56 e2 bc b6 da 84 39 7e d3 17 bd 9c 40 d6 3c
       -0.027629072 0.00025339954 -0.03706693 0.026153855
000100 69 bb 4b 3c 94 cb 17 3d 57 5a 82 3d 3d 26 ae bc
       0.012434819 0.03705938 0.06364887 -0.021258468
000110 4b d8 d9 bd 38 58 11 bc 34 d8 c5 3c 41 7b 7a 3c
       -0.10636958 -0.008871131 0.024150945 0.015288175
000120 42 f7 11 3d 09 eb d0 3c 42 c0 9a 3c 40 a2 7e 3c
       0.035636194 0.025502698 0.018890504 0.015541613
000130 10 51 1f bc 23 bf f7 3c af 88 2d bc 51 fb d9 3c
       -0.009723917 0.030242508 -0.01059167 0.026609095
000140 1f 0c 0e 3c c3 7b 36 3c 5c 73 71 3d 26 56 95 bc
       0.008669882 0.0111379055 0.058947906 -0.018229555
000150 17 56 c1 3d a5 09 29 bc df 18 8c bc 64 eb f8 bc
       0.094402485 -0.010317241 -0.017101703 -0.03038568
000160 9f c6 ec bc de b4 1a bd a7 f7 2a 3d 5e 88 76 bc
       -0.028903304 -0.037770145 0.041740086 -0.015047161
000170 8b c2 5e bc dc db 10 3c 25 38 18 bd d1 8c 43 3c
       -0.013596187 0.008841481 -0.03716292 0.011935429
000180 0b 57 4d 3c 20 f1 de 3c 11 27 cb bc fa ab 2e 3c
       0.01253296 0.027214587 -0.024798902 0.01066112
000190 17 d4 3a 3d b5 d9 9a ba e7 2e 8e 3d e8 1a 4d 3c
       0.04561242 -0.0011814149 0.0694254 0.012518622
0001a0 0e cf a4 3c 24 9c d3 3c 52 d7 74 3b c3 5e 87 bc
       0.020118263 0.02583129 0.0037359786 -0.016524678
0001b0 71 e2 2a bd 97 58 77 bc fe ac 6e 3a aa 91 0e bd
       -0.041719858 -0.015096805 0.00091047573 -0.034806885
0001c0 91 e9 84 bd 1b 23 08 3d 30 41 fc bc d0 06 00 bd
       -0.06489862 0.033236604 -0.030792803 -0.031256497
0001d0 3c 11 19 bd 48 be cc bc d7 eb 14 bd 6e d2 54 3b
       -0.03736995 -0.024993077 -0.036357727 0.0032474059
0001e0 02 1f 02 bd b2 f6 89 bc e2 c8 31 bd 32 7c 4b bd
       -0.031767853 -0.016841266 -0.043404467 -0.04967899
0001f0 a0 47 70 bd 2d 9f 83 3c 79 e1 6d 3c 19 05 ed bc
       -0.058662057 0.016067112 0.014519089 -0.028933095
000200 fa 67 a3 bd 7f a4 01 bd bd 12 4b 3d af 32 80 bc
       -0.07978816 -0.031651016 0.049578417 -0.015649168
000210 36 52 2c 3c 6c c5 89 3d fe 8a bf bc 2c 42 4b 3d
       0.0105176475 0.06727108 -0.023381706 0.049623653
000220 7a 0c 36 3b 98 63 b4 3c b7 be 0d 3d e3 1a 3e bd
       0.0027778433 0.022020146 0.034605708 -0.04641236
000230 8f 39 00 bc 16 21 53 bd 1a 24 dc bc 14 7c a0 3d
       -0.007826223 -0.051545225 -0.026872683 0.07836166
000240 15 9a 5e bc 12 ea 77 bc 4e af 00 3d 9c fb 0f 3d
       -0.013586541 -0.01513149 0.031417184 0.035152063
000250 b2 de 98 bb 4c f2 06 3d 98 3e 67 3c 0b 58 a3 bc
       -0.004665219 0.032945916 0.014114045 -0.019939443
000260 6b f1 f0 bc ba 6a 52 bd 08 3f 39 bc e9 d4 29 bd
       -0.029411992 -0.051371314 -0.011306532 -0.041462813
000270 be 63 10 3d 33 28 f0 bc f5 95 8c 3d d2 fe 72 bd
       0.03525137 -0.029316043 0.068645395 -0.059325047
000280 7b 57 9d bc 53 1c 2b bd 9d ad 71 bd c0 96 c7 3b
       -0.019206753 -0.04177506 -0.05900346 0.006090969
000290 ae 9a ef 3b 26 29 f8 3c 76 08 7f 3c 50 2d e5 3b
       0.0073121404 0.030293059 0.015565982 0.006993927
0002a0 ba 73 b2 3d 54 8e 3a 3d bb a4 5a 3c d4 dd 63 3a
       0.08713479 0.04554589 0.013344939 0.0008692418
0002b0 49 06 0b bc 35 a1 30 bd 50 ee 79 bc 2e 97 a7 bd
       -0.008485385 -0.04312249 -0.015254572 -0.08183132
0002c0 77 34 55 3c 6a 18 08 bc d4 52 30 3d aa b5 65 3d
       0.013012997 -0.008306602 0.04304774 0.05608145
0002d0 b3 21 c0 bc 3f ad cb ba 88 ba 19 bd 6d 01 c7 bc
       -0.023453569 -0.0015539302 -0.037531406 -0.024292672
0002e0 95 96 cd 3b 0c c7 c5 3c 30 d4 10 3b e8 22 19 bd
       0.0062740543 0.024142765 0.002209913 -0.037386805
0002f0 a2 87 cf 3c 66 d6 8f 3c a4 a6 2a 3d bb dd 55 bc
       0.02533323 0.017558288 0.041662827 -0.013053353
000300 83 04 17 bc a3 b7 03 bd a7 59 4f bd c0 05 b5 3b
       -0.009217384 -0.03215755 -0.05062261 0.005524367
000310 76 bd cb 3d 6d 6e 1b 3c c6 c8 40 bc 41 01 9b bc
       0.09948246 0.009486777 -0.011766618 -0.018921496
000320 20 d2 61 bd 67 0f 02 bd d3 a1 41 bc f6 c5 99 3b
       -0.05513203 -0.03175297 -0.011818367 0.0046927882
000330 f0 f5 a7 3b 97 78 39 bd 84 22 98 3c da ec bc bc
       0.0051257536 -0.04528102 0.018571146 -0.023062158
000340 2e 09 cd bc 00 bd 03 bd fd 23 40 bd 55 d3 e9 3c
       -0.025028791 -0.032162666 -0.04690932 0.028543154
000350 5e ff ca bd 12 8a ed 3b e4 4a b8 3c 9f 9f ea 3c
       -0.09911989 0.0072491253 0.022496648 0.028640566
000360 89 7b 4f 3c b8 38 e1 3c f1 d6 51 bd 84 91 05 3c
       0.01266373 0.027492866 -0.051230375 0.008152369
000370 a4 52 b4 3c 56 8e ba bc d5 04 32 3d 33 37 0b bc
       0.022012062 -0.02277295 0.04346164 -0.008497047
000380 bc 36 05 bb 02 3b 25 bd b0 6d b0 3c 1d ce 8b bc
       -0.0020326814 -0.040339477 0.021536678 -0.017066056
000390 69 dc 47 bd 26 42 07 3c e5 89 76 bd 41 84 d7 3b
       -0.048794184 0.008255517 -0.0601901 0.006577045
0003a0 07 23 d9 bb 06 54 13 bc 75 12 45 3b ac c4 a2 3c
       -0.00662649 -0.008992201 0.0030070816 0.019869171
0003b0 c0 55 10 3d 3a 88 1a 3d 54 b5 d5 ba ef f9 ce 3c
       0.035238028 0.037727572 -0.001630465 0.025265662
0003c0 45 c0 4a 3d 96 64 1d bd d6 69 8e 3c b5 af 18 3d
       0.04949977 -0.038426004 0.01738445 0.037276942
0003d0 14 8b 54 3c e8 96 18 3d e3 98 75 3d 78 6f 02 bd
       0.012972612 0.03725329 0.059960257 -0.031844586
0003e0 58 ea ee 3c a2 a4 1e 3c 1c 6d 18 3d 1f 86 23 3d
       0.029164478 0.009682806 0.03721343 0.03992283
0003f0 51 13 2e 3d 8e bc c6 bc 5c 55 82 bc 3f 02 e3 3c
       0.04249889 -0.024259832 -0.015909843 0.027711032

action_model._discrete_distribution.branches.0.bias f4 [2]
000000 4c 70 6e bb 39 70 6e 3b
       -0.0036382852 0.0036382808

exp_avg f4 [128, 136]
000000 78 a7 fd b7 d5 a9 a4 b7 8d dc 95 3a cd 44 bf 37
       -3.0237934e-05 -1.9629408e-05 0.0011433527 2.2801012e-05
000010 d2 1e 36 37 5c a0 89 3b 2d bf 9b 39 8a 9f c7 3a
       1.0855221e-05 0.0042000245 0.0002970634 0.0015230041
000020 d2 1e 36 b7 7a 2f f6 3a b5 2b 00 3b d2 c2 f8 37
       -1.0855221e-05 0.001878246 0.0019557301 2.9654624e-05
000030 aa 09 a7 38 37 e5 e1 34 ff 66 3c b7 1d d8 3b 37
       7.9649806e-05 4.2076292e-07 -1.1229654e-05 1.1196386e-05
000040 13 27 61 38 94 45 62 38 a5 60 74 35 88 27 48 b7
       5.368057e-05 5.39474e-05 9.103772e-07 -1.1930133e-05
000050 f7 78 21 37 54 b6 83 38 21 cd 32 38 01 f6 5b 35
       9.624512e-06 6.280528e-05 4.262955e-05 8.194184e-07
000060 a2 2b b0 b6 26 3c 82 37 d9 f5 c9 38 f9 d4 f6 36
       -5.2502883e-06 1.5525216e-05 9.6302196e-05 7.3561646e-06
000070 3d 54 9f 35 b1 63 44 35 a7 28 16 37 b8 cb ba 38
       1.187094e-06 7.316076e-07 8.950162e-06 8.907117e-05
000080 d8 3a 92 37 43 06 ff 35 ad 09 33 b7 2f 80 96 37
       1.7431958e-05 1.9000803e-06 -1.0671484e-05 1.7941084e-05
000090 27 2d bd 38 fb 56 d0 38 08 72 6c 35 8f ec 99 b8
       9.0206326e-05 9.934414e-05 8.808279e-07 -7.339671e-05
0000a0 e8 2b 62 b8 9a 6c 0d 38 62 b7 8f 38 23 96 51 36
       -5.392349e-05 3.3718163e-05 6.852929e-05 3.1230818e-06
0000b0 d1 15 4e b5 5b 0a da 37 54 9c 02 39 d3 0e 63 38
       -7.677273e-07 2.5992447e-05 0.00012456003 5.4134824e-05
0000c0 1d 41 68 35 7b dc a3 b8 9c be 85 b8 3f e3 aa 38
       8.652149e-07 -7.8135134e-05 -6.377438e-05 8.1485596e-05
0000d0 87 d6 7d 36 2c 7c 54 36 9d 35 80 37 f8 41 73 38
       3.782481e-06 3.166274e-06 1.5283755e-05 5.7997153e-05
0000e0 bb 46 39 39 b1 0f 27 b7 6e 0e d6 34 a0 25 85 b8
       0.00017669324 -9.957629e-06 3.9871105e-07 -6.3489424e-05
0000f0 f1 b7 65 b8 ad f9 03 39 2f 89 43 b8 7a 62 9f 36
       -5.4769163e-05 0.00012586145 -4.6619385e-05 4.7500334e-06
000100 9f e7 b1 37 e8 27 7b 38 79 c9 87 38 ba e8 d7 38
       2.1207901e-05 5.988023e-05 6.474829e-05 0.000102953476
000110 87 0c 6b b3 bd b0 83 b8 02 00 48 b8 6f 01 ef 38
       -5.4726595e-08 -6.279487e-05 -4.7683723e-05 0.00011396675
000120 76 f8 f8 b7 9c dc 97 36 18 8d 36 37 e0 38 6e 38
       -2.9679602e-05 4.525833e-06 1.0880896e-05 5.679659e-05
000130 fa c1 8c 38 58 21 b8 38 22 ab d2 b5 6a 47 48 b8
       6.711851e-05 8.7800145e-05 -1.5696025e-06 -4.7750225e-05
000140 ba 92 2b b8 a4 8d b3 38 41 f5 15 38 bb cf 65 36
       -4.0906227e-05 8.561768e-05 3.575278e-05 3.4244574e-06
000150 cb de 36 37 2d 90 8c 38 08 18 2f 38 0b e1 f6 38
       1.0899918e-05 6.702575e-05 4.1745632e-05 0.000117721116
000160 b5 8b e6 b5 60 65 49 b8 4b 0a ef b7 5e a7 e5 38
       -1.7176995e-06 -4.8016547e-05 -2.8495813e-05 0.000109507455
000170 76 c1 7c 37 69 d2 24 36 0e 63 0f 37 3a b1 9d 38
       1.5065414e-05 2.456038e-06 8.546527e-06 7.5193544e-05
000180 96 12 0c 38 50 82 17 39 7c f2 99 b4 92 47 89 b8
       3.339591e-05 0.00014449027 -2.86749e-07 -6.546e-05
000190 93 26 42 b8 31 66 ed 38 bf cc 72 37 c6 e7 af b5
       -4.628913e-05 0.00011320075 1.4471995e-05 -1.3105971e-06
0001a0 34 d0 c8 36 58 dc 73 38 b2 48 ab b7 78 c5 4e 39
       5.9847025e-06 5.8140926e-05 -2.041864e-05 0.00019719254
0001b0 14 cd 02 b5 73 cd 85 b8 84 cc 31 b8 c0 b6 13 39
       -4.87272e-07 -6.380202e-05 -4.239056e-05 0.00014087092
0001c0 d8 cb 32 b7 59 d0 3a b6 e1 56 9b 36 34 6a 46 38
       -1.0657088e-05 -2.7837434e-06 4.629474e-06 4.7305788e-05
0001d0 2d 63 7e 38 53 d9 f5 38 84 0a f4 b3 7a 43 8c b8
       6.0650684e-05 0.0001172299 -1.1364048e-07 -6.688289e-05
0001e0 95 a1 4a b8 77 60 03 39 aa 4b 02 35 49 b0 23 b6
       -4.8311038e-05 0.0001252907 4.853888e-07 -2.4391504e-06
0001f0 73 33 f1 36 42 e3 4a 38 da b3 d6 38 b8 bb a9 38
       7.188349e-06 4.8372203e-05 0.00010237815 8.093513e-05
000200 14 d1 81 b5 f0 d4 8c b8 cf 02 2f b8 93 01 06 39
       -9.672099e-07 -6.715383e-05 -4.1725867e-05 0.00012779822
000210 1b 2a b7 35 fa e4 1a b6 82 41 4c 36 f8 78 35 38
       1.3646817e-06 -2.308107e-06 3.04365e-06 4.3266424e-05
000220 7f d0 0d 3b 0d df 31 38 c7 13 9e ba 94 ff 50 3b
       0.0021639166 4.240782e-05 -0.0012060337 0.0031890618
000230 3e 2f aa 38 13 48 2c 3c 22 11 08 3a 72 b6 12 3a
       8.115031e-05 0.010515231 0.0005190541 0.00055966445
000240 3e 2f aa b8 f4 90 6a b9 8b 93 c1 3a 84 aa 01 39
       -8.115031e-05 -0.00022369978 0.0014768703 0.0001236592
000250 89 6a e0 37 1f 76 3d 34 b3 c3 63 36 06 e6 1b 38
       2.675249e-05 1.7644969e-07 3.3939548e-06 3.7169106e-05
000260 3d 3d 0a 39 2d 8e a3 36 18 be de 34 ee e2 da 36
       0.00013183519 4.87433e-06 4.1489034e-07 6.5233244e-06
000270 91 4f 17 38 fc a2 6b 37 bc 77 05 39 54 24 a0 b4
       3.6075307e-05 1.4045039e-05 0.00012728473 -2.9828755e-07
000280 e8 78 53 37 4f d5 40 38 88 54 f6 38 4e 18 0a 37
       1.2604731e-05 4.5975026e-05 0.00011745939 8.2311e-06
000290 97 1a 5d 35 8e 3c 84 37 5e 15 17 38 5c c9 54 37
       8.236761e-07 1.5763824e-05 3.6021105e-05 1.2683067e-05
0002a0 46 3d f0 38 d9 a9 79 b4 85 72 a1 37 ba 7e 33 38
       0.00011455505 -2.3251722e-07 1.9246023e-05 4.279495e-05
0002b0 1b 25 2b 39 8c 65 e4 b7 7e 06 3e 33 2c 9c b8 b4
       0.00016321654 -2.7227004e-05 4.4243727e-08 -3.43863e-07
0002c0 7b 43 af 37 50 3b c7 37 5c 18 d8 38 88 3e 3a b5
       2.0893049e-05 2.3750268e-05 0.0001030422 -6.9381394e-07
0002d0 73 7a b2 37 47 2a 12 38 a1 12 1c 39 ca d9 30 b7
       2.1276273e-05 3.4848486e-05 0.00014884259 -1.0541125e-05
0002e0 91 7e 24 35 e8 95 8d b6 67 0a 9b 37 85 9e 12 b8
       6.127894e-07 -4.219579e-06 1.8482284e-05 -3.4956745e-05
0002f0 28 77 30 39 6c 0d 67 b4 88 46 77 37 3a 16 25 38
       0.00016829057 -2.1518434e-07 1.4738769e-05 3.9359766e-05
000300 70 46 96 38 6a d3 87 38 f9 50 fd 34 fb bd 1d 33
       7.1656774e-05 6.4766806e-05 4.7183838e-07 3.6727197e-08
000310 d3 e8 cb 37 04 76 03 38 33 6f c1 38 89 50 51 b4
       2.4307903e-05 3.1342744e-05 9.2236696e-05 -1.949394e-07
000320 54 93 da 37 2c 86 33 38 18 25 95 38 56 9f 86 38
       2.605623e-05 4.2801883e-05 7.111783e-05 6.4192966e-05
000330 0b 4d 29 b4 a4 6e 92 b5 0f c3 b3 37 09 27 22 38
       -1.576738e-07 -1.0910048e-06 2.1429294e-05 3.8660164e-05
000340 92 4b b9 38 fb 46 b8 34 3c 6b 95 37 be 2a f8 37
       8.8355635e-05 3.4324316e-07 1.7812119e-05 2.9583807e-05
000350 d1 64 76 38 c2 5d a0 38 13 22 33 b6 03 a8 82 34
       5.8744863e-05 7.646858e-05 -2.6692912e-06 2.4336632e-07
000360 6f e0 a7 37 74 7c 84 37 88 b4 f9 38 a3 f8 92 b5
       2.0012461e-05 1.579358e-05 0.00011906872 -1.095021e-06
000370 f4 ba 65 37 52 13 cc 37 bf 6a af b7 e2 4d 28 39
       1.3692992e-05 2.4327692e-05 -2.0911333e-05 0.00016050742
000380 f0 8c 43 b6 00 8e 82 b4 11 4f 03 38 28 3a 7f 37
       -2.91393e-06 -2.4317706e-07 3.130647e-05 1.5212725e-05
000390 e6 0e f8 38 b8 80 31 b5 a9 ec 74 37 e9 70 d6 37
       0.000118283366 -6.612495e-07 1.4598635e-05 2.5563366e-05
0003a0 68 16 9e b7 a4 c1 22 39 15 bf 65 b5 4e 70 0b b4
       -1.8845501e-05 0.0001552166 -8.558721e-07 -1.298624e-07
0003b0 10 0c 30 38 c3 3b 9a 38 8f 5d 6d 38 67 b2 cd b5
       4.1972904e-05 7.354424e-05 5.6592336e-05 -1.5325612e-06
0003c0 1b 89 85 37 d1 1d cb 37 0b 0e 05 38 18 d5 d6 38
       1.591868e-05 2.421337e-05 3.172275e-05 0.00010244007
0003d0 bf 4c c6 b4 68 ee c4 35 50 b6 3e 38 b1 b6 8b 38
       -3.6936214e-07 1.4672523e-06 4.546932e-05 6.6620654e-05
0003e0 20 16 89 38 bb 1e 00 b6 76 64 95 37 26 7b b6 37
       6.53679e-05 -1.9091374e-06 1.7808965e-05 2.1753436e-05
0003f0 3e ae a9 38 dc cf 7a 38 68 4b 20 b4 1e ac 59 b6
       8.091003e-05 5.979823e-05 -1.4928594e-07 -3.2435705e-06
