UnityProject/results/testModel5/My Behavior/My Behavior-2808055.onnx (onnx, 141136 bytes, 9 tensors)

network_body._body_endoder.seq_layers.0.weight f4 [128, 136]
00000000: 0f1b 203c 8641 8c3c c758 79bd 5b9b bfbc
00000010: a3f4 e3bd 871a c43d d3f5 923c bf3d a53d
00000020: 928a 5ebd 0e3d 7cbd 3148 57bc d6a4 693d
00000030: b014 f7bd d64c 093e e21c c13d 38d8 5fbd
00000040: 385a de3d d88a 08bd 4cbf 21bc 25af 9abd
00000050: 27ff 3dbd 62ed 6c3d a9a9 b03d 12a7 14be
00000060: fc9d d3bd cbab 973d a5ad b53d 274c 94bc
00000070: ee4c 4fbc 5979 b5bc ba1a 9f3c ee4c e73d
00000080: b407 5ebe 479b 8fbd 53f4 063e 1ece 243d
00000090: 2775 9fbc cead 64bd f68f 383d 5051 a33d
000000a0: 15de 143e 7c95 223c d4b4 3a3c 1eb5 1d3c
000000b0: e60e bb3d 0e22 5b3d cf87 543d 3116 2b3d
000000c0: 01b3 303c 7c3c 51bd 9901 07be 5bd0 5dbb
000000d0: 6359 b9bc 7e33 a9bc 6171 073e 5698 903d
000000e0: 3a77 d8bd 1d89 203e 56fd 033e 96ea 623d
000000f0: 44a4 d4bc 2dee 08bd f9bf e23d 8b70 b93d
00000100: eb9b b93d c4fb 443d 3e30 4dbd 7782 ef3c
00000110: a899 24be c67a 13bd f976 083d 9176 09bd
00000120: 1379 2d3e fdbc 4fbd e418 4cbd 65c0 c13c
00000130: 0dd4 a1bd 538a 653d 111a 91bc 4e8f 893c
00000140: 4f2a 19bc d32a 8dbc c1c9 f33d c218 863d
00000150: d88d 753d c9fe 7dbd a88e cfbd 5137 bc3d
00000160: 2269 cf3d c7c7 163c 3af9 eabd 1d70 d8bd
00000170: 44ca 893d 5932 423e 7f0f 993d 5e70 003d
00000180: 08bd 84bc 3c31 21bd 0d17 5e3c 26c2 34bd
00000190: a72e 983d bd81 fa3b 669e ecbc 2afa 0f3e
000001a0: d736 523d 76fc 9f3c 312c 203d 0fa5 3b3e
000001b0: 0f1b 913d 7dd8 673c 1faf bb3d 875d e1bd
000001c0: 4aae c03d 25a5 fcbd d6f6 bf3c 0b8c 77bc
000001d0: 1e98 303e 3b9c 6bbe 4db3 263d 943a ac3c
000001e0: efe6 dfbc ed8f 93bd 7dcc 383d 1a25 c83d
000001f0: 52ef 6e3e bd3f 62ba 98e8 bd3b 4d43 a3bd
00000200: cc86 923c 9b64 c9bd 7540 59bc ec85 cf3d
00000210: f0d4 bf3d 2bc8 06be c5d1 383e 27ee 13bd
00000220: 747b aabd ae77 87bd 7eb9 e4bd 6b15 d9bc
00000230: ba01 2cbd e4e1 7a3d 2ce1 153a 7a91 38bd
00000240: 4800 aabc 555b a0bd 24c8 8ebc 0bed c43d
00000250: fe85 85bd c0f8 f53d 1d8f 4a3e c3ab 063e
00000260: 2f9c d93c 581e b5bd 4f02 34bd 911f 75bd
00000270: e942 21be 3e39 483e 81f5 8abd 940b adbd
00000280: 3ed2 823d 0b2f 68bd 1d55 113e 6c55 22bd
00000290: 58a9 d1bc d6f9 933d c74c 52bd 02fd e93c
000002a0: 517d 71bd 19fe 743d a9f1 ef3c d0e9 4b3d
000002b0: 885a 05bd 1f22 dfbd 8f44 873d dfd3 cf3c
000002c0: f0e0 24bd 0aa4 b23b c707 2f3d 9fc8 f53c
000002d0: e29f 96bc ccdc b73c c4cd 17be 4e8e 05be
000002e0: a490 613d 1986 3dbe 13aa e93d 14c6 45be
000002f0: 4f66 9a3d 4904 673d 2579 93bd c700 1bbd
00000300: bd12 e23c 39fb 083e d6b9 e0bb 322a 56bd
00000310: e55e 3a3d 3256 03be 5d02 963e af96 3d3d
00000320: 8228 47be 8a3b 4d3d 64d4 9fbc d361 71bd
00000330: 5204 ce3d 4189 7ebd 2d0e 48be 5aef 76bd
00000340: 9a92 4dbc 1b36 84bd eb7f d1bd 872e 24be
00000350: 8d79 3e3d 434c 6ebd 3bb9 99bc d6c0 92bc
00000360: 5b33 8d3d 9ee1 1abe d8de 69bd dbf1 fb3d
00000370: 3fb2 d73c 9b42 0c3e def6 8fbd 72eb c93b
00000380: 7f8f 1bbd 503b d93b c24c fcbd 5f89 943d
00000390: 8914 6e3e 4159 3b3d 3d13 ac3c a1ff fbba
000003a0: fc02 003d 8f5d 83bd 62fa 0ebe 742b 093e
000003b0: 6a76 67bd ee8b 0b3d eb40 003d 6877 953d
000003c0: e92d e73d a60f d23d 0f1d 82bd 7e77 c73d
000003d0: e566 b23d 12b0 1b3d 7367 bebd b80b 0c3e
000003e0: c78c 25bd da1d 913c 328b bbbc 338d 383d
000003f0: 552c ed3c 01bb b3bd 7960 b93d 699e 153e
0.009772076 0.017121088 -0.06087568 -0.023389509 -0.11130645 0.09575372 0.017939484 0.08068418
-0.05433137 -0.061581664 -0.01313977 0.057041965 -0.12064493 0.13408217 0.09429337 -0.05464956
0.108570516 -0.033335537 -0.009872269 -0.075529374 -0.04638591 0.057843573 0.0862611 -0.14516857
-0.103328675 0.07405814 0.08871011 -0.018102719 -0.012652619 -0.02215259 0.019421924 0.1129397
-0.21682626 -0.07012039 0.1317914 0.04023563 -0.019465042 -0.055829816 0.045059167 0.079744935
0.14537843 0.009923335 0.011395652 0.009625701 0.09133701 0.053499274 0.05188733 0.04176921
0.010784865 -0.051083073 -0.13184203 -0.0033846113 -0.02262563 -0.020654436 0.13226844 0.07060306
-0.10569616 0.15677305 0.12889609 0.0553995 -0.025957234 -0.033430267 0.11071772 0.09054669
0.09062942 0.048091665 -0.050094835 0.029237015 -0.1607424 -0.036005758 0.033316586 -0.03356034
0.16940717 -0.050717343 -0.049828425 0.023651311 -0.079017736 0.05604012 -0.017712625 0.016791966
-0.009348466 -0.017232334 0.11903716 0.06547691 0.059949726 -0.06201056 -0.101346314 0.09190238
0.10127474 0.009202904 -0.114733174 -0.10568259 0.06728032 0.18964519 0.07473659 0.03135716
-0.016203418 -0.039353594 0.0135553 -0.044130467 0.07430773 0.0076448605 -0.028884124 0.14060274
0.05132183 0.019529562 0.039104644 0.18324684 0.07085239 0.014150736 0.09164261 -0.11004167
0.09408243 -0.12336186 0.02343313 -0.015109072 0.17245528 -0.23008816 0.04069834 0.021024026
-0.027331797 -0.07205186 0.04511689 0.097727016 0.23333481 -0.00086307136 0.0057955496 -0.07971821
0.017886542 -0.09833642 -0.013259997 0.101329654 0.093667865 -0.13162296 0.1804877 -0.03611579
-0.08324328 -0.06614624 -0.11168192 -0.02649947 -0.041993834 0.061250582 0.0005717452 -0.045060612
-0.020752087 -0.0782992 -0.017429419 0.09615525 -0.065196976 0.12010336 0.19781156 0.1315146
0.026563732 -0.08843678 -0.043947514 -0.059844557 -0.1574818 0.19553086 -0.067851074 -0.08449474
0.06387757 -0.05668549 0.14192624 -0.039632246 -0.025593445 0.07225387 -0.05134275 0.028563026
-0.0589574 0.05981264 0.029290037 0.049783528 -0.03255704 -0.1089518 0.066048734 0.025369583
-0.04025358 0.005451684 0.042732026 0.03000289 -0.018386785 0.022444151 -0.14824587 -0.13042566
0.05506958 -0.18508185 0.11409392 -0.19313842 0.07539045 0.05640057 -0.07200841 -0.03784254
0.027596826 0.13377084 -0.006858091 -0.052286334 0.045500655 -0.1282585 0.29298678 0.04628628
-0.19449046 0.05010561 -0.019510455 -0.058931183 0.10059418 -0.062142614 -0.19536658 -0.060286857
-0.01254716 -0.06455632 -0.102294765 -0.16033374 0.04650264 -0.058178198 -0.018765083 -0.017914217
0.06894561 -0.15125129 -0.057097286 0.1230199 0.026330112 0.13697283 -0.07029508 0.0061621005
-0.037978645 0.006629385 -0.12319328 0.07252764 0.23250021 0.045739416 0.021005267 -0.0019225964
0.031252846 -0.06414329 -0.13962701 0.13395482 -0.056509413 0.034068994 0.03131191 0.072981656
0.112880535 0.10256891 -0.06353199 0.09739588 0.08711032 0.03800971 -0.09297075 0.13676345
-0.04041746 0.01771443 -0.022893522 0.045056533 0.028951803 -0.087759025 0.09051604 0.1461121

network_body._body_endoder.seq_layers.0.bias f4 [128]
00000000: 129d 3a3c 2d66 40bc 12fa 1d3d 8492 8f3c
00000010: 77b3 b2bb bc90 5abb 7c0d f53c 7208 02bb
00000020: 438e 5b3c d3c2 433d d172 c43c 2809 1a3b
00000030: 48c3 a4bb 165e a73a f7cf 443c 3175 f03a
00000040: 9273 1e3d f34f ab3c 5f25 393b a758 d2bc
00000050: d9ce 01bc 3637 ea3b 5c30 06bb 43cd 393c
00000060: c80c f1bc 8af5 06bd 643c 1abc b569 8bba
00000070: 2623 e83b ff73 12bc 3686 d3bb 10b6 0cbb
00000080: 013c a3bb 308a 4ebc 23f1 8a3c a63d b03c
00000090: 1d08 babb 2dac 783c cb07 81bc c492 053d
000000a0: 745f 84bc 0959 9e3c 1006 523d 819f ff39
000000b0: 97fb 9f3c 9f4a c33c 942d c0bb 46fb 3c3d
000000c0: 3436 35bd f3d8 d13c 566a a63c 3ae2 003a
000000d0: 4ca6 0d3c 445e e0bb cfd2 5b39 4742 1d3c
000000e0: b80e 193b 5367 58bc 086a b53c 82a4 8fbc
000000f0: 6cec aabc 9054 d73c 7ef5 733c 8f65 9cbc
00000100: 4a3a 84bc 0a05 123d 0f14 bcbc 4cf5 a0bc
00000110: 5788 b03b 4927 013d 6dc8 acbc 310c fabc
00000120: 3f9a 0a3c 4c78 033c ff8a 13bd cbe1 1bbc
00000130: 82a0 ca3b 5330 57bb 92c7 973c de62 83bc
00000140: 95dc a7bc bbfa 85bc a565 b9bc d09d 5d3d
00000150: c6ec 3a3d 4ecf 8a3c 7def 313c 91eb 063a
00000160: f429 a53c 75b1 b4bc 4ba1 4f3c e394 5bbc
00000170: 9123 81bc 4096 f1bb e177 63bc 7a3a 34bc
00000180: 21b0 b33c bb6c 133d 416f 1cbd a2db 983c
00000190: a02a d3bc 1ee4 2bbc 77aa 0ebd f73e d83c
000001a0: 6573 263c 6213 20bc 7306 b8bc c12a 9ebb
000001b0: 7be7 c1bc c565 113c a283 85ba 6523 ea3b
000001c0: 0d49 d03c 9a6c 0abd 3d45 0fbc f348 91bc
000001d0: f321 f93b efa2 883c 7700 fbbb 9c6d ae3c
000001e0: c59b b2bc 4b3e 5fbb 47f5 fcba f458 083c
000001f0: 9ea9 e8bb 91be 6e3c 82d4 203c 6e13 bebc
0.011389988 -0.011743111 0.038568564 0.017525919 -0.005453523 -0.0033350429 0.029913656 -0.001984146
0.013400617 0.04779322 0.02398053 0.0023503993 -0.005028162 0.0012769129 0.012012473 0.0018345473
0.038684435 0.020912146 0.0028251035 -0.025677038 -0.0079228515 0.007147695 -0.0020475602 0.011340442
-0.02942504 -0.032949008 -0.009413812 -0.0010636362 0.007084268 -0.008938788 -0.006455208 -0.0021470822
-0.0049815183 -0.012606189 0.016960686 0.021513771 -0.0056772367 0.015177769 -0.015750786 0.03261067
-0.016158797 0.019329565 0.051275313 0.0004875623 0.019529147 0.023839293 -0.0058648083 0.04613807
-0.044241145 0.025616145 0.020314377 0.0004916523 0.008645605 -0.006847175 0.00020964 0.009598321
0.002335472 -0.013208228 0.022145286 -0.017534498 -0.020864688 0.02628544 0.014890073 -0.019091396
-0.016141076 0.035649337 -0.022958783 -0.019648217 0.0053873467 0.031531606 -0.021091664 -0.030523391
0.008459627 0.0080242865 -0.03602123 -0.009514282 0.006183685 -0.00328352 0.01852778 -0.016038354
-0.020490924 -0.01635491 -0.022631476 0.05410558 0.04563596 0.016944554 0.010860321 0.00051467965
0.020161606 -0.022057274 0.012672733 -0.013402197 -0.01576403 -0.0073726475 -0.013883562 -0.01100027
0.02193457 0.035992365 -0.038192037 0.018659417 -0.025777161 -0.010491399 -0.034830537 0.026397211
0.010159348 -0.009770246 -0.022464013 -0.004826874 -0.023669949 0.008874361 -0.0010186324 0.0071453326
0.025425458 -0.033794977 -0.008744535 -0.01773498 0.007602924 0.016679255 -0.0076599675 0.0212925
-0.021802792 -0.003406423 -0.0019299173 0.008321989 -0.007100298 0.014571802 0.009816291 -0.023202624

network_body._body_endoder.seq_layers.2.weight f4 [128, 128]
00000000: 354b f5bd 6e52 07bc 618e 23be cf8a 61be
00000010: 510b 3a3d ac44 afbc e22d 463d c410 32be
00000020: 269d 2abe f486 05bd 050a debd ee93 1fbd
00000030: 359b 8abd cae0 76bd 986f 89bd d42e 843e
00000040: a159 993e 198d 76be 0a0d a2bd e0bc 843d
00000050: 0bb6 aa3d faa5 63bd 2993 8bbe ff3a 8b3c
00000060: a9ed 883d 5fbf 67be ccb2 d93d a0e3 00be
00000070: 909b 20be 01ea 1a3e a423 b6bb bf6d 843d
00000080: 13b6 30bb 6d18 1abc 5fdf 2a3d 226d c8ba
00000090: d325 693d 2420 aa3d c5ec 963d 1577 45be
000000a0: ab08 8fbd 5653 24bd 1b36 dcbe 5343 9c3c
000000b0: b920 493d 7010 443e 26ec 3e3d 22b2 11bc
000000c0: 8dc3 27bc 9b62 89be a5d6 e6bd a3e8 acbd
000000d0: c002 84be 2cc0 143b 088d 02be 9907 03bd
000000e0: e560 cabb edf1 da3b 52a6 84bd dd6c 02be
000000f0: b501 bdbd b8df 11be 45c0 643e 3ae9 9dbd
00000100: 9919 c13d d1ab 663d dd75 373e b84c d1bd
00000110: 9315 0cbe c7cf a3bd e474 1b3d e132 243d
00000120: 7738 64bd 6ebb cd3c 304b 0c3d 35d3 b5bd
00000130: 2197 0c3d 29ea 77bd 7208 c1bd 02f4 c8bd
00000140: 7720 76be a9c4 76bd 7663 cd3d 2ed4 fe3d
00000150: 3207 24be d9c5 353d c233 5abd f0e5 933d
00000160: 1e95 a33d 3938 31be 2f98 d8bd 0600 2bbd
00000170: f9a3 cfbc 9b17 823e 3eb4 06be dccd 62be
00000180: 61ba e6bc a1d7 7abd d88a a1bd 6156 02be
00000190: 7dc1 79bd 6288 063e 4e6c 97bd cc5c e93d
000001a0: 3a9f 1a3e 4c8f b13e 97ca a1bd fffa 8b3d
000001b0: 4a6d 5dbd 082a 5dbe d860 84bd 9944 32bc
000001c0: 6548 0bbd 4470 ba3d 6cb7 aa3d f320 843d
000001d0: 3707 02be 71fb 42be 9fbb 57bc a4a3 07be
000001e0: fa88 d5bd df1d 92bd 17f8 443e e94a da3d
000001f0: 39c8 9dbd bf59 0a3d 945d a33d 23c0 5f3d
00000200: 26ef 263e 21b2 81bc f148 d4bd 2470 653d
00000210: 5836 91bd 0359 ddbd 77d7 a83d a5fa 543c
00000220: 9259 e53b 2438 1fbd 2334 0abe 0cfe 00be
00000230: a44c 8e3c f430 aabd 2351 2bbb 4b61 51bc
00000240: 20e0 c63b f0a5 48bc 6474 023c c9ab d83d
00000250: 6099 333d c74e 8e3e bd49 543c 49be b03b
00000260: ac44 43bd 93de d73c 4a64 67bd e9fe 1abd
00000270: 2e8a bc3b 1e49 10be 8b49 d4bc 32ad b0bd
00000280: 7c9f 483c b7d8 663d c2a9 caba 5484 ebbd
00000290: 2310 c1bd ff14 a13d e497 98bd e979 1dbe
000002a0: 54af b7bd 3b37 da3d 459f 2ebe 3452 ccbd
000002b0: f90f 1c3d 166e 283e 699e 69bd d9d4 38bd
000002c0: 6c8b c9bd 8ece 083e 1a33 bebc 55d7 653d
000002d0: 078b 02bb 42e9 623c a233 9abc 930b dfbb
000002e0: 0493 14bd f61e 923d 4ab3 49be 72bc 21be
000002f0: 2150 6f3d 0ca2 a93d 4bdd 9dbc b9eb fdbc
00000300: 1fe7 093e 4f6f 48be bf34 083d 1878 b7bd
00000310: 1ad1 9c3d 10c0 493d 0423 6dbd 74f5 413e
00000320: 433e e8bd 2eb7 bebd 8132 4ebc 7eef 873c
00000330: 029f 333e 6d1d c83c 96af fcbd 4f6d 883d
00000340: 4aa1 003c 4972 9ebd 41c0 73be 5a3b 713d
00000350: 28c7 1a3d 4dd5 7c3b 61ac a6bd 73e8 7f3d
00000360: b2ad e0bd 9ad2 26be 1f21 51bd 0a37 b9bc
00000370: b606 9a3d d4d5 c6bd 310b 2abd 86aa 97bd
00000380: fb53 033e 5f51 673d ba87 f23c 66ac 02be
00000390: 03cc 7838 3bdf c3ba 55a9 273d 491e e3bc
000003a0: df99 3fbe fc7b 4bbd 6463 82bd 715b c03c
000003b0: 9576 3ebb dbf8 83bc dbd4 bfbd 5959 81bd
000003c0: 4451 13bd ab11 023e 68b1 d1bd a8bd 973c
000003d0: c61e a9bc 5305 d1bd 1c05 03be 14d4 bc3d
000003e0: 5dcd b13d ba91 32be 2b8c c2bc 4f24 98bd
000003f0: cec3 6f3d 5b17 133b f5b4 ddbd 674a 963b
-0.11977235 -0.008259399 -0.15972282 -0.22025608 0.04542095 -0.02139505 0.0483836 -0.17389208
-0.1666151 -0.032599404 -0.10841755 -0.038959436 -0.06767885 -0.06027297 -0.06710738 0.25816977
0.29951194 -0.24077262 -0.07912643 0.064813375 0.08335503 -0.05557821 -0.27260712 0.016995905
0.06685955 -0.22631596 0.10629806 -0.12586832 -0.15684342 0.15128328 -0.005558448 0.06466245
-0.0026963993 -0.009405238 0.04171693 -0.0015291313 0.056920838 0.083069116 0.07369379 -0.19283707
-0.06984075 -0.040118538 -0.4301003 0.019075071 0.049103472 0.19146895 0.046611927 -0.008892568
-0.010239494 -0.26833043 -0.11271409 -0.084428094 -0.25783348 0.0022697551 -0.12749112 -0.031989668
-0.0061761015 0.006681672 -0.064770356 -0.1273684 -0.09228841 -0.14245498 0.2233897 -0.077105
0.094287105 0.0563162 0.17916055 -0.10219711 -0.13680105 -0.07998615 0.037953272 0.040087584
-0.05571791 0.025113788 0.034251392 -0.08878175 0.034323815 -0.060526047 -0.09425439 -0.09812166
-0.24035822 -0.060246143 0.10028736 0.12442814 -0.1601837 0.044378135 -0.053272016 0.072215915
0.07987426 -0.17306603 -0.10575902 -0.04174807 -0.025346743 0.25408635 -0.13154694 -0.22148842
-0.028165044 -0.061240796 -0.078878105 -0.12728263 -0.06097554 0.13137963 -0.07393704 0.11394653
0.15099803 0.3467964 -0.07899969 0.06834983 -0.054059304 -0.21598065 -0.06463784 -0.010880613
-0.034004588 0.09103444 0.08335766 0.06451597 -0.12698065 -0.1904123 -0.013167291 -0.13246018
-0.10426517 -0.07134604 0.19235264 0.10658819 -0.07704205 0.033776995 0.07976833 0.054626595
0.16302165 -0.015832009 -0.10365475 0.05601515 -0.070904434 -0.10807993 0.08244222 0.012999211
0.006999203 -0.0388719 -0.13496451 -0.12596911 0.01737053 -0.08310118 -0.002614089 -0.012779544
0.0060691983 -0.012246594 0.00796232 0.105796404 0.04384744 0.27794477 0.012957034 0.0053937775
-0.047672912 0.026351249 -0.056492127 -0.037840758 0.005753777 -0.14090392 -0.025913974 -0.086267844
0.012245055 0.05635902 -0.0015461969 -0.11499849 -0.09426906 0.07865333 -0.07450846 -0.15378536
-0.08968988 0.106550656 -0.17052944 -0.099766165 0.03810117 0.16448244 -0.057035837 -0.045124862
-0.09841046 0.13360044 -0.023217726 0.05611356 -0.0019919293 0.013849558 -0.018823449 -0.0068067997
-0.036273018 0.071348116 -0.196973 -0.15794542 0.058426026 0.08282861 -0.01927056 -0.03099619
0.13467072 -0.19573711 0.033253428 -0.08958453 0.076570705 0.04925543 -0.05789472 0.18941289
-0.113400005 -0.093122825 -0.012585283 0.016593691 0.17541125 0.024428094 -0.12338178 0.06661474
0.007850954 -0.07736642 -0.23803808 0.058894493 0.037787586 0.0038579286 -0.081383474 0.06247754
-0.1097063 -0.16291276 -0.051056977 -0.022609252 0.07520811 -0.09708753 -0.04151458 -0.07405572
0.12825005 0.056474086 0.029605735 -0.12761077 5.931781e-05 -0.0014943847 0.040932972 -0.027724402
-0.18711041 -0.049678788 -0.063666135 0.023481103 -0.002906238 -0.016109874 -0.09366771 -0.0631587
-0.035966173 0.12702052 -0.10238916 0.018523052 -0.020644557 -0.10206094 -0.12794918 0.09220138
0.08681748 -0.17438403 -0.023748478 -0.074288 0.058536343 0.002244434 -0.108255304 0.004586506

network_body._body_endoder.seq_layers.2.bias f4 [128]
00000000: 2c1a 8f3c 0508 17bd ff23 13bb 8170 573c
00000010: c326 44bc 7ecb d8bc 59e6 613c ad93 963a
00000020: 0c27 023d f1a1 623b 4cdc e3ba fd19 c9bc
00000030: c01e 783c 9522 b53c 90eb debc 67d1 363c
00000040: a2a6 e43b ddb0 0f3b 5aa2 0d3d d554 2e3c
00000050: ee29 d93c bd1d 52bc 6361 f0bb b12b 603a
00000060: e460 163d db85 f93c 88e3 713c 11eb 9a3c
00000070: 4209 e0bc 9314 4fbc af8b db3b 197b c83c
00000080: 7353 2e3c 04e8 c03c ff6b 503c 9a89 81bc
00000090: 4dc6 ee3b e05d 083d 2b75 1c3a c014 a63b
000000a0: d38b 3dbc ee29 18bd 23ef 05bb 9d43 b93b
000000b0: fc46 3f3d 0635 f5bb cd46 5cbc 652f a53c
000000c0: 83d7 f8bb 2fd1 72bb 2b50 9ebb dee0 83bc
000000d0: 08d4 12ba ac11 283a f170 f33b 54b2 d73a
000000e0: 4c4e 5d3d cb11 8a3b 987d 6c3c a9f6 353c
000000f0: dfb8 31bc 2521 44bc 32a5 943c 32c3 293c
00000100: 3418 9dbb 002f df3c 2db2 12bc 17be 87bb
00000110: 81bc 643b d806 183c 6980 7cbb 2e6b d5ba
00000120: 44bd 8bbb 6df6 4bbc ca86 af3b 869a a03c
00000130: e137 e03b e4b6 da3b ee5e 48bc 5783 a8bc
00000140: aefe e0bb aaf1 c6ba a03c d5bb 2fc9 70bc
00000150: 8b93 953c 3dc1 81bb 53dd b03c 2f7a 9fbc
00000160: 3099 98bc 2a3c e03c 5c10 c4bc 5851 e23b
00000170: 5c6c 463c ce35 9b3c f197 0fbc 7c0e 0abb
00000180: ac1e a0bb 5558 833a 916f 1a3c dda7 9b3b
00000190: 8654 e13c 9767 95bc 54c6 a4bb 0e36 ee3b
000001a0: 7738 f83c 6911 263c e8a5 d7bc a9f8 1abc
000001b0: 3621 a63c 66e1 68bc cd62 283c d27c bc3c
000001c0: 6bd4 0f3d 2346 22bb 7072 e0ba 2c08 64bc
000001d0: 8c0c 0d3c a1c6 e03b 3398 80bc 466c 4ebc
000001e0: 8c44 d2bc c07c 5d3b 4139 9b3a 0c70 1f3d
000001f0: 4bbf 4b3b 8595 c73c 0acb a83c 9b6e 9abc
0.017468534 -0.036872882 -0.0022451875 0.013149382 -0.011972132 -0.02646422 0.013787829 0.0011488103
0.03177552 0.0034581388 -0.0017384379 -0.024548525 0.01514405 0.022111217 -0.027211934 0.011158324
0.006977872 0.0021925487 0.03457866 0.010640343 0.026509251 -0.012824473 -0.007335828 0.00085514324
0.036713496 0.030459335 0.01476372 0.018910917 -0.027348164 -0.012639183 0.006700001 0.02447276
0.010640013 0.023548134 0.012721061 -0.015812684 0.007286823 0.03329265 0.0005968387 0.0050683916
-0.011568981 -0.037149362 -0.0020436726 0.005653812 0.046698555 -0.0074831275 -0.013444615 0.020164201
-0.0075940504 -0.0037050953 -0.004831334 -0.016098436 -0.0005601053 0.0006411325 0.007429235 0.0016456344
0.054029748 0.004213547 0.014434241 0.011106172 -0.010847299 -0.011970793 0.018145178 0.01036148
-0.004794145 0.027244091 -0.008953613 -0.0041425335 0.0034902396 0.009278975 -0.0038528687 -0.0016282552
-0.0042645056 -0.012448889 0.0053566443 0.019604933 0.006842599 0.0066746343 -0.012229664 -0.02057044
-0.0068662977 -0.0015178223 -0.006507471 -0.014696403 0.01825883 -0.0039598034 0.02158991 -0.019467441
-0.018627733 0.027372438 -0.023933582 0.0069066696 0.012110796 0.018946555 -0.008764253 -0.0021065762
-0.004886469 0.0010020832 0.009426014 0.0047502355 0.027506124 -0.018237872 -0.0050285254 0.0072696274
0.030300362 0.010135987 -0.026324227 -0.009458699 0.020279508 -0.014213895 0.010277462 0.023008738
0.035114687 -0.0024761043 -0.0017123949 -0.013917964 0.008608948 0.006859616 -0.015697574 -0.012599057
-0.025667451 0.003379628 0.0011842625 0.038925216 0.0031089361 0.024363289 0.02060463 -0.018851569

action_model._continuous_distribution.log_sigma f4 [1, 2]
00000000: 4b7f cbbe fb73 abbe
-0.39745554 -0.33486924

action_model._continuous_distribution.mu.weight f4 [2, 128]
00000000: 5045 c4bd 019b 7d3c 7cc8 213d fb80 37ba
00000010: a8e4 e1bb b4ac d13c d8dc cf3b 89b3 9b3c
00000020: 9062 a73c 9507 efbc 2a50 633d 68ea 5eba
00000030: 2bee 40bd 6fe7 8bbd a651 163b 2060 8e3c
00000040: 50f9 a4ba 0a67 2a3b c875 24bd 83c3 afbb
00000050: bb9f 00bc 4644 d73c 9392 b5bd 0042 a83c
00000060: 9776 babd 9392 4dbc fa55 f33b a094 fbbc
00000070: 9a65 303d d03e aa3b afbb e63d 0260 5dbd
00000080: 6460 4ebb ca02 983c 0445 993b 6bb6 7a3c
00000090: 94eb 413d 13df 75bc a7d8 823c 733d b7bb
000000a0: 5cd3 91bc ff72 8e3b b70e 793b ca50 0bbd
000000b0: dde7 463b 0141 d9bc edcc 43bd 07aa cbbc
000000c0: e60d 1a3d eced 6cbc 4d85 81bc 5a97 083c
000000d0: b8c5 1bbd 49eb ffbc 71b2 d5bc fd1d 223c
000000e0: 1ee1 c53c 2632 75bc a215 5dbd da7c 25bd
000000f0: 4d8a 02bd afdf cb3c eea0 6a3d 3b0f 33bd
00000100: 6e68 693c d968 87bd b9c5 83bd 4335 83bc
00000110: 11cb 47bc 865d c03c d60c 73bc 0502 61bc
00000120: 86ad 5fbc 7185 cfbc 2955 8b3c 1bf6 423d
00000130: 9e53 043c 12ea 39bd 3584 f0bb d8a9 c7bc
00000140: 0995 b9bc 27d0 e7bc 04a2 52bd 83c8 1e3d
00000150: 9dc1 4abb 7a8d a1bd d4c1 2a3d 1361 0a3d
00000160: b110 993c 5287 f33b f7e9 a93a 3afe 0a3d
00000170: becd c2bb b7f9 803d ec64 d63c 1406 f9bc
00000180: a0db 573c a6b8 82bd eec3 263b d3b3 97bd
00000190: dec9 20bd 0ec7 1a3d 888d 1dbc 963c 4abd
000001a0: d9db 833c 10f1 5b3c c551 3dba 7c2f d8bc
000001b0: ea3d 87bd 8d37 08bc 04b4 0fbb 8e16 2e3d
000001c0: 7d96 6d3d 8931 c0bb fd97 8c3d 3c6a 333d
000001d0: c4b6 633d 1332 06bd 5cf0 0f3b 1fd3 5eba
000001e0: d283 e23c 6f90 89bb 5455 89bc ca5a d3bc
000001f0: 0cc8 633d de95 0dbd 0d21 1abd 9c3d c33c
00000200: abff 183d 57b9 96bc 6e5e 07bc f04e 333d
00000210: c2da e3bb 9886 a8bb 7c1a 003d d41b 043d
00000220: 6db1 7d3d 34e7 9a3c ce28 06bc c49a b23c
00000230: 7c2d 043d 97db 3c3d a909 823c c446 5dbc
00000240: 2ea5 bc3c c144 763b 44b6 5cbd 0cc0 83ba
00000250: 69b8 313d c61d 41bc 5a5e 03bd 8125 cbbc
00000260: 0f2f a33c 12ef 443b f2ff bf3d b37d 713d
00000270: 99c8 3dbc ca1b 9c3c b683 b43b 5d71 a03c
00000280: 01be 673d 1bec 843d 30b6 833c 7097 66bc
00000290: bc4d 893d 997e 90bd a92f 68bd 1ebb 083d
000002a0: bfe4 a0bd 5fb5 e53b 1aa6 bdba b0e6 6cbb
000002b0: 4017 8e3d bcea 4239 3b3d 3bbc 4e91 013d
000002c0: 0b77 4c3c c4ce 0abd 8d81 86bd 1a43 55bb
000002d0: a947 f83c 7b4a 883a 978f 99bd a038 ec3c
000002e0: 7e10 60bd cd56 813c 6f14 74bc 9ec3 98bc
000002f0: 267b 90bd 611f 023c c9a5 d63c b46c d1bb
00000300: 9d4f 533c b59d 493d 6404 e8bb 12d4 073d
00000310: e66f 363c 365e 673d 9bd0 dfbc bb1f 213d
00000320: a433 063d f2b0 2d3c 0d09 a9bc 36a3 353c
00000330: 85e0 b33c 8580 963d 793e d93a 2d05 12bc
00000340: fece 923c f94d 9c3c bb01 0abc 988f 8dbd
00000350: 9842 133d a632 debc 498e 633d 1940 1bbb
00000360: 252a 86bc 09f5 333d bb31 97bc 3382 eb3c
00000370: baf7 093d d0ff 42bd 0e42 963b 561c 9c3c
00000380: 1b89 9f3c 85d0 35bd 0843 b6bd adfd 7d3c
00000390: ad0a a83c bcd4 b8bc 0e4d acbc 133a 603c
000003a0: 06e4 4d3d 7940 97bd 94b1 453b 3b7c 15bd
000003b0: 804f 0fbc 228d b6bc 8bd3 393d 805c 4d3d
000003c0: ee44 cfbc 23f3 8dbc 1669 2a3c bcac 65bd
000003d0: 6b9c 443c 0215 96bd a125 bfbc c5a5 4e3c
000003e0: 1a9c 4f3a d83a 2d3d b5ca 69bd f67d 03be
000003f0: fe76 263d 14d3 de3c e3ef e0bc d8ad 753c
-0.09583533 0.01547885 0.039497837 -0.00070001156 -0.006893713 0.025595047 0.0063434653 0.019006507
0.02043274 -0.02917842 0.055496372 -0.0008503557 -0.047102135 -0.06831252 0.002293685 0.01737982
-0.0012586508 0.0026001357 -0.040151387 -0.005363883 -0.007850583 0.026277672 -0.088658474 0.020539284
-0.091046505 -0.012547153 0.0074260207 -0.030710518 0.043065645 0.005195476 0.112662666 -0.05404664
-0.0031490559 0.018556017 0.0046774168 0.015302281 0.047343805 -0.015006798 0.015972449 -0.005592042
-0.01780098 0.0043472047 0.0038003155 -0.034012593 0.0030350604 -0.026520254 -0.047802854 -0.024861349
0.03761091 -0.014461022 -0.015810633 0.008336866 -0.038030356 -0.031240122 -0.026086064 0.009894845
0.024155196 -0.01496557 -0.05397571 -0.04040227 -0.031870175 0.024886934 0.05728238 -0.043715697
0.014246089 -0.06611795 -0.06434197 -0.016016608 -0.012194411 0.023482095 -0.014834603 -0.013733392
-0.013652211 -0.025332185 0.017008381 0.047597986 0.0080765765 -0.045389242 -0.007339979 -0.02437298
-0.022654073 -0.028297497 -0.05142404 0.03876544 -0.0030938156 -0.07888313 0.041688755 0.033783983
0.018684717 0.007431903 0.0012963404 0.033933856 -0.0059449365 0.06297629 0.02617117 -0.030398406
0.013174921 -0.06382875 0.0025446373 -0.074073456 -0.039255016 0.03778749 -0.009616263 -0.049374186
0.016096042 0.013424173 -0.00072219624 -0.02638983 -0.06603606 -0.008314026 -0.0021927366 0.04250198
0.058004845 -0.00586528 0.06864927 0.043802485 0.05559422 -0.0327626 0.0021963334 -0.00085000874
0.027650747 -0.004198126 -0.01676432 -0.025800128 0.0556107 -0.034566753 -0.037629176 0.023833089
0.0373532 -0.018398924 -0.00826226 0.043776453 -0.006953568 -0.005142998 0.031275257 0.0322531
0.061936785 0.018909074 -0.0081884395 0.021802314 0.03226994 0.046107855 0.015873747 -0.013505641
0.023027983 0.0037577602 -0.05388476 -0.0010051741 0.043388758 -0.011786884 -0.032072403 -0.024798157
0.0199199 0.0030049724 0.093749896 0.058957767 -0.011583471 0.01905622 0.005508865 0.019585306
0.056577686 0.06490346 0.016078085 -0.014074191 0.0670428 -0.070553966 -0.056686077 0.033381574
-0.0785613 0.0070101465 -0.0014469058 -0.0036148243 0.06938028 0.00018588727 -0.011428173 0.031632714
0.012479554 -0.033888593 -0.065676786 -0.0032541216 0.030307608 0.0010398173 -0.07498091 0.028835595
-0.05470323 0.01578846 -0.01489745 -0.018647965 -0.07054739 0.007942052 0.0262021 -0.0063911323
0.012897399 0.049222667 -0.0070806015 0.03316123 0.011135077 0.05648633 -0.02732115 0.0393369
0.032764092 0.010601269 -0.020634199 0.011086276 0.021957645 0.07348732 0.0016574404 -0.008912367
0.017920967 0.019080149 -0.008423264 -0.06912154 0.03595218 -0.02712376 0.055555616 -0.0023689328
-0.016377518 0.043934856 -0.01845633 0.028748607 0.033683516 -0.047607243 0.004585511 0.01905648
0.019474557 -0.044388313 -0.08899504 0.015502376 0.020512903 -0.022562377 -0.021032836 0.013685721
0.05026629 -0.07385344 0.003016566 -0.03649543 -0.008746982 -0.022284094 0.04536776 0.050137043
-0.025301423 -0.01732785 0.010401031 -0.056072935 0.012000184 -0.07328226 -0.023333373 0.012612765
0.0007919684 0.042292446 -0.057078082 -0.12841019 0.040640824 0.02720026 -0.027458137 0.014995061

action_model._continuous_distribution.mu.bias f4 [2]
00000000: d989 553a 6d11 873c
0.0008145846 0.016487801

action_model._discrete_distribution.branches.0.weight f4 [2, 128]
00000000: f24a 6c3d 3ba9 033d e51f 14bd a3a2 b73c
00000010: 0e29 04bc c220 6abd 6e68 bd3c 7035 51bd
00000020: 61fc 01bc e7ca 48bc 0c2c 05bd c15a 853d
00000030: 1a31 7f3c 4987 2d3d 816f 313d e287 67bd
00000040: 38a1 993b 3326 613c a1d2 1abd 02b6 78bd
00000050: 0d29 07bb 8afd d5bc 3b39 8ab9 edec ac3c
00000060: be63 843c 1bd0 af3c 65ff b23c 8cc0 193d
00000070: 88e5 26bd 3cd6 cc3c 3506 9bbd 5080 553d
00000080: 4568 063d a2b8 6d3c 0970 243d a48e d5bc
00000090: 3621 10bc b32f abbc 140e e3bc eca8 41bc
000000a0: d852 70bd 967c 1dbd d2ce ddbc 31ec 56bb
000000b0: 365a 38bc 8572 403d 8459 893c c310 993d
000000c0: c301 a9bc ef31 353c 9a7a b8bc cd45 2bbd
000000d0: 37d5 1d3d a387 6b3c 89e3 583d 4aa8 5c3c
000000e0: 3b95 933b b176 27bd 0018 cdb9 5f02 333d
000000f0: 3792 bdbc 5c57 42b9 df2a 1abd ca5c bc3c
00000100: 02d4 3a3c 4ce9 083d 12f7 733d 2e5c b2bc
00000110: 7425 bebd d82d efbb 2463 b43c a49e 2d3c
00000120: b887 103d eaf4 c23c 6bb6 643c 7595 323c
00000130: 3d33 42bc 9286 0d3d 33ad 013c 02db d13c
00000140: 6ae2 e23b 11c4 233c 36c4 723d feff 83bc
00000150: cd50 b83d 1220 1abc ed35 a1bc a9c5 9abc
00000160: 2408 bcbc df41 89bc 8b6d 2b3d 9805 92bc
00000170: 709b 52bc b1c9 e33b 7a26 f5bc 619f 603c
00000180: 6dc3 5a3c eb56 e53c 19cd 24bc ee71 1d3c
00000190: dae0 353d 0f2a 39bb 3bc8 8c3d 6a7f 633c
000001a0: 0c0e 983c 589d 093c 62bd 053b e5d7 87bc
000001b0: 56cc 22bd 012e 75bc c864 93ba c6f3 05bd
000001c0: 6137 80bd 53cd e43c 3d44 0cbd 3440 14bd
000001d0: bcc4 17bd 3099 aebc 4773 fcbc eb1d da3a
000001e0: 706b d6bc b83b 90bb 7392 fdbc 8993 7cbd
000001f0: 377f 54bd ac51 233c d253 463c 7190 8fbc
00000200: fbe2 a4bd cea6 f7bc bb68 3e3d df1c a0bc
00000210: fad2 913b 63f9 683d 2812 a8bc 4a75 333d
00000220: 8c75 223b 6ab1 cf3c 5cb7 0d3d f720 37bd
00000230: 1c47 53bb 058f 63bd e679 b1bc d37f 873d
00000240: 5730 36bc 1af3 e9bb 0743 0a3d 5b20 113d
00000250: 8944 aabb b83f f53c 3590 dd3b e92c 95bc
00000260: 84a5 9dbc d0f9 46bd cfcf 30bc 0ad8 38bd
00000270: e3dc e83c 0784 02bd 7869 8a3d 41b0 6abd
00000280: 838c 88bc f3e7 eabc 68b0 6fbd e550 013c
00000290: 2933 0b3c a54c 803c 9267 183c 7fe0 2e3b
000002a0: c969 973d 0284 f53c 488b 4a3c 6297 cc3b
000002b0: 8540 153c 36d0 22bd a342 75bc eb8e a6bd
000002c0: f2b3 503c 7f08 22bc 466b e03c 82c0 353d
000002d0: 3f5a dcbc b91f 2bbc ccf9 12bd 5de5 5ebc
000002e0: b33c 833b 752b c73c b83c 603b 442a efbc
000002f0: 7dc3 aa3c 7f6e 933c 04fe 2c3d 0816 22bc
00000300: 171d 06bc a9aa e9bc 079c 3ebd c4dd c53b
00000310: 9f0a b03d 25ad 013c ccde 1dbc cc25 69bc
00000320: 9262 60bd af28 f6bc 58af e1bb d1ef 183c
00000330: 3fba ed3b 951f 4bbd c18d 8738 8acc b4bc
00000340: bdbb bebc 431e febc da74 41bd 317d d83c
00000350: 14fa c1bd d7b6 cf3b f767 cd3c e579 8c3c
00000360: 1afd db3b a043 d43b d74c 52bd 5d14 333c
00000370: 2d3f ae3c d812 abbc e65f 143d c149 28bc
00000380: 21e8 3abb f46d 28bd a3b4 de3b 1031 83bc
00000390: 29e9 42bd 5b31 223c acbc 73bd 31bb aa3b
000003a0: 411f a6bb dc46 0a3c 2b16 9a3b c83d a33c
000003b0: b33f 083d 93fd 193d 2218 d439 3cbe bd3c
000003c0: f95b 413d 21a8 07bd fcb0 aa3c 18e9 2c3d
000003d0: 2a59 4f3c 4184 093d b4e6 5e3d 84e6 f7bc
000003e0: da17 c13c cbab 34bb c9da ca3c 7b9d 543d
000003f0: ea4a 123d 2ec6 94bc 211d 5dbc 968d 853c
0.05768866 0.032143813 -0.03616323 0.022416418 -0.008066429 -0.057160147 0.023121085 -0.051076353
-0.007933707 -0.012255407 -0.03251271 0.065114506 0.015575672 0.042365346 0.04331923 -0.056526072
0.004688408 0.013742018 -0.037798528 -0.06072045 -0.0020623833 -0.026121873 -0.0002636405 0.021109069
0.016160842 0.021461537 0.021850297 0.037537143 -0.04074624 0.025004499 -0.07569543 0.05212432
0.032814283 0.014509352 0.040145908 -0.026068993 -0.008796981 -0.020896768 -0.027716674 -0.011820059
-0.058672756 -0.038448893 -0.027076159 -0.003279459 -0.011251977 0.046984214 0.016766317 0.074739
-0.020630723 0.011059268 -0.022519398 -0.041814614 0.038533416 0.0143756 0.05295137 0.013467858
0.0045038736 -0.040884677 -0.00039118528 0.043703433 -0.02314101 -0.00018533826 -0.03763854 0.022993464
0.011403086 0.033425614 0.059561796 -0.02177247 -0.09284487 -0.007299166 0.02201993 0.010596905
0.03528568 0.023798425 0.013959507 0.010899891 -0.0118530365 0.034552164 0.007914829 0.025617126
0.0069239633 0.009995476 0.059269153 -0.016113278 0.089997865 -0.00940706 -0.019679034 -0.01889308
-0.0229531 -0.016755043 0.041852515 -0.017824933 -0.012854442 0.0069515337 -0.029925574 0.013709874
0.013352257 0.027995547 -0.010058665 0.0096096825 0.04440389 -0.0028253829 0.068741284 0.013885358
0.018561386 0.00839933 0.002040707 -0.016582439 -0.03974565 -0.0149645815 -0.0011245245 -0.032703184
-0.06260563 0.027929937 -0.034244765 -0.03619404 -0.037052855 -0.02131328 -0.030816687 0.0016640996
-0.026174277 -0.0044016503 -0.030953621 -0.061664138 -0.051879134 0.009968203 0.012104945 -0.01752493
-0.080511056 -0.030230906 0.046486598 -0.019545017 0.004450199 0.05687846 -0.02051647 0.043813027
0.0024789302 0.025353152 0.034598693 -0.044709172 -0.003223843 -0.055556316 -0.021664571 0.066161774
-0.011119924 -0.0071395757 0.03375533 0.035431247 -0.0051961583 0.02993761 0.0067615756 -0.018209891
-0.019243963 -0.048578084 -0.010791733 -0.045127906 0.02842564 -0.031864192 0.06758398 -0.057296995
-0.016668564 -0.028675055 -0.058517843 0.007892822 0.008496084 0.015661547 0.009302037 0.0026684103
0.07393224 0.029970173 0.012362309 0.006243632 0.009109621 -0.039749347 -0.014969501 -0.08132728
0.012738215 -0.009889721 0.027394902 0.044373043 -0.026898501 -0.010444575 -0.035882756 -0.013604489
0.0040050386 0.024312714 0.0034215879 -0.029194959 0.02084517 0.017997025 0.042234436 -0.009892948
-0.0081856465 -0.02852376 -0.046535518 0.0060383994 0.08595776 0.007914816 -0.009635638 -0.014230203
-0.054781504 -0.030048696 -0.0068873577 0.00933452 0.0072548683 -0.049590666 6.463705e-05 -0.022070188
-0.02328288 -0.03102029 -0.04723058 0.026426883 -0.09471527 0.006338935 0.025073988 0.017147968
0.0067135217 0.006477788 -0.05134281 0.010930148 0.021270359 -0.020883009 0.03622427 -0.010271491
-0.0028519707 -0.041120484 0.006796436 -0.016014606 -0.04758564 0.009899463 -0.059506103 0.0052103032
-0.0050696437 0.008439746 0.0047023497 0.01992692 0.033263873 0.037595343 0.0004045377 0.023162
0.047206853 -0.033119325 0.020836346 0.042214483 0.012655536 0.033573393 0.054419234 -0.030261286
0.023570944 -0.0027568217 0.024762528 0.051907998 0.035715975 -0.018160906 -0.013495714 0.016302865

action_model._discrete_distribution.branches.0.bias f4 [2]
00000000: e8f3 afbb e4f3 af3b
-0.005369652 0.00536965
